mnist/saved_models/model_epoch_35.pth (torch, 181338 bytes, 10 tensors)

conv1.weight f4 [6, 1, 5, 5]
00000000: 90e5 94be 173d d63d 4b00 a4bd 239a 813e
00000010: 089f 4d3d 97d0 853e a2b4 053f e371 733e
00000020: de18 c73d 107b 923e 1717 503e 0290 bc3c
00000030: 74c7 31be dd7e babd f89a 2a3b d4e7 46bd
00000040: cf1c cfbe 3fa6 81be faf6 9dbe 3067 81be
00000050: 9a69 a0bd 17e8 22bd 1038 90ba 717c 3c3e
00000060: 91d8 5dbe 83c2 a5be 30d1 12bd 7e6b eb3e
00000070: 24e7 7abe 6aca 37be 0400 cbbe a3db a13d
00000080: 1e7d 2e3f 39c5 733d 49a1 5c3d 4224 96be
00000090: 4ebf f2be bf32 b83e 60d9 b73e 37be b73d
000000a0: a41c 443c d339 1cbf 3ec1 05be d45d 9cbe
000000b0: d613 42bd b48f ba3e bc88 753d a040 393e
000000c0: 3392 81bd f43f 193e 16d0 28bd a3c5 e9bd
000000d0: ff9e bdbd 5bfb 963d fab8 7fbe a4d2 a6bd
000000e0: 016c d6bc cbee 8f3e 7eac d93e 4dc7 1fbe
000000f0: 9d98 6d3e d91b 2a3e 3979 013f f501 223f
00000100: fe21 eebd 283d 70bd e3ca 0dbf 44af 50be
00000110: b43f b83e 7f10 0f3e 421a 7f3c 644e 96be
00000120: a173 cabe 0678 b0ba 32d3 823e 372f b03c
00000130: 37f4 2b3e b05a d3bc 724e dabb 46cd a53d
00000140: 60dc 183e c319 683d f2be e2bd 941e 193c
00000150: a1f5 983e 64c2 ca3c b45e 17be e6d9 ccbe
00000160: e4d4 debd b962 a13e 299e 39be 9727 b8bd
00000170: fa8c efbd 2b83 ff3e 89d8 cb3e 8466 96be
00000180: 1258 823d d3e6 103e 55f7 02bd 914a 073e
00000190: de52 8f3d 2b04 6f3d cdd6 953e a089 93bd
000001a0: 8fe8 b13e ec2f a0bc fb23 16be bf03 75bd
000001b0: 96c8 d03d 3efc 963e 389d e8bd 4e78 83be
000001c0: e9f6 bebe 54b9 12bf 41b2 69bd c087 dd3e
000001d0: 8c1c 42be 2756 51bf 4546 67be d329 813e
000001e0: 2446 293e e03a 0b3f 32b9 0f3f 60dc dc3e
000001f0: 75b9 b1bc 07ae 593e f8eb 1c3e 4a4d 9bbd
00000200: 9868 0abd 6f25 c03d f6be 41be d32f 663e
00000210: 7a87 1e3e eb73 f1bd 05b8 94bd fb08 04be
00000220: 1f90 2a3f d87b 32be bb1d acbe 7d90 ca3d
00000230: dadc a13e c61b be3e e510 18bf 68a3 a63c
00000240: f0f1 25bc 117c a63e 3e6e 87be 7fc2 edbd
00000250: 761f e43c 855a 5dbd
-0.29081392 0.10460871 -0.080078684 0.2531291 0.050200492 0.26135704 0.5222875 0.23773913
0.0972154 0.28609514 0.20321308 0.023017887 -0.17361242 -0.091062285 0.002603231 -0.048560932
-0.40451667 -0.25322148 -0.3085249 -0.25274038 -0.07832642 -0.03977212 -0.0011003036 0.18406846
-0.21664645 -0.32374963 -0.035844028 0.45980448 -0.24502236 -0.17948309 -0.3964845 0.079032205
0.68159664 0.059514258 0.05386475 -0.29324538 -0.4741158 0.35976216 0.3590803 0.089718275
0.011969719 -0.6102573 -0.13061997 -0.30540335 -0.0473822 0.36437762 0.059944853 0.18091059
-0.063267134 0.14965802 -0.04121407 -0.11414649 -0.09258842 0.07372161 -0.24972907 -0.08145645
-0.026174547 0.28111872 0.42514414 -0.15603371 0.23202749 0.16612186 0.50575596 0.63284236
-0.11627577 -0.058652073 -0.55387706 -0.20379359 0.35986102 0.13971137 0.015570225 -0.29356682
-0.39541343 -0.0013463504 0.25551754 0.021506889 0.1679238 -0.02580008 -0.0066621834 0.080957934
0.14927816 0.056665193 -0.11071576 0.009345669 0.298749 0.024750896 -0.1478222 -0.40009993
-0.108804494 0.31520632 -0.1812674 -0.08991926 -0.11696811 0.4990476 0.3981364 -0.29375088
0.06364454 0.14150552 -0.031974155 0.13212039 0.069982275 0.058353584 0.29265442 -0.07203984
0.3474774 -0.0195541 -0.14662163 -0.059818026 0.10194509 0.2948932 -0.11358112 -0.25677723
-0.37297752 -0.5731404 -0.05705476 0.43267632 -0.18956202 -0.81772083 -0.225854 0.25227222
0.16530663 0.5438671 0.5614196 0.43136883 -0.021694878 0.21257792 0.1532439 -0.07583101
-0.033791155 0.0938214 -0.18920502 0.22479181 0.15481368 -0.11789688 -0.072616614 -0.12894051
0.6662616 -0.17430055 -0.33616433 0.0989084 0.3161381 0.37130564 -0.5940078 0.02034159
-0.010128483 0.3251653 -0.26451296 -0.11609363 0.027847033 -0.054041404

conv1.bias f4 [6]
00000000: f9c4 96be 4a39 a9bf 2886 05bf 89c0 3abf
00000010: 0eaa 39bf 6da5 4ebf
-0.29447153 -1.3220608 -0.5215783 -0.72950035 -0.7252511 -0.8072117

conv2.weight f4 [16, 6, 5, 5]
00000000: 9f85 8e3d 173d 98bd 7038 263e d682 1b3e
00000010: caec 1cbb d16b 8b3d 0854 cd3c f63f c83e
00000020: d2c0 123e 8879 823e ea52 573e 8375 9f3e
00000030: 2992 393e 5b12 43bd dfd9 9a3e 53fe 31bf
00000040: 380e 1cbf f82e 02bf e0bc afbe afe0 b5bd
00000050: d020 96bf f3a9 8ebf c88b a5bf fc12 03c0
00000060: f66c 1ec0 30e7 8e3e df33 84be 9d02 76bf
00000070: 0a5a 933e ec02 dcbd b0f8 09be 4c53 03bf
00000080: c4d6 c8be df6d 2f3e b6f6 ba3b 0222 5d3e
00000090: 0b94 493e 8bdf 7dbe 332a 54be 5ec8 0dbe
000000a0: 4f79 7f3e 4677 023b 0f8e cabe b89d 73bd
000000b0: cb8c adbe 0ea2 40be 5d0a 13bd 2ac0 0bbf
000000c0: 4504 873e db6a 1dbf 6562 7a3e 0f65 b73e
000000d0: 2c31 6f3c 62ff 13be cdfa 663e 65a6 a6be
000000e0: 8b7d 793e 2424 1f3e ff0b 3ebc 9cf0 333e
000000f0: 066b 2e3e d309 903e 9b19 d2be 0b78 533e
00000100: f553 a83d 62fd 1bbf c449 82bf 5e12 c1bf
00000110: fac6 5fbf 0669 0dc0 46b4 103e f091 31bd
00000120: 49b3 31be 9fad f6be e1b7 45bf b5d1 5a3e
00000130: 3f98 603f b058 97be bb55 06bf d113 36be
00000140: 4ecd 0b3f 4f1e bc3d 4ef5 e6be 8b22 92be
00000150: 4c10 a9bd 798f 59bc 26b1 59bf d460 40bf
00000160: 5dbc 3bbf b26e 9dbf 2956 8dbe eb4e 8abf
00000170: c475 d9bf 7ae7 fabf 2e4e abbf 0b3a 3bbc
00000180: 861f 3cbe 0d32 6dbf 5a64 e4be f1f1 8ebf
00000190: 1fff ce3e cd83 febb 23a8 49be 4cd8 6cbd
000001a0: 7a8e 4a3e 9ea5 a63d aa1b 7d3e 61db 6a3d
000001b0: 6ce8 37be d3ea 193f bd24 41be 9077 92be
000001c0: 10bc b2be 0c6e 09be 3078 313e 10dc f23e
000001d0: 83db 7a3e 39d0 cd3c a813 dcbe 0c21 ad3d
000001e0: 112c 903e 5514 f23e db2c 903e ea9b 823e
000001f0: 16fd 903e 2a80 48be 6293 bdbe 70ce 783e
00000200: b1e3 be3d c100 193c ecdf 893e 287e e4bd
00000210: d976 a23e 9a3f 64bd cb39 0bbf 6b82 4f3e
00000220: 054f 07be 549b 68be 916f 6ebf a20e 69bf
00000230: d391 2dbe 5203 bebe 48ba 74bf 3162 06c0
00000240: a75c acbf e277 75be cfcf 323c 57f2 91bf
00000250: c3e8 2dbf 5c89 d0bf bf57 5bbf ca0f 4abe
00000260: 5461 62be 9ab1 953e e0d3 be3e a19a eebe
00000270: 15c9 7abf 8cc3 67bf 163a dfbe c929 b9bb
00000280: 0d0b 803e 061e 513e 7327 8b3e eac0 653e
00000290: d5f1 0f3e fa94 c5bd c00c b83e c1b5 b63e
000002a0: 0b0e 413e 272b 353e 3cd5 b6be 649b 35bf
000002b0: 3f64 6cbf 10fe 30bf 53ec bbbe 3785 673e
000002c0: 5eab 263e 6728 cdbe e693 9c3d 6979 4b3e
000002d0: ad3c da3d cab6 f1bc dcc4 2fbe 1575 7bbe
000002e0: 9587 0bbe 0637 b93e 7627 3e3f 8a8c 8a3e
000002f0: 3e09 58be 9f43 29bf 135c 07bf 7f8c 4d3e
00000300: 9c7d c5bd ed71 80bf 6f2a 773e e921 1fbe
00000310: 1798 99be 2f56 cdbe e617 10bf 1796 e43e
00000320: b080 4d3e 470b c63d 8139 c3be c4bf 01be
00000330: 3574 003e 2bf4 0a3f a483 523e 32f6 f2bd
00000340: efb1 d8bd 6bc5 a6be a839 b6bd fc46 b93e
00000350: 813d b03e e9d5 003f ac0a 0b3e 8d24 f0be
00000360: 083f 8ebe c463 d73c b5ad 30be f9de fbbd
00000370: 6d40 233b 4704 d2be 4ed4 2ebf bd91 56bf
00000380: aca4 07bd 4804 833e 8874 3f3e bb8b 9abe
00000390: a63b 313e 4045 a5be 2465 22be 5d19 95bd
000003a0: c86d adbd 168f 0f3d 3008 ddbe c4b5 ed3c
000003b0: a84c f7bc 8240 e7be 55a7 d53e cc62 f3be
000003c0: 3182 ecbc c191 1dbf c253 80be e678 0c3f
000003d0: c8c6 c43d 38dd cb3e 42fb 813e d879 2ebd
000003e0: 9ea6 763e 84c8 21be bd35 083e 4290 bfbe
000003f0: 1be5 0abe c61b 903e 22bb 3b3e 7b63 8dbd
0.0695908 -0.07433527 0.16232467 0.15186629 -0.0023944848 0.06807674 0.025064483 0.39111298
0.14331368 0.25483346 0.21027723 0.31144342 0.18122162 -0.047624927 0.30244347 -0.6952869
-0.60959196 -0.5085292 -0.34323788 -0.088807456 -1.1728764 -1.1145614 -1.2933283 -2.0480337
-2.4754004 0.27910757 -0.25820825 -0.9609774 0.28779632 -0.10742745 -0.13473773 -0.51298976
-0.39226353 0.17131756 0.0057056798 0.21595004 0.1968538 -0.24792306 -0.20719223 -0.13845965
0.2494862 0.0019907518 -0.39561507 -0.059476584 -0.3389648 -0.18811819 -0.035898555 -0.54590094
0.26370445 -0.61491174 0.24451597 0.3581929 0.014599126 -0.1445289 0.2255661 -0.32548824
0.24364297 0.1554113 -0.01159954 0.17572254 0.17033014 0.28132495 -0.4103516 0.20651262
0.082191385 -0.60933506 -1.0178761 -1.508373 -0.8741299 -2.2095351 0.14131269 -0.043352067
-0.17353548 -0.48179337 -0.772337 0.2136906 0.8773231 -0.2955985 -0.52474564 -0.17780997
0.54610145 0.091854684 -0.45109028 -0.2854198 -0.082550615 -0.013278835 -0.8503593 -0.7514775
-0.73334295 -1.2299407 -0.27604797 -1.0805334 -1.6989064 -1.9601891 -1.3383234 -0.011427413
-0.183714 -0.92654496 -0.44607812 -1.1167585 0.40429017 -0.0077671767 -0.19693045 -0.057823464
0.19780913 0.08137058 0.24717584 0.057338122 -0.17959756 0.6012394 -0.18861671 -0.28606844
-0.34909105 -0.13420886 0.17331004 0.4743352 0.244978 0.025123702 -0.42983747 0.08453569
0.2815862 0.47281137 0.28159222 0.25509578 0.2831809 -0.1958014 -0.37026507 0.242975
0.093207724 0.009338559 0.2692865 -0.11156875 0.317313 -0.055724718 -0.5438506 0.20264594
-0.13213737 -0.22715503 -0.93138987 -0.9103795 -0.16950159 -0.37111908 -0.9559674 -2.0997431
-1.3465775 -0.23971513 0.010913803 -1.1402081 -0.6793329 -1.6291919 -0.85680765 -0.19732586
-0.2210744 0.29237062 0.37271023 -0.46602347 -0.97963077 -0.90532756 -0.43599004 -0.005650733
0.2500843 0.2042161 0.27178535 0.22436872 0.14057095 -0.09647556 0.35947227 0.35685542
0.18853013 0.17692243 -0.3570956 -0.7094023 -0.92340463 -0.6913767 -0.3670374 0.22609411
0.16276309 -0.40069887 0.07645397 0.19870533 0.10656104 -0.029506106 -0.1716494 -0.24556382
-0.13625939 0.36174792 0.7427896 0.27060348 -0.21097276 -0.66118807 -0.5287487 0.20073126
-0.09643099 -1.0034767 0.24137281 -0.1554028 -0.29998848 -0.40104815 -0.56286466 0.4464576
0.20068622 0.0967012 -0.3812981 -0.12670809 0.1254433 0.5427882 0.2055803 -0.11863364
-0.10580813 -0.32572493 -0.08897716 0.3618697 0.34421924 0.503264 0.1357829 -0.46902886
-0.27782464 0.02629269 -0.17253764 -0.12298388 0.0024910227 -0.41018888 -0.682927 -0.8381613
-0.033116028 0.25589204 0.18696797 -0.3018473 0.1730791 -0.32279396 -0.15858895 -0.07280228
-0.08468205 0.035048567 -0.4317031 0.029017337 -0.03018792 -0.45166403 0.41729227 -0.47536314
-0.028870674 -0.6155053 -0.25063902 0.54871976 0.09608227 0.39817214 0.25387007 -0.042596668
0.24086997 -0.15799147 0.1330175 -0.37414747 -0.1356396 0.2814619 0.18333104 -0.0690374

conv2.bias f4 [16]
00000000: 268d 613d 13ae 7ebe c3c1 afbe 8200 5c3d
00000010: feef 623b c758 6cbd a625 a7be 1da3 5fbe
00000020: bb0e 6bbe 5443 99be 2018 cfbd 62df b23e
00000030: 2106 2f3e 1e5c 96be e1b6 ebbd f73b f8bc
0.05506625 -0.24871092 -0.34327516 0.05371142 0.003462791 -0.057701852 -0.3264591 -0.21839567
-0.22954838 -0.2993418 -0.10112023 0.34936053 0.17092182 -0.29367155 -0.11509491 -0.030302031

fc1.weight f4 [120, 256]
00000000: ced8 f2bd 8d1d 0ebf 69e5 21bf ce62 35be
00000010: 0f15 abbb 5f6b dbbe 47e9 fabe c37c aebd
00000020: 09cb ffbe be6a fb3d ff10 823c 5dbe 113e
00000030: 75a9 e2be b1ab bcbe 44c9 3bbf 0cdf 763d
00000040: 125d d7bd 9f52 30be 1d03 bf3e 0653 f33d
00000050: dff7 48be 00d7 5fbc 781e 66bc 699b 6abd
00000060: e154 aebf d850 68bf 2993 4cbe 366e 383f
00000070: e0e6 77bf 2b3b 113e 09c9 d83e 1d86 8b3d
00000080: 6b31 dc3e b4f4 993e 73aa db3d 5725 39bf
00000090: 6638 0b3f 97dd 493f 1088 2c3f 3e71 ce3e
000000a0: d79f cebe 9893 a8be d86c d83e 13e2 c3bd
000000b0: e48d a1be edf0 b43d c965 a13d 2b88 ed3d
000000c0: 24d2 d83d c8f2 833e 245d a0bd 9eb8 81be
000000d0: 8997 61bf b129 50bf d6a4 06bf 25d4 0f3f
000000e0: 9528 7f3c f52f dabe cd54 15be 405b 173e
000000f0: f277 493f 4ed8 e73e 70b7 17be abcd deba
00000100: c5dd 1d3f 2df8 5abf b440 94be 840a b73d
00000110: 5012 5dbe df9c 5dbe 0393 a6be 5bad 4ebe
00000120: 503b febe f4d7 26bf 6185 4cbe bbfe eabd
00000130: 8402 3b3f b17f d23e 1a06 043f 808e 2c3e
00000140: 2350 57bf 4c02 843e aa0d 033e d682 513e
00000150: dd63 9ebe 0bbf fd3c 693c fa3d 4449 4a3d
00000160: b10d ef3e f17a cdbe 359d 7a3d 071c cdbc
00000170: 041f 603e a213 0ebf 7e93 9abe e7dc 81be
00000180: 18d3 9d3e 3d74 163e 0710 30be 08d6 16bf
00000190: c2e4 ff3e 9a0e c8be 59ed 0d3e 5a8a af3e
000001a0: 01fc 8fbf fe71 a3bd 95fa 373e 7d08 68be
000001b0: 6ece f43e 35e4 db3e 0478 58be 7bdd a1be
000001c0: 70a3 39be a8de a83d cabd 803e 82d8 31bf
000001d0: 497a 06bf 38d3 363f 9f95 6b3e 1e5c a7bd
000001e0: 794a 173c 4e1b 313e 6c1e 4b3d 094c 9f3e
000001f0: 37cd bdbe e1a5 29be bba0 88bd dc6f e33d
00000200: be8c eb3d 5386 df3e 8f63 13bd f29f 57be
00000210: 5d2b 7fbf 0155 8ebe 8ced 14bc b1a2 64be
00000220: 1965 f6bf c6d6 40bf fb09 323e bd74 ca3e
00000230: fc7e c5be 4930 de3e 5e3e 083e a8d8 a53c
00000240: 6656 89bd 1f66 50bf 824e 253e 21cd 0d3f
00000250: 69a9 6bbe 6244 71bd 8dec 41bf f92e 55bf
00000260: 5c09 3cbe effd 903d ddf7 c8bd 9adf 63be
00000270: 162c 1b3f 0145 73be 16fe 3cbe 8e58 a6be
00000280: 081b 2fbf b998 bb3e e165 b33e 052c 0b3f
00000290: 8f04 e6bd c3da 1abe 2cd7 f1be bd1d e0be
000002a0: 9093 b03c 5847 9ebf c41e 43bf ea34 1b3c
000002b0: 3259 f03a 739b 86be 8962 10be 4920 8cbe
000002c0: 26e7 89be 9975 9abe 3731 e93e 511e 363f
000002d0: 8353 8a3d b5dd 173f 246d 11bf ea42 8bbd
000002e0: 6303 3bbe c644 e73e 40c4 28bf 8a0a c2be
000002f0: 0630 1a3d 8c87 64be db8e a43e d6a7 8c3e
00000300: 4bd2 1abe 60df 623e 228a 03be cdc4 2b3e
00000310: 8463 d5be 5ea2 eb3e c8e2 46be a937 9ebe
00000320: eabe a2be c6ff 4f3d ee9e 573e 5adc 88be
00000330: 0da9 da3d 58e5 083f 1f4d f73e b28f d8be
00000340: 7fd2 7d3f b321 bf3e e19c 0dbe fffb 40bc
00000350: ea2f 32bf 5065 19be 058d 723b 5954 413f
00000360: bdd6 23bd 1c8a 57bf 80ed 67bd 09e9 e53e
00000370: 6aa3 353e b275 5f3d f984 6e3e 8f33 3fbd
00000380: c2f7 1cbe 092f 3bbd bb2e b7bf c3c1 1ebf
00000390: 699a 6d3f 54d1 6e3f f0bb c7be 6db5 c5be
000003a0: 00bc b13d 0dcb 353f 7053 0f3f fc86 923e
000003b0: a42a a7be a98f a83d c20f af3c 9b17 b7be
000003c0: 8103 fd3d 6960 d63e cb48 3dbf 021c 64bf
000003d0: 5da4 b33e 91ac 8e3e c524 b83e 1039 0ebe
000003e0: 3988 5a3e 3c80 cc3e 06fb d4be d120 f93e
000003f0: d017 eb3e 8636 023f cac5 f83e 8081 7b3e
-0.118577585 -0.5551384 -0.6324068 -0.17713472 -0.0052210162 -0.42855355 -0.490061 -0.0851989
-0.4995959 0.12276219 0.015877245 0.14232774 -0.4426991 -0.3684974 -0.7335398 0.060271308
-0.10515799 -0.17219017 0.37307063 0.1188107 -0.19625805 -0.0136621 -0.01404535 -0.057277117
-1.3619653 -0.9074836 -0.19978012 0.7204317 -0.9683666 0.14182727 0.42340878 0.068126895
0.43006453 0.30069506 0.1072587 -0.723226 0.5438293 0.78853744 0.67395115 0.40320772
-0.40356323 -0.32925105 0.4227054 -0.095646046 -0.31553566 0.088350154 0.07880742 0.115982376
0.10586956 0.25771165 -0.07830265 -0.25336164 -0.8812185 -0.81313616 -0.5259527 0.5618308
0.01557364 -0.42614713 -0.1458313 0.14780903 0.7869865 0.45282215 -0.1481607 -0.001699855
0.6166652 -0.85534936 -0.28955615 0.089375526 -0.21589017 -0.21641873 -0.32534036 -0.20183317
-0.49654627 -0.6517327 -0.19972755 -0.11474367 0.73050714 0.41113046 0.5157181 0.16851234
-0.84106654 0.25783002 0.12798181 0.20460066 -0.30935565 0.030974885 0.122185536 0.049386278
0.46690133 -0.4013286 0.06118508 -0.025037779 0.21886832 -0.5549871 -0.30190653 -0.25363848
0.30825114 0.14692779 -0.17193614 -0.58920336 0.49979216 -0.3907364 0.13860072 0.3428524
-1.124878 -0.07980727 0.17966683 -0.22659488 0.47813743 0.42947546 -0.21139532 -0.3161429
-0.18128753 0.08245593 0.25144798 -0.6947099 -0.5253034 0.71416044 0.23006295 -0.08171867
0.009234064 0.17295572 0.04958956 0.31112698 -0.3707063 -0.16567184 -0.06671282 0.1110532
0.11501454 0.4365717 -0.03598362 -0.21057108 -0.9967554 -0.27799228 -0.009089839 -0.22327687
-1.9249603 -0.7532772 0.1738662 0.3954219 -0.38573444 0.43396214 0.13305041 0.020244911
-0.06705932 -0.81405824 0.1614323 0.55391127 -0.23013844 -0.058903106 -0.7575157 -0.832748
-0.18362945 0.07079684 -0.09812901 -0.22253266 0.60614145 -0.23756792 -0.18456301 -0.32489437
-0.6840062 0.36639956 0.35038665 0.54364043 -0.11231338 -0.15122513 -0.47234476 -0.43772689
0.021554738 -1.2365522 -0.7621882 0.009473065 0.0018337129 -0.26290473 -0.14100088 -0.27368382
-0.26934165 -0.30167845 0.4554536 0.7114001 0.0675421 0.59322673 -0.5680716 -0.06799872
-0.1826301 0.45169657 -0.65924454 -0.37898666 0.037643455 -0.22317332 0.3214024 0.274718
-0.15119283 0.22155523 -0.12845662 0.16774292 -0.41677487 0.46022314 -0.19422448 -0.3090184
-0.3178628 0.050781034 0.2105672 -0.26730615 0.10676775 0.5347495 0.48301026 -0.4229713
0.99149317 0.37330398 -0.13829376 -0.011778831 -0.6960436 -0.14980054 0.0037010324 0.7551933
-0.039999712 -0.84195113 -0.056622982 0.44904354 0.17738119 0.054555602 0.23292913 -0.04668003
-0.15328887 -0.045699153 -1.4311136 -0.62014407 0.92813736 0.9328816 -0.39010572 -0.3861498
0.08678436 0.71012956 0.5598669 0.2861861 -0.3264972 0.08230526 0.021369819 -0.35760197
0.12354184 0.4187043 -0.739392 -0.89105237 0.35086337 0.27866033 0.35965553 -0.13888955
0.21341027 0.39941585 -0.41597766 0.4865785 0.45916605 0.50864446 0.485884 0.24561119

fc1.bias f4 [120]
00000000: 3f5f 4cbe 6e29 83be 4208 4bbf 8671 14be
00000010: 3cb7 96bb 2d78 13be 5a80 d3be 7c4b 14bf
00000020: e23b 253e 3cda 82bf c271 793e 7f5f fdbe
00000030: ebd9 1ebc 3060 66bf 5209 98bd 4550 b3bd
00000040: b99b 0fbf 6ebc 3abe e189 f1be 76b4 50be
00000050: 3c44 23bf 49d4 a6bd a5f7 99be b399 983c
00000060: 361f 32be e46c b3bd 8b55 74bd 3ec4 c5bd
00000070: 51c6 473e 3d31 823c 5540 11bf 476f 5f3e
00000080: cb56 28bf 7bb5 c6be 6e2b 553e 2907 1ebf
00000090: 3941 9cbe aedc 6fbd a632 acbd 90a3 b1be
000000a0: 4099 6cbe f3ab 88bf 2ae1 6ebd 36f7 7fbe
000000b0: 5cd6 90bd f3b2 92bf c4fe b5be bc9a 2cbf
000000c0: ba78 0b3e e8e3 f33d 9a43 823e 1c5b 903e
000000d0: 6cc3 91bf 6f6e b0bd 08a1 8dbe 3390 9ebd
000000e0: 9166 a5be 7945 46bd d125 68bd 0fbd a4be
000000f0: 9f90 03bf e1c0 d3bd 2868 debe cb49 82bf
00000100: 1280 a0be 1777 783a fe10 30bf 3a49 0e3d
00000110: 6119 a2bd a8ab 09bf 0d3c 843c f5c1 8fbc
00000120: 55dc a0be e510 a7bf a2b0 e03c 38f7 1bbf
00000130: 029c a8be aaad 06bf a07f 7ebf 74df 8bbd
00000140: 51cb 1cbe ced9 5dbf 1338 21bf ac63 b2be
00000150: 6d0c 82bb 919b 0abe 8ca9 14bf 7ea9 5e3d
00000160: 928c 933d e34c 1dbf c447 f7be 1f5e adbe
00000170: 8e99 b83d c740 58bf b572 53bf ba80 373e
00000180: e900 f6bd a391 6c3c 0f9a 9abe 0002 90bf
00000190: c387 1cbd 9eeb f1bd 9053 e6be 230e 04be
000001a0: c8b1 0dbe c217 dcbe 075a 55bf 8e07 e5bd
000001b0: 1460 0cbf a045 45bd 670c aebe 488e f2bb
000001c0: bf9f c2bb 60c4 52bc 68e6 25bc d2e8 b4be
000001d0: fcea be3d 53e9 e23b a560 0fbf 52a8 f1bc
-0.19958209 -0.25617546 -0.79309475 -0.14496431 -0.00459948 -0.14401312 -0.41308862 -0.5792768
0.16136125 -1.022285 0.24359801 -0.4948692 -0.00969551 -0.8999052 -0.07423653 -0.087555446
-0.5609699 -0.18235943 -0.47175506 -0.2038134 -0.6377599 -0.08145959 -0.3007175 0.018627977
-0.17394719 -0.087610036 -0.059651893 -0.09656571 0.19509245 0.01589262 -0.5673879 0.21819793
-0.65757436 -0.38810334 0.20817348 -0.61729676 -0.3051851 -0.058560066 -0.08408098 -0.346951
-0.23105335 -1.0677475 -0.058320202 -0.24996647 -0.07072136 -1.1460861 -0.35545933 -0.67423606
0.13620272 0.11908704 0.254422 0.2819451 -1.1387763 -0.086148135 -0.2766192 -0.077423476
-0.32304814 -0.048406098 -0.05667669 -0.3217549 -0.5139255 -0.10339523 -0.4343884 -1.017877
-0.3134771 0.0009478195 -0.6877593 0.034737803 -0.07914997 -0.5377755 0.016141916 -0.01754854
-0.314181 -1.3052031 0.027427975 -0.609241 -0.32931525 -0.5260874 -0.9941349 -0.0682973
-0.15311934 -0.8666047 -0.6297619 -0.3484167 -0.0039687664 -0.13535906 -0.5807121 0.05436086
0.07204546 -0.61445445 -0.4829694 -0.3386087 0.09013663 -0.8447384 -0.82596904 0.17920199
-0.12011892 0.014439019 -0.30195662 -1.125061 -0.03821541 -0.118125185 -0.44985628 -0.12896018
-0.1383735 -0.42986876 -0.83340496 -0.111830816 -0.54834104 -0.048162103 -0.33993837 -0.007402215
-0.0059394534 -0.012864202 -0.010125734 -0.35333878 0.093221635 0.006924787 -0.5600684 -0.029499207

fc2.weight f4 [84, 120]
00000000: 12d1 1e3c a385 92be 09fd 32bd b5fd 30bf
00000010: 2b95 cc3d 3e19 babe ae97 ce3e a0de 4e3e
00000020: 5d5e b13d aff7 9b3e 660e fc3c efe8 c43e
00000030: 11e1 83bd 5e7f fd3e 417e 1dbd c09f 503c
00000040: 9b1c 073f 98c0 04be 3ef4 cabe bc97 36bf
00000050: cbe1 28bf 7e26 ca3c 0834 9dbb afc6 dcbc
00000060: a4ce 54bf a45c 533d c1df d33d ceab 5dbd
00000070: 0226 d2be bc5d c33c dcc4 b63d 2279 493e
00000080: 48c1 abbe a1df a1be 1f1a 8a3e b80e bebe
00000090: 96dc 46be 07e8 41bc 0946 d8be f747 533e
000000a0: afc4 a3bd 2648 293f be7f 943c 4133 c03d
000000b0: cc27 fbbd 9df1 39be 0773 87be 5a50 f43e
000000c0: 8247 e9bd 576f 0abf ab19 143e 401e 75bf
000000d0: c8bd 1cbf 4d82 3bbf 6cbd 8fbe 1beb 523d
000000e0: 0ea5 8dbe f4dd bdbd b702 4a3e f397 c6be
000000f0: b039 6c3e fdd1 523d 1877 82be 91a4 55be
00000100: 206b 2d3f 9a9b a33e 6d0f 243d 1efd e6bd
00000110: 209a 643e a417 4ebf 729b a1bb f3c3 6bbd
00000120: 9e66 18bf 603d e83e 86b7 163d de90 de3e
00000130: 7783 54bf bb94 05bf 44e5 43be 19a8 49be
00000140: 546e 26bf a5f3 b13d 9f53 4f3c cfd3 523e
00000150: 56ed e83c 706c 54bd 01c9 043e 9058 0b3f
00000160: 5660 9abe e5db ca3d 7ae4 d83d 0692 203f
00000170: d4a7 c2be 4d2f 3e3e c119 75be 32ff fc3d
00000180: 32b8 603d 9724 3bbf 57b6 a13e 5bbf f73b
00000190: 5bad 893e 5a2c 07be 88c6 40be 35ca 633e
000001a0: 16dc da3e 2bdc 0c3f ca1d 8cbd 2a76 90bd
000001b0: c0b5 483e 1b2d 0a3e 7fe5 30be d16e 633d
000001c0: 735d a03d 2877 7cbc 58cf 36bf aad9 403e
000001d0: 40d1 483d 0695 38bd aa09 6dbe 6946 a0be
000001e0: 7728 15be 932d 0cbf 97f2 813c 1bd2 0bbe
000001f0: 2509 d1be c2c7 bb3e 41d7 5ebe d38b bf3e
00000200: e4f1 d43e 612d 8d3e 5eda f1be e690 0d3e
00000210: 1064 643c 1002 04bd 4517 d13c ce09 39bd
00000220: 5102 34be 7f57 ab3e 9a70 b13e b61e 1a3e
00000230: 440e d73e 7989 30bd 1bca 033f 7219 873d
00000240: e2b8 883e ec33 71bd 9cc6 8abe 424d f9bc
00000250: 1ae1 f43d 36e2 48bd 02a3 8ebe d94d 0b3e
00000260: 7398 ad3e fe1c 26bb 59eb 08bf 0d41 fa3e
00000270: 79af 6bbf b5b8 35bd 2f06 9dbd dc9d ddbe
00000280: 84e0 ffbe fa7a 373e dd08 283d ffe1 0a3e
00000290: 579a 5cbc 9aea 463f 3b69 40bf 6024 4e3e
000002a0: d707 c83e 1822 673e 53c2 d33c 30a1 83bd
000002b0: 351d 17bf 2522 1fbe 57c7 48be cd69 e0ba
000002c0: 49dc 4dbe e82e 8b3e a9ac c43c 8605 fd3d
000002d0: cfb2 6ebf f57d 54bd fd5d 303e 9b1c 913e
000002e0: 70a1 80be a276 823e d392 0a3c 7d30 8f3e
000002f0: adc4 1dbe 0109 e2bd 3ab0 773e 9cbf 8a3c
00000300: 8996 0e3d a43a 7fbc 490f 23be 8e56 da3e
00000310: ee59 163f 0a91 e6be 295f d03e 7572 eebe
00000320: c8c5 12be 94b9 a53d 9126 613e 65c5 243e
00000330: 34a0 2c3e ec25 d3be a78b e23e 6f7a b2be
00000340: 950a 3bbe 8669 953e d476 a8be 5ccc 9a3e
00000350: e90e 36be 4540 d13e faf8 243f 2d4c cdbe
00000360: b5f8 bdbc bfae 2c3e b1fb f5be 1ace b03d
00000370: 46bc fbbd 35d4 2c3e 2267 943c bd6f 7cbe
00000380: e63c 373f fdc8 4bbf 8259 053e fc05 813d
00000390: 951f 973d 071d ffbd c063 c83d 8846 7dbe
000003a0: da5b f3bc edb2 4fbd 82a6 d93d f454 063e
000003b0: 609e ddbd efec ef3b 81b3 183e 1b3f d83e
000003c0: 6fe9 0a3f e302 a03e 255d 31be ba53 ccbe
000003d0: f6ee 933e ef9c 47be ee0a 693f ab81 05bf
000003e0: 2ce8 06bf 116d 283f 11fc 5bbf 2eeb 6c3e
000003f0: 4ada 68bd a633 2f3e de70 a03c aff3 763a
0.009693401 -0.28617582 -0.043698344 -0.69137126 0.09989389 -0.36347383 0.40350097 0.20202112
0.086605765 0.30462405 0.030768584 0.38458964 -0.064394124 0.49511236 -0.038450483 0.0127334
0.52778023 -0.12964094 -0.39639467 -0.7132528 -0.6596953 0.024676558 -0.0047974624 -0.026950208
-0.8312781 0.05160202 0.10345412 -0.054118924 -0.41044623 0.023848407 0.08924267 0.19675115
-0.335459 -0.31615928 0.26973054 -0.37120605 -0.19420084 -0.011835105 -0.42240933 0.20632921
-0.07996499 0.66125715 0.018127318 0.09384776 -0.1226345 -0.18158574 -0.26454946 0.47717553
-0.11390592 -0.5407614 0.14462917 -0.9574928 -0.61227083 -0.732457 -0.28074205 0.051493745
-0.2766499 -0.0927085 0.19727598 -0.38787803 0.23068881 0.05146979 -0.25481486 -0.20863558
0.67741585 0.31954652 0.040053774 -0.11278747 0.22324419 -0.8050482 -0.0049318606 -0.05755992
-0.5953158 0.45359325 0.036796115 0.434699 -0.830131 -0.5218007 -0.19130427 -0.1969303
-0.650121 0.0868905 0.012654214 0.20588611 0.028433483 -0.051861227 0.12967302 0.5443201
-0.30151623 0.09905223 0.105904534 0.62722814 -0.38018668 0.18572731 -0.23935606 0.12353362
0.054863162 -0.73102707 0.31584427 0.007560653 0.26890072 -0.13200513 -0.18825734 0.22245105
0.42746037 0.5502345 -0.06841619 -0.07053788 0.19600582 0.13493769 -0.17275046 0.055525605
0.07830324 -0.015409268 -0.7141013 0.18833032 0.04902768 -0.045063995 -0.23148218 -0.3130372
-0.14566217 -0.5475704 0.015862746 -0.13654368 -0.4082729 0.3667584 -0.217618 0.37411365
0.41590798 0.27573684 -0.47236913 0.13824806 0.013939872 -0.03222853 0.025523791 -0.045175366
-0.17579009 0.33465192 0.3465622 0.15050778 0.4200307 -0.043099854 0.51480263 0.0659665
0.26703554 -0.058887407 -0.27104652 -0.030432347 0.11956997 -0.049043857 -0.2785874 0.13603915
0.33905372 -0.002534687 -0.5348411 0.48877755 -0.92064625 -0.044365603 -0.07667195 -0.432845
-0.4997598 0.17918006 0.041024078 0.13562773 -0.013464532 0.77701724 -0.7516057 0.20131063
0.3906848 0.225716 0.025849497 -0.064272285 -0.5902894 -0.15540369 -0.19607292 -0.0017121375
-0.20103563 0.27184224 0.024008112 0.12354569 -0.9324159 -0.051877934 0.17223354 0.28342137
-0.25123167 0.25481135 0.008457857 0.2796668 -0.15407057 -0.110368736 0.24188319 0.01693707
0.03481153 -0.015577946 -0.159238 0.4264416 0.5873097 -0.4503253 0.406976 -0.465717
-0.1433326 0.08092037 0.21987368 0.16090925 0.16857988 -0.4123987 0.4424717 -0.34859034
-0.18265755 0.2918207 -0.3290316 0.3023404 -0.17779125 0.40869346 0.6444241 -0.4009718
-0.023189882 0.16863535 -0.48043588 0.08633061 -0.1229177 0.16877826 0.018115584 -0.24652
0.715773 -0.7960356 0.13022426 0.062999696 0.07379071 -0.124567084 0.09784651 -0.24733937
-0.029706884 -0.050707746 0.10627462 0.13118345 -0.10821223 0.007321946 0.14912225 0.42235646
0.5426244 0.31252202 -0.17320688 -0.39907628 0.2889325 -0.19493459 0.910323 -0.5215098
-0.52698016 0.6579142 -0.859315 0.23136589 -0.0568488 0.17109546 0.01958507 0.0009420467

fc2.bias f4 [84]
00000000: deec 04bf 189e 16bf 7e36 84bf f5c7 afbc
00000010: 8756 14bf 935a 48bf 79c3 1abf 0025 51be
00000020: bc4a 21bf a3d9 37be 98de 21bf b4f1 44bf
00000030: 0daa 19be e3a0 0dbf c41b f3be ad4f 4abd
00000040: 6cf7 07bf fbe9 3fbf 42c9 6abf 76bc 50be
00000050: af60 fabe f893 ebbe 53c6 5dbf 2fc5 92bd
00000060: 3468 1bbf 89b1 d3be 5861 a4be ac6c 17bf
00000070: 9338 d6be f9d7 803c 6294 22bf 6407 f7be
00000080: 8458 d8be 4574 a2bf 0cdb 61bf 98a9 efbd
00000090: 8d21 a7be fdce 7cbe 8309 a2be 9578 eebe
000000a0: 7d3b fcbd 197b 2ebf 7bff c3be 0b3c 37bf
000000b0: 37b3 b8be 4d17 d6be 3d31 f4be a04c 29bf
000000c0: 12d0 383e 92b2 e3bd 77cf ecbe ad0e 05bf
000000d0: a9a4 3ebf 5e8e 05bf 05ab 59be dfc8 26bf
000000e0: f920 f8be 9cfa 20bf 2d78 7dbe 187d 57bf
000000f0: e259 5dbf 3663 efbe 819d c9be b94b 2bbf
00000100: bfc0 27bf ff00 5dbf 33ef 7ebf 7aa8 1ebf
00000110: dddd 57bf 9816 76bf d275 c1be 4ca8 55bf
00000120: 75bd 7dbf f56b abbe 1964 42be b0fe 94be
00000130: 4244 d73d 488c 453d 1564 11be 5704 c63c
00000140: e12e 3bbf e8f7 c3be 3e0d 783d 0a76 05bf
-0.5192393 -0.5883498 -1.032913 -0.021457652 -0.5794453 -0.78263205 -0.6045452 -0.2042427
-0.6300466 -0.17954116 -0.63230276 -0.7693131 -0.15006275 -0.5532362 -0.4748212 -0.04939239
-0.5311191 -0.749664 -0.91713345 -0.20384392 -0.4890189 -0.4601133 -0.86630744 -0.07166516
-0.60705876 -0.41346386 -0.32105517 -0.59150195 -0.41840038 0.015727984 -0.63507664 -0.48247826
-0.42255032 -1.2691733 -0.88224864 -0.11702269 -0.32642785 -0.24688335 -0.31647882 -0.46576372
-0.12316034 -0.6815658 -0.38280854 -0.71575993 -0.3607423 -0.41814652 -0.47693816 -0.66132545
0.18048123 -0.11118044 -0.46252033 -0.5197552 -0.7447 -0.5217036 -0.21256645 -0.65150255
-0.48462656 -0.628824 -0.24752875 -0.8417525 -0.86465275 -0.4675538 -0.39377978 -0.6691242
-0.6552848 -0.86329645 -0.9958374 -0.61975825 -0.8432291 -0.96128225 -0.37785202 -0.83459926
-0.99117213 -0.33480802 -0.18983497 -0.2910056 0.10511066 0.048229486 -0.14198335 0.024171991
-0.73118407 -0.38275075 0.060559504 -0.5213324

fc3.weight f4 [10, 84]
00000000: c242 4bbf b70d 0fbf eaf7 53bf f0cc 7fbf
00000010: 2a61 15bf 696d 72bf f5ae 82be 9744 5dbf
00000020: 8e2e 52bf 0063 84be c04f 06bf c701 84bf
00000030: 4221 49bf 41fa 89bf c508 c0bf 4770 60bf
00000040: 7889 41bf 5a5f e2be 8ed0 e9ba c25a 67bd
00000050: cafa 0a3d eea2 fbbe d7a2 f3bd f02b a3bf
00000060: 9411 5fbf 6766 d5be 31e3 42bf 53b0 e9bd
00000070: 3647 3ebf 21da 96bf 9571 243d 33ad cbbf
00000080: a5bd 36bf 2917 c7be 8f4b 8ebd dffb d9bd
00000090: 65b7 8fbe 63fa 89bf e76c 53bf c453 d2be
000000a0: 47e0 f1be 8d7a 5fbf 56e9 7abd 6756 173e
000000b0: 7161 73bf 009a 99bf 5751 46bf df16 c4bb
000000c0: 77c0 9bbf 1fc7 95be faca 01bd f0cb 77bf
000000d0: 3673 65bf 43dd 66be 1840 c4bf 8a47 e83d
000000e0: 4eda 97bf c9df a6bf c173 cbbc 6e50 32be
000000f0: 52d8 29bf adac b6ba 757d abbe 4a92 913d
00000100: b0fb a0bf 3338 a0bf 339b 6d3d 42d2 97bf
00000110: ac41 63bf 1be7 87be 806c a2be 2939 3cbe
00000120: ca16 83be 8132 ae3d e494 d13c a019 38bc
00000130: accb 76bf c7e0 edbe fae5 52bc ad06 9cbc
00000140: 2d63 48bf b861 903d f311 aabf 1291 743d
00000150: 81cd 61bd 6f00 50bf af38 12bd a9cd fcbc
00000160: ba89 84bf 943c 97be 6bdf 96bc ce89 5cbf
00000170: 3320 2ebf d5d5 74bf 65cb 99bb 3aa0 aabe
00000180: aa48 a0bf 4ee0 01bf d081 2dbf 66c5 9fbd
00000190: b9e5 193e 599f 8bbe ea82 5fbf 7431 10be
000001a0: 18f6 6abf c323 e6be fdaf 64bf d870 febd
000001b0: a2dc 50be 9943 96bf e669 c0be 20bd abbf
000001c0: c0b4 89bf c24f 96bf 7f70 fa3b a9f7 9ebf
000001d0: 936f 15bf 000e 50bf ffa6 39bf 16d8 aebf
000001e0: 6ab3 9fbf de03 82bf f751 41bf 5269 d1bf
000001f0: 1f14 3fbf 015e a93d 1e48 47bf 33ef b0bd
00000200: fd5f 5abf f501 09be 3566 17be f367 77bf
00000210: 28f5 a5bf 5496 cebc 660c c0bf 9219 4ebe
00000220: f6a5 f8be f7d6 debe 607d d5bf 2f23 65bf
00000230: 04c0 86bf 0745 8e3b c66f 11bf 8d51 a2bf
00000240: e637 88bf 4489 7abf 5b8b 48bf 3f34 15be
00000250: 0738 a3be 1c59 84bf 3f57 b3bf edee bbbc
00000260: c6b3 153e 474d 00bf d3f4 c6bf 9425 26bf
00000270: 2b58 a7be bb4f 87bf 91e4 133e cdca d1bd
00000280: 224b 2abf 254b e9bf 4960 0c3d 3c25 4ebf
00000290: 8bb8 43bf 0b2b 26bf 352e 5abf b527 23bf
000002a0: c6ca dfbe 9775 2ebf 1ac5 9fbe 3d9f 17be
000002b0: 4e24 d8be ac5f 90be f117 8abd 0f3e 9bbd
000002c0: ea64 1bbf 42b4 94bc 44b6 7d3d 01e9 92bf
000002d0: 51bf 33bf ea68 bdbf 44fd 67be e234 063d
000002e0: f2da e2bd ae85 58bf 62c9 27be bbd4 9ebf
000002f0: 207d 81bf d185 cfbe 640b 4fbf 1ce6 69bf
00000300: 1557 8cbe 82be 20bf 1bdb 0c3e 2095 36bf
00000310: f1b1 bc3e 1ecf c6bf 1057 353b 8933 a13c
00000320: c35d 77bf 0d8d 8bbe a870 3d3e 5a8f f8bd
00000330: 37f5 6abf 285c d6be b70f 18bf 5393 98bf
00000340: 096a c4bf b6e6 3abf fb2e 943d 9bca 10be
00000350: 8594 2bbf 3357 e6be f2d7 babf 52d6 f13d
00000360: e246 24bf 73de 99bf d379 53bf 64fd b3bd
00000370: fb66 48bf 1e24 cdbe a093 9abe 98a5 6ebf
00000380: 929b 0bbe baf6 22bf a3d8 74bf 50ec 20be
00000390: d0a2 843d cbdd fcbe 8b50 51bf 733a 70bf
000003a0: 5002 49bf d4c9 dfbe b606 30bd b37e 1b3d
000003b0: 3bb1 a5bf 0eaf c6bd a0a9 9bbe b8b2 c4bf
000003c0: efca b1be 0129 2ebe 42fb d6bf 30a3 41bf
000003d0: a7d7 c3be 4f3e ee3d 38bc 073d 61c4 c0bf
000003e0: 0b74 ddbf 6309 89bf 72f1 80bf 70d6 e9be
000003f0: e07c 293c ffb3 f6be 19f0 463c 0eac 8cbe
-0.7939874 -0.558803 -0.8280016 -0.99922085 -0.58351386 -0.94698197 -0.25524107 -0.86432785
-0.82102287 -0.2585678 -0.5246544 -1.0313042 -0.7856637 -1.0779496 -1.5002676 -0.8767132
-0.75600386 -0.44213372 -0.0017838643 -0.056483038 0.033930577 -0.49147743 -0.118962936 -1.2747784
-0.871362 -0.4167969 -0.76127917 -0.11410584 -0.7432741 -1.1785318 0.040147383 -1.5912231
-0.71383125 -0.38884857 -0.069480054 -0.10643744 -0.28069606 -1.0779537 -0.82588047 -0.41079533
-0.47241423 -0.8729637 -0.061257683 0.14779054 -0.9507056 -1.2000122 -0.77467865 -0.0059841718
-1.2168111 -0.2925348 -0.031687714 -0.9679556 -0.8962892 -0.22545342 -1.533206 0.1134177
-1.1863496 -1.3037044 -0.02483547 -0.17413494 -0.66345704 -0.001393696 -0.33494154 0.071079805
-1.2576809 -1.2517151 0.058009338 -1.186104 -0.8877208 -0.26543507 -0.31723404 -0.1838118
-0.25603324 0.085057266 0.025583692 -0.011236578 -0.9640453 -0.46460554 -0.0128722135 -0.019046152
-0.7827633 0.07049888 -1.3286728 0.059708662 -0.055127624 -0.8125066 -0.03569859 -0.030859785
-1.0354531 -0.29538405 -0.01841708 -0.86147773 -0.6801788 -0.9563878 -0.004693436 -0.33325368
-1.2522175 -0.50732887 -0.67776203 -0.07801323 0.15029038 -0.2727001 -0.87309134 -0.14081365
-0.9178176 -0.4494916 -0.89331037 -0.12423867 -0.20396665 -1.1739379 -0.37580794 -1.3417091
-1.0758286 -1.174309 0.007642805 -1.241933 -0.58373374 -0.8127136 -0.7252044 -1.3659694
-1.2476628 -1.015743 -0.75515693 -1.6360266 -0.7464008 0.08269883 -0.7784442 -0.08639374
-0.85302716 -0.13379653 -0.14785083 -0.9664299 -1.2965441 -0.025218166 -1.5003784 -0.20126942
-0.48564118 -0.4352338 -1.6678886 -0.8950681 -1.0527349 0.004341725 -0.5681118 -1.2681137
-1.0642059 -0.978657 -0.7833764 -0.14570712 -0.31878683 -1.0339694 -1.4011 -0.022941077
0.1461936 -0.50117916 -1.5543464 -0.6490109 -0.32684454 -1.0571207 0.1444266 -0.10243759
-0.66520894 -1.8226057 0.034271512 -0.80525565 -0.76453465 -0.6490943 -0.85226756 -0.63732463
-0.4370939 -0.6814818 -0.31205064 -0.14806838 -0.42215198 -0.28197992 -0.06742848 -0.07580196
-0.6070086 -0.01815236 0.0619414 -1.1477357 -0.702138 -1.4797642 -0.22655207 0.032765277
-0.11076917 -0.8457898 -0.16385415 -1.240867 -1.011631 -0.4053178 -0.80876756 -0.91366744
-0.27410188 -0.6279069 0.13755457 -0.71321297 0.3685451 -1.5531957 0.0027670301 0.019677894
-0.96627444 -0.2725605 0.18500006 -0.12136717 -0.9178042 -0.41867185 -0.5939898 -1.191996
-1.5344859 -0.73008287 0.07235523 -0.14139788 -0.670235 -0.44988403 -1.4597151 0.118084565
-0.6417066 -1.2021011 -0.82607764 -0.08788565 -0.78282136 -0.40066618 -0.30190754 -0.93221426
-0.13633564 -0.63657725 -0.9564306 -0.15715146 0.064763665 -0.49387965 -0.81763524 -0.93839186
-0.78519154 -0.4370867 -0.04297515 0.037962627 -1.2944711 -0.09701358 -0.3040285 -1.5367041
-0.3472514 -0.17007829 -1.6795428 -0.7563963 -0.38250467 0.11632978 0.033138484 -1.505993
-1.7301039 -1.070599 -1.0073683 -0.45671415 0.010344714 -0.481842 0.012142205 -0.27475017

fc3.bias f4 [10]
00000000: a50d 01bf d34d adbc efa2 3cbe 6747 07bd
00000010: c707 71bd f7c3 cbbe 70a6 8dbe 1962 8bbe
00000020: 4aae c03e fc08 283e
-0.50411445 -0.021155274 -0.18421529 -0.03302708 -0.058845308 -0.39797947 -0.27666044 -0.2722328
0.37632972 0.16409677
