mnist/saved_models/model_epoch_50.pth (torch, 181338 bytes, 10 tensors)

conv1.weight f4 [6, 1, 5, 5]
000000 24 50 84 be 9d 19 5b bd 1b a0 50 3e 6a 6e 93 3e
       -0.25842392 -0.053491224 0.20373575 0.28795177
000010 01 92 dc 3e 1f f7 1e be 15 7a d8 be ad 95 e7 be
       0.43080142 -0.15523957 -0.4228064 -0.4523138
000020 a3 1f 0b bf 39 c9 38 3e 33 e8 d8 3b 56 49 59 3e
       -0.5434515 0.1804551 0.006619477 0.21219382
000030 87 73 01 3d 9d 06 16 be 9e 72 91 3d 40 7f f6 3c
       0.031604316 -0.1465096 0.071019396 0.030089974
000040 c2 ab a1 3e 25 c7 32 3e be c9 8e 3e a4 8c c4 bd
       0.31576353 0.1745878 0.27888292 -0.095971376
000050 21 56 fc 3d cd 0c b2 3d bb 53 32 3d 6e 48 3b 3e
       0.12321115 0.08693848 0.043536883 0.18289348
000060 40 df f8 3d b6 41 5e 3e db 74 78 3c a0 66 f4 3d
       0.121519566 0.21704754 0.015164579 0.11933637
000070 ea 26 17 3f 02 4a 56 3f e5 43 99 3d d7 1c 17 be
       0.59043753 0.83706677 0.07483653 -0.14757095
000080 a1 61 c3 be 7b 10 29 bf 66 0f 8f 3e 07 71 86 3d
       -0.38160422 -0.6604077 0.27941436 0.06564527
000090 05 c3 a7 be ce 38 ca bd 26 e0 ad be 8c 12 e4 be
       -0.32765976 -0.09874116 -0.33960074 -0.445454
0000a0 39 9e 3d 3e 4c e2 ce 3c 26 68 89 3c 31 80 21 be
       0.18517388 0.025254391 0.016773295 -0.15771557
0000b0 13 52 c4 be 18 87 72 3d 33 ec f2 3b 38 f7 b4 3d
       -0.38343868 0.059210867 0.007413411 0.08836216
0000c0 0b da b9 3e 82 72 54 3e 3a a2 75 be 1d a9 04 3e
       0.36299166 0.20746806 -0.23987666 0.12955137
0000d0 77 4b 88 bb b6 90 d2 3c da a8 6a bd e5 ad 37 3e
       -0.0041593867 0.02570377 -0.057289936 0.17937429
0000e0 28 c4 be 3e 6f 2a 9f 3d ac a0 ec 3d 4c e0 62 3e
       0.3725903 0.077717654 0.11554083 0.22155875
0000f0 67 a2 37 3f 6a 3f 26 be 76 68 cb be 72 c4 55 be
       0.7173218 -0.16235128 -0.39728135 -0.20875719
000100 0d 95 34 3e a1 e3 e6 3c 59 60 b9 be 32 9f d2 be
       0.17634983 0.028184714 -0.3620632 -0.4113708
000110 67 1f 6d be a8 04 17 3f 64 83 5f bd 26 d2 c1 3c
       -0.2315651 0.5899148 -0.054568663 0.023659777
000120 93 b1 b2 3d be 2f df bd 69 b9 9d 3e d2 e0 92 bb
       0.08725276 -0.10897778 0.3080552 -0.004482367
000130 50 74 1c be c4 5e 86 3c 60 33 c9 3d 56 13 52 3e
       -0.15278745 0.01640261 0.09824252 0.20515189
000140 0e 6d ae bd c7 42 56 3e 89 f1 c9 bd 44 e9 0c bf
       -0.08516894 0.20923911 -0.09860522 -0.55043435
000150 94 c5 55 be 83 8c 95 bd 54 f2 51 3e 0e 9e ac be
       -0.20876151 -0.07302191 0.20502597 -0.33714336
000160 17 ba 3f bf a1 d2 ce bd f7 b6 ef 3c 02 a2 e4 3e
       -0.74893326 -0.10098768 0.02926205 0.44654852
000170 67 cb 00 3e 0a 79 04 3e c5 12 51 3e 02 76 f2 be
       0.12577592 0.12936798 0.20417316 -0.47355658
000180 ac d6 d9 3e db b7 e9 3e 41 b9 91 3e a2 a4 10 be
       0.42546594 0.45648083 0.2846165 -0.14125302
000190 66 5a 01 3c 31 75 bc 3d 26 1e bb 3e ac 12 e8 bd
       0.007895088 0.0920204 0.3654644 -0.113316864
0001a0 ab 92 02 3d 4b f1 cd bd e2 b9 92 3d 8c 85 d4 be
       0.031878155 -0.100557886 0.071643606 -0.41508138
0001b0 03 0f bd be 0e 16 45 3e 67 ef 07 3e 8d fe 7c be
       -0.36925516 0.19246694 0.13274918 -0.24706478
0001c0 ec b4 1f bf 61 ea b9 3e ba 1b 74 3e da 93 27 be
       -0.6238544 0.3631163 0.23838702 -0.16364995
0001d0 26 e0 94 be 03 61 9c 3b f8 5e 44 3f 99 3a 46 3c
       -0.29077262 0.004772307 0.7670741 0.012098932
0001e0 1f 4f 27 3d 90 19 e5 3d e5 87 e2 bd 51 b2 a6 3e
       0.04084694 0.11186516 -0.11061076 0.3255792
0001f0 ee 39 9f bd 73 d3 22 3e 31 67 8a be d4 ba 0c be
       -0.07774721 0.15900974 -0.27031854 -0.13743144
000200 0c d3 c0 bc cf ff cb 3e da d2 97 be 64 41 44 3e
       -0.023538135 0.39843604 -0.29653054 0.1916557
000210 18 d4 82 3e 24 7b 07 3f 10 31 c6 3e 50 dd 7d bd
       0.2555244 0.5292227 0.38709307 -0.06197864
000220 3a e6 0b 3d e9 62 8f 3d 9e 66 bc bd d1 c4 15 be
       0.034155108 0.070012875 -0.0919926 -0.14625861
000230 41 33 b2 bd 82 30 b4 3d 6b d0 01 be d1 ef 81 bd
       -0.08701182 0.08798315 -0.12677161 -0.063445695
000240 87 fb b5 bd 11 e5 00 be 67 8f 35 be c7 3f a3 be
       -0.08885866 -0.12587382 -0.17730485 -0.31884596
000250 97 aa 0d ba 12 2e a2 3d
       -0.0005404143 0.079189435

conv1.bias f4 [6]
000000 c2 dd d5 bf 26 9e a7 bf 04 53 de bf b5 72 e6 be
       -1.67083 -1.3095138 -1.7369084 -0.4500939
000010 e1 f5 45 bf 0e ec c2 be
       -0.77328306 -0.3807072

conv2.weight f4 [16, 6, 5, 5]
000000 8c 13 c4 3d 91 86 75 be 26 e8 2c bf e8 f7 63 bf
       0.09574041 -0.23977114 -0.6754173 -0.8905015
000010 46 3d 9b be 9e e9 fc 3d 2e 31 1d be 95 f3 c4 be
       -0.30320185 0.123492464 -0.15350792 -0.38467088
000020 48 2d 92 be c1 10 c4 be 20 af 9b 3e b6 e5 00 bf
       -0.28550172 -0.38294032 0.30407047 -0.5035051
000030 25 e3 18 bf 98 19 95 be 97 75 c0 3c f9 b0 9c 3f
       -0.59721595 -0.2912109 0.023493571 1.2241508
000040 21 d5 b1 3e 5f 1e d4 3b 0f 1a a5 bd af 1f 81 3e
       0.34732917 0.006473347 -0.08061611 0.25219485
000050 52 e1 60 3f 5f fb 92 3e 8c 72 a0 be 55 8e ac bd
       0.8784381 0.28707406 -0.31337392 -0.08425585
000060 02 c6 1e 3e d0 50 8e bf 44 d7 6e be af 01 1d 3e
       0.15505221 -1.1118412 -0.23324305 0.15332673
000070 18 23 18 3e 58 58 65 be cb a0 d7 3e eb 7e a5 3c
       0.14857137 -0.22396982 0.42114863 0.02020212
000080 a5 8c 64 bf 34 19 7b bf 6b d2 94 3d c3 dc 9c 3e
       -0.89277107 -0.9808533 0.072666965 0.30637178
000090 a5 da 89 3e d3 1d 54 be cb 54 a9 3e 5a 04 6d 3e
       0.26924625 -0.20714502 0.33072504 0.23146191
0000a0 74 d2 52 3f 15 e9 d8 3e 84 89 78 bd d1 08 82 be
       0.82352376 0.42365327 -0.06067802 -0.2539735
0000b0 88 b5 e6 be 80 dd 44 3e 82 96 86 bf bc ea ac bf
       -0.45060372 0.1922512 -1.0514681 -1.3509135
0000c0 f0 42 3a bf eb 5d 3d 3e ef cb 9a be 57 77 0e bf
       -0.7275839 0.18492858 -0.30233714 -0.5565085
0000d0 15 d3 26 3e 5e 5e 06 bf f5 15 27 3f 4c 16 2d 3f
       0.16291459 -0.5248774 0.6526788 0.6761215
0000e0 62 56 e1 3d a9 c6 c9 3e 57 69 5e bd 30 ef a2 bd
       0.11002804 0.39409378 -0.05429968 -0.07955778
0000f0 86 40 af bd 5d 3a 5d bf a0 20 bb bf 8a a5 0f be
       -0.08557229 -0.8641718 -1.4619331 -0.14027992
000100 25 b0 21 3f 29 7b ee 3e 39 50 92 3e b6 74 1c bf
       0.631594 0.4657834 0.2857683 -0.61115587
000110 bd 04 18 be c4 19 1f be 43 07 c5 3d 73 e2 0c bf
       -0.14845558 -0.15537173 0.09620526 -0.55033034
000120 f7 67 74 be 20 96 41 bf ac 28 84 bf 9c 36 ae be
       -0.23867784 -0.756197 -1.0324912 -0.3402604
000130 9d 0e b4 be ee 06 14 be 37 9b f2 be b1 b1 a3 3e
       -0.351674 -0.14455768 -0.47384045 0.31971505
000140 96 79 85 bd b5 7f 20 3f 9d 28 3a 3f a7 d5 86 3e
       -0.06517331 0.62694865 0.7271822 0.2633488
000150 23 7b 3a be d1 0c 90 bf 8d 7d e8 bf 66 b0 cf bf
       -0.18211035 -1.1253911 -1.8163315 -1.6225708
000160 46 94 e9 bf d4 6e ae bf fe bd 22 bd fd 3c c4 bc
       -1.8248374 -1.3627572 -0.039731972 -0.023954863
000170 ca 84 0e 3e e2 1c 6d 3e dc 0f 1e 3f 35 5f 9e 3e
       0.13917843 0.23155549 0.6174295 0.30932012
000180 5f 5d ff 3e fb 1e 85 3e fb 58 0c 3f 4a 16 6b 3f
       0.49875924 0.260002 0.54823273 0.91830885
000190 ae 3a a7 bc 07 2e 08 3f b2 2f 93 3e 43 e1 9f bd
       -0.020413723 0.5319523 0.28747326 -0.07806637
0001a0 3b 5f 2d bd c4 ac 6f be 00 8c 02 3f 12 6e 0f 3f
       -0.042327147 -0.23405749 0.50994873 0.5602733
0001b0 75 df a2 be 9e d1 b3 bd 19 f4 d6 bf 9d 4d 64 bf
       -0.3181111 -0.08780216 -1.6793243 -0.8918093
0001c0 32 b7 d9 bf 13 b0 ad bf 16 3e 06 bf 6d ad b2 bf
       -1.7009032 -1.3569359 -0.52438486 -1.3959175
0001d0 45 1e 84 bf a8 32 90 be fa 35 92 3e 66 9a 91 3e
       -1.0321738 -0.28163648 0.28556806 0.2843811
0001e0 88 50 6b 3f 6b 93 5b bd c8 f2 27 3e 9d 22 16 be
       0.91919756 -0.053607386 0.16401207 -0.14661641
0001f0 ed 92 05 bf 50 74 b2 be d5 a5 41 3e 04 53 13 bc
       -0.52177316 -0.34854364 0.18910916 -0.00899196
000200 2b 1d 2f 3d ff 2c 97 be 75 ae 13 3e 52 93 39 3e
       0.042752426 -0.29526517 0.14422019 0.18122604
000210 db ba 27 3d 16 6d c1 3d fa b4 25 bd 00 7c 7d 3e
       0.040949684 0.094446346 -0.040455796 0.24754333
000220 7c fd 05 3f c8 0c 55 3f 3a 26 ec 3e bb 55 87 bd
       0.5233991 0.8322263 0.46122915 -0.06608149
000230 dc cf c7 be 29 0e aa 3e 86 31 85 be 11 8b a6 bf
       -0.39025772 0.33213928 -0.26014346 -1.301119
000240 c1 3c f1 be 96 a4 d2 bf 04 de 03 c0 fa cf 6c bf
       -0.47116664 -1.6456478 -2.0604258 -0.9250485
000250 09 87 e9 bb 4e 56 5c 3e 39 ef 84 be ac c0 fb bc
       -0.007126693 0.21517298 -0.25963762 -0.030731522
000260 0d 26 a5 3e c6 35 a5 3c f3 25 d1 3d 4b bb 24 bd
       0.32255593 0.020167243 0.10212316 -0.04021768
000270 8b f3 6d be 72 48 84 bc 1b 7b c4 bc e4 c9 b8 be
       -0.23237436 -0.016147826 -0.023984483 -0.3609153
000280 4a 15 b1 bd 4e 92 8a be 80 38 a9 be 6a f3 72 be
       -0.08646639 -0.27064747 -0.3305092 -0.23725668
000290 80 51 54 bf 60 0e bf 3c c4 23 12 3f ed a0 37 3f
       -0.8293686 0.023322284 0.57085824 0.7172993
0002a0 c6 be 4f be a1 d2 aa bf ea 3f bf 3e 8d a2 cf 3e
       -0.20287618 -1.3345529 0.3735345 0.40553704
0002b0 8d 3d 89 bf d9 d3 b7 bf c6 19 5b bf 0e 29 05 bf
       -1.0721909 -1.4361526 -0.855862 -0.5201577
0002c0 5e 77 de 3d 66 04 88 be 36 bf 11 bf eb fa 6f 3e
       0.10862611 -0.26565856 -0.5693239 0.23435561
0002d0 6a 98 7a ba ce 35 85 be ea 6b 31 be a6 79 5c 3e
       -0.00095594546 -0.26017612 -0.17326322 0.2153078
0002e0 3a 88 02 bd d8 a0 04 3e 57 c2 fb bb 76 5a 7c 3e
       -0.031868197 0.12951982 -0.007683079 0.24643883
0002f0 90 f2 d1 3d aa 19 dc 3e d7 8d ed 3e ef a3 a3 3e
       0.10251343 0.4298833 0.46397278 0.3196101
000300 1a 69 77 bf 5a a2 90 bf be 7c b8 be d2 bb 1c 3f
       -0.9664475 -1.1299546 -0.3603267 0.6122409
000310 af f2 95 3e c4 77 22 3e 9e eb 1f bd 30 ab 83 be
       0.29286715 0.15866 -0.03904306 -0.25716543
000320 99 fa 15 bf 61 94 5a bf db 3f 9a be ee b5 d1 3d
       -0.58585507 -0.8538266 -0.30126843 0.102397785
000330 45 f1 ff 3e 06 47 21 3f 6f a4 da bd 1f f3 96 3e
       0.49988762 0.62999 -0.106758945 0.29482362
000340 50 ce 6f 3e 20 ce 43 3f 7f 81 9a bd 75 8a 35 be
       0.23418546 0.76486397 -0.07544231 -0.17728598
000350 cc 3a af 3e dc e8 51 3f 4b a1 32 3f bc a8 31 bf
       0.34224546 0.8199594 0.69777364 -0.69398093
000360 ca 55 4d bd 57 8e a3 be 82 c3 72 bf 77 b9 b6 3e
       -0.050130643 -0.31944534 -0.9482957 0.35688373
000370 bf 08 cf 3d 0a 73 ba bf dc db b3 bf a6 24 03 bf
       0.1010909 -1.4566357 -1.4051471 -0.51227796
000380 c3 30 89 3d 3d 02 72 be 0e da 92 bb f7 8c 27 be
       0.06698754 -0.23633666 -0.0044815606 -0.16362368
000390 7b 08 f3 3e 1b 42 93 3e f9 68 64 bf 4f a6 14 be
       0.47467408 0.28761372 -0.89222676 -0.14516567
0003a0 d7 42 28 3f 5c 90 0d 3f a5 32 42 3f 2b 6f 89 3e
       0.6572699 0.552984 0.7585853 0.26842627
0003b0 8d 89 8d 3d cd 92 90 be 56 43 6e 3d 2d e2 92 be
       0.06911001 -0.28237 0.058169685 -0.28688183
0003c0 e4 21 e8 3e 6d eb 35 3f ec 86 67 3f 44 64 46 bf
       0.45338356 0.71062356 0.9044025 -0.77496743
0003d0 5a 05 d5 bf e4 76 aa 3e 0b f9 2d bf d2 9f 60 bf
       -1.6642258 0.3329383 -0.67958134 -0.87743866
0003e0 df c7 a7 be 80 ca a9 be 64 d6 67 be af 9b 4c 3d
       -0.32769677 -0.33162308 -0.22640377 0.04995316
0003f0 46 72 03 bd bf 6a c6 bc 29 f7 2f bf f7 55 83 3e
       -0.0320914 -0.024220822 -0.6873651 0.25651523

conv2.bias f4 [16]
000000 5a bb ec 3d ee 75 f7 be 89 a8 85 bd ea d4 7f 3e
       0.11559172 -0.4833216 -0.06526286 0.24983564
000010 d7 95 d7 bc 61 4b 1e be 42 71 0b bf 6e bf 0d bf
       -0.026316566 -0.15458442 -0.5446969 -0.55370224
000020 08 b8 70 be d6 bc 24 3c 14 91 76 be b6 92 ab be
       -0.23507702 0.010054788 -0.2407878 -0.3351037
000030 69 0f b7 be 1e 1e c3 be 72 9e 89 3e 6d f8 26 be
       -0.35753945 -0.38108915 0.26878697 -0.16305704

fc1.weight f4 [120, 256]
000000 20 2c a7 be 31 e2 31 3e cc 0f 8b 3e 1d 1d b3 3e
       -0.32650852 0.17371441 0.2716049 0.3498315
000010 be fb ce bd 0e 59 3a bf 76 97 84 3e 02 30 6b 3f
       -0.1010661 -0.72792137 0.25896806 0.9187013
000020 27 c7 cd be 39 e6 09 3f 39 69 bc be 13 a0 b5 bf
       -0.40191004 0.53866917 -0.3679903 -1.4189476
000030 b4 9e e5 3e 53 21 28 3f 46 16 fb 3d 66 92 09 bf
       0.44847643 0.6567585 0.12260108 -0.5373901
000040 db c8 2c be 2c 1f 2d 3c 79 bc 1c 3e 3a 4c 11 bf
       -0.16873495 0.010566514 0.15306272 -0.5675694
000050 3c 5e df be 78 26 80 3e 69 70 d8 3c 23 36 05 3f
       -0.43626583 0.2502935 0.026420789 0.5203573
000060 a9 f5 4c 3f 6c 20 20 3e d9 58 bb 3e 20 fd d9 be
       0.8006235 0.15637368 0.36591223 -0.42575932
000070 04 0c 6b 3f 7f d1 76 3f 9f 46 db 3e 06 d7 80 bf
       0.9181521 0.96413416 0.42827317 -1.006562
000080 8e 3d 16 be 70 e1 c5 3e 8f d0 a5 bd ff f2 60 3f
       -0.14671919 0.38648558 -0.0809642 0.8787078
000090 fd fe f2 bd 37 5f 8f 3c b1 3c f3 be f8 fa 46 be
       -0.118650414 0.017501457 -0.4750724 -0.19431674
0000a0 9d 08 00 3c d2 59 56 3f f0 64 5e 3e 6b 0b 8f bd
       0.007814554 0.83730805 0.21718192 -0.069846
0000b0 69 d1 93 be 91 fd 24 bf a1 af 7e bf 57 90 81 3e
       -0.28870705 -0.6444941 -0.9948674 0.25305435
0000c0 ea ef 86 be bc 31 f0 bd 76 7a 09 3d 1f b8 43 3d
       -0.26354915 -0.11728236 0.033564053 0.047783013
0000d0 c4 6c 79 3f de 2e 02 3f 51 ac f2 3e ea 17 4a be
       0.9743159 0.50852764 0.47397092 -0.19735685
0000e0 5a 22 e4 3e 02 ce 33 bf 47 ea 9c 3e eb e3 c7 3e
       0.44557458 -0.7023622 0.3064749 0.39041075
0000f0 7d d1 0a bf 52 64 ce 3e 73 b0 44 3f 46 8c 1a 3f
       -0.54225904 0.40310913 0.7683174 0.6037029
000100 1d 2f a3 be 9c aa 40 bd da 35 1f bd 57 27 a1 3e
       -0.31871882 -0.047037706 -0.038869716 0.31475326
000110 57 aa db 3e 9f d9 c6 3d ea 88 00 bf 6a b0 1c bf
       0.42903396 0.09709477 -0.50208914 -0.61206686
000120 23 92 d2 bc 27 5f 7f be 0d 3f 47 3e 53 56 f7 3e
       -0.025704449 -0.24938641 0.19457646 0.48308048
000130 5b 2b 90 bf e2 8f 9e 3e c9 36 60 3f 75 24 6f 3f
       -1.1263231 0.3096915 0.87583596 0.93415004
000140 c0 7e 9d be 1a d5 34 bf cd f8 38 bf 9b 34 b4 be
       -0.30760765 -0.7063767 -0.7225464 -0.35196385
000150 b7 9a b2 3d f0 1e f0 bc 13 3e 86 3f 30 19 2e bf
       0.08720916 -0.029311627 1.0487694 -0.68007183
000160 5b 0a 87 3e 4e 9a 81 3f 6d 5f 8e be b0 42 c5 3e
       0.26375088 1.0125215 -0.2780718 0.3852744
000170 e3 2d dc 3e 81 a4 53 3f d6 9a 20 3f b9 5b 88 be
       0.4300376 0.8267289 0.6273626 -0.2663248
000180 02 9f c0 be 58 04 2b be 21 1d 06 bf aa fe a3 be
       -0.37621313 -0.16700876 -0.523882 -0.3203023
000190 52 5d a8 3c 0c 32 ba 3e b3 83 06 3f ea ed 4a be
       0.020552311 0.36366308 0.5254471 -0.1981732
0001a0 37 3e 30 bf 8f 63 0c 3f 11 d9 2e be 81 71 60 3d
       -0.6884493 0.54839414 -0.17074992 0.054795746
0001b0 1b e4 5b bf b7 46 09 bf e7 33 09 bd 32 d8 dd b7
       -0.85894936 -0.5362353 -0.033496764 -2.6445927e-05
0001c0 f4 c5 23 3f 7d 5a 8a bd 08 05 85 be 5a 31 53 bf
       0.6397393 -0.067555405 -0.259804 -0.8249718
0001d0 6d 5b f0 3e f5 b6 7a 3e ba 63 b8 bc 8e 28 b5 3c
       0.46944752 0.24483855 -0.02250849 0.022114065
0001e0 50 e8 31 3f 91 04 3e 3f 5c da 58 3f 2d 89 0f 3d
       0.69495106 0.7422572 0.8470819 0.03504293
0001f0 e0 15 11 3f 35 d9 01 3e b2 36 1c be 2a 24 37 3f
       0.56674004 0.12680514 -0.1525524 0.71539557
000200 68 db dc 3e 0d 7b 80 be 8c fd 0b 3f c7 73 95 3e
       0.43136144 -0.2509388 0.54683757 0.29189894
000210 4e 94 b7 bd ff 31 43 3f 8f 7d 8d 3c c1 93 36 3e
       -0.08963834 0.76248163 0.017271785 0.17829801
000220 12 5e 4f bf 15 fb a3 3d ac 5d c0 be 17 78 65 be
       -0.81002915 0.080068745 -0.37571466 -0.22409092
000230 e2 dd 0c bf d2 de d1 3d d3 03 df 3e 33 b8 4f 3e
       -0.55026066 0.10247578 0.43557605 0.2028511
000240 80 27 a7 be f3 45 19 be 8b c4 b0 be 51 06 d6 3e
       -0.32647324 -0.1496809 -0.3452495 0.41801694
000250 17 ad e3 bc c6 89 4d be ad 5e 82 3c 60 11 84 bd
       -0.027792497 -0.20072088 0.015914286 -0.064486265
000260 33 44 01 3f ed d5 d9 be f3 83 40 bf 04 6c f0 3e
       0.5049469 -0.42546025 -0.7520134 0.4695741
000270 7f 98 6a 3f e7 94 ae be 64 28 bb bf ae 68 17 bc
       0.9163894 -0.34097978 -1.4621701 -0.009241266
000280 0f 3a da bc 88 b4 9f be 0d c5 74 3c f4 dd a2 be
       -0.026639013 -0.31192422 0.014939559 -0.31809962
000290 96 5d 97 bf dd 71 df be 57 1d 4a 3e 60 60 41 3f
       -1.1825435 -0.43641558 0.19737755 0.7553768
0002a0 67 f1 95 be c1 a3 08 bf 26 2a 0e 3f d1 8e 16 3e
       -0.29285738 -0.5337487 0.55533063 0.14702918
0002b0 05 76 0e 3f a5 57 94 3e 86 d0 0d bf 3b fe 93 be
       0.55648834 0.28973117 -0.55396307 -0.289049
0002c0 4c 1a 9e bd de 68 60 3f 4b 10 41 3f cc bd 7f be
       -0.077198595 0.87660015 0.75415486 -0.24974746
0002d0 5e 25 56 bf 36 45 f2 be 0d 0c 2f bd f1 86 e0 bd
       -0.8365077 -0.4731843 -0.042736102 -0.10963238
0002e0 0d 78 ff be 1e be 1b 3e ae 19 95 3e 23 fb 74 bf
       -0.4989628 0.15209243 0.29121155 -0.95695704
0002f0 fb 21 ee 3e d4 e7 2e be 13 fd 76 bf bc 77 17 bf
       0.465103 -0.17080623 -0.9647991 -0.59167075
000300 5f 9f 3f be c5 55 80 3e ca 38 c5 be e0 bc ae be
       -0.18713139 0.25065437 -0.3851989 -0.34128475
000310 41 46 15 3d a0 bb a3 be 81 63 a7 be 83 77 a8 3d
       0.036443952 -0.31979084 -0.32693103 0.0822592
000320 23 8e 4f 3e b5 34 38 3e d5 6b 73 be 63 7d 10 bf
       0.20269065 0.17988856 -0.23771603 -0.56441325
000330 35 66 ef 3e ac 67 08 3e 04 a2 a6 be 33 bf 63 bf
       0.46757665 0.13320798 -0.32545483 -0.8896362
000340 fc 84 8f be 7c 3f 81 3c 95 15 94 3c 0d 7e 2e bf
       -0.28031147 0.015777342 0.018076697 -0.6816109
000350 ef db bb 3d 5b 1c 84 be 86 ea 33 be b3 56 a1 be
       0.091728084 -0.25802884 -0.17569932 -0.3151146
000360 68 72 95 bf 21 7d 88 3e 82 a5 fc 3e a5 51 37 bf
       -1.1675539 0.26657966 0.49345022 -0.71608955
000370 31 72 c6 bb 85 14 92 3e 36 f9 a6 3e 18 4e 3d bf
       -0.006056093 0.2853128 0.32612008 -0.73947287
000380 5e cf c3 be c5 d1 94 3d 2f 24 ab bd 29 50 80 3d
       -0.38244146 0.07266573 -0.08356511 0.06265289
000390 89 4b d2 3e 9d ac b2 bd 2a 81 06 3e a3 65 a8 3c
       0.41073254 -0.087243296 0.1313521 0.020556277
0003a0 23 51 5f 3e f3 13 3d be ca e7 6b 3f 4a 74 45 bd
       0.21808295 -0.18464641 0.9215056 -0.048206605
0003b0 c1 38 f0 bc 06 8a da 3e 30 d6 81 3e 28 e6 be be
       -0.029323937 0.4268343 0.25358725 -0.3728497
0003c0 5e 38 f4 bd 84 5e a0 be da 15 25 bf c7 c2 c1 bd
       -0.11924814 -0.3132211 -0.6448647 -0.09460979
0003d0 63 9f 07 bf bd c5 0c 3f 5f 38 7e 3f 24 0d ed 3e
       -0.5297758 0.54989225 0.99304765 0.46299088
0003e0 a9 e2 3d 3d e1 3b 30 3d 23 99 2e 3f de ce 3f bf
       0.046358738 0.043025855 0.6820242 -0.7492503
0003f0 f8 e0 8f 3e 57 54 f4 3e 89 39 e5 be 2c fc 7b 3f
       0.28101325 0.47720596 -0.44770458 0.9843166

fc1.bias f4 [120]
000000 42 23 9c be 91 9d b7 bf a7 c6 d5 3d ba 9e d7 be
       -0.3049565 -1.434496 0.104382806 -0.42113286
000010 3b 07 04 bf 51 41 1e be 8e c4 a5 be 4d 6a 2f be
       -0.5157353 -0.15454604 -0.32376522 -0.17130394
000020 5a 33 ae bf fd e7 78 bf 0c 4c 8c be 81 ef d6 bc
       -1.3609421 -0.97228986 -0.2740177 -0.026237251
000030 85 2a 0f bd 50 2f 89 bf 64 e2 13 bf 92 44 e0 be
       -0.03495266 -1.0717564 -0.5776732 -0.43802315
000040 fe 15 b5 bf 9e 61 5b be 2f 22 1c 3e cf 7b ae bd
       -1.4147336 -0.21423957 0.15247415 -0.08519708
000050 5c ea ec 3e f6 74 f9 3c 0c 0f f2 bd cf b2 3a be
       0.46272552 0.03045128 -0.11819276 -0.18232273
000060 72 08 97 3e 58 2b f9 be 5c 9f fe be 33 59 10 bf
       0.2949863 -0.4866588 -0.49730957 -0.5638611
000070 f6 13 4a bf be 58 b5 3d 44 70 00 bc c5 c0 a4 bc
       -0.7893671 0.08854817 -0.007839266 -0.02011145
000080 58 e6 69 bc 33 e7 7b be 22 d4 80 bf 61 74 4a bd
       -0.01427611 -0.24599914 -1.0064738 -0.049427394
000090 2d 16 7c be e0 82 11 bd 4b e6 03 3e 92 53 f0 bb
       -0.24617834 -0.035525203 0.12880819 -0.007334181
0000a0 ef dc ef 3c 9c ae c9 3c 22 32 a3 3d 15 d8 1e 3e
       0.029280154 0.024619393 0.079685465 0.15512116
0000b0 60 e1 a4 bd be 01 30 be a4 c3 c4 bd b3 fc f5 bd
       -0.08050799 -0.17188165 -0.09607628 -0.12011089
0000c0 76 ad 19 bf 24 3f 37 bf b6 78 69 bf 9e d1 13 bf
       -0.60030305 -0.7158072 -0.91199815 -0.57741725
0000d0 9a 47 90 be 28 05 05 3d 25 89 eb 3d 50 a7 4b bd
       -0.28179628 0.03247562 0.115007676 -0.04972011
0000e0 02 eb be be 36 61 ae bd 70 0b 02 bf cb 05 80 be
       -0.37288672 -0.08514635 -0.507987 -0.2500442
0000f0 e2 e7 83 bd 7a a5 47 bf 7b 5e f6 bd 9e e2 e0 be
       -0.064407125 -0.7798687 -0.120297395 -0.43922895
000100 7e 61 2f bf 2d fb ca bd f2 f6 b2 bd e8 7d f7 be
       -0.68508136 -0.09911189 -0.08738507 -0.48338246
000110 d7 3b fb be 17 bc 84 3d e5 a7 af bd 87 5f 1a bf
       -0.49069092 0.06481188 -0.08576945 -0.60302013
000120 e9 c4 df be f3 0b cb be 4a 65 c5 3b d7 f1 14 bf
       -0.43704918 -0.39657554 0.0060240375 -0.5818152
000130 bc a9 16 bf 7c 90 94 be a8 2c c1 bf d5 b9 76 bd
       -0.58852744 -0.29016483 -1.5091753 -0.060235817
000140 52 04 50 bd 51 9a 63 bf fb a5 38 be 21 38 28 bf
       -0.05078537 -0.88907343 -0.18032067 -0.65710646
000150 49 8f c8 bd 9d c2 0b bf 07 dc c5 be 7e b2 4f be
       -0.097929545 -0.5459383 -0.3864443 -0.20282933
000160 fa de 68 3e d9 de 02 bd 22 a7 87 bf a2 df 9d bd
       0.22741309 -0.031950805 -1.059788 -0.0770867
000170 61 6c 4f be e8 ea 58 bd ee 06 2f be ca 07 c6 be
       -0.20256187 -0.0529584 -0.17092487 -0.38677818
000180 f8 fa cb bd d8 4f 89 be 1b 45 c0 be fe 31 21 3d
       -0.09959978 -0.26818728 -0.37552723 0.039354317
000190 09 1e 03 be 17 09 5b bd c0 73 87 be 0a f2 90 be
       -0.12804426 -0.053475466 -0.26455498 -0.2830966
0001a0 b0 bc b1 be df 6c 95 bd 12 55 a8 bd a0 c3 17 bf
       -0.3471427 -0.07296156 -0.08219351 -0.59282875
0001b0 94 3e 97 bd 21 93 9d 3c c2 14 60 bd 29 41 99 bd
       -0.07384983 0.019235196 -0.054707296 -0.074831314
0001c0 02 f9 c0 3e f5 22 4e bf a0 3c 56 bd 63 26 9b bf
       0.37689978 -0.8052209 -0.05230391 -1.212109
0001d0 53 ef 94 3d 70 9b 3a bf 37 1c 31 be 16 b2 1e bf
       0.0727221 -0.7289343 -0.1729592 -0.6199049

fc2.weight f4 [84, 120]
000000 ef 3e 48 3d 79 42 23 3f de ae b1 be 0c 44 99 be
       0.048888143 0.63773304 -0.34703726 -0.29934728
000010 1f a1 8f 3e b1 b8 8f be ad b5 d2 3e a8 19 1e bf
       0.28052613 -0.28070596 0.41154233 -0.617579
000020 44 c9 10 3f 97 42 89 3f 28 3f c3 3e 54 90 29 bd
       0.56557107 1.0723447 0.38134122 -0.041397408
000030 68 d8 ba 3d 2a 80 fa 3e c4 d1 b2 3d 9f db c7 3d
       0.091233075 0.48925906 0.08731416 0.09758686
000040 20 d3 af 3c 91 d6 28 3e 36 07 a6 be 0f da 08 3d
       0.021462977 0.164881 -0.32427377 0.033411082
000050 de 2b e7 be 99 e9 49 be 32 4f 91 3e 26 37 87 bc
       -0.45150656 -0.19718017 0.28380734 -0.016505789
000060 7b 29 0c 3e 34 a6 a5 3e 0c 91 0f 3f e4 2e 83 bf
       0.13687699 0.32353365 0.560807 -1.0248685
000070 00 6a 16 3f 57 c4 17 bd ff e3 04 bd e0 c1 f3 be
       0.58755493 -0.03705248 -0.032443997 -0.47608852
000080 7c 4f 37 3e 12 a5 5b be 03 4e a0 3b 80 69 37 bd
       0.17901415 -0.21449688 0.004892112 -0.044778347
000090 43 b4 93 3e be 4b 63 3c 8c b9 a4 3d 0b 5c ac bd
       0.28848466 0.013873039 0.08043203 -0.08415993
0000a0 46 9f 5b 3d bc 9a e4 3c c3 78 89 bf 1f 03 b9 bd
       0.05361869 0.027905814 -1.0739979 -0.090337984
0000b0 ad 21 8d 3c 8d 87 23 bf e4 d7 4f bc a4 a9 ab 3c
       0.017227972 -0.6387871 -0.01268575 0.020954914
0000c0 93 b7 d2 be 58 f7 8f bd f0 d5 34 3d de 34 68 3e
       -0.4115568 -0.07029599 0.04414934 0.22676417
0000d0 56 03 7f bf e9 7e 1c be ef db 62 bf cf bf 62 bd
       -0.99614465 -0.15282787 -0.8861684 -0.055358704
0000e0 54 49 77 3e af 0b 07 bd d1 a7 d3 bd 42 14 c8 be
       0.24149066 -0.032970127 -0.10334743 -0.39077955
0000f0 25 05 ec bd 6a 51 9f 3d d4 27 8d 3e c4 ef 37 bf
       -0.11524419 0.077792004 0.2756945 -0.7185023
000100 fb 16 7a 3e 01 79 99 bb f2 96 4e bd 64 37 bc 3d
       0.24422829 -0.0046836142 -0.05043692 0.091902524
000110 b2 96 6c be 80 20 5e 3e 31 ec 7a bf 2c 58 32 be
       -0.2310436 0.21692085 -0.9801665 -0.17416447
000120 77 4c 02 3f fa f0 31 bf e7 ab cb be d3 2d 62 bd
       0.50897926 -0.69508326 -0.3977959 -0.055219483
000130 ae 9f 2b bd 3f 50 89 bf 40 b4 90 3e 9b c0 82 bd
       -0.04190033 -1.0727614 0.2826252 -0.06384393
000140 1e e6 df be 37 18 de be 34 2a bd bd 63 df 97 3e
       -0.43730253 -0.4337785 -0.09236565 0.29662618
000150 42 90 b3 3c 61 82 39 bf 66 65 0f be dc 5b a9 3d
       0.021919373 -0.7246457 -0.14003524 0.08269474
000160 04 4f b2 be f4 37 0e 3d ea 90 da 3d 69 5f 35 bd
       -0.3482591 0.03472133 0.106721714 -0.044280443
000170 6b e0 b4 3e 77 b8 d9 3d 65 89 5c 3a 8a fb 8b be
       0.35327467 0.10630887 0.00084128074 -0.27340347
000180 b7 bc 77 3b a1 2c 18 3f 8a 49 b3 3e 7a b7 d2 3d
       0.0037801692 0.594431 0.35017043 0.102889016
000190 58 67 52 bc 87 5c 22 bb 74 30 2e bf 02 71 92 3c
       -0.012842022 -0.002477439 -0.68042684 0.017876152
0001a0 bc f1 eb 3e 74 7f 1b 3d 71 f3 b4 bd d1 ad 80 be
       0.46082866 0.037963346 -0.08835495 -0.2513261
0001b0 a4 1a 1c 3d 2b fc 8e bd 19 52 5d bd 0b 30 d5 bc
       0.038111344 -0.06981691 -0.054033373 -0.026023885
0001c0 c1 dd b3 be bb f9 00 bd ee f8 87 39 50 65 ea 3e
       -0.35130122 -0.03148816 0.00025934674 0.4578042
0001d0 b4 91 0e 3f 47 5d 4b 3f 1a 37 03 3f d0 e4 85 be
       0.55691075 0.79439205 0.51255953 -0.26151133
0001e0 01 22 72 3e 87 b0 ce 3e d3 05 c2 be 94 ee a4 3e
       0.23645784 0.40369055 -0.3789507 0.3221327
0001f0 ff c1 eb bc 55 7b 25 be 70 8c 91 bd 5f 39 55 be
       -0.028779028 -0.16160329 -0.071068645 -0.20822667
000200 9a a6 07 3e 72 e1 cd 3e 14 c3 5a 3e 1f f2 b0 bd
       0.13247147 0.40211064 0.21363479 -0.08639931
000210 6d 60 ba 3b 8c 19 b2 be aa 13 7a bd 18 83 b8 3e
       0.0056877644 -0.34785116 -0.06105391 0.36037517
000220 36 43 e6 bd 7b 8a c4 3e 1d 4b 1c bc 33 e7 84 3c
       -0.11243288 0.38386902 -0.009539393 0.016223526
000230 b4 47 4f bf 26 9e 72 bf d6 8b 20 bf ea fb 1b be
       -0.80968785 -0.94772565 -0.6271337 -0.15232816
000240 4b 17 46 3e d2 29 7f 3e ad ce 4a 3e 43 da 21 be
       0.19344823 0.24918297 0.19805403 -0.15805916
000250 4d dc 5b bd 5b 4e 24 3d d2 a0 0e bd 40 fe d1 3e
       -0.053676892 0.040113788 -0.03482134 0.4101429
000260 44 1c 6a 3e 5b 26 64 be 12 0d 48 3e 67 68 88 bd
       0.22862345 -0.22280256 0.19536236 -0.06660538
000270 13 02 9c 3e 8e 00 b2 bd 13 ce 12 bf 80 5e 10 3f
       0.30470333 -0.08691512 -0.57345694 0.56394196
000280 20 4e ea bd 78 25 37 bf 12 d5 27 be ba c2 0f bd
       -0.114406824 -0.7154155 -0.16389874 -0.035097815
000290 b1 94 4b bc f0 87 7a 3e cf 5f 3a 3d df b7 87 3d
       -0.0124255875 0.24465919 0.045501526 0.066268675
0002a0 ba 2f 7b 3e 1a 50 04 bf d5 a5 eb 3e 8a 5f a6 bd
       0.24529925 -0.51684725 0.46024957 -0.081236914
0002b0 89 ce 08 3e 88 10 82 be 8d 87 92 be 33 0f 8d bc
       0.13360037 -0.25403237 -0.28619042 -0.017219162
0002c0 8c 64 eb 3d 46 f9 8c bd dd d4 dd 3e c3 4a 13 be
       0.11493787 -0.06883483 0.43326464 -0.14383988
0002d0 c6 70 91 be 62 46 de 3d a0 e6 a9 3e 14 c0 c2 bd
       -0.28406352 0.10853268 0.33183765 -0.09509292
0002e0 07 db c5 be 04 1a 90 bd 3c 8a 75 3b a8 63 a0 3d
       -0.38643667 -0.07036212 0.0037466427 0.07831508
0002f0 26 9a 43 bd 68 e1 f0 be 91 c1 2f 3e 28 fd 23 bf
       -0.04775443 -0.4704697 0.17163683 -0.6405816
000300 66 0d 31 be 6a a0 8b 3e eb fd a3 3c 9d 57 71 3e
       -0.17290267 0.27270824 0.020018538 0.23568578
000310 47 8b ec 3e af 77 96 bd 57 ad 46 3e 0b 7a 0a bd
       0.4620001 -0.073470466 0.19402061 -0.033807795
000320 9a a8 ea 3d fd b4 b1 bc 1f fc 66 bf 6b 25 83 3f
       0.114579394 -0.021692747 -0.90228456 1.0245794
000330 ea dd 43 3d 91 38 0a 3f ce 94 66 3d a3 04 3d 3e
       0.047819056 0.53992563 0.056294255 0.184588
000340 27 fb 3f bf 1b 93 e3 bd 22 06 25 3e f1 33 81 3d
       -0.74992603 -0.111120425 0.1611562 0.06308735
000350 ff 7f 42 bf 52 97 19 3d 0e d7 ef be 39 be 56 bf
       -0.75976557 0.037497826 -0.4684376 -0.83884007
000360 6d ea 9a 3c 6f b3 0f 3e 63 f3 77 3e 6a a2 52 bf
       0.018910611 0.14033292 0.24213938 -0.82279074
000370 8b 6a 80 be 1a eb 96 3d eb ca a9 bf e3 43 26 be
       -0.25081286 0.07369061 -1.3265051 -0.16236834
000380 0a 3a 36 be 48 54 7b bd ed 9f 3e bd b8 16 b3 3e
       -0.17795578 -0.061359674 -0.046539236 0.3497827
000390 4c fe b0 bd fc 10 8f bd d9 44 99 bd 3b 5f 73 be
       -0.08642253 -0.069856614 -0.07483835 -0.23766796
0003a0 38 d7 fb be 09 25 8e be 57 52 43 3e 99 23 2d 3e
       -0.49187636 -0.2776263 0.19074379 0.1690811
0003b0 47 60 f5 3d b9 7e f8 be 8e 16 5b 3b 7c 0f 4b bf
       0.11981254 -0.48534182 0.0033430192 -0.793205
0003c0 ce 8d 07 be c4 b9 21 3d bb 75 45 be a1 73 80 3e
       -0.13237688 0.0394838 -0.19283192 0.25088218
0003d0 8b cd 18 3e 40 87 44 3d d5 6a 42 3d b1 63 b5 3d
       0.14922158 0.047980547 0.047465164 0.08856905
0003e0 b3 fb 38 3f 9e ee 9f 3d 30 c2 3f be 70 7f e4 bd
       0.7225906 0.078091845 -0.1872642 -0.11157119
0003f0 68 ee ac bd 1d 49 df 3d 41 07 83 3d de d8 74 3d
       -0.0844391 0.10902617 0.06397868 0.059777133

fc2.bias f4 [84]
000000 21 90 f7 be eb 07 2a bf 5b b5 45 be 57 cc 6d bf
       -0.4835215 -0.6641833 -0.19307463 -0.9288992
000010 8a 71 c3 be 61 b5 2a bf c1 65 0d bf 00 fd f8 be
       -0.3817256 -0.6668301 -0.5523339 -0.48630524
000020 4f 9b 64 bf 38 fd 17 bf 7b 65 8e be 29 3e 30 bf
       -0.8929948 -0.59370756 -0.27811798 -0.6884485
000030 2a cd f2 be e6 27 01 bf 48 80 16 3d 7f 14 3e be
       -0.47422153 -0.50451505 0.036743432 -0.18562506
000040 ef 4f 71 bf 1a 9c 73 be e7 a6 88 bf fe 3f e3 be
       -0.94262594 -0.23790017 -1.0675935 -0.4438476
000050 7e a7 15 bf 1b bc 22 bf 92 f8 a9 bf d0 0a 48 bf
       -0.584587 -0.63568276 -1.3278983 -0.781415
000060 dc 41 6f bf 5a 21 a6 bf e8 9a 58 be 90 5a 70 bf
       -0.9345987 -1.2978928 -0.21152842 -0.9388819
000070 d6 62 4b bf 74 4b 33 bf c9 e7 5e bf f8 ad 31 bf
       -0.79447687 -0.7003701 -0.87072426 -0.6940608
000080 d3 b5 96 bd 37 7f e5 be df 4c 87 bf 48 fa 8d be
       -0.07358899 -0.4482362 -1.0570334 -0.27730012
000090 4d a2 9d be f4 6e b4 bf 01 ca 57 bf 3e 37 36 bf
       -0.30787888 -1.409636 -0.8429261 -0.7117804
0000a0 a7 08 73 bf b5 d8 61 bf 2f 52 3c bf cc e5 34 bf
       -0.9493508 -0.88221294 -0.735629 -0.7066314
0000b0 04 10 91 bf cd 5d 8f bf 15 91 09 bf 7d 3b 31 bf
       -1.1333013 -1.1200501 -0.53737 -0.69231397
0000c0 b7 76 87 bf b7 57 8d bf 01 75 16 bf 64 9c 92 bf
       -1.0583104 -1.1042393 -0.58772284 -1.1453977
0000d0 14 f8 c3 be 28 5a d1 be dd c1 72 bf 7c 03 4f be
       -0.38275206 -0.40889096 -0.9482706 -0.20216173
0000e0 3f 71 e3 be 2a f5 88 bf c4 c9 85 bf 58 e5 22 bf
       -0.44422337 -1.0699818 -1.0452199 -0.636312
0000f0 53 80 48 bf 0a b6 2d be 96 23 7d bf ce ed 82 be
       -0.7832081 -0.16963974 -0.98882425 -0.25572056
000100 ad 51 84 bf b1 b1 3e bf 5a 14 ee be 16 c9 c2 3d
       -1.0337425 -0.74489886 -0.46499902 0.0951101
000110 36 c0 1d bf e3 83 90 bf 9f d3 58 bf 8f d5 82 bf
       -0.61621416 -1.1290249 -0.8469791 -1.0221423
000120 ae 13 48 bf b5 ef 07 bd 2d 47 49 bf 4f 7e 6e bf
       -0.7815503 -0.033187587 -0.7862423 -0.9316148
000130 72 b7 12 bf 96 c6 13 bf c7 ce 00 bf 66 d7 31 bf
       -0.57311165 -0.57724893 -0.5031552 -0.69469297
000140 ab 26 50 bf fd ea 0a bf fc 38 e5 be 45 3b 7e bd
       -0.81309 -0.54264814 -0.44770038 -0.062068243

fc3.weight f4 [10, 84]
000000 64 a2 13 c0 60 bc ae bf 52 6f ef bf 22 f1 f7 be
       -2.3067865 -1.3651237 -1.8705847 -0.48426157
000010 77 f8 a2 bf 55 38 10 bf 7f a5 99 bf d4 82 44 bf
       -1.2732075 -0.56335956 -1.200363 -0.7676213
000020 c3 f5 6d be eb 96 1c bf b3 55 d6 bd 3b 8f de bf
       -0.23238282 -0.6116778 -0.104655646 -1.738746
000030 f8 5f a1 3c 56 93 85 bf a2 75 bb bf 0b 9d 9a bf
       0.019699082 -1.0435588 -1.4645274 -1.2079176
000040 51 02 08 bf 61 61 20 3e 71 29 f5 be aa 43 85 bf
       -0.53128535 0.15662147 -0.4788318 -1.0411274
000050 ab 87 7e bf 6d c9 27 3d 95 88 de be 67 5e 6b be
       -0.9942576 0.04096358 -0.4346358 -0.2298523
000060 14 13 8b be 2f a3 7a bf c4 59 af be 77 5d 7e bf
       -0.27162993 -0.9790525 -0.34248173 -0.99361366
000070 a7 f4 f5 be e1 86 9f be 0f e4 bb bf 27 24 ed bd
       -0.48038217 -0.31157592 -1.4678973 -0.11579161
000080 4c ff d9 bd 2b 3e 3b bf 2b b0 f5 be 0e 60 bc be
       -0.10644397 -0.73141736 -0.47985968 -0.36792034
000090 1e 12 56 bf 8a 05 41 be 53 00 92 be ed f4 6c bf
       -0.83621395 -0.18849769 -0.28515872 -0.9256123
0000a0 d6 7b 8b be a6 95 84 bf fb aa b1 be c1 52 b5 bd
       -0.27242917 -1.0358169 -0.3470076 -0.08853675
0000b0 71 73 55 bf 39 d3 98 bd 2e c2 30 be 72 62 a0 bf
       -0.83379275 -0.074621625 -0.17261574 -1.2530043
0000c0 54 77 64 bf 09 b2 3c be ea 7d 6b bf 3e 88 ee 3d
       -0.8924458 -0.1842729 -0.91989005 0.1164708
0000d0 65 8e 01 3e 72 1e e3 bf 3c ed 84 bf db 00 b5 bf
       0.12651975 -1.7743666 -1.0384898 -1.4140886
0000e0 b5 70 2f bf eb eb 1c be 9d c9 e3 be 02 24 11 bf
       -0.6853135 -0.1532437 -0.44489756 -0.5669557
0000f0 c3 58 16 bf 6f c2 28 c0 e4 d3 49 be 10 6c 98 bf
       -0.5872919 -2.6368673 -0.19709736 -1.1907978
000100 1f 60 97 be 2e 25 54 bf b7 f1 00 be 74 be 6b bf
       -0.29565522 -0.8286923 -0.12592207 -0.92087483
000110 3e dd 24 bf e1 6a 75 bf e5 e8 25 bf 48 8e 0e bd
       -0.6440009 -0.9586621 -0.64808494 -0.03480366
000120 35 5c 03 bf 04 25 88 bf 6e 8e 29 bf 0c 9f 02 bf
       -0.5131257 -1.0636296 -0.66232955 -0.51023936
000130 62 04 9a bf b6 60 7e bf 5b 9d 41 3e 78 8a 49 3e
       -1.2032588 -0.9936632 0.18907683 0.19681728
000140 5a 9a 6e bf 9b 63 6d bf 10 a5 d8 be 3f 97 90 bf
       -0.9320427 -0.9273011 -0.42313433 -1.1296157
000150 f9 62 51 be fe bd 21 bf bd b2 8c bf 1d 9c 33 3d
       -0.20447911 -0.6318053 -1.0992047 0.043850053
000160 0d 58 ba bf 08 bd a9 bf 8b f2 d8 bf c4 e8 9e be
       -1.4558121 -1.3260813 -1.6949018 -0.3103696
000170 a4 46 bb bf 5e 9e 8a be 55 16 99 bf f3 f7 8d be
       -1.4630933 -0.2707395 -1.195994 -0.27728233
000180 25 24 1b bf e4 16 90 be 24 c4 42 bf 8f 99 ba bf
       -0.6060203 -0.28142464 -0.76080537 -1.4578112
000190 50 9a 43 bf 09 e1 f9 bf ec c3 dc bf b6 4d ea bf
       -0.7640734 -1.95218 -1.7247291 -1.8304965
0001a0 7e 4c 82 bf 4e 99 c5 bf 30 e0 12 be 8c 8f 18 c0
       -1.0179594 -1.543741 -0.14343333 -2.3837614
0001b0 fd db 19 bf 7d c5 b7 bd 19 26 b1 bf 08 a9 2d bf
       -0.601013 -0.08973215 -1.3839751 -0.67836046
0001c0 61 d3 be bf 7b 04 6e bf 90 0f be be 4d d5 93 bd
       -1.4908258 -0.92975587 -0.37121248 -0.07218418
0001d0 40 5d 3d 3c 23 b8 dd be 8e 99 6b be 9c e5 a0 be
       0.011557877 -0.43304548 -0.23007795 -0.31425178
0001e0 ac 95 65 bf 82 60 93 be ef 0d 3d bf ee 49 df be
       -0.89681506 -0.28784567 -0.73849386 -0.4361109
0001f0 26 25 d4 bc 71 3d ae bf 29 14 f9 3d ae 0b b0 bf
       -0.02589662 -1.36125 0.12162048 -1.3753564
000200 64 c3 89 bf b7 22 dc be fe a5 7f bf e1 a1 ae 3d
       -1.0762753 -0.42995235 -0.9986266 0.0852697
000210 e8 70 89 be 4c 2c a5 be 0f 0a 6f bf b0 00 bc bf
       -0.26843953 -0.32260358 -0.93374723 -1.468771
000220 7f c8 38 c0 40 2f 3d be 1c 73 3f bf 03 e1 88 bf
       -2.8872373 -0.18475056 -0.7478502 -1.0693668
000230 0d 6c 59 bf c5 6a 52 bf bd 6d b9 bf 28 f2 ee bf
       -0.849305 -0.8219417 -1.4486614 -1.866765
000240 5a 8b 52 bf a8 0c 94 bf ea 1a b4 bf 10 fa 1b 3e
       -0.82243884 -1.1566362 -1.4070714 0.1523211
000250 d0 e1 92 bf 43 78 ba bf fd 5a 1b 3e ea 4b ad bf
       -1.1475163 -1.4567951 0.15171428 -1.3538792
000260 17 73 8a bf 4c 0a 66 be cb 92 7d bf 02 c6 01 bf
       -1.0816373 -0.22464865 -0.99052113 -0.5069276
000270 d5 a5 42 bf 5e 65 ed 3d 01 33 4a be 22 79 28 be
       -0.7603429 0.115916 -0.19746019 -0.16452459
000280 2b b5 33 ba f5 fa ca bd d8 a4 01 3d 78 a6 d2 bb
       -0.0006855304 -0.099111475 0.031651348 -0.006428536
000290 c6 03 c0 be 19 1f ac bd 52 40 a9 bc 48 b8 d2 bf
       -0.3750288 -0.08404369 -0.020660553 -1.6462488
0002a0 05 ec 57 bc 0e 62 37 bf 98 95 b7 be 54 6b f3 be
       -0.01317883 -0.71633995 -0.35856318 -0.47542822
0002b0 d7 bb 8d bf 46 74 1f bf 88 6d e2 be ed fb 30 be
       -1.1072949 -0.62286794 -0.4422419 -0.17283602
0002c0 2d 5e 42 bf 2f 42 5d 3d 21 55 97 be c6 3c e8 bf
       -0.7592495 0.054018196 -0.29557136 -1.8143547
0002d0 09 f9 d7 bd b0 ad 90 be 66 60 df bd d5 3f 61 be
       -0.105455466 -0.28257513 -0.109070584 -0.21997006
0002e0 7a 91 d0 3d 48 a1 39 bf 35 eb 2c 3d 8a 83 93 bf
       0.101839975 -0.7251172 0.0422165 -1.1524518
0002f0 d1 91 9f be a1 be 96 bd f3 22 9b bf 2f 73 c7 be
       -0.31165937 -0.07360578 -1.2120041 -0.38955066
000300 19 f8 2d bf dd f2 c5 bd d4 53 55 bc d5 0d 0b bf
       -0.6795669 -0.09665463 -0.013020474 -0.5431798
000310 69 13 57 bf f2 38 0d 3d 5e 69 88 bf 4d 07 58 bf
       -0.8401399 0.034478135 -1.0657156 -0.8438614
000320 33 e3 03 be bb 1b 4c bf d0 ec 8b bf 2a 58 43 bf
       -0.12879638 -0.79729813 -1.0931644 -0.763064
000330 a4 f3 99 be 56 fd d7 be 6c ae 02 bf a4 af a1 be
       -0.30068696 -0.42185467 -0.51047397 -0.31579316
000340 17 0f e9 be 42 e2 83 be 56 43 9a bd 38 82 88 bf
       -0.45519325 -0.2575856 -0.075323746 -1.066474
000350 f6 07 95 be c6 25 d7 be 95 86 69 bf d7 6c da be
       -0.29107636 -0.42021006 -0.9122098 -0.42661163
000360 32 22 a6 bf 9c 39 65 bf c1 1f dd bf f8 a7 56 bf
       -1.2979186 -0.8954103 -1.7275316 -0.8385005
000370 7e 9b 88 bf bd 2c eb be 42 38 cf bd b0 21 cd bf
       -1.0672452 -0.4593257 -0.10118152 -1.6025906
000380 1a dd 6a 3c 70 00 7f bf 72 68 2f be 86 c8 f3 bf
       0.014334941 -0.9961004 -0.17129686 -1.904557
000390 26 bd a6 3c 3b ba 8f bf 8a 8a 39 bf 4f b5 9a bf
       0.020353865 -1.1228708 -0.7247702 -1.2086581
0003a0 f2 11 c7 be b5 7e af bf be 52 a3 bf 9a 78 c2 be
       -0.3888088 -1.3710543 -1.2759626 -0.37982637
0003b0 45 b7 77 bf 3f 40 9f be 5f 8e 1d be 0c 68 27 3d
       -0.9676402 -0.31103703 -0.15386342 0.04087071
0003c0 7c 84 76 bf 26 06 b4 bf 48 db 17 bf 2f 41 58 bd
       -0.96295905 -1.4064376 -0.5931897 -0.05279654
0003d0 72 08 84 be 62 c6 10 be 6e 69 81 be 77 d1 da 3d
       -0.25787693 -0.14138177 -0.2527575 0.106844835
0003e0 fd da 83 bf d3 e8 9b be 41 42 0b be 2e 1d 8c bf
       -1.0301205 -0.30451068 -0.13599493 -1.0946405
0003f0 21 73 f2 3d f6 fd c4 bd 9d ee c5 be 50 d8 44 3e
       0.11838365 -0.09618752 -0.3865861 0.19223142

fc3.bias f4 [10]
000000 43 83 e2 be 67 37 6c be 3f d6 88 be 57 00 e4 bd
       -0.4424077 -0.2306801 -0.26725957 -0.11132877
000010 37 1d 3b be 13 4e cd be fa 3b e9 be 1b 61 0e be
       -0.18272863 -0.40098628 -0.4555357 -0.1390423
000020 72 41 ff 3e d4 47 82 bc
       0.49854618 -0.015903391
