mnist/saved_models/model_epoch_19.pth (torch, 181338 bytes, 10 tensors)

conv1.weight f4 [6, 1, 5, 5]
000000 82 cb 57 be 92 0e e3 3d 36 23 38 3b 47 60 bc 3e
       -0.21073726 0.110867634 0.002809716 0.36792204
000010 0b c0 06 3e ce 7a 69 3e 81 c3 e2 3e 61 c1 2e 3e
       0.13159196 0.22800753 0.44289783 0.17065956
000020 a5 8d a9 3d 55 61 96 3e 2d 5a 89 3e b6 b3 20 3e
       0.0827897 0.29371133 0.2682661 0.15693554
000030 53 46 23 be 0a bf fc bd de e7 11 bd 78 b4 7d bd
       -0.15944795 -0.12341125 -0.035621516 -0.061939687
000040 f2 47 73 be b2 67 83 be 26 55 a0 be 45 31 5a be
       -0.23757914 -0.2566505 -0.31314963 -0.21307857
000050 de 5a b5 bd 6e ea 32 bd 68 e7 5d bd fc 8e 41 3e
       -0.08855222 -0.0436806 -0.054175764 0.189022
000060 24 cb 09 be cf a9 ae be ff 3a 57 3c 42 4b c7 3e
       -0.13456398 -0.3411393 0.013136624 0.38924605
000070 20 07 30 be 2f ac ef bd ae 70 b0 be b8 eb e9 3b
       -0.17190218 -0.11702763 -0.34460968 0.0071386956
000080 9e 65 00 3f 0d d4 b3 3c 23 8a 0e 3d cf bf 76 be
       0.50155056 0.0219517 0.034799706 -0.24096607
000090 5b 81 95 be 43 66 b5 3e 4b 08 97 3e 3c 6d 0d bd
       -0.29200253 0.35429582 0.29498515 -0.034528002
0000a0 5e 08 98 bd b0 bf 06 bf e3 af 25 be 1d 6b 6d be
       -0.07423471 -0.5263624 -0.16180377 -0.23185392
0000b0 35 95 1f be 39 68 8b 3e 62 75 19 3c e6 5d eb 3d
       -0.15584262 0.27227953 0.009366365 0.11492519
0000c0 33 74 ae 3d 6f bc a7 3d b9 e4 24 bd fd 6e f9 bd
       0.08518257 0.08190238 -0.04025719 -0.121793725
0000d0 a5 9d 08 be 5c 67 1c bd ca 1e b1 be e5 d0 ba bd
       -0.13341387 -0.03818451 -0.34593803 -0.09121875
0000e0 eb 4b 8d bc 0d 42 94 3e 00 45 dc 3e ee 27 ce bd
       -0.017248115 0.28956643 0.43021393 -0.1006621
0000f0 1b f0 8e 3e c2 e8 8a 3e a8 98 0d 3f 8a 30 28 3f
       0.2791756 0.27130705 0.5531106 0.65699065
000100 ca b8 be bd 3f 37 88 bd f5 51 e8 be 2f 72 31 be
       -0.093125895 -0.06651162 -0.45375028 -0.17328714
000110 86 1d af 3e 75 b0 e5 3d 7b 78 97 3d 56 5c 92 be
       0.34202212 0.11215297 0.07396027 -0.28586072
000120 3c 56 0b bf e1 8e 85 bd 13 35 89 3e 03 0d ac bb
       -0.5442846 -0.065213926 0.26798305 -0.0052505746
000130 7f 8a c1 3d 7f 8a 9e bd ae 3f 2c bd b3 b5 b0 3d
       0.09450244 -0.0774126 -0.042052917 0.086284064
000140 6f 72 8b 3d 7e 6a 1d 3c 19 46 03 be e7 45 94 3d
       0.06808936 0.009607909 -0.12819709 0.07239895
000150 2c d2 66 3e ce a4 60 3d 9c fd 74 bd 29 50 87 be
       0.22541112 0.05484467 -0.059812173 -0.26428345
000160 02 25 01 be a8 76 72 3e 01 c8 c7 bd 3a e3 f5 bd
       -0.12611774 0.23678076 -0.097549446 -0.12006231
000170 f0 02 46 be 14 ae cc 3e 79 d5 da 3e b4 30 4e be
       -0.19337058 0.3997656 0.42740992 -0.20135766
000180 36 ac d2 3b 39 15 10 3e b4 10 5a 3d ee 2f e8 3d
       0.0064292205 0.14070596 0.053238586 0.11337267
000190 73 96 91 3d 16 5f 67 3d 17 6f c4 3e 92 c6 2d 3a
       0.07108774 0.056487165 0.38366005 0.00066290156
0001a0 db a1 8c 3e 4c 64 5b 3b c8 c8 24 be 09 97 92 3b
       0.27467236 0.003347653 -0.16092217 0.004473571
0001b0 78 32 2e 3c e8 ac 1d 3e bf 85 2c be a2 5e ad be
       0.01063215 0.1539799 -0.16847895 -0.33861262
0001c0 a6 80 74 be 9f ea e3 be 77 1a 8f bd 84 6b 60 3e
       -0.238772 -0.4451494 -0.0698747 0.21916014
0001d0 c9 d8 38 be 97 ad fb be be b4 8e be e1 5a ce 3d
       -0.18051447 -0.49155876 -0.2787227 0.100759275
0001e0 0d 1e 20 3e 18 af d4 3e ae 9b e2 3e c6 ed f4 3e
       0.15636463 0.41539836 0.442594 0.47837657
0001f0 f7 b1 a6 3d 0d 39 15 3d c0 bc e8 3d 13 5f c4 bd
       0.08139413 0.03643136 0.11364126 -0.095884465
000200 d6 c5 3b bb 6b de 8e 3d 9b f2 88 be 91 05 55 3e
       -0.0028651855 0.069760166 -0.26747593 0.20802905
000210 db 26 b7 3d 51 c4 ce bd 83 84 20 be bc fa 0b bc
       0.08942958 -0.10096038 -0.15675549 -0.008543666
000220 02 d2 13 3f e8 ec 31 be 2b 86 a2 be 72 f2 3b 3d
       0.5774232 -0.17375529 -0.31742987 0.04588551
000230 6b fb 73 3e 43 b3 a8 3e 10 9d 06 bf 8e 2d cc 3c
       0.23826377 0.32949266 -0.5258341 0.024924066
000240 50 4f b9 bc 3c 8e 10 3e dc e2 52 be 2d be 43 be
       -0.022620827 0.14116758 -0.20594352 -0.19115515
000250 b5 1f 80 bb cb 21 5e bd
       -0.00391003 -0.054231446

conv1.bias f4 [6]
000000 5b f0 ee bd 78 93 8b bf fb 9a a7 be 9b a1 06 bf
       -0.11666938 -1.0904379 -0.32735428 -0.5259034
000010 4d 50 13 bf 67 02 0d bf
       -0.57544404 -0.5508179

conv2.weight f4 [16, 6, 5, 5]
000000 cb 53 1c 3e 04 3d 0a bd b0 04 97 3e bf 66 b0 3e
       0.1526634 -0.033749595 0.29495764 0.3445339
000010 a0 a5 a6 3d af 76 0a 3e 8d 93 82 3d 2b e7 a1 3e
       0.08137059 0.13521837 0.06375799 0.3162168
000020 dd c8 fd 3d eb 79 86 3e d3 5f 04 3d 17 45 3f 3e
       0.12391827 0.2626489 0.032317948 0.186787
000030 90 ab d3 3d f5 0d 86 bd 5a 19 62 3e cd 81 0f bf
       0.10335457 -0.06545631 0.22079983 -0.56057435
000040 30 8d b3 be e6 cf eb be 6b 57 05 bf dc ae ae be
       -0.35068655 -0.4605705 -0.52086514 -0.34117782
000050 63 33 71 bf 30 2e 5c bf aa 7c 55 bf e8 33 c6 bf
       -0.94219035 -0.86007977 -0.8339335 -1.548459
000060 69 35 df bf 1b 22 3d 3e 05 54 83 be 02 f5 3c bf
       -1.7438174 0.18470041 -0.2565004 -0.7381135
000070 22 93 1f 3e e9 e3 e8 bd f1 a2 c5 3d e8 0b ad be
       0.1558347 -0.113715954 0.09650219 -0.33798146
000080 5e 4c d1 be fb ae c2 3d a3 d3 36 be ac ca a7 3e
       -0.40878576 0.09506031 -0.1785417 0.32771814
000090 99 6b 75 3e 2b 57 d5 be 14 c1 ab 3c 1f 43 2b be
       0.23966826 -0.41668066 0.02096609 -0.16724823
0000a0 20 ac bf 3e 57 5a d2 3e 20 75 86 be 25 da 16 3e
       0.37436008 0.4108455 -0.26261234 0.14731653
0000b0 f3 d0 12 be 16 f7 81 bd 36 77 19 3e 38 ca d9 be
       -0.1433752 -0.06345956 0.14986882 -0.42537093
0000c0 ae 51 2f 3e 84 84 af be 28 e9 a5 3e ec a2 47 3e
       0.17121002 -0.3428079 0.32404447 0.19495744
0000d0 48 d9 f5 bb d6 3e e4 bd 46 85 0e 3e e7 bc 83 be
       -0.0075027086 -0.111447975 0.13918027 -0.2573006
0000e0 01 d2 5a 3e fa b7 3e 3d c7 77 53 3d 0a 80 78 3e
       0.21369173 0.046562172 0.0516279 0.24267593
0000f0 bb 05 51 3d 93 ea 63 3e 2e c5 e8 be 97 e9 70 3d
       0.051030856 0.22257452 -0.45462936 0.05881652
000100 ba b6 0b be 6c 1b ed be 89 0e ef be 9f 54 82 bf
       -0.13643923 -0.46309984 -0.46690777 -1.0182074
000110 01 57 f1 be 41 02 9c bf 77 1d aa 3d 84 01 f8 bd
       -0.4713669 -1.2188188 0.08306401 -0.12109664
000120 86 ef 94 be 49 6d 07 bf a2 33 17 bf 06 9b 92 3e
       -0.29088992 -0.5290113 -0.5906316 0.28633898
000130 fb 6f 1a 3f ca 48 8c be e9 b4 8f be 3a 5e 3b be
       0.6032712 -0.27399284 -0.2806771 -0.18297663
000140 2b da ef 3e 99 65 d1 3c 9a 1f a5 be b4 ab 54 bd
       0.46846136 0.02556114 -0.32250673 -0.05192156
000150 8f 06 71 3d e0 dd 80 3d 11 0a 24 bf b7 14 2a bf
       0.058844145 0.06292319 -0.6407786 -0.6643786
000160 b0 9d 14 bf 32 2e 75 bf 4f 6b 3d be 55 d0 1c bf
       -0.5805311 -0.95773613 -0.18497966 -0.6125539
000170 17 46 a3 bf ac 0b af bf 7b 04 99 bf 29 d6 6f bd
       -1.2755765 -1.3675437 -1.1954492 -0.05855385
000180 15 a1 c8 bd b5 03 03 bf c0 db 1d bf c0 e4 83 bf
       -0.09796349 -0.5117753 -0.61663437 -1.0304184
000190 9f 7f 82 3e 77 69 3b 3d 85 94 83 3c 38 69 89 3d
       0.25487992 0.045754876 0.01606203 0.06709522
0001a0 95 30 23 3e 2d 60 09 3e 84 bc ee 3d 81 a4 b5 be
       0.15936501 0.13415594 0.1165705 -0.3547707
0001b0 35 93 e8 be f1 bf 24 3e 5f 7f 23 be 12 e3 40 be
       -0.4542481 0.16088845 -0.15966557 -0.1883662
0001c0 fa 6b f9 be a9 e2 1f be 60 37 77 bc 37 56 eb 3e
       -0.48715192 -0.15613808 -0.015088886 0.45964214
0001d0 4a 18 3e 3e 48 85 d9 bd 7b ea e2 be d3 34 34 bc
       0.18563953 -0.106211245 -0.4431952 -0.010998922
0001e0 06 4c 8d 3e af 56 c8 3e 14 39 78 3e db 75 8c 3e
       0.27597064 0.39128634 0.24240524 0.27433667
0001f0 92 8a 98 3e 3c bb b8 bd da c2 b5 be 77 c3 ca 3e
       0.2979322 -0.09020087 -0.35500222 0.39602253
000200 97 76 be 3d c0 31 67 3d bd f6 38 3e f8 8c 52 bd
       0.09299963 0.05644393 0.18062873 -0.05140397
000210 6a 6c 6c 3e bc be 1d 3c 8f 42 d7 be 56 1d 23 3e
       0.23088232 0.009627994 -0.42042968 0.1592916
000220 45 b8 d4 bc 76 0a 44 be cc ff 08 bf 18 a0 ca be
       -0.025966773 -0.19144616 -0.53515315 -0.39575267
000230 80 35 1b bd cf e0 8f be 62 93 27 bf c5 d5 d4 bf
       -0.03789282 -0.28101203 -0.65459263 -1.6627737
000240 48 e1 55 bf 11 e5 53 bc 2c a5 8f bd 3e 2d 39 bf
       -0.83546877 -0.012933032 -0.07013926 -0.7233466
000250 ea d3 6a bf 16 bc b4 bf cd 6d 0c bf 76 b1 97 be
       -0.91729605 -1.4119899 -0.5485504 -0.2962758
000260 ba 6c 13 be fd 0b 68 3e c8 e0 61 3e 2e 82 a2 be
       -0.14396945 0.22660823 0.22058403 -0.31739944
000270 f1 93 21 bf b5 fd 4b bf b6 95 d7 be fd 65 8a bd
       -0.63116366 -0.79684 -0.42106408 -0.06757734
000280 13 fe 56 3e 7b 5d 65 3e b4 6a 50 3e d7 d9 00 3e
       0.20995359 0.22398941 0.20353204 0.125831
000290 95 c8 cf 3d 1a ad 85 bc 10 98 82 3e 5e 25 68 3e
       0.1014568 -0.016317893 0.2550664 0.22670504
0002a0 a3 38 ff 3d 5a e4 48 3d b9 20 a4 be 1e d2 00 bf
       0.124619745 0.049045898 -0.32056215 -0.50320613
0002b0 16 c8 2b bf b4 25 36 bf a1 31 cc be c9 d6 51 3e
       -0.6710218 -0.7115128 -0.39881614 0.2049209
0002c0 23 fe 57 3e 9a 0f af be ec 0e bb 3d cb 64 2c bd
       0.21093039 -0.3419159 0.091337055 -0.04208831
0002d0 2b 43 5b bd 46 3c 1e bd 0e a2 4a be e2 01 86 be
       -0.053530853 -0.0386317 -0.19788381 -0.2617331
0002e0 06 93 2d be 63 d3 53 3d fe f9 f1 3e 7d 29 2a 3e
       -0.16950616 0.051715266 0.4726104 0.16617389
0002f0 57 26 26 bf 9f 9a 10 bf a1 b5 a0 be f1 d8 d7 3d
       -0.6490225 -0.56485933 -0.31388572 0.10539425
000300 30 4a a4 bc 67 2a eb be 91 7f 58 3c 33 d4 4d be
       -0.020054907 -0.45930788 0.013214008 -0.20100479
000310 cb e2 d6 be 63 a0 09 bf bb 42 c4 be 06 fa 60 3e
       -0.41969904 -0.53760356 -0.3833216 0.21970376
000320 06 9e 48 3d 42 ff e4 3d 7d ed e6 be 90 e7 63 be
       0.048978828 0.11181499 -0.45103064 -0.22256303
000330 73 34 21 bd 25 75 d4 3e 36 fd 8d 3e 3f 5c 6c 3d
       -0.03935666 0.41495624 0.27732247 0.05770516
000340 c8 d5 7d be e8 90 b1 be cc ad a8 bd 03 36 9f 3e
       -0.24788582 -0.34680867 -0.08236274 0.31095895
000350 2a 29 b7 3e 5d 3a c9 3e 36 94 ef 3b 46 7f e9 be
       0.35773593 0.3930234 0.0073113693 -0.45604914
000360 57 71 ab be 3c 8c 62 3d 3b 6f b5 bc c8 de 29 be
       -0.3348491 0.05530952 -0.022147765 -0.1658889
000370 e3 8b 78 be 0c 8d 06 bf 78 c6 24 bf 0b ed 51 bf
       -0.24272113 -0.5255897 -0.6436534 -0.82002324
000380 f0 32 96 be 77 c2 85 3e 6a b9 d0 3d 48 9d e0 be
       -0.29335737 0.26124927 0.10191615 -0.43869996
000390 31 39 f9 bd 4f dc 89 be 26 0e 57 bd 4a ae df bd
       -0.121691115 -0.26925895 -0.052503727 -0.10921915
0003a0 b9 8f 91 be 05 e7 26 be a3 bf 48 be fd 11 c8 3b
       -0.28429964 -0.16299064 -0.19604354 0.00610566
0003b0 46 31 16 be 25 b4 8c be 65 0d 84 3e 3d c4 4d be
       -0.14667234 -0.2748119 0.2579147 -0.2009439
0003c0 4a 4c 86 bd 28 19 c3 be 24 3f 00 be 3d a5 ad 3e
       -0.0655752 -0.3810513 -0.12524086 0.3391513
0003d0 86 45 5a 3d 48 46 5d 3e 76 47 9a 3e d3 e5 ea 3c
       0.05328896 0.21608841 0.30132645 0.028674042
0003e0 db f6 e3 3d 07 41 c3 be 8a a5 06 3e 6a 89 af be
       0.11131068 -0.3813555 0.13149086 -0.34284526
0003f0 56 88 e0 bd ba c9 1d 3d 52 03 33 3e 97 80 9c bc
       -0.10963504 0.03852246 0.17481735 -0.019104285

conv2.bias f4 [16]
000000 a7 b0 09 bd e8 68 4a be 0f b4 d3 bd 35 78 91 3d
       -0.033615734 -0.19766581 -0.10337078 0.07103006
000010 f7 42 32 3a 14 06 9d bb aa 51 7d be 48 bb 04 be
       0.00068001397 -0.0047919843 -0.24738184 -0.12962067
000020 46 69 08 be 68 9f 60 be ab 74 1b bd 04 fa 9e 3e
       -0.13321409 -0.21935809 -0.03795306 0.31050122
000030 68 db 10 3e 7e 8e 27 be a4 39 76 bd 09 a7 0f be
       0.14146197 -0.1636295 -0.060113564 -0.14028563

fc1.weight f4 [120, 256]
000000 73 be d1 bd e6 75 93 be 1f a7 f4 be 65 ac db 3d
       -0.102414034 -0.28800887 -0.47783753 0.10726241
000010 7d d7 48 3d 80 ef dc be 93 57 ca be 4f 54 24 be
       0.04903363 -0.43151474 -0.3951994 -0.16047786
000020 2d e7 ae be 5f e4 38 bc 66 bf c8 3d 5e 2d 6b 3e
       -0.34160748 -0.011284917 0.09802131 0.22966525
000030 ea 1d 92 be ab e5 44 3d 59 ef 98 be 79 69 7a 3d
       -0.28538448 0.04807059 -0.29870108 0.061135743
000040 6c 93 94 be 5e c5 52 be 63 5e 20 3e 5f 0b 32 bd
       -0.29018724 -0.20583102 0.15661006 -0.043467876
000050 0c b3 6d be ad 54 58 be a9 f8 92 bd 17 26 89 bd
       -0.23212832 -0.21126051 -0.071763344 -0.06696718
000060 6d 26 69 bf 36 7f 5d bf 5c 1b 4a 3d d3 6f 06 3f
       -0.9107426 -0.86522233 0.0493425 0.5251438
000070 09 97 5a bf 6d 9a 09 3e 28 08 66 3e db c6 db 3d
       -0.8538671 0.13437815 0.22464049 0.10731288
000080 57 36 86 3e bf 64 0f 3e 41 07 d1 3d 26 dc 14 bf
       0.26213333 0.14003275 0.10206462 -0.5814842
000090 4d 3d e3 3e 26 8c 24 3f ef 9b 26 3f 18 d7 7d 3e
       0.44382706 0.6427635 0.65081686 0.24789083
0000a0 dc 42 ac be 44 76 1f be 5b 31 86 3e 5a 4f d6 3d
       -0.3364476 -0.15572459 0.2620953 0.10464354
0000b0 0a 42 3e 3d 45 04 bb bb 4b 5e d7 3c b9 6a 66 3c
       0.0464497 -0.005707296 0.02629008 0.014063531
0000c0 9b 0c 04 be ff 57 9b 3d 06 68 b6 3d 51 3d 8a bd
       -0.12895434 0.07585143 0.0890656 -0.067499764
0000d0 ec 55 77 be 57 f5 f4 be ac 46 94 bd 99 2d d9 3e
       -0.2415387 -0.4784343 -0.07240042 0.424176
0000e0 1d 8e 12 be 28 3e c1 be 45 a3 5c bd 24 60 d2 3d
       -0.14312024 -0.37742734 -0.053866643 0.102722436
0000f0 a7 46 33 3f 8b 90 b4 3e b9 3f 34 be 4d 04 1d be
       0.7002968 0.35266528 -0.17602433 -0.15333672
000100 7c b7 46 3e da 4e 4e bf cb ad 93 be ed fb 31 bd
       0.19405931 -0.8058907 -0.2884353 -0.043453146
000110 09 34 48 bd cf 53 10 be 66 40 87 be 4f ae 9c bc
       -0.04887775 -0.1409447 -0.2641632 -0.019126086
000120 9f ab e8 be e9 5f d3 be 9e 01 a4 be d1 66 09 3d
       -0.45443437 -0.4128411 -0.32032484 0.03354532
000130 d8 a3 26 3f 1a f3 07 3f e5 4b 4c 3e cc 30 b6 3e
       0.65093756 0.5310532 0.19950826 0.35584104
000140 c4 09 27 bf f7 a6 16 3e f9 f6 c2 3e 1e 2e 53 3e
       -0.65249276 0.1471213 0.3807905 0.20623061
000150 1c a7 f9 bd cd ba b7 3d 8c 1f 28 3c 19 a6 29 3e
       -0.12190077 0.08971176 0.010261428 0.16567267
000160 66 eb c6 3e c8 f5 76 be 74 05 41 3e 5a 00 a9 bd
       0.3885147 -0.24117196 0.18849736 -0.0825202
000170 79 e1 6c 3d 24 d1 5e be ca 7a 88 be 68 83 bc be
       0.057832215 -0.21759468 -0.2665618 -0.36819005
000180 90 11 39 3e 5f b9 05 be f1 a0 a5 be 04 e6 e6 be
       0.18073106 -0.13058995 -0.3234935 -0.45097363
000190 b5 dc 9e 3e 77 d1 f9 be f7 8a 8a 3e 0d ce 11 3e
       0.3102776 -0.48792621 0.27059147 0.14238758
0001a0 20 fc 77 bf cf bd 0b be 6e 82 86 bd 9a ca b6 be
       -0.9686909 -0.13646625 -0.06567846 -0.35701448
0001b0 1e 1e 04 3c d4 d4 f1 3d cb 49 98 be f7 f8 81 be
       0.008063821 0.11808172 -0.297438 -0.25385258
0001c0 fe d5 e2 be e0 d0 ae 3d 35 5f 65 3e 7f d3 4a bf
       -0.44303888 0.085359335 0.223996 -0.7922897
0001d0 de 94 12 bf 88 54 3e 3f f0 2d 19 3e f9 0b 73 bd
       -0.57258403 0.74347734 0.1495893 -0.05933759
0001e0 d1 3c a8 3d a2 43 9a 3e 50 98 98 3e 13 c1 20 3e
       0.08214725 0.30129725 0.29803705 0.15698652
0001f0 69 0c 57 be 2d 4f a9 bc ab 88 0f ba d1 89 d2 3d
       -0.21000828 -0.020667637 -0.0005475382 0.10280193
000200 49 50 57 be bf 9f 0f 3f cd e7 3c 3d df d4 45 be
       -0.2102672 0.5610313 0.0461195 -0.19319485
000210 3d a2 53 bf 48 fd 74 be 68 a9 8d 3d e7 96 7d be
       -0.8266943 -0.23924744 0.06917077 -0.24764596
000220 16 37 cd bf 66 d4 ea be 51 94 f6 3b ff 57 d9 3c
       -1.6032436 -0.45865172 0.007525005 0.026531218
000230 39 75 0c bd 85 ab 97 3e 04 0a bf 3d b4 77 69 bd
       -0.03429148 0.29623047 0.09328082 -0.056998923
000240 69 bf 1a bd ae ed 78 bf b2 c3 8c bd 5c a7 5a 3e
       -0.0377802 -0.9723767 -0.068732634 0.21352905
000250 73 37 75 be e4 46 95 bd 8f 23 b3 be 18 37 2a bf
       -0.23946933 -0.07288912 -0.34988067 -0.66490316
000260 93 a8 96 be 53 17 c0 3e 95 71 10 be 79 3e b3 be
       -0.29425487 0.37517795 -0.14105828 -0.350086
000270 37 74 09 3f 0c dc 82 bd f8 69 2d be 49 e1 18 be
       0.53692955 -0.06389627 -0.16934955 -0.1492969
000280 b0 52 29 bf 88 c7 e4 3e 2f 32 bd 3e 39 6d aa 3e
       -0.66141796 0.4468348 0.3695235 0.33286455
000290 71 40 a7 3d 5e 07 b7 bd 3e d8 c8 be ca 05 39 be
       0.08166588 -0.08936952 -0.3922748 -0.18068615
0002a0 0c bd 85 3e fe 7f 20 bf ee f3 45 be 7c ad ac bd
       0.26120794 -0.626953 -0.19331333 -0.08431527
0002b0 e8 09 1e be e1 0b 81 bc 6b f1 a0 bd 4c e9 b7 be
       -0.15433466 -0.015752735 -0.07858547 -0.3592018
0002c0 f1 d5 f0 bd af 32 a5 be 68 ce fa 3e 9f 26 0c 3f
       -0.11759556 -0.3226523 0.489856 0.5474643
0002d0 c5 7b a4 3e cc fc 22 3f fb 9c 83 be 4a ad e1 bd
       0.3212568 0.6366699 -0.25705704 -0.110193804
0002e0 47 d8 46 3e 4e b3 b9 3e 5a ad c1 be c2 07 2d be
       0.19418441 0.3626961 -0.3782757 -0.1689749
0002f0 22 ea d5 3d b1 e3 5f be ca 08 1c 3f e9 75 b7 3e
       0.10445048 -0.21864201 0.6095091 0.35832146
000300 4e e4 12 be ce c4 dc 3e e2 05 08 3e 6d f8 55 be
       -0.14344904 0.431189 0.13283494 -0.20895548
000310 b5 89 0c bf ec b0 8d 3e 61 88 39 be 70 91 c0 bd
       -0.54897624 0.27674043 -0.1811843 -0.0940274
000320 07 a6 99 be 35 6a ff 3d 28 19 21 bb 67 b5 25 be
       -0.3000948 0.12471429 -0.0024581645 -0.16182481
000330 8f 96 a8 3d b1 e2 9e 3e ee 61 66 3e dd 25 8d be
       0.08231842 0.31032327 0.22498295 -0.2756795
000340 6c 99 19 3f 3d c0 8c 3e d3 e7 db bd e2 a8 64 bd
       0.5999973 0.27490416 -0.10737576 -0.05582512
000350 0c 99 2b bf 0c f1 54 be 88 6e af 3b 3c 75 0a 3f
       -0.67030406 -0.20795077 0.0053537525 0.54085135
000360 7f 9f 7b 3d 7a 73 de be 7e f4 af be 29 9a 92 3e
       0.061431404 -0.43447477 -0.3436622 0.2863324
000370 e3 a1 55 3e dd f4 44 3e 9c f9 71 3d 0f 61 5b bd
       0.20862536 0.19234033 0.059075937 -0.05355936
000380 a7 53 e4 bd e7 df aa be d6 e2 96 bf 63 e5 da be
       -0.11148768 -0.3337395 -1.1787975 -0.42753133
000390 c2 92 17 3f 39 df 6b 3f aa d0 9f be d7 ef 23 be
       0.5920831 0.92137486 -0.31213886 -0.1600946
0003a0 80 31 9b 3d 24 83 18 3f 0f 4f db 3e 8b 9a 8a 3e
       0.07577801 0.59575105 0.42833754 0.27071032
0003b0 bb e5 6a be f4 f4 61 3e cc 9c 02 be c0 e9 11 be
       -0.22939198 0.22066098 -0.12755126 -0.14249325
0003c0 b6 83 71 3e 3a 70 97 3e 6e 7c 26 bf 93 50 4e bf
       0.235854 0.2957781 -0.65033615 -0.80591697
0003d0 10 26 91 3e 68 de b6 3e ba 8c 9e 3e 80 71 1c be
       0.28349352 0.35716558 0.3096674 -0.15277672
0003e0 2d 78 89 3e 78 4b 07 3e ba 00 08 be 38 99 d5 3e
       0.268495 0.13212383 -0.13281527 0.4171846
0003f0 62 42 2b 3e 8e 98 80 3e df ba 62 3e 86 f0 82 3d
       0.16724542 0.2511639 0.22141598 0.063935325

fc1.bias f4 [120]
000000 79 bb 18 be d6 cf 4c be 0e 6d 0d bf 4d 03 8d bc
       -0.14915265 -0.20001158 -0.5524453 -0.017213488
000010 e9 93 60 bc 9a 56 bb bc 38 65 89 be 67 6a 5e be
       -0.0137071395 -0.022868443 -0.26835036 -0.21720277
000020 80 1a 62 3e a2 09 45 bf 20 30 ca bb c7 54 7a be
       0.22080421 -0.76967824 -0.0061702877 -0.24446402
000030 eb d9 1e bc c5 b4 a7 be 86 0b 98 bd 45 50 b3 bd
       -0.00969551 -0.32755104 -0.07424073 -0.087555446
000040 a1 f3 79 be ec a1 80 bb d1 8c 8f be 4d 51 81 bd
       -0.24409343 -0.0039255526 -0.28037122 -0.06314335
000050 a3 78 bc be 49 d4 a6 bd 6b 4d bc bd b3 99 98 3c
       -0.3681079 -0.08145959 -0.09194454 0.018627977
000060 8f 9c 9a bd e4 6c b3 bd ba f9 3b 3d 3e c4 c5 bd
       -0.075493924 -0.087610036 0.045892455 -0.09656571
000070 1b 7e 4d 3d 3d 31 82 3c a3 45 8c be 53 37 b7 3c
       0.05016909 0.01589262 -0.2739688 0.022365248
000080 2a 7f a2 be 63 48 1f be 36 52 40 bd ab 57 a7 be
       -0.31737643 -0.15554957 -0.046953402 -0.32684073
000090 5d 5c 67 bd ae dc 6f bd 06 7a e3 bc ef 7b 71 be
       -0.05648457 -0.058560066 -0.027768146 -0.23582433
0000a0 bc eb 10 be eb 54 2c bf 2a e1 6e bd 36 f7 7f be
       -0.14152426 -0.67317075 -0.058320202 -0.24996647
0000b0 20 e0 79 3d 39 31 5b bf c7 dc 8d be b7 d7 08 bf
       0.061004758 -0.8562198 -0.27707502 -0.53454155
0000c0 d4 8c 3c 3e 4d 06 6f bd c5 b8 01 3e a4 76 b4 3e
       0.18413097 -0.05835562 0.1266814 0.35246766
0000d0 fd 81 4d bf fb 6f 2c 3e bb 30 8f be 0c 90 9e bd
       -0.8027647 0.16839592 -0.27966866 -0.077423185
0000e0 d5 63 9a be af c4 e9 bb 27 9d f5 3d 7e 94 05 be
       -0.3015429 -0.007134042 0.11992865 -0.13044927
0000f0 18 a3 db be e1 c0 d3 bd 25 7a 63 be 68 94 41 bf
       -0.42897868 -0.10339523 -0.22214563 -0.75617075
000100 97 07 40 be d6 f5 a4 3c da 53 d6 be 6f 5f d1 3d
       -0.18752895 0.020136755 -0.4186085 0.10223281
000110 02 63 94 39 d8 6a e8 be fa bf e8 bc f5 c1 8f bc
       0.00028302526 -0.45394015 -0.028411854 -0.01754854
000120 ec 9f 1f be 39 25 83 bf 1a e3 ed bd 6f 3e bd be
       -0.15588349 -1.0245734 -0.11615582 -0.36961696
000130 c9 4d 47 be bd 7b cd be 4d c3 00 bf 25 80 a6 3d
       -0.19463266 -0.40133467 -0.50298005 0.081299104
000140 f4 cd 3b be 12 47 20 bf 14 cc 91 be 50 be 34 be
       -0.18340284 -0.62608445 -0.28476012 -0.17650723
000150 4b 8c 1c 3d 74 04 42 be ad b6 ba be 07 7b 22 bd
       0.03821973 -0.18947011 -0.36467496 -0.03966811
000160 81 18 10 3e 17 6c dd be 43 31 93 be 1b a5 8e be
       0.14071847 -0.43246529 -0.2874852 -0.2786034
000170 af 8f 0b 3e 44 6e f2 be 92 88 05 bf 75 9e a5 3d
       0.1362903 -0.4734975 -0.52161515 0.08086864
000180 33 0e d4 3c db 6b 1b bd 23 85 74 be 49 76 53 bf
       0.025885677 -0.037944656 -0.23878913 -0.82602364
000190 d1 bc c7 3c 12 f9 05 bb a0 f8 9c be 41 47 09 be
       0.024382027 -0.0020442647 -0.30658436 -0.13406087
0001a0 9c 72 03 be fb 4a 73 be a2 95 aa be 8e 07 e5 bd
       -0.12836689 -0.23759072 -0.33317286 -0.111830816
0001b0 11 fc 0c bf ea 7f 32 bd 9d 98 8f be 79 40 a6 bd
       -0.5507212 -0.04357902 -0.28046122 -0.08117766
0001c0 77 01 c4 3c 60 c4 52 bc 2b 54 29 be 8a 71 63 be
       0.02392648 -0.012864202 -0.16536014 -0.2221128
0001d0 df ed 39 3e 2a af 1a 3d 41 6a d5 be 01 44 ed bc
       0.18157147 0.037764706 -0.41682628 -0.02896309

fc2.weight f4 [84, 120]
000000 31 68 97 bd 89 31 6a be e3 b5 51 be ad 4e a8 be
       -0.0739292 -0.22870459 -0.2047954 -0.32872525
000010 a8 f0 d3 3d 5d 7e af be d6 fd c6 3e 9c cb ae bd
       0.10348636 -0.34276095 0.38865536 -0.08534929
000020 c2 64 42 3e 0c b0 9e 3e dc 8b a3 3d 9f bb cb 3d
       0.18983749 0.30993688 0.079856604 0.09947895
000030 11 e1 83 bd f8 4b f0 3e 41 7e 1d bd c0 9f 50 3c
       -0.064394124 0.4693296 -0.038450483 0.0127334
000040 05 9d ab 3e 63 80 16 be 31 c9 80 be f7 07 83 be
       0.33518234 -0.14697413 -0.25153497 -0.25592014
000050 d9 5b e2 be 7e 26 ca 3c 75 4a ad 3d af c6 dc bc
       -0.442107 0.024676558 0.08461467 -0.026950208
000060 6a 99 37 bf a4 5c 53 3d c4 6d df 3d ce ab 5d bd
       -0.71718466 0.05160202 0.10909608 -0.054118924
000070 2d 3f 62 be bc 5d c3 3c 5e 67 b8 3e 3b d3 1d 3e
       -0.22094412 0.023848407 0.36016363 0.1541261
000080 8f fb 94 be 86 5e 5a be 06 39 0a 3e 3c eb 73 be
       -0.29098174 -0.2132512 0.13498315 -0.23820204
000090 69 62 94 be 07 e8 41 bc 9f b4 86 be 7b b2 77 3d
       -0.2898133 -0.011835105 -0.26309678 0.060472947
0000a0 98 5e 86 3c e0 f0 18 3f be 7f 94 3c 41 33 c0 3d
       0.016402528 0.59742546 0.018127318 0.09384776
0000b0 e0 56 15 be ab 1f 60 be d6 26 a3 be 01 94 1d 3e
       -0.14583921 -0.2188708 -0.31865567 0.1538849
0000c0 7c 0b e0 3d f8 48 26 bf 42 a9 b0 3d d0 c0 54 bf
       0.109396905 -0.6495509 0.08626033 -0.8310671
0000d0 55 82 b8 be 77 a9 29 bf 9e a5 48 bd 1b eb 52 3d
       -0.36036935 -0.6627421 -0.04898607 0.051493745
0000e0 11 42 c8 bd 29 84 38 bd ac f5 8f 3d 34 5e a2 be
       -0.09778226 -0.045047913 0.0702928 -0.31712496
0000f0 f0 67 c1 3e fd d1 52 3d fa 30 65 be e5 de 97 3c
       0.3777461 0.05146979 -0.22381964 0.018538902
000100 ab 79 0e 3f 4b ba a9 3e 0a 27 4f 3d b5 29 01 bd
       0.556544 0.33149943 0.05057434 -0.031533916
000110 16 55 06 3b 42 be 17 bf 6d 32 f5 bb f3 c3 6b bd
       0.0020497493 -0.59274685 -0.007482818 -0.05755992
000120 88 6f 81 be 5e 62 8d 3e 18 06 30 3e ce 75 bb 3e
       -0.25280404 0.2761411 0.17189825 0.36613315
000130 03 0e 02 bf 01 a9 d5 be f9 25 80 3b 2d 84 ae be
       -0.5080263 -0.41730502 0.0039107767 -0.34085217
000140 09 4b fb be fb 56 e6 3c 4f 3a 25 be d0 ae 87 3e
       -0.49080685 0.028117647 -0.16135524 0.2650056
000150 86 56 0a 3e d2 eb 89 bd d9 36 b4 bc 2b 85 d2 3e
       0.13509569 -0.06734432 -0.02199881 0.41117224
000160 01 1b 48 be 27 7c 76 bd 84 95 28 bd 10 e5 29 3f
       -0.19541551 -0.060176995 -0.041158214 0.66365147
000170 78 2e 8a be dc 67 45 3d 0f 85 ec be 6f 09 79 bd
       -0.26988578 0.04819475 -0.46195266 -0.060800012
000180 43 8a 2c bd 8a 75 3a bf 15 d7 3a 3e ac ae 04 3d
       -0.042124044 -0.728356 0.1824611 0.032393143
000190 22 48 4a 3e 7c 20 88 bd 1b 6d c5 bd 1d f0 70 3e
       0.19754079 -0.06646821 -0.09639951 0.23529096
0001a0 12 01 6b 3e a9 1e f5 3e 05 0c 80 bd 2a 76 90 bd
       0.22949627 0.47874954 -0.062522925 -0.07053788
0001b0 c1 a4 e8 3c b9 2d 91 3e 13 00 6c be f9 b7 8e 3d
       0.028398873 0.28355196 -0.23046903 0.06968684
0001c0 73 5d a0 3d 28 77 7c bc 64 29 ee be 59 76 fb 3d
       0.07830324 -0.015409268 -0.46515954 0.122784324
0001d0 cb b8 5a be ad 02 9b bd f4 8f c9 be 3a cc 50 be
       -0.21359555 -0.0756887 -0.3936764 -0.20390406
0001e0 e9 ba 97 be f4 db f6 be 78 13 e9 bd 26 0e fd bd
       -0.2963479 -0.48214686 -0.113806665 -0.12356214
0001f0 b7 b8 a9 be 57 9b d6 3e 00 a3 dd bd da f4 fb 3e
       -0.3314874 0.4191539 -0.108221054 0.49210244
000200 35 18 9d 3e be 5f 2d 3e be 98 3d bf a5 3b 6a 3e
       0.3068253 0.16931054 -0.7406119 0.22874315
000210 10 64 64 3c 58 60 9b 3c 45 17 d1 3c ce 09 39 bd
       0.013939872 0.018966839 0.025523791 -0.045175366
000220 32 bd da bd d5 20 19 3e 6d 0a f3 3e 0f b3 2f 3e
       -0.106806174 0.1495393 0.47468892 0.17158149
000230 11 c4 59 3e 79 89 30 bd 81 c5 65 3e 72 19 87 3d
       0.212662 -0.043099854 0.22438623 0.0659665
000240 4f 85 89 3e ec 33 71 bd 3c 74 be ba 42 4d f9 bc
       0.2685952 -0.058887407 -0.001453049 -0.030432347
000250 34 f1 97 39 36 e2 48 bd 7b ec 8a be 47 d1 5f 3e
       0.00028980675 -0.049043857 -0.27133545 0.21857177
000260 52 3b 2b 3e f9 4a 21 3e c4 8c 3f be 59 f3 ff 3e
       0.16721848 0.15751256 -0.18706042 0.49990347
000270 1e a9 30 bf b5 b8 35 bd e4 ba 14 be a1 40 f7 bd
       -0.6900805 -0.044365603 -0.14524418 -0.12072874
000280 84 9c 8c be b1 6d e4 3b dd 08 28 3d ff e1 0a 3e
       -0.27463162 0.006971084 0.041024078 0.13562773
000290 ef 20 06 be c2 1a 0e 3f 82 c3 e3 be c3 da 04 3e
       -0.130985 0.5550958 -0.44485098 0.12974076
0002a0 b3 df 1f 3e fc 29 0c 3e d5 d8 c9 3d cd 9c 2b be
       0.15612678 0.13687891 0.098558106 -0.16759034
0002b0 91 9d 93 be 0e 3c ea be 26 fa ae be cd 69 e0 ba
       -0.2883115 -0.45748943 -0.34175223 -0.0017121375
0002c0 b4 6d 07 bf 0c 55 b8 3d 2f 89 51 be 6d 34 e3 3d
       -0.5290177 0.090005964 -0.20462488 0.11093984
0002d0 22 c4 16 bf f5 7d 54 bd 19 d2 1d 3e 45 2d 6d 3e
       -0.58893025 -0.051877934 0.15412177 0.231618
0002e0 f9 48 5c be 04 ec e4 bd 88 92 6b 3e fa 47 02 3e
       -0.21512212 -0.11177829 0.23005116 0.1272277
0002f0 d0 fe ac bd 92 7b 0c 3e 06 00 ac bd 9c bf 8a 3c
       -0.08447039 0.13719013 -0.08398442 0.01693707
000300 bb ed 5f 3d 3c 77 90 bd 86 f7 01 be d6 02 db 3e
       0.054670077 -0.07053992 -0.12692079 0.427756
000310 50 ea 1d 3f 26 51 95 be e0 f0 bd bc 59 e0 1f bf
       0.6168566 -0.29163474 -0.023186147 -0.624517
000320 fc 89 5c 3d 33 06 91 bd 4f 99 3d 3e 9d 68 7a 3d
       0.05384253 -0.070812605 0.18515514 0.061134923
000330 c5 0c 68 bd c8 32 f5 be ce 04 b4 3e d3 8d b4 bd
       -0.056652803 -0.47890306 0.35159916 -0.08816113
000340 b6 51 5a be 19 e1 46 3e 18 52 95 be e4 a3 8a 3e
       -0.21320233 0.19421805 -0.29164195 0.27078164
000350 a9 6a b5 be 33 16 56 3e 89 de f9 3e 68 5b 96 3d
       -0.35432938 0.20906906 0.48802593 0.07341653
000360 75 26 e0 bc 2c 85 fc 3d 13 fb af be 0c 00 98 3e
       -0.027362088 0.12330088 -0.34371242 0.29687536
000370 5b 38 31 bd b8 b1 d7 bb 84 0e 2d ba 21 a4 dd be
       -0.043266635 -0.006582465 -0.0006601589 -0.43289283
000380 1e c3 2a 3f 48 f1 0d bf 98 93 85 3e fc 05 81 3d
       0.66703975 -0.5544629 0.26089168 0.062999696
000390 83 ed 2e 3e a3 2d e6 bd 4c 0a 24 3e 1c 1e 90 be
       0.17082791 -0.11239173 0.16019553 -0.28147972
0003a0 5a f8 12 bd ed b2 4f bd cc ad 5b bc 8a fd ab 3e
       -0.035881378 -0.050707746 -0.013408136 0.33591872
0003b0 50 0e a6 be 31 c6 ef 3b d6 75 82 3e 4e 42 75 3e
       -0.32432795 0.0073173274 0.25480527 0.23951074
0003c0 f5 bf e2 3e 61 35 ba 3d 57 ec 5a be f1 d7 21 be
       0.44287077 0.090922125 -0.21379219 -0.15805031
0003d0 fa 1f 9f 3d f3 8e 98 be f1 9d 47 3f 1a 9d e8 be
       0.07769771 -0.29796562 0.77975374 -0.4543236
0003e0 75 a2 a6 be b7 9c 13 3f f7 eb 35 bf 5f 20 a3 3e
       -0.3254582 0.57661 -0.7106318 0.31860635
0003f0 4a da 68 bd c1 06 5c 3e de 70 a0 3c af f3 76 3a
       -0.0568488 0.21486951 0.01958507 0.0009420467

fc2.bias f4 [84]
000000 da 9f 71 be 16 20 73 be b7 74 07 bf c6 76 e7 3d
       -0.23596135 -0.23742709 -0.5291247 0.11301951
000010 b5 78 d2 be 4e 1d 03 bf a8 e9 ab be 87 4d 0b bd
       -0.41107717 -0.5121659 -0.33576703 -0.034009483
000020 3b 0a 72 be fb d1 fc bd c5 00 a9 be d6 89 f1 be
       -0.23636715 -0.12344738 -0.330084 -0.47175473
000030 80 31 43 3d ed ba 6b be 52 74 ad be 9e 75 31 3e
       0.04765463 -0.23020525 -0.33877808 0.17330024
000040 bc 2f 4d be 68 cf a4 be 45 3d 27 bf a6 da 8f 3c
       -0.2003774 -0.32189488 -0.65327865 0.017560314
000050 05 ea b9 be e4 41 97 be 1a d3 07 bf 34 4f 56 3c
       -0.36311355 -0.29542458 -0.5305649 0.013080407
000060 0a 20 93 be 1b 14 3c bd 2b 5d 7a be 75 73 eb be
       -0.2873538 -0.04591761 -0.24449603 -0.45986524
000070 c9 5b d3 bd 0a 46 9f 3d b3 3b 27 be 37 6f 28 be
       -0.10320241 0.07777031 -0.16331367 -0.16448675
000080 66 b5 fd bd 05 b9 63 bf 6d 33 23 bf 82 26 c8 3d
       -0.12388115 -0.8895419 -0.63750345 0.0977297
000090 1b 1f da 3d f8 cc 08 3d b7 0f 39 bd 84 75 46 be
       0.10650464 0.0333986 -0.045181002 -0.19380766
0000a0 33 da 0d bd 94 1a 08 bf fd d7 b2 bd 00 51 dc be
       -0.03463192 -0.53165555 -0.08732603 -0.43030548
0000b0 b0 be b9 be 69 a1 24 be 0e d0 a2 be ed 29 ad be
       -0.36278296 -0.16077198 -0.31799358 -0.3382105
0000c0 92 94 82 3e 1a 2e 9d 3d 24 c7 73 be 17 51 a2 be
       0.25503975 0.07674809 -0.23806435 -0.31702492
0000d0 4c 1c c5 be 4a 7e 9e be fa 07 17 be 45 79 f0 be
       -0.3849815 -0.30955726 -0.14749137 -0.4696752
0000e0 b7 3d b1 be 5c c4 ba be 56 f5 23 be e2 f0 13 bf
       -0.34617397 -0.36477935 -0.16011557 -0.57789433
0000f0 53 3b d6 be 32 87 3d bd fc b2 93 bd dc d3 ab be
       -0.41842136 -0.04627151 -0.07211873 -0.33560073
000100 8a 4b c9 be 03 19 17 bf d6 00 20 bf 30 61 82 be
       -0.39315444 -0.5902254 -0.62501276 -0.25464773
000110 3e f1 28 bf 0b 78 ea be ad 8b 1e 3c d6 d5 df be
       -0.65993106 -0.4579471 0.009676856 -0.4371783
000120 5f 13 18 bf 5b 94 2b be 61 46 4b be 88 25 86 3d
       -0.5940456 -0.16755812 -0.19851066 0.06550127
000130 b2 41 96 3e 5d 62 46 3d 72 87 11 be 46 23 0a 3e
       0.29346997 0.04843365 -0.14211825 0.13490018
000140 5e 5c f4 be 12 4f ca be 8a ad 80 3e c5 ed 81 be
       -0.4772672 -0.3951345 0.251324 -0.25376716

fc3.weight f4 [10, 84]
000000 55 ee 3d bf 4b 73 9f be e5 e3 58 bf 72 d6 34 bf
       -0.7419179 -0.3114265 -0.8472274 -0.7063972
000010 6a 3b bd be e3 77 66 bf 17 7d c5 bd f2 6a 1e bf
       -0.36959392 -0.9002668 -0.096429996 -0.61881936
000020 e9 cd 20 bf 97 60 08 be ea 51 da be 3b 39 8d bf
       -0.62814194 -0.13318096 -0.4264062 -1.103309
000030 04 9d 20 bf 5d cb 8d bf 85 c8 be bf b4 57 53 bf
       -0.62739587 -1.1077687 -1.4904944 -0.825557
000040 2e c3 28 bf e5 c9 c4 be b2 98 02 bd 50 ba e2 bc
       -0.6592282 -0.38435283 -0.031883903 -0.027676731
000050 ef cb d8 3d a4 bb ad be 5c db 0d bd 13 ec 62 bf
       0.10585772 -0.3393222 -0.034633026 -0.8864147
000060 24 29 52 bf 30 6a 46 be 4d 8b 0a bf e9 bf 59 be
       -0.82094026 -0.19376445 -0.54118806 -0.21264614
000070 83 df d3 be a7 17 41 bf 70 73 02 3e bb a8 63 bf
       -0.41381463 -0.75426716 0.12739348 -0.8892934
000080 13 8e e8 be b4 54 a5 be db f0 8d bc 7e 6e 67 bc
       -0.45420894 -0.32291186 -0.017326763 -0.0141254645
000090 e4 d6 67 be ab 26 3d bf 1f 43 57 bf 11 57 b7 be
       -0.22640568 -0.7388713 -0.84086794 -0.35808614
0000a0 50 11 d4 be 4b 9b 67 be d9 15 b8 3d 4c eb 46 3e
       -0.41419458 -0.22617833 0.08988542 0.19425696
0000b0 fb 4f 5e bf 52 b9 78 bf e2 92 fe be f8 37 72 3e
       -0.8684079 -0.97157776 -0.49721438 0.23654163
0000c0 50 9d 82 bf ce da 9b be 95 9c ea bc cb 9a 3c bf
       -1.0204258 -0.30440372 -0.028639117 -0.73673695
0000d0 3e 3f 1e bf b5 4a 9a bd d7 b1 7d bf 64 e4 11 3e
       -0.6181525 -0.075337805 -0.9909949 0.1424728
0000e0 a2 78 3d bf 21 67 69 bf a6 ec 99 3d e9 27 59 be
       -0.74012196 -0.9117299 0.0751584 -0.21206631
0000f0 68 dd 5a bf 32 2c 72 bd c0 43 0c be 4e 30 11 3e
       -0.8549409 -0.05912418 -0.1369772 0.14178583
000100 fc 13 49 bf 36 95 81 bf 7a af 68 3d 96 20 8d bf
       -0.7854612 -1.012366 0.056807972 -1.102557
000110 8d 5e 23 bf 8f 3b a7 bd b8 ee d1 bd e7 31 ea 3b
       -0.6381615 -0.08165657 -0.1025061 0.007147062
000120 6b 02 59 be 07 9f d2 3d 30 be 5e 3d af 44 2a 3d
       -0.21192329 0.10284238 0.054380596 0.041569408
000130 9c 36 36 bf 49 74 80 bd 67 f0 54 bc 73 be 49 bb
       -0.7117708 -0.0627218 -0.0129967695 -0.0030783683
000140 d6 c0 44 bf c0 09 f9 3d d8 93 88 bf da d8 08 3e
       -0.76856744 0.12160063 -1.0670118 0.13363972
000150 78 56 c2 bc d6 87 45 bf 39 2d c1 3d 72 c8 c5 bd
       -0.023722872 -0.77160394 0.09432454 -0.096573725
000160 97 0c e2 be fd d3 02 be da 91 e1 3d 39 98 42 bf
       -0.4415023 -0.1277618 0.11014147 -0.76013523
000170 d6 39 ee be 0b 2b 36 bf 87 47 e0 3c fb b2 30 be
       -0.465285 -0.7115943 0.027377857 -0.17255776
000180 09 8f 8c bf 5e e7 f1 be 69 ab a2 be be 07 81 bd
       -1.0981151 -0.47246832 -0.317714 -0.06300305
000190 a3 4b 5a 3d 27 9e 01 be e5 bd 4e bf aa 5d b6 3b
       0.05329479 -0.12657987 -0.80758506 0.005565365
0001a0 fa b3 1e bf be 4c 03 bf 70 1d 48 bf a8 9a 79 bd
       -0.6199337 -0.51288974 -0.7816992 -0.060938507
0001b0 5a 46 aa bd dd 9d 2d bf 62 10 bd be 7a b6 93 bf
       -0.083142 -0.67819005 -0.36926562 -1.1540062
0001c0 a2 3b 22 bf 5b ce 05 bf 1a 03 9c 3d 56 a4 0b bf
       -0.6337224 -0.52268 0.07617779 -0.5454763
0001d0 62 e2 0e bf 16 6f 15 bf 27 ff f3 be 59 28 59 bf
       -0.5581418 -0.5837263 -0.47655603 -0.8482719
0001e0 d0 2b 99 bf d9 bf 0b bf a8 0e 21 bf fa b6 55 bf
       -1.1966496 -0.5458961 -0.6291299 -0.83482325
0001f0 fc cf 01 bf 91 ed 2a 3e 4a bf 42 bf dd cc 39 be
       -0.50707984 0.16692187 -0.76073134 -0.18144555
000200 85 b1 d7 be be 4b d4 bc b3 48 1d be c3 b2 32 bf
       -0.42127624 -0.025915023 -0.15359764 -0.6980402
000210 5a 47 69 bf d2 e2 0a 3d ea 94 61 bf f6 8b 40 be
       -0.911245 0.03390772 -0.8811785 -0.18803391
000220 2e 2b 0a bf 2e 0c e6 be d0 d2 20 bf 22 dc 52 bf
       -0.53972137 -0.44931167 -0.62821674 -0.82367146
000230 2e da 12 bf 3c 16 1c 3d 7c 56 b9 be c7 15 a2 bf
       -0.57364166 0.03810714 -0.36198795 -1.2662896
000240 c9 4b 47 bf 9f b5 46 bf 4c 9c 23 bf 89 83 96 bc
       -0.77850014 -0.7762088 -0.63910365 -0.018373268
000250 af af 5b be 88 d9 84 bf 20 eb 5e bf ea d7 a4 3d
       -0.21453737 -1.0378885 -0.8707752 0.08048995
000260 be a8 0c 3b b7 72 77 be b5 71 aa bf 73 68 21 bf
       0.0021462883 -0.24164854 -1.3315951 -0.6305
000270 21 68 ab be 8b 27 74 bf e5 be d2 bd dc dc 60 bd
       -0.33477882 -0.9537284 -0.102903165 -0.054898128
000280 67 e4 1e bf 25 de ce bf 49 60 0c 3d 51 7d 41 bf
       -0.62067264 -1.6161543 0.034271512 -0.7558184
000290 95 98 38 bf 16 f6 39 bf 57 4f 57 bf 77 3f ed be
       -0.7210782 -0.7264112 -0.8410544 -0.46337482
0002a0 13 23 34 be ca 9a 04 bf 39 4f 66 be 69 76 b9 bd
       -0.17591505 -0.5179869 -0.22491159 -0.09055788
0002b0 93 b2 b4 be 1d f8 1d be c8 9a 98 bc b9 26 41 bd
       -0.3529249 -0.15426679 -0.018628493 -0.04715607
0002c0 3f 81 92 be 27 a5 ed 3b a0 1a 0b 3c 31 f3 0e bf
       -0.28614232 0.0072523537 0.008490235 -0.5583983
0002d0 a5 14 a6 be ff 9a a8 bf 33 e5 f1 bd c7 2b 85 3d
       -0.32437626 -1.3172301 -0.118112944 0.065024905
0002e0 09 4e df bd b8 8f 3a bf e4 1f ac bc fe 3f 45 bf
       -0.10903556 -0.7287555 -0.0210113 -0.7705077
0002f0 83 b9 2d bf 45 99 c4 be d2 5c 3a bf 80 96 27 bf
       -0.67861193 -0.38398185 -0.7279788 -0.6546402
000300 22 28 ea bd cc 39 c5 be 14 d3 3d 3e 5d bf d6 be
       -0.11433436 -0.38520658 0.18537551 -0.41942874
000310 46 80 6d 3e a8 5a 9d bf 5e 76 c8 3d 3a 2b 83 bb
       0.23193464 -1.2293291 0.09788202 -0.0040029557
000320 14 24 34 bf f6 b7 86 3d bc 6a 30 bd f2 43 0d be
       -0.7036755 0.065780565 -0.04307054 -0.1379545
000330 fe c9 3e bf 0f 29 46 be da 98 11 bf 2a 74 3f bf
       -0.74526966 -0.193516 -0.5687386 -0.7478663
000340 be 72 40 bf 6a d5 e0 be 75 6b 22 3e ba ce 84 bd
       -0.7517508 -0.43912822 0.15861304 -0.064847425
000350 f1 e3 e4 be ea ce 3d be 89 93 45 bf f3 0b de 3d
       -0.44705155 -0.18535963 -0.77178246 0.10842123
000360 91 c0 f5 be d9 90 67 bf 38 30 71 bf 49 25 65 bd
       -0.4799848 -0.90455395 -0.942142 -0.05594376
000370 a8 ad 31 bf aa 64 82 be 02 b3 db bd 0a a9 48 bf
       -0.69405603 -0.25467426 -0.107275024 -0.78382933
000380 57 90 36 bd 1b 9f 12 bf 50 0d 35 bf f4 3c 4c be
       -0.044571247 -0.57274026 -0.7072344 -0.19945127
000390 07 eb 22 3d 49 cb 8a be 09 d3 2a bf 8c a8 3c bf
       0.03977492 -0.2710822 -0.66728264 -0.7369468
0003a0 ee 42 06 bf bb 05 cf be ed 2b 4c bc ec 5c 0b 3e
       -0.52445877 -0.4043406 -0.012461645 0.13609666
0003b0 0c c8 5d bf a9 43 48 bc 40 ca 80 be e6 ad 97 bf
       -0.8663337 -0.012223163 -0.25154305 -1.1849945
0003c0 40 bc 28 be dd 60 af bc 0f ef 7c bf d6 5e 9e be
       -0.16478062 -0.021408493 -0.98802274 -0.3093173
0003d0 1a f8 a8 be 2b a2 3c 3e 9b cb 07 3d 10 26 7c bf
       -0.33001786 0.18421237 0.033153158 -0.9849558
0003e0 08 43 ae bf ca e6 4b bf 81 84 5b bf 6b b4 b4 be
       -1.3614206 -0.7964903 -0.8574906 -0.35293898
0003f0 6a 45 07 be 4a b6 e2 be 18 a3 ae 3d cc 0b 46 be
       -0.13210073 -0.442797 0.085272014 -0.19340438

fc3.bias f4 [10]
000000 6e 19 c6 be b6 20 b8 bd 4c ad 56 bd 99 1b d9 bc
       -0.38691276 -0.08990614 -0.052411363 -0.026502417
000010 b9 57 0c 3d f8 ad 8b be 26 b3 f4 bd a0 4c 66 be
       0.034263346 -0.27281165 -0.11948232 -0.22490168
000020 86 f0 a4 3e 9a 2a 45 3e
       0.32214755 0.19254532
