mnist/saved_models/model_epoch_24.pth (torch, 181338 bytes, 10 tensors)

conv1.weight f4 [6, 1, 5, 5]
0	0xbe59f320	-0.21284151
1	0x3db5c68e	0.08875762
2	0xbd12390c	-0.035698935
3	0x3eaa54ef	0.33267924
4	0x3da0b6e2	0.07847382
5	0x3e1ffab6	0.15622982
6	0x3efdfb4d	0.4960579
7	0x3e28fe51	0.16503264
8	0x3dafde49	0.085873194
9	0x3e9065d0	0.28202677
10	0x3e26737e	0.16254994
11	0x3df01c57	0.117241554
12	0xbe38f646	-0.18062696
13	0xbd9f8b1e	-0.077902064
14	0xbcdcb466	-0.02694149
15	0xbddc4e1f	-0.10757088
16	0xbe8b41a3	-0.27198514
17	0xbe532510	-0.20619607
18	0xbe8bc088	-0.27295327
19	0xbe816146	-0.25269526
20	0xbe0dfd12	-0.1386607
21	0xbce0660e	-0.027392413
22	0xbb4b4982	-0.0031019156
23	0x3e56557d	0.20931049
24	0xbe1c1631	-0.1524284
25	0xbe9462f0	-0.28981733
26	0x3c4ae5a7	0.012383855
27	0x3ebf7f45	0.37401786
28	0xbe7352ce	-0.23762056
29	0xbe591300	-0.21198654
30	0xbebd88f4	-0.3701855
31	0x3bce7089	0.0063000363
32	0x3f079542	0.52962124
33	0x3c311359	0.0108078355
34	0x3c1b2846	0.009470051
35	0xbe9ded22	-0.3084498
36	0xbec9f6c4	-0.3944608
37	0x3eab705b	0.33484158
38	0x3e6cbcc5	0.23118885
39	0x3ca49d6b	0.020094594
40	0xbd8f8710	-0.07008183
41	0xbf1718e1	-0.5902234
42	0xbdf997a0	-0.12187123
43	0xbe9313a1	-0.28725913
44	0xbdcea515	-0.10090081
45	0x3e9f32d0	0.31093454
46	0x3bc912c2	0.0061362693
47	0x3e4f7e0d	0.20262928
48	0x3db3030e	0.08740817
49	0x3e0c207f	0.13684271
50	0xbcfe1e1d	-0.031020219
51	0xbe250480	-0.16114998
52	0xbe3a9ed7	-0.18224655
53	0xbbff9d92	-0.0078007663
54	0xbe83913a	-0.25696737
55	0xbd91790b	-0.07103165
56	0xbd8a2578	-0.06745428
57	0x3e728f96	0.23687586
58	0x3edb8ad0	0.42879343
59	0xbdc0f935	-0.094225325
60	0x3e71be19	0.23607673
61	0x3e5ac428	0.2136389
62	0x3f09139a	0.53545535
63	0x3f1c81eb	0.6113574
64	0xbe201e86	-0.15636644
65	0xbdbbdcaa	-0.09172948
66	0xbee4a06b	-0.4465364
67	0xbe067eb8	-0.13134277
68	0x3ea4e5d7	0.32206604
69	0x3e029720	0.12752962
70	0xbc8b3209	-0.016991632
71	0xbe88c1c1	-0.26710322
72	0xbeeca6bf	-0.46220967
73	0xbd05ed84	-0.032697216
74	0x3eb2b3f9	0.34902933
75	0xbcb86a99	-0.022511767
76	0x3e0c13e5	0.13679464
77	0xbc1c0de9	-0.009524801
78	0xbd12ec7c	-0.03587006
79	0xbc221879	-0.00989353
80	0x3da71e8d	0.08160124
81	0x3d69bebe	0.05706667
82	0xbdc64658	-0.09681386
83	0x3c789965	0.015173291
84	0x3e580a38	0.21097648
85	0x3d03bd50	0.032162964
86	0xbdce5fa7	-0.10076838
87	0xbe9c0661	-0.30473617
88	0xbe2e3b66	-0.17014846
89	0x3e87896c	0.26472032
90	0xbe377f4f	-0.17919658
91	0xbe503f20	-0.2033658
92	0xbe6fd796	-0.23422083
93	0x3ed5b926	0.4174282
94	0x3edd9cd1	0.43283704
95	0xbe83f8b1	-0.25775674
96	0xbd38ac5f	-0.04508626
97	0x3e17a396	0.14808497
98	0x3ddf63ea	0.10907729
99	0x3de5c9ac	0.112201065
100	0x3d99d0c6	0.075105235
101	0x3c68dfa2	0.0142134745
102	0x3eac0e0f	0.33604476
103	0xbd0f8a90	-0.035044253
104	0x3e8df144	0.27723134
105	0xbc9f598d	-0.01945188
106	0xbe48917b	-0.19586746
107	0xbcab482f	-0.020908443
108	0x3cb8102c	0.022468649
109	0x3e4e1500	0.20125198
110	0xbdf20e9e	-0.11819194
111	0xbea05bab	-0.31319937
112	0xbe8f6140	-0.28003883
113	0xbef9c634	-0.4878403
114	0xbd0d8cf0	-0.034558237
115	0x3eabc2f2	0.3354717
116	0xbe11f9bc	-0.14255422
117	0xbf16a9ae	-0.5885266
118	0xbe8a87fc	-0.27056873
119	0x3e08dad2	0.13364723
120	0x3e184b25	0.14872415
121	0x3ec8865f	0.39165017
122	0x3ee52495	0.44754472
123	0x3efd2998	0.49445796
124	0x3ce3919c	0.027779393
125	0x3e36af4a	0.17840305
126	0x3e4616c0	0.19344616
127	0xbd29189a	-0.041283228
128	0x3c8bd563	0.017069524
129	0x3d9e7505	0.077371635
130	0xbe8ff1dd	-0.28114215
131	0x3e533bc9	0.20628275
132	0x3e11053e	0.14162156
133	0xbdd50f8b	-0.10403355
134	0xbdd53172	-0.104098216
135	0xbdb4140b	-0.087928854
136	0x3f22a5ca	0.63534224
137	0xbdff8c4f	-0.124779336
138	0xbe856c46	-0.2605917
139	0x3e2b8787	0.16750918
140	0x3eaa5727	0.33269617
141	0x3ec5653a	0.38553792
142	0xbf163c3a	-0.5868565
143	0x3cb03415	0.02150921
144	0x3d11cf90	0.035598338
145	0x3ea06ec0	0.31334496
146	0xbe6bb224	-0.23017174
147	0xbe5f7eb2	-0.21825674
148	0xbc0341cd	-0.008011294
149	0xbc6d7539	-0.01449328

conv1.bias f4 [6]
0	0xbe44d194	-0.19220573
1	0xbf94c215	-1.1621729
2	0xbebc24b2	-0.36746746
3	0xbf13d18f	-0.57741636
4	0xbf1e395b	-0.6180627
5	0xbf1ee433	-0.62066954

conv2.weight f4 [16, 6, 5, 5]
0	0x3e13d885	0.14438064
1	0xbe1b608e	-0.15173551
2	0x3e874170	0.26417112
3	0x3e96965c	0.2941159
4	0x3d0a4643	0.033758413
5	0x3d58473f	0.05280232
6	0xbd121f39	-0.035674307
7	0x3e9bcdfb	0.30430588
8	0x3de7107f	0.11282443
9	0x3e8a7e90	0.27049685
10	0xbb88ccdf	-0.004174813
11	0x3e5bb2b3	0.21454887
12	0x3e1f8592	0.15578297
13	0xbd450ced	-0.04810803
14	0x3e717c0f	0.23582481
15	0xbf33b0ec	-0.70191836
16	0xbeed0d65	-0.46299282
17	0xbf02beca	-0.5107237
18	0xbee53246	-0.44764918
19	0xbe5bd853	-0.2146924
20	0xbf8b2489	-1.0870525
21	0xbf874972	-1.0569289
22	0xbf91e2c8	-1.1397333
23	0xbfd97e00	-1.6991577
24	0xbff92eb7	-1.9467381
25	0x3e9b01b3	0.30274734
26	0xbe528b3e	-0.20560929
27	0xbf35abbd	-0.70965177
28	0x3e81b30e	0.2533192
29	0xbdc7fca6	-0.09764986
30	0x3e226581	0.15859033
31	0xbe8a74e2	-0.270423
32	0xbeb55e5a	-0.35423547
33	0x3e63f99d	0.22263189
34	0xbe136b32	-0.1439636
35	0x3ea75d57	0.326884
36	0x3eae5097	0.3404586
37	0xbebc422e	-0.3676924
38	0x3d0a33d8	0.03374085
39	0xbddfd593	-0.10929408
40	0x3e9bfd23	0.30466565
41	0x3eac8eeb	0.33702788
42	0xbe409a3e	-0.18808839
43	0x3e8e622e	0.2780928
44	0xbd7c2dd1	-0.06156713
45	0xbd9ed2c4	-0.07755044
46	0x3e1a1bbf	0.15049647
47	0xbf10e99c	-0.5660646
48	0x3e229621	0.15877582
49	0xbec87f45	-0.391596
50	0x3e96e06e	0.294681
51	0x3e1c640c	0.1527254
52	0xbc998bd6	-0.018743437
53	0xbdcba9e7	-0.09944516
54	0x3e63d2f5	0.22248442
55	0xbe94e12e	-0.29078048
56	0x3e9c6c71	0.30551484
57	0x3de3c88f	0.11122238
58	0x3d7dbc3c	0.061947092
59	0x3e7821e9	0.24231686
60	0x3ca65347	0.020303382
61	0x3e9f6dcc	0.31138456
62	0xbee6f069	-0.45105293
63	0x3d9beca6	0.076134965
64	0xbe0601a7	-0.13086568
65	0xbf0dfd9b	-0.55465096
66	0xbf39ee8e	-0.7262963
67	0xbf8dc83a	-1.1076729
68	0xbf1a269b	-0.6021516
69	0xbfb7427a	-1.4317162
70	0x3da08fc4	0.07839921
71	0xbe0fa88b	-0.14029138
72	0xbe7db075	-0.24774344
73	0xbf1792e2	-0.592085
74	0xbf180b14	-0.59391904
75	0x3ea1389b	0.314885
76	0x3f572087	0.8403401
77	0xbde19f6b	-0.11016735
78	0xbea880c5	-0.32910743
79	0xbe3710bc	-0.17877477
80	0x3f035e07	0.5131535
81	0x3d6ec949	0.05829743
82	0xbeab3636	-0.33439797
83	0xbddf9c7f	-0.10918521
84	0xbd75a7c9	-0.059974466
85	0x3da04c88	0.07827097
86	0xbf3a8702	-0.72862256
87	0xbf289942	-0.6585885
88	0xbeee7d29	-0.46579865
89	0xbf6db27d	-0.92850477
90	0xbe0ba48d	-0.1363699
91	0xbf370d0e	-0.71504295
92	0xbfada584	-1.3566136
93	0xbfb487b0	-1.4103909
94	0xbf9921e6	-1.196347
95	0xbc980e8e	-0.018561628
96	0x3bc733c4	0.006079169
97	0xbf09e805	-0.5386966
98	0xbee9c762	-0.4565993
99	0xbf77f5c7	-0.968594
100	0x3e917669	0.28410652
101	0x3d57caff	0.052683827
102	0xbbe40d40	-0.0069595873
103	0x3dcd3d1d	0.10021422
104	0x3e6adf4a	0.2293674
105	0x3d86e7e9	0.06587202
106	0x3d227025	0.03965773
107	0xbe94937a	-0.29018766
108	0xbed21930	-0.41034842
109	0x3e74d484	0.23909193
110	0xbe79b393	-0.24384908
111	0xbdc9ce13	-0.09853759
112	0xbec8c30f	-0.39211318
113	0xbdfce3ec	-0.1234816
114	0x3d625296	0.05525454
115	0x3ed96c2f	0.4246535
116	0x3e326f5f	0.17425297
117	0xbcd934d3	-0.026514446
118	0xbeb72827	-0.3577282
119	0x3e0370ae	0.12835953
120	0x3ea2ba40	0.31782722
121	0x3ed4be64	0.41551507
122	0x3e82894b	0.2549537
123	0x3e9e314f	0.30896994
124	0x3e8dd4ff	0.27701566
125	0xbe9fa8d2	-0.31183487
126	0xbee2ff7a	-0.44335538
127	0x3ec5df58	0.3864696
128	0x3dc5ab29	0.09651787
129	0xbd92f1ae	-0.07175003
130	0x3e02b9e3	0.12766223
131	0xbca8967a	-0.020579565
132	0x3e92231b	0.28542408
133	0xbd123ccf	-0.035702523
134	0xbef6e582	-0.48221976
135	0x3e55a47c	0.20863527
136	0xbd33c3fc	-0.043888077
137	0xbe8db4d5	-0.27677026
138	0xbf28694a	-0.6578566
139	0xbf1fb9a6	-0.6239265
140	0x3db1354a	0.08652742
141	0xbe9db0d9	-0.30798987
142	0xbf4ce2e9	-0.8003374
143	0xbff0b627	-1.8805588
144	0xbf787c03	-0.97064227
145	0x3cc8c0f1	0.024506064
146	0xbd47d2ae	-0.048784904
147	0xbf7efe1c	-0.9960649
148	0xbf52743e	-0.8220862
149	0xbfb49d9e	-1.4110601
150	0xbf192dd2	-0.5983554
151	0xbe7f5a58	-0.24936807
152	0xbe10b448	-0.14131272
153	0x3e97af84	0.29626095
154	0x3e9bb700	0.30413055
155	0xbe96e916	-0.29474705
156	0xbf398945	-0.7247508
157	0xbf584da2	-0.8449346
158	0xbed4d79c	-0.41570747
159	0xbc6f416b	-0.014602999
160	0x3e326021	0.17419483
161	0x3e3310a4	0.17486817
162	0x3e7ae894	0.24502784
163	0x3de209ea	0.11037047
164	0xbc056fa6	-0.008144295
165	0xbca89457	-0.020578546
166	0x3eb2cf59	0.3492382
167	0x3e8aebee	0.27133125
168	0x3e1c3c8b	0.1525747
169	0x3e1384da	0.14406148
170	0xbe7f9805	-0.24960335
171	0xbf044fb4	-0.5168412
172	0xbf3e80b8	-0.7441516
173	0xbf0e3389	-0.55547386
174	0xbe892f3f	-0.26793858
175	0x3eb11d55	0.3459269
176	0x3e26be00	0.16283417
177	0xbee3e501	-0.44510654
178	0x3e1e7d51	0.15477492
179	0x3cc60d32	0.024176214
180	0x3d79dfc3	0.06100441
181	0xbce7ca94	-0.028294839
182	0xbe94bdc3	-0.29051027
183	0xbeadfe43	-0.3398305
184	0xbe45929f	-0.19294213
185	0x3e42d24e	0.19025537
186	0x3f0bdd1a	0.5463425
187	0x3e8434d2	0.2582155
188	0xbebf2d1e	-0.3733911
189	0xbf26c5d8	-0.65145636
190	0xbeae230a	-0.34011108
191	0x3e34ba84	0.17649275
192	0xbda62e50	-0.08114302
193	0xbf162ee5	-0.58665305
194	0x3dc96ed8	0.09835595
195	0xbe2ae944	-0.16690546
196	0xbeaf2304	-0.34206402
197	0xbee760dd	-0.45191088
198	0xbee8280d	-0.45343056
199	0x3e8178b9	0.25287417
200	0x3e1beea9	0.1522776
201	0x3de352b8	0.11099762
202	0xbea684c7	-0.32523176
203	0x3c03ae74	0.008037198
204	0x3da97eb4	0.0827612
205	0x3ef572f3	0.47939262
206	0x3e778629	0.24172272
207	0x3dc847cc	0.09779319
208	0xbe1403d7	-0.1445459
209	0xbefb8a6e	-0.4912905
210	0xbd83b187	-0.06430345
211	0x3e7f3b7f	0.2492504
212	0x3e8e976e	0.27849907
213	0x3ec9e498	0.39432216
214	0xbd3ff0c6	-0.04686048
215	0xbebc6fc6	-0.36804026
216	0xbe7006aa	-0.23440042
217	0x3dd7e4a2	0.10541655
218	0x3cd850ed	0.026405776
219	0xbdf61470	-0.12015617
220	0xbe447dac	-0.19188565
221	0xbed2c83c	-0.41168392
222	0xbf120a23	-0.5704672
223	0xbf507a97	-0.8143706
224	0xbe92b71f	-0.28655335
225	0x3e5a76bc	0.21334356
226	0x3df264d6	0.11835639
227	0xbee33d70	-0.4438281
228	0xbdcca6fd	-0.09992788
229	0xbebca7d4	-0.36846793
230	0xbe0d1ddc	-0.13780922
231	0xbdec9b43	-0.11553051
232	0xbe9427c6	-0.28936595
233	0xbe6183d2	-0.22022942
234	0xbe9c16d8	-0.30486178
235	0x3e02a363	0.1275764
236	0xbe5df451	-0.2167523
237	0xbea63efd	-0.3246993
238	0x3eddd9d1	0.43330243
239	0xbe678ef8	-0.22613132
240	0xbd3499f7	-0.044092145
241	0xbeeca48c	-0.4621929
242	0xbe1c43cf	-0.15260242
243	0x3ee75326	0.45180625
244	0xbc4d9256	-0.012547096
245	0x3e90f88a	0.2831462
246	0x3eaf8a99	0.3428543
247	0x3d6a5fbf	0.057220217
248	0x3e360799	0.17776336
249	0xbedf1381	-0.43569568
250	0x3e1d7002	0.15374759
251	0xbece85ee	-0.40336555
252	0xbe13d400	-0.1443634
253	0x3dc2deef	0.095151775
254	0x3e080ae2	0.13285401
255	0xbe09bac3	-0.1345015

conv2.bias f4 [16]
0	0xbcd791c9	-0.026314633
1	0xbe5b05be	-0.21388909
2	0xbe54ab48	-0.20768464
3	0x3db0d6cc	0.08634719
4	0xbd36c443	-0.044620764
5	0xbc67fcf7	-0.014159433
6	0xbe6aaf58	-0.22918451
7	0xbe3784e5	-0.17921789
8	0xbdff4654	-0.12464586
9	0xbea8f85b	-0.3300198
10	0xbd187a40	-0.03722596
11	0x3ebff7a2	0.37493616
12	0x3db65eed	0.089048244
13	0xbe4ff398	-0.20307767
14	0xbd4ec8a4	-0.050484315
15	0xbdc96a55	-0.09834734

fc1.weight f4 [120, 256]
0	0xbe2a1c99	-0.16612472
1	0xbef0b653	-0.47014102
2	0xbf276211	-0.6538401
3	0x3c3ca7e6	0.0115146395
4	0xbd669128	-0.056290776
5	0xbf12dabf	-0.5736503
6	0xbef5c518	-0.48001933
7	0xbe05a884	-0.13052565
8	0xbee1cefc	-0.4410323
9	0xbccb64b9	-0.024828302
10	0xbe31468f	-0.17312072
11	0x3e1ce8f7	0.15323244
12	0xbe83fd04	-0.25778973
13	0xbcc6f659	-0.02428739
14	0xbeb3e2c1	-0.35133937
15	0x3dc9b248	0.098484576
16	0xbe56adb9	-0.20964707
17	0xbe08f52a	-0.13374773
18	0x3e2e6ca5	0.17033632
19	0xbd5fd98a	-0.05465082
20	0xbe46345b	-0.1935591
21	0xbce0400d	-0.027374292
22	0xbd6411c6	-0.055681013
23	0xbc6a06f4	-0.014283884
24	0xbf914025	-1.13477
25	0xbf6bbe5f	-0.9208736
26	0xbd1de50b	-0.03854851
27	0x3f16b4ac	0.58869433
28	0xbf61dd27	-0.88228077
29	0x3e204fe2	0.15655473
30	0x3e7f37b6	0.24923596
31	0x3e3de03e	0.18542573
32	0x3e2a5ea9	0.16637672
33	0x3e94c9bd	0.29060164
34	0x3de1c27b	0.11023422
35	0xbf2282a4	-0.6348059
36	0x3f1f4cf9	0.62226826
37	0x3f2b93f2	0.6702262
38	0x3f29129d	0.66044027
39	0x3ea4a319	0.32155684
40	0xbee9b1e4	-0.45643532
41	0xbe68654e	-0.22694895
42	0x3ec2ad87	0.38023016
43	0x3d33f598	0.04393539
44	0x3c06c26c	0.008225065
45	0x3c9b7ec6	0.018981349
46	0xbcad6232	-0.021164987
47	0x3d36537c	0.04451321
48	0xbd13f337	-0.03612062
49	0x3e105f7a	0.14098921
50	0x3d035912	0.032067366
51	0xbd87d27b	-0.06631943
52	0xbeebe893	-0.46075878
53	0xbf02ad34	-0.51045537
54	0xbe89e7ab	-0.2693456
55	0x3efe192e	0.49628586
56	0xbe8235db	-0.25431713
57	0xbf099323	-0.5374014
58	0xbd4d718f	-0.050157126
59	0x3df74e55	0.120754875
60	0x3f64b348	0.8933606
61	0x3ed18a99	0.40926054
62	0xbe264de4	-0.1624065
63	0xbdf6e8f7	-0.12056153
64	0x3ea9d7b4	0.3317238
65	0xbf6358a9	-0.8880716
66	0xbe45a33b	-0.19300549
67	0xbc985d60	-0.018599212
68	0xbe3c9472	-0.18416002
69	0xbdf3e9e7	-0.11909848
70	0xbe7debf6	-0.24797043
71	0xbe1c94bc	-0.15291113
72	0xbf0bfe9c	-0.5468538
73	0xbf11a5fe	-0.5689391
74	0xbe83014b	-0.25586924
75	0xbe0c8055	-0.1372083
76	0x3f468033	0.77539366
77	0x3f0b5e71	0.5444098
78	0x3ea1f163	0.31629476
79	0x3eb47183	0.35242853
80	0xbf55445f	-0.8330745
81	0x3e45bfbb	0.1931142
82	0x3e7046b5	0.23464473
83	0x3e539167	0.20660935
84	0xbe716538	-0.23573768
85	0x3dece801	0.11567689
86	0x3d468447	0.048465993
87	0x3e4af2b4	0.19819146
88	0x3e9f1ebd	0.3107814
89	0xbe94c647	-0.29057524
90	0x3e250f60	0.16119146
91	0xbe0dade3	-0.13835864
92	0x3ddac531	0.106821425
93	0xbe948fd8	-0.29015994
94	0xbe524456	-0.2053388
95	0xbea275c5	-0.31730476
96	0x3e1e9734	0.15487367
97	0xbe20db21	-0.15708591
98	0xbeaf64a6	-0.34256476
99	0xbf0182c7	-0.50590175
100	0x3f04a033	0.51806945
101	0xbf07ec31	-0.53094774
102	0x3e3efaaf	0.18650316
103	0x3eb16380	0.34646225
104	0xbf4706f6	-0.77744997
105	0x3c9ffbc5	0.019529233
106	0xbc4bd765	-0.012441491
107	0xbe743baa	-0.23850885
108	0x3df54395	0.11975781
109	0x3db12a4c	0.086506456
110	0xbeb2b974	-0.34907115
111	0xbe9c126f	-0.30482814
112	0xbeded2c1	-0.43520167
113	0x3ddddbad	0.108329155
114	0x3e97dea7	0.29662058
115	0xbf462978	-0.77407026
116	0xbf43ef86	-0.7653736
117	0x3efe3a5b	0.49653897
118	0x3e8792d9	0.26479223
119	0xbe08185c	-0.13290542
120	0xbe28bfab	-0.16479366
121	0x3eb372bb	0.3504847
122	0x3ec3397b	0.38129792
123	0x3e0f6b9b	0.14005892
124	0xbe62db40	-0.2215395
125	0x3dbb72fb	0.0915279
126	0xbdda673e	-0.10664223
127	0x3d0e36b2	0.03472013
128	0xbdb1e70c	-0.08686647
129	0x3f005bb2	0.50139916
130	0x3cc37502	0.023859505
131	0xbea4cf42	-0.32189375
132	0xbf783c61	-0.9696713
133	0xbeade9c4	-0.33967412
134	0x3e14c092	0.14526585
135	0xbeb244b3	-0.34818038
136	0xbfdcba8e	-1.7244432
137	0xbef6d60d	-0.48210183
138	0x3d82d48e	0.06388198
139	0x3e4f5c81	0.20250131
140	0xbe2a8ec0	-0.16656017
141	0x3ee929bf	0.45539662
142	0x3e840a16	0.25788945
143	0x3d08c67f	0.033392426
144	0xbdb1fe19	-0.086910434
145	0xbf681f27	-0.90672535
146	0xbcf70468	-0.030153468
147	0x3e616b96	0.22013697
148	0xbe96aede	-0.29430288
149	0xbda233b0	-0.07920015
150	0xbf0eeefc	-0.5583341
151	0xbf41e7f3	-0.7574455
152	0xbe83812b	-0.25684485
153	0x3e4f0319	0.20216025
154	0xbe8e8e76	-0.27843064
155	0xbe4500f4	-0.19238645
156	0x3edeee14	0.43541014
157	0xbe8d12c4	-0.2755338
158	0xbd8c55a5	-0.06852273
159	0xbe5e3018	-0.21698034
160	0xbf24166f	-0.6409673
161	0x3eed3fb0	0.46337652
162	0x3e7c86a1	0.24660732
163	0x3ec333a3	0.38125333
164	0xbe85ffef	-0.26171824
165	0xbe66e1eb	-0.22547118
166	0xbed5a531	-0.41727594
167	0xbe409811	-0.18808009
168	0xbd9e397a	-0.077258065
169	0xbf5bdc45	-0.8588298
170	0xbe86d185	-0.26331726
171	0xbd2bade0	-0.041913867
172	0xbe1a39c9	-0.15061106
173	0xbe1f7dbf	-0.15575312
174	0x3bb7058b	0.0055853776
175	0xbe27ea4a	-0.16397968
176	0xbe2c0e73	-0.16802387
177	0xbe519671	-0.20467545
178	0x3ed734d0	0.4203248
179	0x3ef25685	0.47331634
180	0x3e198a5b	0.14994185
181	0x3f22ca4d	0.63589936
182	0xbe9f5575	-0.31119886
183	0xbdc31921	-0.09526277
184	0x3cb9fc5a	0.022703338
185	0x3ed120be	0.40845293
186	0xbf181170	-0.5940161
187	0xbe56f98b	-0.2099363
188	0xbc96d779	-0.018413292
189	0xbe3bf8d2	-0.18356636
190	0x3f0fe803	0.56213397
191	0x3e58e94b	0.21182744
192	0xbe1a6a62	-0.15079644
193	0x3eb9bd0d	0.36277047
194	0x3dbe256a	0.0928448
195	0xbc0b2852	-0.0084935
196	0xbef00d50	-0.46885157
197	0x3ed5caa6	0.4175617
198	0xbe8a8d7c	-0.2706107
199	0xbe584895	-0.21121438
200	0xbe5ef591	-0.21773364
201	0x3e13ec79	0.14445676
202	0x3c52be8d	0.012862814
203	0xbdafbb68	-0.08580667
204	0x3d2bec6f	0.041973528
205	0x3ece398c	0.4027828
206	0x3eab80c8	0.3349669
207	0xbeaa8dec	-0.33311403
208	0x3f5b5db4	0.85689855
209	0x3eb4a0d5	0.35278955
210	0xbcbf9c4e	-0.023389962
211	0x3d46af97	0.0485073
212	0xbf203883	-0.6258623
213	0xbe947173	-0.28992805
214	0xbcfdf12e	-0.030998792
215	0x3f083760	0.53209496
216	0x3dee66da	0.11640711
217	0xbf18c2b1	-0.59672076
218	0xbe732891	-0.23745944
219	0x3eb487cf	0.35259864
220	0x3e311f76	0.17297158
221	0x3d85c056	0.06530826
222	0x3e1d5365	0.15363844
223	0xbdf52ef8	-0.11971849
224	0xbda53fea	-0.08068831
225	0xbe91a483	-0.28445825
226	0xbfa39bc6	-1.2781913
227	0xbf1c0b75	-0.6095498
228	0x3f366675	0.7125009
229	0x3f730f33	0.9494507
230	0xbeba8ff5	-0.36437955
231	0xbe82644b	-0.25467142
232	0x3e24544a	0.16047779
233	0x3f1e2fda	0.61791766
234	0x3efb95b5	0.49137655
235	0x3e8c6493	0.27420482
236	0xbe7381e6	-0.23780021
237	0x3e443912	0.19162396
238	0xbcfd311f	-0.030907212
239	0xbe2246c2	-0.15847304
240	0x3e7633d7	0.24043213
241	0x3e716e47	0.23577224
242	0xbf4ad5af	-0.79232305
243	0xbf7cfff3	-0.9882805
244	0x3ea4cc89	0.32187298
245	0x3e7b9746	0.24569425
246	0x3eaa6fec	0.33288515
247	0xbe4360c0	-0.19079876
248	0x3e8c51ff	0.27406308
249	0x3ead1bec	0.33810365
250	0xbebc44a1	-0.3677111
251	0x3ea182f5	0.31545225
252	0x3e8ed00b	0.278931
253	0x3ea840dd	0.32861987
254	0x3e9fa82c	0.31182992
255	0x3e2a8364	0.16651684

fc1.bias f4 [120]
0	0xbe57a907	-0.21060573
1	0xbe2c0ff5	-0.16802962
2	0xbf1c41a8	-0.61037683
3	0xbdb30e81	-0.08743001
4	0x3bcc087d	0.006226598
5	0xbcf3952c	-0.029734217
6	0xbe9aafca	-0.3021224
7	0xbec8514b	-0.39124522
8	0x3e53165f	0.20614003
9	0xbf66853c	-0.9004705
10	0x3ddbb1f4	0.10727301
11	0xbecafd66	-0.39646453
12	0xbc1ed9eb	-0.00969551
13	0xbf22edb8	-0.6364398
14	0xbd980b86	-0.07424073
15	0xbdb35045	-0.087555446
16	0xbec70adf	-0.3887548
17	0xbdd0531c	-0.10172102
18	0xbeba1646	-0.36345118
19	0xbe0d2356	-0.13783011
20	0xbefb7035	-0.49109045
21	0xbda6d449	-0.08145959
22	0xbe01a29c	-0.12659687
23	0x3c9899b3	0.018627977
24	0xbdf84310	-0.12122166
25	0xbdb36ce4	-0.087610036
26	0xbd23850b	-0.0399218
27	0xbdc5c43e	-0.09656571
28	0x3e270c35	0.1631325
29	0x3c82313d	0.01589262
30	0xbebfac43	-0.37436113
31	0x3da4b725	0.080427445
32	0xbef4df90	-0.47826815
33	0xbe57ff0e	-0.2109339
34	0xbbbf0f25	-0.005830663
35	0xbed47df3	-0.41502342
36	0xbe428002	-0.18994144
37	0xbd6fdcae	-0.058560066
38	0xbc91b8b1	-0.017788263
39	0xbe3e031a	-0.1855587
40	0xbe098441	-0.13429357
41	0xbf41746d	-0.75568277
42	0xbd6ee12a	-0.058320202
43	0xbe7ff736	-0.24996647
44	0xbc6310cc	-0.013858985
45	0xbf83e6f7	-1.030486
46	0xbe960a5f	-0.29304788
47	0xbf121041	-0.5705605
48	0x3e43e0b0	0.1912868
49	0xbd4af4bc	-0.049549803
50	0x3e437cab	0.19090526
51	0x3e9fe37b	0.3122824
52	0xbf7a489f	-0.9776706
53	0x3d2e1c9d	0.042507757
54	0xbe993dc0	-0.29929924
55	0xbd9e9033	-0.077423476
56	0xbec8aef5	-0.39195982
57	0xbd0f6511	-0.035008494
58	0x3dbd7aed	0.09251962
59	0xbe288967	-0.16458665
60	0xbecea61a	-0.403611
61	0xbdd3c0e1	-0.10339523
62	0xbea3957a	-0.3194998
63	0xbf484b67	-0.78240055
64	0xbe44549c	-0.19172901
65	0x3c4cd230	0.0125012845
66	0xbf0cc71b	-0.5499131
67	0x3e01031d	0.12598844
68	0xbd01ae29	-0.031660233
69	0xbf07daaf	-0.5306806
70	0x3ca6730f	0.020318536
71	0xbc8fc1f5	-0.01754854
72	0xbe365f76	-0.17809853
73	0xbf970389	-1.1797954
74	0xbdbc821e	-0.092045054
75	0xbee4003c	-0.4453143
76	0xbe9ce9a2	-0.30646998
77	0xbed10296	-0.40822285
78	0xbf261a83	-0.64884204
79	0x3cf772e4	0.030206151
80	0xbe70bffc	-0.23510736
81	0xbf2c45ca	-0.6729399
82	0xbec8e1ee	-0.3923487
83	0xbe011642	-0.12606147
84	0xbdc7faed	-0.09764657
85	0xbe5e944f	-0.21736263
86	0xbef21eb7	-0.4728906
87	0x3d1c234a	0.03811959
88	0x3dd0b69d	0.10191081
89	0xbf0a3c69	-0.5399843
90	0xbe7e1736	-0.24813542
91	0xbe829eaf	-0.2551169
92	0x3e0519df	0.1299815
93	0xbf1caeb4	-0.61204076
94	0xbf1ee2bb	-0.62064713
95	0x3e1c4f63	0.15264659
96	0x3d73d589	0.059529815
97	0xbd8403bf	-0.06446027
98	0xbe89bf53	-0.2690378
99	0xbf76c58a	-0.9639517
100	0xbd76e5f0	-0.06027788
101	0xbcb9bfdf	-0.0226745
102	0xbecbb301	-0.39785007
103	0xbe0d5509	-0.1380197
104	0xbe309ff5	-0.17248519
105	0xbe9f3d12	-0.3110128
106	0xbf1c4951	-0.6104937
107	0xbde5078e	-0.111830816
108	0xbf0f80c3	-0.5605585
109	0xbc8fd779	-0.0175588
110	0xbead19f7	-0.33808872
111	0xbd1325b1	-0.035924617
112	0x3cc40177	0.02392648
113	0xbc52c460	-0.012864202
114	0xbddfa0d3	-0.10919347
115	0xbe7db2d6	-0.24775252
116	0x3e26b978	0.16281688
117	0x3be2e953	0.006924787
118	0xbef21540	-0.47281837
119	0xbd0a6d40	-0.033795595

fc2.weight f4 [84, 120]
0	0x3d7cee72	0.061750837
1	0xbee2dc4f	-0.44308707
2	0xbe2503af	-0.16114686
3	0xbedd1af4	-0.43184626
4	0x3d883644	0.06650975
5	0xbeba24d8	-0.36356235
6	0x3ed60d06	0.4180681
7	0xbdd7ff59	-0.105467506
8	0x3e1043ab	0.14088313
9	0x3e48d792	0.19613484
10	0x3e74f16a	0.23920217
11	0x3de23ed8	0.11047143
12	0xbd83e111	-0.064394124
13	0x3ef15ec9	0.47142628
14	0xbd1d7e41	-0.038450483
15	0x3c509fc0	0.0127334
16	0x3ee90170	0.4550891
17	0xbe1ae79a	-0.15127411
18	0xbef279cf	-0.47358558
19	0xbee4b323	-0.4466792
20	0xbef2d5cc	-0.4742874
21	0x3cca267e	0.024676558
22	0x3c5b3ef9	0.013381713
23	0xbcdcc6af	-0.026950208
24	0xbf43dd22	-0.76509297
25	0x3d535ca4	0.05160202
26	0xbdeb7f8a	-0.114989355
27	0xbd5dabce	-0.054118924
28	0xbee30705	-0.44341293
29	0x3cc35dbc	0.023848407
30	0x3ec2b968	0.3803208
31	0x3b5b2293	0.0033437356
32	0xbe823536	-0.25431222
33	0xbf0192da	-0.506147
34	0x3e382195	0.1798156
35	0xbe5f1826	-0.21786556
36	0xbe6fd1ae	-0.2341983
37	0xbc41e807	-0.011835105
38	0xbe62d621	-0.22151996
39	0x3e4f5f96	0.20251307
40	0x3db59b19	0.08867473
41	0x3f29c5ae	0.6631726
42	0x3c947fbe	0.018127318
43	0x3dc03341	0.09384776
44	0xbe29093c	-0.16507429
45	0xbe67c78c	-0.22634715
46	0xbedb0afd	-0.4278182
47	0x3dd73f25	0.10510091
48	0x3e00fbdd	0.12596078
49	0xbf382671	-0.71933657
50	0x3d5f8b4c	0.054576203
51	0xbf5f83bb	-0.8731038
52	0xbf0acaf0	-0.5421591
53	0xbf213cd5	-0.6298345
54	0xbdde61d8	-0.10858506
55	0x3d52eb1b	0.051493745
56	0xbc1f8b5c	-0.009737816
57	0x3dc962e0	0.09833312
58	0x3e979462	0.29605395
59	0xbe8bbf4e	-0.2729439
60	0x3ec370c6	0.38171977
61	0x3d52d1fd	0.05146979
62	0xbe3aec98	-0.18254316
63	0xbe1cc290	-0.15308595
64	0x3f16a942	0.58852017
65	0x3e58a144	0.21155268
66	0x3dee6665	0.11640624
67	0xbe3960e6	-0.1810337
68	0xbdae0b02	-0.08498193
69	0xbf0eb8f4	-0.55750966
70	0x3d0e1373	0.034686517
71	0xbd6bc3f3	-0.05755992
72	0xbec06eb4	-0.3758446
73	0x3e91db24	0.28487504
74	0x3e974e36	0.29551858
75	0x3eb841e2	0.35987765
76	0xbf151f95	-0.58251315
77	0xbef8a7fe	-0.48565668
78	0xbdf6a648	-0.120434344
79	0xbe072651	-0.1319821
80	0xbf203615	-0.6258252
81	0x3d08a22a	0.033357777
82	0xbe4451ba	-0.19171801
83	0x3e499b50	0.19688153
84	0x3eadd7b8	0.33953643
85	0xbd2003c0	-0.039066076
86	0xbd36d42b	-0.044635933
87	0x3edc1cbe	0.4299068
88	0xbeb3b09c	-0.3509568
89	0xbdec9d30	-0.11553419
90	0xbde0cc4c	-0.109764665
91	0x3f133dca	0.5751616
92	0xbe678ab7	-0.2261151
93	0x3de07a4d	0.10960827
94	0xbecb28cb	-0.3967956
95	0x3c7f70a6	0.015590822
96	0xbd2c7ba1	-0.04211009
97	0xbf2affa1	-0.6679631
98	0x3e7ebb9d	0.24876256
99	0xbcd9b8df	-0.026577411
100	0x3e83c971	0.25739625
101	0x3b6ffc34	0.003661883
102	0x3d39726d	0.04527514
103	0x3e8bb4da	0.27286416
104	0x3ea2fe56	0.31834668
105	0x3f318c16	0.6935438
106	0x3aee47fc	0.0018179412
107	0xbd90762a	-0.07053788
108	0x3e41be71	0.18920304
109	0x3e4aac49	0.19792284
110	0xbe73a1c6	-0.2379218
111	0xbd029638	-0.03188154
112	0x3da05d73	0.07830324
113	0xbc7c7728	-0.015409268
114	0xbf0296da	-0.5101143
115	0x3e53b1ca	0.2067329
116	0xbe1dfa5a	-0.15427533
117	0xbd389506	-0.045063995
118	0xbe860e71	-0.26182893
119	0xbe6a7b0f	-0.22898506
120	0xbdc5c90d	-0.09657488
121	0xbef9eb9f	-0.48812577
122	0xbdf42e12	-0.1192285
123	0xbe9aa4f7	-0.30203983
124	0xbebbc261	-0.36671737
125	0x3ee6a3bd	0.45046797
126	0xbe38e8fd	-0.18057628
127	0x3ebd1255	0.3692805
128	0x3ee1dd95	0.44114366
129	0x3e7b24fa	0.24525824
130	0xbf3689ad	-0.71303827
131	0x3eb27269	0.34852913
132	0x3c646410	0.013939872
133	0xbd2f9173	-0.04286332
134	0x3cd11745	0.025523791
135	0xbd3909ce	-0.045175366
136	0xbe229a03	-0.15879063
137	0x3e1bd2e8	0.15217173
138	0x3eaafcbb	0.33395943
139	0x3e9133b3	0.28359756
140	0x3e2fdec5	0.17174824
141	0xbd308979	-0.043099854
142	0x3eb188ad	0.34674588
143	0x3d871972	0.0659665
144	0x3e9d6fd7	0.3074939
145	0xbd7133ec	-0.058887407
146	0x3e4d8455	0.20070012
147	0xbcf94d42	-0.030432347
148	0x3e04b29a	0.12958756
149	0xbd48e236	-0.049043857
150	0xbeb9c50a	-0.3628314
151	0x3e0619ad	0.13095732
152	0x3e7f4300	0.24927902
153	0x3d224de6	0.03962507
154	0xbe8e59c9	-0.27802876
155	0x3f23f41f	0.64044374
156	0xbf490dfb	-0.7853696
157	0xbd35b8b5	-0.044365603
158	0xbe864062	-0.26220995
159	0xbe7ac27c	-0.24488252
160	0xbeec5ff7	-0.46166965
161	0x3dc0630c	0.09393892
162	0x3d2808dd	0.041024078
163	0x3e0ae1ff	0.13562773
164	0xbcfc741e	-0.030817088
165	0x3ecc2d93	0.3987852
166	0xbf0d12b0	-0.5510664
167	0x3d615112	0.055008955
168	0x3e804439	0.2505205
169	0x3d21e44b	0.039524358
170	0x3e2ef303	0.17084889
171	0xbda6ea45	-0.08150152
172	0xbee311f5	-0.44349638
173	0xbe3042c9	-0.17212977
174	0xbe69b73d	-0.22823806
175	0xbae069cd	-0.0017121375
176	0xbee40c14	-0.44540465
177	0x3e73ceec	0.23809403
178	0xbe1c35e9	-0.1525494
179	0x3d941a9b	0.07231637
180	0xbf2da663	-0.6783201
181	0xbd547df5	-0.051877934
182	0x3e849c79	0.2590063
183	0x3e6f9c0e	0.23399374
184	0xbe527122	-0.20550969
185	0xbce61cd1	-0.028089913
186	0x3e47e0f8	0.19519413
187	0x3e9a86a0	0.30180836
188	0xbe1b83e4	-0.15187031
189	0x3e07f168	0.13275683
190	0x3d2c4976	0.042062245
191	0x3c8abf9c	0.01693707
192	0x3dce2944	0.100664645
193	0xbe31d388	-0.17365849
194	0x3b877881	0.004134238
195	0x3eb2999b	0.34882817
196	0x3f12a7d9	0.57287365
197	0xbed84ce4	-0.42246163
198	0x3e534f65	0.20635755
199	0xbf132e0c	-0.57492137
200	0x3e13d047	0.1443492
201	0xbe1e5232	-0.15461043
202	0x3e3ab7e4	0.18234211
203	0x3e870189	0.2636836
204	0x3e1251c6	0.14289007
205	0xbf184d7b	-0.59493226
206	0x3eace346	0.33767146
207	0xbe838811	-0.25689748
208	0xbe09b1e5	-0.13446768
209	0x3e70400c	0.23461932
210	0xbe30a213	-0.17249326
211	0x3e89c860	0.26910686
212	0xbeafb10c	-0.34314764
213	0x3e8812fb	0.2657698
214	0x3f0fbc03	0.5614626
215	0x3dc2ec89	0.09517772
216	0xbcc79ff7	-0.02436827
217	0x3e09e593	0.13466482
218	0xbe8ac161	-0.2710066
219	0x3d65adc8	0.056073934
220	0xbdce5e49	-0.10076577
221	0x3df66878	0.120316446
222	0xbb9c91a6	-0.004778105
223	0xbeab01c5	-0.33399788
224	0x3f1b5cf0	0.60688686
225	0xbf376987	-0.71645397
226	0x3e68ea58	0.22745645
227	0x3d8105fc	0.062999696
228	0x3d8c5654	0.06852403
229	0xbe47fa95	-0.19529183
230	0x3d97fa8b	0.07420834
231	0xbe8c93ec	-0.27456605
232	0xbd12f85a	-0.035881378
233	0xbd4fb2ed	-0.050707746
234	0x3ce1a49e	0.027544316
235	0x3ed1a91e	0.4094934
236	0xbeac1a7b	-0.33613953
237	0x3befecef	0.007321946
238	0x3e82aecc	0.25523984
239	0x3ebd47e5	0.36968914
240	0x3f0083d6	0.50201166
241	0x3d5ecd65	0.0543951
242	0xbe66eb4c	-0.22550696
243	0xbe3629c3	-0.17789368
244	0x3dcb8b64	0.09938696
245	0xbe857f76	-0.26073807
246	0x3f4e5a10	0.80606174
247	0xbf0629f8	-0.5240779
248	0xbec08aea	-0.37605983
249	0x3f2734cb	0.6531493
250	0xbf4e8772	-0.80675423
251	0x3ea359d9	0.31904486
252	0xbd68da4a	-0.0568488
253	0x3e9bbe37	0.3041856
254	0x3ca070de	0.01958507
255	0x3a76f3af	0.0009420467

fc2.bias f4 [84]
0	0xbe893159	-0.26795462
1	0xbead8f7e	-0.33898538
2	0xbf3a9ebe	-0.7289847
3	0x3d904262	0.070439115
4	0xbf008c7e	-0.50214374
5	0xbf188dc0	-0.59591293
6	0xbef52e27	-0.47886774
7	0xbe1395fc	-0.14412683
8	0xbed50d85	-0.41611877
9	0xbde1dc68	-0.11028367
10	0xbede1040	-0.43371773
11	0xbf132d6e	-0.57491195
12	0xbddc8e47	-0.10769325
13	0xbea0459f	-0.31303117
14	0xbec16f37	-0.37780163
15	0x3e166028	0.14685118
16	0xbeaf285f	-0.34210488
17	0xbebef128	-0.37293363
18	0xbf3511e4	-0.70730424
19	0xbd0d1408	-0.03444293
20	0xbea4cf5e	-0.3218946
21	0xbe762555	-0.24037679
22	0xbf31bc2d	-0.6942776
23	0xbda6dd00	-0.08147621
24	0xbea12c29	-0.31479004
25	0xbe55b2cc	-0.20868987
26	0xbe1d4c9e	-0.15361258
27	0xbeddb54a	-0.43302375
28	0xbe3889ce	-0.18021318
29	0x3b78b9ba	0.0037952499
30	0xbe90bf0f	-0.28270766
31	0xbea27fab	-0.31738028
32	0xbea48908	-0.32135797
33	0xbf7f0318	-0.99614096
34	0xbf2f40e9	-0.6845842
35	0x3dd61d00	0.1045475
36	0xbccfa1b1	-0.025345655
37	0xbcf2f708	-0.02965881
38	0xbe51666c	-0.20449227
39	0xbed7b568	-0.4213059
40	0x3b2f6e7e	0.002676874
41	0xbf1ab925	-0.6043876
42	0xbe2f8451	-0.17140318
43	0xbef031fc	-0.46913135
44	0xbeb3432e	-0.35012192
45	0xbe9e05e7	-0.30863878
46	0xbe98b9ff	-0.29829404
47	0xbed3f4df	-0.4139776
48	0x3e93e5ce	0.28886265
49	0x3ca2bbd8	0.019864962
50	0xbe94f830	-0.29095602
51	0xbee811a3	-0.45325956
52	0xbf0153cb	-0.5051848
53	0xbe91116d	-0.28333607
54	0xbe4ce0ed	-0.20007677
55	0xbec181bb	-0.3779429
56	0xbec8bdf0	-0.3920741
57	0xbede5f5e	-0.43432134
58	0xbdfc0db1	-0.12307299
59	0xbf13502a	-0.57544196
60	0xbf1b7b51	-0.6073504
61	0xbe68b9a5	-0.22727068
62	0xbe5716ed	-0.21004839
63	0xbea081b1	-0.31348947
64	0xbf130401	-0.57427984
65	0xbf31149a	-0.6917206
66	0xbf3a1e41	-0.72702414
67	0xbe995b6c	-0.29952562
68	0xbf5a1caa	-0.8519999
69	0xbf205c97	-0.6264128
70	0xbd6c4e15	-0.057691652
71	0xbef98779	-0.4873617
72	0xbf5af967	-0.8553681
73	0xbe21f50e	-0.15816137
74	0xbe4d8232	-0.20069197
75	0xbd335f6f	-0.043792184
76	0x3e0f6877	0.14004694
77	0x3def962d	0.11698566
78	0xbe118772	-0.14211825
79	0x3e43db6e	0.19126675
80	0xbf186ac9	-0.5953794
81	0xbe9676ca	-0.29387504
82	0x3e153a29	0.14572968
83	0xbec19011	-0.37805226

fc3.weight f4 [10, 84]
0	0xbf2988ac	-0.6622417
1	0xbea23ae4	-0.31685555
2	0xbf4c350c	-0.79768443
3	0xbf417b58	-0.7557883
4	0xbebce1fd	-0.36891165
5	0xbf47b2ec	-0.7800739
6	0xbe0eb959	-0.13937892
7	0xbf2162cd	-0.63041383
8	0xbf283fa8	-0.6572213
9	0xbe221825	-0.15829523
10	0xbf02b7ba	-0.51061594
11	0xbf8544ac	-1.0411582
12	0xbf0cac20	-0.5495014
13	0xbf91534d	-1.1353546
14	0xbfab4ee1	-1.3383447
15	0xbf4ecc89	-0.80780846
16	0xbf2b09b0	-0.66811657
17	0xbe91d76a	-0.2848466
18	0xbcf055b8	-0.029337749
19	0x3d405b8d	0.04696231
20	0x3e0273fd	0.12739559
21	0xbedf1d3b	-0.4357699
22	0x3db279f9	0.08714671
23	0xbf8b1eda	-1.086879
24	0xbf46cbd5	-0.77654773
25	0xbe140eda	-0.1445879
26	0xbefb8227	-0.49122736
27	0xbe18097a	-0.14847365
28	0xbec125d6	-0.3772418
29	0xbf63c75a	-0.8897606
30	0x3dcab320	0.09897447
31	0xbf93d281	-1.1548616
32	0xbeeabcf7	-0.45847294
33	0xbe82a2cb	-0.25514826
34	0xbc7c0200	-0.015381336
35	0xbdfb668b	-0.12275418
36	0xbe85965b	-0.26091275
37	0xbf574957	-0.8409628
38	0xbf4b7b12	-0.79484665
39	0xbea57c4f	-0.32321402
40	0xbecefefb	-0.4042891
41	0xbf384779	-0.7198406
42	0x3dcb554e	0.0992838
43	0x3e3316c1	0.17489149
44	0xbf4c662c	-0.798434
45	0xbf74ecef	-0.9567403
46	0xbf1cc6c5	-0.612408
47	0x3e668b3b	0.2251405
48	0xbf8bc9ef	-1.0921
49	0xbe2af216	-0.16693911
50	0xbd8aa255	-0.06769244
51	0xbf59ed91	-0.8512812
52	0xbf1b89f7	-0.6075739
53	0x3b5dfbc2	0.0033871983
54	0xbfb4ccd5	-1.412501
55	0x3e4e5289	0.20148672
56	0xbf6db192	-0.92849076
57	0xbf8908f0	-1.0705853
58	0x3dcce8e5	0.100053586
59	0xbe95fabe	-0.29292864
60	0xbf388797	-0.72081894
61	0xbc396428	-0.011315383
62	0xbe4c4305	-0.19947441
63	0x3e321851	0.17392088
64	0xbf6dcb42	-0.9288827
65	0xbf8cd451	-1.1002294
66	0xbb14bf87	-0.0022697167
67	0xbf8eb443	-1.1148762
68	0xbf406b39	-0.7516361
69	0xbe6e1032	-0.23248366
70	0xbe63e3b8	-0.22254837
71	0xbd223068	-0.039596945
72	0xbe5f5569	-0.21809925
73	0x3e22f999	0.15915526
74	0x3ddc45f4	0.1075553
75	0x3e1c9478	0.15291011
76	0xbf453595	-0.77034885
77	0xbe089db3	-0.13341407
78	0xbc54f067	-0.0129967695
79	0xbd88bec3	-0.0667701
80	0xbf47407d	-0.77832776
81	0x3e112051	0.14172484
82	0xbf98bcfa	-1.1932671
83	0x3e1ad694	0.15120918
84	0x3ae3a8a3	0.0017368983
85	0xbf3cbce5	-0.7372573
86	0x3cd048b4	0.025425293
87	0xbd414b1e	-0.047190778
88	0xbf1575ad	-0.58382684
89	0xbe97d9fd	-0.296585
90	0x3d80fae3	0.06297853
91	0xbf4d9899	-0.8031097
92	0xbeee1c77	-0.46506092
93	0xbf3c6bc8	-0.7360196
94	0x3d14a7fe	0.036293022
95	0xbdf8fdff	-0.12157821
96	0xbf9751c4	-1.1821828
97	0xbee4fb2c	-0.4472288
98	0xbee23005	-0.4417726
99	0xbd0c5c9f	-0.034268018
100	0x3e0abb7a	0.13548079
101	0xbe0cf2d9	-0.13764514
102	0xbf2ca036	-0.6743196
103	0x3d056c55	0.032574017
104	0xbf39e051	-0.72607905
105	0xbf046c35	-0.5172761
106	0xbf54e321	-0.8315907
107	0xbd463f6d	-0.04840033
108	0xbd841674	-0.06449595
109	0xbf447656	-0.76743066
110	0xbeb542b5	-0.35402456
111	0xbfa11655	-1.258494
112	0xbf8b1782	-1.0866549
113	0xbf2b1788	-0.6683278
114	0x3e01411b	0.12622492
115	0xbf30763d	-0.6893042
116	0xbf13f9ad	-0.5780285
117	0xbf11afaa	-0.5690867
118	0xbf2e6387	-0.68120617
119	0xbf915aaf	-1.13558
120	0xbfa7c598	-1.3107176
121	0xbf277e86	-0.65427434
122	0xbf3af9df	-0.73037523
123	0xbf714b2e	-0.9425534
124	0xbf1810ec	-0.5940082
125	0x3df2c5fa	0.11854167
126	0xbf45cf28	-0.7726922
127	0xbda8c6e8	-0.08241063
128	0xbf04a70f	-0.5181741
129	0xbc871977	-0.016491635
130	0xbe1f07bd	-0.15530296
131	0xbf32340f	-0.69610685
132	0xbf8f340a	-1.1187756
133	0x3cf65163	0.030068105
134	0xbf94f93b	-1.1638559
135	0xbe1ba551	-0.15199782
136	0xbf085c7a	-0.5326611
137	0xbf044699	-0.51670223
138	0xbf843857	-1.0329694
139	0xbf60822a	-0.87698615
140	0xbf522509	-0.8208776
141	0x3b9a7d89	0.004714672
142	0xbefec92f	-0.49762866
143	0xbf9b109e	-1.2114446
144	0xbf69fe04	-0.9140322
145	0xbf3d803c	-0.74023795
146	0xbf3c705f	-0.73608965
147	0xb8ae88be	-8.322437e-05
148	0xbe7ec3a8	-0.24879324
149	0xbf842a21	-1.0325357
150	0xbf856790	-1.042223
151	0x3c8d519b	0.017250827
152	0x3de721e3	0.1128576
153	0xbedb1c6b	-0.4279512
154	0xbfc5f7d9	-1.5466262
155	0xbf2024b0	-0.6255598
156	0xbeb5d79b	-0.35516056
157	0xbf822516	-1.0167568
158	0x3ca821d4	0.020523943
159	0xbd3edb06	-0.046595596
160	0xbf25246a	-0.6450869
161	0xbfee8d6a	-1.8636906
162	0x3d0c6049	0.034271512
163	0xbf37a983	-0.7174303
164	0xbf3ee8cc	-0.7457397
165	0xbf4c332f	-0.797656
166	0xbf4ebc12	-0.8075572
167	0xbee59901	-0.44843295
168	0xbe3f5d0e	-0.18687841
169	0xbf0f63a1	-0.56011397
170	0xbe7cc4ea	-0.24684492
171	0xbe4400fe	-0.19141003
172	0xbebbb798	-0.36663508
173	0xbd8afe29	-0.067867585
174	0x3cca2f43	0.02468074
175	0xbdf525c8	-0.11970097
176	0xbe961a59	-0.29316977
177	0xbc811911	-0.015759023
178	0x3dc9b8b3	0.09849682
179	0xbf3454ab	-0.70441693
180	0xbebd0416	-0.3691718
181	0xbfb5d030	-1.4204159
182	0xbe82da1d	-0.25557032
183	0xb9a122d8	-0.00030734274
184	0xbdff30f2	-0.124605075
185	0xbf350019	-0.70703274
186	0xbe1f58ff	-0.15561293
187	0xbf8781ee	-1.0586526
188	0xbf483bf4	-0.7821648
189	0xbeb44ece	-0.35216373
190	0xbf4491c1	-0.767849
191	0xbf559304	-0.83427453
192	0xbe728d6f	-0.23686765
193	0xbf190845	-0.59778243
194	0x3df50776	0.11964314
195	0xbf019995	-0.5062497
196	0x3ee3ae18	0.4446876
197	0xbfa90367	-1.3204163
198	0x3db6f6e8	0.089338124
199	0x3d809247	0.062779
200	0xbf485165	-0.782492
201	0xbd682ceb	-0.056683462
202	0x3d9f6b91	0.077841885
203	0x3c14775e	0.0090616625
204	0xbf5ad163	-0.8547575
205	0xbe9c60a5	-0.30542484
206	0xbf1da37d	-0.6157759
207	0xbf71ea81	-0.9449845
208	0xbf946ba0	-1.1595345
209	0xbeee23f8	-0.46511817
210	0x3df99b31	0.121878035
211	0xbd5400b8	-0.051758498
212	0xbec0edfe	-0.37681574
213	0xbe7b2d94	-0.24529105
214	0xbf6de46d	-0.92926675
215	0x3d7a3340	0.061084032
216	0xbf14dfb4	-0.58153844
217	0xbf64cf3e	-0.89378726
218	0xbf4b1f0d	-0.79344255
219	0xbe0510dd	-0.12994714
220	0xbf530db1	-0.82442766
221	0xbebd7501	-0.3700333
222	0xbecdfc5f	-0.40231606
223	0xbf4edcf1	-0.8080588
224	0xbd984bd2	-0.074363366
225	0xbf15986b	-0.58435696
226	0xbf4ba122	-0.79542744
227	0x3c4d6aad	0.0125376405
228	0x3d34597c	0.04403065
229	0xbea9954b	-0.33121714
230	0xbf4a3769	-0.789908
231	0xbf3a1e10	-0.7270212
232	0xbf2f812c	-0.68556476
233	0xbe99b688	-0.30022073
234	0x3b8f6c30	0.0043769106
235	0x3dead3fd	0.11466215
236	0xbf5a540f	-0.85284513
237	0xbd4a7230	-0.049425304
238	0xbe719f1b	-0.2359585
239	0xbfb59277	-1.4185323
240	0xbe8179ae	-0.25288147
241	0xbdb2b047	-0.087250285
242	0xbfbedc50	-1.4910984
243	0xbe973b59	-0.29537466
244	0xbeb9cf6d	-0.36291066
245	0x3e430e63	0.19048457
246	0x3d07cb9b	0.033153158
247	0xbf99c9ff	-1.2014769
248	0xbfc48515	-1.5353113
249	0xbf5b8622	-0.85751545
250	0xbf887d96	-1.0663326
251	0xbeaf86fa	-0.34282666
252	0xbe009b70	-0.12559295
253	0xbef0e290	-0.47047853
254	0x3d8937b2	0.06700076
255	0xbe28699e	-0.1644654

fc3.bias f4 [10]
0	0xbebc8918	-0.36823344
1	0xbdaffb29	-0.08592827
2	0xbd7b0ffe	-0.06129455
3	0x3c5488aa	0.012972036
4	0xbc527a4e	-0.0128465425
5	0xbeb08033	-0.34472808
6	0xbe08b865	-0.13351591
7	0xbe931d2f	-0.28733203
8	0x3ea4891e	0.32135862
9	0x3e6af1df	0.22943829
