mnist/saved_models/model_epoch_10.pth (torch, 181338 bytes, 10 tensors)

conv1.weight f4 [6, 1, 5, 5]
00000000: b496 4cbe 3103 9139 1305 4c3d e348 cd3e
00000010: 8746 513e 971e 8e3e 1199 b33e 63c8 853e
00000020: 0917 173e c9b4 a23e 8cfb 713e 0adf d73d
00000030: 7da4 1fbe da4f 2ebe 5412 bfbd 04fd f6bd
00000040: b804 aebe 3321 a5be c15b b4be 9532 6fbe
00000050: 8424 3dbe 084e 26be 342d 60bd 0ab3 7e3e
00000060: bdb8 4ebd 232c 92be 773f a93d a55b 9d3e
00000070: 97b4 49bd dab6 37be 205f 87be 5f1c 08bc
00000080: d999 a13e c55d da3d ba9f 703d 71d4 51be
00000090: 80b6 59be 1193 743e 7a6e 833e a675 28bd
000000a0: c359 52bd 9b27 d3be f806 f1bd 7475 0fbe
000000b0: ce12 55bd 0297 6f3e 6c69 0ebd 4663 003e
000000c0: 3250 dc3d c3c6 873d fb08 c6bb d4e4 06be
000000d0: 7642 11be 76f1 14bd a4c0 d8be de51 5dbd
000000e0: 5412 4ebd 5f6a 833e 27b6 f93e 10ce bebc
000000f0: 9886 8f3e f291 373e 3f92 e13e 3f83 123f
00000100: e887 46bd 15c1 0abe e4d8 cabe 4bee bdbd
00000110: ceb4 ae3e 6895 1d3e 2147 35bd e61a adbe
00000120: 848b 13bf deff 6fbd eae7 713e 6218 22bd
00000130: 376a 963d 1b46 c3bd b8cb c23d 1ed0 1c3e
00000140: 3293 823d c132 213c 9f01 43be 39dc 3d3e
00000150: ea72 953e 481a af3d 4a69 b0bd e08a aabe
00000160: 6e0a ccbd c69d a03e be6d 2bbd 0629 04be
00000170: 0337 79be cacf c03e d37e 023f 4301 febd
00000180: b3fb de3a 3846 b43d d648 dd3d d50a 6f3e
00000190: 2dcb 763d 429f 093d d198 af3e e1e7 433c
000001a0: 74c5 953e 14d6 7b3d a5cf 0abe 17e7 99bd
000001b0: 567d 80bd 1b50 373d 870f c3bd cc1b 9ebe
000001c0: 2fbe 64be 64fe bcbe 404b 06be f701 6e3e
000001d0: 8721 fcbd d2d7 a2be f2f6 55be b3e4 cebc
000001e0: d509 a63e ae1d bf3e 2140 873e 1188 b13e
000001f0: 697e 343e 15c0 4abd 63bb 4a3e 3ecf 523c
00000200: 5383 213d 651b c13d fb7d 2fbe 79aa 743e
00000210: 892d 1c3e 21f8 debd 0540 0cbe 6168 4e3d
00000220: 3e3e e53e 6346 8bbd de09 a8be de0d b33c
00000230: 2fbc 693e 14a6 933e 7e6f dcbe 4435 2e3d
00000240: 3423 fcbb 5d79 5d3e 10bd 73bd 03dc 02be
00000250: 6ce2 41bd 0daa bdbd
-0.19979364 0.00027658933 0.049809527 0.4009467 0.2043706 0.27757713 0.35077718 0.26129445
0.14754881 0.31778553 0.23631114 0.10540588 -0.15590091 -0.17022648 -0.09329668 -0.12059978
-0.33987975 -0.32251891 -0.35226253 -0.2335914 -0.18470961 -0.16240704 -0.05473061 0.24872985
-0.05046915 -0.285493 0.08264058 0.30733982 -0.04924449 -0.17940846 -0.26439762 -0.008307545
0.3156269 0.10662416 0.058746077 -0.20491196 -0.21261024 0.23884226 0.25670224 -0.041127823
-0.051355135 -0.41241154 -0.11768907 -0.14009649 -0.052019887 0.23397449 -0.034768507 0.1253787
0.107574835 0.06629708 -0.006043551 -0.13173229 -0.14185509 -0.036363088 -0.42334473 -0.054033153
-0.050310448 0.25667092 0.48771784 -0.023291618 0.28032374 0.17926767 0.4405689 0.57231516
-0.048469454 -0.13550217 -0.396186 -0.092739664 0.34122318 0.15389025 -0.044257287 -0.33809584
-0.5763476 -0.058593623 0.23623624 -0.039574035 0.073444776 -0.09534856 0.095115125 0.15313765
0.063757315 0.009838761 -0.19043587 0.1854104 0.29189235 0.085499346 -0.08613832 -0.33309078
-0.09962927 0.31370372 -0.041852705 -0.12906274 -0.24337392 0.3765853 0.5097477 -0.124025844
0.0017012268 0.08802456 0.10804908 0.23343976 0.060252357 0.033599146 0.34296277 0.01195714
0.29252207 0.061483458 -0.13555773 -0.0751478 -0.06273906 0.04475413 -0.09524446 -0.30880582
-0.22338174 -0.36912835 -0.13114643 0.23242937 -0.12311082 -0.31805283 -0.20894983 -0.025255537
0.32429376 0.3732733 0.26416114 0.34674123 0.17626347 -0.04949959 0.19798045 0.012866793
0.03943188 0.09429053 -0.17137901 0.23893155 0.15251745 -0.108871706 -0.13696297 0.050392512
0.4477405 -0.068005346 -0.32820028 0.021857198 0.22825693 0.28837645 -0.43053812 0.042531267
-0.007694626 0.21628328 -0.059506476 -0.1277924 -0.047335073 -0.0926095

conv1.bias f4 [6]
00000000: 1b6d efbc 33e0 55bf a515 3ebe a9a0 a0be
00000010: 108c e4be a8d1 98be
-0.02922683 -0.83545226 -0.18562944 -0.31372574 -0.4463811 -0.29847455

conv2.weight f4 [16, 6, 5, 5]
00000000: d2cf d33c 7216 a3ba f791 833e e6fc 9a3e
00000010: ae04 743c 2a06 413e fabd a53d 6afb 853e
00000020: 4499 f73d 906d 653e 9bbf 4e3d 5e5a 3c3e
00000030: f043 f93d 04c4 cabd fa4b e73d 1494 f7be
00000040: fa32 b2be 437d 4bbe f61d 89be 4d07 26be
00000050: 9eaa 15bf d188 0dbf 5112 4dbf c1cc 9fbf
00000060: 9824 abbf 75ab de3b 2eab f0bd 452d 22bf
00000070: af40 aabd eeee 23be 4e9b 0b3d f03e 5dbd
00000080: 8f4a d8be 0c71 95bd 05dc 7dbc 8c5d a13d
00000090: 4bc9 3c3e 9d12 1fbe 09f6 2b3d bfce adbd
000000a0: 82b9 213e f8dc 2f3e 68dc 14be f4ad bf3d
000000b0: cde3 83bd 6b9d 9abd 4653 b83d 67a8 b6bd
000000c0: 00ce ebbc 6935 99be 8a8a 9c3e 5778 3d3e
000000d0: eb63 a1bc 3d33 f2bd 3740 d83d af9b e0bd
000000e0: 3e1c 903e 95cd b83d e857 243c d503 583e
000000f0: aa29 513d 8886 793e 6800 92be 88fb ab3c
00000100: c3a4 cbbd 75c1 d3be 2585 c2be 63c1 28bf
00000110: 9135 11bf d1af 6ebf a248 753d 3407 11be
00000120: 9f28 a1be 6ba2 f7be d56f b6be d28b 513e
00000130: 37db c03e 78df 69be 754d abbd 1bc7 8abe
00000140: 06f9 ec3e 7392 9f3d 3058 99be 013a 5bbd
00000150: a502 58bd 823e d73c 9955 84be beb7 aabe
00000160: 19e3 a3be 6acf 10bf 198a 8fbe 5409 04bf
00000170: efc4 89bf 0de5 2fbf 4647 2abf 849e d9bd
00000180: 4b1f 1a3d f1b1 8cbe c303 0fbf 08ba 45bf
00000190: 4e16 243e 6a0f 12bd 3029 b43d 9172 213d
000001a0: c173 163d 9140 8e3e 2b2c c43d 931d 4fbe
000001b0: b345 7cbe 316f 843c 6f03 2ebd fe15 2abd
000001c0: 163d 82be 65f3 3cbe 1522 24bc 6c77 933e
000001d0: c2f6 1b3e 104b 813b 217c 45be 4f0a 683d
000001e0: 0708 4a3e a7c2 c93e 3fe0 923e a9f8 4d3e
000001f0: f574 d93d 4596 18be 300f 58be 0548 8d3e
00000200: ccab 863d d388 afbd e52a a23c aed9 36bc
00000210: c4fd 083e a8fd 87bc cdf3 77be 1ac1 0e3e
00000220: ac84 2cbc caef 60be b741 a1be e1e3 04be
00000230: b04b 343d f152 7cbe b143 1fbf 81a6 94bf
00000240: 2dae ccbe 1f8a db3c 8e3b 2abe 69d0 02bf
00000250: 8fd2 19bf fad3 89bf a50a a9be a3d4 b2be
00000260: 4d7b fe3b 1a22 983e 9eea 8e3e b4c5 aebe
00000270: 94ca 00bf 523a 15bf 3c9a 4abe 88d5 a13c
00000280: e318 903d b0b1 ed3d 70fb 173e e6f3 3c3e
00000290: 3bf3 173e 113f 043d b123 863e 14d5 623e
000002a0: 17ed 373e 08a6 423e e29c 67be b48d abbe
000002b0: f0bc f5be d6cb 2cbf 8843 dabe 27c0 9a3e
000002c0: b0c3 723e e15a bebe e87c ea3d 6b4f 18be
000002d0: 5f16 6bbd 19f4 323c 7196 1ebe 0eb4 34bd
000002e0: 68ff 8abe 5447 123e 7f08 c63e 6522 243e
000002f0: 66f4 a9be d907 e8be c5e2 5fbd 40a8 423e
00000300: 39f6 bb3d 7b46 4fbe b9ab c33d 38db 9abd
00000310: 4f82 c2be 7891 cdbe 9471 4cbe 631d a43d
00000320: 5652 593c d29d 3ebd 95bd 94be 7128 353c
00000330: 7dc0 a5bd cba9 9f3e 8e7b 7e3e 4a01 b73d
00000340: 2ad7 ddbd eea4 84be e1a5 f93c 8a28 a73e
00000350: 684e a03e 9beb e53e 9609 f53d aabe 5ebe
00000360: bf03 56be 1763 20bc 87d6 733c 0eb7 e9bd
00000370: ebfd c7be dae8 0cbf c1c0 a9be 8ced d6be
00000380: 7b48 7fbe 8316 a63e ea27 9eba f3a0 77be
00000390: d2f1 14be 712f 2fbe 8386 2b3d caeb 77bd
000003a0: 74b2 6abe 0b85 fabd 3e9f 13be 61e2 fb3b
000003b0: 0020 4abe b70f 24be 94e0 803e 866c 66be
000003c0: d338 c5bb 2f67 98be b1ce 91bd 3470 1d3e
000003d0: 0a02 f7bd fa2b 113e efe0 173e 7db6 413e
000003e0: 08c2 ca3c f43a 9dbe 5edf 86bd c0b9 c3be
000003f0: 8623 59bd 78f4 d73b 20d0 053e e53e 8e3d
0.025855932 -0.0012442602 0.256973 0.3027107 0.014893694 0.18850008 0.08092876 0.26168376
0.1208978 0.22405076 0.050475698 0.18393847 0.12171161 -0.09900668 0.11293788 -0.48355162
-0.34804517 -0.19872002 -0.2678067 -0.16213723 -0.58463466 -0.5528689 -0.80106074 -1.2484361
-1.3370543 0.0067953416 -0.117514 -0.63350326 -0.08313119 -0.16009113 0.034083657 -0.0540151
-0.42244384 -0.072969526 -0.015494351 0.07879171 0.18436162 -0.15534444 0.041982684 -0.08486699
0.15793422 0.17174137 -0.14537203 0.09359351 -0.06439934 -0.07549556 0.09000258 -0.08918839
-0.028784752 -0.2992356 0.30574447 0.18502937 -0.019700965 -0.11826179 0.10559123 -0.10967194
0.28146547 0.09023587 0.010030724 0.21095212 0.051065125 0.24367726 -0.28515935 0.020993963
-0.09943535 -0.41358534 -0.37992206 -0.65920085 -0.5672236 -0.93237025 0.05988372 -0.14162904
-0.31476304 -0.48366103 -0.35632196 0.20463493 0.37667248 -0.22839153 -0.08364383 -0.2710503
0.4628374 0.07791605 -0.29950094 -0.053522114 -0.052736897 0.026274923 -0.25846556 -0.3334331
-0.320092 -0.5656649 -0.28035048 -0.51576734 -1.0763224 -0.6870888 -0.66515005 -0.106259376
0.0376275 -0.2747951 -0.55865115 -0.77236986 0.16024134 -0.03565923 0.087969184 0.0394159
0.036731485 0.27783635 0.09578737 -0.20226125 -0.24635963 0.016166301 -0.042483743 -0.04152488
-0.2543723 -0.18452223 -0.010017891 0.2880205 0.1523085 0.0039457157 -0.19285633 0.056650456
0.19729625 0.3940632 0.2868671 0.20114388 0.10618011 -0.14901073 -0.21099544 0.2759401
0.065757364 -0.08571019 0.019795844 -0.011160297 0.13378054 -0.016600445 -0.24214096 0.1394085
-0.010529678 -0.21966472 -0.3149545 -0.12977554 0.044017494 -0.24641015 -0.62212664 -1.1613313
-0.39976636 0.02679926 -0.16624281 -0.5109926 -0.6008691 -1.0767815 -0.33015934 -0.34927854
0.0077661634 0.29713517 0.27913374 -0.3413521 -0.5030911 -0.58292115 -0.19785398 0.01975514
0.07035997 0.11606157 0.1484201 0.18452415 0.14838879 0.032286707 0.26199105 0.22151595
0.17961536 0.19008648 -0.2261844 -0.33506548 -0.4799571 -0.6749853 -0.42629647 0.30224726
0.23707461 -0.3717871 0.11449605 -0.14874046 -0.05739438 0.010922455 -0.15487076 -0.044117026
-0.27147985 0.14285022 0.38678357 0.16028745 -0.33194274 -0.45318487 -0.054659624 0.19009495
0.091778226 -0.2024173 0.09554238 -0.07561344 -0.37990043 -0.40150046 -0.19965202 0.080134176
0.013264259 -0.046537228 -0.2905089 0.011057005 -0.08093355 0.3118423 0.2485182 0.08935793
-0.10832055 -0.2590708 0.030474605 0.32648116 0.3130982 0.44906315 0.11964719 -0.2175242
-0.20899867 -0.00978925 0.01488269 -0.11411868 -0.39060912 -0.55042803 -0.33154872 -0.4197811
-0.24929993 0.3243905 -0.0012066339 -0.24182491 -0.14545372 -0.17107941 0.041876327 -0.0605276
-0.22919637 -0.12232407 -0.14416215 0.0076868986 -0.1973877 -0.1602162 0.2517134 -0.22502336
-0.006018737 -0.29766223 -0.071195014 0.15374833 -0.12060936 0.14176932 0.14831899 0.1891727
0.024750724 -0.3070904 -0.06585573 -0.38227654 -0.053012393 0.0065904222 0.13067675 0.0694559

conv2.bias f4 [16]
00000000: 360e ae3d 0a92 1dbd fff5 9bbd cd97 253e
00000010: 5b4f 6d3d cd99 833d 8186 b4bd 94a8 55be
00000020: 2983 60bd 4419 29be 982a 7abd d482 4d3e
00000030: e5a1 bb3d a9f4 03be 340d fa3c 5450 b5bd
0.08498804 -0.03846935 -0.076152794 0.16171189 0.057937007 0.064258195 -0.08814717 -0.20865089
-0.054812584 -0.16513544 -0.061075777 0.20069438 0.09161738 -0.12886299 0.030523874 -0.08853212

fc1.weight f4 [120, 256]
00000000: ae64 a9b8 d783 5dbe 34d6 cabe 5eb4 9bbd
00000010: 9c27 5dbd 5495 9ebd 6908 aebd fc67 0fbd
00000020: 3920 aabd 4875 b33d aed4 a23d 3f38 b93e
00000030: 0775 67be bdbf b73c 56e8 c9be c5e5 283d
00000040: 7450 74bd 5fab 6bbd 7360 8b3d 598f d4bd
00000050: 89f9 2ebe 550b aabd 410c c2bd 0517 8ebc
00000060: d49c 20bf 2cd3 cfbe e99d 4c3c 44ab 923e
00000070: 53a3 32bf 38ef a2bc 686c b13c 1798 0dbd
00000080: 4406 053e e131 4e3e 9771 3f3e d23a b7be
00000090: 1679 833e 8ca5 bc3e c146 b53e 2469 433e
000000a0: 678e bebe 24b4 d4bd c51a 863e b1a7 813d
000000b0: fa59 4a3e 97ad 95bd b954 d33c c353 cd3d
000000c0: dd7f 9ebe 175b 48be f9f2 3e3e eaec 37bd
000000d0: fe88 aabd 3ae2 00bf 8b0e 3a3c d245 733e
000000e0: 2bf0 3abe 0150 97be 6969 123e d2d2 4a3e
000000f0: 7963 343f ea1f b13e 5f14 2ebd b068 a8bc
00000100: 7b09 cbbb cc66 3cbf a155 f2bd f5a6 20be
00000110: d649 b6bc 276c b5bd fc6c 6abe 88ae c6bd
00000120: 4118 6abe 41d5 0dbe 29ee 7dbe 1196 a1bc
00000130: 066b e93e c1eb d53e 1a3f 663e ca25 023e
00000140: 3f4b f2be 0918 70bd 0ec5 913e b19d 773e
00000150: a743 dabd 9b99 94bd 8e5b cf3d 5426 10be
00000160: b7b4 5e3e c9fb 79be 7787 ad3e dd40 24bd
00000170: e098 d03d 75c6 e93c 921f 783d 622b 3cbe
00000180: 70c2 423e b25a 843d 0eea ffbd 3ada adbe
00000190: e595 4ebd 3cd1 88be 32d0 433e c178 033e
000001a0: 09c5 3dbf 6fc7 5fbe ae8b 56bd 7eed 40be
000001b0: a6ca 943d a3b5 c0bd 2fc8 80be 8793 5ebd
000001c0: d15b 0bbf 45b4 7a3d 6af2 863d 0720 93be
000001d0: 476c 51be 44a9 063f d031 c23d 1287 81be
000001e0: 47bd 663c 7b11 943e b7f0 883e 935b b8bd
000001f0: 47b7 7fbe b94e 2b3d e16b 14bb 5d57 e3bb
00000200: cccd f5bd dce4 ab3e 0b58 863e 8c32 66bc
00000210: 2373 ddbe 3aa8 50be 8e11 9d3d e606 05be
00000220: 4f4d 8bbf cfb0 bfbe 0877 a53d 3a9a 633d
00000230: 8830 87be 0f89 913e 6d03 bf3d c46a 213d
00000240: 7c64 4cbe 5891 32bf 9b6b ccbd 9677 8b3e
00000250: 7fd7 3abe 5bf9 91bc b013 a3be 2b4c 81be
00000260: bb3d 86be 8473 5f3e 153e b1bd 0037 5dbe
00000270: 59f1 c73e a125 d0bd 6704 223d 2f57 d9bd
00000280: 4339 09bf ae6f 3d3d e02d c73d 61b1 763e
00000290: a4ea 483d aac4 d7bd 5202 55be ce21 3ebe
000002a0: fb66 303e 5dfc cdbe bee2 45be cf41 03be
000002b0: 4d23 4fbd 8c9c dabc e75e a83c e2af 98be
000002c0: 976c 7abe 5bac 8ebe a5a1 933e 8e30 9f3e
000002d0: cc32 4f3e c165 403e b77b b03b e901 64bc
000002e0: 5536 103e c86c 5f3e 3ea4 5cbe bc01 58be
000002f0: 8d2b 033d 712b e0bd f1ae b53e 89a1 583e
00000300: 5abc 003c 00c1 203e 0636 f63d ebd0 76bc
00000310: 0d3b c4be 1ce8 8e3e 03c0 75bd 6c02 f1bb
00000320: 6843 7dbe fba8 0a3e a695 123e 3675 25bd
00000330: dd02 7f3d 9abe 803e 71bb 0d3e 0733 72be
00000340: b440 cb3e b65f a43e 71c6 9b3c 269a c3bd
00000350: d487 dfbe 0bd0 603d 1e61 b23d b5d5 d23e
00000360: cf8c 50bc a5a8 1dbe c417 49be b363 893e
00000370: 9810 6d3e 3b81 6e3d fd8d 9d3d 5916 89bd
00000380: 6e7b 403c 13a1 1dbe 4418 1dbf 22e3 c1be
00000390: 630f 123f 0bef 183f ac69 99bc 02f2 5d3d
000003a0: 7ded 213e bad8 c33e 787f fd3e b0ff b63e
000003b0: efa3 fbbd 8bd1 033d 6594 1fbe 6ad7 013e
000003c0: 3285 a13e 92fb 743e 95dc 96be 3450 14bf
000003d0: 3da3 6e3e 45b2 4b3e e43e 6a3e fc34 73bd
000003e0: d892 1c3e ee67 96bc 2acf c5bd a5e1 9e3e
000003f0: 60d2 893d f7a5 893d 349f 0f3e acf2 e439
-8.077301e-05 -0.21632324 -0.3961655 -0.07602762 -0.053992853 -0.07743326 -0.08497698 -0.035011277
-0.08306927 0.08762604 0.07950722 0.36175725 -0.22603236 0.022430295 -0.3943507 0.04123475
-0.05964704 -0.05753648 0.068055056 -0.10378904 -0.17087378 -0.08302943 -0.094749935 -0.017344961
-0.627393 -0.405908 0.012488821 0.2864629 -0.69780463 -0.019889459 0.021658137 -0.034568872
0.12990671 0.20136215 0.18695675 -0.35787064 0.2567832 0.36845052 0.35405543 0.19083077
-0.3721802 -0.103859216 0.261923 0.06330813 0.19760886 -0.073085 0.025797235 0.10025742
-0.30956927 -0.19565998 0.18647374 -0.044903673 -0.083269104 -0.50345194 0.011356006 0.23757103
-0.1825568 -0.29553226 0.14298023 0.19806984 0.70464283 0.3459466 -0.042499896 -0.020557731
-0.0061961985 -0.73594356 -0.11832739 -0.15688689 -0.022252005 -0.08858519 -0.22893137 -0.09701258
-0.22860815 -0.13850881 -0.24797882 -0.019724878 0.45589465 0.41781428 0.22485009 0.12709728
-0.47323033 -0.05861667 0.28470653 0.24181248 -0.10657435 -0.072558604 0.101248845 -0.14077121
0.21748625 -0.24412455 0.33892414 -0.04010092 0.101854086 0.028537014 0.060576983 -0.18375924
0.19019485 0.06462611 -0.12495814 -0.33955556 -0.05043592 -0.26722133 0.19122389 0.12839033
-0.74128777 -0.21853422 -0.052379303 -0.18840596 0.072652146 -0.094096445 -0.25152728 -0.05433991
-0.54436976 0.061207075 0.065892056 -0.28735372 -0.20451461 0.5260203 0.09482157 -0.25298363
0.014083213 0.28919587 0.2674615 -0.090018414 -0.24972259 0.041823123 -0.0022647309 -0.0069379047
-0.12002143 0.33573043 0.26239046 -0.014050137 -0.43251905 -0.20376673 0.07669364 -0.12990913
-1.0882968 -0.37439582 0.08079344 0.055567004 -0.26404214 0.2842488 0.09326825 0.03940846
-0.19960207 -0.69753027 -0.099814616 0.27239674 -0.18246268 -0.017819097 -0.31850958 -0.25253424
-0.26218972 0.2182141 -0.08654419 -0.21603012 0.3905132 -0.10163427 0.03955498 -0.10612332
-0.53603 0.046249084 0.09725547 0.24091102 0.049051896 -0.105355576 -0.20801666 -0.18567583
0.17226784 -0.402316 -0.19324777 -0.12818073 -0.050570775 -0.026685975 0.020553065 -0.29821688
-0.24455486 -0.27865872 0.28834262 0.31091732 0.20234221 0.18788816 0.0053858417 -0.013916471
0.14083226 0.2181884 -0.21547028 -0.21094412 0.032023955 -0.10945786 0.35485032 0.21155371
0.0078574065 0.15698624 0.12022023 -0.015064458 -0.38326302 0.2791146 -0.05999757 -0.007355025
-0.24732745 0.13541023 0.14314899 -0.040394984 0.06225859 0.25145417 0.13841034 -0.23652278
0.39697802 0.32104272 0.019015523 -0.09550886 -0.43658316 0.054885905 0.0870993 0.4117867
-0.012728884 -0.15396364 -0.19637972 0.26833877 0.23150861 0.058228713 0.07693098 -0.066937156
0.011748178 -0.15393476 -0.6136515 -0.378686 0.5705473 0.5973975 -0.018727146 0.054185875
0.15813251 0.38251287 0.49511313 0.3574195 -0.12287127 0.032182258 -0.15583952 0.1267983
0.31546932 0.23924091 -0.29465166 -0.5793488 0.23304458 0.19892223 0.22875553 -0.0593767
0.15290391 -0.018360104 -0.09658654 0.31031528 0.06729579 0.067211084 0.14025575 0.00043668353

fc1.bias f4 [120]
00000000: a5ea fcbd 9080 b7bc 73ed cabe d21d 2d3c
00000010: 1e8e ca3a e5a6 f03c 0b5d 43be 25be e8bd
00000020: e212 2f3e b77c dfbe 2858 eb3c f3a6 24be
00000030: ebd9 1ebc 610e 5abd 860b 98bd 4550 b3bd
00000040: 830f cfbd 3e55 25bd f1e7 39be 2ae5 a03c
00000050: dd85 7ebe 9dd4 a6bd 02ec febd b399 983c
00000060: 37d6 153d e46c b3bd 7b69 4d3d 3ec4 c5bd
00000070: 08d3 813d 3d31 823c 0a9d 26bd e341 d6bc
00000080: 2ac5 0cbd 5625 83bd 9ee8 ffbc ebd2 3fbe
00000090: 4b4f c9bd aedc 6fbd 695c b7bd 9b3c 67be
000000a0: d81a ccbd e2d1 babe 2ae1 6ebd ec5c 33bd
000000b0: cb06 613e ed91 02bf e8f0 1ebe d41c a2be
000000c0: 547b 143e 6963 40bd 0a16 423c d330 7d3e
000000d0: fddf 0abf 3fd8 043e 4581 e7bd 0c90 9ebd
000000e0: 6dc8 63be 9d82 e63d 7860 433e 7053 acbd
000000f0: 1eeb a7be e1c0 d3bd 98f0 3bbe 6ac5 f3be
00000100: 81d9 19be 7547 743d d3d1 b3be 93a9 e83c
00000110: 8616 373a ee82 a7be 3f9e 8abb f5c1 8fbc
00000120: b8cc 8dbd a103 09bf 7424 55be fad3 2ebe
00000130: 070f 3fbe c55d 99be 173e fabd 9efc 243e
00000140: 9cba 10be f9a2 b4be 15ff 35be 8c1f a3bd
00000150: 1c1b 2f3d 23d1 beba edc2 d4bd 601a 76bd
00000160: dc87 6c3d c6b5 27be 21c8 19be 258a 24be
00000170: 9714 a23d ce59 4dbe 7ee2 40be df2b 72bd
00000180: 330e d43c 9667 bdbd 754c a7bd 79dc fabe
00000190: fda4 053e 81d4 673e f232 e7bd fa6c 03be
000001a0: 3be0 b3bd 102b 85bd 58af 1f3b 8e07 e5bd
000001b0: da4a bcbe 981c 6e38 64f9 07be 67de 64bd
000001c0: 4441 c43c 60c4 52bc ba6f ebbd de34 2bbe
000001d0: c27c 653e f143 1b3d 2fb8 45be 7a65 aabb
-0.123494424 -0.02240017 -0.39634284 0.010566192 0.0015453731 0.029376457 -0.19078462 -0.11364392
0.17097047 -0.43649837 0.02872856 -0.16079311 -0.00969551 -0.05323637 -0.07424073 -0.087555446
-0.101103805 -0.040364496 -0.18154885 0.019640524 -0.24855752 -0.081460215 -0.12447359 0.018627977
0.036581244 -0.087610036 0.050149422 -0.09656571 0.06339079 0.01589262 -0.040677108 -0.026154464
-0.034367718 -0.06403606 -0.03123885 -0.18732803 -0.09829577 -0.058560066 -0.08953173 -0.22581713
-0.099660575 -0.36488253 -0.058320202 -0.04378979 0.21975248 -0.51003915 -0.15521586 -0.3166262
0.14500171 -0.046969805 0.011846075 0.24725656 -0.5424803 0.12973116 -0.11303953 -0.077423185
-0.22244425 0.11255381 0.19079769 -0.08414352 -0.32796568 -0.10339523 -0.18353498 -0.47611552
-0.15024377 0.05963846 -0.3512102 0.028401172 0.0006984252 -0.3271708 -0.00423029 -0.01754854
-0.06923813 -0.5352116 -0.20814687 -0.1707305 -0.18658076 -0.29954353 -0.12218874 0.16111991
-0.14133686 -0.35280588 -0.17773087 -0.079650015 0.042750463 -0.0014558177 -0.10388742 -0.060083747
0.057746753 -0.16377935 -0.1501775 -0.16068323 0.079140835 -0.20053789 -0.188364 -0.05912387
0.025885677 -0.09248273 -0.0816888 -0.48996332 0.1305122 0.22639658 -0.11289014 -0.1283454
-0.08783003 -0.06502354 0.0024365988 -0.111830816 -0.36775857 5.6770252e-05 -0.13278729 -0.055876162
0.023956902 -0.012864202 -0.114959195 -0.16719386 0.22410873 0.03790659 -0.19308542 -0.005200085

fc2.weight f4 [84, 120]
00000000: 5971 8cbd 576b 03be c718 89bd 8a92 7bbe
00000010: cf2c 023e 77ca 61be 0670 9c3e 621c 48bd
00000020: 3d6b 243e c88a b53e d943 713e 26ef 6abe
00000030: 11e1 83bd 3d61 733e 417e 1dbd c09f 503c
00000040: 9b68 443e 3117 37be ca52 33bd 9c29 cbbe
00000050: 3c40 70be 7e26 ca3c 4a19 c8bd afc6 dcbc
00000060: d6d2 19bf a45c 533d d97e 9f3d ceab 5dbd
00000070: 4aa6 f23d bc5d c33c b0d7 753e e6c0 443e
00000080: d800 27bd e403 e3bd d27a a13e 3736 ebbd
00000090: c832 d5bd 07e8 41bc cbf7 0fbe 881f 61bd
000000a0: 1548 3c3e 5a1a bf3e be7f 943c a90a 35bd
000000b0: f07a 41be 72f2 683c e7bf 84be b5d8 d9bd
000000c0: 6cd4 803d 83b7 06bf 51dc 073e df50 01bf
000000d0: 0167 4abe 586d e2be c7ae 783d 1beb 523d
000000e0: b418 ed38 366f 973d 6ea0 713e 81b7 4fbe
000000f0: 2957 ba3e fdd1 523d 34e4 58be 20dc d23d
00000100: 2abe ed3e d886 af3e ec51 e73d dfc9 ae3a
00000110: f3eb 173e 9e6a 78be 45fb 2fbd f3c3 6bbd
00000120: 5dfc e1bd 7f79 9f3e ff21 553e 1fe0 123e
00000130: dafb f4be 07c5 abbe b019 1b3e 2a43 95be
00000140: 6c72 c0be b642 ab3e e30b b43d 7693 4b3e
00000150: e73b ee3d a8b5 97bc ef1b 133e eecd f03e
00000160: da6a 3abd 2d04 1cbe db60 2abd 0d8e f83e
00000170: d3ff dabd e5a9 b33d f58e cdbe ddd2 01bd
00000180: 438a 2cbd cab9 0bbf 97b4 f33d 99be 623d
00000190: df3f 173e e943 66bd 5216 25bd 5d2c 153e
000001a0: fb0c 213e a89c b03e 1f2b 97bc 2a76 90bd
000001b0: 06b1 db3d ffd1 7c3e 5be7 98bc 0feb 163e
000001c0: 735d a03d 2877 7cbc 74ff 9fbe fdf4 2f3d
000001d0: c533 cfbc 2307 9bbd 971e a4be 850b 60be
000001e0: 7559 7dbe 23b6 d3be b18c 88be 92d9 9fbd
000001f0: 3e3d 06be de34 d83e ae52 01be 956f 103f
00000200: e949 aa3e 206b 333e dbb3 32bf 8b65 8b3d
00000210: 1064 643c 7c3f 7cbb 4517 d13c ce09 39bd
00000220: 8121 723d 6b68 0b3e 080f 933e c638 963d
00000230: 9293 fbbd 7989 30bd 6dda 423b 7219 873d
00000240: 8a14 5f3e ec33 71bd 42ca dcbd 424d f9bc
00000250: ed1a 0b3d 36e2 48bd a2b7 ccbd b34b 4d3d
00000260: edb5 37bd 178a 3d3e f6c1 66bc 40cc c83e
00000270: b871 3cbf b5b8 35bd 28df 1cbe 9318 b4bd
00000280: 16aa a6be f789 0abd dd08 283d 1e7e ab3d
00000290: 7fb6 5bbd 9c4f bc3e ef1b a6be ce33 483d
000002a0: 9556 1a3e 3f5b 833c 766d 023e 6370 71be
000002b0: 64de 59bc 588f 2fbd eabd 8abe cd69 e0ba
000002c0: fb7c 1fbf 5d54 e93d 9a51 c2bc ba05 acbd
000002d0: 75c8 c9be f57d 54bd 4314 103e 10a6 813e
000002e0: d6f8 abbd 9aca f83d e4c4 4fbd 5fee 563e
000002f0: 4cbb c53d 2c31 1f3e dfad 7cbd 9cbf 8a3c
00000300: 7da2 e53d ddc0 113e 6287 79be 6ee0 aa3e
00000310: 3fa7 d63e f432 4ebe 9d9a a23d 1897 b3be
00000320: 9a71 403e fbe0 c53d 529d f43d 7816 8b3d
00000330: 7917 1d3d 8b46 18be b9e6 c63d 14a2 c43d
00000340: 5f86 31be 6457 8b3e 82fd d4bd 4df2 193e
00000350: d8ac 87bc 6780 363e 0fc8 a83e 0c49 80bc
00000360: 7526 e0bc c8c4 733d e18d 9fbe 86eb 0e3e
00000370: 8532 2ebd 13d8 cbbd bdc0 a6bd c489 a8be
00000380: 70b7 b43e e97a febe be6a f33c fc05 813d
00000390: 5f5f 193e 181c cebc e3a5 213e f188 66be
000003a0: fef9 12bd edb2 4fbd 4f70 2d3e c6c5 0d3e
000003b0: c54b cfbe 31c6 ef3b bee5 873d 2260 5d3e
000003c0: dde2 883e 6637 ae3d 83ea eebd 33f9 4bbc
000003d0: dc81 0c3e 6663 a3be f275 013f f520 edbe
000003e0: f183 9ebe a71d cf3e 9e56 1dbf 7a76 0f3e
000003f0: 4ada 68bd ea9e 1e3e de70 a03c aff3 763a
-0.06857557 -0.12833916 -0.06694179 -0.24567619 0.12712406 -0.2204989 0.30554217 -0.048855193
0.16056533 0.35457444 0.23561038 -0.2294279 -0.064394124 0.23767562 -0.038450483 0.0127334
0.19180529 -0.1787994 -0.043780126 -0.39680183 -0.23462003 0.024676558 -0.097704485 -0.026950208
-0.60087335 0.05160202 0.07787866 -0.054118924 0.11848123 0.023848407 0.2400806 0.1921421
-0.04077229 -0.110847265 0.31539017 -0.1148495 -0.104100764 -0.011835105 -0.1405937 -0.05496171
0.18386872 0.37324792 0.018127318 -0.04419962 -0.18894553 0.01421796 -0.2592766 -0.10637037
0.06290516 -0.52623767 0.13267638 -0.50514024 -0.19765855 -0.44224048 0.060713556 0.051493745
0.00011305642 0.07394259 0.23596355 -0.20284845 0.36394623 0.05146979 -0.21180803 0.10295892
0.46434146 0.34282565 0.11294922 0.0013335309 0.14836101 -0.24259421 -0.04296424 -0.05755992
-0.110344626 0.31147382 0.2081375 0.14343308 -0.47848397 -0.33548757 0.15146518 -0.29152805
-0.37587297 0.33449334 0.0879133 0.1988047 0.11632519 -0.018519238 0.14366125 0.47032112
-0.045512058 -0.15235968 -0.041596275 0.48545876 -0.10693326 0.08772639 -0.4014813 -0.031695236
-0.042124044 -0.54580367 0.11899679 0.05535755 0.14770459 -0.056217108 -0.04030449 0.14567704
0.15727608 0.3449452 -0.018453179 -0.07053788 0.10727124 0.24689482 -0.018665006 0.14738105
0.07830324 -0.015409268 -0.31249583 0.04295825 -0.02529324 -0.075697206 -0.32054588 -0.21879394
-0.24741156 -0.41349897 -0.2666984 -0.0780517 -0.131093 0.42227834 -0.12629196 0.5642026
0.33259514 0.17521334 -0.6980569 0.06806477 0.013939872 -0.0038489988 0.025523791 -0.045175366
0.059113983 0.13614051 0.28722405 0.073350474 -0.12284006 -0.043099854 0.0029732243 0.0659665
0.21785179 -0.058887407 -0.10780765 -0.030432347 0.033961225 -0.049043857 -0.09995963 0.05012102
-0.044851232 0.18509708 -0.01408433 0.3921833 -0.7361102 -0.044365603 -0.15319502 -0.0879375
-0.3255164 -0.03382298 0.041024078 0.08373664 -0.05364084 0.36779487 -0.32443187 0.04887753
0.15072091 0.01603472 0.12737069 -0.23578028 -0.013297651 -0.042861313 -0.27098018 -0.0017121375
-0.6230008 0.11393044 -0.023720551 -0.0839953 -0.3941075 -0.051877934 0.14070229 0.25322008
-0.08397071 0.12148018 -0.05072488 0.20989369 0.09654865 0.15546101 -0.061689254 0.01693707
0.11212633 0.14233728 -0.2436805 0.3337435 0.41924474 -0.20136625 0.079396464 -0.35076213
0.18793336 0.09662052 0.11944069 0.06791395 0.038352463 -0.1487066 0.097119756 0.096012264
-0.17336415 0.2721511 -0.10399915 0.15033837 -0.01656191 0.17822419 0.32965133 -0.015659831
-0.027362088 0.059513837 -0.31162933 0.13957033 -0.042528648 -0.09953322 -0.08142231 -0.32917607
0.35296202 -0.49703148 0.029713985 0.062999696 0.14977787 -0.02515988 0.15785937 -0.22513177
-0.035882942 -0.050707746 0.16937374 0.13844976 -0.40487495 0.0073173274 0.06635617 0.21618703
0.26735583 0.0850666 -0.11665823 -0.01244955 0.13721412 -0.31911772 0.50570595 -0.46314207
-0.30960038 0.4045231 -0.6146029 0.14010039 -0.0568488 0.15490308 0.01958507 0.0009420467

fc2.bias f4 [84]
00000000: 3e38 dfbd 0388 aabc 95dd a0be 4d3b 1d3e
00000010: e48e 6ebe abf8 b2be a309 20be 665f 0f3e
00000020: 5b47 28be 2d81 2f3e 7c35 fabd 5969 aabe
00000030: 74d9 29bd 5afd 50be 25ba bcbd 89a1 853e
00000040: 9348 c2bd 61c7 4cbe 969b cabe f355 1e3e
00000050: f9c5 b8bd 9d1d 3fbe 8b19 85be 1114 133e
00000060: 367a ffbd aa0a d03d 957f c0bd 9a8a 42be
00000070: 20be 8d3d 96d6 233e 795d 0cbe ab1e 4fbd
00000080: 8984 03bd d518 f7be 6558 c3be dbc6 873e
00000090: 9d62 913e 0d46 543e 45bc 29bd 4867 62bc
000000a0: fe10 853e a93f 9cbe 9c21 d73d 304b 3cbe
000000b0: 808e 1ebe a619 973c a40c d2bd b56c 13be
000000c0: b512 b83e 8451 833e a907 56be c0db 93bd
000000d0: d706 49be 9e34 d3bd 0c00 dabd 83a6 87be
000000e0: c912 ac3b 3a0a 2dbe 6ca6 91bd af49 d0be
000000f0: 6fc2 4abe 23c6 4a3e 3b7c e73d 4b6a 72be
00000100: f2a7 21be 9f97 a5be e0fe b9be 27a6 12be
00000110: c146 a5be d380 2cbe 444e ec3d 3a9b 07be
00000120: dd62 cbbe 2bfe 5c3d 3745 32bd 5c44 bb3d
00000130: a342 0b3e e16c 3e3e 61fb 0abe 2b18 913e
00000140: b0b0 81be d70d 82be 90d4 a63e 71e0 843d
-0.10899399 -0.020816809 -0.31419054 0.15354653 -0.23296696 -0.34955344 -0.15628676 0.14001235
-0.1643347 0.1713912 -0.122172326 -0.332835 -0.041467145 -0.20409146 -0.09215192 0.26099804
-0.09486499 -0.19997932 -0.39571828 0.15462475 -0.09022135 -0.1866364 -0.2599605 0.14363123
-0.12474482 0.10158284 -0.09399334 -0.18998185 0.06921029 0.15999827 -0.13707532 -0.050566357
-0.032108817 -0.48261133 -0.38153377 0.26518902 0.28395548 0.20729847 -0.041439313 -0.0138185695
0.25989527 -0.3051732 0.10504457 -0.18388057 -0.15484047 0.018444847 -0.10256317 -0.14396937
0.35951772 0.2564813 -0.2090136 -0.07219648 -0.19631515 -0.1031277 -0.1064454 -0.26494226
0.005251263 -0.16898432 -0.071118206 -0.40681216 -0.19800733 0.19802146 0.11302992 -0.2367336
-0.15786722 -0.3234224 -0.36327267 -0.14321195 -0.32280543 -0.16846018 0.115383655 -0.13242808
-0.39723864 0.05395333 -0.04352304 0.09143898 0.13599639 0.18596222 -0.13572456 0.2833875
-0.25330114 -0.25401184 0.32584047 0.06488121

fc3.weight f4 [10, 84]
00000000: f0ba f0be 2e27 3dbe 8021 babe b33b 0fbf
00000010: f7ee d0be cc07 18bf 6d3d 283c e977 fdbe
00000020: 3995 b6be 6ca3 fbbc 7097 a7be 22ab 4fbf
00000030: 4b3b c6be b749 25bf 8232 85bf 9c89 1ebf
00000040: c210 05bf 7f2c b8be 0782 273d be56 d6bd
00000050: 7a03 3b3e 88b4 d2be d356 e43c 5fff 0bbf
00000060: a025 f6be 81f0 6dbe f66d 90be 1fa3 00be
00000070: 3e85 c4be 6ded 0abf 9e43 b13d b29d 31bf
00000080: bb55 5fbe 8ac2 49be 58cd 833d 7b09 cc3c
00000090: 58bb 77be 8643 babe 9130 00bf 29db 88be
000000a0: c475 d9bd 3e13 42be 870f 273e e5f8 da3d
000000b0: f9fb 8cbe ef83 3bbf abd3 b5be ceae 343e
000000c0: 674e 23bf d6d3 3bbd ce17 d7bd d6af f1be
000000d0: 1956 62be d339 783c 2b3c 46bf b8ed bf3d
000000e0: 8f9c 92be c35b 10bf a729 493d 0e79 6abe
000000f0: ee62 0bbf 964b 103e 82cf 7cbe db80 5c3e
00000100: 8c59 03bf 5f96 4cbf 4285 1d3d b328 39bf
00000110: 3682 f5be c058 ca3c 8ce1 9fbd f9ec 4e3c
00000120: 7315 29be 6aa4 f53d 061f ee3d 1877 ac3b
00000130: 8006 bfbe b1a5 833c 01ec 54bc ebe1 113e
00000140: 9590 cfbe 9447 113e 4a88 11bf 1b02 153e
00000150: facd e73d 1426 fbbe 5722 2c3e 9c9b 6a3d
00000160: 482e f5be 0f79 223d f5af 1b3e 1baf 16bf
00000170: c715 cebe 4778 9ebe ea4a db3d 0cb2 1b3d
00000180: ad37 3dbf 615e 70be f6c8 05be 5ee0 043d
00000190: 4175 083e ffac 703c 8ab3 01bf 7c85 ef3d
000001a0: d4c8 9bbe 72ab f3be 7f7b e0be bb9e 663d
000001b0: 75fa 5f3d 253f dcbe c9de 48be 9f42 61bf
000001c0: c38a fdbe df47 05bf 7dd9 583e 76d5 80be
000001d0: abf7 d3be a909 d7be ba5e 87be fceb cbbe
000001e0: e6c9 5ebf 32f6 e2be f42d a9be 58a4 18bf
000001f0: 58c1 c6be 88f6 453e 5398 1ebf 47b6 923d
00000200: b9da 39be 504d 1c3e 0d41 673d 299b 0cbf
00000210: 151a e7be d671 a83d b206 a1be 7764 bdbc
00000220: 707d edbe 991e b5be 6c56 10be e1ab 3bbf
00000230: 870d d0be 1a48 c23d 4ede 5bbe 6468 a4bf
00000240: ad2f d3be 7f6a cfbe 3cc6 02bf b8df 1a3e
00000250: 34a3 6fbe e014 07bf 017e 12bf 28a5 0f3e
00000260: 64d5 853d 1a10 67be 932e 4ebf 9b94 04bf
00000270: 97e4 90be 2670 15bf fe90 b9bc 45e0 5f3d
00000280: ff41 65be 70eb 7bbf 4960 0c3d df24 01bf
00000290: d296 eabe 79aa f5be 1692 a4be bce8 67be
000002a0: a9ba 28bd 28b0 b0be ffb4 1bbe e72b 08bd
000002b0: b2ca 80be 69a1 ca3c 6d73 143e 2459 643b
000002c0: 0658 28be d940 193d e507 c03d b7d8 6bbe
000002d0: 9ae7 fdbb 6dfd a3be 3334 28bd ed38 5a3d
000002e0: cf09 313d 619d 13bf c655 8b3c be86 18bf
000002f0: 53de 03bf 8595 f0be 24a7 e1be 1bf9 8dbe
00000300: c69c 133c 9582 48be 8d8d 573e 0340 1dbf
00000310: 08ce 9b3e 9eec 76bf 153a 013e a08a 873d
00000320: 5dc1 0dbf bd3e e43d 2010 a63c 6a96 063c
00000330: 39b9 0fbf db57 a8bd bd9d 9ebe 25e2 17bf
00000340: e5ad 22bf bbc9 bfbe 6949 3b3d c1d4 033c
00000350: 96d5 86be 7ba9 603c f216 edbe 7e20 0b3e
00000360: 2e3b 9ebe 0026 3ebf 2a8d eabe 35c8 e93c
00000370: 5214 22bf 4c1e 48be 29c6 2b3d 959d b9be
00000380: a392 bf3d 05dd ebbe 2c90 01bf 0dd4 53bd
00000390: 9cd8 053e 9c6b 4dbe 626e 1abf fa8b 02bf
000003a0: e764 84be 9d13 8cbe 4cbc 87bd 72f9 1a3e
000003b0: 983c 2cbf f072 1b3d 8a91 37be 455a 3fbf
000003c0: 923f 12be 1b74 123e 567d 40bf ca82 a0bd
000003d0: aeec 6cbe acc9 9b3d d92d 083d 61f9 1bbf
000003e0: b2b9 7dbf c1c2 08bf 61ea 17bf 7598 51be
000003f0: 5360 f8bd 5c97 a6be 0579 2b3e b806 39be
-0.47017622 -0.18471977 -0.36353683 -0.5595047 -0.40807316 -0.593869 0.010268551 -0.49505547
-0.35660723 -0.030717574 -0.32732725 -0.811205 -0.38717112 -0.64565605 -1.0406039 -0.61928725
-0.51978695 -0.35971448 0.040895488 -0.104657635 0.18263045 -0.4115336 0.027873432 -0.5468654
-0.4807558 -0.23236276 -0.28208894 -0.12562226 -0.38382906 -0.54268533 0.08655475 -0.6938125
-0.21810047 -0.19703117 0.064356506 0.024906864 -0.2419256 -0.3637964 -0.50074106 -0.26729706
-0.10618165 -0.18952653 0.16314517 0.10692004 -0.2753599 -0.7324819 -0.35513052 0.17644808
-0.6379151 -0.04585632 -0.10502587 -0.47204465 -0.22103156 0.015150505 -0.7743556 0.09371513
-0.2863507 -0.5639002 0.04911199 -0.22897741 -0.5444783 0.14091334 -0.24688533 0.2153353
-0.5130851 -0.7991695 0.038457163 -0.7232773 -0.47950906 0.024700522 -0.078066915 0.012629741
-0.16512088 0.1199425 0.11627011 0.0052632205 -0.37309647 0.016070219 -0.012995721 0.14246337
-0.40539995 0.14187461 -0.56848586 0.14551584 0.11318584 -0.4905249 0.16809975 0.057277307
-0.47886872 0.03966623 0.15203841 -0.5886094 -0.4025099 -0.3095114 0.10707648 0.038011596
-0.7391308 -0.23473503 -0.13064942 0.032440536 0.13325979 0.014689683 -0.5066458 0.11695382
-0.30426657 -0.4759174 -0.4384422 0.05630372 0.054682214 -0.43016925 -0.19616236 -0.8799228
-0.4951993 -0.5206279 0.21176715 -0.25162858 -0.41399893 -0.41999558 -0.26439458 -0.3982848
-0.8702682 -0.44328457 -0.33042872 -0.5962577 -0.38819385 0.19332325 -0.6195118 0.07163673
-0.18149842 0.15263867 0.05645852 -0.54924256 -0.45137087 0.082248375 -0.3145042 -0.023119194
-0.46384764 -0.35374907 -0.14095467 -0.7330914 -0.4063532 0.094864085 -0.21471521 -1.2844357
-0.4124731 -0.40510938 -0.5108373 0.15124404 -0.23402101 -0.5276623 -0.57223517 0.14027846
0.06534842 -0.22564736 -0.80539817 -0.51789254 -0.282994 -0.5837425 -0.022652145 0.05465724
-0.22388457 -0.98406124 0.034271512 -0.50446886 -0.45818192 -0.47981623 -0.32142705 -0.22647375
-0.041193638 -0.34509397 -0.15205763 -0.033244994 -0.25154644 0.02473517 0.14497156 0.003484317
-0.16439828 0.03741536 0.09376506 -0.23031889 -0.0077485563 -0.32029286 -0.041065406 0.053276945
0.043222245 -0.57662016 0.017008673 -0.595806 -0.51511115 -0.46989074 -0.4407283 -0.27729115
0.009009546 -0.19581063 0.21050091 -0.614258 0.30430627 -0.964548 0.12619813 0.066182375
-0.55373174 0.11144779 0.02027136 0.008214572 -0.56142 -0.08219882 -0.3097972 -0.59329444
-0.6354659 -0.37458596 0.045724306 0.00804633 -0.26334828 0.013712282 -0.46306568 0.13586614
-0.30904526 -0.74276733 -0.45810825 0.028537849 -0.63312256 -0.19542807 0.041937027 -0.36253038
0.093541406 -0.46067062 -0.50610614 -0.0517159 0.13070911 -0.20060581 -0.6032468 -0.5099484
-0.25858232 -0.27358714 -0.06627712 0.15134218 -0.6727996 0.03795141 -0.17926612 -0.74747115
-0.14282063 0.14302103 -0.7519125 -0.07837446 -0.23137161 0.07606825 0.03324685 -0.60927397
-0.99111474 -0.5342217 -0.5934201 -0.20468314 -0.121277474 -0.32537353 0.16745384 -0.18068969

fc3.bias f4 [10]
00000000: 1d8b 9dbe c9e9 45bd 7dcc 9f3d 497a a6bd
00000010: 03e4 4bbc 49b8 45be 3cf4 cdbd a917 ccbd
00000020: 9898 b33e 0efe e63d
-0.30770198 -0.048318658 0.07802675 -0.08128793 -0.012444499 -0.1930858 -0.1005635 -0.0996545
0.35077357 0.11278926
