mnist/saved_models/model_epoch_25.pth (torch, 181338 bytes, 10 tensors)

conv1.weight f4 [6, 1, 5, 5]
-0.1737798 0.12001766 0.01610894 0.37522936 0.08250346 0.16053025 0.49289426 0.17379098
0.08672159 0.26391378 0.20897743 0.13545434 -0.20357177 -0.09320893 -0.044480745 -0.07764298
-0.27187574 -0.23600756 -0.27527988 -0.24710797 -0.10256834 -0.012742944 -0.0021057012 0.2322423
-0.14074764 -0.27839243 0.06832143 0.44028866 -0.19551718 -0.19178778 -0.3776586 0.05898584
0.6249268 0.102018304 0.0393036 -0.3356382 -0.36923426 0.40076894 0.2864795 0.03406699
-0.111869775 -0.6024176 -0.11159239 -0.25160098 -0.12751071 0.24933378 -0.035381775 0.18625057
0.11839032 0.15659246 -0.024807932 -0.15816517 -0.19069265 -0.033663422 -0.31752893 -0.040730365
-0.09387672 0.2243546 0.428886 -0.07550139 0.24724934 0.16325414 0.47100648 0.5885005
-0.13838011 -0.09667457 -0.4776417 -0.16976534 0.29887888 0.11106589 -0.0063618766 -0.24559282
-0.42306712 -0.013302841 0.3334405 -0.004586207 0.1350195 -0.0070179696 -0.043473486 -0.0015176844
0.10811314 0.056897987 -0.07995412 0.05993274 0.22005653 0.07052513 -0.08754932 -0.267521
-0.09866889 0.24889939 -0.13489974 -0.16456042 -0.2015948 0.4159239 0.40071034 -0.22184303
-0.037428487 0.11232644 0.10400637 0.13881186 0.057507534 0.03727151 0.3689645 -0.023413513
0.30972388 -0.036329776 -0.16086817 -0.00889136 0.03359847 0.29340333 -0.104218595 -0.2844813
-0.2779524 -0.49672398 0.016484154 0.38843882 -0.112071574 -0.6154203 -0.31152803 0.11518498
0.14102343 0.40510145 0.4202885 0.44308165 -0.027239809 0.17817749 0.18264872 -0.05021513
0.030321503 0.09315137 -0.26437604 0.22477277 0.16189905 -0.077503584 -0.0829925 -0.062042665
0.68415755 -0.10529616 -0.25393522 0.15464206 0.31459174 0.4283422 -0.5730407 0.041818675
0.033508267 0.2541108 -0.23655806 -0.19138817 0.027598502 -0.010210092
00000000: 55f3 31be d2cb f53d e5f6 833c 101e c03e
00000010: 93f7 a83d 0b62 243e a35c fc3e 43f6 313e
00000020: 179b b13d b51f 873e 2efe 553e 8bb4 0a3e
00000030: 1e75 50be 53e4 bebd 7131 36bd 4803 9fbd
00000040: 4c33 8bbe f7ab 71be 7cf1 8cbe df09 7dbe
00000050: 5a0f d2bd c8c7 50bc ceff 09bb edd0 6d3e
00000060: 2620 10be 7489 8ebe 1bec 8b3d 846d e13e
00000070: a835 48be 0464 44be 785c c1be 239b 713d
00000080: 34fb 1f3f f9ee d03d d0fc 203d c5d8 abbe
00000090: 460c bdbe 9631 cd3e 71ad 923e d489 0b3d
000000a0: fb1b e5bd 0a38 1abf 8d8a e4bd d8d1 80be
000000b0: 2b92 02be 5b51 7f3e 7bec 10bd 78b8 3e3e
000000c0: a076 f23d c659 203e 013a cbbc 0df6 21be
000000d0: ef44 43be a8e2 09bd 2793 a2be e2d4 26bd
000000e0: 7042 c0bd 36bd 653e f296 db3e 79a0 9abd
000000f0: ee2e 7d3e 182c 273e c327 f13e f8a7 163f
00000100: 84b3 0dbe 51fd c5bd 748d f4be f7d6 2dbe
00000110: a706 993e 8376 e33d 4a77 d0bb af7c 7bbe
00000120: 419c d8be 29f4 59bc b7b8 aa3e e547 96bb
00000130: 8d42 0a3e fff6 e5bb 4111 32bd 0aed c6ba
00000140: 6c6a dd3d dd0d 693d fcbe a3bd 087c 753d
00000150: 8056 613e 7b6f 903d 0f4d b3bd 83f8 88be
00000160: ea12 cabd 7bdf 7e3e 2823 0abe 8782 28be
00000170: de6e 4ebe faf3 d43e e829 cd3e d22a 63be
00000180: 9d4e 19bd 680b e63d 4b01 d53d b224 0e3e
00000190: 058d 6b3d 03aa 183d eae8 bc3e b2cd bfbc
000001a0: 2194 9e3e 88ce 14bd a0ba 24be 11ad 11bc
000001b0: 8d9e 093d f638 963e 8f70 d5bd 88a7 91be
000001c0: c74f 8ebe 9b52 febe c709 873c 74e1 c63e
000001d0: c885 e5bd 2f8c 1dbf 9a80 9fbe 1ae6 eb3d
000001e0: 7268 103e 7569 cf3e 0e30 d73e 99db e23e
000001f0: 0526 dfbc 2974 363e 4408 3b3e 61ae 4dbd
00000200: cd64 f83c 25c6 be3d 4c5c 87be d52a 663e
00000210: ddc8 253e 33ba 9ebd f9f7 a9bd 7320 7ebd
00000220: f324 2f3f 83a5 d7bd cc03 82be 7d5a 1e3e
00000230: 2b12 a13e ab4f db3e ccb2 12bf 0f4a 2b3d
00000240: f73f 093d d01a 823e 473c 72be 43fb 43be
00000250: 4116 e23c 3b48 27bc

conv1.bias f4 [6]
-0.18666312 -1.1634042 -0.4392536 -0.65963036 -0.62484944 -0.6341019
00000000: 9e24 3fbe 6eea 94bf d9e5 e0be 89dd 28bf
00000010: 22f6 1fbf 8154 22bf

conv2.weight f4 [16, 6, 5, 5]
0.24293876 -0.02022318 0.34283528 0.3271371 0.029362053 0.16483787 0.048227318 0.3536873
0.11021796 0.2925339 0.045240037 0.16996796 0.0725409 -0.079837285 0.2760567 -0.73819387
-0.51213586 -0.5408844 -0.3715563 -0.20712239 -1.1337775 -0.95894325 -1.0733367 -1.7208098
-1.9980304 0.257612 -0.2094846 -0.804012 0.17454717 -0.093629815 0.043127347 -0.30818987
-0.33527964 0.22728297 -0.08029807 0.32028908 0.3478026 -0.37306133 0.06415806 -0.07381966
0.37913036 0.33707568 -0.2700929 0.22062415 -0.13452594 0.013918649 0.15326294 -0.5841009
0.13428695 -0.4398254 0.3315894 0.2262771 0.024977522 -0.10881837 0.2288613 -0.33039436
0.26112413 0.102339834 0.04785463 0.25577247 0.013848101 0.27313098 -0.52496934 0.1317075
-0.07064298 -0.44617623 -0.7205841 -1.1301345 -0.62310874 -1.4895473 0.08238688 -0.13698576
-0.18392505 -0.5344976 -0.59764916 0.34727368 0.85272396 -0.17645274 -0.27789068 -0.12915969
0.56559473 0.009363662 -0.35362536 -0.0817099 -0.05664537 0.1121171 -0.70472765 -0.66873467
-0.47923198 -0.9771001 -0.122267105 -0.7806209 -1.3659012 -1.4461651 -1.2472328 -0.0039956467
0.02803447 -0.5434098 -0.42516503 -1.001814 0.21821241 -0.03336655 -0.07255446 0.10673526
0.2423426 0.14500992 0.030567 -0.23968953 -0.36210257 0.30725783 -0.28916207 -0.16396803
-0.4241319 -0.1254501 0.06987368 0.34443414 0.10910087 -0.068291485 -0.39083612 0.1682652
0.35483944 0.48128048 0.31541795 0.37172905 0.30246928 -0.26648796 -0.3776576 0.41549578
0.061119676 -0.08050205 0.27856693 0.009915658 0.3170113 -0.14609058 -0.4892876 0.27412304
-0.026605234 -0.304144 -0.7263577 -0.6636699 0.034937456 -0.29763553 -0.7902191 -1.9410523
-1.0013887 0.03143792 -0.021961255 -1.052683 -0.8233075 -1.4809369 -0.6612597 -0.27250272
-0.22663923 0.29597202 0.36568162 -0.3264028 -0.8053678 -0.86087734 -0.43057886 0.048026428
0.17214784 0.2095431 0.29317698 0.15210612 0.028230732 -0.0127765285 0.3234292 0.2407606
0.11131663 0.1250964 -0.3020977 -0.5547915 -0.72833633 -0.6354374 -0.2769387 0.35136312
0.11738351 -0.38359055 0.16038255 0.12442104 0.13074158 -0.08570111 -0.20107612 -0.282885
-0.2862863 0.25901803 0.5677811 0.24479401 -0.26086926 -0.6242733 -0.42057058 0.14201151
-0.17538862 -0.63657475 0.12609145 -0.12395016 -0.27650744 -0.4502039 -0.45685232 0.23626673
0.104468524 0.02995868 -0.31839776 0.012386229 0.084972724 0.4930794 0.18994749 0.10000487
-0.100731716 -0.50041634 -0.06288792 0.2365061 0.2605553 0.45475763 -0.030306127 -0.34636527
-0.23325813 0.015875367 -0.086488195 -0.25031817 -0.21082366 -0.488168 -0.58107424 -0.71793324
-0.3248359 0.10045417 0.09406933 -0.3970363 -0.08088157 -0.35566717 -0.14876881 -0.09567894
-0.23283532 -0.15704831 -0.39708877 0.11582037 -0.1639516 -0.33219886 0.50684065 -0.25389192
0.017401325 -0.4305841 -0.17889737 0.4699546 -0.008900374 0.40781042 0.33669123 -0.009065928
0.19519632 -0.41426665 0.1823591 -0.34404087 -0.13119082 0.14220315 0.15492223 -0.11063064
00000000: f0c4 783e 15ab a5bc 1b88 af3e 847e a73e
00000010: b088 f03c 42cb 283e 028a 453d 8016 b53e
00000020: f4b9 e13d 01c7 953e 9e4d 393d 150c 2e3e
00000030: 5390 943d bb81 a3bd 4e57 8d3e 46fa 3cbf
00000040: 561b 03bf 6677 0abf a13c bebe e417 54be
00000050: 9f1f 91bf 4e7d 75bf 1963 89bf 7f43 dcbf
00000060: 76bf ffbf b8e5 833e 2283 56be bbd3 4dbf
00000070: 7ebc 323e fdc0 bfbd 4da6 303d 10cb 9dbe
00000080: c6a9 abbe debc 683e 5173 a4bd eefc a33e
00000090: 2f13 b23e e501 bfbe 4d65 833d c32e 97bd
000000a0: 601d c23e 2f95 ac3e 9e49 8abe 4ceb 613e
000000b0: 2bc1 09be 0c0b 643c f6f0 1c3e a387 15bf
000000c0: 8582 093e cb30 e1be 16c6 a93e 2fb5 673e
000000d0: a99d cc3c 2adc debd 9e5a 6a3e 7329 a9be
000000e0: 10b2 853e 8c97 d13d 3703 443d 9cf4 823e
000000f0: 25e3 623c d3d7 8b3e 6464 06bf 55de 063e
00000100: 44ad 90bd 3671 e4be 3378 38bf 3fa8 90bf
00000110: 0e84 1fbf 7ca9 bebf 74ba a83d ff45 0cbe
00000120: d956 3cbe d6d4 08bf 89ff 18bf dbcd b13e
00000130: 1e4c 5a3f 07b0 34be b047 8ebe 7042 04be
00000140: d1ca 103f 0c6a 193c 620e b5be 8557 a7bd
00000150: fa04 68bd a69d e53d 0869 34bf 3232 2bbf
00000160: e55d f5be 3b23 7abf 2d67 fabd c5d6 47bf
00000170: dad5 aebf f01b b9bf 53a5 9fbf eaed 82bb
00000180: 8ba8 e53c e81c 0bbf 3baf d9be 713b 80bf
00000190: 1373 5f3e 5dab 08bd 6f97 94bd 0498 da3d
000001a0: a928 783e 7b7d 143e a567 fa3c 2c71 75be
000001b0: 8265 b9be e650 9d3e 0d0d 94be 3ce7 27be
000001c0: d127 d9be fe75 00be ef19 8f3d ac59 b03e
000001d0: 4770 df3d 68dc 8bbd ac1b c8be b64d 2c3e
000001e0: 84ad b53e 656a f63e 767e a13e 4553 be3e
000001f0: 41dd 9a3e 1c71 88be 565c c1be ddbb d43e
00000200: a058 7a3d 42de a4bd 53a0 8e3e 4975 223c
00000210: 4e4f a23e c598 15be e883 fabe db59 8c3e
00000220: 38f3 d9bc c3b8 9bbe 94f2 39bf 45e6 29bf
00000230: 941a 0f3d af63 98be cd4b 4abf 6774 f8bf
00000240: 812d 80bf 0cc5 003d 17e8 b3bc 51be 86bf
00000250: 48c4 52bf 578f bdbf 5148 29bf 7a85 8bbe
00000260: 1d14 68be a589 973e 9f3a bb3e 451e a7be
00000270: 962c 4ebf 7562 5cbf d574 dcbe 5cb7 443d
00000280: 8647 303e 7792 563e 4b1b 963e b5c1 1b3e
00000290: 2344 e73c a554 51bc 8398 a53e f289 763e
000002a0: f9f9 e33d 4519 003e 8dac 9abe d106 0ebf
000002b0: 4074 3abf 07ac 22bf e9ca 8dbe dee5 b33e
000002c0: c466 f03d fb65 c4be 533b 243e 75d0 fe3d
000002d0: 1fe1 053e 1084 afbd e6e6 4dbe 4dd6 90be
000002e0: 1e94 92be 039e 843e 1a5a 113f 48ab 7a3e
000002f0: a890 85be 60d0 1fbf 0755 d7be 776b 113e
00000300: 1399 33be 90f6 22bf 1e1e 013e 95d9 fdbd
00000310: 6292 8dbe 2081 e6be 8ce8 e9be e8ef 713e
00000320: 98f3 d53d e86b f53c 0805 a3be 9cef 4a3c
00000330: 2e06 ae3d e774 fc3e 9881 423e 5acf cc3d
00000340: 6e4c cebd 491b 00bf 62cb 80bd a82e 723e
00000350: 8167 853e fed5 e83e 8e44 f8bc ca56 b1be
00000360: 38db 6ebe 0f0d 823c b920 b1bd b429 80be
00000370: 28e2 57be 28f1 f9be 48c1 14bf 79ca 37bf
00000380: e450 a6be eaba cd3d 6ca7 c03d 5848 cbbe
00000390: 3da5 a5bd 021a b6be da56 18be 52f3 c3bd
000003a0: 626c 6ebe 46d1 20be 384f cbbe 3b33 ed3d
000003b0: eee2 27be f815 aabe 4fc0 013f 1ffe 81be
000003c0: 398d 8e3c 8575 dcbe df30 37be e49d f03e
000003d0: e0d2 11bc 87cc d03e cb62 ac3e 4289 14bc
000003e0: 8be1 473e c21a d4be 58bc 3a3e 2026 b0be
000003f0: e356 06be b49d 113e efa3 1e3e 5192 e2bd

conv2.bias f4 [16]
0.05226279 -0.1969657 -0.21038444 0.05371516 -0.0926478 0.0043235933 -0.23748349 -0.15854524
-0.13451606 -0.3122213 -0.042352907 0.3462356 0.12267206 -0.1928982 -0.065750964 -0.10277856
00000000: 8211 563d 60b1 49be 056f 57be 6d04 5c3d
00000010: 21be bdbd eeac 8d3b df2e 73be af59 22be
00000020: 94be 09be 78db 9fbe 3e7a 2dbd cb45 b13e
00000030: 7d3b fb3d 1b87 45be 71a8 86bd 917d d2bd

fc1.weight f4 [120, 256]
-0.23396303 -0.46520784 -0.718664 0.018777872 -0.06896692 -0.5305722 -0.500902 -0.110500745
-0.42174852 0.009497805 -0.13863228 0.1672208 -0.21797936 0.007213124 -0.4192864 0.13319558
-0.24727584 -0.13688718 0.23697445 -0.017917644 -0.168831 0.0038796868 0.033024635 -0.093475655
-1.166026 -0.98777354 -0.07874859 0.51879346 -0.8488727 0.13982472 0.27582222 0.18572739
0.23318689 0.34147406 0.06411641 -0.6273718 0.6484322 0.72452956 0.685439 0.3592859
-0.3539895 -0.19621089 0.44058943 0.07334098 -0.030295385 0.049741082 0.028802726 0.09269893
-0.02180357 0.19044039 -0.0071815 -0.098328635 -0.5496205 -0.5760842 -0.2828338 0.43348268
-0.25968733 -0.5163017 -0.09677837 0.209245 0.90047526 0.4470924 -0.19408773 -0.062232904
0.38926205 -0.87297076 -0.21642992 0.015592958 -0.20685628 -0.08838965 -0.27739474 -0.17708862
-0.5515547 -0.5227478 -0.23086634 -0.09223255 0.70807916 0.60359883 0.32135504 0.3607994
-0.8752909 0.09477928 0.27816236 0.17183296 -0.19914372 0.1365701 0.1470714 0.147542
0.2863638 -0.3397399 0.14296226 -0.1293266 0.086723246 -0.33099258 -0.17593753 -0.3090736
0.14960583 -0.08005725 -0.25909588 -0.47873926 0.48421416 -0.51791936 0.27777743 0.3545932
-0.8013039 -0.0073567196 0.03512846 -0.2547617 0.17144231 0.1834761 -0.3278115 -0.2971863
-0.42212632 0.14283524 0.24213669 -0.7964811 -0.7895413 0.50996745 0.14534308 -0.080176376
-0.1693125 0.34635487 0.38924506 0.14653037 -0.23520811 0.04367347 -0.05276321 0.0024330236
-0.12461819 0.43237558 0.056924317 -0.34907433 -0.9245562 -0.340992 0.102155745 -0.30547214
-1.7460364 -0.49623442 0.15492876 0.20429736 -0.19795863 0.36714035 0.20505765 0.060823802
-0.077023394 -0.8922369 -0.014235907 0.27416098 -0.28909746 -0.12356848 -0.5012665 -0.79369843
-0.23350865 0.21850288 -0.28786355 -0.2648244 0.4511952 -0.23482871 -0.09003024 -0.16177565
-0.5866027 0.37106904 0.21347462 0.37786904 -0.25308728 -0.3380447 -0.48645842 -0.23766778
-0.031135062 -0.9577756 -0.32315475 -0.0069566416 -0.17497648 -0.15917654 -0.056156214 -0.106538825
-0.14904119 -0.21383841 0.4604997 0.5270332 0.1519018 0.647433 -0.3780454 -0.046433583
0.0026235415 0.43073106 -0.62310475 -0.1753355 0.0044837897 -0.14096512 0.5602675 0.22805397
-0.15894571 0.3584191 0.10421418 -0.022301635 -0.4698474 0.4350835 -0.27393475 -0.1814427
-0.13386925 0.18735053 0.0034194877 -0.13179512 0.060717467 0.36512333 0.33530775 -0.39485458
0.97557205 0.38287047 0.039965454 0.091875985 -0.5924764 -0.3123193 0.08921104 0.5871158
0.11277947 -0.5495348 -0.24878107 0.33807406 0.19888231 0.054882344 0.17607221 -0.08354744
-0.124579385 -0.22640203 -1.2252183 -0.5404779 0.7255881 0.96584886 -0.3821136 -0.26378107
0.16411746 0.62040013 0.49611604 0.21590695 -0.25921762 0.16023079 0.05350349 -0.11657917
0.2099722 0.26367196 -0.8212943 -0.9883455 0.35494247 0.27015114 0.3053471 -0.254848
0.2873512 0.42936224 -0.39278302 0.29311785 0.28456372 0.37124318 0.37973714 0.24159043
00000000: 0194 6fbe b92f eebe 5dfa 37bf 0dd4 993c
00000010: 873e 8dbd 94d3 07bf 1d3b 00bf 374e e2bd
00000020: 6cef d7be ae9c 1b3c 9ff5 0dbe ee3b 2b3e
00000030: fb35 5fbe 125c ec3b b5ac d6be 6c64 083e
00000040: e135 7dbe 272c 0cbe 6ea9 723e 06c8 92bc
00000050: 09e2 2cbe 5842 7e3b d744 073d 2a70 bfbd
00000060: 5740 95bf bade 7cbf f146 a1bd a6cf 043f
00000070: b94f 59bf 362e 0f3e 9238 8d3e 522f 3e3e
00000080: 8bc8 6e3e b0d5 ae3e 774f 833d 709b 20bf
00000090: a7ff 253f c57a 393f ee78 2f3f 52f4 b73e
000000a0: 1d3e b5be 82eb 48be f094 e13e cc33 963d
000000b0: 072e f8bc 4ebd 4b3d b2f3 eb3c f0d8 bd3d
000000c0: 679d b2bc ce02 433e ca52 ebbb 8660 c9bd
000000d0: eeb3 0cbf 417a 13bf 98cf 90be 71f1 dd3e
000000e0: bdf5 84be 592c 04bf bd33 c6bd 5244 563e
000000f0: 8c85 663f 4ce9 e43e efbe 46be eee7 7ebd
00000100: 5b4d c73e 037b 5fbf ce9f 5dbe 9b79 7f3c
00000110: 22d2 53be a205 b5bd af06 8ebe b856 35be
00000120: b032 0dbf cdd2 05bf 3a68 6cbe 6be4 bcbd
00000130: ad44 353f 7485 1a3f a688 a43e b3ba b83e
00000140: 1013 60bf a41b c23d 4c6b 8e3e fbf4 2f3e
00000150: 55ec 4bbe 08d9 0b3e e399 163e 4015 173e
00000160: 479e 923e 63f2 adbe b364 123e 316e 04be
00000170: f59b b13d dc77 a9be f828 34be e53e 9ebe
00000180: 4532 193e 0ef5 a3bd 37a8 84be 501d f5be
00000190: ebea f73e 5d96 04bf d838 8e3e 3d8d b53e
000001a0: 4122 4dbf a310 f1bb dce2 0f3d 2070 82be
000001b0: 938e 2f3e 29e1 3b3e e9d6 a7be cd28 98be
000001c0: f120 d8be 6743 123e aef2 773e 2fe6 4bbf
000001d0: 611f 4abf 3a8d 023f d1d4 143e 8333 a4bd
000001e0: 4260 2dbe 6d55 b13e 214b c73e 0f0c 163e
000001f0: 65da 70be f4e2 323d 3c1e 58bd 5d73 1f3b
00000200: d237 ffbd 5560 dd3e 7929 693d dfb9 b2be
00000210: b7af 6cbf 8196 aebe 0837 d13d d866 9cbe
00000220: 1f7e dfbf 7012 febe a5a5 1e3e 5433 513e
00000230: abb5 4abe d2f9 bb3e a2fa 513e 6122 793d
00000240: 71be 9dbd a369 64bf b93d 69bc d45e 8c3e
00000250: 9504 94be 7911 fdbd 0053 00bf d22f 4bbf
00000260: e41c 6fbe 38bf 5f3e da62 93be 1097 87be
00000270: 0f03 e73e f076 70be c661 b8bd 84a8 25be
00000280: 982b 16bf c3fc bd3e 1799 5a3e 0d78 c13e
00000290: a894 81be 3214 adbe 1411 f9be 2f5f 73be
000002a0: f50e ffbc c830 75bf 8a74 a5be 8af4 e3bb
000002b0: 092d 33be 2dff 22be 0f04 66bd 0731 dabd
000002c0: 419e 18be 75f8 5abe 9ec6 eb3e a6eb 063f
000002d0: 258c 1b3e 2bbe 253f 2b8f c1be 2431 3ebd
000002e0: b9ef 2b3b c888 dc3e cb83 1fbf 268b 33be
000002f0: c1ec 923b 2959 10be b16d 0f3f fb86 693e
00000300: aac2 22be b582 b73e 3e6e d53d ebb1 b6bc
00000310: d78f f0be 44c3 de3e 2d41 8cbe 1dcc 39be
00000320: 0515 09be d1d8 3f3e 7c19 603b 4df5 06be
00000330: e1b2 783d 72f1 ba3e 75ad ab3e 612a cabe
00000340: 17bf 793f 9907 c43e d1b2 233d 7a29 bc3d
00000350: 89ac 17bf 51e8 9fbe 47b4 b63d 394d 163f
00000360: ecf8 e63d 50ae 0cbf 77c0 7ebe 0b18 ad3e
00000370: cea7 4b3e 4fcc 603d 464c 343e ec1a abbd
00000380: 7a23 ffbd efd5 67be f4d3 9cbf c25c 0abf
00000390: 24c0 393f df41 773f 65a4 c3be 500e 87be
000003a0: 680e 283e 8bd2 1e3f ec02 fe3e b616 5d3e
000003b0: 2cb8 84be 8a13 243e 7a26 5b3d 0fc1 eebd
000003c0: f402 573e 0300 873e 5840 52bf 3604 7dbf
000003d0: 05bb b53e 4051 8a3e 7556 9c3e 707b 82be
000003e0: b21f 933e 5ed5 db3e db1a c9be 8b13 963e
000003f0: 56b2 913e 9613 be3e e86c c23e 7b63 773e

fc1.bias f4 [120]
-0.20061867 -0.16662674 -0.65803635 -0.13584374 0.00089237816 -0.043196965 -0.30531338 -0.38397488
0.1916236 -0.9053985 0.092348985 -0.32366565 -0.00969551 -0.6393076 -0.07424073 -0.087555446
-0.3523854 -0.052046847 -0.36849517 -0.20474091 -0.49189 -0.08145959 -0.15502128 0.018627977
-0.1482172 -0.087610036 0.017247725 -0.09656571 0.1423421 0.01589262 -0.33853298 0.07431326
-0.54517233 -0.22821568 0.040377174 -0.42100662 -0.22105215 -0.058560066 -0.06760345 -0.19175583
-0.1616412 -0.8469768 -0.058320202 -0.24996647 -0.008128077 -1.0334581 -0.26199582 -0.5759071
0.17822646 0.00010760763 0.2467832 0.3233676 -0.99998546 0.036803313 -0.21735504 -0.077423476
-0.38247544 -0.0101241935 0.10238449 -0.19827777 -0.4191969 -0.10339523 -0.34870377 -0.8359463
-0.21251556 0.05809497 -0.5687023 0.10615059 -0.022368688 -0.48907402 -0.03291425 -0.01754854
-0.21111837 -1.1992415 -0.089606844 -0.45872143 -0.34583077 -0.40993127 -0.7252149 0.03382982
-0.23901008 -0.6754222 -0.41035426 -0.15220189 -0.06276132 -0.1868864 -0.46689418 0.04358545
0.12418419 -0.5588014 -0.27626446 -0.20548171 0.064376555 -0.6208084 -0.63657844 0.1188938
0.060202338 -0.01864366 -0.32921767 -1.0447692 -0.04568939 -0.030413765 -0.44035718 -0.118779466
-0.102302246 -0.29703805 -0.6366985 -0.111830816 -0.52491087 -0.06392823 -0.39863512 -0.016741628
0.02392648 -0.012864202 -0.07057261 -0.25430906 0.12100176 0.006924787 -0.4263939 -0.020188427
00000000: fb6e 4dbe 33a0 2abe 1275 28bf 9f1a 0bbe
00000010: 7cee 693a 4def 30bd 0952 9cbe 5b98 c4be
00000020: fa38 443e 32c8 67bf 7721 bd3d 81b7 a5be
00000030: ebd9 1ebc aaa9 23bf 860b 98bd 4550 b3bd
00000040: dc6b b4be 132f 55bd 66ab bcbe 9aa7 51be
00000050: 02d9 fbbe 49d4 a6bd e6bd 1ebe b399 983c
00000060: 40c6 17be e46c b3bd 1a4b 8d3c 3ec4 c5bd
00000070: 21c2 113e 3d31 823c 3254 adbe 8d31 983d
00000080: 6a90 0bbf 5fb1 69be 8962 253d 2e8e d7be
00000090: 7f5b 62be aedc 6fbd ad73 8abd a45b 44be
000000a0: 4585 25be 79d3 58bf 2ae1 6ebd 36f7 7fbe
000000b0: a02b 05bc 5b48 84bf 5124 86be a66e 13bf
000000c0: ff80 363e 68ab e138 bcb4 7c3e 7090 a53e
000000d0: 0cff 7fbf 12bf 163d 5292 5ebe 3390 9ebd
000000e0: d2d3 c3be f2df 25bc f6ae d13d 5409 4bbe
000000f0: faa0 d6be e1c0 d3bd 4d89 b2be 9400 56bf
00000100: ae9d 59be fef4 6d3d 7996 11bf 7b65 d93d
00000110: 8a3e b7bc e967 fabe 18d1 06bd f5c1 8fbc
00000120: 6a2f 58be bf80 99bf cb83 b7bd 89dd eabe
00000130: bb10 b1be 83e2 d1be afa7 39bf 2391 0a3d
00000140: 0fbf 74be 78e8 2cbf f419 d2be d0da 1bbe
00000150: 0289 80bd 265f 3fbe c10c efbe a886 323d
00000160: 4854 fe3d 9c0d 0fbf 8972 8dbe cc69 52be
00000170: dbd7 833d 4ded 1ebf cef6 22bf 987e f33d
00000180: ba96 763d 97ba 98bc 388f a8be ffba 85bf
00000190: cc24 3bbd 4a26 f9bc 7f76 e1be a642 f3bd
000001a0: d783 d1bd 5f15 98be acfe 22bf 8e07 e5bd
000001b0: 8f60 06bf ceec 82bd e719 ccbe bd25 89bc
000001c0: 7701 c43c 60c4 52bc 5f88 90bd cc34 82be
000001d0: c5cf f73d 53e9 e23b 4d50 dabe 3362 a5bc

fc2.weight f4 [84, 120]
0.15838537 -0.46343935 -0.140707 -0.43491486 0.12080564 -0.3365975 0.41129974 0.012879812
0.17973939 0.33672294 0.18952844 0.12906165 -0.064394124 0.4511707 -0.038450483 0.0127334
0.46322358 -0.12043615 -0.46795186 -0.37042204 -0.48863304 0.024676558 0.044751402 -0.026950208
-0.80249643 0.05160202 -0.19482997 -0.054118924 -0.440963 0.023848407 0.38680544 -0.03384661
-0.26245132 -0.5236285 0.19100116 -0.22055441 -0.23242941 -0.011835105 -0.2129088 0.15647274
0.04888643 0.6495697 0.018127318 0.09384776 -0.1570144 -0.22371385 -0.3875366 0.20973334
0.15373562 -0.64290416 0.114161156 -0.843515 -0.5268458 -0.6421454 -0.21495508 0.051493745
-0.051173765 0.094367646 0.26776966 -0.3160949 0.4632293 0.05146979 -0.1424792 -0.19008136
0.6358864 0.23637527 0.06302821 -0.14754431 0.018980866 -0.6474165 0.07259714 -0.05755992
-0.33631873 0.26050216 0.26796076 0.4818797 -0.6162147 -0.4906485 -0.12541324 -0.11963585
-0.5702664 0.04782121 -0.2650724 0.17936827 0.32386237 -0.056600966 -0.015412434 0.46406853
-0.3433246 -0.13285893 -0.11625003 0.6303131 -0.22516607 0.06303542 -0.31601617 0.055042174
-0.04211009 -0.68274665 0.25907275 0.0035396034 0.30656567 -0.053068478 0.044645343 0.34403995
0.39932448 0.6671408 -0.029313827 -0.07053788 0.23886818 0.18561447 -0.28419065 0.017549105
0.07830324 -0.015409268 -0.49402687 0.21057051 -0.15326944 -0.045063995 -0.24403945 -0.21970962
-0.068918526 -0.5248247 -0.11130034 -0.32202572 -0.41029367 0.42088395 -0.15583333 0.4264624
0.42584184 0.19304647 -0.6802929 0.32276714 0.013939872 -0.023101058 0.025523791 -0.045175366
-0.23146623 0.188747 0.3322808 0.17618708 0.20779198 -0.043099854 0.35779595 0.0659665
0.30923083 -0.058887407 0.0986639 -0.030432347 0.10099243 -0.049043857 -0.28472364 0.038799733
0.29167426 0.042354118 -0.3874238 0.5350024 -0.7928627 -0.044365603 -0.31098163 -0.26442856
-0.43687427 0.028320018 0.041024078 0.13562773 -0.06141544 0.39891058 -0.6230146 0.12945746
0.2594387 -0.013619808 0.108673446 -0.074124366 -0.5249527 -0.09516576 -0.18713641 -0.0017121375
-0.43067408 0.2123299 -0.18023667 0.08057813 -0.68309456 -0.051877934 0.3070657 0.18547681
-0.28738847 -0.10156938 0.18473293 0.20581669 -0.14643979 0.027686208 0.069474384 0.01693707
0.05656671 -0.15204366 -0.0425163 0.37251937 0.5067939 -0.4822683 0.20857777 -0.603361
0.090317145 -0.1534797 0.1575345 0.3044646 0.12959191 -0.6082625 0.23553668 -0.2964951
-0.12813479 0.22582409 -0.22019257 0.29797316 -0.35103258 0.26682636 0.52022386 0.07557463
-0.024361553 0.09846027 -0.20577441 0.02046566 -0.03810813 0.065840706 0.021462234 -0.33038217
0.6150799 -0.7559085 0.21251993 0.062999696 0.0645013 -0.2174705 0.048028544 -0.25943318
-0.035881378 -0.050707746 0.059974704 0.374139 -0.4006821 0.007321946 0.24616428 0.3411749
0.53814924 0.004065545 -0.27427375 -0.18088372 0.111670636 -0.29014105 0.8092562 -0.4579548
-0.31856734 0.5772014 -0.80860376 0.3211717 -0.0568488 0.26732233 0.01958507 0.0009420467
00000000: c62f 223e ec47 edbe 7f15 10be 29ad debe
00000010: f368 f73d 8256 acbe e195 d23e d905 533c
00000020: 9a0d 383e f366 ac3e be13 423e bd28 043e
00000030: 11e1 83bd d9ff e63e 417e 1dbd c09f 503c
00000040: a42b ed3e 3aa7 f6bd 6397 efbe f5a7 bdbe
00000050: 1c2e fabe 7e26 ca3c 3f4d 373d afc6 dcbc
00000060: 6870 4dbf a45c 533d 8281 47be ceab 5dbd
00000070: e7c5 e1be bc5d c33c 5d0b c63e bea2 0abd
00000080: 0560 86be 840c 06bf cf95 433e 04d9 61be
00000090: fa01 6ebe 07e8 41bc c404 5abe 643a 203e
000000a0: 233d 483d 334a 263f be7f 943c 4133 c03d
000000b0: 62c8 20be 3e15 65be 326b c6be 56c4 563e
000000c0: df6c 1d3e 5e95 24bf 53cd e93d 99f0 57bf
000000d0: 5edf 06bf a463 24bf 2f1d 5cbe 1beb 523d
000000e0: 959b 51bd d343 c13d 1b19 893e 31d7 a1be
000000f0: 642c ed3e fdd1 523d 11e6 11be b0a4 42be
00000100: 73c9 223f 5c0c 723e ef14 813d db15 17be
00000110: c37d 9b3c 16bd 25bf cfad 943d f3c3 6bbd
00000120: f831 acbe 8a60 853e 2732 893e f0b8 f63e
00000130: 3fc0 1dbf 4836 fbbe 546c 00be a403 f5bd
00000140: fbfc 11bf 2ce0 433d 92b7 87be 51ac 373e
00000150: 4ad1 a53e 6ad6 67bd 6f84 7cbc 649a ed3e
00000160: 3ec8 afbe 2c0c 08be 7f14 eebd 335c 213f
00000170: ef91 66be b718 813d dfcc a1be e773 613d
00000180: a17b 2cbd 7cc8 2ebf 2fa5 843e b1f8 673b
00000190: 2df6 9c3e 555e 59bd 09de 363d 0126 b03e
000001a0: 4274 cc3e bdc9 2a3f 8d23 f0bc 2a76 90bd
000001b0: dc99 743e b811 3e3e 7081 91be 24c3 8f3c
000001c0: 735d a03d 2877 7cbc 17f1 fcbe cc9f 573e
000001d0: aaf2 1cbe 0695 38bd 7ae5 79be 8ffb 60be
000001e0: 2825 8dbd e95a 06bf 6ff1 e3bd 8ee0 a4be
000001f0: 0312 d2be 1a7e d73e c692 1fbe 4859 da3e
00000200: f107 da3e f9ad 453e ad27 2ebf bc41 a53e
00000210: 1064 643c 6e3e bdbc 4517 d13c ce09 39bd
00000220: 7c05 6dbe e546 413e b620 aa3e 636a 343e
00000230: 6cc7 543e 7989 30bd 0831 b73e 7219 873d
00000240: 8153 9e3e ec33 71bd 4c10 ca3d 424d f9bc
00000250: 1ed5 ce3d 36e2 48bd 4cc7 91be 78ec 1e3d
00000260: 5456 953e 837b 2d3d 6a5c c6be ebf5 083f
00000270: 0df9 4abf b5b8 35bd fc38 9fbe 2e63 87be
00000280: fcad dfbe 62ff e73c dd08 283d ffe1 0a3e
00000290: c28e 7bbd 023e cc3e e37d 1fbf 7f90 043e
000002a0: 26d5 843e 9d25 5fbc 2f90 de3d 84ce 97bd
000002b0: 4d63 06bf 44e6 c2bd b0a0 3fbe cd69 e0ba
000002c0: 5081 dcbe 026d 593e f68f 38be 2606 a53d
000002d0: 49df 2ebf f57d 54bd b737 9d3e a2ed 3d3e
000002e0: 9524 93be 9b03 d0bd a12a 3d3e 9cc1 523e
000002f0: 50f4 15be 30ce e23c 9648 8e3d 9cbf 8a3c
00000300: 7fb2 673d 55b1 1bbe 9225 2ebd dcba be3e
00000310: 3fbd 013f dfeb f6be 6995 553e de75 1abf
00000320: 32f8 b83d c829 1dbe b950 213e c9e2 9b3e
00000330: beb3 043e 17b7 1bbf 8730 713e 35ce 97be
00000340: c435 03be 6e3e 673e 297a 61be f08f 983e
00000350: 8bba b3be 779d 883e 642d 053f dfc6 9a3d
00000360: e191 c7bc 8aa5 c93d 87b6 52be 9aa7 a73c
00000370: 4517 1cbd 7ed7 863d 91d1 af3c da27 a9be
00000380: e075 1d3f 3883 41bf d39e 593e fc05 813d
00000390: 4219 843d 96b0 5ebe 94b9 443d 6dd4 84be
000003a0: 5af8 12bd edb2 4fbd 09a8 753d 268f bf3e
000003b0: 3426 cdbe efec ef3b 7d12 7c3e 7aae ae3e
000003c0: 26c4 093f 4338 853b 9c6d 8cbe 9539 39be
000003d0: 93b3 e43d 5e8d 94be 6a2b 4f3f 0d79 eabe
000003e0: 421b a3be 79c3 133f a800 4fbf 9e70 a43e
000003f0: 4ada 68bd 79de 883e de70 a03c aff3 763a

fc2.bias f4 [84]
-0.236974 -0.38034803 -0.7363978 0.03562553 -0.47566348 -0.5675825 -0.49233708 -0.105346195
-0.39837036 -0.12742595 -0.39274615 -0.6210793 -0.11941135 -0.26947668 -0.30406725 0.18468592
-0.3129541 -0.3991744 -0.6717344 -0.030710805 -0.3395885 -0.3255529 -0.7747297 -0.16439676
-0.36535874 -0.17471719 -0.12691987 -0.4449047 -0.13174626 -0.04716357 -0.40926433 -0.23109971
-0.34355462 -0.96983373 -0.7515429 0.022213979 -0.0715562 -0.08461641 -0.17904617 -0.45044377
-0.035547517 -0.6396574 -0.15443675 -0.60306585 -0.3112066 -0.35285577 -0.26264158 -0.3946204
0.18312487 0.013677604 -0.25252524 -0.52310044 -0.5613682 -0.33506122 -0.22377405 -0.46135244
-0.4526706 -0.45054078 -0.1405865 -0.5573843 -0.6518914 -0.25455022 -0.21869095 -0.33751634
-0.5834714 -0.65998834 -0.77783406 -0.34034425 -0.78935194 -0.6386322 -0.200114 -0.4462816
-0.81908476 -0.15458669 -0.28928244 -0.13098514 0.17158264 0.045377742 -0.14211825 0.120801315
-0.6100945 -0.3280678 0.08532121 -0.45905888
00000000: 50a9 72be fabc c2be 9184 3cbf 13ec 113d
00000010: 2a8a f3be 164d 11bf 9b13 fcbe bfbf d7bd
00000020: 33f7 cbbe f37b 02be 0616 c9be 0eff 1ebf
00000030: f08d f4bd d9f8 89be b4ae 9bbe 4e1e 3d3e
00000040: 853b a0be 9660 ccbe c9f6 2bbf 3a95 fbbc
00000050: 8bde adbe dfae a6be b054 46bf a057 28be
00000060: 4d10 bbbe 10e9 32be 48f7 01be 8dca e3be
00000070: 7ee8 06be 962e 41bd 188b d1be 67a5 6cbe
00000080: 64e6 afbe 0647 78bf 1e65 40bf 17fa b53c
00000090: 0f8c 92bd 5e4b adbd e157 37be 91a0 e6be
000000a0: 469a 11bd 96c0 23bf ab24 1ebe 8662 1abf
000000b0: 7956 9fbe 83a9 b4be f578 86be af0b cabe
000000c0: 1685 3b3e 0718 603c fd4a 81be e9e9 05bf
000000d0: d4b5 0fbf 258d abbe 0625 65be 6336 ecbe
000000e0: 71c4 e7be 48ad e6be e8f5 0fbe bdb0 0ebf
000000f0: 5be2 26bf 6854 82be 85f0 5fbe f1ce acbe
00000100: 625e 15bf fff4 28bf 2220 47bf 9a41 aebe
00000110: f812 4abf 667d 23bf afea 4cbe 067f e4be
00000120: 8aaf 51bf f94b 1ebe d41c 94be f820 06be
00000130: 5cb3 2f3e 03de 393d 7287 11be ae66 f73d
00000140: 272f 1cbf 81f8 a7be e3bc ae3d c409 ebbe

fc3.weight f4 [10, 84]
-0.6592398 -0.3666952 -0.803193 -0.78810835 -0.33758596 -0.7992197 -0.17521355 -0.63759154
-0.6817978 -0.1855275 -0.57567763 -1.0425267 -0.5869446 -1.1550714 -1.3796357 -0.80838144
-0.6546255 -0.31920737 -0.0121894395 0.013078196 0.10721869 -0.4055486 0.046980843 -1.1190858
-0.8130286 -0.17668734 -0.49220443 -0.19170062 -0.40964803 -0.95145357 0.10231884 -1.2472801
-0.5417234 -0.33779573 -0.0020539882 -0.16380246 -0.26999983 -0.8508125 -0.88248116 -0.37223732
-0.4318484 -0.73057824 0.061476383 0.09394902 -0.7862182 -1.0007836 -0.6561325 0.18610924
-1.124946 -0.2418728 -0.10403685 -0.8922982 -0.636739 0.052371603 -1.4407369 0.1709647
-0.9048007 -1.1182115 0.031960353 -0.3367927 -0.6687524 -0.04520299 -0.19503406 0.13866735
-1.044731 -1.1776068 0.038208716 -1.0846078 -0.8316152 -0.2672894 -0.2622131 -0.09951223
-0.26204833 0.20361008 0.073035575 0.19584899 -0.81036705 -0.21965916 -0.0129967695 -0.0735166
-0.77877426 0.09057254 -1.2381518 0.13939077 0.012508032 -0.7094001 0.0006590926 -0.048280444
-0.6279396 -0.2741795 0.0066263764 -0.85754275 -0.5063203 -0.8263997 0.033608034 -0.117963634
-1.1408802 -0.37715077 -0.4252593 -0.091963194 0.11976169 -0.17329197 -0.739756 0.060014054
-0.76388943 -0.52581817 -0.8099474 -0.0005304888 -0.100674145 -0.83023953 -0.38174012 -1.2354722
-1.1125343 -0.6411798 0.09459399 -0.80080354 -0.5167781 -0.49717814 -0.7104965 -1.1020678
-1.3381011 -0.6409339 -0.72002476 -0.9136432 -0.6775603 0.11429204 -0.7904324 -0.09111649
-0.5170834 -0.015349911 -0.07961101 -0.7564695 -1.1306973 -0.029426804 -1.2124456 -0.12594277
-0.54564285 -0.4862224 -1.040918 -0.88762933 -0.79482424 -0.002683196 -0.43650743 -1.1738837
-0.8386029 -0.77433467 -0.67079675 0.02373589 -0.18069239 -1.0142858 -1.1135197 0.029496053
0.20130214 -0.49862367 -1.5319407 -0.5106483 -0.30545455 -1.0465535 0.03098512 -0.07275372
-0.6725869 -1.8339779 0.034271512 -0.69530517 -0.71959466 -0.74491394 -0.805068 -0.46487153
-0.26790616 -0.6182392 -0.20798506 -0.21344584 -0.36313793 -0.13594082 0.018607141 -0.113019876
-0.29555684 -0.013057424 0.0726687 -0.83520216 -0.41813275 -1.5151144 -0.22524835 -0.027114442
-0.08304019 -0.69138557 -0.18248078 -1.0738362 -0.8449042 -0.3719559 -0.740457 -0.7939203
-0.23186159 -0.5713723 0.08364903 -0.5204902 0.44277993 -1.3829321 0.034737103 0.04915789
-0.7712898 -0.050004955 0.06581577 -0.012019515 -0.83803844 -0.37499425 -0.6321111 -0.95404273
-1.1929948 -0.51604795 0.12009917 -0.0589282 -0.4220843 -0.27507424 -1.0119249 0.05165615
-0.63598526 -0.9692866 -0.8684995 -0.17039955 -0.82999593 -0.3861946 -0.44126546 -0.85785425
-0.15291017 -0.60607594 -0.8601565 0.04967501 0.045117386 -0.40949604 -0.7997759 -0.7111108
-0.7532725 -0.31570745 0.0055743377 0.09225391 -0.87192297 -0.05150949 -0.2730185 -1.3805802
-0.23166914 -0.07000456 -1.5159243 -0.37361476 -0.36995602 0.1470111 0.033153158 -1.2095155
-1.5107312 -0.8540857 -1.0895207 -0.35310552 -0.104133494 -0.49942428 0.082642555 -0.13314874
00000000: f1c3 28bf 79bf bbbe 0e9e 4dbf 78c1 49bf
00000010: 11d8 acbe aa99 4cbf 2e6b 33be 3339 23bf
00000020: 4d8a 2ebf ecfa 3dbe 9c5f 13bf 8471 85bf
00000030: 0042 16bf 61d9 93bf e797 b0bf 16f2 4ebf
00000040: 8995 27bf 266f a3be 37b6 47bc ee45 563c
00000050: 7995 db3d 11a4 cfbe fc6e 403d 343e 8fbf
00000060: a422 50bf 87ed 34be 3802 fcbe 2b4d 44be
00000070: 63bd d1be 7692 73bf 8a8c d13d e0a6 9fbf
00000080: 62ae 0abf 90f3 acbe 349c 06bb d5bb 27be
00000090: 6b3d 8abe d9ce 59bf 49ea 61bf e495 bebe
000000a0: 3c1b ddbe 2d07 3bbf a9ce 7b3d 5868 c03d
000000b0: 9945 49bf ad19 80bf 4df8 27bf 6c93 3e3e
000000c0: 3bfe 8fbf 81ad 77be 4611 d5bd a86d 64bf
000000d0: 5401 23bf 9b83 563d 116a b8bf 5f11 2f3e
000000e0: 05a1 67bf 8e21 8fbf dce8 023d 1870 acbe
000000f0: 5b33 2bbf c526 39bd 02b7 47be d0fe 0d3e
00000100: bfb9 85bf d2bb 96bf be80 1c3d 6ed4 8abf
00000110: bce4 54bf 28da 88be cc40 86be 11cd cbbd
00000120: 332b 86be 297f 503e ad93 953d a38c 483e
00000130: 3774 4fbf 55ee 60be 67f0 54bc df8f 96bd
00000140: c05d 47bf 197e b93d c27b 9ebf 74bc 0e3e
00000150: 7dee 4c3c 3f9b 35bf f5c6 2c3a b7c1 45bd
00000160: a6c0 20bf 4161 8cbe 1322 d93b ec87 5bbf
00000170: 359e 01bf ee8e 53bf 94a8 093d eb96 f1bd
00000180: 5d08 92bf e819 c1be 96bb d9be 3357 bcbd
00000190: 9e45 f53d 7373 31be a660 3dbf 4cd1 753d
000001a0: 428e 43bf 059c 06bf b658 4fbf 8010 0bba
000001b0: 3f2e cebd 948a 54bf 7173 c3be f423 9ebf
000001c0: 8667 8ebf 5c24 24bf 7eba c13d 7601 4dbf
000001d0: 924b 04bf 228e febe 19e3 35bf 8f10 8dbf
000001e0: e646 abbf 3e14 24bf 8b53 38bf 85e4 69bf
000001f0: 9874 2dbf f211 ea3d c759 4abf 489b babd
00000200: 945f 04bf 317e 7bbc 190b a3bd fca7 41bf
00000210: b0ba 90bf 7b10 f1bc 6b31 9bbf 24f7 00be
00000220: 40af 0bbf 24f2 f8be cd3c 85bf ad3b 63bf
00000230: 9a79 4bbf 8fd8 2fbb e77d dfbe d241 96bf
00000240: aeae 56bf cc3a 46bf 56b9 2bbf c571 c23c
00000250: 6d07 39be 1ed4 81bf d087 8ebf b5a1 f13c
00000260: 2622 4e3e 9a4b ffbe a216 c4bf d9b9 02bf
00000270: 8a64 9cbe 77f5 85bf 82d4 fd3c e7ff 94bd
00000280: a82e 2cbf cabf eabf 4960 0c3d 85ff 31bf
00000290: 5b37 38bf aeb2 3ebf f018 4ebf a403 eebe
000002a0: ff2a 89be ed44 1ebf 09fa 54be 8c91 5abe
000002b0: 37ed b9be 1234 0bbe 016e 983c f776 e7bd
000002c0: 3a53 97be ceee 55bc 54d3 943d cfcf 55bf
000002d0: 7f15 d6be 45ef c1bf 81a7 66be 1b1f debc
000002e0: fa10 aabd a5fe 30bf 3edc 3abe 7773 89bf
000002f0: a44b 58bf 0171 bebe 978e 3dbf 5c3e 4bbf
00000300: 206d 6dbe 7445 12bf 2f50 ab3d d93e 05bf
00000310: 0db4 e23e eb03 b1bf 7e48 0e3d c959 493d
00000320: 4073 45bf ffd1 4cbd 6bca 863d 80ed 44bc
00000330: b089 56bf 3fff bfbe 08d2 21bf 253c 74bf
00000340: 0eb4 98bf b81b 04bf 8ef6 f53d b25e 71bd
00000350: 6f1b d8be 88d6 8cbe c186 81bf 6695 533d
00000360: eecf 22bf 2b23 78bf fc55 5ebf 387d 2ebe
00000370: 9d7a 54bf 4cbb c5be 8ced e1be 569c 5bbf
00000380: 7c94 1cbe cb27 1bbf 3733 5cbf 0678 4b3d
00000390: 02cd 383d 77a9 d1be 1dbe 4cbf 5b0b 36bf
000003a0: 77d6 40bf 68a4 a1be efa8 b63b 9eef bc3d
000003b0: 5836 5fbf 9dfb 52bd 15c9 8bbe dab6 b0bf
000003c0: ad3a 6dbe 8d5e 8fbd cf09 c2bf 6f4a bfbe
000003d0: e06a bdbe 148a 163e 9bcb 073d 67d1 9abf
000003e0: a45f c1bf 5ca5 5abf 6a75 8bbf 3fca b4be
000003f0: f143 d5bd 8ab4 ffbe 8040 a93d 2558 08be

fc3.bias f4 [10]
-0.4493322 -0.08057736 -0.07486733 0.0329511 -0.0056227003 -0.31654108 -0.13007528 -0.26769158
0.31975737 0.18660054
00000000: df0e e6be be05 a5bd 0b54 99bd bcf7 063d
00000010: a13e b8bb ac11 a2be 7432 05be df0e 89be
00000020: 3db7 a33e 3614 3f3e
