mnist/saved_models/model_epoch_12.pth (torch, 181338 bytes, 10 tensors)

conv1.weight f4 [6, 1, 5, 5]
-0.19006647 0.07457949 0.026460836 0.38342336 0.14377755 0.33883613 0.47119722 0.29832458
0.17830619 0.30402818 0.27272996 0.17994557 -0.11261849 -0.13573119 -0.06973557 -0.09195697
-0.28919423 -0.30029345 -0.3374946 -0.22571015 -0.16184855 -0.10454458 -0.061562456 0.23211193
-0.08549582 -0.36454397 0.097696476 0.3611452 -0.1358174 -0.16234596 -0.34207922 0.031945974
0.40999186 0.05432528 0.056152686 -0.21982387 -0.17593333 0.32771266 0.2353673 -0.03586308
-0.05565117 -0.41127 -0.11205653 -0.21355318 -0.07805239 0.24179071 -0.032676466 0.14802168
0.0714371 0.099079736 -0.013174005 -0.08309956 -0.12846518 -0.08143074 -0.39987823 -0.05202636
0.021695541 0.2810306 0.46393895 0.0109223435 0.25696597 0.18536656 0.43679386 0.5596107
-0.086310424 -0.12924612 -0.40526205 -0.0840685 0.33129796 0.113292165 -0.0065666256 -0.29261622
-0.5372733 -0.075936265 0.24971132 -0.008628183 0.0899787 -0.099971876 0.009583112 0.07746573
0.06359376 0.014153398 -0.15753672 0.15478288 0.2680658 0.05495826 -0.09512747 -0.311249
-0.11122786 0.28300643 -0.08368784 -0.13021934 -0.21119414 0.39888865 0.46442357 -0.17107663
-0.02742049 0.09290446 0.095015295 0.14350714 0.0710714 0.06145599 0.34573224 0.014392769
0.3281073 0.07323374 -0.15073353 -0.100118265 -0.035794336 0.11404506 -0.10626298 -0.3399482
-0.2716465 -0.397674 -0.11899515 0.18534932 -0.17786235 -0.3944836 -0.2687965 -0.017492516
0.25387722 0.39277866 0.27836958 0.35869446 0.19924101 0.009808143 0.16952173 0.02246452
0.062521316 0.10535878 -0.22200908 0.20589043 0.19627027 -0.05180655 -0.11201015 0.02720999
0.49237543 0.0035650707 -0.27699816 0.06129349 0.2495962 0.3219297 -0.39358 0.07129765
-0.015344548 0.21118832 -0.08493052 -0.113163695 -0.040862095 -0.12499495
00000000: c9a0 42be 22bd 983d 65c4 d83c 1150 c43e
00000010: 6c3a 133e ee7b ad3e c340 f13e 00be 983e
00000020: e695 363e 95a9 9b3e 43a3 8b3e a743 383e
00000030: 86a4 e6bd 1efd 0abe 86d1 8ebd f053 bcbd
00000040: 4411 94be 10c0 99be 18cc acbe 9020 67be
00000050: a0bb 25be 781b d6bd ea28 7cbd c0ae 6d3e
00000060: 6f18 afbd 82a5 babe 1715 c83d 06e8 b83e
00000070: b713 0bbe 053e 26be 0225 afbe c8d9 023d
00000080: 74ea d13e 2f84 5e3d 5c00 663d 8219 61be
00000090: de27 34be f4c9 a73e 2004 713e 2ae5 12bd
000000a0: 7bf2 63bd fb91 d2be e57d e5bd afad 5abe
000000b0: eed9 9fbd fc97 773e c2d7 05bd ff92 173e
000000c0: 9d4d 923d 51ea ca3d c8d7 57bc 1a30 aabd
000000d0: 608c 03be 29c5 a6bd d7bc ccbe 9819 55bd
000000e0: d9ba b13c 3ee3 8f3e 6889 ed3e a1f3 323c
000000f0: 0b91 833e bbd0 3d3e 72a3 df3e a642 0f3f
00000100: 85c3 b0bd 1859 04be 827e cfbe 1b2c acbd
00000110: e39f a93e b905 e83d d92c d7bb cbd1 95be
00000120: be8a 09bf 7984 9bbd 53b4 7f3e 395d 0dbc
00000130: c146 b83d 0ebe ccbd 7c02 1d3c 5aa6 9e3d
00000140: 723d 823d a7e3 673c 4e51 21be 677f 1e3e
00000150: ec3f 893e ea1b 613d 31d2 c2bd 075c 9fbe
00000160: 6fcb e3bd 38e6 903e 8864 abbd 3858 05be
00000170: 4743 58be 223b cc3e edc8 ed3e b62e 2fbe
00000180: efa0 e0bc b244 be3d 6197 c23d 89f3 123e
00000190: e28d 913d 47b9 7b3d d103 b13e a6cf 6b3c
000001a0: aefd a73e 92fb 953d e459 1abe ce0a cdbd
000001b0: 159d 12bd 7590 e93d 68a0 d9bd b10d aebe
000001c0: 4015 8bbe ed9b cbbe bbb3 f3bd 36cc 3d3e
000001d0: 8c21 36be c1f9 c9be b29f 89be 774c 8fbc
000001e0: 32fc 813e 491a c93e 7586 8e3e cda6 b73e
000001f0: d605 4c3e 55b2 203c 1b97 2d3e 8307 b83c
00000200: 2d0b 803d 58c6 d73d 5956 63be f1d4 523e
00000210: 13fb 483e 1b33 54bd 9465 e5bd 7ce7 de3c
00000220: a218 fc3e f6a3 693b b4d2 8dbe e20e 7b3d
00000230: 2596 7f3e f8d3 a43e 5183 c9be 8104 923d
00000240: b367 7bbc c041 583e 0df0 adbd 5ec2 e7bd
00000250: 035f 27bd 5afd ffbd

conv1.bias f4 [6]
-0.053635944 -0.8718024 -0.28191867 -0.3859714 -0.44671315 -0.37221837
00000000: 5db1 5bbd 712e 5fbf a557 90be 0b9e c5be
00000010: 96b7 e4be 6893 bebe

conv2.weight f4 [16, 6, 5, 5]
0.0602904 -0.080730684 0.18237832 0.27755958 0.048210904 0.18000625 0.040194206 0.25772592
0.13864605 0.22241206 -0.043905452 0.087950386 0.063713096 -0.13495253 0.06290372 -0.60016835
-0.46560225 -0.2919022 -0.2733805 -0.037632212 -0.7525458 -0.6484318 -0.8286551 -1.3286548
-1.3632787 0.08710845 -0.24153094 -0.71964675 -0.10905046 -0.16371953 0.123345464 -0.108928755
-0.39293358 -0.11758013 -0.0020418852 0.18664956 0.18067405 -0.2000153 0.15083961 -0.013702167
0.2529729 0.2522806 -0.16241582 0.161145 0.006625161 0.0312355 0.21493803 -0.163214
0.010549098 -0.40842578 0.4356884 0.21326514 -0.010550802 -0.1455558 0.09076732 -0.098545946
0.24331087 0.10044444 0.03125497 0.18957251 0.021561122 0.2308573 -0.40877283 -0.004053503
-0.034701798 -0.33866003 -0.3975346 -0.745711 -0.3970503 -0.95454305 0.09891342 -0.07918323
-0.27224907 -0.47144532 -0.45519924 0.18947825 0.36533758 -0.2406112 -0.12552272 -0.20645803
0.46497416 0.0675702 -0.20525937 0.039732024 0.03148592 0.0700082 -0.29667604 -0.31913945
-0.19521314 -0.6413541 -0.21411166 -0.6767969 -1.0343621 -0.8102479 -0.8395223 -0.004118458
0.029009806 -0.2907184 -0.5277412 -0.8410918 0.05232832 -0.11689374 -0.040399816 -0.047189336
0.029110977 0.15622672 0.066136956 -0.27074954 -0.3417451 0.029655285 -0.03198322 -0.036897596
-0.3146523 -0.24693811 -0.1266664 0.32358515 0.19386657 0.0546602 -0.22651252 0.050655562
0.23561908 0.41394335 0.29828602 0.25272197 0.14940692 -0.17380266 -0.3389307 0.16928788
0.04163768 -0.0022799638 -0.026938185 -0.06954838 0.08114128 -0.009286171 -0.31490925 0.053212844
-0.01632851 -0.21435107 -0.4097715 -0.21674132 -0.0265455 -0.21837927 -0.66743463 -1.2693961
-0.4164297 -0.048004802 -0.09339201 -0.5582426 -0.59211725 -1.2566254 -0.5402088 -0.4278757
0.006943322 0.29531762 0.27421966 -0.37863532 -0.56855094 -0.7643955 -0.2598431 -0.06573059
0.08672335 0.12558782 0.17173931 0.16835459 0.119112976 0.036374588 0.22291698 0.17119761
0.13487536 0.13961174 -0.25036013 -0.42202783 -0.53584427 -0.6869778 -0.40305653 0.24113105
0.2968832 -0.30871552 0.2517456 -0.08401339 -0.08661149 0.08156298 -0.07547506 -0.068655044
-0.301001 0.0801118 0.45593324 0.17023548 -0.4111506 -0.5243743 -0.1295837 0.19611603
-0.07221545 -0.3354023 0.08904866 -0.1109952 -0.38729298 -0.43683642 -0.33688173 0.14980546
-0.06594648 0.014531853 -0.32688984 0.018269422 -0.0102024665 0.33572167 0.2648931 0.10122229
-0.10918389 -0.22548391 -0.005069452 0.31912944 0.2406156 0.41803727 0.055576734 -0.22213012
-0.15803856 -0.019786108 0.0030330005 -0.10678742 -0.34685147 -0.5068601 -0.45400646 -0.6095875
-0.27039343 0.327074 0.036505453 -0.2233756 -0.18864372 -0.31356716 -0.00031522886 -0.08315939
-0.33832145 -0.16364074 -0.14648739 0.0044905413 -0.2562253 -0.2984689 0.2759142 -0.22053163
0.013473633 -0.32813317 -0.16375153 0.2366292 -0.107171714 0.24346064 0.14506224 0.09257473
-0.0012926874 -0.3299513 -0.003460223 -0.35756364 -0.041202728 0.026824288 0.12757333 0.050095115
00000000: 11f3 763d 2156 a5bd 62c1 3a3e 4a1c 8e3e
00000010: cc78 453d 8f53 383e aea2 243d a7f4 833e
00000020: 3bf9 0d3e fdbf 633e 34d6 33bd 551f b43d
00000030: 037c 823d ff30 0abe aad3 803d a2a4 19bf
00000040: 6b63 eebe 3574 95be 87f8 8bbe 3c24 1abd
00000050: d7a6 40bf a0ff 25bf be22 54bf 5c11 aabf
00000060: eb7f aebf ea65 b23d e353 77be c53a 38bf
00000070: d955 dfbd 18a6 27be 8c9c fc3d 0a16 dfbd
00000080: 972e c9be dacd f0bd 26d1 05bb 1021 3f3e
00000090: 9e02 393e d0d0 4cbe b375 1a3e 0e7f 60bc
000000a0: aa85 813e ec2a 813e 5550 26be 3203 253e
000000b0: e117 d93b 97e1 ff3c b718 5c3e 9221 27be
000000c0: 20d6 2c3c 2f1d d1be 8d12 df3e 2d62 5a3e
000000d0: 45dd 2cbc 940c 15be 37e4 b93d 75d2 c9bd
000000e0: 7c26 793e d1b5 cd3d 3605 003d 4c1f 423e
000000f0: f3a0 b03c db65 6c3e ac4a d1be 3fd3 84bb
00000100: 7923 0ebd d964 adbe a889 cbbe ebe6 3ebf
00000110: 2d4a cbbe ef5c 74bf 1f93 ca3d d12a a2bd
00000120: 3b64 8bbe 4861 f1be e00f e9be 9606 423e
00000130: 870d bb3e c862 76be 0789 00be bc69 53be
00000140: 1811 ee3e 3f62 8a3d 832f 52be 0cbe 223d
00000150: 61f7 003d 7660 8f3d ece5 97be 3f66 a3be
00000160: f4e5 47be c82f 24bf 1640 5bbe 9042 2dbf
00000170: fa65 84bf 686c 4fbf efea 56bf 21f4 86bb
00000180: f9a5 ed3c 0bd9 94be 0c1a 07bf cb51 57bf
00000190: 3856 563d fc65 efbd 477a 25bd 9b49 41bd
000001a0: 257a ee3c e6f9 1f3e d072 873d af9f 8abe
000001b0: 37f9 aebe a4ef f23c d600 03bd ef21 17bd
000001c0: 1b1a a1be 58dd 7cbe d6b4 01be f4ac a53e
000001d0: f584 463e 60e3 5f3d e6f2 67be 357c 4f3d
000001e0: 2146 713e 62f0 d33e f2b8 983e c664 813e
000001f0: 21fe 183e 53f9 31be 5388 adbe cd59 2d3e
00000200: 468c 2a3d 726b 15bb 78ad dcbc 626f 8ebd
00000210: 662d a63d 0625 18bc c93b a1be b6f5 593d
00000220: 5ec3 85bc d97e 5bbe 92cd d1be 70f1 5dbe
00000230: f375 d9bc d19e 5fbe ffdc 2abf 927b a2bf
00000240: 4636 d5be afa0 44bd 4f44 bfbd fde8 0ebf
00000250: ff94 17bf 1ad9 a0bf 204b 0abf 8612 dbbe
00000260: ce84 e33b df33 973e 8566 8c3e 7ddc c1be
00000270: 8e8c 11bf 6caf 43bf 280a 85be c29d 86bd
00000280: 039c b13d 189a 003e 6edc 2f3e 2565 2c3e
00000290: 81f1 f33d 85fd 143d 5944 643e 6d4e 2f3e
000002a0: c41c 0a3e 61f6 0e3e 342f 80be 0814 d8be
000002b0: 172d 09bf c7dd 2fbf 6d5d cebe 0feb 763e
000002c0: 1301 983e f60f 9ebe cde4 803e 360f acbd
000002d0: 5d61 b1bd 7e0a a73d ab92 9abd 049b 8cbd
000002e0: ce1c 9abe a811 a43d 1570 e93e 3652 2e3e
000002f0: 5582 d2be 653d 06bf 97b1 04be a4d2 483e
00000300: b2e5 93bd dab9 abbe 255f b63d 7451 e3bd
00000310: 444b c6be 06a9 dfbe c37b acbe 9a66 193e
00000320: f30e 87bd 0217 6e3c 1b5e a7be c1a9 953c
00000330: 3f28 27bc b6e3 ab3e 12a0 873e a24d cf3d
00000340: ce9b dfbd 41e5 66be a51d a6bb ef64 a33e
00000350: f063 763e fb08 d63e 6ea4 633d 1476 63be
00000360: dcd4 21be 7a16 a2bc 4ec5 463b 5db3 dabd
00000370: 8496 b1be 95c1 01bf 8973 e8be ed0d 1cbf
00000380: 0271 8abe 3e76 a73e be86 153d 93bc 64be
00000390: d22b 41be e08b a0be 4d45 a5b9 784f aabd
000003a0: 7838 adbe 7091 27be ca00 16be 6425 933b
000003b0: f62f 83be ead0 98be a044 8d3e 0bd3 61be
000003c0: 83c0 5c3c 1201 a8be 7bae 27be ed4e 723e
000003d0: d87c dbbd bf4d 793e 328b 143e d297 bd3d
000003e0: 646f a9ba 60ef a8be e9c4 62bb 9512 b7be
000003f0: 31c4 28bd 9cbe db3c 95a2 023e 8930 4d3d

conv2.bias f4 [16]
0.041695308 -0.06608785 -0.033009913 0.16084714 0.027582888 0.035447877 -0.15965763 -0.2150984
-0.06756865 -0.20693365 -0.074129835 0.29085496 0.0766403 -0.14970818 -0.026137402 -0.08159681
00000000: b3c8 2a3d 1159 87bd 6735 07bd 1db5 243e
00000010: 82f5 e13c cb31 113d 4a7d 23be c142 5cbe
00000020: 6f61 8abd 6ae6 53be 62d1 97bd f1ea 943e
00000030: 97f5 9c3d 1a4d 19be 1b1e d6bc 3a1c a7bd

fc1.weight f4 [120, 256]
-0.017081045 -0.26175633 -0.40163112 0.041195985 -0.028032115 -0.18567868 -0.12695737 -0.07123037
-0.1632899 0.040916905 0.0032055941 0.23235862 -0.21584772 0.0458664 -0.3428494 0.11001328
-0.15456656 -0.070680104 0.1025415 -0.075748175 -0.3436522 -0.1799081 -0.10364979 -0.049463645
-0.7302405 -0.57117206 -0.0038968306 0.39576742 -0.73366946 0.0656675 0.07478912 -0.109108604
0.26383075 0.18101765 0.13090873 -0.4456346 0.4308186 0.46319395 0.27280793 0.26799437
-0.40006745 -0.2246288 0.27493596 0.109939195 0.113297515 -0.07660195 0.098913044 0.109428264
-0.24988125 -0.21175843 0.21536556 -0.016937131 -0.09754873 -0.3698954 -0.0871721 0.29284784
-0.270897 -0.4140778 0.09438803 0.18856072 0.686987 0.33270186 -0.056816135 -0.1102217
0.08419039 -0.75861806 -0.101670206 -0.18503858 -0.05307387 -0.19869244 -0.17637336 -0.04983124
-0.2607129 -0.23503864 -0.4202729 -0.05517074 0.4201573 0.36093915 0.18610477 0.22967118
-0.4159605 -0.051499903 0.35757768 0.27018884 -0.18944135 -0.06614058 0.08462286 -0.17920753
0.17548835 -0.33392778 0.30418974 -0.15881576 0.2835825 0.0042211777 0.0064393114 -0.26914182
0.15760495 0.04238058 -0.16479106 -0.28264388 -0.007867019 -0.33654872 0.25081727 0.21382211
-0.7349411 -0.22926871 0.0897964 -0.27985096 0.104036 0.007978829 -0.17718095 -0.10352018
-0.5685285 0.094429374 0.14242794 -0.26716208 -0.2682398 0.61589426 -0.017949885 -0.29404998
0.03793898 0.3130163 0.27793464 -0.03965087 -0.17654301 0.033301882 -0.031386998 0.09674487
-0.13166197 0.42479816 0.14398097 -0.023699187 -0.47912884 -0.20065239 0.12488187 -0.2015136
-1.178767 -0.40774474 0.10918687 0.14702421 -0.24169067 0.43126255 0.076212615 0.09439218
-0.23160604 -0.7407932 -0.056885283 0.18681122 -0.20095272 0.004757477 -0.34389788 -0.52976054
-0.24259421 0.20906639 -0.085863516 -0.25185522 0.4153971 0.0025960873 -0.01923261 -0.16633636
-0.5358278 0.24226491 0.20349824 0.25680736 0.16023454 -0.26284003 -0.24342753 -0.3206425
0.2637412 -0.52365786 -0.22708672 -0.12335073 0.00644188 0.047000557 -0.090595484 -0.3271541
-0.15273455 -0.2377647 0.40241256 0.4343373 0.26851133 0.28223342 0.004890931 -0.009080697
0.13013266 0.10573656 -0.21639258 -0.31734133 0.057083417 -0.13260151 0.3579418 0.25757787
0.03395702 0.19495015 -0.025343865 -0.042236447 -0.39580685 0.25060138 -0.0608999 0.093463145
-0.3507905 0.15871237 0.21155114 -0.16420373 0.10429351 0.21412499 0.15315443 -0.26159307
0.43691093 0.33324957 0.050592426 -0.110698976 -0.404776 0.124012135 0.10110562 0.49939236
-0.015949856 -0.194746 -0.1019858 0.19068398 0.2935013 0.091527626 0.16070688 -0.07046042
-0.10224314 -0.308542 -0.7830791 -0.21576239 0.56200546 0.65325916 -0.17451914 -0.06616618
0.06891807 0.41326433 0.32882285 0.38837767 -0.10787626 0.03202403 -0.15232116 0.06957552
0.3221848 0.19969413 -0.4898818 -0.7118981 0.14949124 0.10652942 0.23414822 -0.08630546
0.20261508 -3.1945376e-05 -0.08305223 0.4462314 0.13944767 0.1946914 0.2090129 -0.018687418
00000000: 8ced 8bbc ed04 86be 98a2 cdbe 1fbd 283d
00000010: 9ba3 e5bc 8d22 3ebe 1d01 02be 3ae1 91bd
00000020: 7835 27be 7c98 273d f214 523b 6bef 6d3e
00000030: 2f07 5dbe 68de 3b3d f589 afbe a44e e13d
00000040: b246 1ebe bbc0 90bd 4701 d23d dc21 9bbd
00000050: 2ef3 afbe d439 38be 5746 d4bd 649a 4abd
00000060: 0bf1 3abf 5538 12bf f861 7fbb 07a2 ca3e
00000070: c3d1 3bbf af7c 863d 0a2b 993d 5574 dfbd
00000080: d314 873e b15c 393e f00c 063e 382a e4be
00000090: 4194 dc3e c227 ed3e 7bad 8b3e 8f36 893e
000000a0: a4d5 ccbe 1805 66be 68c4 8c3e cd27 e13d
000000b0: 8708 e83d 7ce1 9cbd ec92 ca3d ed1b e03d
000000c0: dfe0 7fbe 34d7 58be ca88 5c3e bdbf 8abc
000000d0: a1c7 c7bd ee62 bdbe 4987 b2bd 27f0 953e
000000e0: 03b3 8abe 0102 d4be 834e c13d 1016 413e
000000f0: 61de 2f3f e657 aa3e 09b8 68bd eabb e1bd
00000100: 036c ac3d cb34 42bf 7838 d0bd c17a 3dbe
00000110: fc63 59bd 0876 4bbe 389b 34be d81b 4cbd
00000120: 297c 85be f8ad 70be 022e d7be b7fa 61bd
00000130: dc1e d73e 04cd b83e 4092 3e3e ec2e 6b3e
00000140: c6f8 d4be 90f1 52bd 6c14 b73e 3156 8a3e
00000150: eafc 41be b674 87bd c04e ad3d 2e82 37be
00000160: 38b3 333e 95f8 aabe c2be 9b3e 99a0 22be
00000170: ba31 913e ce51 8a3b dc00 d33b f5cc 89be
00000180: 3163 213e 4297 2d3d fdbe 28be b3b6 90be
00000190: abe4 00bc 1d50 acbe 1f6b 803e 2ff4 5a3e
000001a0: 1a25 3cbf 6bc5 6abe 2de7 b73d a048 8fbe
000001b0: d410 d53d a2b9 023c ec6e 35be 6302 d4bd
000001c0: 158b 11bf 3064 c13d a1d8 113e 78c9 88be
000001d0: ba56 89be 3fab 1d3f a30b 93bc b88d 96be
000001e0: e765 1b3d ac43 a03e 734d 8e3e f368 22bd
000001f0: b1c7 34be 8e67 083d a78f 00bd 2d22 c63d
00000200: 65d2 06be 257f d93e bf6f 133e cc24 c2bc
00000210: 6050 f5be d277 4dbe 11c2 ff3d 9559 4ebe
00000220: d6e1 96bf ebc3 d0be 5e9d df3d 848d 163e
00000230: c27d 77be 72ce dc3e 5c15 9c3d b050 c13d
00000240: 222a 6dbe a0a4 3dbf 8b00 69bd 714b 3f3e
00000250: 8dc6 4dbe 9ce4 9b3b 6213 b0be 639e 07bf
00000260: 9e6a 78be 8015 563e 36d9 afbd 2bf3 80be
00000270: eeae d43e 1e23 2a3b b58d 9dbc 1454 2abe
00000280: 032c 09bf 4b14 783e d861 503e 417c 833e
00000290: 8614 243e f892 86be 1145 79be 412b a4be
000002a0: 1609 873e 710e 06bf 6c89 68be 4f9f fcbd
000002b0: 6816 d33b a883 403d 208a b9bd be80 a7be
000002c0: 7266 1cbe 9778 73be 0509 ce3e 7561 de3e
000002d0: 517a 893e e680 903e 1a44 a03b 34c7 14bc
000002e0: 7f41 053e 698c d83d 0496 5dbe 907a a2be
000002f0: 4dd0 693d b1c8 07be 2644 b73e 3fe1 833e
00000300: 8416 0b3d 03a1 473e f09d cfbc 2000 2dbd
00000310: 32a7 cabe d34e 803e 2c72 79bd 9b69 bf3d
00000320: d09a b3be 7f85 223e dda0 583e 0625 28be
00000330: d697 d53d 9543 5b3e 84d4 1c3e 87ef 85be
00000340: cab2 df3e b09f aa3e 013a 4f3d 25b6 e2bd
00000350: cd3e cfbe 13fa fd3d 7710 cf3d 5bb0 ff3e
00000360: 46a9 82bc 7f6b 47be eedd d0bd a942 433e
00000370: cd45 963e d672 bb3d 5890 243e 8d4d 90bd
00000380: da64 d1bd 38f9 9dbe df77 48bf d1f0 5cbe
00000390: 97df 0f3f fe3b 273f 25b5 32be 2282 87bd
000003a0: eb24 8d3d 6297 d33e 785b a83e 70d9 c63e
000003b0: 3bee dcbd a12b 033d 14fa 1bbe 9c7d 8e3d
000003c0: 68f5 a43e 9e7c 4c3e cad1 fabe f43e 36bf
000003d0: 3b14 193e 192c da3d 8dc4 6f3e ebc0 b0bd
000003e0: 547a 4f3e 16fd 05b8 4a17 aabd 7178 e43e
000003f0: 5fcb 0e3e 2f5d 473e 7a07 563e 5b16 99bc

fc1.bias f4 [120]
-0.05654858 -0.09133284 -0.46658236 -0.0043767653 0.028649896 0.056322623 -0.13256213 -0.1750659
0.25728375 -0.604059 -0.00034887448 -0.19776434 -0.00969551 -0.19723377 -0.07424073 -0.087555446
-0.15264118 0.0016237904 -0.20529631 -0.042887922 -0.30583623 -0.08145959 -0.12008467 0.018627977
0.069215745 -0.087610036 0.012982585 -0.09656571 0.036108673 0.01589262 -0.1210694 0.0072061536
-0.11916582 -0.065080024 -0.02706462 -0.18995012 -0.09612936 -0.058560066 -0.075283736 -0.23902614
-0.085854076 -0.43505737 -0.058320202 -0.15741222 0.1692096 -0.6248244 -0.19414131 -0.3514203
0.14380175 -0.030919842 -0.015973534 0.24580315 -0.66278464 0.17082803 -0.20982172 -0.077423185
-0.29676938 0.05050935 0.19890364 -0.11407262 -0.33422577 -0.10339523 -0.14819938 -0.55106586
-0.1577474 0.056622837 -0.32214114 0.001829119 0.011810851 -0.3563355 -0.019827658 -0.01754854
-0.079027444 -0.6642316 -0.21256064 -0.22316149 -0.19836454 -0.31598186 -0.20367935 0.13085563
-0.14959948 -0.3753341 -0.21107434 -0.092724904 0.04350341 -0.039302025 -0.10441328 -0.0861341
0.05754646 -0.24380672 -0.23188634 -0.2271126 0.028519407 -0.337646 -0.30032316 0.0216745
0.025885677 -0.08688426 -0.11775982 -0.49369273 0.11628476 0.16349019 -0.17867903 -0.116205685
-0.08694834 -0.124095015 -0.09739684 -0.111830816 -0.46431452 0.022226764 -0.21253562 -0.0641001
0.023956902 -0.012864202 -0.0993392 -0.2024943 0.18214212 0.03790659 -0.27791372 0.0019083496
00000000: 7c9f 67bd b60c bbbd e2e3 eebe f86a 8fbb
00000010: 30b3 ea3c 8db2 663d 5ebe 07be 7a44 33be
00000020: b2ba 833e 9ca3 1abf 24e9 b6b9 bc82 4abe
00000030: ebd9 1ebc a6f7 49be 860b 98bd 4550 b3bd
00000040: f84d 1cbe 5dd5 d43a 3239 52be 3fab 2fbd
00000050: 9196 9cbe 49d4 a6bd f4ee f5bd b399 983c
00000060: fcc0 8d3d e46c b3bd e8b4 543c 3ec4 c5bd
00000070: b0e6 133d 3d31 823c 3cf3 f7bd 9921 ec3b
00000080: 360d f4bd ad48 85bd 9fb6 ddbc 4982 42be
00000090: 78df c4bd aedc 6fbd 5c2e 9abd 45c3 74be
000000a0: 43d4 afbd d7bf debe 2ae1 6ebd ab30 21be
000000b0: 4845 2d3e 7ef4 1fbf fbcc 46be 5ded b3be
000000c0: c440 133e 9c4b fdbc eeda 82bc d2b3 7b3e
000000d0: 41ac 29bf 8bed 2e3e 81db 56be 0c90 9ebd
000000e0: 28f2 97be e4e2 4e3d 65ad 4b3e e89e e9bd
000000f0: a41f abbe e1c0 d3bd 94c1 17be a712 0dbf
00000100: 8988 21be 59ed 673d afef a4be 0dbf ef3a
00000110: 4d82 413c 9b71 b6be 9d6d a2bc f5c1 8fbc
00000120: 24d9 a1bd 150b 2abf 7fa9 59be 7284 64be
00000130: 1320 4bbe 60c8 a1be 5291 50be 05ff 053e
00000140: 9b30 19be cb2b c0be df23 58be 8ee6 bdbd
00000150: a230 323d 29fb 20bd a1d6 d5bd 1367 b0bd
00000160: d6b5 6b3d 78a8 79be 9d73 6dbe 3590 68be
00000170: 88a1 e93c f0df acbe f5c3 99be b98e b13c
00000180: 330e d43c 60f0 b1bd 0f2c f1bd 4bc5 fcbe
00000190: b426 ee3d f969 273e a3f7 36be 3ffd edbd
000001a0: f911 b2bd 8725 febd ff77 c7bd 8e07 e5bd
000001b0: a2ba edbe e714 b63c f0a2 59be ea46 83bd
000001c0: 4441 c43c 60c4 52bc 5a72 cbbd aa5a 4fbe
000001d0: 7783 3a3e f143 1b3d b54a 8ebe 9621 fa3a

fc2.weight f4 [84, 120]
-0.041222762 -0.1180018 -0.024825037 -0.21141216 0.07814498 -0.14005382 0.39102948 -0.07847031
0.21011055 0.29367995 0.24940729 -0.24493386 -0.064394124 0.27274132 -0.038450483 0.0127334
0.2460584 -0.10751943 -0.013671858 -0.41334355 -0.19884501 0.024676558 -0.008360557 -0.026950208
-0.6722205 0.05160202 0.008743976 -0.054118924 0.030198118 0.023848407 0.3889144 0.24659717
-0.11999553 -0.20597497 0.26912823 -0.10891238 -0.2711892 -0.011835105 -0.2162474 -0.02963831
0.1786221 0.40620965 0.018127318 0.15923214 -0.16177313 0.03841239 -0.29614705 0.06116358
0.06444276 -0.59325486 0.038829673 -0.5955054 -0.15639858 -0.48370963 0.10182997 0.051493745
-0.051156644 0.0694109 0.148745 -0.21325098 0.33387974 0.05146979 -0.17114368 0.089308806
0.39821663 0.3173484 0.20453063 -0.0684888 0.12928286 -0.36621806 -0.07309385 -0.05755992
-0.17424102 0.3035149 0.22170863 0.1742532 -0.5010673 -0.33467022 0.0062740836 -0.24268343
-0.25456348 0.20088027 0.003017711 0.24440663 0.25075367 0.0370387 0.11427838 0.40345046
-0.06665107 -0.12020254 -0.053918593 0.64225924 -0.11708605 0.15185077 -0.32034114 -0.020844787
-0.042124044 -0.57629776 0.18013695 0.008006014 0.28314063 -0.058135316 -0.04443983 0.19760184
0.16975275 0.4446123 0.013453471 -0.07053788 0.114350095 0.1971215 -0.060655043 0.18723187
0.07830324 -0.015409268 -0.33816373 0.12869823 -0.09227293 -0.075697206 -0.33870003 -0.20355499
-0.24673603 -0.42515963 -0.2631351 -0.12728114 -0.15400825 0.42123982 -0.07429217 0.52123135
0.33632964 0.18896937 -0.6880508 0.14614303 0.013939872 0.018416408 0.025523791 -0.045175366
0.05199544 0.14787734 0.32229653 0.118549265 -0.031978436 -0.043099854 0.045168836 0.0659665
0.25394443 -0.058887407 -0.04698891 -0.030432347 0.031307943 -0.049043857 -0.18474753 0.048067518
-0.10360371 0.2220478 -0.031209126 0.37530982 -0.7798758 -0.044365603 -0.10223973 -0.04159946
-0.24742973 0.01637604 0.041024078 0.12652268 -0.07809759 0.4116738 -0.33437178 0.04438117
0.16594772 0.038287126 0.1025203 -0.2818472 -0.11784189 -0.17655815 -0.31657767 -0.0017121375
-0.60688174 -0.006536459 -0.14027123 -0.029768743 -0.43071675 -0.051877934 0.12651874 0.08103782
-0.17537943 0.08126324 -0.029970657 0.16853584 0.10863042 0.1466864 -0.13327588 0.01693707
0.10898321 0.102602474 -0.094539866 0.28110647 0.5084356 -0.17754546 0.15702374 -0.4808754
0.18389557 0.026590182 0.2702721 -0.027888507 0.01755281 -0.227895 0.22717749 0.056371517
-0.2405004 0.15571325 -0.20156743 0.0719778 -0.15878311 0.14312293 0.34456083 0.059859887
-0.027362088 0.045884717 -0.34745198 0.30519313 0.010772824 -0.08488949 -0.08494819 -0.37071276
0.42016202 -0.4342946 -0.02373214 0.062999696 0.17821409 0.040594757 0.09705984 -0.24698703
-0.035882942 -0.050707746 0.14655675 0.2325219 -0.28270048 0.0073173274 0.14192466 0.20959552
0.25677335 0.13973601 -0.1144651 -0.016171101 0.15922596 -0.24539436 0.70041245 -0.3315406
-0.31672886 0.44188875 -0.6903281 0.33687076 -0.0568488 0.1909628 0.01958507 0.0009420467
00000000: 33d9 28bd edaa f1bd e05d cbbc 6e7c 58be
00000010: 7a0a a03d 456a 0fbe 0435 c83e 0bb5 a0bd
00000020: 3827 573e 385d 963e a064 7f3e f1cf 7abe
00000030: 11e1 83bd c0a4 8b3e 417e 1dbd c09f 503c
00000040: bcf6 7b3e 2633 dcbd eeff 5fbc c4a1 d3be
00000050: 079e 4bbe 7e26 ca3c b8fa 08bc afc6 dcbc
00000060: a516 2cbf a45c 533d e542 0f3c ceab 5dbd
00000070: 0b62 f73c bc5d c33c ca1f c73e f883 7c3e
00000080: 37c0 f5bd 1aeb 52be 2dcb 893e 740d dfbd
00000090: 50d9 8abe 07e8 41bc f56f 5dbe 0bcc f2bc
000000a0: b6e8 363e b6fa cf3e be7f 943c c00d 233e
000000b0: dba7 25be 4f56 1d3d 96a0 97be a986 7a3d
000000c0: 91fa 833d 8ddf 17bf dd0b 1f3d 0b73 18bf
000000d0: f326 20be caa8 f7be 3b8c d03d 1beb 523d
000000e0: a189 51bd 4d27 8e3d 9c50 183e 775e 5abe
000000f0: 49f2 aa3e fdd1 523d 4a40 2fbe 89e7 b63d
00000100: 0de3 cb3e 7d7b a23e 7a70 513e db43 8cbd
00000110: ba62 043e ef80 bbbe 3ab2 95bd f3c3 6bbd
00000120: 3d6c 32be 4e66 9b3e 9607 633e 6e6f 323e
00000130: f245 00bf e559 abbe d496 cd3b 0182 78be
00000140: 2556 82be 8fb3 4d3e cac4 453b bb45 7a3e
00000150: c962 803e e4b5 173d c90a ea3d 0f91 ce3e
00000160: 5b80 88bd c02c f6bd bed9 5cbd 1a6b 243f
00000170: d0ca efbd c57e 1b3e c103 a4be b0c2 aabc
00000180: 438a 2cbd 4088 13bf d275 383e a82b 033c
00000190: cff7 903e 4c1f 6ebd 8a06 36bd 2358 4a3e
000001a0: aad3 2d3e 39a4 e33e f26b 5c3c 2a76 90bd
000001b0: 6230 ea3d 38da 493e 6c71 78bd b6b9 3f3e
000001c0: 735d a03d 2877 7cbc cc23 adbe 78c9 033e
000001d0: 97f9 bcbd 2307 9bbd 176a adbe b870 50be
000001e0: 5fa8 7cbe 86ae d9be a5b9 86be fd55 02be
000001f0: 57b4 1dbe bfac d73e 7e26 98bd 6b6f 053f
00000200: 6633 ac3e 3081 413e 1924 30bf 85a6 153e
00000210: 1064 643c 02de 963c 4517 d13c ce09 39bd
00000220: 2cf9 543d 286d 173e 0d04 a53e f5c9 f23d
00000230: d2fb 02bd 7989 30bd f502 393d 7219 873d
00000240: 0105 823e ec33 71bd 7177 40bd 424d f9bc
00000250: c23c 003d 36e2 48bd 752e 3dbe 72e2 443d
00000260: 2f2e d4bd 8060 633e 48aa ffbc 9c28 c03e
00000270: f1a5 47bf b5b8 35bd 1063 d1bd 3264 2abd
00000280: 385e 7dbe 0c27 863c dd08 283d 298f 013e
00000290: a1f1 9fbd e9c6 d23e c732 abbe 08c9 353d
000002a0: 33ee 293e f6d2 1c3d 2af6 d13d 474e 90be
000002b0: 1757 f1bd a9cb 34be 7816 a2be cd69 e0ba
000002c0: 9a5c 1bbf cb2f d6bb 43a3 0fbe 94dd f3bc
000002d0: e886 dcbe f57d 54bd 218e 013e 28f7 a53d
000002e0: aa96 33be 576d a63d 0685 f5bc a994 2c3e
000002f0: a079 de3d f634 163e 7979 08be 9cbf 8a3c
00000300: 9732 df3d 3f21 d23d 1e9e c1bd 30ed 8f3e
00000310: d628 023f 7ace 35be d5ca 203e 4d35 f6be
00000320: 1f4f 3c3e a7d3 d93c 1b61 8a3e 7076 e4bc
00000330: e9ca 8f3c 4f5d 69be 37a1 683e d2e5 663d
00000340: bd45 76be 4b73 1f3e b167 4ebe 1969 933d
00000350: 0a98 22be d18e 123e 476a b03e a42f 753d
00000360: 7526 e0bc 9df1 3b3d 3ae5 b1be 4642 9c3e
00000370: 8080 303c 8ada adbd 51f9 adbd 10ce bdbe
00000380: 7a1f d73e dd5b debe e869 c2bc fc05 813d
00000390: c17d 363e b046 263d 4fc7 c63d 2bea 7cbe
000003a0: fef9 12bd edb2 4fbd f912 163e 391a 6e3e
000003b0: 1ebe 90be 31c6 ef3b b354 113e 35a0 563e
000003c0: cc77 833e f516 0f3e ae6c eabd 4279 84bc
000003d0: 210c 233e a948 7bbe 3b4e 333f b1bf a9be
000003e0: 492a a2be 3e3f e23e 58b9 30bf 537a ac3e
000003f0: 4ada 68bd c18b 433e de70 a03c aff3 763a

fc2.bias f4 [84]
-0.10770368 -0.09433765 -0.3131708 0.05046431 -0.22119334 -0.4591258 -0.21983379 0.10823414
-0.16788109 0.15113331 -0.13579015 -0.38938394 -0.030478979 -0.23368695 -0.21240449 0.22633404
-0.1591757 -0.21879305 -0.4912742 0.038107477 -0.0856852 -0.2197637 -0.2862076 0.14349958
-0.1741784 0.08826836 -0.08386861 -0.25948447 0.0359701 0.1882353 -0.07722373 -0.04703096
-0.037270673 -0.5492775 -0.3949677 0.24999946 0.11972587 0.17304501 -0.06781398 -0.041624222
0.20610799 -0.3167635 0.06155513 -0.26056853 -0.21238825 -0.06666675 -0.012893331 -0.20950432
0.27064902 0.25178826 -0.19543219 -0.15377986 -0.2554487 -0.19799578 0.00067719264 -0.2769448
-0.18709265 -0.1306686 -0.040580824 -0.40499282 -0.22820134 0.06171655 0.09000639 -0.37246993
-0.23595177 -0.33881146 -0.42949557 -0.16026571 -0.40515825 -0.2302773 0.10508325 -0.19421858
-0.40989012 0.022402339 -0.18667385 0.17012736 0.14553389 0.10414953 -0.13572456 0.24942286
-0.36367294 -0.33796808 0.33940086 -0.049254827
00000000: bf93 dcbd 1934 c1bd ec57 a0be aab3 4e3d
00000010: 8280 62be 8912 ebbe 1c1c 61be dca9 dd3d
00000020: 05e9 2bbe b1c2 1a3e 930c 0bbe 555d c7be
00000030: 0daf f9bc a24b 6fbe 9080 59be 1cc4 673e
00000040: f4fe 22be 490b 60be 4b88 fbbe 9616 1c3d
00000050: b97b afbd bc09 61be cd89 92be 8ef1 123e
00000060: d35b 32be 0bc6 b43d 4ec3 abbd 26db 84be
00000070: 6255 133d c1c0 403e 7a27 9ebd 89a3 40bd
00000080: 22a9 18bd 739d 0cbf 3539 cabe dcff 7f3e
00000090: d632 f53d b632 313e 0ee2 8abd 297e 2abd
000000a0: f90d 533e d32e a2be 3b21 7c3d 3d69 85be
000000b0: 4e7c 59be 9488 88bd 8d3e 53bc 4d88 56be
000000c0: 8292 8a3e 64ea 803e 601f 48be 7878 1dbe
000000d0: 2cca 82be 68bf 4abe a185 313a b5cb 8dbe
000000e0: 3795 3fbe fdcd 05be 1438 26bd 385b cfbe
000000f0: 9dad 69be 7eca 7c3d 4555 b83d 61b4 bebe
00000100: 579d 71be b278 adbe d8e6 dbbe b21c 24be
00000110: e770 cfbe d0cd 6bbe e335 d73d 3ce1 46be
00000120: 1edd d1be 1c85 b73c 6e27 3fbe de35 2e3e
00000130: d606 153e 594c d53d 61fb 0abe b568 7f3e
00000140: 5733 babe 270a adbe f3c5 ad3e 6ebf 49bd

fc3.weight f4 [10, 84]
-0.53455067 -0.18881103 -0.59071296 -0.54350936 -0.33328152 -0.675589 0.045877215 -0.5910545
-0.4315276 -0.03705188 -0.34895915 -0.89303136 -0.3959864 -0.72898334 -1.0652586 -0.6660435
-0.58963966 -0.3371325 0.017700963 -0.13713072 0.17319876 -0.45401385 0.06342806 -0.611807
-0.5517484 -0.24431777 -0.3005905 -0.14510548 -0.38466942 -0.5695555 0.11470476 -0.76087505
-0.33450356 -0.23273881 0.037337765 -0.022479832 -0.28998068 -0.56940144 -0.61753136 -0.1807892
-0.19747661 -0.10362806 0.1474949 0.15576261 -0.41008747 -0.7501225 -0.44318908 0.15742382
-0.720683 -0.10085183 -0.13559973 -0.46177238 -0.21255693 0.056405816 -0.87574893 0.0772218
-0.32647133 -0.6132864 0.047547303 -0.22390628 -0.64729124 0.04489942 -0.18307564 0.19987155
-0.56506824 -0.9193319 -0.009176307 -0.8314873 -0.45289966 -0.045718048 -0.08681412 0.061370566
-0.25619435 0.10891502 0.12006107 0.11867018 -0.5365673 -0.05155871 -0.012995721 0.11296576
-0.49446714 0.12840077 -0.63441586 0.11441832 0.07634141 -0.5391444 0.16976981 0.034857873
-0.42399916 -0.012221828 0.14263698 -0.6193374 -0.39899087 -0.4256654 0.13393055 -0.012119898
-0.8184864 -0.2469371 -0.110295676 0.049913604 0.1688075 -0.029218918 -0.5352228 0.09415315
-0.44077784 -0.44814253 -0.5439128 -0.0046392903 0.065636285 -0.53351235 -0.2096696 -0.973022
-0.57372385 -0.43560585 0.19548084 -0.30690122 -0.38206327 -0.4518959 -0.39417574 -0.4123291
-0.85919154 -0.4297764 -0.43598232 -0.71775067 -0.37146166 0.18565346 -0.72184217 0.018181391
-0.22003339 0.1348871 0.02160328 -0.5914317 -0.5929986 0.07854882 -0.42888615 -0.039381463
-0.43746126 -0.416269 -0.41328812 -0.7599838 -0.5021842 0.08814485 -0.30223116 -1.272096
-0.3876899 -0.41710442 -0.6332289 0.05299046 -0.27654296 -1.0246027 -0.71697474 0.15255399
0.061183296 -0.17622104 -0.9480167 -0.48215786 -0.3436296 -0.63145584 -0.07870253 0.071138315
-0.40247482 -1.2072332 0.034271512 -0.5690157 -0.44062716 -0.50194925 -0.30792704 -0.27127144
-0.08702957 -0.3994198 -0.17866929 -0.09893101 -0.30331135 -0.054933727 0.117628425 0.010209393
-0.14742497 0.012797475 0.023179732 -0.12739417 -0.04441123 -0.52106774 -0.027910782 0.04236319
-0.02127654 -0.6440946 0.02497554 -0.69874924 -0.5630089 -0.4636283 -0.5655603 -0.35471857
-0.02403006 -0.22705878 0.23016588 -0.5823449 0.38137087 -1.1099995 0.11050368 0.048286945
-0.59897435 0.1344056 0.06053244 0.00689446 -0.5476522 -0.08073023 -0.3742067 -0.66198224
-0.7400503 -0.39976782 0.14785583 -0.011525657 -0.4424312 -0.06841574 -0.48957533 0.13030897
-0.28438368 -0.7483516 -0.6218159 -0.06261069 -0.649995 -0.2754903 -0.11404391 -0.5260092
0.019193832 -0.5378019 -0.5815185 0.0050094533 0.09411835 -0.20853151 -0.59911203 -0.564938
-0.26448765 -0.3389554 0.034339182 0.13551727 -0.6320553 0.048227068 -0.22979954 -0.819189
-0.0662639 0.1374657 -0.7425697 -0.22652452 -0.2141332 0.17563058 0.03324685 -0.7022963
-1.0399553 -0.47588813 -0.65608364 -0.33589092 -0.1894776 -0.35735214 0.1534169 -0.20932221
00000000: 50d8 08bf ae57 41be f738 17bf 6e23 0bbf
00000010: e0a3 aabe 67f3 2cbf bfe9 3b3d 594f 17bf
00000020: 30f1 dcbe b6c3 17bd c6aa b2be b49d 64bf
00000030: bbbe cabe a79e 3abf 655a 88bf d481 2abf
00000040: a0f2 16bf a29c acbe 9c01 913c ff6b 0cbe
00000050: 045b 313e 8174 e8be 92e6 813d 629f 1cbf
00000060: 623f 0dbf 702e 7abe ffe6 99be 8896 14be
00000070: 64f3 c4be 64ce 11bf 54ea ea3d b5c8 42bf
00000080: 0d44 abbe 1553 6ebe 7cef 183d a027 b8bc
00000090: 5978 94be 4bc4 11bf 8916 1ebf ce20 39be
000000a0: 4f37 4abe f33a d4bd e708 173e 3c80 1f3e
000000b0: fcf6 d1be 0708 40bf aee9 e2be b633 213e
000000c0: ae7e 38bf 678b cebd a8da 0abe 6e6d ecbe
000000d0: 86a8 59be c909 673d 1531 60bf 7726 9e3d
000000e0: 4027 a7be 5600 1dbf f6c0 423d b047 65be
000000f0: e1b4 25bf 74e8 373d 2e78 3bbe 21ab 4c3e
00000100: 50a8 10bf 5659 6bbf 3958 16bc 5adc 54bf
00000110: 77e2 e7be d942 3bbd 9acb b1bd b45f 7b3d
00000120: e82b 83be d70e df3d 94e2 f53d 5a09 f33d
00000130: 795c 09bf 3a2f 53bd 01ec 54bc 985a e73d
00000140: cc2a fdbe 7e7b 033e 1469 22bf 2754 ea3d
00000150: e358 9c3d 5e05 0abf 23d8 2d3e 21c7 0e3d
00000160: 6b16 d9be 103e 48bc 6e0f 123e e58c 1ebf
00000170: 8848 ccbe d1f0 d9be 1725 093e 8992 46bc
00000180: 5388 51bf 14dd 7cbe b3e2 e1bd 3572 4c3d
00000190: e0db 2c3e 835c efbc 5d04 09bf 5ed3 c03d
000001a0: a2ad e1be f072 e5be df3d 0bbf 3005 98bb
000001b0: 516c 863d 4494 08bf a1b3 56be f817 79bf
000001c0: 91df 12bf bb07 dfbe 212c 483e 2822 9dbe
000001d0: cc9d c3be e65e e7be 67d1 c9be cd1c d3be
000001e0: faf3 5bbf a70b dcbe 1339 dfbe 82be 37bf
000001f0: 3930 bebe f11b 3e3e a6ca 38bf 24f1 943c
00000200: 6f50 61be d81f 0a3e 5df9 b03c 1168 17bf
00000210: c2ce 17bf 34de a03d f796 dbbe 754e 21bd
00000220: ecfa dfbe 3621 d5be 809a d3be 4c8e 42bf
00000230: 258f 00bf 4a85 b43d 0bbe 9abe 0bd4 a2bf
00000240: 4a7f c6be b68e d5be 4a1b 22bf 860c 593d
00000250: 0a97 8dbe 2e26 83bf a88b 37bf 1d37 1c3e
00000260: 569b 7a3d 4a73 34be 39b1 72bf 65dd f6be
00000270: 38f0 afbe 17a7 21bf cb2e a1bd f7b0 913d
00000280: 2e11 cebe 9e86 9abf 4960 0c3d 03ab 11bf
00000290: e299 e1be bf7f 00bf 9da8 9dbe 17e4 8abe
000002a0: 8f3c b2bd c180 ccbe 15f5 36be 579c cabd
000002b0: a04b 9bbe 3002 61bd 2ce7 f03d 4c45 273c
000002c0: 92f6 16be 80ac 513c 6ce3 bd3c 9e73 02be
000002d0: 8de8 35bd b264 05bf 27a5 e4bc 0685 2d3d
000002e0: 234c aebc 62e3 24bf 8199 cc3c 3be1 32bf
000002f0: 5a21 10bf b060 edbe 8fc8 10bf ac9d b5be
00000300: b0da c4bc 1982 68be 9bb0 6b3e 8e14 15bf
00000310: 0b43 c33e 7714 8ebf c14f e23d 88c8 453d
00000320: 6256 19bf 9fa1 093e ddf0 773d ecea e13b
00000330: ef32 0cbf e455 a5bd 0598 bfbe ab77 29bf
00000340: f073 3dbf 5eae ccbe 8567 173e 1cd6 3cbc
00000350: 5886 e2be 8d1d 8cbd 9ea9 fabe b76f 053e
00000360: bd9a 91be f893 3fbf 542f 1fbf 093a 80bd
00000370: 1366 26bf 110d 8dbe da8f e9bd 8aa8 06bf
00000380: 623c 9d3c 63ad 09bf 65de 14bf 5726 a43b
00000390: 1fc1 c03d 4989 55be 685f 19bf c79f 10bf
000003a0: ed6a 87be 908b adbe 3ea7 0c3d 0ac5 0a3e
000003b0: 60ce 21bf bf89 453d 9250 6bbe 5fb6 51bf
000003c0: 5eb5 87bd cfc3 0c3e 0c19 3ebf 0bf6 67be
000003d0: bc45 5bbe 81d8 333e d92d 083d b1c9 33bf
000003e0: 411d 85bf 9ca7 f3be 19f5 27bf e5f9 abbe
000003f0: 6a06 42be dcf6 b6be 5219 1d3e 9058 56be

fc3.bias f4 [10]
-0.33226478 -0.065781236 0.045439858 -0.05833498 -0.0340069 -0.25151068 -0.080173366 -0.09814837
0.3739075 0.13432898
00000000: 9c1e aabe 50b8 86bd 251f 3a3d a9f0 6ebd
00000010: d24a 0bbd 02c6 80be ef31 a4bd 0302 c9bd
00000020: ce70 bf3e 898d 093e
