mnist/saved_models/model_epoch_4.pth (torch, 181324 bytes, 10 tensors)

conv1.weight f4 [6, 1, 5, 5]
0	0xbe18ed98	-0.14934385
1	0x3de5e462	0.11225201
2	0x3e549b2a	0.20762315
3	0x3ef03b46	0.46920222
4	0x3e68e813	0.2274478
5	0x3ea6ff41	0.32616618
6	0x3edbc9f4	0.42927516
7	0x3e999d42	0.3000279
8	0x3ddf2b1e	0.10896896
9	0x3e9f5cfb	0.31125626
10	0x3e9d1197	0.30677482
11	0x3e662bc9	0.2247764
12	0xbe24cb33	-0.1609314
13	0xbe698847	-0.22805892
14	0xbe1b2261	-0.15149833
15	0xbc24f215	-0.0100674825
16	0xbe7d9b5f	-0.247663
17	0xbea7a34b	-0.3274177
18	0xbecb9567	-0.39762422
19	0xbe8a3e0b	-0.2700046
20	0xbe3f2534	-0.18666536
21	0xbe95f0c3	-0.2928525
22	0xbe484556	-0.195577
23	0x3e204b44	0.15653712
24	0xbdc9fd60	-0.098627806
25	0xbe1762ea	-0.14783826
26	0x3ddade8a	0.10686977
27	0x3e2737a0	0.16329813
28	0x3dd6200c	0.10455331
29	0xbdb17600	-0.08665085
30	0xbe0c5d0d	-0.13707371
31	0x3d87720e	0.06613551
32	0x3e376404	0.17909247
33	0x3ddce74d	0.107863046
34	0x3d5d6027	0.054046776
35	0xbe3c74af	-0.18403886
36	0xbdbf0dcc	-0.093288034
37	0x3e1df94a	0.15427127
38	0x3e57d9f5	0.21079238
39	0xbdf22ee7	-0.11825352
40	0xbe045093	-0.12921362
41	0xbea68d5c	-0.32529724
42	0xbe037398	-0.12837064
43	0xbe13e352	-0.14442185
44	0xbe22c612	-0.1589587
45	0x3d8ca2b4	0.06866971
46	0xbd48884c	-0.048958108
47	0x3e074f81	0.13213922
48	0x3e2e2510	0.17006326
49	0xbccc8cf5	-0.024969557
50	0x39843a1c	0.00025220297
51	0xbe002bf2	-0.12516764
52	0xbe17d138	-0.14825904
53	0x3d2ed979	0.042687867
54	0xbeade3f9	-0.33962992
55	0xbd9ecbb4	-0.07753697
56	0xbd1ca619	-0.03824434
57	0x3e9eed2b	0.3104032
58	0x3f01baaa	0.5067545
59	0x3db483a3	0.0881417
60	0x3e9bbe40	0.30418587
61	0x3e8d9119	0.27649763
62	0x3f03718a	0.5134512
63	0x3eff2bc1	0.4983807
64	0x3d8868f9	0.06660647
65	0xbe0b59d0	-0.1360848
66	0xbea2f0f6	-0.31824464
67	0x3c9bc2bc	0.019013755
68	0x3e8e3583	0.277752
69	0x3e62f8ea	0.22165266
70	0xbe2a8b4a	-0.16654697
71	0xbed2b646	-0.4115469
72	0xbf1a9e1e	-0.6039752
73	0xbe113fb2	-0.14184454
74	0x3e06e90d	0.1317484
75	0xbce7f509	-0.028315084
76	0x3e2cf8ae	0.16891739
77	0xbd8febfe	-0.07027434
78	0x3d1f3a68	0.03887406
79	0x3dfcdb28	0.12346488
80	0x3d6826b3	0.05667753
81	0x3d3e6f99	0.046493147
82	0xbe46ddec	-0.19420594
83	0x3e453932	0.192601
84	0x3e8a35de	0.26994222
85	0x3d243344	0.040087953
86	0xbe1b8e13	-0.15190916
87	0xbeb4d733	-0.35320434
88	0xbda7ce1c	-0.08193609
89	0x3eb25301	0.34828952
90	0xbdff3740	-0.1246171
91	0xbe712c3a	-0.23552027
92	0xbe90aed8	-0.28258395
93	0x3eb01ec3	0.3439847
94	0x3f0ff0cb	0.56226796
95	0xbe5e9cfa	-0.2173957
96	0xbd85f395	-0.065406
97	0x3d465723	0.048422944
98	0x3d7fd021	0.062454347
99	0x3e9a204c	0.30102766
100	0x3d257f73	0.04040475
101	0xbdc2aef6	-0.095060274
102	0x3e72875b	0.23684447
103	0xbc1a764d	-0.009427619
104	0x3e97d646	0.29655665
105	0x3c24ddd5	0.0100626545
106	0xbe75e6c4	-0.24013811
107	0xbe14f532	-0.1454666
108	0xbdf92caa	-0.12166722
109	0xbcb6c016	-0.02230839
110	0xbdf443ec	-0.119270176
111	0xbe6c6827	-0.23086606
112	0xbda7fb48	-0.08202225
113	0xbe8d5a85	-0.27608123
114	0xbe051624	-0.12996727
115	0x3dea6f2a	0.11446984
116	0xbd9ad0f9	-0.075593896
117	0xbe128085	-0.14306839
118	0xbda9dce4	-0.08294085
119	0xbc8e27f8	-0.017353043
120	0x3ea1e3e1	0.3161917
121	0x3e5d97de	0.21639964
122	0x3e112b7e	0.14176747
123	0x3ea053e1	0.31313995
124	0x3e8a212a	0.26978427
125	0x3c08361d	0.008313683
126	0x3e708058	0.2348646
127	0x3b14caff	0.0022704003
128	0x3d4f69da	0.050638057
129	0x3e05c999	0.13065185
130	0x3c8792de	0.016549524
131	0x3e80eef7	0.25182316
132	0x3e287303	0.16450123
133	0xbd59333f	-0.053027388
134	0xbe380ece	-0.17974398
135	0x3e44940a	0.19197097
136	0x3eca6bf8	0.395355
137	0xbd272327	-0.04080501
138	0xbeb8a340	-0.3606205
139	0xbda801a6	-0.082034394
140	0x3e9be484	0.3044778
141	0x3e7ec23c	0.24878782
142	0xbed55341	-0.4166508
143	0xbc8cbc8b	-0.017179748
144	0xbd8e091c	-0.06935331
145	0x3e393c45	0.18089397
146	0xbcdc7f38	-0.026916131
147	0xbe3fa90b	-0.18716829
148	0xbdf46d95	-0.119349636
149	0xbe163480	-0.14668465

conv1.bias f4 [6]
0	0x3e5cbdf3	0.21556835
1	0xbf010d79	-0.5041118
2	0x3df4ab83	0.11946776
3	0xbdae9a41	-0.08525515
4	0xbebdfeb4	-0.37108386
5	0xbd888ee3	-0.066678785

conv2.weight f4 [16, 6, 5, 5]
0	0x3d84e112	0.06488241
1	0xbd800753	-0.06251397
2	0x3db2177c	0.086958855
3	0x3e117591	0.14205004
4	0x3b712573	0.0036796003
5	0x3e37e50c	0.17958468
6	0x3d8fb010	0.07016003
7	0x3e501ce7	0.20323525
8	0x3daa0e8f	0.08303558
9	0x3e03a039	0.12854089
10	0x3d9e7851	0.07737792
11	0x3e1789fc	0.1479873
12	0x3dfe07e3	0.12403848
13	0xbd7ca3be	-0.061679594
14	0xbc7a6a5b	-0.015284146
15	0xbea3df96	-0.3200652
16	0xbe6f0026	-0.233399
17	0xbe20cb66	-0.1570259
18	0xbe8f61be	-0.2800426
19	0xbe5cb789	-0.21554388
20	0xbeabe841	-0.33575633
21	0xbead0e5b	-0.33800015
22	0xbeb3e794	-0.35137618
23	0xbf24fe14	-0.6445019
24	0xbf2d0d1c	-0.6759813
25	0x3c6f6cdf	0.014613359
26	0x3d57fd54	0.052731827
27	0xbe99f98f	-0.3007321
28	0xbe79c19e	-0.24390265
29	0xbe831fc8	-0.25610185
30	0x3e0a4276	0.13501915
31	0x3bf562b8	0.007488575
32	0xbe85c207	-0.26124594
33	0xbe3d005e	-0.18457171
34	0xbe5b9ed6	-0.2144731
35	0x3da5d27f	0.080967896
36	0x3d0b58eb	0.034020346
37	0x3d011767	0.03151646
38	0x3cdf23eb	0.027238807
39	0xbc5aacd0	-0.013346866
40	0x3b02b890	0.0019946434
41	0x3c95db46	0.018293034
42	0xbd0034fd	-0.031300534
43	0xbc9c9539	-0.019114124
44	0x3d44a3df	0.048007842
45	0xbde26ef7	-0.11056321
46	0xbc949a90	-0.018140107
47	0xbe01a43f	-0.12660311
48	0xbbb0a6f9	-0.0053909984
49	0xbe2a1ed7	-0.16613327
50	0x3e663219	0.22480048
51	0x3e18dff9	0.14929189
52	0x3ce25581	0.027628662
53	0xbe179778	-0.14803874
54	0x3d1d8761	0.038459186
55	0xbac90c46	-0.0015338741
56	0x3e0b8040	0.13623142
57	0x3d028a42	0.031870134
58	0x3c4a62d3	0.012352663
59	0x3dea5ca3	0.1144345
60	0x3c4cf76a	0.01251016
61	0x3e2c052f	0.16798852
62	0xbdd99eb2	-0.10625972
63	0xbe16753c	-0.14693159
64	0xbd76aa7b	-0.060221177
65	0xbe56464e	-0.20925257
66	0xbef0be81	-0.47020343
67	0xbee662a3	-0.4499713
68	0xbef72921	-0.48273566
69	0xbf08ce14	-0.5343945
70	0x3d8b82a7	0.06812029
71	0xbe23b0b3	-0.15985374
72	0xbecc40d1	-0.398932
73	0xbf1a09cc	-0.601712
74	0xbef7a2c0	-0.48366356
75	0x3de5230f	0.111883275
76	0x3e583ee2	0.21117738
77	0xbdd6ba53	-0.10484757
78	0xb9eeee23	-0.00045572323
79	0xbec4ca6b	-0.38435683
80	0x3ea4678d	0.32110253
81	0x3e3f0f69	0.18658222
82	0xbe55fe8e	-0.20897886
83	0xbd174090	-0.036926806
84	0xbdfb9c67	-0.12285691
85	0x3b0381f3	0.002006647
86	0xbd97ab94	-0.07405773
87	0xbec8cc86	-0.3921854
88	0xbe5d638a	-0.21620002
89	0xbeb00d58	-0.3438518
90	0xbe1eb760	-0.1549964
91	0xbebf5a93	-0.3737379
92	0xbf32ed07	-0.69892925
93	0xbee8ec34	-0.4549271
94	0xbedc6a0c	-0.43049657
95	0x3cc875f8	0.024470314
96	0xbd98b637	-0.0745663
97	0xbea413bf	-0.32046315
98	0xbf086aed	-0.53288156
99	0xbf0fae1d	-0.5612505
100	0x3d448242	0.047975786
101	0xbe17fb8f	-0.14842056
102	0xbdfa605e	-0.12225412
103	0xbde7dc41	-0.11321307
104	0xbdc8374e	-0.097761735
105	0x3e233f7d	0.15942188
106	0xbd03cb48	-0.032176286
107	0xbe15323a	-0.14569941
108	0xbe3280d1	-0.17431952
109	0xbda487ce	-0.08033715
110	0x3bd11c61	0.006381557
111	0xbcae29a2	-0.021260086
112	0xbc16e49b	-0.009209777
113	0xbe64224e	-0.22278711
114	0xbe62af17	-0.22137104
115	0x3e9d3753	0.30706272
116	0x3e112a2f	0.14176248
117	0x3decbe72	0.11559762
118	0xbe3e9b4d	-0.1861393
119	0xbd2933e1	-0.04130924
120	0x3e6bfd4b	0.23045842
121	0x3e92c2b0	0.2866416
122	0x3e8437e6	0.25823897
123	0x3e4ba308	0.1988641
124	0x3e61c887	0.22049151
125	0xbd0ced2c	-0.034405872
126	0xbe56494c	-0.20926398
127	0x3e2c1e74	0.16808492
128	0x3da8226f	0.08209693
129	0xbdf7697d	-0.12080667
130	0xbc9ab76e	-0.018886294
131	0x3d11c0cb	0.035584252
132	0x3dce711b	0.10080167
133	0x3d849327	0.064733796
134	0xbdedb6cf	-0.116071336
135	0x3d388947	0.045052793
136	0x3d3ca90c	0.046059653
137	0xbdd99aa1	-0.10625196
138	0xbe041edf	-0.12902401
139	0xbde4be08	-0.11169058
140	0xbd7413f3	-0.059589338
141	0xbdc35b06	-0.09538846
142	0xbe99939f	-0.29995438
143	0xbf11e973	-0.5699684
144	0xbeafe1d3	-0.34351978
145	0xbda3346b	-0.07968982
146	0xbdb80522	-0.08985354
147	0xbdf00c0b	-0.11721047
148	0xbea9ce73	-0.3316532
149	0xbf00b119	-0.5027023
150	0xbe805f41	-0.25072673
151	0xbe960c5b	-0.293063
152	0x3c975a08	0.018475547
153	0x3e78d324	0.24299294
154	0x3e8b0ad4	0.271567
155	0xbe0bf856	-0.13668951
156	0xbec788e5	-0.3897163
157	0xbef8ec12	-0.48617607
158	0xbe2e7b64	-0.17039257
159	0xbd1ef704	-0.03880979
160	0x3d52755a	0.051381446
161	0xbc878cc9	-0.016546624
162	0x3c94a722	0.018146101
163	0x3d66b951	0.056329075
164	0x3d6652e6	0.0562314
165	0x3d9d1354	0.07669702
166	0x3e77a865	0.24185331
167	0x3e2dabbb	0.16960041
168	0x3e13f289	0.14447989
169	0x3e2387b7	0.1596974
170	0xbe68c3f3	-0.22730999
171	0xbe855b51	-0.2604623
172	0xbe916cd5	-0.28403345
173	0xbef2a66e	-0.473926
174	0xbe77ae8f	-0.24187683
175	0x3d8c9d52	0.06865944
176	0x3d3f8977	0.046761956
177	0xbe84ad5f	-0.25913522
178	0x3e45c4fd	0.19313426
179	0xbe0093e3	-0.12556414
180	0xbe21783a	-0.15768519
181	0xbdc758d4	-0.097337395
182	0xbe09acee	-0.13444874
183	0x3d45264b	0.048132222
184	0xbe3a3e7b	-0.18187897
185	0x3e11d5f0	0.14241767
186	0x3e093202	0.13397983
187	0xbdac37d8	-0.08409089
188	0xbe81c536	-0.25345773
189	0xbe72ea3c	-0.23722166
190	0x3d5b8069	0.05358926
191	0x3e259324	0.16169411
192	0x3e20e72f	0.1571319
193	0x3d68a319	0.056796167
194	0x3d974f4b	0.07388171
195	0xbe60e5ac	-0.21962613
196	0xbeacc3a6	-0.33743018
197	0xbe8623cc	-0.26199186
198	0xbbb85b31	-0.0056261052
199	0x3d7ee399	0.062228773
200	0x3d0563f0	0.03256601
201	0xbd30a625	-0.043127198
202	0xbdc35834	-0.09538308
203	0x3bb7d211	0.0056097587
204	0xbe1b9692	-0.15194157
205	0x3e9a522b	0.30140814
206	0x3d210c55	0.0393184
207	0x3d7b30f3	0.06132598
208	0x3bc0589f	0.0058699395
209	0xbe355375	-0.17707618
210	0x3e622b76	0.22086892
211	0x3ebbe139	0.3669527
212	0x3e5f45f5	0.2180403
213	0x3ebea30d	0.37233773
214	0x3dce0ca2	0.10061003
215	0xbe241428	-0.16023314
216	0xbe3753c2	-0.17903045
217	0xbd114497	-0.035465803
218	0x3e20a2c4	0.1568709
219	0x3c7ee397	0.015557191
220	0xbea14810	-0.31500292
221	0xbeb3c84e	-0.35113758
222	0xbe4540fe	-0.19263074
223	0xbe357e04	-0.17723852
224	0xbe325dda	-0.17418614
225	0x3e7b82cb	0.24561612
226	0xbd5efe12	-0.05444152
227	0xbd7caac6	-0.0616863
228	0xbd154229	-0.03644005
229	0xbcf4566f	-0.029826371
230	0x3d82ed8c	0.06392965
231	0xbd66acd5	-0.05631717
232	0xbe2b1e2a	-0.16710725
233	0xbd37ecbc	-0.044903502
234	0xbde4701f	-0.11154198
235	0x3c508c18	0.012728713
236	0xbdf9fde6	-0.122066304
237	0x3bbf3ea4	0.0058363248
238	0x3e852f98	0.26012874
239	0xbdd82c7a	-0.10555358
240	0xbd17b10e	-0.037034087
241	0xbe2170f9	-0.15765752
242	0xbcfd2be0	-0.03090471
243	0x3e097c13	0.13426237
244	0xbdb01457	-0.085976295
245	0x3c9a98ba	0.018871654
246	0x3cdf9086	0.027290594
247	0x3e014386	0.12623414
248	0xbb7f26ed	-0.0038933114
249	0xbe659f21	-0.22423984
250	0xbe22d380	-0.15900993
251	0xbea51917	-0.32245705
252	0xbd6b9352	-0.057513542
253	0xbdd65012	-0.10464491
254	0x3da3be20	0.07995248
255	0x3daa82e3	0.08325746

conv2.bias f4 [16]
0	0x3d1b191a	0.037865736
1	0x3dbadf26	0.091245934
2	0xbdfc8c54	-0.12331453
3	0x3da2b235	0.079441465
4	0x3de9da0d	0.11418543
5	0xbc840a58	-0.016118214
6	0x3d83f003	0.06442263
7	0xbd9dbac3	-0.077016376
8	0x3ceb5b26	0.028729986
9	0x3ccb4335	0.02481232
10	0xbda9f506	-0.08298688
11	0x3e1f3831	0.15548779
12	0x3d96fba9	0.07372219
13	0x3aaca916	0.001317295
14	0x3d16d7c7	0.036826875
15	0xbb86b8aa	-0.004111369

fc1.weight f4 [120, 256]
0	0xbc99e6bb	-0.018786779
1	0xbdd48613	-0.10377135
2	0xbeb94597	-0.36185905
3	0xbe2f1e54	-0.17101413
4	0x3df0fc82	0.11766912
5	0x3c79b0e1	0.015239925
6	0xbe0c0eee	-0.1367757
7	0x3e13689c	0.14395374
8	0xbd5fcc56	-0.05463823
9	0x3c676e88	0.014125474
10	0x3dec16a4	0.11527756
11	0x3e2c1173	0.16803531
12	0xbe3e10b0	-0.18561053
13	0x3e04fb1a	0.12986413
14	0xbe8c1957	-0.27363083
15	0x3db1e4eb	0.08686241
16	0x3dadf92f	0.084947936
17	0xbca79113	-0.020454919
18	0x3bcc79c9	0.006240104
19	0xbd96cf65	-0.07363776
20	0xbdeb40fa	-0.11487003
21	0xbe068e5b	-0.13140242
22	0x3d2b9fdc	0.0419005
23	0xbd913b24	-0.07091358
24	0xbea19741	-0.3156071
25	0xbd8f01ae	-0.06982742
26	0x3d78cd91	0.06074292
27	0x3e38da52	0.18052033
28	0xbe7248e5	-0.2366062
29	0x3dd825fb	0.10554119
30	0xbd0d59ba	-0.034509398
31	0xbc651636	-0.013982346
32	0x3d758236	0.059938632
33	0x3daa409e	0.08313106
34	0x3e151374	0.14558202
35	0xbe1bffaf	-0.15234254
36	0x3e6d0a7b	0.23148529
37	0x3e8b879a	0.27251893
38	0x3e590750	0.21194196
39	0x3c9fffa0	0.019531071
40	0xbe871768	-0.26385045
41	0xbe0d5774	-0.13802892
42	0x3e145910	0.144871
43	0x3da554f7	0.080728464
44	0x3d16196f	0.03664535
45	0x3d358409	0.04431537
46	0xbd01f224	-0.031725064
47	0x3e121a84	0.14267927
48	0xbe791a20	-0.24326372
49	0xbdf8e231	-0.121525176
50	0x3d83a1d2	0.06427349
51	0xbccd2d74	-0.025046088
52	0xbdc53bf0	-0.09630573
53	0xbe878d7d	-0.26475134
54	0x3da7554d	0.08170567
55	0x3e0777b0	0.13229251
56	0xbdbade29	-0.09124405
57	0xbe875927	-0.26435205
58	0xbd126728	-0.03574291
59	0x3e3d376f	0.18478177
60	0x3eb0c68c	0.3452648
61	0x3e04ce03	0.12969212
62	0xbc8a68eb	-0.016895732
63	0x3d5bf85a	0.053703643
64	0xbe0c6a02	-0.13712314
65	0xbecc3281	-0.3988228
66	0xbdb9d08a	-0.09072979
67	0xbe0706f8	-0.13186252
68	0xbd9f121a	-0.077671245
69	0xbe14d721	-0.1453519
70	0xbdcf2367	-0.10114174
71	0xbe4291aa	-0.19000879
72	0xbda956cf	-0.082685106
73	0xbd069bf3	-0.03286357
74	0xbdf58503	-0.119882606
75	0xbd171306	-0.036883377
76	0x3e73d6fd	0.2381248
77	0x3e34ff66	0.17675552
78	0x3e80e9ce	0.2517838
79	0xbd44f046	-0.048080705
80	0xbe9b5ced	-0.30344334
81	0xbe29aa13	-0.16568784
82	0x3e9a2c7f	0.30112073
83	0x3e1c631e	0.15272185
84	0xbcf7e5d8	-0.030260965
85	0xbdec8bc7	-0.11550098
86	0x3d1fe9b5	0.03904124
87	0xbe047546	-0.12935361
88	0x3e09f52c	0.13472432
89	0xbd812274	-0.063053995
90	0x3db96180	0.090518
91	0x3d83320d	0.06406031
92	0xbdf45f35	-0.11932222
93	0x3dd0e026	0.10199003
94	0xbbe0b8b5	-0.0068579563
95	0xba582d44	-0.0008246491
96	0x3e376e36	0.17913136
97	0xbc9fe3c3	-0.019517785
98	0x3c454426	0.012040174
99	0xbd77550b	-0.060383838
100	0x3bb2bd3c	0.0054546874
101	0xbcdd8e27	-0.027045323
102	0x3d80fc91	0.06298173
103	0x3d9a60d2	0.07537998
104	0xbebfa16e	-0.3742785
105	0xbe0a9e75	-0.13537009
106	0x3c3c9792	0.011510747
107	0xbc5bbd14	-0.013411779
108	0x3d8dcde5	0.06924037
109	0xbda53717	-0.08067148
110	0xbdd777c4	-0.1052089
111	0xbcd2158e	-0.025645044
112	0xbedeb2b3	-0.43495712
113	0xbd5a6861	-0.0533222
114	0x3d88e388	0.06684023
115	0xbe0709ba	-0.13187304
116	0xbe790e8f	-0.2432196
117	0x3ed89dbd	0.42307845
118	0x3dfeb456	0.1243674
119	0xbe6868df	-0.22696255
120	0xbd4f7d3a	-0.050656535
121	0x3e59d5e1	0.21272995
122	0x3e299c1b	0.16563456
123	0xbd824076	-0.06359951
124	0xbe2059a9	-0.15659203
125	0xbcf5640b	-0.02995493
126	0xbd44a764	-0.0480112
127	0xbca5e0e3	-0.020248836
128	0xbd9a598e	-0.075366125
129	0x3ea9a89a	0.33136445
130	0x3e646661	0.2230468
131	0x3aba0a5f	0.0014193765
132	0xbe759615	-0.23983033
133	0xbe1198d6	-0.14218459
134	0x3d92dd86	0.071711585
135	0xbe8f4393	-0.27981243
136	0xbf1b7ef7	-0.6074061
137	0xbe83b8e9	-0.25727013
138	0x3d191544	0.037373796
139	0x3ddb1e2b	0.106991135
140	0xbdedf038	-0.11618084
141	0x3e0ae2dd	0.13563104
142	0x3ddbece1	0.107385404
143	0x3e2addd9	0.1668619
144	0xbe89be5d	-0.26903048
145	0xbeb2afc8	-0.34899735
146	0xbd0d07bf	-0.034431215
147	0x3e8f2cd9	0.27963904
148	0xbe524de9	-0.20537533
149	0xbdc8e466	-0.098091885
150	0xbd80a18e	-0.06280814
151	0xbc9a7799	-0.018855857
152	0xbe4e7b81	-0.201643
153	0x3e238c76	0.1597155
154	0xb9179f6a	-0.00014459869
155	0xbe12906c	-0.14312905
156	0x3da0b563	0.07847097
157	0xbde06b2e	-0.10957943
158	0xbcd69593	-0.02619437
159	0xbe4186c8	-0.18899071
160	0xbef385fe	-0.47563165
161	0x3d97e5e3	0.07416894
162	0x3dbd03f7	0.09229272
163	0x3cd28c9b	0.025701812
164	0x3db6f6cd	0.08933792
165	0xbdd9c947	-0.10634094
166	0xbe08e9e9	-0.1337048
167	0x3d4736d5	0.048636276
168	0x3dc15ea6	0.09441881
169	0xbe7d7686	-0.24752244
170	0xbdc79a68	-0.097462475
171	0x3cde4371	0.027131768
172	0xbe2a4b94	-0.16630393
173	0xbd47b77f	-0.04875898
174	0xbd2de37b	-0.04245327
175	0x3c161611	0.0091605345
176	0xbe8d26e2	-0.27568728
177	0xbe75fc5b	-0.24022047
178	0x3ed2772a	0.4110654
179	0x3e87f173	0.265514
180	0x3daa69e3	0.083209775
181	0x3e22cd55	0.1589864
182	0x3cc43b04	0.023953922
183	0x3dc18bed	0.09450517
184	0xbd819957	-0.063280754
185	0xbd422f6e	-0.047408514
186	0xbe0e65ca	-0.13906017
187	0xbdc7c981	-0.09755231
188	0x3ccd8e7c	0.025092356
189	0xbd06a8f8	-0.032875985
190	0x3e0786f4	0.13235074
191	0x3de23866	0.110459134
192	0x3d059778	0.032615155
193	0x3e1f3d55	0.1555074
194	0xbd89d88d	-0.06730757
195	0xbda2e2b6	-0.07953398
196	0xbe04d273	-0.12970905
197	0x3e888b60	0.26668835
198	0xbd402418	-0.04690942
199	0x3c2507b5	0.010072638
200	0xbcf98de6	-0.03046317
201	0x3dfefe31	0.12450827
202	0x3dca7ea5	0.09887437
203	0x3c9ae588	0.018908277
204	0x3d302ffc	0.04301451
205	0x3e1ac5a4	0.15114456
206	0x3d84b0ff	0.06479072
207	0xbd115a71	-0.035486642
208	0x3dbf253f	0.09333276
209	0x3df82e26	0.12118177
210	0x3c557d30	0.013030335
211	0xbe067716	-0.13131365
212	0xbe5fb082	-0.21844676
213	0x3d3cef30	0.046126544
214	0xbe076974	-0.13223821
215	0x3e76de44	0.24108225
216	0x3dd04cac	0.10170874
217	0x3bda2422	0.0066571394
218	0x3da52ffe	0.080657944
219	0x3e854d0f	0.26035354
220	0x3e00697c	0.12540239
221	0x3d9958a9	0.07487614
222	0x3dc5e15f	0.09662127
223	0x3df7a843	0.1209264
224	0x3ceba589	0.028765457
225	0xbd1fc9f5	-0.03901096
226	0xbeb6f3c0	-0.35732841
227	0xbe3bfed0	-0.18358922
228	0x3ee54ecf	0.4478669
229	0x3eb36c5c	0.3504361
230	0x3d3ee8dc	0.04660879
231	0xbd2a1f99	-0.04153404
232	0x3e67ccdb	0.2263674
233	0x3e9f1ab0	0.31075048
234	0x3e835f2d	0.2565855
235	0x3e39ccf6	0.18144593
236	0xbd749f03	-0.059721958
237	0x3d10f900	0.035393715
238	0xbdb438de	-0.08799909
239	0xbcd1a97d	-0.025593514
240	0x3e9437e7	0.289489
241	0x3de4f971	0.1118039
242	0xbe291fc1	-0.1651602
243	0xbed63823	-0.41839704
244	0x3e6c7993	0.23093252
245	0x36186ca0	2.2712993e-06
246	0x3d0133a1	0.031543378
247	0xbe16ac8b	-0.14714257
248	0x3d8e8a11	0.06959928
249	0xbe158336	-0.14600834
250	0xbabcf0bf	-0.001441501
251	0x3d8fa550	0.07013953
252	0x3d3d1f43	0.04617239
253	0x3c6f7297	0.014614723
254	0x3c0ef550	0.008725479
255	0x3d278abc	0.04090379

fc1.bias f4 [120]
0	0xbd74b28a	-0.05974058
1	0x3d870eae	0.06594597
2	0xbe5fd81b	-0.21859781
3	0xbc094d0d	-0.008380187
4	0x3c649054	0.013950426
5	0x3d0b3157	0.0339826
6	0xbe0c8e73	-0.13726215
7	0x3c25df26	0.0101240035
8	0x3e1d17f6	0.15341172
9	0xbe06a905	-0.13150413
10	0x3d298b07	0.041392352
11	0xbd8a05d0	-0.0673939
12	0x3cb22bf2	0.02174947
13	0xbc77576b	-0.015096526
14	0xbd980b86	-0.07424073
15	0xbdb35045	-0.087555446
16	0xbd290364	-0.041263
17	0xbb5dc923	-0.003384181
18	0xbd1dc5b6	-0.03851863
19	0x3d1dda45	0.038538236
20	0xbde63de5	-0.11242274
21	0xbda6d49d	-0.081460215
22	0xbd7296e3	-0.059225928
23	0x3c9899b3	0.018627977
24	0x3e20788d	0.15670986
25	0xbdb36ce4	-0.087610036
26	0x3deeb851	0.11656249
27	0xbdc5c43e	-0.09656571
28	0x3c8b033d	0.016969318
29	0x3d52bb19	0.05144796
30	0x3d3ee333	0.046603393
31	0xbdac7cbb	-0.08422228
32	0x3de35922	0.11100985
33	0xbd28e366	-0.04123249
34	0xbd804376	-0.06262867
35	0xbde39e92	-0.11114229
36	0xbcc9c0a4	-0.024627991
37	0xbd6fdcae	-0.058560066
38	0xbd8a4807	-0.067520194
39	0xbddde340	-0.1083436
40	0xbd1f09ee	-0.03882783
41	0xbe2b0b7f	-0.16703604
42	0xbd6ee12a	-0.058320202
43	0xbd335cec	-0.04378979
44	0x3e614a83	0.2200108
45	0xbe37f60c	-0.17964953
46	0xbda96bd3	-0.08272519
47	0xbe2df218	-0.16986883
48	0x3dd2b950	0.10289252
49	0xbddeca38	-0.10878414
50	0xbddfe8ea	-0.10933097
51	0x3e6c23ba	0.23060504
52	0xbe207e8a	-0.15673271
53	0x3e96d54a	0.29459602
54	0xbd26c02a	-0.040710606
55	0xbd9e900c	-0.077423185
56	0xbe6dc83c	-0.23220915
57	0x3df269d1	0.11836589
58	0x3e636eea	0.22210279
59	0xbd3122ef	-0.043246206
60	0xbe81d319	-0.25356367
61	0xbdd3c0e1	-0.10339523
62	0xbdb75068	-0.08950883
63	0xbe0481d1	-0.12940146
64	0xbe38dd3f	-0.18053149
65	0xbd9806b2	-0.07423152
66	0xbe75ffe1	-0.24023391
67	0xbd85ae95	-0.065274395
68	0x3c1ed527	0.009694374
69	0xbe101eb7	-0.14074217
70	0xbc81e8cc	-0.015858077
71	0xbc8fc1f5	-0.01754854
72	0xbd0dfadb	-0.034663063
73	0xbe48bb1d	-0.19602628
74	0xbe3bbf92	-0.18334797
75	0xbdd9445b	-0.10608741
76	0xbdfef551	-0.12449134
77	0xbe45f28d	-0.19330807
78	0xbc2c47af	-0.010515138
79	0x3e40bef2	0.1882284
80	0xbcba92c4	-0.022775061
81	0xbe03dbfe	-0.12876889
82	0xbd7da2a1	-0.061922673
83	0xbd9a28d5	-0.07527319
84	0x3e1181ef	0.14209722
85	0x3c84da37	0.016217334
86	0x3c7b6de5	0.015346025
87	0xbd8865c7	-0.066600375
88	0x3d8f6cda	0.07003184
89	0x3c8e9075	0.017402867
90	0xbda1c69d	-0.078992106
91	0xbca7a066	-0.020462226
92	0xbc29d5dd	-0.01036593
93	0x3d0166df	0.031592246
94	0xbd852afa	-0.06502338
95	0xbdb96e25	-0.090542115
96	0x3cd40e33	0.025885677
97	0xbdb2612d	-0.08709941
98	0x3d5cd4f5	0.05391403
99	0xbdaf489c	-0.08558771
100	0x3e147300	0.14496994
101	0x3e56fa3d	0.20993896
102	0xbcc4a5c8	-0.024004832
103	0xbd8de7c8	-0.069289744
104	0xbd8c782f	-0.06858861
105	0xbcd9811b	-0.02655082
106	0x3b41cec6	0.002957271
107	0xbda6c270	-0.08142555
108	0xbe6d0910	-0.23147988
109	0x3cd06eb5	0.025443414
110	0xbc23849e	-0.009980349
111	0xbd912382	-0.07086851
112	0x3d03aa66	0.032144926
113	0xbc52c460	-0.012864202
114	0xbdc23548	-0.09482819
115	0xbdbe1a0c	-0.09282312
116	0x3e0fdc5e	0.14048907
117	0x3d1b4434	0.03790684
118	0xbd9fe358	-0.07807034
119	0x3bee1f5b	0.0072669215

fc2.weight f4 [84, 120]
0	0xbddbaeba	-0.10726686
1	0x3d6c82b5	0.05774184
2	0xbd13f86b	-0.03612558
3	0xbe1947da	-0.14968815
4	0x3e6220dc	0.22082847
5	0xbdcf62de	-0.10126279
6	0x3e1a2f57	0.15057121
7	0xbd0e696c	-0.034768507
8	0x3dc93ffa	0.09826656
9	0x3e165e58	0.14684427
10	0x3e1f2e97	0.15545116
11	0xbe54d740	-0.20785236
12	0xbd83e111	-0.064394124
13	0x3c00c729	0.0078599835
14	0xbd1d7e41	-0.038450483
15	0x3c509fc0	0.0127334
16	0x3dd9a553	0.10627236
17	0xbe202a66	-0.15641174
18	0x3e00fc19	0.12596168
19	0xbe54275d	-0.20718141
20	0xbd851b50	-0.0649935
21	0x3cca267e	0.024676558
22	0xbddcbfbc	-0.10778758
23	0xbcdcc6af	-0.026950208
24	0xbebf0bfb	-0.37313828
25	0x3d535ca4	0.05160202
26	0x3e1a33a4	0.15058762
27	0xbd5dabce	-0.054118924
28	0x3dd96b2b	0.10616144
29	0x3cc35dbc	0.023848407
30	0x3d0a17ea	0.033714212
31	0x3e30fd77	0.17284189
32	0x3c571f49	0.013130018
33	0x3d964842	0.07338001
34	0x3e779003	0.2417603
35	0xbd84d5fa	-0.06486125
36	0x3d18f978	0.037347287
37	0xbc41e807	-0.011835105
38	0xbdebbc5e	-0.115105376
39	0x3e214cfe	0.15752026
40	0x3e3720f1	0.1788366
41	0x3e0358cd	0.12826844
42	0x3c947fbe	0.018127318
43	0xbd350aa9	-0.04419962
44	0xbe2b8ef3	-0.1675375
45	0xbb925e70	-0.0044668242
46	0xbe502ba8	-0.20329154
47	0x3e0a71ee	0.13520023
48	0x3d35c3a0	0.044376016
49	0xbed0df6e	-0.40795463
50	0x3da476ad	0.08030448
51	0xbec5b20f	-0.3861241
52	0xbd609322	-0.054827817
53	0xbebe5763	-0.37176046
54	0x3daa4ed4	0.083158165
55	0x3d52eb1b	0.051493745
56	0x3d40098e	0.046884112
57	0xbda4e50b	-0.08051499
58	0x3e0ff813	0.14059477
59	0xbe6d6495	-0.231829
60	0x3ec8dac1	0.39229396
61	0x3d52d1fd	0.05146979
62	0xbe6c3e32	-0.230706
63	0x3e686d93	0.22698049
64	0x3ea589bf	0.32331654
65	0x3e436f56	0.1908544
66	0x3b9fdcea	0.00487863
67	0xbc917f67	-0.017760945
68	0x3df4131c	0.11917707
69	0xbe8093bd	-0.25112715
70	0xbd3c1111	-0.045914713
71	0xbd6bc3f3	-0.05755992
72	0xbd8ec4ff	-0.06971168
73	0x3d88e73f	0.06684732
74	0x3e0a1cf9	0.13487615
75	0x3e1b9440	0.15193272
76	0xbe8e5da4	-0.27805817
77	0xbded8a56	-0.11598651
78	0xbd0c0265	-0.03418197
79	0xbe871929	-0.26386383
80	0xbe7936f7	-0.24337374
81	0x3e36ce1f	0.17852066
82	0x3df3e561	0.11908985
83	0x3e1ea490	0.15492463
84	0xbd42ac9f	-0.047527906
85	0xbd0a772a	-0.03380505
86	0x3da21f8a	0.07916172
87	0x3ea04271	0.3130069
88	0xbc64fef6	-0.013976803
89	0xbdc79ca8	-0.09746677
90	0x3dcb3020	0.099212885
91	0x3e0df054	0.13861209
92	0xbdf63caf	-0.12023293
93	0x3d7a5577	0.061116662
94	0xbe5c1121	-0.21490909
95	0xbc3ea7d2	-0.011636691
96	0xbd2c8a43	-0.042124044
97	0xbeabf2a3	-0.33583555
98	0x3e072280	0.13196754
99	0x3c15a874	0.009134401
100	0x3da857a6	0.082198426
101	0xbe5c7791	-0.21529986
102	0x3cab3b6a	0.020902354
103	0x3e23094a	0.15921512
104	0x3e2b73a1	0.16743328
105	0x3e050bc0	0.12992764
106	0xbc995de5	-0.01872153
107	0xbdd142ba	-0.10217805
108	0x3deef614	0.116680294
109	0x3e35f5f1	0.177696
110	0xbe11729d	-0.14203878
111	0x3d958ed8	0.07302636
112	0x3da05d73	0.07830324
113	0xbc7c7728	-0.015409268
114	0xbe47cc6d	-0.19511576
115	0x3e2d9f3a	0.16955271
116	0xbe2300eb	-0.15918319
117	0xbd9b0723	-0.075697206
118	0xbdfc5c84	-0.123223335
119	0xbddcfa85	-0.1078997
120	0xbdf7ff8a	-0.12109287
121	0xbe9d8478	-0.30765128
122	0x3dde59d5	0.10856978
123	0x3e1f504d	0.15557976
124	0xbe4fadf7	-0.20281206
125	0x3e63f03b	0.2225961
126	0xbded9382	-0.116004005
127	0x3edd2c80	0.43198013
128	0x3e033131	0.12811734
129	0x3d5e2520	0.054234624
130	0xbee3224c	-0.44362104
131	0x3da9694a	0.082720354
132	0x3c646410	0.013939872
133	0x3d3abe6d	0.04559176
134	0x3cd11745	0.025523791
135	0xbd3909ce	-0.045175366
136	0x3da2e3f3	0.07953634
137	0x3e71d459	0.2361616
138	0xbd2f1163	-0.04274119
139	0x3dbd629c	0.09247324
140	0xbd411d9b	-0.047147375
141	0xbd308979	-0.043099854
142	0xbd4d8bad	-0.050182033
143	0x3d871972	0.0659665
144	0x3d88c041	0.066772945
145	0xbd7133ec	-0.058887407
146	0xbd1aa079	-0.037750695
147	0xbcf94d42	-0.030432347
148	0xbc845029	-0.016151505
149	0xbda44acc	-0.08022079
150	0xbdbad9df	-0.09123587
151	0xbd22e00d	-0.039764453
152	0xbc24ae86	-0.010051375
153	0x3e01ed06	0.12688074
154	0xbbc31ce7	-0.005954373
155	0x3e2e4c6d	0.17021342
156	0xbec1b3e4	-0.37832558
157	0xbd35b8b5	-0.044365603
158	0xbe55eb9c	-0.20890659
159	0xbd09013b	-0.03344844
160	0xbe9af71c	-0.30266654
161	0xbd3e8870	-0.046516836
162	0x3d2808dd	0.041024078
163	0x3dab7e1e	0.08373664
164	0x3c8df7a8	0.017330006
165	0x3e4f351e	0.20235106
166	0xbdd77990	-0.10521233
167	0xbdc28c40	-0.09499407
168	0x3e010f99	0.12603606
169	0xbd332bd5	-0.043742973
170	0x3d69128d	0.056902457
171	0xbe2b18d1	-0.16708685
172	0x3d83145f	0.0640037
173	0xbdab540e	-0.083656415
174	0xbe2799f0	-0.16367316
175	0xbae069cd	-0.0017121375
176	0xbeec174d	-0.46111527
177	0x3e2f7e79	0.17138089
178	0xbdf01a8a	-0.11723812
179	0x3cbd7ff8	0.02313231
180	0xbe46b41a	-0.19404641
181	0xbd547df5	-0.051877934
182	0x3e015931	0.1263168
183	0x3e28892a	0.16458574
184	0xbd2c7b2f	-0.042109665
185	0x3e014b16	0.126263
186	0xbd22f559	-0.039784763
187	0x3e914dfd	0.28379813
188	0x3dae2ec8	0.085050166
189	0x3de64350	0.112433076
190	0xbdd21678	-0.10258192
191	0x3c8abf9c	0.01693707
192	0x3d951df1	0.072811015
193	0x3cedd7a7	0.029033495
194	0xbdca2995	-0.098712124
195	0x3dfb5b94	0.122733265
196	0x3e803f60	0.2504835
197	0xbdc40f57	-0.09573238
198	0x3d95cffb	0.0731506
199	0xbe91cc15	-0.28476015
200	0x3dca28d9	0.09871072
201	0x3d387a91	0.045038763
202	0x3be60a2e	0.0070202565
203	0xbc178cdb	-0.009249891
204	0xbd74a15e	-0.059724204
205	0xbcf733e9	-0.03017612
206	0x3d28e8ea	0.04123775
207	0x3dd7dccb	0.1054016
208	0x3ca637b7	0.020290239
209	0x3d702bda	0.05863557
210	0x3db13e68	0.08654481
211	0xbc884073	-0.016632294
212	0xbd0ec45d	-0.034855235
213	0x3d95bc78	0.07311338
214	0x3e0addb1	0.13561131
215	0xbcff85e6	-0.031191777
216	0xbce02675	-0.027362088
217	0x3db6b44a	0.08921106
218	0xbe9082e1	-0.28224853
219	0x3db3db78	0.08782095
220	0xbdf641d2	-0.12024273
221	0xbe020d9f	-0.12700509
222	0xbde0b9d7	-0.10972946
223	0xbe655417	-0.22395359
224	0x3eae20b8	0.34009337
225	0xbea7de00	-0.3278656
226	0x3cf36abe	0.029713985
227	0x3d8105fc	0.062999696
228	0x3dbb9eec	0.09161171
229	0x3d18341a	0.037159063
230	0x3da1cd06	0.07900433
231	0xbb8f5135	-0.0043736943
232	0xbd1277b2	-0.03575868
233	0xbd4fb2ed	-0.050707746
234	0x3db12908	0.08650404
235	0x3e5e79b3	0.21726112
236	0xbea0bd53	-0.31394443
237	0x3befc560	0.00731723
238	0xbd922d8c	-0.071375936
239	0x3e516e01	0.2045212
240	0x3e6579bb	0.22409718
241	0x3db7e334	0.089788824
242	0x3d8a41f8	0.06750864
243	0xbdf1a71e	-0.11799453
244	0x3e0a313b	0.13495342
245	0xbe71d395	-0.23615868
246	0x3e7b251e	0.24525878
247	0xbe6be2ab	-0.23035686
248	0xbe799876	-0.24374565
249	0x3e680b06	0.22660455
250	0xbe97a090	-0.29614687
251	0x3e3a747e	0.182085
252	0xbd68da4a	-0.0568488
253	0x3d5f50d0	0.05452043
254	0x3ca070de	0.01958507
255	0x3a76f3af	0.0009420467

fc2.bias f4 [84]
0	0xbdab2698	-0.083569705
1	0x3d6d329a	0.057909586
2	0xbd6a8fb3	-0.05726595
3	0x3e278be6	0.16361961
4	0xbdfc709e	-0.123261675
5	0xbe195400	-0.1497345
6	0x3c536709	0.012902983
7	0x3e54ae1e	0.20769545
8	0xbdb0de08	-0.08636099
9	0x3e5f6bce	0.21818468
10	0xbc4e82b3	-0.012604403
11	0xbdd2461a	-0.10267277
12	0xbd2c777d	-0.04210614
13	0xbdab1479	-0.08353514
14	0x3ca65362	0.020303432
15	0x3e80107b	0.25012574
16	0xbc174721	-0.009233267
17	0xbe44a54a	-0.19203678
18	0xbe0003d0	-0.12501454
19	0x3e22e5ae	0.15907928
20	0xbd11b766	-0.035575293
21	0xbe1917cd	-0.14950486
22	0xbde4ee48	-0.11178261
23	0x3dbb219d	0.091372706
24	0xbc69ebea	-0.014277438
25	0x3dfe4ff6	0.12417595
26	0x3d3588a2	0.044319756
27	0xbe06cd20	-0.13164186
28	0x3e1c5eb4	0.15270501
29	0x3de85d88	0.11345965
30	0xbd5d1260	-0.053972602
31	0xbc223855	-0.009901126
32	0x3dd3c16f	0.10339629
33	0xbe9874aa	-0.29776508
34	0xbe313e1d	-0.1730885
35	0x3e8c20b8	0.27368712
36	0x3ea4826e	0.3213076
37	0x3e514c90	0.20439363
38	0x3dffda2b	0.12492784
39	0x3dbe315c	0.09286758
40	0x3eadf189	0.3397334
41	0xbe5bb2cd	-0.21454926
42	0x3e72d4e9	0.23714031
43	0xbe098235	-0.13428576
44	0xbdf3b56a	-0.11899836
45	0x3deb67aa	0.11494382
46	0xbcc538f7	-0.024075015
47	0x3b9800e3	0.0046387776
48	0x3e92708d	0.28601494
49	0x3e864ed2	0.2623201
50	0xbdcbe86e	-0.09956442
51	0x3d7397a2	0.05947078
52	0xbd53e847	-0.05173519
53	0xbd342bb2	-0.043986984
54	0x3d7d58f4	0.06185241
55	0xbdf67b26	-0.120352075
56	0xbcb57563	-0.0221507
57	0xbd154bbb	-0.036449175
58	0x3cd87abe	0.026425716
59	0xbe20353c	-0.15645307
60	0xbc9ffb62	-0.019529048
61	0x3e758c0c	0.23979205
62	0x3d3e8c3a	0.04652045
63	0xbe0ff928	-0.1405989
64	0x3ac984b5	0.0015374633
65	0xbdaabc50	-0.08336699
66	0xbe3714b4	-0.17878991
67	0xbce6299d	-0.028096015
68	0xbd8fe0ab	-0.07025274
69	0x3d617426	0.05504241
70	0x3e29affd	0.1657104
71	0xbc47a736	-0.012185862
72	0xbe13c336	-0.14429936
73	0x3e008922	0.12552312
74	0x3baa7d9a	0.005202961
75	0x3e6013c8	0.21882546
76	0x3ca33671	0.01992342
77	0x3e0a37e7	0.13497888
78	0xbe0afb61	-0.13572456
79	0x3e96e056	0.2946803
80	0xbda8d84c	-0.0824438
81	0xbe09dbee	-0.13462803
82	0x3e97dbb9	0.29659823
83	0x3e15119a	0.14557496

fc3.weight f4 [10, 84]
0	0xbed78a3d	-0.42097655
1	0x3c7103dc	0.014710393
2	0xbc3bf83e	-0.01147276
3	0xbe8ec171	-0.2788196
4	0xbe45f25b	-0.19330733
5	0xbe66e596	-0.22548518
6	0xbb90c475	-0.0044179508
7	0xbeca3e04	-0.3950044
8	0xbe1ed9b0	-0.15512729
9	0x3cbaad5b	0.02278774
10	0xbde8550b	-0.11344346
11	0xbecd69a4	-0.4011966
12	0xbe965bd5	-0.29366937
13	0xbebd3731	-0.3695617
14	0xbf62fd42	-0.8866769
15	0xbef2943a	-0.47378713
16	0xbe93af65	-0.28844753
17	0xbe3eb2ca	-0.1862289
18	0x3e04fba0	0.12986612
19	0xbd902be3	-0.07039621
20	0x3e6b377f	0.22970389
21	0xbe8f6d2d	-0.28012982
22	0x3d6bd4d9	0.057576034
23	0xbe9e26ce	-0.3088898
24	0xbeef3e15	-0.46727052
25	0xbd8613c6	-0.0654674
26	0xbe24bb03	-0.16086964
27	0xbd771194	-0.0603195
28	0xbe3c5c90	-0.18394685
29	0xbec72b6e	-0.38900322
30	0x3d694f79	0.056960557
31	0xbeef5096	-0.4674117
32	0xbe4af364	-0.19819409
33	0xbcfcfbf6	-0.030881863
34	0x3e00f9ab	0.12595241
35	0x3c3cc928	0.011522569
36	0xbda05966	-0.078295514
37	0xbe8ae764	-0.27129662
38	0xbe913d37	-0.28367016
39	0xbdf572f3	-0.119848154
40	0xbdec7f9f	-0.11547779
41	0xbdb7a90d	-0.08967791
42	0x3e0b9668	0.13631594
43	0x3e27904a	0.16363636
44	0xbd344918	-0.04401502
45	0xbee23bf9	-0.4418638
46	0xbe5d0f5d	-0.21587892
47	0x3dc9c79f	0.09852528
48	0xbeaaff1f	-0.33397767
49	0xbdf0fa99	-0.11766548
50	0xbd947626	-0.072490975
51	0xbe6da41d	-0.23207135
52	0x3da69080	0.0813303
53	0x3bfd6df3	0.0077340542
54	0xbeed59e4	-0.46357644
55	0x3d8b40d0	0.067994714
56	0xbe012250	-0.12610745
57	0xbeae4997	-0.3404052
58	0x3e095e6f	0.1341493
59	0xbd2b0b6e	-0.041758947
60	0xbe85addb	-0.26109204
61	0x3dc5425f	0.096318
62	0xbdd5a319	-0.10431499
63	0x3e6365f3	0.2220686
64	0xbe6175b6	-0.2201756
65	0xbeee9d6b	-0.46604475
66	0x3c984611	0.018588098
67	0xbedb5a4a	-0.42842323
68	0xbef4aa13	-0.47786006
69	0x3d463f79	0.048400376
70	0x3c6bf745	0.014402215
71	0x3d080a2f	0.033212837
72	0x3d87bf4b	0.06628283
73	0x3e1819e9	0.14853634
74	0x3e3274a4	0.17427307
75	0x3c859452	0.016306076
76	0xbe576959	-0.2103628
77	0x3da36e59	0.079800315
78	0xbc54ec01	-0.012995721
79	0x3d82c690	0.06385529
80	0x3c8c557a	0.017130602
81	0x3e0cb2db	0.13740103
82	0xbed9e7c1	-0.42559627
83	0x3e07d7fc	0.13265985
84	0x3df386a4	0.11890915
85	0xbe62c874	-0.2214678
86	0x3e24a7b9	0.16079606
87	0x3dcd8651	0.100353844
88	0xbe67e8ce	-0.22647402
89	0x3da24494	0.079232365
90	0x3e255f71	0.1614969
91	0xbec466d8	-0.38359714
92	0xbea527a7	-0.32256815
93	0xbe402f99	-0.18768157
94	0x3dc69454	0.0969626
95	0x3e527d35	0.20555575
96	0xbee06adb	-0.43831524
97	0xbe530dba	-0.20610705
98	0xbe5f9862	-0.21835473
99	0x3d4a5ba9	0.04940382
100	0x3e1ae95d	0.15128084
101	0x3ce2230a	0.027604599
102	0xbecb2e03	-0.39683542
103	0x3da769e6	0.081744954
104	0xbe9507b3	-0.29107437
105	0xbeab6276	-0.33473557
106	0xbea1bc94	-0.31589186
107	0x3d4e5d68	0.050382048
108	0x3e1ebccf	0.15501712
109	0xbe87c844	-0.26519978
110	0xbdcbae81	-0.09945393
111	0xbf2c78e6	-0.67371976
112	0xbebf8fb6	-0.3741433
113	0xbe572b6b	-0.21012656
114	0x3e608940	0.21927357
115	0xbe3b7f5d	-0.18310304
116	0xbe003381	-0.12519647
117	0xbe82d618	-0.25553966
118	0xbd424081	-0.047424797
119	0xbeca8965	-0.3955795
120	0xbeedfc18	-0.46481395
121	0xbe981d10	-0.29709673
122	0xbe3aff9c	-0.1826157
123	0xbec087ed	-0.37603703
124	0xbe763cc7	-0.24046622
125	0x3e3d4f28	0.18487227
126	0xbe52fda9	-0.20604576
127	0x3e2f5dae	0.1712558
128	0xbd58dfdc	-0.052947864
129	0x3e13c977	0.14432321
130	0x3ddc38e8	0.107530415
131	0xbe6451d7	-0.22296844
132	0xbe98ef07	-0.29869863
133	0x3def71e5	0.116916455
134	0xbe5a2040	-0.21301365
135	0x3c450fa4	0.012027655
136	0xbdc16c45	-0.09444479
137	0xbe12a9f6	-0.14322647
138	0x3db20f6f	0.0869435
139	0xbec71ceb	-0.3888925
140	0xbebc74aa	-0.36807758
141	0x3dbbdf9b	0.09173509
142	0xbc474549	-0.012162515
143	0xbf1a75c1	-0.6033593
144	0xbe6b74d4	-0.22993785
145	0xbe65b3d6	-0.22431883
146	0xbebe1cc6	-0.37131327
147	0x3d687ef2	0.05676169
148	0xbe11c3f3	-0.14234905
149	0xbe651ca1	-0.22374202
150	0xbea059eb	-0.31318602
151	0x3e14c56b	0.14528434
152	0x3de5b565	0.11216239
153	0x3a6af67d	0.0008963121
154	0xbedbab6b	-0.4290422
155	0xbeab2c43	-0.33432207
156	0xbda35ec8	-0.079770625
157	0xbe98ec15	-0.29867616
158	0xbd87f888	-0.066392004
159	0xbca67c3a	-0.020322908
160	0xbe4d6c0c	-0.20060748
161	0xbe9f3aad	-0.31099454
162	0x3d0c6049	0.034271512
163	0xbeacc909	-0.33747128
164	0xbe20bd85	-0.15697296
165	0xbe9fdf7e	-0.31225199
166	0xbe466f76	-0.19378456
167	0xbe9da5e9	-0.30790642
168	0xbc2cc563	-0.010545108
169	0xbe4d2802	-0.20034793
170	0xbdb2a444	-0.087227374
171	0x3d7ffb5e	0.06249558
172	0xbe057b08	-0.13035214
173	0x3df20a1b	0.11818334
174	0x3e262535	0.16225131
175	0x3d8b41f8	0.06799692
176	0xbd3d1405	-0.04616167
177	0x3de188cf	0.11012422
178	0x3c937756	0.01800124
179	0xbcfcbe43	-0.030852443
180	0x3cfffe9d	0.031249339
181	0xbde43f5b	-0.111448966
182	0xbd12b503	-0.035817157
183	0x3d8d61ae	0.069033965
184	0x3da3151a	0.07963009
185	0xbeb7a433	-0.35867462
186	0x3d72abeb	0.059245985
187	0xbf014c90	-0.5050745
188	0xbebec1c1	-0.37257197
189	0xbe3b8933	-0.18314056
190	0xbe8a3300	-0.26992035
191	0xbd1621dc	-0.036653385
192	0x3cad84c4	0.021181472
193	0xbe00b204	-0.12567908
194	0x3e1df6c2	0.15426162
195	0xbefa5015	-0.48889223
196	0x3e5ee10e	0.21765539
197	0xbec9a896	-0.39386433
198	0x3e41b250	0.18915677
199	0xbb20f4a8	-0.002455989
200	0xbeb2ea34	-0.34944308
201	0x3e250762	0.16116098
202	0x3e05c9a1	0.13065197
203	0x3dbe6692	0.092969075
204	0xbe744b31	-0.23856808
205	0xbc938247	-0.018006457
206	0xbdf776f9	-0.12083239
207	0xbec4e35d	-0.38454714
208	0xbed10b7e	-0.4082908
209	0xbe1c0998	-0.15238035
210	0x3dbb17c3	0.091353916
211	0x3d327261	0.04356611
212	0xbc9ab3f7	-0.018884642
213	0x3dc8a0eb	0.09796318
214	0xbe2e1fe7	-0.17004357
215	0x3e0428b0	0.12906146
216	0xbe9cc11d	-0.30616084
217	0xbee9d484	-0.4566995
218	0xbead599d	-0.33857432
219	0x3d96282c	0.07331881
220	0xbdbf8936	-0.09352343
221	0xbc8fe3b7	-0.017564638
222	0xbdb575ee	-0.08860384
223	0xbddbcc15	-0.10732285
224	0x3db16806	0.08662419
225	0xbe81dea8	-0.25365186
226	0xbeaf1b27	-0.34200403
227	0x39ed75b9	0.00045291873
228	0x3df8934b	0.12137469
229	0xbdc56ce0	-0.09639907
230	0xbe73fde3	-0.23827319
231	0xbec49c24	-0.38400376
232	0xbe5ae8b6	-0.21377835
233	0xbe5a0b4f	-0.21293376
234	0xbd9d5522	-0.076822534
235	0x3e2a8438	0.16652
236	0xbf15c2ab	-0.58500165
237	0x3de4cbbd	0.111716725
238	0xbe1ea139	-0.15491189
239	0xbe63acca	-0.22233883
240	0xbd85799b	-0.06517335
241	0x3e35ce74	0.17754537
242	0xbeebdc74	-0.4606663
243	0x3c86b6be	0.01644456
244	0xbdf4638a	-0.11933048
245	0x3dac2606	0.0840569
246	0x3d082dd9	0.03324685
247	0xbe87b9a9	-0.26508835
248	0xbf016497	-0.5054411
249	0xbe39d3d5	-0.18147214
250	0xbea008a7	-0.312566
251	0xbd909b54	-0.070608765
252	0xbe1c0888	-0.1523763
253	0xbe927e81	-0.2861214
254	0x3e147354	0.14497119
255	0xbe025cd4	-0.12730724

fc3.bias f4 [10]
0	0xbe469907	-0.19394313
1	0xbdd697f4	-0.104782015
2	0x3e06388f	0.13107513
3	0xbdd665a0	-0.10468602
4	0xbd519b1e	-0.051173322
5	0xbdab0d40	-0.083521366
6	0xbd966773	-0.0734395
7	0xbc64792f	-0.013944908
8	0x3e668d85	0.22514923
9	0x3df4039a	0.119147494
