mnist/saved_models/model_epoch_44.pth (torch, 181338 bytes, 10 tensors)

conv1.weight f4 [6, 1, 5, 5]
000000 2e 8c 99 be 35 b6 9f bd fe b6 59 3e c1 52 5d 3e
       -0.2998976 -0.07798425 0.21261212 0.216136
000010 70 14 af 3e a7 33 4f be 1a a6 c4 be 6c 61 e4 be
       0.3419528 -0.20234548 -0.38407975 -0.44605577
000020 c2 f4 0f bf 8f dc bc 3d 01 04 0a 3d 71 e5 27 3e
       -0.56232846 0.09221756 0.033695225 0.16396119
000030 6c d0 f3 bd ac d3 9d be 94 80 09 be 9a 60 9a 3d
       -0.11904988 -0.30825555 -0.13427955 0.075379565
000040 61 63 a4 3e ff 91 0e 3e 15 8c 87 3e c0 33 2c be
       0.3210707 0.1392288 0.26474062 -0.16816616
000050 cf 6e 29 3d 81 4f 32 3d 29 87 c6 3d 56 be b1 3e
       0.04136544 0.043532852 0.096937485 0.34715527
000060 89 64 67 3e 7a a1 0f 3e 0c 9f 1a bd 03 ce d8 3d
       0.22596945 0.14026442 -0.037749335 0.105861686
000070 57 9a f2 3e 2c 45 44 3f 53 51 93 3c 1d 1f 3a be
       0.47383377 0.7666805 0.017983114 -0.18175931
000080 c4 13 cf be fe 8b 2e bf 0e 20 56 3e 2a f3 31 3d
       -0.40444767 -0.6818236 0.20910665 0.04344479
000090 82 e8 8c be 58 30 cd bd af a8 ad be 91 51 e4 be
       -0.2752114 -0.100189865 -0.33917758 -0.4459348
0000a0 5b c5 43 3e 59 cd 92 bc 3d 12 06 3c 6b 73 49 be
       0.19118254 -0.017920183 0.008183059 -0.19672935
0000b0 33 e5 cf be 2f 3c b4 3d 6c ab 8f bc 82 94 7e 3d
       -0.40604553 0.088005416 -0.017537795 0.062153347
0000c0 95 1c 9e 3e b8 e2 71 3e 8a a3 0a be c8 f6 8d 3e
       0.3088118 0.23621643 -0.13538948 0.27727342
0000d0 88 6a 34 3e 4b fe 87 3d eb 14 5d 3c 23 8e 41 3e
       0.17618763 0.066402994 0.013493757 0.18901877
0000e0 e4 d9 c4 3e db 67 cc 3d eb d3 d7 3d 00 59 9a 3e
       0.38447487 0.09980746 0.10538467 0.30146027
0000f0 d9 ef 1a 3f 11 bc 73 be 28 b8 d2 be 6b a2 92 be
       0.6052223 -0.2380221 -0.41156125 -0.2863954
000100 1d b9 79 3e 4b 74 05 3e e6 bc 9f be 30 79 ca be
       0.24387021 0.13032643 -0.31198806 -0.39545584
000110 06 c3 16 be 95 e9 3b 3f af 52 07 3d 77 cd 06 3d
       -0.14722833 0.7340329 0.033037838 0.03291079
000120 66 ae ee 3d 80 da b7 bd 3e fe db 3e b2 26 cc 3d
       0.116543576 -0.089772224 0.4296741 0.09968318
000130 14 bd bb bd 48 0a 2b bd 08 d7 b0 3d 69 07 6d 3e
       -0.09166923 -0.04175785 0.08634764 0.23147358
000140 42 5d ab bd a8 23 5c 3e e8 22 36 be 9a 5c 0d bf
       -0.08367397 0.21497977 -0.17786753 -0.55219424
000150 28 56 3a be 49 f5 0a bd 5b 50 82 3e 91 e1 b4 be
       -0.18196929 -0.03392533 0.2545193 -0.35328344
000160 f4 d7 33 bf 7a ac b7 bd 7d 28 b4 3c ea 13 f1 3e
       -0.70251393 -0.08968444 0.021991963 0.47085506
000170 61 4f 29 3e 2c 1a 18 3e 6e 66 65 3e 33 b0 e4 be
       0.16534187 0.14853734 0.22402355 -0.4466568
000180 49 f0 d6 3e 88 c0 e1 3e 5c 32 8f 3e c1 24 0b be
       0.41980198 0.44092202 0.2796811 -0.13588239
000190 2a 34 03 3d f3 1b 10 3e cc 81 a6 3e 10 7f eb bd
       0.03203217 0.14073162 0.32520902 -0.114988446
0001a0 9a 08 e7 bc 6f ec 00 be b5 f3 57 3d c6 80 c4 be
       -0.028202344 -0.12590192 0.05272265 -0.38379496
0001b0 8b 09 b6 be a4 79 2f 3e 98 98 0b 3e 94 c7 78 be
       -0.35554156 0.17136246 0.13632429 -0.24294883
0001c0 47 28 13 bf 56 87 b7 3e 7d 28 ae 3e 5a 3d 3a be
       -0.57483333 0.3584544 0.34015265 -0.18187466
0001d0 05 93 92 be 85 fc 5d bd 6c c9 31 3f 07 34 cb 3d
       -0.28627792 -0.0541959 0.6944797 0.09922033
0001e0 90 d9 7d 36 d6 b7 b0 3d 6c 0d 38 be 60 5e 82 3e
       3.7826576e-06 0.08628814 -0.1797387 0.25462627
0001f0 2e 8b e7 bc 39 c2 18 3e e8 8e 81 be 18 74 2a be
       -0.028264608 0.1491784 -0.2530434 -0.16645849
000200 47 b4 ed ba 9e 22 c0 3e ef 80 b1 be 55 d4 03 3e
       -0.0018135392 0.3752641 -0.3466868 0.12873967
000210 bc 45 8e 3e ef ae 08 3f 5f 39 c4 3e 38 78 ac bd
       0.27787578 0.5339193 0.3832502 -0.084213674
000220 82 42 ff 3c 2a 74 04 3e 0e 33 e0 bd 07 e8 04 be
       0.031159643 0.12934938 -0.10947238 -0.12979136
000230 43 a0 06 bd 92 5e 17 3e eb a3 e1 bd ae 92 bb bd
       -0.03286768 0.1478217 -0.11017593 -0.09158836
000240 0e c9 01 be ce 3d 76 bd c9 d1 42 be 92 c3 c3 be
       -0.12674353 -0.060117535 -0.19025339 -0.38235146
000250 e7 de 32 bd f7 62 ef 3b
       -0.043669607 0.0073054987

conv1.bias f4 [6]
000000 2f 53 c0 bf e2 e5 a1 bf 20 9d ca bf f0 e4 b8 be
       -1.5025386 -1.264828 -1.5829201 -0.36112165
000010 31 d2 2c bf d8 7a d4 be
       -0.67508227 -0.41499972

conv2.weight f4 [16, 6, 5, 5]
000000 ba 8a c2 3c e2 27 8b bd 82 38 00 bf cf f7 70 bf
       0.02374779 -0.067947164 -0.50086224 -0.94128126
000010 9d 5c 93 be fa f2 cc 3d 36 f6 7c bd c6 63 6b be
       -0.28781596 0.100072816 -0.061758243 -0.2298728
000020 01 c7 72 be 89 ad d1 be fb a3 9b bc 0e 59 1f bf
       -0.23708726 -0.4095271 -0.01899909 -0.6224526
000030 3d 89 06 bf a3 99 6b be 48 ae 18 3e 06 81 84 3f
       -0.5255316 -0.23007827 0.14910233 1.0351875
000040 1c 82 73 3e d3 fe 8d 3d 5e a1 33 bd 1d fc 2d 3e
       0.23780102 0.069333695 -0.043855064 0.16990705
000050 ab 70 4a 3f 9a 44 8b 3e e7 7f a5 be 56 d1 1d be
       0.7907817 0.27200776 -0.32324144 -0.15411887
000060 9d 22 ce 3d 32 5d 55 bf 36 28 32 be 3a b0 d4 3c
       0.10065196 -0.8334533 -0.17398152 0.025962938
000070 ef 7e 06 3e 78 34 53 be de c8 f8 3e ad cf 69 3d
       0.13134359 -0.20625484 0.4859075 0.05708282
000080 b3 2e 46 bf 8a fb 4b bf d5 9d 12 be 2d e9 de 3e
       -0.7741501 -0.79680693 -0.1431802 0.43537274
000090 87 68 9f 3e 2b 1e 26 be f3 d8 90 3e 64 41 76 3e
       0.31134436 -0.16222446 0.2829052 0.24048382
0000a0 e2 90 2b 3f 98 e4 96 3e 5e 2d d9 bc 6f 27 5c be
       0.6701795 0.29471278 -0.02651089 -0.21499418
0000b0 f3 3d ea be ac 10 81 3d f5 8a 81 bf 2a 72 a6 bf
       -0.45750389 0.06302008 -1.0120531 -1.300359
0000c0 da b6 1d bf 24 5b 00 3e 5c 28 76 be 57 8b b3 be
       -0.61607134 0.12534767 -0.24038833 -0.35067245
0000d0 ae 96 02 3e f8 4b 09 bf dc ab 04 3f 0d a5 39 3f
       0.12752792 -0.53631544 0.51824737 0.7251747
0000e0 2c ce 3f 3e 40 70 a2 3e 72 2f de 3c cc b8 2a bd
       0.18730992 0.31726265 0.027122233 -0.041680142
0000f0 63 8d 13 3c c3 80 69 bf b2 74 ae bf 30 58 15 be
       0.009005877 -0.912121 -1.3629363 -0.14584422
000100 d4 c6 0f 3f 05 ce 0a 3f 36 89 45 3e 90 ed d2 be
       0.5616276 0.5422061 0.19290623 -0.4119687
000110 c4 13 a3 bb 34 1d 1a be 76 4e 90 3e c5 60 a2 be
       -0.0049767215 -0.15050203 0.2818486 -0.31714454
000120 d5 27 9c be 7d 71 68 bf b3 3f 84 bf f5 f1 68 be
       -0.3049914 -0.9079817 -1.033194 -0.2274855
000130 bf 39 9d be 52 35 08 be bd 3b f0 be 1b dc 82 3e
       -0.3070812 -0.1330159 -0.46920577 0.25558552
000140 af d5 de bd 85 30 0a 3f f7 cd 11 3f 9a 6d 36 3e
       -0.10880601 0.53980285 0.569549 0.17815247
000150 83 57 67 be b2 23 99 bf 9e a8 ed bf 95 f7 dc bf
       -0.22591977 -1.1964018 -1.8567083 -1.7263056
000160 b1 4f ce bf 3b ea 95 bf 93 27 65 bd 1d 5c da bd
       -1.611807 -1.1712106 -0.055945944 -0.106621005
000170 ca 6d 18 3d 8d 07 3b 3e 85 4b f2 3e e4 8e 78 3e
       0.037214078 0.18264599 0.47323242 0.24273258
000180 e7 63 e4 3e c4 47 0c 3e a9 e6 e8 3e f0 e4 4d 3f
       0.4460747 0.13699251 0.4548848 0.80427456
000190 38 1e 9b 3c b6 ba cf 3e ab b8 89 3e 26 63 79 3d
       0.018935308 0.40572137 0.26898703 0.06088557
0001a0 16 49 eb 3d b1 4e 3d be f3 e8 c1 3e 41 6e 1a 3f
       0.114885494 -0.1848705 0.3787304 0.60324484
0001b0 1d db 8b be 98 cc 05 bd 31 66 e4 bf f5 50 56 bf
       -0.27315608 -0.03266582 -1.7843686 -0.8371728
0001c0 4f b1 b5 bf cd 49 aa bf 6b 30 c7 be a5 09 ac bf
       -1.4194735 -1.3303772 -0.38904127 -1.3440443
0001d0 2e 74 90 bf 1e b9 9a be 29 bf 9b 3e 09 30 83 3e
       -1.1285455 -0.30219358 0.3041928 0.25622585
0001e0 06 37 4c 3f d6 83 b3 bd 54 fa a8 3d f4 81 1f be
       0.7977146 -0.0876538 0.08250871 -0.15576917
0001f0 01 a5 f8 be 31 34 36 be 06 7e 59 3e b2 38 12 bd
       -0.48563388 -0.17793347 0.2123948 -0.0356986
000200 d1 af 05 bc eb cd 83 be 87 77 87 3e 9c 48 4e 3e
       -0.008159594 -0.2574304 0.2645838 0.20144886
000210 9a 03 cc 3c e4 ab e4 3d e3 43 57 3d c5 5e 90 3e
       0.024904061 0.11165598 0.052554976 0.28197303
000220 76 5c 0a 3f 92 8d 59 3f 8e af d6 3e 47 e7 2f bd
       0.54047334 0.84981644 0.41930813 -0.042945173
000230 91 d7 f5 be 9d a8 b4 3e 48 28 45 be b5 81 9d bf
       -0.48016027 0.35284892 -0.19253647 -1.2305208
000240 e6 2d fb be 9a 7b e5 bf 5a 5f ef bf fd 05 71 bf
       -0.49058455 -1.7928345 -1.8700974 -0.9414976
000250 08 76 b3 3c ee 1f a9 3e d1 81 59 bd 1c ca 06 3e
       0.021906868 0.33032173 -0.05310232 0.13163036
000260 b7 78 cc 3e d4 8d b9 3c 2c 85 fe 3d f6 87 49 bd
       0.39935848 0.022650637 0.12427744 -0.049201928
000270 5e 9d 8b be de 6c 0e bd 3d fa 8d bd af 07 9a be
       -0.272685 -0.034771793 -0.06932495 -0.30083987
000280 f3 c9 2c be d3 f3 8d be fc 92 c9 be 75 31 c1 be
       -0.16873913 -0.27725086 -0.39369953 -0.37733045
000290 7c bc 31 bf e0 df 85 be c6 34 c8 3e 6d 51 30 3f
       -0.6942823 -0.26147366 0.39102763 0.68874246
0002a0 f7 d8 60 3d 66 41 8e bf d8 cb d1 3e 07 00 3b 3e
       0.054894414 -1.1113708 0.40975833 0.18261729
0002b0 af 5e 9c bf d1 31 97 bf 29 83 52 bf 82 30 2d bf
       -1.2216395 -1.1812078 -0.82231385 -0.6765214
0002c0 67 4f a3 3d e9 33 65 be a3 fe be be c6 0c da 3e
       0.07974129 -0.22383083 -0.37303647 0.4258787
0002d0 86 17 56 3d 1b 5e 30 be 37 91 51 bd 84 43 5b 3e
       0.052268527 -0.17223398 -0.05116388 0.21412474
0002e0 85 12 b3 3c 2c 27 6a bd c0 bc a1 3d 8a 21 93 3e
       0.021859417 -0.057166263 0.07897329 0.28736526
0002f0 c7 ca 9c bd 6d 21 74 3e 5f d3 93 3e 08 41 52 3e
       -0.07655864 0.23840876 0.288722 0.2053262
000300 b8 00 63 bf 11 61 86 bf 67 b2 c3 be 44 82 14 3f
       -0.8867297 -1.0498372 -0.38222048 0.5801127
000310 a9 96 1f 3e 82 36 6d bd fc a4 fd bd 45 60 40 be
       0.15584816 -0.05791331 -0.12384984 -0.18786724
000320 16 da f7 be 63 32 53 bf 20 38 3b be 41 62 81 3e
       -0.48408574 -0.8249876 -0.18283129 0.25270274
000330 83 2a de 3e 96 8f 13 3f 44 7a 17 be ce 55 c2 3e
       0.4339181 0.5764097 -0.14792734 0.3795609
000340 87 7b b1 3e de 3e 29 3f d8 ae bb bd 72 a3 1f bd
       0.34664556 0.6611155 -0.09164208 -0.038974233
000350 3e 7e 91 3e b0 4e 64 3f 8c de 20 3f 4e e5 a3 be
       0.28416628 0.8918257 0.6283958 -0.32010883
000360 27 8f f5 3b b3 15 b2 be 57 72 3e bf 2e 0c d4 3e
       0.0074938717 -0.3478218 -0.7439322 0.41415542
000370 47 0d c2 3c 66 50 b4 bf f4 b6 aa bf 16 e8 14 bf
       0.023687972 -1.4087036 -1.3337083 -0.58166635
000380 46 f4 6a 3e 2a f5 49 be aa 02 b0 bc 4d 23 04 be
       0.22944745 -0.19722429 -0.021485645 -0.12904091
000390 17 a6 07 3f e4 c2 d8 3e 16 74 41 bf d8 eb 23 be
       0.5298781 0.4233619 -0.7556776 -0.16007936
0003a0 cb e0 17 3f c7 5b 19 3f 84 ec 3c 3f f3 e9 12 3e
       0.5932738 0.59905666 0.73798394 0.14347057
0003b0 0d 7f 2f 3e 69 2b 9c be f3 15 3b bc a5 b2 af be
       0.1713831 -0.3050187 -0.011418807 -0.34315982
0003c0 10 e2 a0 3e 2b 43 2f 3f 60 05 66 3f 86 29 32 bf
       0.31422472 0.68461865 0.8985195 -0.6959461
0003d0 c7 39 cd bf a2 39 a0 3e 6c c9 2b bf 42 3c 40 bf
       -1.6033257 0.3129397 -0.6710422 -0.75091946
0003e0 58 bd a8 be 93 57 80 be 85 d1 05 be a1 e5 64 3e
       -0.32956958 -0.25066814 -0.13068207 0.22353221
0003f0 18 ba 68 3c ff a3 3f bd f7 90 40 bf 04 a1 ce 3e
       0.014204524 -0.04678726 -0.752212 0.4035722

conv2.bias f4 [16]
000000 e0 34 bc 3d 46 1e cd be b3 82 f0 bd 7e 19 85 3e
       0.091897726 -0.4006216 -0.11743679 0.25996011
000010 88 f4 37 3d d7 46 31 be 88 ed 0d bf c0 ef 00 bf
       0.044910938 -0.1731218 -0.5544057 -0.5036583
000020 33 7e 51 be 9e a3 0e 3d b0 55 74 be d7 ba 8e be
       -0.20458297 0.034824006 -0.23860812 -0.27876922
000030 41 6f b0 be 7d 05 a2 be 0f 0c 80 3e 29 60 0d be
       -0.3445988 -0.31644812 0.250092 -0.13806213

fc1.weight f4 [120, 256]
000000 3e 5b d8 be e9 c6 2b 3e 26 f3 a8 3e ee c0 e4 3e
       -0.42257112 0.16775097 0.32998008 0.44678444
000010 a4 eb 0c be a3 61 31 bf de 1a 0c 3e 8a ae 73 3f
       -0.13761765 -0.69289607 0.13682124 0.951882
000020 ce 62 bc be dc 58 b3 3e b2 4f f8 be 1c d0 ba bf
       -0.36794132 0.35028732 -0.48498303 -1.459476
000030 4d 10 ee 3e 49 ea 18 3f 61 44 90 bc a1 e4 fe be
       0.46496812 0.5973249 -0.01761073 -0.49783805
000040 5d 99 ba bc 10 aa 8b bd 99 14 70 bc 73 18 17 bf
       -0.022778207 -0.06819546 -0.014653348 -0.5902168
000050 28 61 ce be 1f dc 7e 3e 73 75 8c bd c2 93 10 3f
       -0.403085 0.24888657 -0.06858339 0.5647546
000060 88 7f 23 3f fe f3 eb 3d 1a 4f d2 3e e1 fe 2f bf
       0.6386647 0.11521147 0.41075975 -0.6874829
000070 ac e7 65 3f 15 b6 43 3f da ac cb 3e 62 03 8c bf
       0.8980663 0.7644971 0.39780313 -1.0938532
000080 20 93 6b bd 10 86 94 3e 42 d1 47 3d 92 9d 40 3f
       -0.057513356 0.29008532 0.04878355 0.75240433
000090 67 17 a6 bc 11 7b e0 bc 7d a1 0e bf 6c 10 52 be
       -0.020274831 -0.027402433 -0.5571516 -0.20514077
0000a0 88 c6 2a 3e 80 62 f1 3e ec 57 80 3e 87 04 a9 be
       0.16677296 0.47145462 0.2506708 -0.33011267
0000b0 ba d9 c0 be 63 32 31 bf eb f6 85 bf 46 1b de 3e
       -0.37666112 -0.6921751 -1.0465978 0.43380183
0000c0 21 8e d0 be ab 36 07 be 14 4b 14 be b7 49 1d 3e
       -0.40733436 -0.13204448 -0.14481765 0.15360151
0000d0 61 46 60 3f 85 bd ea 3e b7 ea b7 3e 30 eb 1d be
       0.8760739 0.45847717 0.3592126 -0.15421748
0000e0 58 e4 ea 3e 73 c2 03 bf e1 3b 76 3e db 87 d3 3e
       0.45877337 -0.5146858 0.2404628 0.41314587
0000f0 f1 6d 26 bf 02 ab 07 3f ed b6 32 3f e5 49 24 3f
       -0.6501151 0.5299531 0.6981037 0.64175254
000100 00 55 e4 be 59 7a c7 bd e4 0d 2d 3d 29 8e d8 3e
       -0.445961 -0.09740133 0.042249575 0.4229596
000110 db c7 e9 3e 1c 81 04 3d 9e a7 08 bf 96 9b 1c bf
       0.4566029 0.03234969 -0.53380764 -0.61174905
000120 dd 83 c8 bd de 07 b0 be 89 98 46 3d 79 03 ba 3e
       -0.09790776 -0.34381002 0.048485313 0.36330774
000130 ae 50 41 bf dc b4 82 3e 59 1f 7b 3f 6b b5 46 3f
       -0.7551373 0.2552861 0.9809471 0.7762057
000140 96 ac 8e be 43 4b 2e bf 9b cb 51 bf ab 1b d1 be
       -0.27866048 -0.6808359 -0.819513 -0.4084142
000150 7e 21 c6 3d 93 57 17 3e 6f 79 72 3f d7 60 56 bf
       0.09674357 0.147795 0.9471654 -0.83741516
000160 00 00 d1 3e 6f e2 67 3f 1a 31 72 be 96 d7 c5 3e
       0.40820312 0.90579885 -0.23651543 0.38641042
000170 1d e1 87 3e c1 1e 7a 3f 98 ca 07 3f 0d 2c de be
       0.26538935 0.97703177 0.5304351 -0.43392983
000180 49 79 88 be 8b b9 a1 bd 1f 36 ed be 53 ab 54 be
       -0.26655033 -0.07896718 -0.46330354 -0.2076848
000190 7a 71 83 3e b8 af d5 3e 4d c2 05 3f 24 88 9e be
       0.25672513 0.41735625 0.52249604 -0.30963242
0001a0 d1 89 13 bf 76 d0 10 3f b7 a6 dc bd 93 08 ff 3c
       -0.57632166 0.56568086 -0.10773986 0.031132018
0001b0 24 ad 3b bf c2 a7 dd be 3e 08 53 3e 71 0a 38 bd
       -0.73311067 -0.43292052 0.20608613 -0.044931833
0001c0 73 a4 34 3f 84 0f 09 3d 4a bf 2f be 90 0b 4e bf
       0.7056343 0.033462062 -0.17162815 -0.8048639
0001d0 e6 a0 5a 3e 4c fb 9c 3e 03 f0 d4 bd 7d 4b b4 3d
       0.2135044 0.30660474 -0.10397341 0.08803461
0001e0 42 8b 4e 3f 88 ec 4f 3f c1 52 46 3f ff bb bc bd
       0.8068124 0.81220293 0.7747002 -0.09215545
0001f0 b5 7e e2 3e 96 e2 51 3e 78 7e be bd 08 de 1b 3f
       0.44237295 0.20496592 -0.09301466 0.6088567
000200 9f 85 06 3f 1c 5d 02 be 53 bf 02 3f df 33 e5 3e
       0.5254764 -0.12730831 0.5107319 0.44766137
000210 d9 d3 79 be d3 32 11 3f 44 72 da 3c 5f 2d 5c 3e
       -0.2439722 0.56718177 0.026665814 0.21501683
000220 b7 79 3c bf 09 3f 2e bc 73 90 c6 be a9 cc 02 be
       -0.7362322 -0.010635146 -0.3878208 -0.12773384
000230 7f 06 13 bf fc e3 bb 3d 12 c6 91 3e 1f e7 e6 3d
       -0.5743179 0.09174344 0.28471428 0.112745516
000240 b6 1a 89 be 26 ba 55 be 32 f9 b0 be 06 7b b4 3e
       -0.2677819 -0.20871791 -0.3456512 0.3525011
000250 ea 42 1d be d1 c0 6e be f1 e7 99 3d 7e 9f 01 be
       -0.15357557 -0.23315741 0.075149424 -0.12658498
000260 33 74 0b 3f 5b 00 05 bf 52 f6 11 bf be 98 0d 3f
       0.5447418 -0.5195367 -0.5701648 0.5531119
000270 17 39 54 3f 19 bc 39 be f0 3a c3 bf b7 39 b9 bd
       0.8289961 -0.1813816 -1.5252361 -0.09044211
000280 4b 5c 53 bd 0b cd 3a be fd d9 d7 bb 94 42 7e be
       -0.05160169 -0.1824228 -0.0065872655 -0.24830085
000290 05 31 9a bf dd c3 19 bf a4 b2 fe 3d 19 ac 3b 3f
       -1.204621 -0.6006449 0.12436417 0.73309475
0002a0 3e af dd be 88 ea fa be 4b 4c 15 3f f0 83 6e 3e
       -0.43297762 -0.49007058 0.5831954 0.23292518
0002b0 5a d2 bd 3e 70 3a 98 3e 8b 8e 2c bf a4 55 89 be
       0.37074548 0.29732084 -0.67405003 -0.2682315
0002c0 ea 1b a7 bd de 1f 1d 3f 57 f7 15 3f d3 76 54 be
       -0.08159621 0.6137675 0.58580536 -0.20748453
0002d0 66 d7 0e bf 2c 07 8f be 20 ea ca bd 29 f7 6a be
       -0.5579742 -0.2793516 -0.09907937 -0.22945847
0002e0 f6 e6 e3 be 92 41 91 3e af 8f b7 3e b2 df 79 bf
       -0.44512147 0.2837034 0.3585181 -0.97606957
0002f0 c8 98 e6 3e 67 dc 83 be 0b d0 79 bf 21 0b fe be
       0.45038438 -0.2575409 -0.97583073 -0.49617866
000300 11 ee 35 be 6c 89 8e 3e 38 a7 25 be aa 33 36 be
       -0.17766596 0.2783922 -0.1617707 -0.17793146
000310 5e a8 e0 3d 03 e1 a8 be 39 35 b8 be 3e 18 11 3d
       0.109696135 -0.3298417 -0.35978106 0.03542351
000320 49 0e 6b 3d cf a5 2c 3e 75 8a b7 be cf e4 f8 be
       0.05738667 0.16860126 -0.35847822 -0.48612067
000330 fc 31 fb 3e 17 8b f1 3d 16 ad 9e be bc 89 73 bf
       0.49061573 0.117941074 -0.3099143 -0.9513204
000340 8e 8a ac be 6f 9a e8 3c 99 a4 ba 3d d3 1e c3 be
       -0.3369946 0.028393952 0.09113426 -0.38109455
000350 29 72 ab bc fb c5 8d bd 41 8e 56 be 11 d3 d2 be
       -0.02092846 -0.069225274 -0.20952703 -0.41176656
000360 e5 07 a2 bf 13 25 88 3e b9 e5 d0 3e 4d 93 35 bf
       -1.2658659 0.26590785 0.40800264 -0.7092789
000370 76 05 98 3c 67 60 ae 3e 61 9b 14 3e 75 b1 30 bf
       0.018557291 0.34057924 0.14512397 -0.6902078
000380 9e d7 ea be 2c 84 f6 bd f1 5b 83 bd 71 80 b5 3d
       -0.45867628 -0.120369285 -0.06414021 0.08862389
000390 36 04 96 3e 14 69 d8 3d 24 cd 51 3e f3 78 ad 3d
       0.29300088 0.10566917 0.20488411 0.08470335
0003a0 58 19 0d 3e 19 a1 f3 bd 50 94 60 3f 5d 84 11 3d
       0.13779199 -0.11895961 0.87726307 0.035526622
0003b0 04 29 07 3c 85 c2 f5 3e 8c 09 f2 3d 9f 84 ba be
       0.008249525 0.4799997 0.11818227 -0.36429307
0003c0 38 fa 27 bd 30 96 87 be df c8 29 bf 69 b5 d1 bd
       -0.04101011 -0.2648177 -0.6632213 -0.10239679
0003d0 44 4f 13 bf 24 d0 ff 3e 21 ee 69 3f 76 d6 d0 3e
       -0.57542825 0.49963486 0.9137898 0.4078862
0003e0 37 56 8c 3b a1 09 c2 3c eb ea 10 3f 86 32 48 bf
       0.0042827385 0.023686232 0.56608456 -0.7820209
0003f0 05 3b d1 3e 93 33 0c 3f e6 72 c5 be c4 0a 6f 3f
       0.4086534 0.54766196 -0.38564223 0.933758

fc1.bias f4 [120]
000000 4b 9f b7 be 64 de a7 bf 78 3a 61 3e 73 19 88 be
       -0.35863718 -1.3114743 0.2199496 -0.26581916
000010 5b c7 f7 be fb 88 7e be 32 00 9b be b6 dd 08 be
       -0.48394284 -0.24856941 -0.30273587 -0.13365826
000020 a3 92 9b bf 23 b6 6e bf 30 fe 88 be 81 ef d6 bc
       -1.2154125 -0.9324667 -0.2675643 -0.026237251
000030 85 2a 0f bd e4 df 85 bf b1 9e d4 be ca f5 b3 be
       -0.03495266 -1.0458951 -0.41527322 -0.3514846
000040 a6 ee ac bf 8f fb c1 bd 8d fd ff 3c cf 7b ae bd
       -1.351033 -0.09471809 0.031248832 -0.08519708
000050 ef a3 f0 3e 14 6f 7b 3d 88 cc bf bd 52 e6 59 bd
       0.4700007 0.06138523 -0.09365183 -0.053198166
000060 2b cc 46 3e 56 4f f1 be fb 53 f2 be d1 63 01 bf
       0.19413821 -0.4713084 -0.47329697 -0.5054293
000070 7a 6b 46 bf e5 02 94 3d e2 8a 00 bc 66 e3 d9 bb
       -0.77507746 0.072271146 -0.007845612 -0.0066494225
000080 b1 c1 4e 3c 9e 0c 0f be 39 bb 53 bf 61 74 4a bd
       0.012619422 -0.13969657 -0.82707554 -0.049427394
000090 17 ef 3d be e0 82 11 bd 68 72 12 3e 97 ae 82 bc
       -0.18548237 -0.035525203 0.14301455 -0.015952392
0000a0 ef dc ef 3c 18 50 bd 3d be 6c 22 3e 60 37 15 3e
       0.029280154 0.09243792 0.15861794 0.14571905
0000b0 60 e1 a4 bd dd 29 62 be a4 c3 c4 bd b3 fc f5 bd
       -0.08050799 -0.22086282 -0.09607628 -0.12011089
0000c0 59 8a f4 be 67 bf 1f bf 1b f1 4f bf d5 9f 1c bf
       -0.477618 -0.6240143 -0.8122727 -0.61181384
0000d0 32 90 46 be 30 cd 67 3c 6e f2 0c 3e 50 a7 4b bd
       -0.19390944 0.014148042 0.13764355 -0.04972011
0000e0 13 ae 90 be 36 61 ae bd bd 62 cd be b3 ed 48 be
       -0.28257808 -0.08514635 -0.40114394 -0.19621925
0000f0 8f f1 16 3d 87 3d 4b bf ef 68 23 be fb 7d bd be
       0.036851462 -0.7939076 -0.15957998 -0.37010178
000100 6d 0e 34 bf 2d fb ca bd f2 f6 b2 bd bc 50 02 bf
       -0.7033451 -0.09911189 -0.08738507 -0.5090444
000110 82 4a cb be c2 38 98 3d c0 a9 c7 bd 39 73 12 bf
       -0.39705282 0.07432701 -0.09749174 -0.57207066
000120 06 42 b4 be cc 4d c4 be 33 20 9c bd a7 40 d6 be
       -0.35206622 -0.38340604 -0.07623329 -0.418462
000130 89 ef 03 bf 30 ec 8a be 68 ae b4 bf d5 b9 76 bd
       -0.51537377 -0.27133322 -1.4115725 -0.060235817
000140 c8 fa 35 3b 47 11 3e bf 8a f0 00 be 43 9d 1f bf
       0.0027767885 -0.74245113 -0.12591758 -0.6234934
000150 49 8f c8 bd 2a 70 f9 be 26 bf 95 be 7e b2 4f be
       -0.097929545 -0.48718387 -0.29247397 -0.20282933
000160 e8 f4 87 3e d9 de 02 bd 54 a4 81 bf a2 df 9d bd
       0.26554036 -0.031950805 -1.0128274 -0.0770867
000170 82 23 35 be e8 ea 58 bd 17 9b ce bd b5 84 c2 be
       -0.17689326 -0.0529584 -0.10088175 -0.37991872
000180 f8 fa cb bd b0 f5 3d be f3 2e dc be f7 4c 5f 3d
       -0.09959978 -0.18550754 -0.4300457 0.05451676
000190 c0 d5 b6 bd 17 09 5b bd 9d c8 0d be 55 5e bf bd
       -0.08927488 -0.053475466 -0.13846059 -0.09344164
0001a0 eb fd d7 be df 6c 95 bd 12 55 a8 bd 1c f9 06 bf
       -0.42185912 -0.07296156 -0.08219351 -0.5272386
0001b0 94 3e 97 bd 21 93 9d 3c c2 14 60 bd 66 56 9c bd
       -0.07384983 0.019235196 -0.054707296 -0.07633667
0001c0 8e 12 d0 3e 12 e5 46 bf 81 d9 1a bd 0e b3 97 bf
       0.40639156 -0.77693284 -0.037805084 -1.1851518
0001d0 cd ba 16 3d 27 1a 3c bf ce 7d ba bd c5 ee 1d bf
       0.03679924 -0.73477405 -0.091060266 -0.6169246

fc2.weight f4 [84, 120]
000000 35 e0 ff 3b 49 16 37 3f e6 34 d5 be 67 05 02 be
       0.00780871 0.7151838 -0.4164192 -0.12697373
000010 7b 1a e0 3d 65 f2 aa be 32 5e e2 3e eb 42 02 bf
       0.10942551 -0.33388057 0.4421249 -0.5088336
000020 20 66 08 3f 63 75 7c 3f ce f3 c2 3e 54 90 29 bd
       0.5328083 0.9861662 0.38076633 -0.041397408
000030 68 d8 ba 3d b4 51 f7 3e 44 3c f7 3d 0d 76 10 3e
       0.091233075 0.48304522 0.12072042 0.14107533
000040 a6 13 2c 3a 75 16 94 3e f5 02 03 be 0f da 08 3d
       0.0006564207 0.28923383 -0.12794097 0.033411082
000050 92 a8 d2 be ef 0c 45 be 56 f1 a5 3e e5 67 9b bc
       -0.41144234 -0.19243215 0.32410687 -0.01897044
000060 26 61 c6 3d f1 ec c9 3e 5a 68 30 3f e9 f3 68 bf
       0.09686498 0.39438584 0.6890923 -0.9099718
000070 5a 0f f3 3e e1 4f ee ba ff e3 04 bd 4a a2 bd be
       0.4747265 -0.0018181765 -0.032443997 -0.3703788
000080 a1 c7 81 3e 92 21 91 be 68 bd a9 bd 80 69 37 bd
       0.25347617 -0.28345925 -0.082880795 -0.044778347
000090 ec fa 97 3e be 4b 63 3c 49 46 0c be de 97 f8 bd
       0.29683626 0.013873039 -0.13698687 -0.12138341
0000a0 46 9f 5b 3d a5 fb 4e bd 8e 06 8b bf 84 7c 59 be
       0.05361869 -0.050532956 -1.0861375 -0.21238905
0000b0 ad 21 8d 3c 2e 2b 0e bf e4 d7 4f bc a4 a9 ab 3c
       0.017227972 -0.55534637 -0.01268575 0.020954914
0000c0 85 ef b0 be 9a 15 23 bd e3 30 e2 ba a5 ca 9d 3e
       -0.3455774 -0.039815523 -0.0017257001 0.30818668
0000d0 62 95 64 bf 71 9f dd bc 05 14 8e bf cf bf 62 bd
       -0.8929044 -0.027053567 -1.109986 -0.055358704
0000e0 93 c8 23 3e af 0b 07 bd e9 01 19 be 2c c9 34 be
       0.15994482 -0.032970127 -0.14942135 -0.17654866
0000f0 7e e8 92 bd c2 76 3e 3e 9b 97 41 3e 93 fc 26 bf
       -0.071732506 0.1859999 0.18905489 -0.6522915
000100 8f 1d 8a 3e 01 79 99 bb f2 96 4e bd 98 96 48 3e
       0.26975676 -0.0046836142 -0.05043692 0.19588697
000110 cf 8e e1 bd f3 30 39 3e cd 01 4c bf 91 b0 89 bd
       -0.11013567 0.18085079 -0.7969025 -0.067231305
000120 f7 5c e1 3e 7c b7 2f bf d7 56 5c be 76 e4 d3 bd
       0.4401624 -0.6863935 -0.21517502 -0.1034631
000130 55 8f 9c 3d b6 32 90 bf 73 ac 43 3e 9b c0 82 bd
       0.07644526 -1.1265476 0.19108753 -0.06384393
000140 1e 63 43 be 2d 24 b4 be 0e 64 53 3b 5a 71 91 3e
       -0.19080779 -0.3518385 0.0032255682 0.28406793
000150 42 90 b3 3c a6 fd 46 bf ff a5 b7 bd dc 5b a9 3d
       0.021919373 -0.77730787 -0.08967208 0.08269474
000160 41 15 94 be f4 37 0e 3d 28 0f 2f 3e 69 5f 35 bd
       -0.28922465 0.03472133 0.17095625 -0.044280443
000170 2c 89 45 3e 77 b8 d9 3d 07 b3 67 3b 5a 6f ab be
       0.19290608 0.10630887 0.0035354511 -0.33483392
000180 b7 bc 77 3b 71 32 3b 3f 6f f5 ce 3e 89 39 4d bd
       0.0037801692 0.7312384 0.40421626 -0.050103698
000190 b0 0e b9 bd 87 5c 22 bb d0 f5 11 bf 3a 77 5f 3d
       -0.090360045 -0.002477439 -0.57015705 0.054557063
0001a0 52 73 e2 3e 74 7f 1b 3d 71 f3 b4 bd 15 13 70 be
       0.44228607 0.037963346 -0.08835495 -0.23444779
0001b0 a4 1a 1c 3d 2b fc 8e bd 19 52 5d bd 89 fc 3b bb
       0.038111344 -0.06981691 -0.054033373 -0.0028684458
0001c0 b5 ee cc be 4b 23 42 be 3d 80 26 3c aa cf dd 3e
       -0.4002587 -0.18958776 0.01016241 0.43322498
0001d0 69 68 1e 3f 7e 1a 35 3f 13 40 d9 3e b5 91 d4 bd
       0.6187807 0.7074355 0.42431697 -0.10379354
0001e0 d3 12 dc 3e 57 cb a9 3e a2 5f 32 be 9e ea a2 3e
       0.42983112 0.33162948 -0.17419294 0.31819624
0001f0 53 bb 23 be 5d 5d 00 be 71 0c 59 3d c7 25 d3 be
       -0.15989427 -0.12535615 0.05299038 -0.4123976
000200 d3 2f 44 3b 1e bc 26 3e 47 17 40 3e 1f f2 b0 bd
       0.0029935732 0.16282699 0.1875888 -0.08639931
000210 6d 60 ba 3b 80 3e 9e be e4 6e 58 bd b6 17 26 3e
       0.0056877644 -0.3090706 -0.05284013 0.16219983
000220 a0 00 37 bb 72 36 a4 3e 78 f9 23 be 33 e7 84 3c
       -0.0027923957 0.32072788 -0.16013134 0.016223526
000230 9d 7a 2d bf b0 ae 88 bf 17 d3 09 bf 41 54 a3 be
       -0.6776522 -1.067831 -0.5383772 -0.31900218
000240 0c 2d 1f 3e 1b 2f 97 3e 74 21 8a 3e e6 11 b0 3d
       0.15544528 0.29528126 0.26978648 0.08597164
000250 5a 06 f2 3d 0d 9a a3 3d d2 a0 0e bd 55 1c 9e 3e
       0.11817618 0.07988367 -0.03482134 0.3088099
000260 9a 5f 58 3e 1c eb a1 be 58 ba aa bd 67 68 88 bd
       0.21130219 -0.31624687 -0.083363235 -0.06660538
000270 56 29 59 3e 8e 00 b2 bd b2 fa d9 be 4d 65 0c 3f
       0.21207175 -0.08691512 -0.42574078 0.5484207
000280 20 4e ea bd 18 ee 2a bf f8 a5 06 be a4 fb 16 3d
       -0.114406824 -0.6676955 -0.1314925 0.036861077
000290 b1 94 4b bc dd 6b 4a 3e cf 5f 3a 3d df b7 87 3d
       -0.0124255875 0.19767709 0.045501526 0.066268675
0002a0 7e 26 96 3e bf a6 25 bf 31 9e 8b 3e 08 3c 2d be
       0.29326242 -0.6470756 0.27269128 -0.16917431
0002b0 f9 be 3e 3e 30 30 36 be c6 e6 ee bd 33 0f 8d bc
       0.18627538 -0.1779182 -0.1166511 -0.017219162
0002c0 35 41 e0 3b 46 f9 8c bd fd 60 87 3e 69 37 74 bd
       0.006843711 -0.06883483 0.26441184 -0.059623156
0002d0 62 28 a5 be b5 51 23 3e bc d7 be 3e 7b 06 d7 bd
       -0.32257372 0.15949138 0.37273967 -0.10499283
0002e0 08 46 bb be 04 1a 90 bd 3c 8a 75 3b 85 39 b2 3b
       -0.36576867 -0.07036212 0.0037466427 0.005438986
0002f0 44 d6 60 3d c4 ba c1 be 49 7b 62 3c 11 53 ed be
       0.05489184 -0.37837803 0.013823339 -0.46352437
000300 2a b5 23 be 1f b0 d3 3d e4 b1 ac bc 73 df 10 3e
       -0.15987077 0.10336327 -0.021080919 0.14147739
000310 b2 55 d5 3e b4 50 98 bd 13 6d 32 3e 0b 7a 0a bd
       0.41666943 -0.07437268 0.17424421 -0.033807795
000320 62 f7 87 3e e9 40 1e bd f7 9c 3a bf df b2 6e 3f
       0.26555926 -0.038636122 -0.7289576 0.93241686
000330 ea dd 43 3d 0b 1c 17 3f 4a 86 f5 3d a3 04 3d 3e
       0.047819056 0.59027165 0.11988504 0.184588
000340 20 49 2a bf 1b 93 e3 bd 4f 9c 89 3d f1 33 81 3d
       -0.6651783 -0.111120425 0.067192666 0.06308735
000350 ea 4a 3c bf 52 97 19 3d 40 b3 fc be 25 01 42 bf
       -0.7355181 0.037497826 -0.49355507 -0.75782996
000360 6d ea 9a 3c 2e 9b f5 3d 02 a1 07 3e 79 aa 39 bf
       0.018910611 0.11992489 0.13245013 -0.72525746
000370 05 48 aa be 1a eb 96 3d 28 80 a8 bf 69 01 f2 bd
       -0.33258072 0.07369061 -1.316411 -0.11816675
000380 2b 54 ee bd 48 54 7b bd ed 9f 3e bd d1 a2 7f 3e
       -0.116371475 -0.061359674 -0.046539236 0.24964453
000390 4c fe b0 bd fc 10 8f bd d9 44 99 bd c8 06 ad be
       -0.08642253 -0.069856614 -0.07483835 -0.33794236
0003a0 7a fe 0b bf 29 84 33 be 95 c5 1e 3e bc e9 1e 3e
       -0.54685175 -0.17530884 0.15505059 0.1551885
0003b0 70 4a eb 3d 22 f4 fd be 99 a2 12 bc 56 5c 63 bf
       0.11488807 -0.4960032 -0.008949899 -0.8881277
0003c0 07 53 90 bd 04 56 4f 3e 69 57 e1 bd 5e 2a 56 3e
       -0.07047086 0.20247656 -0.11003 0.209146
0003d0 6b b1 60 3e 2c 35 23 3c e0 2c 29 3d 06 3b 63 bd
       0.2194268 0.009961408 0.04130256 -0.05547621
0003e0 f9 98 1a 3f b2 71 37 bd f9 c1 15 be 70 7f e4 bd
       0.6038967 -0.044786163 -0.14624776 -0.11157119
0003f0 68 ee ac bd 4e ef 8d 3d 1c db bd 3d 58 a3 0b be
       -0.0844391 0.06930409 0.092703074 -0.1363653

fc2.bias f4 [84]
000000 89 ff c8 be e4 10 e8 be 95 b4 0b be e9 5b 54 bf
       -0.39257458 -0.45325387 -0.13643105 -0.82952744
000010 05 a4 f6 be 77 ef 0c bf 5b d6 fe be 90 93 aa be
       -0.48172012 -0.55052894 -0.49772915 -0.33315706
000020 37 c1 5f bf 25 98 02 bf 59 8f 4a be 75 e7 31 bf
       -0.874042 -0.51013404 -0.19781245 -0.694938
000030 3e cd ed be 06 70 d3 be bb 6b 48 3d 65 85 48 be
       -0.4644565 -0.41296405 0.048930865 -0.19582136
000040 6d a9 40 bf 51 90 7a be 8a a2 96 bf 86 a7 c3 be
       -0.75258523 -0.24469115 -1.1768353 -0.38213748
000050 a3 84 12 bf c7 0a 15 bf 31 07 99 bf 9f ff 48 bf
       -0.5723364 -0.5821957 -1.195532 -0.78515047
000060 ac b4 70 bf 59 b2 97 bf f3 5e 07 be 0b 47 59 bf
       -0.94025683 -1.1851302 -0.13219814 -0.8487403
000070 93 84 4f bf d2 ba 24 bf 0f 5b 36 bf 94 86 22 bf
       -0.8106167 -0.64347565 -0.71232694 -0.634866
000080 d3 b5 96 bd ac 55 96 be dd 81 77 bf eb 9e 97 be
       -0.07358899 -0.29362237 -0.9668253 -0.29613432
000090 aa ee 88 be e1 0d a7 bf 64 93 39 bf 45 7e 11 bf
       -0.26744586 -1.305111 -0.72490525 -0.56833297
0000a0 7f 10 2d bf 1e 2b 26 bf a1 e9 3e bf 91 a3 4a bf
       -0.67603296 -0.6490954 -0.7457524 -0.7915583
0000b0 88 02 82 bf 6a fc 95 bf 06 14 c5 be ba 29 18 bf
       -1.0157022 -1.1717656 -0.3849184 -0.5943867
0000c0 98 0c 78 bf b7 d0 86 bf da 2c e9 be 3e 78 7f bf
       -0.96894217 -1.0532445 -0.45542032 -0.9979285
0000d0 f6 e2 e1 be 78 0a 9b be 74 29 25 bf 81 50 59 be
       -0.4411847 -0.30281425 -0.6451638 -0.21222116
0000e0 f2 e4 f1 be a3 be 7c bf 2d ee 7e bf 75 15 e6 be
       -0.47244984 -0.9872839 -0.9958218 -0.44938245
0000f0 c7 e5 40 bf 8f 61 23 be 1d a4 78 bf d6 9f 75 be
       -0.7535061 -0.15955184 -0.97125417 -0.23986754
000100 77 43 7e bf ff a3 0e bf c7 98 d8 be f4 d5 05 3d
       -0.99321693 -0.5571899 -0.4230406 0.032674745
000110 37 58 02 bf 81 86 70 bf f8 ce 61 bf 21 7c 61 bf
       -0.50915855 -0.93955237 -0.88206434 -0.8808003
000120 c0 ee 4b bf 08 ba dc 3d 08 0c 59 bf a5 35 50 bf
       -0.7966118 0.1077767 -0.84783983 -0.81331855
000130 3a d3 d8 be c3 cf c1 be a3 3d c1 be 6d 04 2f bf
       -0.42348653 -0.37853822 -0.37742338 -0.6836613
000140 d0 08 44 bf 12 4a 1a bf 4c 6d d9 be 11 61 df bd
       -0.76575947 -0.6026927 -0.424662 -0.10907186

fc3.weight f4 [10, 84]
000000 92 84 fc bf f9 0b a2 bf df e7 d5 bf 63 5c 23 bf
       -1.9727957 -1.2659904 -1.6711386 -0.63812846
000010 59 62 aa bf 35 03 06 bf 8a 8a 8f bf 44 d3 35 bf
       -1.3311263 -0.52348644 -1.1214154 -0.7102549
000020 0d 45 2f be 1b a2 f4 be 23 24 49 be b3 9e cc bf
       -0.17116185 -0.47779927 -0.19642691 -1.5985931
000030 fb 52 67 3c b3 ee 6d bf 88 3f b7 bf c0 92 8e bf
       0.014118905 -0.9294235 -1.4316263 -1.1138535
000040 f0 3c be be 67 9c ed 3d 14 17 a8 be 2a 0f 67 bf
       -0.37155867 0.11602097 -0.32830107 -0.90257514
000050 d0 b2 51 bf 29 51 c7 3d f4 62 5c be e1 cf 19 be
       -0.8191347 0.09732277 -0.21522123 -0.15020706
000060 94 30 a2 be dc 69 84 bf 80 c2 5a be 03 47 62 bf
       -0.31677687 -1.0344806 -0.21363258 -0.88389605
000070 10 d2 a7 be 76 e2 bc be 4b 5d b5 bf 27 2d e9 bd
       -0.32777452 -0.36891526 -1.4169096 -0.11385565
000080 4c ff d9 bd 6d d5 19 bf 4b 64 93 be 98 71 ca be
       -0.10644397 -0.60091287 -0.28787455 -0.3953979
000090 23 3b 4c bf e7 83 93 be 4d df ed be 71 1c 6d bf
       -0.79777735 -0.2881157 -0.46459427 -0.92621523
0000a0 83 6e 31 be 2d 37 59 bf 08 03 8e be 67 54 42 bc
       -0.17327313 -0.84849817 -0.27736688 -0.011860943
0000b0 ab e8 4d bf 7c d6 50 bb e0 f9 7d be 7d 3c 92 bf
       -0.8043315 -0.0031866124 -0.24802351 -1.142471
0000c0 a4 6a 42 bf 40 f8 b2 bd 6b 1b 68 bf a4 81 02 3e
       -0.7594397 -0.08738756 -0.90666837 0.12744766
0000d0 70 33 2a 3e f7 00 d2 bf 3b 1d 79 bf ee 45 97 bf
       0.16621184 -1.6406544 -0.9731023 -1.1818216
0000e0 b3 5c d5 be 4f 12 f2 bd fa 0a ae be 66 30 0f bf
       -0.41672286 -0.11819898 -0.3399275 -0.55933225
0000f0 33 19 cc be a4 1b 22 c0 09 e2 d7 bd 31 11 8f bf
       -0.39862975 -2.532937 -0.1054116 -1.1177121
000100 5b 30 69 be 23 92 38 bf 1e 7f 13 be 96 e7 3e bf
       -0.22772352 -0.72097987 -0.1440396 -0.7457212
000110 a6 0b 1e bf a8 c3 6e bf dd 3b d4 be 91 99 07 bd
       -0.61736524 -0.932673 -0.41451922 -0.033105437
000120 54 fd eb be cc 8a 5c bf 13 05 3a bf 9d 96 29 bf
       -0.46091712 -0.8614929 -0.7266399 -0.6624544
000130 f7 1d 62 bf ad 08 42 bf 59 1b 1d 3e 11 d6 ac 3d
       -0.8832697 -0.7579449 0.15342464 0.084392674
000140 ca 6f 4a bf 75 1f 63 bf ba dc fe be f8 44 6b bf
       -0.79076827 -0.88719875 -0.49777776 -0.9190211
000150 f8 4f 20 be 7c 85 f4 be ff b2 7a bf d8 f4 1a 3d
       -0.15655506 -0.4775809 -0.97929376 0.037831157
000160 b1 60 a7 bf d6 09 9d bf 42 95 d0 bf 36 4e 5b be
       -1.3076383 -1.2268627 -1.629555 -0.21416554
000170 7c d6 b0 bf 65 3e 2a be 39 ba 9d bf fb 15 a2 bd
       -1.3815455 -0.16625364 -1.2322456 -0.07914349
000180 3f 67 1a bf eb ca a5 be a4 a1 05 bf 6c b1 ae bf
       -0.6031379 -0.32381377 -0.5219977 -1.3647895
000190 43 ba 4c bf d6 79 f4 bf ff 6f bc bf 56 72 e1 bf
       -0.7997171 -1.9099681 -1.4721678 -1.7613018
0001a0 f5 20 4f bf 1b b7 82 bf 30 7e 95 be 44 74 14 c0
       -0.80909663 -1.0212129 -0.29197836 -2.3195963
0001b0 e4 c1 aa be 01 fb 88 bd 90 97 a6 bf 4a 94 27 bf
       -0.33351052 -0.066885 -1.3015003 -0.65460646
0001c0 b6 de 8d bf 63 0c 46 bf 3b cf 87 be 13 b0 9c be
       -1.1083591 -0.7736265 -0.26525292 -0.30603084
0001d0 40 5d 3d 3c 09 0a 01 bf 5a 52 9a be 8f 3c 8b be
       0.011557877 -0.5040594 -0.30140954 -0.2719464
0001e0 97 7f 70 bf b4 7f 2f be a9 2f 06 bf 69 7f ab be
       -0.93944687 -0.17138559 -0.52416474 -0.33495644
0001f0 fc 6f 42 bc 04 3f a2 bf 3a ec 80 3c c5 62 a6 bf
       -0.0118675195 -1.2675481 0.015737642 -1.2998892
000200 51 bf 8b bf 1f df 9a be e7 56 3a bf e1 0d 8a 3d
       -1.091776 -0.30248353 -0.7278885 0.067409284
000210 ec ee a7 be df 46 d3 be 1e b2 5f bf f7 8e a7 bf
       -0.3279947 -0.41265008 -0.8738116 -1.3090504
000220 44 3e 24 c0 97 84 65 be f1 53 fc be 1e 36 1d bf
       -2.5663004 -0.2241386 -0.49282792 -0.614107
000230 d6 f6 3c bf b6 21 29 bf 1f 54 bb bf 88 b5 c9 bf
       -0.7381414 -0.66067064 -1.4635047 -1.5758524
000240 9f 91 50 bf e3 48 80 bf 1d 54 9b bf 1e 3c cf 3d
       -0.814722 -1.0022243 -1.2135044 0.10118888
000250 cf d7 7b bf 2d 4b b6 bf 55 f9 36 3e 31 89 b4 bf
       -0.9837617 -1.4241692 0.1786855 -1.4104367
000260 b5 d3 6b bf ee f6 c1 bd 5d b1 53 bf 24 4c ba be
       -0.92119914 -0.09470926 -0.8269251 -0.36386216
000270 89 9a 5b bf 8e 1e fb 3d 26 fc 0c be 80 93 af bd
       -0.85782677 0.12261687 -0.13768062 -0.08573055
000280 6b b6 38 3d b6 df 54 bd 4f 3d ac bd e9 86 b7 3d
       0.045095842 -0.05197116 -0.08410131 0.08961279
000290 aa cd 89 be ba 0c 45 bd 2c 62 81 3d c2 23 b7 bf
       -0.26914722 -0.04810784 0.06317553 -1.4307787
0002a0 c3 c2 9d bd fa 34 f9 be ae 26 ad be 5b fd d1 be
       -0.077031635 -0.4867323 -0.33818573 -0.41013607
0002b0 84 a6 90 bf 31 cc 06 bf a9 c3 a7 be 12 13 8a be
       -1.1300817 -0.5265532 -0.32766464 -0.26967674
0002c0 0a c7 29 bf 71 60 cf 3c 41 c1 48 be 57 1e e7 bf
       -0.66319335 0.025314542 -0.1960497 -1.8056134
0002d0 16 2b 48 be 4a c4 75 be c8 d4 7d bd 39 d9 6b be
       -0.19547686 -0.2400066 -0.061970502 -0.23032083
0002e0 e1 13 98 3d 6f cf 34 bf ad 46 17 3c f1 1c 83 bf
       0.074256666 -0.7062902 0.009233159 -1.0243207
0002f0 d0 20 d0 be 0d 59 31 be fb 3d 92 bf 96 f1 9b be
       -0.40650034 -0.17319126 -1.1425165 -0.30457753
000300 08 3b 0f bf 91 b1 8b bd c8 09 4f be a9 c6 e6 be
       -0.5594945 -0.068209775 -0.20218575 -0.4507344
000310 aa df 3f bf 0f 74 1a 3d 0b 9a 87 bf c7 31 22 bf
       -0.7495066 0.03770834 -1.0593885 -0.63357204
000320 33 e3 03 be e0 52 59 bf 9d c9 73 bf 98 31 0c bf
       -0.12879638 -0.8489208 -0.9522951 -0.54763174
000330 f2 8d 9a be 3a ce 88 be c6 0c 07 bf 5f 33 9e be
       -0.3018642 -0.26719838 -0.52753866 -0.30898568
000340 e5 a2 cb be 74 48 5d be 09 90 75 be 47 d9 84 bf
       -0.39772716 -0.2160967 -0.23980726 -1.0378808
000350 7f ec 64 be 80 60 0d bf 0a a7 2d bf fe b1 c9 be
       -0.22355841 -0.5522537 -0.67833006 -0.3939361
000360 74 7d b0 bf 35 32 53 bf e5 f3 d4 bf 7a b0 4f bf
       -1.3788285 -0.82498485 -1.6636931 -0.81128657
000370 74 c7 86 bf 1e c0 f1 be 37 39 58 bd 18 70 ac bf
       -1.0529618 -0.47216886 -0.05278894 -1.3471708
000380 61 97 5f bc 83 ef 64 bf 59 b8 62 be c7 19 f9 bf
       -0.013646931 -0.89427966 -0.22140636 -1.9460992
000390 6d 72 09 bd b2 22 96 bf 34 60 38 bf fe 40 86 bf
       -0.03355639 -1.1729338 -0.72021794 -1.0488584
0003a0 59 7b af be 71 c2 a0 bf 9c a9 8f bf 51 67 e0 be
       -0.34273794 -1.2559339 -1.1223636 -0.43828824
0003b0 5d ae 51 bf 14 dc 84 be ce d3 a7 be 52 e9 26 3e
       -0.8190668 -0.25949156 -0.32778782 0.16299942
0003c0 37 8a 6a bf 2a b5 a4 bf 48 2a 19 bf f1 4c 56 bd
       -0.9161715 -1.2867787 -0.5983014 -0.05231947
0003d0 0e 33 9a be b8 c6 28 be 33 cb 0c be 2b c3 32 3e
       -0.30117077 -0.16482055 -0.1374939 0.17457263
0003e0 df 51 84 bf 1d 7a 86 be 00 90 78 bd f9 5b 83 bf
       -1.0337485 -0.2626504 -0.060684204 -1.0262443
0003f0 d2 6d 1c 3e 19 5f 0b be 71 a6 b2 be 8b a4 e4 3d
       0.15276268 -0.13610496 -0.3489261 0.111641966

fc3.bias f4 [10]
000000 04 1d f3 be c0 bf 14 be c6 8c 63 be e2 78 b6 bd
       -0.47483075 -0.14526272 -0.2222167 -0.08909775
000010 fc 5d a6 bd 35 61 d7 be af 7f be be 98 b5 e3 bd
       -0.08123395 -0.4206635 -0.3720679 -0.11118621
000020 42 71 06 3f af 52 80 bd
       0.5251657 -0.06265771
