mnist/saved_models/model_epoch_3.pth (torch, 181324 bytes, 10 tensors)

conv1.weight f4 [6, 1, 5, 5]
000000 d9 86 98 bd f7 45 24 3e a1 87 7d 3e a0 35 fe 3e
       -0.07447595 0.16042314 0.2475877 0.49650288
000010 13 0a 88 3e b3 07 97 3e f4 3a cf 3e ca 97 9d 3e
       0.26570186 0.29498062 0.40474665 0.30779868
000020 9a 11 fa 3d 42 f2 b4 3e 1b fd 88 3e b7 cb 50 3e
       0.122103885 0.35341078 0.26755604 0.20390211
000030 1d 72 09 be bc 6d 3f be be b6 b2 bd 90 57 f1 bc
       -0.13422437 -0.18694204 -0.087262616 -0.029460698
000040 c2 1c 88 be 65 08 a6 be ad 2b b9 be e1 50 61 be
       -0.2658444 -0.3242828 -0.36166134 -0.22003509
000050 fa 20 6b be 47 21 b5 be d7 03 73 be b8 97 1a 3e
       -0.22961798 -0.3537695 -0.23731934 0.15096939
000060 6a fa b3 bd 8c 3a e7 bd 5b 16 10 3e a6 22 fc 3d
       -0.08787997 -0.11290464 0.14071028 0.12311296
000070 06 0e b5 3d 1d 21 55 bd 92 df ba bd 48 d4 fe 3d
       0.088405654 -0.052033532 -0.09124674 0.12442833
000080 6a 42 f5 3d 5a 72 13 3d a2 4b 68 3d 10 d4 09 be
       0.11975558 0.035997726 0.056712754 -0.13459802
000090 db 28 24 bb b7 7a 21 3e 3f 06 3c 3e 8c c8 a7 bd
       -0.0025048766 0.15769468 0.18361758 -0.08192548
0000a0 70 f2 da bd 14 1c 84 be 1a 07 da bd 3e 5c ee bd
       -0.106907725 -0.25802672 -0.10645886 -0.116386876
0000b0 11 b2 eb bd 39 5c 46 3c 36 7c 5c bd 01 7e 01 3e
       -0.11508573 0.0121069485 -0.053829394 0.12645723
0000c0 e8 c2 29 3e 6c 41 0b bd 7f 2d 50 bc 53 d2 14 be
       0.16578257 -0.033997938 -0.01270616 -0.14533357
0000d0 44 e6 38 be 9b 8c a4 3c 84 27 a9 be 14 fa b4 bd
       -0.1805659 0.020086577 -0.3303796 -0.08836761
0000e0 2f 75 00 bd 8d 60 9e 3e c6 fa 00 3f 00 2c 18 3e
       -0.031361755 0.30933037 0.5038265 0.14860535
0000f0 4f 04 97 3e 75 ba 97 3e f3 ae 03 3f a9 05 f3 3e
       0.29495475 0.29634443 0.51438826 0.47465256
000100 aa 1f f9 3d 1b c7 2e be 25 b6 96 be 54 5c bd 3c
       0.121642426 -0.1706814 -0.2943584 0.023115315
000110 98 1e 77 3e 08 25 80 3e 22 1b 63 be 74 29 dd be
       0.24132764 0.25028253 -0.22178319 -0.4319569
000120 ed bf 1d bf 65 df 2c be 27 9e fb 3d 63 39 e9 bb
       -0.6162098 -0.16882093 0.122860245 -0.0071174367
000130 0e fd 43 3e 20 28 93 bd be 90 0c 3d 59 4f 34 3e
       0.19139501 -0.071853876 0.034317724 0.17608394
000140 1f 71 99 3d 27 d8 84 3d 8f ee 3b be bd 49 62 3e
       0.07492279 0.0648654 -0.18352722 0.22098441
000150 69 ea a4 3e a5 6b 2d 3d 47 41 21 be 4a 83 ab be
       0.3221009 0.042338986 -0.15747558 -0.33498603
000160 c5 97 4e bd 71 8b bd 3e ee b1 0d be d1 33 80 be
       -0.050437707 0.37020448 -0.13837406 -0.25039533
000170 84 bb 89 be 33 69 b0 3e 42 20 0f 3f ce 38 5e be
       -0.26900876 0.3445526 0.55908597 -0.21701357
000180 1a 25 81 bd eb d0 5d 3d 77 e9 69 3d c8 c0 a2 3e
       -0.06305905 0.054154318 0.057107415 0.31787705
000190 ff cf 3a 3d 22 b1 e3 bd 0b 9e 59 3e 23 06 46 bd
       0.045608517 -0.1111777 0.21251695 -0.048345696
0001a0 74 d3 6b 3e 89 7b 1d 3d 02 7b 77 be 6e 10 17 be
       0.23029882 0.03844789 -0.24168018 -0.14752361
0001b0 f9 40 13 be 58 88 94 bd 11 e2 b3 bd 9d 20 46 be
       -0.14380254 -0.07252568 -0.08783353 -0.19348378
0001c0 1c fd 4a bd a3 a2 8d be 53 0f 18 be 7e b3 93 3d
       -0.04955779 -0.27663144 -0.14849596 0.0721197
0001d0 88 a5 b2 bd 94 09 2a be 3b ad 00 be fe fd 3d bd
       -0.08722979 -0.16605216 -0.12566082 -0.046384804
0001e0 fb df 88 3e 24 70 22 3e c9 bf 89 3d be 57 81 3e
       0.26733384 0.15863091 0.06726033 0.25262254
0001f0 1e f4 7e 3e 67 84 16 3d 07 f8 8c 3e a0 73 aa 3c
       0.24897811 0.036747362 0.2753298 0.020807087
000200 40 fc 1c 3d d1 d1 f8 3d 9c 92 3e 3d 57 01 8c 3e
       0.0383265 0.12149394 0.046526536 0.27344772
000210 4d 00 2c 3e 85 1a 71 bd 94 67 42 be 57 b9 57 3e
       0.1679699 -0.05886318 -0.18984824 0.21066795
000220 7f 85 d0 3e a5 db 35 bd 24 14 c6 be 2f 47 ce bd
       0.4072685 -0.044398922 -0.3868724 -0.10072171
000230 77 c0 a2 3e f4 f7 88 3e b7 9b da be c1 a6 91 bd
       0.31787464 0.26751673 -0.42696926 -0.07111884
000240 50 b5 8f bd dc b5 43 3e 58 a3 58 bb 83 37 5c be
       -0.070170045 0.19112343 -0.0033056345 -0.21505551
000250 62 fa 2f be d7 ce 0c be
       -0.17185357 -0.13750778

conv1.bias f4 [6]
000000 2b 3e 81 3e 25 49 e6 be 95 db 4f 3e 39 70 11 bd
       0.25242743 -0.4497768 0.20298608 -0.035507414
000010 6f 70 a3 be db ca 02 bd
       -0.31921718 -0.03193174

conv2.weight f4 [16, 6, 5, 5]
000000 8d ba 50 3a 46 75 a9 bd 1a 71 82 3d 51 13 f4 3d
       0.00079623685 -0.08274321 0.06369229 0.11917747
000010 53 da a1 3c c4 6c c2 3d 90 76 82 3d 9e e8 4b 3e
       0.019757425 0.09493402 0.0637027 0.19912955
000020 07 c6 e7 3d 54 99 2e 3e 06 e7 3d 3d 46 00 ef 3d
       0.113170676 0.17050678 0.0463629 0.11669974
000030 9f 0e be 3d 54 ab b0 bd 22 14 bd bc 90 7b 87 be
       0.092801325 -0.08626428 -0.02308089 -0.26461458
000040 1a 8c 65 be 74 8e 52 be d8 6c a5 be 10 59 90 be
       -0.22416726 -0.20562154 -0.32309604 -0.2819295
000050 a6 41 8e be 8a 8e b9 be b4 4b da be d2 bc fd be
       -0.2778446 -0.3624156 -0.42635882 -0.4955812
000060 26 a6 df be 30 49 e6 3c 0e b2 10 bb ed 55 8f be
       -0.4368145 0.02811107 -0.0022078785 -0.27995244
000070 ee a5 37 be 10 20 21 be 2c e5 27 3e a4 5c e6 3c
       -0.17934391 -0.15734887 0.16396016 0.028120346
000080 3a 77 78 be 8c 6c 1a be 70 5d cb bd 54 02 e6 3d
       -0.24264231 -0.1508047 -0.09929931 0.11230913
000090 81 a5 4f 3d fd 97 d6 bb 7d 4b f5 bc f9 b8 97 bd
       0.050694946 -0.00654888 -0.029943222 -0.074083276
0000a0 f0 53 89 bc d5 bc 8c 3c 70 90 ba bd 46 a6 4e 3d
       -0.016763657 0.017179886 -0.091095805 0.05045154
0000b0 9f e8 4b 3d ae 5f 26 be 74 4c cd 3a db 55 d2 bd
       0.04978239 -0.16247436 0.0015663044 -0.10270282
0000c0 2d f1 5c 3b dd b4 d1 bd 0c a8 29 3e 72 bf 94 3d
       0.0033713088 -0.10239575 0.16568011 0.07263078
0000d0 3a 57 a6 3c cf 68 a0 bd 7c d8 c6 3d 39 c5 b8 bb
       0.020305265 -0.07832491 0.0970926 -0.005638745
0000e0 3a 34 eb 3d f9 24 28 3d 80 2b 8b 3c 8e 31 1c 3e
       0.11484571 0.041050885 0.016988516 0.15253279
0000f0 f6 a2 0c 3c 72 80 11 3e ed 6f e7 bd 51 b7 5d be
       0.008583775 0.14209154 -0.11300645 -0.21651961
000100 dc cc 13 be b7 b8 3d be 23 6b db be aa d0 03 bf
       -0.14433616 -0.18527494 -0.42855176 -0.5149027
000110 e8 bc c8 be 23 c7 b1 be dd 7e 04 bc 5f 7f 80 be
       -0.39206624 -0.34722242 -0.008086887 -0.25097176
000120 40 f3 e6 be c2 57 16 bf 6d 9f d6 be 5e 25 03 3e
       -0.4510746 -0.5872766 -0.41918507 0.12807223
000130 b4 cd 12 3e f4 0d e7 bc dc 19 b4 3d 67 e1 c6 be
       0.14336282 -0.028204896 0.08793995 -0.38843843
000140 62 ed 8e 3e 02 46 bf 3d f4 e2 54 be 99 b5 d8 bc
       0.27915484 0.09339525 -0.20789701 -0.02645378
000150 3d eb 82 bd d0 d8 45 bc d3 50 33 be b1 f1 c1 be
       -0.063925244 -0.012075618 -0.175113 -0.37879708
000160 f7 e9 8a be d4 78 8f be 27 18 0f be 3a 79 b9 be
       -0.27131626 -0.28021872 -0.13974057 -0.362253
000170 d4 18 1c bf 19 7b b7 be c1 35 a0 be 89 e8 52 3b
       -0.60975385 -0.35836104 -0.3129101 0.0032182059
000180 1a 47 07 bd be 6b 8a be b3 5f de be 02 c9 ed be
       -0.033026792 -0.27035326 -0.43432388 -0.4644242
000190 ce 68 a6 bc f7 9f 15 be 1e 65 06 be 51 57 2a be
       -0.020313647 -0.14611803 -0.1312451 -0.16634871
0001a0 f0 f5 0d be 70 2e 0c 3e ce 04 7b bd 64 25 da bd
       -0.13863349 0.1368959 -0.06128388 -0.10651663
0001b0 71 23 0b be 87 48 e9 bd 56 01 38 3d 67 9c d0 3c
       -0.13587739 -0.113907866 0.04492315 0.025465203
0001c0 b1 6d 19 3d 85 47 03 be 48 20 d6 bd c2 64 56 3e
       0.037458126 -0.12820251 -0.10455376 0.20936874
0001d0 92 33 18 3d 14 02 52 3d 26 10 f4 bd 9a c3 a7 3b
       0.037158556 0.051271513 -0.119171426 0.005119753
0001e0 16 2c 27 3e a0 fe 56 3e 8e 87 42 3e 90 2f 04 3e
       0.16325411 0.20995569 0.18997023 0.12908769
0001f0 1a 83 33 3e b1 b0 a2 bd f0 39 2b be 45 9b 1b 3e
       0.1753048 -0.079438575 -0.1672132 0.1519595
000200 a3 3a 01 3d 96 16 84 bd 6f ad 45 bd 8e b6 20 3d
       0.03155006 -0.064496204 -0.048261102 0.039236598
000210 ed 8a a5 3d 73 62 21 3d 35 2d b4 bd 22 52 20 3d
       0.080831386 0.03940053 -0.08797685 0.039140828
000220 28 75 e5 3c 19 aa e1 bd be 99 1b be c8 92 ed bd
       0.028009966 -0.11018772 -0.15195367 -0.11600262
000230 07 a1 05 bd 97 3f d1 bd 83 74 8a be 29 42 f0 be
       -0.03262427 -0.10217207 -0.27042016 -0.46925476
000240 a7 ae aa be 75 a0 b6 bd b2 f1 06 be be df c0 bd
       -0.33336374 -0.089173235 -0.13178137 -0.094176754
000250 4d 07 68 be dd ba ba be 6d 47 60 be 2e 89 8a be
       -0.22659035 -0.3647069 -0.21902247 -0.27057785
000260 68 a5 37 bd e5 59 26 3e 09 70 3b 3e e3 54 12 bd
       -0.044835478 0.1624523 0.18304457 -0.035725486
000270 41 7a b4 be 5d 59 e7 be 8c 63 43 be 1d c1 ae bd
       -0.35249522 -0.45185366 -0.19080943 -0.08532927
000280 96 c3 6e 3d 91 80 a3 3c 66 23 80 3d 3d 8b 91 3d
       0.058291994 0.019958766 0.06256752 0.07106636
000290 33 ba 8c 3d c4 9c 2f 3d 89 2c 64 3e 0a f0 03 3e
       0.06871452 0.042874113 0.22282614 0.12884536
0002a0 0a 09 e0 3d bf e0 08 3e 45 88 3f be ba de 74 be
       0.10939224 0.13366984 -0.18704326 -0.23913088
0002b0 a6 fc 88 be c7 84 e6 be 2c a1 83 be a9 b7 a8 3c
       -0.26755255 -0.45023176 -0.25708902 0.020595388
0002c0 5a b6 2c bd 34 91 09 be 56 98 ec 3d de 71 b7 bd
       -0.04216609 -0.13434297 0.11552493 -0.08957265
0002d0 7f ef 2e be 98 1b 25 be 4a 2e 32 be d8 99 d8 bc
       -0.17083548 -0.16123807 -0.1740047 -0.026440546
0002e0 37 b6 7a be b1 db a1 3d 77 8c 5b 3d 01 b3 b7 bd
       -0.24483572 0.07903231 0.053600755 -0.08969689
0002f0 33 89 80 be 08 f8 6b be de 8c b1 3c db 08 d0 3d
       -0.25104675 -0.23043835 0.021673616 0.10157939
000300 4f 48 05 3e 1f 92 ce 3b 23 0e 5e 3d 63 ce 0c be
       0.13015865 0.00630404 0.0542127 -0.13750605
000310 de dd 83 be 52 1a 04 be 38 ac 29 3c e3 85 46 3d
       -0.2575521 -0.12900665 0.010356002 0.048467528
000320 a0 9a 78 3d 0c c3 dc bc 7f c8 c3 bd f1 10 2c bc
       0.060694337 -0.026948474 -0.09559726 -0.010502086
000330 82 eb 44 be a3 87 93 3e f4 5c 95 3d 3f 32 d6 3d
       -0.19230464 0.2881442 0.0729312 0.104588024
000340 eb 23 06 3d fd 9c e0 bd 79 44 51 3e b7 ee ab 3e
       0.032749098 -0.10967443 0.20436276 0.33580562
000350 dc b8 3c 3e d6 b0 a5 3e 88 46 e8 3d 17 b8 15 be
       0.18429893 0.32361478 0.11341578 -0.14621006
000360 74 60 50 be df fb 81 bd 5c e6 ae 3d e0 00 07 bc
       -0.20349294 -0.06346869 0.08540031 -0.008239955
000370 fa a7 8e be 83 88 ac be 82 00 80 be 74 9f 48 be
       -0.2786253 -0.336979 -0.25000387 -0.19592077
000380 43 b2 90 be 95 49 39 3e 6d 77 c9 bd c9 39 d6 bd
       -0.28261003 0.18094476 -0.09837232 -0.104602404
000390 b3 aa 98 bd f2 f7 d0 bd ce f4 5e 3d 12 12 7b bd
       -0.07454433 -0.10203542 0.054432683 -0.06129653
0003a0 09 d8 42 be ed 85 b4 bd b6 cd 13 be d0 8b 16 3b
       -0.19027723 -0.08814607 -0.14433941 0.0022971518
0003b0 13 ba 0d be 87 af c5 bc b1 3e 32 3e 97 ba d0 bd
       -0.13840513 -0.02413155 0.17406727 -0.10191839
0003c0 df 6f 6f bd 24 50 13 be b9 1f 82 bd 99 4b 63 3d
       -0.058456298 -0.1438604 -0.06353707 0.055492017
0003d0 7b 41 d9 bd c7 74 a8 bc ba c3 5c 3b e7 12 30 3d
       -0.106081925 -0.020563496 0.0033685998 0.042986777
0003e0 2f 72 d8 bc 1d 59 82 be 06 92 28 be 10 da 86 be
       -0.026421634 -0.25458613 -0.16461954 -0.26338243
0003f0 dc c8 c5 bb fa 0c 6a bd 83 9e e8 3d 29 98 29 3d
       -0.006035907 -0.05714128 0.11358359 0.041404877

conv2.bias f4 [16]
000000 72 91 65 3b 1b f9 a8 3d 16 e9 04 be e7 46 9a 3d
       0.003502932 0.08250638 -0.1297954 0.07533055
000010 c9 20 fa 3d d6 43 6e bd c2 0a 66 3d b6 86 a6 bd
       0.122132845 -0.058170162 0.056162603 -0.08131163
000020 d6 ce a5 3c 96 4f 07 3d 78 da cf bd de e7 e6 3d
       0.020240229 0.033034883 -0.101490915 0.11274694
000030 66 08 99 3d ca c9 f8 3c 64 83 fc 3c 14 82 a1 bc
       0.07472305 0.030369658 0.03082437 -0.019715346

fc1.weight f4 [120, 256]
000000 ff 93 0d 3d 74 6c 56 bd a9 4a 66 be 5a 5a b6 bd
       0.03456497 -0.052349523 -0.22489418 -0.08903952
000010 5a d5 c5 3d 6b c3 b7 bb de b9 13 be 2d ac d9 3d
       0.09659834 -0.0056080124 -0.14426371 0.10628543
000020 27 c1 44 bd e7 8b e9 3b 88 19 d9 3d 91 d2 d5 3d
       -0.048035767 0.0071272734 0.10600573 0.10440553
000030 cf 07 43 be 49 34 a4 3d c8 6e 85 be 91 f9 25 3c
       -0.19045947 0.08017785 -0.26061082 0.010130302
000040 dc 19 d7 3d 45 14 88 bc bb cd fe bb fd c8 a9 bd
       0.10502979 -0.016611228 -0.00777599 -0.082902886
000050 3e 51 c7 bd cb 1b d4 bd 02 61 a9 3c d3 6a 2d bd
       -0.097322926 -0.103568636 0.02067614 -0.042338204
000060 89 d6 7d be 62 40 a6 3c 16 1e 9d 3d 36 a1 d8 3d
       -0.2478887 0.020294372 0.07671754 0.105776235
000070 5e 37 77 be 8c 49 8d 3d 4f e7 af bc 85 f0 98 bc
       -0.24142215 0.068987936 -0.021472601 -0.018669376
000080 4e bb 52 3d 0c 97 2b 3e c9 cd 14 3e f0 cb 0f be
       0.05144816 0.16756839 0.14531626 -0.1404264
000090 9e 3d 2f 3e 2e 71 81 3e 23 94 2d 3e 45 eb 01 3d
       0.17113349 0.25281662 0.16951041 0.03171851
0000a0 c3 ae 94 be 7b c8 0a be 42 5c 64 3d d3 4a 58 3d
       -0.29039583 -0.1355304 0.055752046 0.052805733
0000b0 cf 5b 32 3d e6 8e 1f 3d 6c 5f 34 bd 9b 63 ca 3d
       0.043544587 0.038954638 -0.044036314 0.098822795
0000c0 df f2 08 be 0d c7 2b be 49 be 38 3d b8 bf 79 bd
       -0.13373898 -0.1677515 0.045103345 -0.060973853
0000d0 2d 2d 08 be b4 48 77 be 1a eb 17 3e 70 10 f3 bb
       -0.13298483 -0.24148828 0.14835778 -0.007417731
0000e0 75 9c 29 be f5 1f 9f be cf cd 3f bd 29 06 eb 3d
       -0.1656359 -0.3107907 -0.046827134 0.11475784
0000f0 a6 79 a2 3e 53 69 fe 3d c6 2b f6 bc 35 d6 20 3d
       0.31733435 0.12422433 -0.03005017 0.039266784
000100 2f 42 0c be 6b f4 82 be 56 be 32 bd bf c8 06 be
       -0.13697122 -0.255771 -0.04363855 -0.13162516
000110 6b 1e db bc 6f 80 ea bd cf 15 c4 bd 2a 49 24 be
       -0.026747903 -0.11450278 -0.09574472 -0.16043535
000120 87 99 a5 bd e7 59 7b bd c1 3b 0b be a8 2a f2 bb
       -0.08085924 -0.061365034 -0.13597013 -0.007390339
000130 ce c3 6c 3e 17 8d 2f 3e 13 bb 6a 3e 96 a4 8b bc
       0.23121569 0.17143665 0.22922926 -0.017046254
000140 72 fb 4b be 8f cf 77 be 3c 98 91 3e 55 53 22 3e
       -0.19920138 -0.24200271 0.28436458 0.15852101
000150 fa 68 f9 bc 99 a1 bd bd b0 f0 ba 3c 01 2f ab bd
       -0.030445565 -0.09259338 0.022819847 -0.08358575
000160 a7 0c b5 3d 49 4c 9a bd f8 77 bf 3d a4 d4 75 3d
       0.08840304 -0.075340815 0.09349054 0.060017243
000170 36 c5 a5 bd 58 76 52 3d c9 75 b0 3d 9f 99 13 3c
       -0.080942556 0.051382393 0.08616216 0.009008794
000180 c4 72 02 3e 48 d1 39 bd d4 5e 92 3b 87 1d 8e bd
       0.12739092 -0.0453656 0.004466871 -0.06939226
000190 c2 66 15 bd 4c 17 39 bd 1d d0 0a 3d 59 5e 94 3d
       -0.03647495 -0.045188233 0.03388988 0.07244558
0001a0 77 c5 91 be 41 fb da bc 6d a4 19 bd 03 9c 53 3b
       -0.28470966 -0.026731135 -0.037510324 0.0032289035
0001b0 2b fe ae 3b 3d 87 97 bd 7a ba 5d bd c8 f3 92 3a
       0.005340358 -0.073988415 -0.054132916 0.0011211568
0001c0 13 96 bd be bb bf bf bc c3 df d0 3d b4 d9 15 bc
       -0.3702856 -0.023406854 0.10198929 -0.009146143
0001d0 f7 ae 59 be 35 a4 d6 3e de b3 38 3e df 2a 22 be
       -0.2125815 0.41922155 0.18037364 -0.15836667
0001e0 7f 37 58 bd c1 32 75 3e f2 86 8e 3d 06 31 b7 bd
       -0.0527873 0.23945142 0.069593325 -0.08944897
0001f0 78 11 ca bd 36 f3 0a 3d 4f 8f 99 bc 4d 0d 85 bd
       -0.09866613 0.03392335 -0.018745093 -0.064966775
000200 bf e3 b6 bd 85 c4 90 3e 5a fc 63 3e 87 26 ae 3c
       -0.08930158 0.28274933 0.22264233 0.021258606
000210 c4 22 39 be 5f 58 dc bd b9 6e fb bc 2a 37 3e be
       -0.18079668 -0.10759043 -0.030692445 -0.18575731
000220 58 5a 05 bf 4b 1f c8 bd c7 60 b7 3b 60 39 a5 3d
       -0.5209098 -0.09771594 0.0055962536 0.08067584
000230 ff 94 49 be 35 b8 bc 3d 03 54 3a 3e bd cd fc 3d
       -0.19685744 0.09214822 0.1819611 0.12343929
000240 12 2c 94 be 23 dd 8c be 84 c9 b8 bc 57 16 26 3e
       -0.28939873 -0.27512464 -0.022557028 0.1621946
000250 6c 8e 4e be 69 a4 a0 bd b1 97 53 bd 57 3b 0a 3d
       -0.20171517 -0.07843859 -0.051658336 0.033747997
000260 76 c2 55 be 2e 17 5e 3d b5 34 b8 bc 0f fc fd bd
       -0.20874962 0.054221325 -0.02248607 -0.12401592
000270 6e c1 64 3d 17 9b 4f bd aa c9 4a bd 16 0f 12 be
       0.05584853 -0.050685015 -0.049508728 -0.14263567
000280 b2 22 a5 be 0a e3 0b bc 0d 6a fe 3d fb f7 d6 3c
       -0.32253033 -0.008538017 0.12422571 0.026241293
000290 f7 99 87 3b 19 19 91 bd 36 92 59 bd f8 a2 aa 3c
       0.004138227 -0.07084865 -0.053117953 0.020829663
0002a0 17 74 31 3e c3 8c 19 be 95 22 19 bd 09 35 d4 bd
       0.17329441 -0.14995103 -0.037386496 -0.10361678
0002b0 2d d6 3d bd fe 55 7a ba bf 2a 7e bc ba f6 e1 3c
       -0.046346832 -0.0009549557 -0.015513121 0.027583469
0002c0 3d 28 5b be 61 34 8a be aa 6b 8e 3e bd 3f 82 3e
       -0.21402068 -0.26993087 0.27816516 0.25439253
0002d0 41 a0 c0 bc 22 ab a8 bc 14 7f 0a 3d 60 14 f1 3d
       -0.023513915 -0.020589415 0.033812597 0.11771464
0002e0 11 be ef bc 1e 89 be 3c 83 ef 31 bc 5d 83 d0 bd
       -0.029265435 0.023258742 -0.010860327 -0.101813056
0002f0 7f ed 99 3d d4 1b 68 3d 9f a7 e7 3d 19 8c e2 3c
       0.07516002 0.056667164 0.11311268 0.027654694
000300 a6 b5 9b 3d 0c db 42 3e 55 e1 82 3d c4 46 43 3d
       0.07603006 0.19028872 0.06390635 0.04767491
000310 0f 20 37 be 2f 2d 15 3e a7 79 31 bd a8 cf e7 3c
       -0.17883323 0.14568017 -0.043328907 0.02829726
000320 4d 2d ee bc 3f c1 19 3d a4 aa bc 3d 34 ae ae 3c
       -0.029074335 0.03753781 0.092122346 0.0213233
000330 47 1c 75 3d a6 f6 d3 3d a3 79 c8 3d 29 7e cb bd
       0.05984142 0.10349779 0.09788825 -0.099361725
000340 0f bb 9e 3c d6 fb 64 3d c6 58 f2 bc 71 1f 10 be
       0.019376306 0.055904232 -0.029583346 -0.14074494
000350 28 cd ed bd e1 e9 95 3c 2e fa 1a bd f7 64 6b 3e
       -0.11611396 0.018299999 -0.037836246 0.22987734
000360 b7 63 17 3d 72 29 9f bd 3e 61 07 3b 6e 7b 84 3e
       0.03696033 -0.07771577 0.0020657326 0.2587542
000370 a0 66 63 3d 1b 5d 48 3d 84 ef ab 3d 86 bb 36 3e
       0.055517793 0.048916917 0.08395293 0.17844972
000380 b3 ce 6b 3a 81 97 c5 3a c2 15 6f be ad 0a 62 be
       0.0008995339 0.0015075059 -0.23348144 -0.22074385
000390 1e ba a4 3e cf 60 81 3e 67 6f ef 3a 32 be c1 bd
       0.32173246 0.25269172 0.0018267453 -0.09460105
0003a0 c3 50 4d 3e b2 d8 8a 3e ad 67 22 3e 5a 51 28 bc
       0.2005034 0.2711845 0.15859862 -0.010273302
0003b0 b8 8f 41 bc d2 a3 76 3d 04 95 d0 bd 81 e3 d2 3a
       -0.01181405 0.060214825 -0.101846725 0.001608953
0003c0 dd 77 7a 3e fc 57 14 3e 36 1b eb bd 7f 11 92 be
       0.24459787 0.14486688 -0.114797994 -0.28528973
0003d0 e0 23 29 3e a2 21 88 bc f2 bc 35 bd aa c0 0c be
       0.16517591 -0.0166176 -0.044369645 -0.1374537
0003e0 80 34 d7 3d 66 a9 aa bd 70 9b 3d 3d c4 71 ac 3d
       0.105080605 -0.083330914 0.046290815 0.084201366
0003f0 c0 fb b3 3d 75 a8 5e 3c 17 c2 78 bb 8f 4e 88 bd
       0.08788252 0.013589968 -0.0037957483 -0.06655609

fc1.bias f4 [120]
000000 4f b3 05 bd c2 a1 e0 3d bb 42 3c be fa 94 c6 bc
       -0.032641705 0.10968353 -0.1838483 -0.02424096
000010 b1 d6 86 3c c8 c5 0d 3d 6f 41 da bd a0 7f 48 bd
       0.016459795 0.034612447 -0.10657012 -0.048949838
000020 ec eb 3f 3e 0e 78 cd bd 70 1a 36 3d d7 14 03 bd
       0.18742341 -0.10032664 0.044458807 -0.032002296
000030 f2 2b b2 3c 6b 57 77 bc 86 0b 98 bd 45 50 b3 bd
       0.02174947 -0.015096526 -0.07424073 -0.087555446
000040 76 8a d8 ba 73 2a f0 bb a2 22 ef bc f8 46 35 3d
       -0.0016520757 -0.007329279 -0.029191319 0.044257134
000050 eb 61 56 bd 9d d4 a6 bd 3a e2 81 bd b3 99 98 3c
       -0.052339476 -0.081460215 -0.063419774 0.018627977
000060 9c 19 0a 3e e4 6c b3 bd 8d 93 da 3d 3e c4 c5 bd
       0.13486332 -0.087610036 0.10672674 -0.09656571
000070 c9 e4 84 3c 19 bb 52 3d bb 98 f0 3d 92 cc 96 bd
       0.016222375 0.05144796 0.11747881 -0.073632374
000080 ae 85 01 3e 1b 8c 46 3a 17 a8 8a bd 70 be ec bd
       0.12648651 0.0007573978 -0.06770342 -0.115597606
000090 fd a1 16 bc ae dc 6f bd d1 02 6c bd 4b 5f e2 bd
       -0.009193894 -0.058560066 -0.057619873 -0.11053332
0000a0 17 9e bf bc a4 0c 21 be 2a e1 6e bd ec 5c 33 bd
       -0.023390813 -0.15727478 -0.058320202 -0.04378979
0000b0 bf bc 80 3e 8e 64 60 bd 90 59 77 bd 46 ae ff bd
       0.25144002 -0.054783396 -0.060388148 -0.12484412
0000c0 7f d7 bd 3d 02 fc 80 bd 52 94 02 be 44 a6 60 3e
       0.09269618 -0.06298067 -0.12751892 0.21938425
0000d0 07 96 fe bd 41 f3 7c 3e 22 fc 2c bd 0c 90 9e bd
       -0.12430959 0.24702169 -0.04223264 -0.077423185
0000e0 8d b4 39 be 32 b5 08 3e c1 c0 52 3e 14 1c 75 bd
       -0.18135281 0.1335037 0.20581342 -0.05984123
0000f0 08 43 83 be e1 c0 d3 bd 51 23 a8 bd 99 7f 1d be
       -0.25637078 -0.10339523 -0.08209861 -0.15380706
000100 a3 e1 46 be f5 3d ce bd d9 3c 2d be e4 b5 78 bc
       -0.19422011 -0.10070411 -0.16917743 -0.015180085
000110 0a dc 51 bc b2 ee dc bd dc 25 23 bd f5 c1 8f bc
       -0.012808809 -0.10787715 -0.039831027 -0.01754854
000120 6c 22 73 bd 1f 02 49 be d7 c7 40 be 06 f0 be bd
       -0.059359 -0.19629715 -0.18826233 -0.093231246
000130 ae 10 fe bd f0 d6 12 be af 47 2c bc b0 d8 4b 3e
       -0.12405525 -0.14339805 -0.010515138 0.19906878
000140 5d 9e 38 bd 1b d2 cf bd 4f 2c 4b bd f0 b3 93 bd
       -0.045072902 -0.10147496 -0.049602803 -0.07212055
000150 7a 69 2d 3e 87 7e 19 3d e5 6d 7b 3c bd fc ac bd
       0.16934767 0.03747418 0.015346025 -0.084466435
000160 7c e4 9d 3d 75 90 8e 3c 36 b6 bb bc df 76 24 bd
       0.077095956 0.017402867 -0.022914033 -0.040152427
000170 c1 f9 64 bd df 66 01 3d dc cf ad bc 11 13 91 bd
       -0.055902246 0.031592246 -0.02121728 -0.07083715
000180 33 0e d4 3c d9 bf 13 bd cd 71 45 3d fa ae 06 be
       0.025885677 -0.036071632 0.048204232 -0.13152686
000190 69 58 14 3e 3e 92 54 3e bf d6 b6 bb f9 4f a6 bd
       0.14486851 0.20758912 -0.005579799 -0.08120722
0001a0 a4 17 24 bd d7 d7 41 3d c6 ce 41 3b 70 c2 a6 bd
       -0.040061608 0.04732498 0.002957271 -0.08142555
0001b0 b6 c8 66 be 76 d1 b1 bb 03 2a a0 3c 6f 7b 2d bd
       -0.22537503 -0.005426581 0.019551283 -0.042354044
0001c0 66 aa 03 3d 60 c4 52 bc a4 35 cd bd f6 13 ba bd
       0.032144926 -0.012864202 -0.10019997 -0.090858385
0001d0 61 75 03 3e 34 44 1b 3d dc a5 6a bd 0a 2f 5e 3c
       0.12837745 0.03790684 -0.057287082 0.01356102

fc2.weight f4 [84, 120]
000000 4b 7c 15 bd 57 64 a2 3d 9f fc b9 bc b2 38 ed bd
       -0.036495488 0.079292946 -0.022703467 -0.115830794
000010 bc aa 05 3e 6e 45 92 bd 22 75 04 3e 60 91 b4 bb
       0.13053411 -0.07142149 0.12935308 -0.005510494
000020 e5 90 8b 3d 32 87 39 3e f5 34 43 3e e1 93 07 be
       0.06814746 0.18117979 0.1906317 -0.13240005
000030 11 e1 83 bd 29 c7 00 3c 41 7e 1d bd c0 9f 50 3c
       -0.064394124 0.0078599835 -0.038450483 0.0127334
000040 90 d1 00 3e d9 02 09 be f1 ab a2 3d f6 fb 27 be
       0.12579942 -0.13379993 0.079429515 -0.16404709
000050 66 d9 2d bc 7e 26 ca 3c ee c1 ba bc af c6 dc bc
       -0.010610914 0.024676558 -0.022797551 -0.026950208
000060 10 0c 8d be a4 5c 53 3d 57 28 fa 3d ce ab 5d bd
       -0.27548265 0.05160202 0.122147255 -0.054118924
000070 78 77 e8 3d bc 5d c3 3c 11 b5 2a 3d 1e 0e 31 3e
       0.11350912 0.023848407 0.041676585 0.17290542
000080 eb c3 ec 39 ef 31 49 3d 3c 59 53 3e f5 6f da bc
       0.00045159398 0.049119886 0.20639509 -0.026664713
000090 8a f9 c3 3d 07 e8 41 bc a8 2b a4 bd a0 71 0f 3e
       0.0956908 -0.011835105 -0.08016139 0.14008188
0000a0 bb 1c 44 3e 64 a7 db 3d be 7f 94 3c a9 0a 35 bd
       0.19151585 0.107252866 0.018127318 -0.04419962
0000b0 ec 85 3d be 47 a4 9a bc e2 b8 47 be b7 af 16 3e
       -0.18508118 -0.018877162 -0.19504121 0.14715467
0000c0 80 5e 04 3d 50 68 ab be c7 02 97 3d 69 71 bb be
       0.032316685 -0.33478022 0.073735766 -0.36609963
0000d0 65 b4 80 bd 15 01 c3 be 71 d1 32 3d 1b eb 52 3d
       -0.062844075 -0.38086763 0.04365677 0.051493745
0000e0 89 0d 0d 3d 0e 31 5b bd 39 39 bd 3d ba cc 78 be
       0.034436736 -0.05351358 0.0923943 -0.24296847
0000f0 3e 13 9a 3e fd d1 52 3d e2 18 89 be 0b df 37 3e
       0.30092806 0.05146979 -0.26776797 0.17956178
000100 cd 76 83 3e f2 d2 33 3e d6 e4 50 bd 7a 5c 1f bc
       0.25676575 0.17560938 -0.050999485 -0.009726638
000110 74 84 3d 3e 29 24 83 be 27 74 4c 3c f3 c3 6b bd
       0.18507558 -0.25613526 0.012478865 -0.05755992
000120 d6 5e 20 bc 3f e7 88 3d 9e f0 f3 3d 28 4e 18 3e
       -0.009788236 0.06684732 0.119111285 0.14873564
000130 f1 92 9a be fa 0a b6 bd 65 02 0c bd 7f 06 3f be
       -0.30190232 -0.08888812 -0.03418197 -0.18654822
000140 c9 5e 7f be 76 d6 19 3e 2e b0 c7 3d de 59 17 3e
       -0.24938501 0.15023217 0.097504005 0.14780375
000150 73 c0 61 bd 0b 8b 4a bc 8a 1f a2 3d a5 d7 a0 3e
       -0.055115175 -0.012362252 0.07916172 0.31414524
000160 35 93 ae bb a8 9c c7 bd 9c b3 43 3e b0 60 9b 3d
       -0.005327607 -0.09746677 0.19111484 0.07586801
000170 77 db f9 bd 77 55 7a 3d 63 c9 71 be 18 9c 3d 3d
       -0.12200063 0.061116662 -0.23611979 0.04629144
000180 43 8a 2c bd d9 65 a9 be 18 4e 07 3e 85 39 68 bc
       -0.042124044 -0.33085516 0.13213384 -0.01417387
000190 eb a3 7d 3d 72 3e 6e be 73 67 d7 3b 35 1f 31 3e
       0.061923902 -0.23266008 0.0065736114 0.17297061
0001a0 c8 88 f5 3d 49 b7 b6 3d e5 5d 99 bc ba 42 d1 bd
       0.119889796 0.089216776 -0.01872153 -0.10217805
0001b0 f4 49 0b 3e 06 74 1f 3e 96 d8 cd bd 0d 5c ac 3d
       0.1360243 0.15571603 -0.10051076 0.08415995
0001c0 73 5d a0 3d 28 77 7c bc 9f a5 1d be 49 a4 ca 3d
       0.07830324 -0.015409268 -0.1539521 0.09894616
0001d0 52 82 0d be 23 07 9b bd 4b e4 87 bd c3 a1 c0 bd
       -0.13819245 -0.075697206 -0.0663534 -0.094058536
0001e0 ed 09 93 bd f7 5d 62 be c5 fe e1 3d 08 89 be 3d
       -0.071796276 -0.22106157 0.110349216 0.093034804
0001f0 af 2c 24 be 92 b5 e2 3d 28 ac 87 bd 08 d4 c7 3e
       -0.1603267 0.11069788 -0.06624633 0.39028955
000200 e6 d4 f7 3d 0d 13 b2 bc 09 f4 c9 be b9 75 77 3d
       0.12101154 -0.0217376 -0.39443997 0.060415003
000210 10 64 64 3c 6d be 3a 3d 45 17 d1 3c ce 09 39 bd
       0.013939872 0.04559176 0.025523791 -0.045175366
000220 5b 44 39 3e ed ff 17 3e ae f6 46 3b 60 79 fa 3d
       0.18092482 0.14843722 0.0030359435 0.12230182
000230 c5 ee 99 bb 79 89 30 bd 3c 35 14 bc 72 19 87 3d
       -0.004697653 -0.043099854 -0.009045895 0.0659665
000240 2a 08 62 3d ec 33 71 bd 0e b4 b2 bc 42 4d f9 bc
       0.055183567 -0.058887407 -0.021814372 -0.030432347
000250 5c d4 3c 3d cc 4a a4 bd fb fe eb 3b 1f 4b 81 bd
       0.04610096 -0.08022079 0.007202027 -0.06313156
000260 cc 40 4e bc 2b df 56 3e 4a 10 41 bc e3 94 df 3d
       -0.012588691 0.2098357 -0.011783669 0.1091707
000270 79 c7 99 be b5 b8 35 bd e3 e8 0c be 07 c0 2c bd
       -0.30034998 -0.044365603 -0.13760714 -0.04217532
000280 94 f2 45 be a1 2b 0d 3d dd 08 28 3d 1e 7e ab 3d
       -0.19330817 0.034465436 0.041024078 0.08373664
000290 94 83 af bb 88 b6 c2 3d f7 8f 91 bd eb 38 66 bd
       -0.0053562615 0.09507471 -0.07107537 -0.056206625
0002a0 46 d2 81 3d 86 81 1e bd 9b 0d 9b 3d c9 cf 42 be
       0.063389346 -0.038697742 0.075709544 -0.19024576
0002b0 b1 1a 9d 3d 99 88 dd bd 81 30 30 be cd 69 e0 ba
       0.076711066 -0.108170696 -0.17206003 -0.0017121375
0002c0 8c e8 e0 be 2d 94 e9 3d f8 f1 09 be 63 10 05 3d
       -0.4392742 0.114052154 -0.1347121 0.03248633
0002d0 89 d5 48 be f5 7d 54 bd ed 80 0b 3e d5 f0 e1 3d
       -0.19612707 -0.051877934 0.136234 0.11032263
0002e0 fc a2 8f bd 66 e9 cb 3d 2f a2 2c bb 8d 99 93 3e
       -0.07013509 0.099566266 -0.0026341786 0.28828087
0002f0 9f 12 c0 3d cc 4e 04 3e 99 8f b8 bd 9c bf 8a 3c
       0.09378552 0.12920684 -0.09011764 0.01693707
000300 86 3f b6 3d fd d9 ed 3c 9c 1d 13 be dc 95 fb 3d
       0.08898835 0.029034609 -0.14366764 0.12284443
000310 d9 46 37 3e 33 3c 51 bc fb cf 95 3d d3 97 82 be
       0.1789812 -0.0127707 0.0731506 -0.25506458
000320 46 59 32 3e 0c 51 88 3d 80 a8 84 3d 3c 4f 36 bd
       0.17416868 0.066560835 0.06477451 -0.044509158
000330 16 ae 06 3b b4 95 8a 3d ea e8 28 3d 7d 12 ba 3d
       0.002055054 0.06766835 0.04123775 0.090855576
000340 91 aa a7 bc da 2b 70 3d 5d 59 04 3e ef dc 7d 3d
       -0.020467075 0.05863557 0.12924714 0.061978277
000350 c4 68 e5 bc 78 bc 95 3d 97 d2 b9 3d 4d ec dd 3b
       -0.028004058 0.07311338 0.0907337 0.006772554
000360 75 26 e0 bc 77 cb 27 3d 17 fe 81 be 0d dc e9 3c
       -0.027362088 0.040965524 -0.25389168 0.028547311
000370 9b 37 a2 bd b8 3b de bd 73 a4 01 be de ff 06 be
       -0.07920762 -0.10851234 -0.12660389 -0.13183543
000380 c6 2e a3 3e 55 7f 87 be be 6a f3 3c fc 05 81 3d
       0.31871623 -0.26464334 0.029713985 0.062999696
000390 89 08 7b 3d b5 55 bb 3c 2e 70 fc 3d c2 ba 69 3d
       0.061287437 0.022868017 0.12326084 0.05706287
0003a0 b2 77 12 bd ed b2 4f bd 14 cc 10 3e 51 e3 8d 3e
       -0.03575868 -0.050707746 0.1414035 0.2771249
0003b0 2a c5 a5 be 60 c5 ef 3b 5b 60 ba bc 7e 00 30 3e
       -0.32376987 0.00731723 -0.022751024 0.17187688
0003c0 17 81 3b 3e a7 25 88 3d 96 a0 1d 3e cc 9a 5d bd
       0.18310963 0.066478066 0.1539329 -0.054102704
0003d0 aa 18 08 3e 48 5f 6d be ee a0 14 3e 3f a2 37 be
       0.13290659 -0.23180878 0.14514515 -0.17932986
0003e0 0a c5 7a be 36 3c eb 3d af ea a0 be 14 59 eb 3d
       -0.24489227 0.11486094 -0.3142905 0.114916
0003f0 4a da 68 bd d0 50 5f 3d de 70 a0 3c af f3 76 3a
       -0.0568488 0.05452043 0.01958507 0.0009420467

fc2.bias f4 [84]
000000 d9 06 a0 bd 11 8c 46 3d 25 64 85 bd f8 65 49 3e
       -0.07813806 0.04847342 -0.06513242 0.19667804
000010 26 83 ea bd 17 d4 34 be 9c ae 27 bc 53 49 47 3e
       -0.11450796 -0.17659031 -0.010234501 0.19461565
000020 56 54 cc bd a9 2d 54 3e 5f 72 e6 bc 67 57 89 bd
       -0.09977023 0.20720543 -0.028130708 -0.06706124
000030 06 8c 5a bd f5 52 30 bd f6 0f 3b bb a1 fd 7a 3e
       -0.053356193 -0.043047864 -0.002854345 0.24510814
000040 d0 8e 87 bb 93 70 34 be e4 5f f9 bd e1 45 18 3e
       -0.0041368976 -0.17621069 -0.12176493 0.14870407
000050 09 84 4d bd 51 f7 9b bd f2 de 97 bd 4e af bc 3d
       -0.050174747 -0.07615531 -0.0741557 0.09213124
000060 e4 a7 26 3d e9 e1 20 3e 15 b4 3a bc fb ae 10 be
       0.040687457 0.15711178 -0.011395474 -0.1412925
000070 fc 93 2a 3d 81 f9 bb 3d 5a 8e 20 bc da 36 0a 3c
       0.041645035 0.091784485 -0.009799564 0.008435929
000080 15 9c cf 3d 72 04 6b be 48 c8 2f be 0e 97 88 3e
       0.10137192 -0.22950915 -0.17166245 0.26677746
000090 a8 65 a1 3e 56 59 1d 3e ab 20 e1 3d 00 b6 b1 3c
       0.3152287 0.1536611 0.10992559 0.02169323
0000a0 70 02 87 3e 0c a1 22 be 99 50 81 3e 8e 9c 18 be
       0.26369047 -0.15881747 0.25256804 -0.14903471
0000b0 6a b5 f3 bd e3 c3 18 3e 1e cf 76 bd 7c 32 60 3d
       -0.11899836 0.14918475 -0.060256116 0.054735646
0000c0 4c ba 90 3e c7 29 51 3e 4f 0e b4 bd 56 e1 94 bc
       0.28267133 0.20426093 -0.08791792 -0.018173855
0000d0 9f d1 a4 bc c7 78 70 bc b0 a1 01 bd f7 b3 44 bd
       -0.020119486 -0.014677233 -0.031648338 -0.04802319
0000e0 ef 28 87 3c 52 7b ed 3b 2d 83 89 bb 2f b9 3a be
       0.01649901 0.007247367 -0.0041965456 -0.18234704
0000f0 b8 29 a3 bd 01 02 6f 3e 1c 57 65 3c c3 21 d1 bd
       -0.079669416 0.23340608 0.013997819 -0.10211518
000100 3a 64 2b bd 00 7e b6 bd 4a 72 2a be f7 2c 9c bd
       -0.04184363 -0.08910751 -0.1664516 -0.07625764
000110 06 62 04 be 24 e2 b0 3d e8 93 64 3e 7c 72 1b bc
       -0.12928018 0.08636883 0.22322047 -0.009487744
000120 36 c3 13 be ef ef 63 3d db 30 46 bc bd 74 64 3e
       -0.14429936 0.05564874 -0.012096609 0.22310157
000130 b2 3e e9 bc ad be 28 3e 61 fb 0a be 24 18 82 3e
       -0.028472278 0.16478987 -0.13572456 0.25409043
000140 50 47 61 bd fe 0b 07 be a3 52 9a 3e 47 92 1f 3e
       -0.05499965 -0.13188168 0.30141172 0.15583144

fc3.weight f4 [10, 84]
000000 d4 be d2 be fd e4 bc 3c ea 76 05 3c f1 d0 33 be
       -0.41161215 0.023058409 0.008146027 -0.17560174
000010 3d 9c ec bd eb 3c 3f be e7 7b 3e bd ee ab c2 be
       -0.115532376 -0.18675582 -0.04650488 -0.38021797
000020 55 88 42 be d1 75 4e bb 69 49 fd bd 67 53 af be
       -0.18997319 -0.003150333 -0.123675175 -0.34243318
000030 a1 6d 7e be 2b 08 b0 be 9b 7c 3c bf db 41 cf be
       -0.24846508 -0.34381232 -0.7362763 -0.4047993
000040 67 4f 8c be ed a5 45 be 3b 7d 04 3e c1 08 57 bd
       -0.2740433 -0.19301577 0.12938397 -0.052498583
000050 3d 74 68 3e 3b e4 a0 be 0b e9 69 3d 4d 7c 49 be
       0.22700591 -0.31424126 0.057107013 -0.19676323
000060 5e f2 ce be 1d 75 9e bd 91 6b 25 be 02 36 7e bd
       -0.40419286 -0.07737181 -0.16154315 -0.062063225
000070 03 db 50 be d0 07 8c be 6d de 1d 3d 9d 41 e6 be
       -0.20396046 -0.2734971 0.0385422 -0.44971934
000080 ee 39 21 be 87 46 f8 bc 93 66 be 3d 30 02 f2 3b
       -0.15744755 -0.030307068 0.09296908 0.0073855147
000090 1b 22 c1 bd bd 7e 46 be b9 67 95 be 33 09 7a bd
       -0.09430333 -0.19384284 -0.29180697 -0.06104393
0000a0 d1 75 b6 bd 64 e7 cf bd fe 79 fc 3d 25 a3 09 3e
       -0.089091904 -0.10151556 0.12327956 0.13441141
0000b0 18 49 34 bd ac 02 c7 be 0d 78 40 be d9 8a 9f 3d
       -0.04401502 -0.38869226 -0.18795796 0.07790155
0000c0 01 7f 97 be 38 65 f2 bd 62 11 18 bd 63 89 18 be
       -0.29589084 -0.11835712 -0.037125953 -0.14896159
0000d0 44 15 b0 3d ae f8 4c bc d6 92 6a be 8d 59 e4 3d
       0.08597806 -0.012510462 -0.22907576 0.11149893
0000e0 88 e9 09 be 99 03 a2 be 7f 8e 1a 3e 62 08 48 bd
       -0.13467991 -0.3164337 0.1509342 -0.04883612
0000f0 48 8d 21 be 15 80 ef 3d 7a c6 e9 bd cb 47 5f 3e
       -0.15776551 0.116943516 -0.114148095 0.2180473
000100 a1 d3 18 be b1 03 de be 22 21 d1 3b 06 01 a6 be
       -0.1492448 -0.4336219 0.0063821236 -0.32422656
000110 ed 84 b1 be ac 35 35 3d aa 7c 88 bc 21 bd 67 3d
       -0.34671727 0.04424064 -0.016661007 0.05657685
000120 4b bf 87 3d 4e ed f3 3d c2 ff 3e 3e f8 67 a2 3c
       0.06628283 0.11910497 0.18652251 0.019824967
000130 6d e1 f2 bd 22 1c 74 3d 01 ec 54 bc 12 d0 a7 3d
       -0.11859403 0.059597142 -0.012995721 0.08193983
000140 73 9d 5e 3c 4a 99 1c 3e 26 9a c2 be b5 c3 07 3e
       0.0135873435 0.1529285 -0.3800823 0.1325825
000150 0a ca 12 3e 06 55 62 be fa 71 09 3e 5e 7a 17 3e
       0.14334884 -0.22102746 0.13422385 0.14792773
000160 ed 4e 27 be 24 58 c1 3d da c2 10 3e 96 1d bc be
       -0.16338702 0.094406396 0.1413683 -0.36741322
000170 67 11 a9 be 4d 9d 13 be da 75 0a 3e a1 5d 51 3e
       -0.3302109 -0.14415474 0.1352152 0.20445873
000180 15 e2 da be ae 44 5a be 72 94 4b be cb 3f 23 3d
       -0.42750612 -0.21315262 -0.19880846 0.03985576
000190 8b 78 09 3e 92 df 2a 3d 03 4c c2 be 35 b8 b7 3d
       0.1342489 0.04171712 -0.37948617 0.089706816
0001a0 0c be 68 be 85 b4 80 be 79 25 4f be 0f a9 f0 3d
       -0.22728747 -0.25137725 -0.20229138 0.11750995
0001b0 0f c7 05 3e 2a a4 8a be 6a 14 03 be 07 1e 14 bf
       0.13064216 -0.27078372 -0.12800756 -0.5785832
0001c0 a6 30 b9 be a7 65 17 be 68 55 57 3e 6c 6d 64 be
       -0.36169928 -0.14784871 0.21028674 -0.22307366
0001d0 df 3b fe bd 38 42 96 be d0 0e 56 bd 84 8d a9 be
       -0.12413763 -0.29347396 -0.05226022 -0.3311578
0001e0 e1 36 a4 be 81 69 86 be d2 bc 31 be 6f c3 b5 be
       -0.3207312 -0.26252368 -0.17357185 -0.35500666
0001f0 8a 06 8e be d8 4d 36 3e 6a 29 47 be 0c b4 40 3e
       -0.27739364 0.17803133 -0.19449392 0.18818682
000200 dc df 58 bd 7c 8f 09 3e 0f 84 17 3e 1f 1c 83 be
       -0.052947864 0.13433641 0.1479647 -0.25607392
000210 91 ce a9 be 88 8c f0 3d 9a a5 35 be e4 3a d1 3b
       -0.3316541 0.11745554 -0.17738953 0.006385194
000220 30 d6 a8 bd 21 44 00 be b9 36 b2 3d ce 34 ed be
       -0.08243978 -0.12525989 0.08701844 -0.4632935
000230 9d 96 ae be cb 4c a8 3d ea 23 c6 3c 45 1e 90 be
       -0.34099284 0.08217772 0.024187047 -0.28148094
000240 d8 6d 43 be f8 65 78 be 92 15 6c be 6e 67 a7 3b
       -0.19084871 -0.24257648 -0.23055103 0.0051087653
000250 4e aa 1a be a4 ca 44 be 9c 74 8b be 02 fe 07 3e
       -0.15104029 -0.19217926 -0.27237403 0.1328049
000260 56 d1 eb 3d 8b c5 b1 bc cf 92 da be e0 3a 63 be
       0.11514537 -0.021700641 -0.4269013 -0.22190428
000270 c8 5e a3 bd 35 77 92 be be 1e 6f bd 36 03 83 3b
       -0.079770625 -0.28606573 -0.058378927 0.0039981855
000280 0c 62 47 be cf af 9a be 49 60 0c 3d c5 16 69 be
       -0.19470996 -0.30212256 0.034271512 -0.22762592
000290 5a 79 37 be cc 1a a6 be eb de 63 be 00 bb 64 be
       -0.17917386 -0.3244232 -0.22253005 -0.2233696
0002a0 15 b2 ea bb 05 f7 96 be 4b 79 f5 bd 69 68 0d 3c
       -0.0071623423 -0.29485336 -0.119860254 0.00863085
0002b0 cb 44 f4 bd 74 be e9 3d 48 f4 24 3e 02 d5 d3 3d
       -0.11927184 0.11413279 0.16108811 0.103433624
0002c0 b6 c6 47 bd bf ee f3 3d 9a 7b ad 3c a2 d3 04 bd
       -0.04877349 0.119107716 0.021177102 -0.03242839
0002d0 3c 6b 39 bd 20 48 8a bd 04 5e 0d bd d4 90 b5 3d
       -0.045268282 -0.06752038 -0.03451349 0.088655144
0002e0 67 2d 9e 3d ea 1c 8a be 78 80 65 3d 82 88 fc be
       0.077235036 -0.26975185 0.05603072 -0.49322897
0002f0 e7 2d b0 be 90 0f 78 bd f9 32 9b be b6 87 7a bd
       -0.3441002 -0.060561717 -0.30312327 -0.06116458
000300 88 35 3e 3d 59 d9 d3 bd 5d 2a 32 3e fa d7 dd be
       0.04643777 -0.1034419 0.17398973 -0.4332884
000310 fb c7 f1 3d 0b b9 a5 be 58 2d 3b 3e 64 5b ec 3c
       0.11805721 -0.3236774 0.18279016 0.028852172
000320 ce 6f a6 be 54 e5 0f 3e fe 28 2d 3e 9d 38 e2 3d
       -0.32507175 0.14052325 0.16910169 0.110459544
000330 08 35 51 be 65 c8 50 bc b3 e7 e5 bd 6a 78 95 be
       -0.20430386 -0.01274309 -0.11225834 -0.2919343
000340 d3 51 86 be 79 d6 38 be 10 58 f6 3d f7 a8 4e 3d
       -0.26234302 -0.18050565 0.12028515 0.050454106
000350 f7 b3 9a bc 6b 72 ee 3d f8 0e 3b be 76 e4 32 3e
       -0.018884642 0.11642917 -0.18267429 0.17469963
000360 e2 3d 98 be f5 01 9b be 99 c7 bb be 53 ce de 3d
       -0.29734713 -0.3027493 -0.36675718 0.10879197
000370 3c aa a8 bd 87 64 14 bd a9 df 08 bd eb 73 e7 bd
       -0.08235595 -0.036228683 -0.033416424 -0.113014065
000380 81 c5 40 3d 85 6c 6b be 2c 79 85 be 7e fd 78 3b
       0.047063354 -0.22990616 -0.2606901 0.003799289
000390 d9 47 09 3e 15 31 a9 bd fe 10 80 be 08 50 ad be
       0.13406314 -0.08261315 -0.25012964 -0.33850121
0003a0 a9 60 5b be 46 b1 07 be 2e 00 3c bd 9e 9b 1a 3e
       -0.21423592 -0.13251218 -0.04589861 0.15098426
0003b0 05 da 83 be 70 2e af 3d c8 2e 06 be a7 a2 73 be
       -0.25752273 0.08553779 -0.13103783 -0.23792516
0003c0 9b 79 85 bd 5f a2 48 3e fe 50 cc be 83 a3 19 bc
       -0.06517335 0.1959319 -0.39905542 -0.009377363
0003d0 87 a4 b1 bd b6 a0 3c 3d d9 2d 08 3d 0f 72 76 be
       -0.08673959 0.046051703 0.03324685 -0.24066947
0003e0 37 6d d8 be 07 3b 58 be 3d 35 70 be 54 0e bf bd
       -0.42270824 -0.21116267 -0.23457809 -0.09328905
0003f0 1f b0 b1 bd 19 77 87 be 87 ac 0c 3e 37 bc 3f bd
       -0.086761706 -0.26458052 0.13737689 -0.046810355

fc3.bias f4 [10]
000000 05 86 32 be dd 11 87 bd 94 62 e2 3d be 2b 95 bd
       -0.17433937 -0.06595204 0.110539585 -0.07283734
000010 61 47 9c bd 1b 0f e7 bd b4 75 46 bd 7c 04 b2 bc
       -0.07630802 -0.11282178 -0.048452094 -0.021730654
000020 aa eb 74 3e 05 6c d0 3d
       0.23918024 0.10176853
