mnist/saved_models/model_epoch_39.pth (torch, 181338 bytes, 10 tensors)

conv1.weight f4 [6, 1, 5, 5]
000000 86 4e ca be e2 a1 20 3e 72 1d 2f bc d8 51 98 3e
       -0.39513034 0.15686753 -0.010688173 0.29749942
000010 03 30 9a 3d 47 21 4b 3e 6a 45 18 3f a6 3b 80 3e
       0.07528689 0.19836913 0.5948092 0.25045508
000020 9b d1 9c 3d dd 66 7b 3e c6 c6 38 3e 9d 5f c2 3c
       0.076571666 0.24550958 0.18044576 0.023727233
000030 8d f9 13 be 1c e0 aa bd 51 ff 50 bc 16 82 91 bc
       -0.14450665 -0.08343527 -0.012756185 -0.017762225
000040 15 9d c2 be 2b eb 3f be 0c 16 81 be 3b 16 7a be
       -0.3801047 -0.18742053 -0.25212133 -0.24422543
000050 ac 02 62 bd 1c dd fb bc 35 f3 9c 3c 70 7c 73 3e
       -0.05517833 -0.030745082 0.019158939 0.23777938
000060 5e 9d 19 be cc 78 81 be 5b 39 09 3e fa 16 03 3f
       -0.15001437 -0.25287473 0.13400786 0.51206934
000070 3c 1a 8f be e0 25 39 be 3a e4 c8 be ec a7 c8 3d
       -0.27949703 -0.18080854 -0.39236623 0.097976536
000080 22 ef 3d 3f 01 33 35 3d 57 b5 b6 3c 37 cb 84 be
       0.7419301 0.044238094 0.022303266 -0.2593629
000090 99 0f 08 bf 1c 11 ce 3e 59 95 b1 3e d6 56 d0 3d
       -0.531488 0.40247428 0.34684256 0.10172813
0000a0 7f 42 22 3c 60 5b 2e bf 51 72 c8 bd 24 9b 82 be
       0.009903549 -0.6810818 -0.09787429 -0.25508988
0000b0 15 2d 56 3d 24 f0 ac 3e 5d 0a 56 3b 84 e9 88 3e
       0.052289087 0.33776963 0.0032659986 0.26740658
0000c0 2e 8d 6a 3c c5 9a 0e 3e 21 c6 8a bd f1 f4 34 be
       0.014315886 0.13926227 -0.06776071 -0.17671563
0000d0 cb 3f 52 be 6e c7 a6 3c e2 33 8e be 17 bb de bd
       -0.20532148 0.020358767 -0.27773958 -0.10875528
0000e0 bc 8e 7e bd 3b 83 3c 3e 4b 7b cd 3e af 48 de bd
       -0.06214784 0.18409435 0.40133128 -0.10853707
0000f0 16 82 66 3e d6 9a 52 3e cc d0 07 3f ca af 1d 3f
       0.22510561 0.20566878 0.53052974 0.6159636
000100 cf d0 d1 bd b3 46 7a bd e7 bc 08 bf 81 cf 31 be
       -0.10244905 -0.06110258 -0.5341324 -0.17364313
000110 9c 5b a4 3e 28 c1 13 3e d1 e5 f2 3d 40 79 4a be
       0.32101142 0.14429152 0.1186024 -0.19772816
000120 9d b5 ac be 54 99 97 bc 59 f9 9d 3e 9f 81 48 bc
       -0.3373231 -0.01850573 0.308543 -0.012237935
000130 e8 fa 1b 3e cc 29 85 bd a5 81 66 bd a8 61 0b 3d
       0.15232432 -0.06502113 -0.056275982 0.03402868
000140 90 f7 37 3e 32 80 b7 3d 78 10 a5 bd 9e e4 b2 3c
       0.17965531 0.08959998 -0.08059782 0.021837529
000150 f2 0d 96 3e 86 12 85 3d 10 f0 2a be 0c 64 f5 be
       0.29307514 0.06497674 -0.16693139 -0.47927892
000160 02 5c 25 be 22 74 8e 3e ec 8d 17 be 39 ad e8 bd
       -0.1614838 0.27822977 -0.14800233 -0.113611646
000170 52 f6 6a be 49 a9 ea 3e ca 7a 9c 3e 2a 23 79 be
       -0.22945526 0.4583228 0.3056243 -0.2432982
000180 ba 0e a5 3d 2d 9f 11 3e 46 94 60 bd 3e 96 b3 3d
       0.080594495 0.14220877 -0.054828905 0.08768891
000190 df e0 a2 3d 6d ce 39 3d 07 35 93 3e 30 62 cc bd
       0.07953047 0.04536288 0.28751394 -0.09979665
0001a0 ac 64 b5 3e 2a 63 21 3c 5e 9e 04 be 7c 2c 6e bd
       0.3542837 0.009850303 -0.12951037 -0.058147892
0001b0 2a 6d df 3d e4 84 ae 3e 71 52 e6 bd 9d a7 88 be
       0.10909493 0.34085763 -0.11246193 -0.2669038
0001c0 6f 72 c4 be b6 1e 14 bf c7 06 98 bd 46 d1 da 3e
       -0.38368556 -0.5785936 -0.07423168 0.42737788
0001d0 6b 7b 31 be 48 dc 52 bf a7 02 46 be 21 2c 6b 3e
       -0.17332236 -0.8236737 -0.1933695 0.22966053
0001e0 5c 8b fd 3d 03 0d 0f 3f 42 06 2b 3f b0 a0 dd 3e
       0.12380096 0.5587923 0.66806424 0.43286657
0001f0 a3 f1 e8 bc 65 95 26 3e 18 59 16 3e cd 76 79 bd
       -0.028435534 0.16267927 0.14682424 -0.060904313
000200 06 11 e7 bc 98 bf 0b 3e 48 ac 8c be 7f b4 8b 3e
       -0.02820636 0.13647306 -0.2747519 0.27286145
000210 82 da 31 3e 3a a7 dc bd 86 39 36 bd dc b1 42 be
       0.1736851 -0.107740834 -0.044488452 -0.1901316
000220 77 87 3f 3f 14 99 33 be 64 f2 b0 be c8 85 fb 3d
       0.7481608 -0.17538863 -0.3455993 0.12281376
000230 05 3d a6 3e 31 27 fa 3e c2 e5 26 bf c5 20 62 3b
       0.3246843 0.48858026 -0.6519433 0.0034504395
000240 d0 93 87 3d b5 b9 b2 3e 52 a9 51 be c4 ba 01 be
       0.0661999 0.34907308 -0.20474747 -0.12668902
000250 80 df 32 3d 08 5d 1c 3d
       0.043670177 0.03817466

conv1.bias f4 [6]
000000 11 d5 b7 be ca cf af bf 50 e2 05 bf ef 00 52 bf
       -0.35904744 -1.3735287 -0.5229845 -0.82032675
000010 ec 1c 4b bf ed 17 50 bf
       -0.79341006 -0.8128651

conv2.weight f4 [16, 6, 5, 5]
000000 8a 1a 1d 3e 9e a6 01 bd b6 23 c7 3d f8 65 2c 3e
       0.15342155 -0.03165304 0.09723608 0.16835773
000010 99 c8 c5 3d 64 fc fe 3d 3f 6a 02 3e f7 78 0b 3f
       0.096574016 0.124504834 0.12735842 0.5448145
000020 f8 bd 42 3e de e9 35 3e 45 f2 14 3e ba 1b 8f 3e
       0.1901778 0.17764995 0.14545543 0.2795084
000030 6b f0 ed 3d fa 42 09 be 7c b4 93 3e 04 7e 3b bf
       0.11618122 -0.13404456 0.28848636 -0.7323916
000040 90 4b 1d bf b8 a9 dd be b6 34 95 be 01 34 8b bd
       -0.61443424 -0.43293548 -0.29141778 -0.06797028
000050 65 64 9c bf cf 09 83 bf 6f c6 96 bf b0 1b 08 c0
       -1.2218138 -1.0237368 -1.1779307 -2.12669
000060 0e 81 2d c0 82 12 97 3e be b0 a3 be 83 07 85 bf
       -2.7110019 0.29506308 -0.3197078 -1.0392917
000070 bc d2 93 3e 92 51 56 be c6 c3 a5 bd 3a 66 f7 be
       0.28871715 -0.20929554 -0.080939814 -0.4832018
000080 64 9d d2 be 3f 73 3c 3e 85 4a 3a 3e 61 12 5e 3e
       -0.41135705 0.18403338 0.1819249 0.21686698
000090 b3 f3 8a 3e 6e 3b 3c be d7 58 1d be 27 a0 8b 3d
       0.27139053 -0.18382046 -0.15365921 0.06817656
0000a0 85 f5 86 3e 2e ad 73 3e 21 ab aa be 59 f5 4c be
       0.26359192 0.23796532 -0.33333686 -0.20015468
0000b0 fd 89 b6 be cd 0c 69 be 99 ef 91 3d 39 e7 d3 be
       -0.35652152 -0.2275879 0.07125778 -0.41387346
0000c0 c9 88 88 3e 74 5b 2e bf 80 b8 89 3e de 10 db 3e
       0.2666686 -0.68108296 0.26898575 0.42786306
0000d0 22 d1 c4 3c 1f b0 12 be a4 ca 9a 3d d2 45 c4 be
       0.024025504 -0.14324997 0.07558182 -0.3833452
0000e0 52 d6 7f 3e 22 4a 4d 3e b5 c4 20 3c e3 6d 26 3e
       0.249841 0.2004781 0.009812524 0.16252856
0000f0 8b 29 42 3e de e4 b7 3e bd 8f 02 bf de 4e 14 3e
       0.1896116 0.359168 -0.5100058 0.1448321
000100 5e b7 8d 3d 89 c2 31 bf 72 11 5b bf 1e 37 c0 bf
       0.0691974 -0.6943746 -0.85573494 -1.501682
000110 36 2c 6a bf be fa 10 c0 6b 75 ea 3c b1 e5 cc bd
       -0.9147371 -2.265304 0.028620442 -0.10004748
000120 12 a8 33 be 78 09 a4 be 55 2d 46 bf f0 18 0a 3e
       -0.17544582 -0.32038474 -0.7741292 0.13486075
000130 68 46 6e 3f ae cd c6 be 79 0f f9 be ab 3a 0a be
       0.9307618 -0.38828796 -0.48644617 -0.13498943
000140 79 26 0c 3f a4 dc 0e 3e a1 59 02 bf 1b fc 54 be
       0.54746205 0.13951355 -0.5091801 -0.20799296
000150 94 4b 49 be a2 9c 0a 3e 44 66 5e bf 29 96 66 bf
       -0.19657737 0.13536313 -0.86874795 -0.90072876
000160 b9 bd 2f bf 92 43 ad bf 2e e5 10 be ff 9a 8a bf
       -0.6864887 -1.3536246 -0.14149925 -1.0828551
000170 ca 16 e1 bf e6 fb f9 bf fe 1f a3 bf 10 52 a8 3c
       -1.758508 -1.9529998 -1.2744138 0.020546943
000180 3b 6f 6a be bd 82 51 bf 99 37 dd be fd 78 89 bf
       -0.22893994 -0.81840116 -0.4320648 -1.0740048
000190 ef c8 bb 3e e8 0f 30 bd 55 b4 8c be da 0e 26 be
       0.36676738 -0.04298392 -0.27481332 -0.16216603
0001a0 3e a5 5c 3e 99 c9 a9 3d de 42 8a 3e 81 d0 b8 3d
       0.2154741 0.08290405 0.2700414 0.09024144
0001b0 28 66 70 be c5 af 1a 3f c8 98 b9 bd ca f1 ab be
       -0.2347647 0.60424453 -0.09062344 -0.33582908
0001c0 29 43 7d be 88 03 fd 3c 49 76 53 3d b9 f8 d8 3e
       -0.24732651 0.030885473 0.051626477 0.4237726
0001d0 6c 0a 6e 3e 63 0c 99 bd 25 0a ec be e3 f6 f0 3d
       0.23246163 -0.07473066 -0.4610149 0.1176584
0001e0 cf 61 b5 3e 62 81 14 3f 34 76 cf 3e d5 c0 81 3e
       0.35426185 0.5800992 0.4051987 0.25342432
0001f0 95 fb 90 3e f9 91 79 be fd 8f 00 bf 23 c0 44 3e
       0.28316942 -0.2437209 -0.5021971 0.1921392
000200 fc 7e 4a 3e 6a 93 a0 3c 19 cd 64 3e 49 c9 54 be
       0.19775003 0.019601543 0.22343864 -0.20779909
000210 9c 27 e4 3e 02 68 a4 3d 3b 74 2b bf 34 cc 55 3e
       0.4456147 0.080276504 -0.6697423 0.20878679
000220 08 52 fd bd 33 1e 07 be 45 bc 82 bf 3d 46 73 bf
       -0.12369162 -0.13195114 -1.0213705 -0.9502905
000230 34 df 97 bd 47 16 cd be 81 05 37 bf 89 6e 05 c0
       -0.074156195 -0.4005606 -0.71492773 -2.0848715
000240 5b 88 bb bf 28 be 64 be ec 85 16 bd 43 6b 7a bf
       -1.4650987 -0.22338164 -0.03674881 -0.9781992
000250 bd c7 6b bf 06 40 de bf ec 8b 59 bf dc 3e 59 be
       -0.9210165 -1.7363288 -0.8497913 -0.21215385
000260 12 52 15 be 33 ce a7 3e a7 01 c5 3e 2f 6f e8 be
       -0.14582089 0.32774505 0.38477823 -0.45397326
000270 80 90 8b bf 73 aa 88 bf d3 21 1c bf a9 e2 ca bd
       -1.0903473 -1.0677017 -0.6098911 -0.09906513
000280 04 b1 b1 3e 13 24 8e 3e f0 6f 9a 3e ec 90 87 3e
       0.34705365 0.27761897 0.30163527 0.26477754
000290 57 2c 59 3e a0 2d e5 3c 99 ed e5 3e cd d8 eb 3e
       0.2120832 0.027975857 0.44907835 0.46063843
0002a0 70 50 80 3e 22 05 58 3e b0 9f 7b be c0 85 1e bf
       0.2506137 0.21095708 -0.24572635 -0.61922836
0002b0 dc ec 70 bf ef 35 34 bf 8f 1d 97 be f7 38 97 3e
       -0.9411142 -0.70394796 -0.2951474 0.29535648
0002c0 a2 33 4b 3e 27 ff e2 be d4 6f 65 3d 58 07 00 3e
       0.19843915 -0.4433529 0.05601485 0.12502801
0002d0 a4 23 88 3e 42 64 40 bc 21 c6 85 be b0 52 f1 be
       0.26589692 -0.011742653 -0.26127723 -0.47133398
0002e0 e1 3a bb be 15 6f c8 3e 9a 76 5d 3f ca 4d 81 3e
       -0.3656836 0.3914725 0.86509097 0.2525466
0002f0 13 9a 90 be a2 aa 33 bf 72 4a fe be 09 4f 79 3e
       -0.2824255 -0.7018224 -0.49666172 0.24346556
000300 4d f1 db bd 51 e5 9c bf aa 22 2c 3d 7b d3 6a be
       -0.10739384 -1.2257482 0.042025246 -0.22932236
000310 d0 22 65 be e1 5a 98 be 66 73 24 bf 35 25 97 3e
       -0.22376561 -0.29756835 -0.64238584 0.29520574
000320 7d 2b 3e 3e d0 4b 8c bc d7 cb ff be 23 4e 58 be
       0.18571277 -0.017125994 -0.49960205 -0.21123557
000330 73 e1 aa 3d 56 74 1b 3f 84 f3 66 3e 64 34 00 be
       0.08343782 0.6072439 0.22553831 -0.12519985
000340 96 b0 ed bd a4 d0 b0 be ee a5 3f 3d f9 6b c0 3e
       -0.11605947 -0.3453418 0.046789102 0.37582377
000350 6a 27 9d 3e 8c 01 d5 3e fc b6 2e 3e 75 ba c4 be
       0.30694133 0.41602743 0.1706199 -0.38423505
000360 14 db 30 be c4 c5 a1 3d 1b 68 89 be a1 43 78 be
       -0.17271072 0.07899049 -0.2683724 -0.24244548
000370 34 10 1d be 64 e9 f0 be 93 ac 0e bf 8d 7e 58 bf
       -0.15338212 -0.47053063 -0.5573208 -0.845681
000380 44 11 4e be 04 61 93 3e f8 15 29 3e ca 66 9b be
       -0.20123774 0.28784955 0.16512287 -0.3035186
000390 5d 24 0a 3e ad 48 f9 be 2a 76 05 bb f1 3f d0 bd
       0.13490434 -0.4868826 -0.002036462 -0.10168446
0003a0 5d a3 76 be ef cd 33 bd e9 43 17 bf 7e f7 db 3d
       -0.24085756 -0.043897565 -0.59088 0.10740565
0003b0 39 fc be bd bd 86 03 bf 50 c2 00 3f 16 23 c0 be
       -0.093254514 -0.5137747 0.502965 -0.37526768
0003c0 e3 f2 9e 3d 3f d0 19 bf 4f 4b 2b be 47 d0 14 3f
       0.07761171 -0.60083383 -0.16727947 0.58130306
0003d0 58 91 b6 3d 35 81 e5 3e 2a 61 d0 3e 4d 70 56 3d
       0.08914441 0.4482514 0.4069913 0.052353192
0003e0 d3 88 1e 3e 25 4a 92 be 46 40 38 3e 4d f6 9d be
       0.15481882 -0.28572193 0.17993268 -0.30851975
0003f0 b9 47 52 bd 51 69 5f 3e bc 1d be 3d 3d b7 0b bd
       -0.05133793 0.21817519 0.09283015 -0.034110297

conv2.bias f4 [16]
000000 32 39 93 3d f2 3e 86 be ad 47 98 be 39 f2 91 3d
       0.071886435 -0.26219898 -0.29742184 0.071262784
000010 ea 26 0d bb 63 9f 03 be 26 e6 c0 be 36 50 27 be
       -0.0021538087 -0.1285377 -0.3767559 -0.16339192
000020 9b 3f a8 be a8 33 8c be f0 e5 7a bd ad f8 d0 3e
       -0.32861027 -0.2738316 -0.06125444 0.40814725
000030 f2 fb b9 3d 47 15 a3 be a0 57 d6 bd 0d 2e 77 bd
       0.09081258 -0.3185217 -0.10465932 -0.06034665

fc1.weight f4 [120, 256]
000000 56 f9 c0 bd 7e 90 10 bf 54 d3 31 bf b3 c2 38 be
       -0.09422557 -0.5647048 -0.69463086 -0.18043022
000010 7a 22 93 bd de 28 0a bf 5d d7 0c bf a9 62 7d 3c
       -0.0718431 -0.5396861 -0.5501612 0.015465417
000020 51 26 06 bf 19 cc 48 3e 9b f0 59 3d f9 a0 55 3e
       -0.52402216 0.19609107 0.053207975 0.20862187
000030 b9 4a f6 be 2f 58 dd be a5 f6 24 bf dc 1c c8 3d
       -0.48103884 -0.4323134 -0.6443885 0.097711295
000040 01 ee 96 3d 95 fc 5f bc ff 3a f7 3e 04 25 ea 3d
       0.073696144 -0.01367106 0.48287198 0.114328414
000050 45 79 83 be 01 7d c5 bd 73 16 d4 bd 4c 24 e9 bd
       -0.2567846 -0.09642983 -0.10355844 -0.11383876
000060 cc e5 a7 bf 94 4c 7b bf 71 26 49 be 8e 4b 5a 3f
       -1.3117003 -0.98163724 -0.1964357 0.8527154
000070 04 8b 83 bf 15 c4 18 3d 84 92 a3 3e a4 30 59 3e
       -1.0276799 0.037296373 0.3194772 0.21209961
000080 7a 00 21 3f 62 a4 7d 3e b2 97 0c 3d 4a 03 53 bf
       0.6289135 0.24769738 0.034324355 -0.82426894
000090 34 3c 12 3f f9 41 4e 3f 67 24 37 3f d4 51 1d 3f
       0.5712311 0.80569416 0.7153992 0.61452985
0000a0 f4 f7 9a be 65 17 86 be 05 a1 06 3f 87 a2 40 bc
       -0.30267298 -0.26189724 0.52589446 -0.0117575
0000b0 f9 7f 8e be 19 fb 93 3d 7b c8 38 3d 5a 58 72 3e
       -0.2783201 0.072256275 0.045113068 0.23666516
0000c0 af 0b f2 3d b3 c6 a2 3e e6 f2 a2 3d 00 48 be bd
       0.11818635 0.3179222 0.079564855 -0.09291077
0000d0 f0 29 6a bf 67 2d 4a bf 8c da 03 bf 2f 58 36 3f
       -0.9147024 -0.7897553 -0.5150535 0.7122831
0000e0 14 8a c3 bd a6 02 cd be b5 c2 28 be c1 b3 07 3e
       -0.09547821 -0.40041083 -0.16480525 0.13252164
0000f0 16 59 76 3f 4f b2 c6 3e 58 4b 9f bd 20 b6 66 3b
       0.96229684 0.38807914 -0.077780426 0.003520377
000100 8c 2c 19 3f 56 68 4a bf 4f f4 17 be 97 ab ae 3e
       0.598336 -0.79065454 -0.1483929 0.34115288
000110 ad 14 12 be 02 72 3e be 97 18 b3 be de 80 f6 bd
       -0.142657 -0.18598178 -0.34979698 -0.12036298
000120 41 0c 03 bf 13 62 3b bf 88 a4 21 be 0a 88 a0 bc
       -0.5119057 -0.73196524 -0.1578542 -0.019596118
000130 ec c4 4b 3f 1b ed f3 3e 0c 32 23 3f 9f 3d 3e 3e
       0.79597354 0.47641835 0.6374824 0.18578194
000140 11 0f 4b bf 8e cc 87 3e 14 61 f6 3d ba 20 5e 3e
       -0.79319865 0.2652325 0.12030235 0.21692172
000150 0e 96 a3 be b9 61 20 bd d9 ea 09 3e 0f e5 b6 3b
       -0.3195042 -0.039155696 0.13468494 0.005581505
000160 8d b1 09 3f 3a 96 e4 be 00 e6 a3 3b 65 ce 16 3d
       0.53786546 -0.44645864 0.0050017834 0.036817927
000170 a7 0a a1 3e 2f ad 13 bf 25 6f 84 be 86 a2 8b be
       0.3145344 -0.5768613 -0.25866047 -0.27272433
000180 61 9e bf 3e 44 dc b6 3d 47 51 14 be b8 e4 3f bf
       0.3742552 0.08928731 -0.1448413 -0.7495837
000190 92 82 25 3f 9b b9 ad be 98 5f b5 3e 47 08 06 3f
       0.6465236 -0.33930668 0.35424495 0.5235638
0001a0 87 a5 bb bf e2 aa 2e bd 07 fa 49 3e 82 e6 b1 be
       -1.465989 -0.042643435 0.19724284 -0.34746176
0001b0 8b e8 b0 3e de fe c2 3e c4 d8 e2 be ec 7d 98 be
       0.34552416 0.38085073 -0.44306004 -0.2978357
0001c0 57 01 47 bd ed 53 5a 3e 3f ee 92 3e 0d c3 2c bf
       -0.048585262 0.21321078 0.28697392 -0.67485124
0001d0 df f1 f5 be e9 20 0b 3f 04 58 9e 3e 36 4f 77 bb
       -0.48036095 0.5434709 0.30926526 -0.0037736422
0001e0 d4 04 4c 3e 1c c9 b3 3e 2b 52 c0 3c 04 da ca 3e
       0.19923717 0.35114372 0.02347668 0.39619458
0001f0 70 39 54 be 21 cc ec bd 11 61 fc 3c 85 18 07 3e
       -0.20725036 -0.11562372 0.030808004 0.13192947
000200 0e 9d 5d 3e 89 56 24 3f 74 90 91 3c d2 41 32 be
       0.21641943 0.6419454 0.017769076 -0.17407921
000210 9f 65 9a bf 3e e2 78 be 7a d8 e1 3d 0a 82 93 bd
       -1.2062262 -0.24305055 0.11027618 -0.07202537
000220 7c 33 f9 bf 33 7e 2b bf b4 6f 7a 3e 8e 57 b2 3e
       -1.9468837 -0.6698944 0.24456674 0.34832424
000230 c7 e2 da be c8 a7 e7 3e 97 f7 77 3e 5e 69 84 3c
       -0.42751142 0.45245194 0.24215542 0.016163524
000240 79 89 89 bd 1f 35 74 bf 2f 72 40 3e ac 11 1a 3f
       -0.06715674 -0.95393556 0.18793558 0.60183215
000250 c1 bb 73 be be 8d 6a bd 79 71 2e bf e2 ce 1c bf
       -0.23802091 -0.057264082 -0.68141896 -0.6125318
000260 6e eb d1 bd 09 8b 2e 3e 62 82 10 be e8 a5 ed bd
       -0.10249983 0.17045225 -0.14112237 -0.1160391
000270 89 90 33 3f fa 74 41 be df 3d 9d be f1 35 89 be
       0.7014242 -0.1889228 -0.30711266 -0.26798967
000280 9b f8 11 bf 9f c8 f4 3e a7 61 ee 3e 0e 25 19 3f
       -0.57019967 0.47809312 0.46558878 0.59822166
000290 d3 8b 4c be 4b 73 ab bd 82 cd dd be 67 12 fd be
       -0.19975214 -0.083716 -0.43320853 -0.49428102
0002a0 9d a8 2f 3e 74 ca a4 bf 3b 13 55 bf d9 7f dc bd
       0.17154165 -1.2874284 -0.8323247 -0.107665725
0002b0 7b 74 09 3e 7f 98 93 be f4 97 4b bd 05 81 42 be
       0.1342334 -0.28827283 -0.04970546 -0.1899453
0002c0 b5 02 a1 be 19 08 b3 be bb 26 cc 3e ea a7 45 3f
       -0.31447378 -0.34967116 0.398733 0.7720934
0002d0 52 a5 ac bc 52 9d 17 3f b0 d6 db be 80 37 4b bd
       -0.021074925 0.59224427 -0.4293723 -0.049613476
0002e0 b6 d8 08 be 67 e9 12 3f 8c 42 35 bf bb fc d8 be
       -0.13363919 0.57387394 -0.7080467 -0.42380318
0002f0 02 a1 b2 3d bf ac 3c be 3f d8 e8 3e 46 2b c7 3e
       0.08722116 -0.18425272 0.45477483 0.38900203
000300 4c 38 66 be 60 d1 a5 3e 4c f0 42 bd 52 61 a8 3e
       -0.22482413 0.32386303 -0.047592446 0.3288675
000310 20 ef c7 be 58 bc f1 3e 0a d8 35 be fe bf a4 be
       -0.39049625 0.47214007 -0.17758194 -0.32177728
000320 c7 83 8f be d7 8d d6 bd 27 c9 0a 3e 8c 6a b6 be
       -0.28030226 -0.104762726 0.13553296 -0.35628164
000330 d6 fe 61 3c 2b 6a e9 3e c7 03 12 3f 03 df d5 be
       0.013793668 0.45588812 0.57037014 -0.41771707
000340 a8 1c 95 3f 25 cc eb 3e 55 8e 4e bd 87 e3 17 bd
       1.164937 0.46054187 -0.050428707 -0.03708222
000350 32 aa 1b bf bf af 48 be bc e0 24 be 9c 5f 39 3f
       -0.6080657 -0.19598292 -0.16101354 0.72411513
000360 17 60 b7 bd df 52 54 bf c4 3c 13 bb 05 68 11 3f
       -0.089538746 -0.8293895 -0.002246664 0.56799346
000370 7a c1 82 3d 2b 10 5e bd d7 9c 2c 3e 47 4c 4e be
       0.06384559 -0.054214638 0.16856705 -0.20146285
000380 8d 7e 23 3e 1d 78 42 bd 15 90 b6 bf 21 d1 26 bf
       0.15966244 -0.04747783 -1.426272 -0.65162855
000390 65 eb 75 3f 3a 12 71 3f 51 08 a7 be ec 3e f6 be
       0.9606231 0.94168437 -0.32623532 -0.4809488
0003a0 f4 88 1c 3e 3d 0f 40 3f 29 08 e9 3e 98 e4 8f 3e
       0.15286618 0.7502325 0.45514038 0.2810409
0003b0 e6 88 9c be 74 19 46 3e f9 91 99 bc 64 de d2 be
       -0.30573195 0.19345647 -0.018746363 -0.41185296
0003c0 95 83 96 3e cf 26 05 3f 12 73 4f bf 5a 87 6b bf
       0.29397264 0.5201234 -0.8103496 -0.92003405
0003d0 34 e3 c9 3e 1e 60 62 3e e0 17 bb 3e 7b 91 ad bd
       0.39431155 0.22106978 0.36541653 -0.08475014
0003e0 c7 26 8b 3e 81 6c b3 3e c8 b4 e1 be 59 73 d7 3e
       0.27178022 0.3504372 -0.44083238 0.4208019
0003f0 2e 33 f5 3e 83 87 01 3f a5 37 c3 3e f8 74 77 3e
       0.4789061 0.505974 0.3812839 0.24165714

fc1.bias f4 [120]
000000 b7 c7 3b be c6 a0 8f be 6a be 49 bf e1 50 5b be
       -0.18337904 -0.28052348 -0.78806174 -0.21417572
000010 a2 4b 0e 3d 11 02 15 be a4 4f ff be c4 24 1a bf
       0.034740098 -0.1455157 -0.49865448 -0.6021235
000020 bc 51 9b 3e 39 47 8a bf 19 79 87 3e 43 21 2a bf
       0.30335796 -1.0802985 0.26459578 -0.66457003
000030 eb d9 1e bc 0b 7b 74 bf 51 92 98 bd 45 50 b3 bd
       -0.00969551 -0.9550025 -0.07449783 -0.087555446
000040 5e cb 00 bf 7f bb 25 be eb 7a 16 bf f5 3e 20 be
       -0.50310314 -0.16184805 -0.5878131 -0.15649016
000050 1d 75 28 bf 49 d4 a6 bd 0e 33 a3 be b3 99 98 3c
       -0.658037 -0.08145959 -0.3187489 0.018627977
000060 da 19 7e be e4 6c b3 bd 24 37 b1 bc 3e c4 c5 bd
       -0.24814549 -0.087610036 -0.021632738 -0.09656571
000070 f6 81 29 3e 3d 31 82 3c 85 9c f2 be b0 94 80 3e
       0.16553482 0.01589262 -0.4738504 0.2511344
000080 34 16 39 bf 3a 82 d0 be 32 b2 2e 3e 0a 77 26 bf
       -0.72299504 -0.40724355 0.17060164 -0.6502539
000090 83 09 b2 be ae dc 6f bd d7 2d b2 bd 47 91 b0 be
       -0.34772882 -0.058560066 -0.087001495 -0.34485838
0000a0 16 13 88 be f7 45 89 bf 2a e1 6e bd 36 f7 7f be
       -0.2657706 -1.0724477 -0.058320202 -0.24996647
0000b0 ef 31 26 be cc f9 9a bf 12 7d d4 be 14 6c 3e bf
       -0.16229986 -1.2107482 -0.4150167 -0.74383664
0000c0 66 34 24 3e 0d 57 b7 3d c6 e7 d9 3e 01 15 98 3e
       0.16035613 0.089521505 0.42559642 0.29703525
0000d0 92 e4 87 bf 46 b0 2a 3a e2 1c ad be 33 90 9e bd
       -1.0616629 0.0006511252 -0.33811098 -0.077423476
0000e0 0d 82 a6 be 9c 5d 90 3c f1 29 a5 bd 26 51 c7 be
       -0.32521096 0.017622761 -0.0806464 -0.389291
0000f0 7f e2 0b bf e1 c0 d3 bd b8 5e f0 be ef 37 8f bf
       -0.5464248 -0.10339523 -0.46947265 -1.1188945
000100 f5 16 b1 be 41 b9 3f bc e2 bd 40 bf 9c 76 9d 3d
       -0.34587827 -0.011701883 -0.7528974 0.076886386
000110 6c f6 c7 bd b1 1a 11 bf 72 6a 1e bd f5 c1 8f bc
       -0.09763798 -0.5668135 -0.038675733 -0.01754854
000120 f5 c8 aa be 3b 49 bb bf 52 f1 f0 bc 24 12 2f bf
       -0.33356443 -1.4631723 -0.029411945 -0.68387055
000130 f9 2d c5 be 25 fb 15 bf 67 a2 8b bf c3 b1 0f bd
       -0.38511637 -0.5858634 -1.0908936 -0.035081636
000140 9f 81 88 be 12 fc 7f bf b2 94 0f bf 2f a1 01 bf
       -0.26661393 -0.99994004 -0.56086266 -0.5063657
000150 03 e5 c4 bc 97 5d 56 be 3a ce 2e bf 83 25 82 3d
       -0.024034983 -0.20934139 -0.68283427 0.06354811
000160 ca 1b ff 3c cf ad 2c bf 53 5f f8 be ec 3c c8 be
       0.03114118 -0.6745271 -0.48510227 -0.3910898
000170 ef 97 84 3d 81 6c 65 bf 34 d5 6b bf 39 b7 35 3e
       0.064742915 -0.8961869 -0.921222 0.17745675
000180 2c 00 f6 bd 8b 89 88 3d 87 44 f4 be f7 1a 9d bf
       -0.120117515 0.06666859 -0.47708532 -1.2273854
000190 51 3f d4 bc 1a e6 d9 bd bb 58 13 bf eb 0e be bd
       -0.025909098 -0.106395915 -0.57557267 -0.09280189
0001a0 40 3c c6 bd 18 03 dc be 30 7f 6d bf 8e 07 e5 bd
       -0.096794605 -0.4297111 -0.927722 -0.111830816
0001b0 a5 92 35 bf 3b eb e6 bd 41 40 d0 be c2 0a 53 bd
       -0.70926887 -0.112753354 -0.40674022 -0.05152393
0001c0 bf 9f c2 bb 60 c4 52 bc a2 e4 00 bd c3 94 d2 be
       -0.0059394534 -0.012864202 -0.03146804 -0.4112912
0001d0 6e ae 7a 3d 53 e9 e2 3b 49 c3 16 bf e5 91 8c bd
       0.061201505 0.006924787 -0.5889173 -0.06863765

fc2.weight f4 [84, 120]
000000 de b4 b6 3d 2b 59 3e be 69 31 13 3d d0 29 2e bf
       0.089212164 -0.18588702 0.035935793 -0.6803255
000010 54 89 22 3e b7 dd d5 be 49 8a db 3e 89 9d 11 3e
       0.15872699 -0.41770718 0.4287894 0.14220251
000020 29 ef be 3b ce 41 44 3e 63 72 b0 3d a6 52 b1 3e
       0.00582685 0.19165727 0.086155675 0.34633368
000030 11 e1 83 bd c6 72 0c 3f 41 7e 1d bd c0 9f 50 3c
       -0.064394124 0.5486263 -0.038450483 0.0127334
000040 fe bd f3 3e d8 e3 a0 3c 47 23 e2 be 3c 81 45 bf
       0.4760589 0.019639894 -0.4416754 -0.7715032
000050 9d a0 1d bf 7e 26 ca 3c 89 b1 91 3d af c6 dc bc
       -0.615732 0.024676558 0.0711394 -0.026950208
000060 11 68 6c bf a4 5c 53 3d fc a6 86 3e ce ab 5d bd
       -0.9234629 0.05160202 0.26299274 -0.054118924
000070 bd 68 f5 be bc 5d c3 3c 93 20 23 3e d8 cf 6a 3e
       -0.4793147 0.023848407 0.15930395 0.22930849
000080 9f c0 b4 be bf 25 58 be 47 83 9b 3e 88 94 b1 be
       -0.35303208 -0.21108149 0.30373594 -0.34683633
000090 42 d6 e5 bd 07 e8 41 bc 32 7a dd be 6e 1b 87 3d
       -0.11222507 -0.011835105 -0.4325729 0.06597029
0000a0 fb e7 d3 bb ce e7 36 3f be 7f 94 3c 41 33 c0 3d
       -0.006466863 0.71447456 0.018127318 0.09384776
0000b0 cb dc 05 be 59 2d 18 be 5e 6f 68 be 74 63 f6 3e
       -0.13072507 -0.14861049 -0.22698733 0.48122752
0000c0 d7 15 48 bd e8 62 f7 be cd a6 26 3e 8b 3f 83 bf
       -0.048848953 -0.48317647 0.16274567 -1.0253767
0000d0 fa e7 32 bf aa 0f 2e bf eb ef 90 be 1b eb 52 3d
       -0.6988522 -0.6799265 -0.28308043 0.051493745
0000e0 61 8e a6 be 5b bd 14 be a1 92 61 3e d7 9d e5 be
       -0.325305 -0.14525358 0.2202859 -0.44846985
0000f0 36 29 c9 3e fd d1 52 3d 0d 6a 6b be 32 7f a8 be
       0.39289254 0.05146979 -0.22989674 -0.32909542
000100 21 6a 49 3f be f4 db 3e 7d 00 42 3d 42 99 3c bb
       0.78677565 0.4296016 0.047363747 -0.0028777872
000110 a1 02 df 3e 55 d5 49 bf 64 f3 49 3e f3 c3 6b bd
       0.43556693 -0.78841144 0.19721752 -0.05755992
000120 11 5a 2c bf 56 5a 10 3f 58 9a b3 3d 61 3a 87 3e
       -0.6732493 0.5638784 0.08769673 0.26411727
000130 7a 1a 47 bf 84 f3 0a bf 47 3f 10 be fd cc 24 be
       -0.77774775 -0.54277825 -0.14086638 -0.16093822
000140 d7 e1 2c bf 0f 6e 7a 3e f8 7a d7 3d 8f cf 6b 3e
       -0.67532104 0.24456047 0.10521501 0.23028396
000150 04 e4 c8 3d fa ff b3 3d ec 74 d2 3d e2 7f 15 3f
       0.098091155 0.08789058 0.10276207 0.5839826
000160 ee 30 41 be fc b0 0f 3e 6f 6a 3d 3d e9 6d 40 3f
       -0.18866321 0.14032358 0.04624408 0.7516771
000170 a1 72 e9 be 4d 73 2a 3e 34 7f 97 be cc b5 08 3d
       -0.45595267 0.16645546 -0.29589236 0.0333765
000180 32 b8 60 3d 4b f0 34 bf b0 05 cf 3e 32 2a 88 bd
       0.054863162 -0.7067916 0.40434027 -0.06648673
000190 36 69 34 3e 17 00 18 3d 1e e9 6c be e0 dc e0 3e
       0.1761826 0.03710946 -0.23135802 0.43918514
0001a0 3c 4f f7 3e be 5a 02 3f 5b 94 3c bd 2a 76 90 bd
       0.4830264 0.5091971 -0.04603992 -0.07053788
0001b0 b9 10 cf 3d a4 f9 81 3d d8 7a e4 bd 4d de 59 3e
       0.101106115 0.06346443 -0.11156243 0.21276207
0001c0 73 5d a0 3d 28 77 7c bc 69 d2 38 bf ef 0c 7f 3d
       0.07830324 -0.015409268 -0.7219606 0.062268194
0001d0 47 bd 09 3e 06 95 38 bd 4f 04 a3 bd d4 d3 a7 be
       0.1345111 -0.045063995 -0.07959806 -0.327788
0001e0 28 38 4e be 6b be 00 bf 94 19 d4 3d 2d bc 4f be
       -0.2013861 -0.50290555 0.10356441 -0.20286627
0001f0 9e 9f b3 be cc 5d d7 3e 60 89 a1 bd 68 f9 cc 3e
       -0.35082716 0.4206375 -0.0788753 0.40034032
000200 c6 a8 d1 3e 49 54 60 3e 3a 57 d9 be 0d 9a 83 3e
       0.40949076 0.21907152 -0.4244936 0.2570347
000210 10 64 64 3c 62 74 9e 3d 45 17 d1 3c ce 09 39 bd
       0.013939872 0.07737042 0.025523791 -0.045175366
000220 70 cb c5 bd 63 36 b0 3e ec f1 ad 3e 91 ce 72 3e
       -0.09657943 0.34416494 0.33973634 0.23711611
000230 e9 94 b0 3e 79 89 30 bd e4 23 1e 3f 72 19 87 3d
       0.3448861 -0.043099854 0.61773515 0.0659665
000240 ef 7b bf 3e ec 33 71 bd cf 0e c2 be 42 4d f9 bc
       0.3739924 -0.058887407 -0.37901923 -0.030432347
000250 79 f9 9b 3e 36 e2 48 bd 7c 3d a7 be 5a 5e 00 3e
       0.3046377 -0.049043857 -0.32664096 0.12535992
000260 c3 a8 ad 3e 2b bb 82 3d d2 bc 06 bf 92 16 f7 3e
       0.33917817 0.06383356 -0.52631867 0.48259407
000270 c1 41 65 bf b5 b8 35 bd 9b 0c 74 be 8c c0 e3 be
       -0.8955346 -0.044365603 -0.23832934 -0.4448284
000280 87 b6 d4 be fd 13 96 3e dd 08 28 3d ff e1 0a 3e
       -0.41545507 0.29312125 0.041024078 0.13562773
000290 e5 97 37 bd ba a0 33 3f b1 ad 44 bf 0a 29 ec 3d
       -0.044822592 0.70167124 -0.7682753 0.11531265
0002a0 bb 0b c0 3e 54 da 52 3e 83 49 93 3c 39 b8 3f 3d
       0.3750895 0.20591098 0.017979389 0.046806548
0002b0 51 23 20 bf 02 d1 fb 3b 34 f5 7c be cd 69 e0 ba
       -0.6255389 0.007684828 -0.24702913 -0.0017121375
0002c0 9f ac db bd 96 eb ae 3e ae d9 48 3d dd a8 75 3e
       -0.10726284 0.34164113 0.04903572 0.23990197
0002d0 e2 8a 63 bf f5 7d 54 bd cf 52 30 3e 11 5f 61 3e
       -0.88883793 -0.051877934 0.17219089 0.22008921
0002e0 3d 9f 95 be 08 90 fb 3d 40 19 94 3d a1 73 b4 3e
       -0.29223052 0.12283331 0.072313786 0.35244468
0002f0 80 6e ed bd 55 9e 32 bb 51 b0 8c 3e 9c bf 8a 3c
       -0.11593342 -0.0027255018 0.2747827 0.01693707
000300 e4 1e 4b 3d 70 22 5b bd 62 4a 0a be 26 27 e4 3e
       0.049590006 -0.05349964 -0.13504937 0.44561118
000310 13 66 23 3f 64 8e d6 be a4 ef 4a 3e c3 8b 21 bf
       0.6382763 -0.4190551 0.19817978 -0.63103884
000320 6b 83 0d 3c 65 81 18 3d 6c 25 5b 3e be 0a 60 3e
       0.0086372895 0.037232775 0.21400994 0.21879098
000330 90 78 74 3e 5b 33 af be 82 76 d8 3e 9b 85 c0 be
       0.23874116 -0.3421887 0.42277914 -0.37601933
000340 8b 66 15 be 8e e9 3b 3e ec c3 d4 be 6d 7d df 3e
       -0.14589898 0.18350813 -0.41555727 0.4365038
000350 f4 41 71 be 02 6c df 3e 4d d1 54 3f 3b 6a 50 be
       -0.23560315 0.4363709 0.8313187 -0.20353024
000360 90 f8 bd bc b4 01 22 3e 39 6c ea be ad 80 ec b9
       -0.023189813 0.15820962 -0.45785692 -0.000451093
000370 41 5d 19 bd ed 85 0f 3e 9b 61 50 3a cf 48 f6 bd
       -0.03744245 0.14015932 0.00079491147 -0.12025606
000380 c4 96 3a 3f 71 af 40 bf 32 79 79 3e fc 05 81 3d
       0.728863 -0.752677 0.24362639 0.062999696
000390 d7 22 1c 3e d8 31 51 be 1d 4b c6 3c bc 69 62 be
       0.15247665 -0.2042917 0.024205739 -0.22110647
0003a0 da 5b f3 bc ed b2 4f bd 48 7d fc 3d 62 d4 44 3e
       -0.029706884 -0.050707746 0.12328583 0.19221643
0003b0 1f 8f 46 be ef ec ef 3b 18 63 07 3e 40 80 ed 3e
       -0.19390534 0.007321946 0.13221395 0.4638691
0003c0 5b 29 13 3f 69 51 74 3e b0 18 ad be 6b 35 d1 be
       0.5748498 0.2385918 -0.33807898 -0.40861067
0003d0 18 42 d9 3e 4a 69 1a be 45 58 63 3f 73 82 fd be
       0.42433238 -0.15079227 0.88806564 -0.49513587
0003e0 ea aa 09 bf 8b b1 1a 3f d1 59 8e bf 7b 85 91 3e
       -0.5377642 0.6042716 -1.112116 0.2842215
0003f0 4a da 68 bd 98 d4 ba 3e de 70 a0 3c af f3 76 3a
       -0.0568488 0.3649032 0.01958507 0.0009420467

fc2.bias f4 [84]
000000 7c e3 e3 be 14 6d 10 bf 69 c3 8f bf 4f ff 2d be
       -0.44509494 -0.5641644 -1.123151 -0.16991924
000010 50 11 3e bf 78 e5 66 bf 97 7a 34 bf c3 41 a0 be
       -0.74245167 -0.9019389 -0.7049956 -0.31300172
000020 66 b6 42 bf 38 3f 66 be b3 60 49 bf 49 8d 64 bf
       -0.7605957 -0.22485054 -0.78663176 -0.89278084
000030 30 aa 9b bd 1e b9 33 bf 56 79 0b bf 6b f8 21 bd
       -0.0760082 -0.7020434 -0.5448202 -0.03954355
000040 5e 13 17 bf ad 43 3b bf 1d 0a 60 bf f2 c1 35 be
       -0.59013927 -0.7315014 -0.8751543 -0.17749766
000050 0e 32 0e bf a7 5c f3 be 7b 53 6b bf 32 60 0c be
       -0.5554513 -0.47531626 -0.91924256 -0.1370857
000060 e4 4c 1a bf b7 7d fe be 84 d9 b5 be e1 67 2f bf
       -0.60273576 -0.49705288 -0.35517514 -0.6851788
000070 7d 29 09 bf 07 12 74 bd bd d3 07 bf 98 9e ee be
       -0.5357893 -0.059587505 -0.5305746 -0.46605372
000080 41 c2 d9 be 76 d4 ac bf 84 a1 5e bf 8e 10 55 be
       -0.42531016 -1.3502338 -0.86965203 -0.20807096
000090 d2 a0 4c be 1b e5 37 be 91 46 d1 be 5f df 0a bf
       -0.19983223 -0.1795849 -0.4087415 -0.5424709
0000a0 eb 2a ad bd f9 6c 3f bf 07 63 ec be 4b 17 4b bf
       -0.084554516 -0.74775654 -0.46169302 -0.7933242
0000b0 e6 70 10 bf f6 b8 ef be f0 19 eb be 73 b5 50 bf
       -0.5642227 -0.46820801 -0.45918226 -0.8152687
0000c0 64 30 49 3e 4c ce 77 bd 65 05 19 bf 53 e5 27 bf
       0.19647366 -0.060499474 -0.59773856 -0.65584296
0000d0 59 96 4e bf 76 60 15 bf ec 58 b6 be 7d 55 44 bf
       -0.8069816 -0.5835031 -0.35614717 -0.76692945
0000e0 8f 2b 0e bf 48 b4 48 bf b2 6f 54 be d8 3b 7e bf
       -0.55535215 -0.7840009 -0.20745733 -0.99310064
0000f0 e8 cf 63 bf 43 25 fb be 3a a0 fb be 7b 7e 22 bf
       -0.88989115 -0.49051866 -0.4914568 -0.63474244
000100 20 58 17 bf 8f 39 88 bf 14 9b 88 bf a9 b5 48 bf
       -0.59118843 -1.0642565 -1.0672326 -0.7840219
000110 6d c5 77 bf 5b 40 86 bf 0a 98 c7 be 07 84 5e bf
       -0.9678562 -1.048839 -0.38983184 -0.8692021
000120 8e 71 8d bf 1d 6c da be 40 c0 7f be e8 22 ac be
       -1.1050279 -0.4266061 -0.24975681 -0.3362038
000130 e1 d1 6b 3d 3c 2c bb bc c9 df 31 be a0 06 c7 3c
       0.057573203 -0.022848241 -0.17370524 0.024295151
000140 44 89 4d bf f9 30 b9 be 7a 31 3d 3e c2 fa 42 bf
       -0.80287576 -0.36170176 0.18475905 -0.76163876

fc3.weight f4 [10, 84]
000000 9c 97 5e bf 8b c0 ef be 5a 93 7e bf a9 7c 95 bf
       -0.8695009 -0.46826586 -0.9944359 -1.1678668
000010 b2 ef e9 be e6 13 8b bf cd 19 33 be c9 3d 7e bf
       -0.45690686 -1.0865448 -0.17490311 -0.99313027
000020 b7 6c 52 bf 58 81 ae be 8e 26 08 bf 4d a8 92 bf
       -0.82197136 -0.34083056 -0.5318383 -1.1457611
000030 59 cf 4b bf 22 b5 93 bf 95 91 cd bf 02 33 66 bf
       -0.7961326 -1.1539652 -1.6060053 -0.8992158
000040 0c 13 84 bf 54 32 07 bf 6c 9a d5 bc 55 a0 af bd
       -1.0318313 -0.5281117 -0.02607461 -0.08575503
000050 6c 40 3a bc 53 bf e4 be df 48 cb bd c5 6f a0 bf
       -0.011367898 -0.4467722 -0.099260084 -1.2534109
000060 e8 52 6b bf 9c fb c2 be d6 e2 6c bf a2 41 94 bd
       -0.9192338 -0.38082588 -0.92533624 -0.07239081
000070 92 ca 52 bf ef 90 8e bf 06 3b 79 3a 13 08 c9 bf
       -0.8234035 -1.113798 0.00095073914 -1.5705589
000080 f4 59 88 bf 03 02 e9 be 8e a2 09 bc 25 1a 38 be
       -1.0652452 -0.45509347 -0.008400572 -0.17978723
000090 06 d5 9e be 61 83 8c bf 3d c0 62 bf 29 16 da be
       -0.310219 -1.0977594 -0.8857458 -0.42595032
0000a0 c8 e8 e9 be e3 29 62 bf 40 24 1d be 26 a3 fb 3d
       -0.4568541 -0.88345164 -0.1534586 0.122869775
0000b0 c8 93 60 bf 02 74 b5 bf 33 35 61 bf d3 6b 86 3d
       -0.87725496 -1.4176028 -0.879718 0.065635346
0000c0 e0 06 9f bf 1a f3 65 be b9 2f a0 bd ea 00 78 bf
       -1.2423973 -0.22456017 -0.078216024 -0.96876395
0000d0 c4 6d 83 bf 4d 2b 25 be db 3d c3 bf 5f 58 67 3d
       -1.0267873 -0.16129799 -1.5253252 0.05648076
0000e0 d5 2a 91 bf 5a f4 aa bf 87 8b 89 bc 81 1b 79 be
       -1.1341196 -1.335582 -0.016790165 -0.24326898
0000f0 b6 81 29 bf 9f d2 8f bd 2c 0e 93 be d8 ab 06 3c
       -0.6621355 -0.07022595 -0.2872175 0.008219682
000100 8a 7f b7 bf f8 8e 9a bf 45 d9 08 3d af 69 99 bf
       -1.4335797 -1.2074881 0.03341033 -1.1985377
000110 df a3 82 bf 40 92 79 be d9 d0 c7 be d5 37 a1 be
       -1.020626 -0.24372196 -0.39026526 -0.3148791
000120 f7 4b 78 be 2d e5 99 3c e3 cb ab bc 9d 95 cc 3d
       -0.24247728 0.018786037 -0.020971244 0.09989474
000130 db b3 64 bf ae 87 ee be fc e5 52 bc 0f 50 bb bc
       -0.8933694 -0.4658789 -0.012872215 -0.022865323
000140 25 f7 5d bf b3 20 c0 3d c7 48 b5 bf 0f 7f 9f 3c
       -0.8670524 0.09381237 -1.4162835 0.019469766
000150 f7 6a 81 3c 33 86 6d bf 78 ee ce bd b1 ea 23 3c
       0.015798075 -0.92782897 -0.10104078 0.010004685
000160 1c 8e 61 bf 6a 8d 89 be 23 32 3d bd 98 3a 50 bf
       -0.88107467 -0.26865703 -0.046190392 -0.81339407
000170 19 54 43 bf 30 cf 59 bf 70 ce 9f bd 6b 3e 9f be
       -0.763002 -0.8508177 -0.07803047 -0.3110231
000180 e7 64 95 bf b0 ba 00 bf 2d b2 42 bf 1e e4 93 bd
       -1.1671418 -0.5028486 -0.76053125 -0.07221244
000190 b1 c7 5e 3e f7 36 72 be 98 10 6d bf b3 db 65 bd
       0.21755864 -0.2365378 -0.92603445 -0.056117725
0001a0 65 c3 5e bf 12 ca c3 be b5 9b 7f bf 17 e1 72 be
       -0.870169 -0.38240105 -0.99846965 -0.23718677
0001b0 cb 4b e6 bd 28 c8 8c bf ad 17 c8 be ba 67 a6 bf
       -0.11244925 -1.0998583 -0.39080563 -1.3000405
0001c0 22 90 91 bf 0d 44 96 bf 71 78 ed 3d ae df bf bf
       -1.1372111 -1.1739517 0.11595238 -1.4990137
0001d0 28 e4 24 bf 00 f4 58 bf 50 da 71 bf 80 2c b9 bf
       -0.6441064 -0.84747314 -0.94473743 -1.4466705
0001e0 54 a4 c7 bf 7f 3b 89 bf 78 e4 3e bf 21 58 bc bf
       -1.5597024 -1.0721282 -0.74567366 -1.4714395
0001f0 9f 48 43 bf db 03 09 3d 5c 44 3b bf ea 57 38 3e
       -0.76282686 0.033450942 -0.73151183 0.18002287
000200 70 27 5f bf 3f ff d0 bd d6 76 b6 bd c7 03 86 bf
       -0.8716955 -0.10204934 -0.08909385 -1.0469903
000210 a4 eb b2 bf 71 9b 5b bc 36 e1 e2 bf 60 9f 82 be
       -1.3978162 -0.013403759 -1.7724979 -0.25512218
000220 82 37 f6 be 20 28 6b bf cc eb cb bf d3 e5 57 bf
       -0.48089224 -0.918581 -1.5931334 -0.8433506
000230 dd c3 94 bf d0 d4 a1 bd 30 67 0f bf a4 cc 9f bf
       -1.1622273 -0.07901919 -0.56016827 -1.2484326
000240 93 ab 96 bf 14 94 90 bf 76 dc 45 bf 09 cd fb 3c
       -1.177111 -1.129519 -0.7728952 0.030737417
000250 d4 21 db be b5 7e 82 bf ed d1 b4 bf cc 5d 3f bd
       -0.42799246 -1.0194918 -1.4126564 -0.04672031
000260 4b f4 5f 3d af 3a 11 bf dc 84 e0 bf 9c c5 3b bf
       0.054676335 -0.5673017 -1.7540545 -0.733484
000270 11 83 fc be fb 09 73 bf f9 e3 f1 3d d9 70 5a be
       -0.49318746 -0.94937104 0.118110605 -0.2133211
000280 8d bc 37 bf b1 a1 02 c0 c1 5f 0c 3d b0 92 50 bf
       -0.7177208 -2.0411189 0.034271006 -0.8147383
000290 4f ee 39 bf 0f 16 2b bf 61 f5 89 bf b1 cb 2b bf
       -0.72629255 -0.66830534 -1.0778009 -0.67107683
0002a0 6d c5 1a bf ba de 40 bf 38 c0 a9 be d0 2e 8e be
       -0.604575 -0.75339854 -0.33154464 -0.2777009
0002b0 8c 20 f5 be 9f 52 a2 be bc 94 d9 bc db 6c a8 bd
       -0.47876394 -0.3170366 -0.02656018 -0.082238875
0002c0 54 2b 21 bf ba a7 24 3d 76 93 89 bd 0b 0f 9f bf
       -0.6295674 0.04019902 -0.06717579 -1.2426466
0002d0 b6 7f 5b bf d5 f6 e2 bf 4a e2 a8 be 50 aa 1d 3d
       -0.85741746 -1.7731577 -0.32985145 0.0384925
0002e0 b7 a4 6f be 41 23 6c bf 38 fd 08 be fc ea a6 bf
       -0.23402677 -0.92241293 -0.13377845 -1.3040462
0002f0 50 dc 88 bf 61 75 13 bf 23 66 4f bf d1 95 8a bf
       -1.0692234 -0.5760098 -0.81015223 -1.082697
000300 a1 a3 74 be fc 45 33 bf 4e cb 25 3e 6b 23 28 bf
       -0.23890544 -0.7002866 0.16190836 -0.65679044
000310 3e 7f 99 3e 00 19 d4 bf 2b 4d 3f 3d c0 e4 24 bd
       0.2997989 -1.6570129 0.046704452 -0.040257215
000320 25 98 6e bf 40 16 8e be fa 7a 1a 3e 6e fe 0c be
       -0.93200904 -0.2775135 0.15085974 -0.13768932
000330 f4 f0 5b bf f0 54 ef be 17 47 29 bf 79 88 a2 bf
       -0.8591454 -0.4674449 -0.661241 -1.2697898
000340 ff fd cb bf 94 28 3a bf 84 a0 a4 3d fa d7 26 be
       -1.5936888 -0.7271817 0.080384284 -0.16293326
000350 25 c8 24 bf c4 b3 0c bf 1a ab b0 bf 7d a7 61 3d
       -0.64367896 -0.549618 -1.3802216 0.05509137
000360 70 c8 39 bf 85 8c 9c bf 7f 7c 61 bf 1b a9 7f be
       -0.7257147 -1.2230383 -0.8808059 -0.24966852
000370 95 aa 6d bf e2 05 d4 be 4b 3e b0 be f4 9e 69 bf
       -0.9283841 -0.41410738 -0.34422526 -0.9125817
000380 b9 da 7e be 66 2b 41 bf 14 b9 7d bf 33 24 74 be
       -0.24888124 -0.75456846 -0.9911053 -0.23841934
000390 38 55 13 bc d3 18 ff be 15 89 48 bf fa df 4f bf
       -0.008992486 -0.49823627 -0.7833417 -0.81201136
0003a0 1a 6a 37 bf c6 f5 b4 be db d9 c2 bd 9b 52 c2 3c
       -0.71646273 -0.3534376 -0.09514209 0.02372103
0003b0 9f d6 96 bf 5f 71 e2 bb 6c 4e c8 be 9b b4 d0 bf
       -1.1784247 -0.0069104875 -0.3912233 -1.6305116
0003c0 71 fc 97 be d3 0f 1b be 4e 48 d3 bf 8a 4c 59 bf
       -0.29684785 -0.15142755 -1.6506441 -0.84882414
0003d0 6e 7f b2 be 3d 1a 4a 3d 33 d2 84 3d 3c 08 c6 bf
       -0.34862846 0.04934143 0.06485405 -1.5471263
0003e0 9f d1 e5 bf 3d 3b 9a bf 90 06 85 bf af 16 0c bf
       -1.7954596 -1.2049328 -1.0392628 -0.5472211
0003f0 bd 1d fa bc 5b 09 3e bf f7 b8 ed 3c 97 3a 4c be
       -0.030531758 -0.74233025 0.029018862 -0.19944225

fc3.bias f4 [10]
000000 83 6c 02 bf 57 f2 03 bd ad 4d 76 be d7 95 41 bd
       -0.50946826 -0.032213535 -0.24053068 -0.04726204
000010 ce 95 e7 bd 90 4c e7 be 56 a9 6c be 5c d6 89 be
       -0.1130787 -0.451756 -0.23111472 -0.26921356
000020 b2 10 a0 3e 06 88 87 3e
       0.31262738 0.26470965
