mnist/saved_models/model_epoch_7.pth (torch, 181324 bytes, 10 tensors)

conv1.weight f4 [6, 1, 5, 5]
00000000: 5c9a 31be 3b13 113d 8c38 d23d 6f15 d53e
00000010: f59b 5e3e ac58 9e3e 3e10 ce3e 808c 963e
00000020: 3c74 083e 99e3 9b3e 8ca7 933e 835e 4a3e
00000030: 1fdb f7bd 4290 2abe edb0 e8bd 7deb 80bd
00000040: dfc8 9cbe d952 a2be 29a3 babe ae52 84be
00000050: afe3 41be 98d9 77be 85ff c9bd 454a 733e
00000060: 904e 4cbd 8a04 59be 91b2 0b3e e3b0 983e
00000070: 7e24 dd3b c1a8 30be 8bc9 11be b823 df3d
00000080: c8dc 953e e587 943d 7e7b a23c 0f0d d4bd
00000090: 0674 58bd aef0 823e 657a 5e3e d483 01be
000000a0: 8b40 7fbd 91c3 b6be b709 ccbd 248d 12be
000000b0: 17ad ffbd 28c0 1a3e fe10 9abd a948 153e
000000c0: d97f 343e 83d4 a13c 4488 ac3b 0ee3 12be
000000d0: ad69 1ebe 9215 1bbd 6df6 d9be 1cc7 0bbd
000000e0: 6ee3 a6bc 5b19 a73e fbe4 013f bbf2 8e3c
000000f0: f15f 973e 39e8 813e d7d2 fc3e d32a 093f
00000100: 10e0 deb8 c353 f9bd cf21 b1be 8d70 f7bc
00000110: 89d6 a33e ca1f 383e f030 64bd 1e87 b3be
00000120: a037 19bf a598 f1bd 680c 503e 6ff6 28bd
00000130: 85bb 0f3e 0f09 4abd e3cd 983d 4ba5 b13d
00000140: f90f 2d3d 69aa d03c 861d 2dbe cdc6 613e
00000150: 21c2 8a3e e227 293d 6bc1 04be e370 a7be
00000160: fcc2 89bd ba97 a43e e34e b8bd dabf 38be
00000170: 5e3a 87be e00a b13e 4b55 023f bb90 2dbe
00000180: f134 86bc 0ad3 8f3d e549 483d 8dc0 463e
00000190: 4545 d03c 4ee8 46bd 65c9 983e ab0e 1d3d
000001a0: c99b b03e f899 663c ffd2 4abe bf12 fbbd
000001b0: d251 e8bd dc6e 663b 979f cbbd 458c 98be
000001c0: db74 56be f60c b1be 4f6a f1bd 5dab 4f3e
000001d0: 8173 f4bd d7a7 88be d27c 32be 96f0 b9bb
000001e0: dfce a83e 9cb3 8b3e 3e18 2f3e a504 9d3e
000001f0: 882d 7d3e 53ec 0cbd 99fb 473e 54db 663c
00000200: 56a1 2e3d 38e4 df3d 5e3c 9ebd 110f 6f3e
00000210: c693 143e b403 b0bd 81ea 0ebe 9554 093e
00000220: 31c7 d63e 0907 adbd 1e99 b2be bc04 4dbc
00000230: b68d 843e efe3 6a3e cdb6 ebbe f5e2 2f3d
00000240: 2651 4ebc 4282 2e3e 98ef b3bd 08bb 46be
00000250: d10f d5bc 64f9 9ebd
-0.1734404 0.03541873 0.10264692 0.41617915 0.2173918 0.30927026 0.40246767 0.29404068
0.1332559 0.3044708 0.28838766 0.19762616 -0.12102341 -0.16656592 -0.11361871 -0.06294916
-0.30622002 -0.31703833 -0.36452606 -0.2584433 -0.1893451 -0.24204099 -0.098631896 0.237588
-0.04987961 -0.21193138 0.13642336 0.29822454 0.006748735 -0.17251875 -0.14237039 0.10895485
0.29270005 0.07252482 0.019834276 -0.10354053 -0.052845024 0.2557425 0.21726377 -0.12647945
-0.062317412 -0.3569608 -0.099627905 -0.14311653 -0.12484186 0.15112364 -0.07522772 0.14578499
0.17626895 0.019754654 0.0052652676 -0.14344427 -0.1547 -0.037862368 -0.4257082 -0.034125432
-0.020372119 0.32636532 0.5074002 0.017449727 0.29565385 0.25372484 0.49379608 0.5358097
-0.0001062752 -0.121741794 -0.34596106 -0.030205036 0.31999615 0.17980877 -0.055710733 -0.35064024
-0.598505 -0.11796693 0.20317233 -0.041250642 0.14036377 -0.049325045 0.07461145 0.08674105
0.04225156 0.025471883 -0.16905794 0.22048493 0.27101234 0.0412978 -0.12964408 -0.32703313
-0.067266434 0.32147008 -0.089994214 -0.18041936 -0.26411718 0.3457861 0.50911397 -0.16949742
-0.016382666 0.070226744 0.048898596 0.1940939 0.025423655 -0.048561387 0.29841152 0.038344067
0.34493855 0.014074795 -0.19807051 -0.12259435 -0.11343731 0.0035161292 -0.09942549 -0.29794517
-0.20943014 -0.345802 -0.11787855 0.20280214 -0.11936093 -0.26690552 -0.17430428 -0.005674432
0.3297033 0.2728547 0.17099091 0.30667606 0.247244 -0.034405064 0.1952957 0.014090378
0.04263433 0.10932201 -0.07726358 0.23345591 0.14509496 -0.08594456 -0.13956644 0.13411172
0.41948846 -0.084486075 -0.34882444 -0.012513336 0.25889367 0.22938512 -0.46037903 0.042941052
-0.0125925895 0.17041877 -0.08785933 -0.19407284 -0.026008518 -0.07762411

conv1.bias f4 [6]
00000000: 1a67 d93d 964d 34bf 361b 1dbd f668 4ebe
00000010: bac1 c2be 0623 6abe
0.10615368 -0.70430887 -0.03835603 -0.20157227 -0.38038427 -0.22864923

conv2.weight f4 [16, 6, 5, 5]
00000000: 183c c63c 223b 66bd 9bfe 4e3e fa42 873e
00000010: d66d 7b3d d426 1f3e 6825 4f3d 633c 743e
00000020: da52 eb3d 3bf8 2d3e 430a 853d 1952 103e
00000030: 9f17 3b3d ed19 0abe d44f 5a3d 39e4 dfbe
00000040: 605c cebe 6410 a1be 8f47 a9be 9865 80be
00000050: 5476 07bf e2fd 0bbf 6334 1dbf da54 65bf
00000060: 5fca 7cbf 0e4a 8c3d ec4c e73c 74bf ecbe
00000070: 63fe 55be 7fdc 81be dc9f 853d 5c79 ff3c
00000080: 3e60 a1be 7cc2 cdbd be0d c4bc 8da7 1e3e
00000090: 0b32 043e 738c 0abd fe67 64bb e1c4 c73b
000000a0: 0665 033e bcd2 073e f55e 19bd 9d13 823c
000000b0: 7ac1 7bbb bc94 1cbd 7eb6 973d 9ffc 08be
000000c0: 9a25 863c c66c 05be 7d23 913e 0173 053e
000000d0: 070a c83a 9239 8cbd 8345 c63d ac55 63bd
000000e0: dc10 503e ec8a 253d dccf 143d 691f 7c3e
000000f0: 4a43 823d c14f 273e 315b 95be ef38 dfbd
00000100: 13e4 9fbd 10d5 88be 2756 c1be 93b6 0fbf
00000110: bd00 10bf 520c 31bf ce4d 173e fbb2 30be
00000120: d9b6 c7be ed7a 19bf 1717 09bf 7b20 483e
00000130: dfa2 903e 910d 22be 1c7a 8a3b 9d02 fabe
00000140: 795b d33e b748 4f3d dd47 90be efd9 d33c
00000150: e59d 97bd 2a67 fc3c d914 7fbe 08ca b2be
00000160: b905 57be 260a a5be cf6d 39be 4c6d 09bf
00000170: bf75 83bf 5264 03bf f799 cebe 0553 3e3d
00000180: febc 0d3d e692 3abe c648 d5be 18e6 0fbf
00000190: 4fa8 133d e497 1cbe 7fc9 c4bd 07e2 fabd
000001a0: d6cf 58bd d257 873d f62a b63b ded9 1bbe
000001b0: c6cc 37be 6aac 77bc bc56 d6bc 8bc2 2b3c
000001c0: 236e ccbd 652c 00be c935 2dbd 8bc3 823e
000001d0: aa92 1b3e 2bed ebbb b6ce 93be 4fd3 8fbd
000001e0: 784d 743e abd0 ab3e 3a57 ae3e 5259 763e
000001f0: b7e6 8d3e ac41 cdbd 322b 58be a473 863e
00000200: 1516 213d 19ed 95bd 513b a6bb 2de9 043d
00000210: ee54 f73d ae91 60bc 965e 68be 662d b13d
00000220: 180b c4bb 960e 70be 0ea5 cfbe 3311 7ebe
00000230: f6d4 33bd 5bc7 49be 4872 01bf ffc1 62bf
00000240: 7c39 d3be 1777 92bd 1bd8 0abe 47d4 3dbe
00000250: a802 ebbe 7143 51bf a4a1 cabe 5253 a4be
00000260: ac17 a3bc 3fa4 8d3e 35d4 a63e 0cfe 4ebe
00000270: 79c8 d9be 8c3b 0ebf ba3c 12be fa1c 87bc
00000280: 8f94 e93d 9496 4c3d 5993 dd3d d9fd 243e
00000290: 8a19 f93d 7702 0fbc 189f 683e 8061 383e
000002a0: 99ab c53d fb11 c93d 2b3b 41be 1400 8bbe
000002b0: 5505 ddbe 9cf6 22bf 0ae3 94be 6da9 803e
000002c0: b011 493e 8467 aabe dbaa 2b3e d5bf 15be
000002d0: d6c1 b2bd dc7c a0bb 02db 30be 652a 38bd
000002e0: 43a2 99be 7302 993d 59fb 873e 5ff4 22bb
000002f0: dc7f c1be 4c98 d4be a158 8dbd 73e0 3f3e
00000300: 9df9 913d c924 55be b273 c13c 5c7d 56be
00000310: a1bd 93be 55b2 b4be 6c26 5abe ed84 513d
00000320: ed9e 623d 268a 9fbb 3560 41be 915b e6bc
00000330: 56a9 febd 8749 b23e 8cc2 1e3e 2c61 4f3d
00000340: 95c7 a0bd 52d7 5fbe 5ebf f53d 175c 9b3e
00000350: 41be 6f3e 34ac c83e 217c e33d 0379 5dbe
00000360: 39fb 09be 9431 d5bb b906 933d 9bfc 4ebd
00000370: 7f27 9dbe e8f4 e3be 199b 89be a02c 86be
00000380: afd4 26be 2ae2 9d3e 9561 5e3a 0e6e 31be
00000390: 6da5 13be f381 dcbd f6c2 673b 0201 a8bd
000003a0: 737b 91be 6fde 1ebe 1fe6 2dbe 3a6a 983d
000003b0: 0639 4cbe fda6 2dbe c854 833e 471a 24be
000003c0: ec37 dbbc ed22 8abe 3a24 b7bc 1723 2a3e
000003d0: 07c4 7dbd b596 413d d0d7 9f3d 6589 233e
000003e0: 6969 01bc 0b30 6cbe 6354 b7bc b065 a9be
000003f0: 3f7d a4bd f28f 5dbd 308a 0d3e 18e2 fb3c
0.024198577 -0.056208737 0.20214312 0.26418287 0.061384045 0.15542156 0.050572783 0.2385116
0.11490412 0.16989224 0.06496098 0.14093818 0.045676824 -0.13486452 0.053298786 -0.43728808
-0.40304852 -0.31457818 -0.33062407 -0.2507751 -0.5291493 -0.5468427 -0.6140806 -0.895826
-0.98746294 0.06850062 0.028234921 -0.46239817 -0.20897822 -0.25363538 0.065246314 0.031185798
-0.3151874 -0.100468606 -0.023932334 0.15493603 0.12909715 -0.03382535 -0.0034852023 0.006096468
0.12831506 0.13263983 -0.037444074 0.015878493 -0.0038414882 -0.03822778 0.074078545 -0.13377617
0.016375352 -0.13029775 0.28347388 0.13032152 0.0015261777 -0.06846918 0.09681227 -0.055501625
0.20318931 0.04041569 0.036331043 0.24621357 0.063604906 0.16339017 -0.29171136 -0.10899531
-0.078071736 -0.26725054 -0.37761042 -0.5613796 -0.56251127 -0.69159424 0.14775774 -0.17255776
-0.3900669 -0.59953195 -0.5355086 0.1954364 0.2824926 -0.15825488 0.0042259824 -0.4883012
0.41280726 0.050606456 -0.28179827 0.025860755 -0.07403163 0.030810911 -0.24910296 -0.34919763
-0.20998277 -0.32234305 -0.18108295 -0.536824 -1.0270308 -0.5132495 -0.4035184 0.046465892
0.034604065 -0.182201 -0.41657084 -0.5621047 0.036049183 -0.15292317 -0.09608745 -0.122501425
-0.052932583 0.06608547 0.0055593206 -0.15219828 -0.17949209 -0.01511679 -0.026164405 0.010483394
-0.099819444 -0.12516935 -0.04228762 0.25539812 0.15192667 -0.0071999035 -0.28868645 -0.07022726
0.23857677 0.3355764 0.34050924 0.2405751 0.27715084 -0.100222915 -0.21110228 0.26260102
0.0393277 -0.073206134 -0.005072989 0.032448936 0.12076746 -0.013706608 -0.22692332 0.08651237
-0.005982768 -0.23443064 -0.40555614 -0.24811248 -0.043904267 -0.19704954 -0.50565004 -0.88577265
-0.41254795 -0.07151621 -0.13559 -0.18538009 -0.45900464 -0.8174353 -0.39576447 -0.32094818
-0.019908749 0.27664372 0.32583776 -0.20214099 -0.4253576 -0.5555961 -0.14280978 -0.01649331
0.114052884 0.04994829 0.1081912 0.1611246 0.12163074 -0.008728615 0.2271694 0.18005943
0.0965187 0.098178826 -0.18870227 -0.27148497 -0.4316813 -0.63657546 -0.29079467 0.25129262
0.19635653 -0.332821 0.16764395 -0.1462396 -0.087283775 -0.004897697 -0.17271045 -0.044962306
-0.30006608 0.0747117 0.2655895 -0.0024864895 -0.3779286 -0.41522443 -0.0690167 0.18737964
0.07127688 -0.20814814 0.023614738 -0.20946258 -0.28855613 -0.35292307 -0.2130372 0.05115216
0.055327345 -0.0048687635 -0.18884356 -0.028119834 -0.12434642 0.34821722 0.15503901 0.05062978
-0.07850567 -0.21859482 0.11999391 0.30343696 0.2341242 0.3919388 0.1110766 -0.21628194
-0.1347474 -0.0065061543 0.071790166 -0.050533872 -0.30694196 -0.44522786 -0.26876143 -0.2620592
-0.1629207 0.30836612 0.0008483169 -0.17327139 -0.14418574 -0.10766973 0.0035364009 -0.08203317
-0.28414497 -0.15514539 -0.16982315 0.07442136 -0.19943628 -0.16958232 0.2565062 -0.16025649
-0.026760064 -0.2697977 -0.022356141 0.16614948 -0.061954524 0.047262866 0.07804835 0.1597038
-0.007898667 -0.23065202 -0.022379106 -0.33085394 -0.08031701 -0.054092355 0.13822246 0.030747458

conv2.bias f4 [16]
00000000: 28bc bd3d 85dc 813b 2dd0 e1bd c3f8 283e
00000010: b3e6 f93d f8af 243c 3502 23bd 5ec2 efbd
00000020: b78d aebc ce25 9abd 9e54 cfbd 57da 493e
00000030: bfde 953d c754 a5bd 06a3 e23b 39bd 2dbd
0.092644036 0.0039630556 -0.110260345 0.16501145 0.122022055 0.01005172 -0.039797027 -0.117069945
-0.02130781 -0.07526742 -0.10123561 0.19712196 0.07317876 -0.080728106 0.0069164066 -0.042416785

fc1.weight f4 [120, 256]
00000000: 1d02 a3bd b200 dfbd bb83 abbe 8eeb 4fbe
00000010: 4c49 893d 36a9 2dbb 474b 12be 8801 063e
00000020: 916f bebd 6981 e6bc da78 443c 9fff 853e
00000030: 4066 a6be bbc0 7f3d 4e26 cebe d595 0dbd
00000040: afe1 e8bc 861c a1bd 7db8 16bd 1264 62be
00000050: 3d1c 24be 62ab 2fbe 3746 9a3b 8578 203e
00000060: dcca 1cbf e9f0 b5be a945 24bd 42e7 0e3e
00000070: af0c f8be d9d1 653c 5ea9 35bd ee73 e8bd
00000080: 5c94 843c 7dc1 cf3d a3a5 803e 6581 90be
00000090: fc1a 0b3e 80e2 b93e ba34 683e b6f6 523d
000000a0: 6f3e 88be 78e3 13be 04e8 3f3e e6ee bd3d
000000b0: 3fc7 943d 2c17 1ebb 7125 aa3b 2105 db3d
000000c0: 0342 96be f03d 1dbe 7f1f 2c3e dbcb 2fbd
000000d0: 5ed8 35be 3686 dabe 33f7 9a3d 6cf8 003e
000000e0: 564d 85be a9ec ddbe 4a2b 093d 1cff 2e3e
000000f0: 0cac ed3e ca83 8a3e 88d3 72bc cad9 9c3d
00000100: dac2 02bc 5db5 1dbf f51c 5b3d 5bd9 c6bd
00000110: d64a 0bbe af51 e1bd fa01 17be 323a a5bd
00000120: 2dc3 20be 9c1f 0abd a0af 8cbe 8ce8 743c
00000130: d37e 983e a589 a53e 7dbc 8f3e 96ef f73b
00000140: 62e7 c2be f0ba f0bd d0ce bf3e f1b4 703e
00000150: 316d 033b 1399 56be aced 3b3e d953 05be
00000160: fb6f 283e a3ab 9dbe 0504 663e a4cf 00be
00000170: 9c2e 72bc cff7 ac3a 2adc 4c3c d56f 123d
00000180: e2fb 543e bf02 84bc f943 e7bd b7bf 2bbe
00000190: bf90 a0bd 9409 47be 9de7 c23d 6398 d53d
000001a0: 2ac4 20bf 976d a2be c8e5 3cbd 2f55 b23c
000001b0: 2b24 8fbc 5c42 fdbd 4c4d 3abe b755 8bbc
000001c0: 3339 03bf c28c b13d d052 063e dda3 00be
000001d0: 7723 46be 3796 ed3e 6539 bdbd 6456 60be
000001e0: 4da8 8fbd 5921 563e a59f 1e3e ee8e 19be
000001f0: 1228 3dbe 6ae2 8bbd 1f10 a6bd a3f1 a6bd
00000200: 711f 06be 2603 e33e 418f 7b3e 0c1c 1dbc
00000210: a94a 9ebe 1bfc 4bbe a1b2 8f3d d8f9 38be
00000220: 0628 60bf 7d3b 92be fe3e 973c 870a ce3d
00000230: cd40 38be 8fe5 823e 0f91 633e 545b 853d
00000240: e002 59be 0071 18bf a40c f0bb 8812 9e3e
00000250: 20d3 5abe e71b 0bbd acac 06be 8156 f2bd
00000260: 33d5 eabd 95bd 7e3e 5100 22be f2d8 9dbd
00000270: aa60 783e bd74 c4bd a466 96bc 771e 37be
00000280: 7a68 f7be 5733 913d 3548 f93d 8adb 6f3c
00000290: bbd4 d43d c0f9 4ebc 12b8 42be 0800 48be
000002a0: 4e40 b93d 7310 a8be c1cf 28be 0b9b 0bbe
000002b0: 1454 24be 0b26 3ebd 62f2 9fbc a123 0abe
000002c0: 965b adbe 442e bfbe 3a32 b43e 3dcc ac3e
000002d0: 71d0 3d3e f4df d83d 753a 83bd eba5 ba3d
000002e0: 7b48 5f3c 9520 283e d2f7 6fbe 795f 2fbe
000002f0: 8515 cd3c 077a 77bd 650f a83e cfa1 c33d
00000300: a2e0 e33c e43b 5e3e 45fc 823c 7bd5 833d
00000310: 50c1 58be d51e 3d3e 9618 fdbd 6d32 55bd
00000320: d706 2bbe dbd4 a73d 8de9 e33d 0cc2 eebc
00000330: 043d ce3c f0aa 1e3e fec7 a03d 6e8e 5bbe
00000340: 8942 583e a601 2f3e 6c6c 433c 573d 2ebe
00000350: b7cf babe 6a37 033e e616 6dbd 0a7a 8d3e
00000360: 8238 fe3c 0dbc cbbd 64da 45bd de15 6a3e
00000370: 83bb f93d 86f4 a03d 4d58 3f3c d8a9 40bd
00000380: 2f08 2a3d f8b8 65be 42d1 0cbf aa3a 9cbe
00000390: 453d f33e eb55 b13e 5917 573d 1ab2 e8bc
000003a0: d2e6 513e 92bc a43e 0aec 9f3e ce18 513e
000003b0: 56b5 69bd 5dd7 8f3d d993 04be 85f6 983d
000003c0: 3ae9 a53e 5c5f 003e 60f4 88be 6e0f 09bf
000003d0: 5752 493e b599 bdbd 9a9e 8f3d 577a d4bd
000003e0: ec2e e33c 61e6 05be 7012 d5bd 365f 4d3d
000003f0: bfc9 c3bc 71ac 98bd 7a62 053e db4c c6bb
-0.079593875 -0.108888045 -0.3349894 -0.203047 0.067034334 -0.0026498563 -0.14286529 0.13086522
-0.09298623 -0.02813788 0.011991704 0.26171586 -0.32499886 0.06243966 -0.402636 -0.03456672
-0.028427927 -0.078667685 -0.036797035 -0.22108486 -0.16026397 -0.17155221 0.0047080773 0.15670975
-0.6124704 -0.35535362 -0.040105496 0.13955405 -0.48447177 0.014027082 -0.044350974 -0.11350237
0.016184025 0.10144327 0.2512637 -0.2822372 0.13584512 0.36305618 0.22676364 0.051504813
-0.26610133 -0.14442241 0.1874085 0.09274082 0.07264566 -0.0024122698 0.0051924516 0.10694338
-0.29347238 -0.15355659 0.1680889 -0.04291902 -0.17758319 -0.4268052 0.07566681 0.12594765
-0.26035565 -0.4334462 0.03348855 0.17089504 0.46420324 0.27053672 -0.014820941 0.076587275
-0.007981027 -0.61604863 0.053494412 -0.09709426 -0.13602766 -0.11001908 -0.14746848 -0.080677405
-0.15699454 -0.03372155 -0.2747774 0.014948022 0.2978426 0.32331577 0.28073493 0.0075664027
-0.38067156 -0.117544055 0.37462473 0.23506524 0.0020054097 -0.2095683 0.18352383 -0.13020267
0.16448967 -0.3079501 0.22462471 -0.12579209 -0.01478162 0.0013196411 0.012503663 0.035751183
0.2079921 -0.01611459 -0.11292262 -0.16772352 -0.07840108 -0.19437248 0.09516833 0.10429456
-0.6279932 -0.31724235 -0.046117574 0.021769134 -0.0174733 -0.12366173 -0.18193549 -0.017008645
-0.51259154 0.086694255 0.13117528 -0.12562509 -0.19349466 0.46403667 -0.09239463 -0.21907955
-0.07014523 0.20911159 0.15490587 -0.1499593 -0.18472317 -0.068302944 -0.081085436 -0.08151557
-0.13097931 0.4433834 0.24566366 -0.009589206 -0.30916336 -0.1992039 0.07016493 -0.18064058
-0.8756107 -0.2856101 0.018462654 0.10060602 -0.1799347 0.25565764 0.22223304 0.0651156
-0.21192503 -0.59547424 -0.0073257256 0.30873513 -0.213696 -0.033962157 -0.13151807 -0.118329056
-0.11466446 0.24877007 -0.15820433 -0.07707395 0.24255624 -0.095925786 -0.01835949 -0.17882715
-0.48321897 0.070898704 0.121719755 0.014639745 0.103921376 -0.012632787 -0.1901553 -0.19531262
0.09045468 -0.3282505 -0.16485502 -0.13633363 -0.16047698 -0.046423 -0.019524757 -0.13490154
-0.33858937 -0.37339985 0.3519457 0.3374957 0.18536545 0.10589591 -0.06407634 0.091136776
0.0136281205 0.16418679 -0.2343438 -0.17126264 0.025034675 -0.06041911 0.32824245 0.09552347
0.027817074 0.21702534 0.015989432 0.064372025 -0.21167493 0.18468793 -0.12358205 -0.052050043
-0.16701828 0.08194896 0.11128531 -0.029145263 0.025175579 0.15494895 0.078506455 -0.21441051
0.21119131 0.17090473 0.011927705 -0.17015587 -0.364866 0.12814108 -0.057883166 0.2763217
0.031032804 -0.09947977 -0.048303977 0.22859904 0.12193968 0.07859139 0.011678767 -0.047036976
0.04151171 -0.22433841 -0.550068 -0.30513507 0.47507682 0.34635863 0.0525125 -0.028405238
0.20498207 0.32175118 0.3123477 0.20419618 -0.0570577 0.07023499 -0.12947024 0.07468895
0.324045 0.12536377 -0.26748943 -0.5353917 0.19660316 -0.09257833 0.07012673 -0.10374897
0.027732335 -0.13076164 -0.10403907 0.05013963 -0.023899911 -0.074547656 0.13025847 -0.0060516424

fc1.bias f4 [120]
00000000: 152c f8bd eb41 fb3c 49c6 9cbe 9c79 413c
00000010: 82af 1f3d a22d f2bc ebbe f3bd 9f15 84bd
00000020: 9c28 663e 459f 96be f792 843c 35d8 e9bd
00000030: ebd9 1ebc 6b57 77bc 860b 98bd 4550 b3bd
00000040: 8946 91bd 17a4 f3bc 365a 24be debc 443d
00000050: 6b26 33be 9dd4 a6bd 430d b7bd b399 983c
00000060: 8d99 fc3d e46c b3bd c536 083e 3ec4 c5bd
00000070: c937 bc3c 19bb 523d 6537 0d3d 5732 aebd
00000080: e51b d53c 6939 efba beae c8bc 6dc4 02be
00000090: 9d51 03bd aedc 6fbd 0484 82bd bdf1 f5bd
000000a0: a8ad f6bc 68a6 74be 2ae1 6ebd ec5c 33bd
000000b0: 6442 7a3e 95bc c4be 2f5f bebd 48a1 19be
000000c0: 99fa e73d a9a8 45bd 2174 bfbd fef1 883e
000000d0: fe07 bcbe 49d5 513e 282b 50bd 0c90 9ebd
000000e0: efcc 93be 6dec 993d 15f2 823e b182 e1bd
000000f0: 126c 98be e1c0 d3bd 62ce e6bd ea97 b7be
00000100: 922e 39be cec5 8ebd dd18 8cbe 944e f5bc
00000110: d64f 12bc 280b 7fbe 093f 7cbd f5c1 8fbc
00000120: e6cd 1ebb 1d82 d4be 923f 48be 914c 00be
00000130: d4e1 0bbe 221e 85be af47 2cbc 73e8 623e
00000140: 86d8 afbd 1fbc 96be ab5e d6bd 12eb 2e3c
00000150: 4a49 0c3e ec8b bbbc e56d 7b3c 1de4 9bbd
00000160: d62c 963c 23f1 08bd 4528 9abd b7b2 73bd
00000170: 597f f3bb 6621 03bd f934 ffbd 338b 72bd
00000180: 330e d43c 95c0 cabd 2eb8 b7bd f7f3 a7be
00000190: 5865 293e a6b2 643e 6071 babd 2e5e c8bd
000001a0: 3ad6 67bd 3edb efbd ff8f 2f3b 8e07 e5bd
000001b0: 3454 94be 75ff 993c ae03 dabd aeba e8bd
000001c0: 4441 c43c 60c4 52bc ffcf 0ebe 7863 27be
000001d0: ee6f 2a3e f143 1b3d b237 0bbe 1448 4c3c
-0.12117783 0.03067108 -0.3062003 0.011808779 0.038985737 -0.029562775 -0.11901649 -0.064494364
0.22476429 -0.29418388 0.01618336 -0.11418191 -0.00969551 -0.015096526 -0.07424073 -0.087555446
-0.07093532 -0.02974133 -0.16050038 0.04803168 -0.17495124 -0.081460215 -0.08938076 0.018627977
0.12333975 -0.087610036 0.13302143 -0.09656571 0.02297582 0.05144796 0.034476656 -0.08505695
0.026014278 -0.0018251362 -0.024497386 -0.12770243 -0.032060254 -0.058560066 -0.06372836 -0.120089985
-0.030112103 -0.23891604 -0.058320202 -0.04378979 0.24439389 -0.38425127 -0.092954986 -0.1500293
0.113270946 -0.04825655 -0.09348322 0.26747125 -0.36724848 0.20491518 -0.050822407 -0.077423185
-0.2886729 0.07515798 0.2557532 -0.110112555 -0.2976995 -0.10339523 -0.11269833 -0.3585809
-0.18084171 -0.06971322 -0.2736272 -0.029944696 -0.008930167 -0.249066 -0.061583553 -0.01754854
-0.0024231612 -0.4150552 -0.195555 -0.12529208 -0.13660365 -0.25999552 -0.010515138 0.22158985
-0.085862204 -0.294404 -0.10467275 0.010676162 0.13699833 -0.022893868 0.015346025 -0.076118685
0.018331926 -0.03343309 -0.07527212 -0.059496608 -0.0074309525 -0.032014273 -0.124612756 -0.059214782
0.025885677 -0.09900013 -0.08970676 -0.32803318 0.16542566 0.22333774 -0.09103656 -0.09783588
-0.056600787 -0.11711739 0.002678871 -0.111830816 -0.28970492 0.01879857 -0.10645233 -0.11363731
0.023956902 -0.012864202 -0.13946532 -0.16346538 0.1664426 0.03790659 -0.13595465 0.012468357

fc2.weight f4 [84, 120]
00000000: b096 1abc d7f8 1bbd 87af 0f3e aa33 1fbe
00000010: 6ced b53d 984d 0abe 120e 763e 12be 64bd
00000020: 57fc f83d 8d50 7a3e e904 613e 8bb7 17be
00000030: 11e1 83bd 29c7 003c 417e 1dbd c09f 503c
00000040: 7a65 2f3e 394c 34be aa95 69bd b95c 84be
00000050: 9ddc ffbd 7e26 ca3c 7706 17be afc6 dcbc
00000060: 54e2 2cbf a45c 533d 0a58 053e ceab 5dbd
00000070: 8ae0 c53d bc5d c33c 7e9c 243e 0135 6e3e
00000080: 731d c0bd efba c33d 3b68 a83e 08aa 99bd
00000090: aa95 a23c 07e8 41bc 90c6 1abe a580 033e
000000a0: 0704 493e 235b 9f3e be7f 943c a90a 35bd
000000b0: c93e 0abe 1cc0 19be 7cfb 9cbd 7b90 b33c
000000c0: 1b5e 913c 6827 c3be 1ed5 1b3e fd66 dabe
000000d0: 5851 d5bd 06cc b5be 8e1c 033e 1beb 523d
000000e0: 8289 5a3d 3a2e cdbd bef1 4a3e b463 6fbd
000000f0: 7f0c c83e fdd1 523d 14a8 93be b516 443e
00000100: 4ea2 b53e 8c01 bf3e db2b 113e 6df4 403d
00000110: 55ee 813e c79f a6be faa6 f4bb f3c3 6bbd
00000120: 0ca9 18be 7bef 4c3e 41bd 9d3e 4f12 e43d
00000130: 0c12 e0be db43 56be 6502 0cbd cc78 a4be
00000140: 5a25 bebe 1d84 7a3e 3628 a13d 661a 543e
00000150: 21d3 033d cf22 18be 8a1f a23d cf02 c73e
00000160: 14ba 88bd 83f5 49be 0b0f ab3d e0fe 8b3e
00000170: 6156 86bd e4c6 a63d f1c4 94be 8b66 d2bc
00000180: 438a 2cbd f49d d1be 76e7 003e 92b2 7739
00000190: 7330 bf3d d554 97bd e0f0 11bd a6de 253e
000001a0: ad69 de3d 1889 813e e55d 99bc 2a76 90bd
000001b0: de93 283e 67b7 333e bdc4 0ebe cee0 033e
000001c0: 735d a03d 2877 7cbc 751e bebe fc87 0e3e
000001d0: 3494 d6bd 2307 9bbd 0592 76be 938d 4fbe
000001e0: 8e60 5ebe 4a94 c6be 08d4 223c cc2f b73d
000001f0: d62a 28be 2bb1 813e 88a6 1ebe 8b73 073f
00000200: ab9c 8c3e 583d 733d d3b2 f9be 9820 fa38
00000210: 1064 643c 6dbe 3a3d 4517 d13c ce09 39bd
00000220: 8c1b 283e f9c1 613e 4370 363e c9d3 f0bb
00000230: cfd7 87bd 7989 30bd 1580 5fbd 7219 873d
00000240: 3980 343e ec33 71bd 707a d9bd 424d f9bc
00000250: 4774 cc3c cc4a a4bd 7a56 76bd 02eb 9bbd
00000260: 5cac aa3c a9e8 143e 658a 7d3c 119d a63e
00000270: e061 0abf b5b8 35bd fea1 58be cdff 25be
00000280: ae0b 84be 46be f83d dd08 283d 1e7e ab3d
00000290: c2dd 5bbd 2b24 a73e c995 43be 52c3 1bbe
000002a0: cc02 fc3d e6f0 383c b730 ef3d 157d 3ebe
000002b0: fa7b c53d de4e a3bd 2fa5 f7bd cd69 e0ba
000002c0: fd67 08bf dbc0 053e 8ae7 d5bc b571 0abd
000002d0: efcc 83be f57d 54bd c6ef 033e 2ea0 1d3e
000002e0: 2c3c edbd 79a9 da3d bc42 ea3c e60d 383e
000002f0: aaf0 df3d 8ec2 023e 2149 09be 9cbf 8a3c
00000300: 99bc e53d e5fc 993b 5973 47be f681 8a3e
00000310: 67c7 383e 4512 e6bd fbcf 953d ec45 a9be
00000320: 6b4c 1a3e 4802 653d d939 063e 7af2 2ebd
00000330: 9deb eb3d fd8a a6bd eae8 283d 87be d13d
00000340: 5c78 6ebd e637 443e f6d0 c8bd 181f 9d3d
00000350: a94c a6bd a802 503e 7c61 173e 76cf 54bd
00000360: 7526 e0bc e30d e93d ee65 9ebe 0b3b f03d
00000370: 96b5 5139 1840 3abe eb63 4fbe 0e79 83be
00000380: e952 983e 6c28 a7be be6a f33c fc05 813d
00000390: 093f 513e d68c 65bc ef3c c83d 5012 34be
000003a0: fef9 12bd edb2 4fbd 9668 fe3d 8a2f 773e
000003b0: abdb cdbe 31c6 ef3b 6a5e d6bc 3f83 323e
000003c0: f052 b03e eb76 f53d 510b 42bd b795 adbd
000003d0: cebc 213e eed9 9abe 96b0 c63e 412d aabe
000003e0: 44c1 75be 3dd6 ab3e 2f48 d7be 70f1 6b3e
000003f0: 4ada 68bd d050 5f3d de70 a03c aff3 763a
-0.009435341 -0.03807911 0.14031802 -0.15547052 0.08883175 -0.13506162 0.24028805 -0.055845328
0.12157505 0.2444479 0.2197453 -0.1481611 -0.064394124 0.0078599835 -0.038450483 0.0127334
0.17128554 -0.17607202 -0.057027496 -0.25851992 -0.124932505 0.024676558 -0.1474856 -0.026950208
-0.6753285 0.05160202 0.13021865 -0.054118924 0.09661968 0.023848407 0.16075322 0.23262407
-0.09380617 0.09557139 0.32892022 -0.07503134 0.019846756 -0.011835105 -0.15114808 0.12842043
0.19630443 0.3112422 0.018127318 -0.04419962 -0.13500513 -0.1501469 -0.07665154 0.02191948
0.017745068 -0.38116002 0.15218017 -0.426567 -0.10415906 -0.3550722 0.12803861 0.051493745
0.053353794 -0.10018583 0.1981878 -0.058444694 0.39072034 0.05146979 -0.2883917 0.19149287
0.3547539 0.37305868 0.14176886 0.047108103 0.25377145 -0.32543775 -0.007466194 -0.05755992
-0.14908236 0.2001323 0.30808452 0.111363046 -0.4376377 -0.20924322 -0.03418197 -0.3212341
-0.37137872 0.2446446 0.07868998 0.20713195 0.03218377 -0.14857028 0.07916172 0.3886933
-0.066761166 -0.19722562 0.083524786 0.27342892 -0.06559444 0.08143404 -0.29056504 -0.025683662
-0.042124044 -0.4094082 0.12588295 0.00023622278 0.09335413 -0.07389227 -0.035630107 0.16198215
0.1086 0.25299907 -0.01872153 -0.07053788 0.16462657 0.17550431 -0.13942237 0.12878725
0.07830324 -0.015409268 -0.37132612 0.13919061 -0.10477486 -0.075697206 -0.2407914 -0.2026885
-0.2171652 -0.3878501 0.0099382475 0.089446634 -0.1642259 0.2533048 -0.15493214 0.5291068
0.27463278 0.059384674 -0.48769245 0.00011927 0.013939872 0.04559176 0.025523791 -0.045175366
0.16416758 0.22046651 0.17816262 -0.0073494655 -0.06632959 -0.043099854 -0.054565508 0.0659665
0.17627038 -0.058887407 -0.10619056 -0.030432347 0.02495779 -0.08022079 -0.060141064 -0.076131836
0.02083414 0.14541878 0.01547489 0.32541707 -0.54055595 -0.044365603 -0.21155545 -0.16210862
-0.2579016 0.12145667 0.041024078 0.08373664 -0.05367828 0.3264478 -0.19100107 -0.15211228
0.12305221 0.011287903 0.116792135 -0.18602403 0.09642787 -0.07974027 -0.12092053 -0.0017121375
-0.53283674 0.1306185 -0.026111383 -0.033799846 -0.2574229 -0.051877934 0.12884435 0.15393135
-0.115837425 0.106768556 0.028596275 0.17974052 0.10934575 0.12769529 -0.13406803 0.01693707
0.11217613 0.004699337 -0.19477595 0.27052277 0.18044816 -0.112339534 0.0731506 -0.3306116
0.15068214 0.05591038 0.13108005 -0.042711712 0.11519549 -0.08131979 0.04123775 0.10241418
-0.058220252 0.19161949 -0.09805481 0.07671946 -0.081200905 0.20313513 0.14783281 -0.051955663
-0.027362088 0.11379602 -0.3093714 0.117300116 0.00019999439 -0.18188512 -0.2025296 -0.25678295
0.29750755 -0.32648027 0.029713985 0.062999696 0.20434202 -0.014010629 0.09777247 -0.1758511
-0.035882942 -0.050707746 0.12422292 0.24139228 -0.40206656 0.0073173274 -0.026168067 0.17432879
0.34438276 0.119855724 -0.047374073 -0.084758215 0.1579468 -0.30244392 0.388066 -0.3323765
-0.23999506 0.33561888 -0.4204726 0.2304132 -0.0568488 0.05452043 0.01958507 0.0009420467

fc2.bias f4 [84]
00000000: 0cb0 dabd cd9e b7bc 2c4f 25be 5fcc 293e
00000010: 2bfa 66be e8f3 5ebe 66f5 a1bd 2ff7 543e
00000020: d2fa 0fbe a97e 4c3e 3f6d ecbc 9dd5 59be
00000030: d05f 0cbe 3a19 04be fa54 37bd e7da a03e
00000040: bb75 4cbd d678 1ebe 50fd 90be 566d 153e
00000050: db82 d9bd 5c84 43be 3345 2dbe d016 0f3e
00000060: 73b2 12bd df98 e63d 83f1 f4bc f38c 17be
00000070: 8154 0b3e 8454 143e 2c34 94bd 67cf 1d3d
00000080: c2cf 3e3d b727 ebbe c658 b8be 80d5 853e
00000090: 3788 893e 7e02 693e 9315 263d c05f 1c3c
000000a0: cfdb 893e a2cb a4be 2788 293e bf07 66be
000000b0: 1156 9fbd 4d8b 903d 4a63 47bd a6f0 29bd
000000c0: 9489 aa3e 7873 883e 0c8f d7bd 6629 58bc
000000d0: bf4e dabd 33a2 b6bd aa01 7d3d e440 52be
000000e0: 5a0a 8ebc 4e88 ddbd 883b 0b3d 9f42 80be
000000f0: 9a57 ddbd 0bd1 813e 7375 b43d fbff 89be
00000100: 9c2b 87bb 8254 5ebe 3436 8cbe c4d1 95bd
00000110: f960 42be 8844 cfbd b3e3 243e 9bd6 a8bd
00000120: 1ef8 7dbe 3752 8c3d 9de0 29bd a5af 803e
00000130: d392 b83d 85c2 343e 61fb 0abe 7ced 9b3e
00000140: c46e 54be 9f53 5bbe 36fb c33e eca7 ff3d
-0.106781095 -0.02241459 -0.16143483 0.16581868 -0.22556369 -0.2177273 -0.07908134 0.20797418
-0.14060524 0.19970192 -0.028860686 -0.21272893 -0.13708425 -0.12900248 -0.044758774 0.3141701
-0.049916964 -0.15475783 -0.28318262 0.1459249 -0.10620662 -0.1909346 -0.16920929 0.13973546
-0.035814714 0.112596266 -0.029900318 -0.14799862 0.13606454 0.14485365 -0.072365135 0.038527872
0.046584852 -0.45928738 -0.3600523 0.2613945 0.26861736 0.22754857 0.04054792 0.009544313
0.26925513 -0.3218661 0.16555844 -0.22463892 -0.07780088 0.070578195 -0.048678674 -0.041489266
0.3330809 0.26650596 -0.10525331 -0.013193464 -0.10659551 -0.08917656 0.061769165 -0.20532566
-0.01733892 -0.10817014 0.03399232 -0.25050828 -0.10807724 0.253548 0.08811464 -0.2695311
-0.0041250717 -0.21711925 -0.27385104 -0.073154 -0.18982305 -0.10120493 0.16102485 -0.08244058
-0.2480168 0.06851619 -0.041473974 0.25134006 0.090123795 0.17652328 -0.13572456 0.30454624
-0.20745379 -0.21418618 0.38277596 0.124832004

fc3.weight f4 [10, 84]
00000000: 71fa 02bf b0c7 5dbd 5be5 76be 159c d2be
00000010: ca89 47be 5ff8 80be f418 12bd 6176 f7be
00000020: 99de 9dbe 82d7 fbbb 2931 8dbe 3751 2fbf
00000030: 8a92 99be c147 1fbf bb1a 67bf 9162 21bf
00000040: b01d afbe 86f2 7abe 6eae dd3d 6876 0bbe
00000050: f1dd 1f3e 7bb2 babe dc5f 983d 4fda d3be
00000060: 027e e8be 0cc8 34be 5114 13be 2f01 01be
00000070: 27e0 8bbe e17e ffbe ec90 793d b368 18bf
00000080: 71c4 46be 5d49 b1bd 2e89 7c3d 83ec e2bd
00000090: a310 06be 35c8 8dbe 73a7 cdbe 7adf 3dbe
000000a0: ee03 e7bd 2228 41be 976e f43d bc07 d63d
000000b0: 0581 3ebe b996 21bf e487 8fbe 6ab9 013e
000000c0: 4e6e c5be f5a0 28be f35a d7bd da06 a2be
000000d0: 3502 20be 6cd4 c03b 8c7d 29bf feab 8f3d
000000e0: 31f2 4abe d5d6 f6be 9c12 ce3d 81dd e9bd
000000f0: 84e5 c4be 2b5f 023e 6570 bebd 4024 1d3e
00000100: 4713 b9be 1085 1cbf 6900 ab3a c37b 08bf
00000110: f4f8 f6be 1703 41bc 5e6f 8abb dac4 8839
00000120: dc17 ef3b 2098 0f3e efc2 063e 9725 89bc
00000130: cf75 83be a30e 343d 01ec 54bc ebee a2bc
00000140: 747d 17be a191 ea3d fd5e eabe 4847 bc3d
00000150: cea8 2b3e bb32 e5be e7d9 3e3e 837c 923d
00000160: 3c8e bfbe e6a1 983d ae5d 3e3e 8e31 1cbf
00000170: eea0 c0be 1408 bfbe 42ec d03d b1b8 1f3e
00000180: 23d5 33bf 1c13 40be 4500 38be a764 533d
00000190: 9154 473e d22e 723d ec8e e9be fa4f c63d
000001a0: 31b3 4abe a68c cebe 1a47 e0be 80e6 7b3d
000001b0: 97dd ac3d 6846 95be 7ed7 03be ccb3 2ebf
000001c0: 7bb5 03bf ea93 babe b5d1 693e 6931 8ebe
000001d0: a3bb 59be 3acc b3be 5e53 02be 3a47 d3be
000001e0: c007 17bf e696 febe 0b18 99be 5c3c f4be
000001f0: 6b4c 87be 60fe 4b3e 49ae c9be d713 393e
00000200: 6320 3dbe d933 153e f089 cf3d 49b0 d0be
00000210: 3907 cabe 8b26 d03d 9a7f 9abe 6fae ec3c
00000220: 99d5 f1be b590 24be 2c9e cbbd 9429 3cbf
00000230: 9a4b c5be 1858 a83d 1ab7 01be 1298 94bf
00000240: 9069 b2be 0c39 dabe a4fa ddbe 706f 1b3e
00000250: f7a6 36be e18f c5be 7b9c f7be aa86 463e
00000260: fe8e aa3d 26df a3bd 795a 28bf e309 f1be
00000270: 3314 0dbe 39f9 dcbe 8e0d 8cbc f77f 743d
00000280: 115c 91be 42c2 44bf 4960 0c3d ebfc e5be
00000290: adb7 6abe bf25 c8be 56dc 7bbe 735f 94be
000002a0: 7c0c 56bd dcd3 abbe ee47 3fbe 74fa 56bd
000002b0: cff9 82be 9263 f53d 21b5 2e3e ca7b 3c3d
000002c0: ec39 11bd 7663 493d ed39 a33d 65df 3ebe
000002d0: e83f 1c3c 32bd 28be c217 d5bd ee93 1c3d
000002e0: 5c15 903d 75ba fbbe 6d16 abb8 e883 14bf
000002f0: 1810 dfbe 645b 6ebe 208f c4be 3b70 19be
00000300: e804 863b a901 2fbe 431d 5a3e 99eb 07bf
00000310: d8f3 5c3e f0f7 56bf 1ec8 1e3e cb96 ec3c
00000320: 36c8 07bf 80b6 283e 02be c63d 1b72 023b
00000330: a258 edbe 15e0 82bd e85c 81be a4ef 0bbf
00000340: e4fa 0fbf a3ab 32be 15e7 a83d 7d4f 163d
00000350: 0fbd 90be 6b1f 8d3d dbe6 9fbe 22b0 0f3e
00000360: 819b cdbe b375 42bf 353f dcbe af7c 803d
00000370: 2f9c d3be 8cdb 0cbe 1bcf 49bd 5680 afbe
00000380: 00ba 153d ab27 d6be a446 e2be 600b 97bc
00000390: 488a 0d3e 563e 96bd aa33 0cbf 245a dfbe
000003a0: 1614 4ebe 4e9b 92be da9e 47bd 2b37 2a3e
000003b0: b671 0abf a3d0 ab3d db65 25be 642a 0abf
000003c0: 1f33 34be 295c 2a3e 486f 25bf e79a 2ebc
000003d0: 8cda 84be 987c 993d d92d 083d 4f15 9bbe
000003e0: f8b7 28bf 2880 b1be 0c76 0cbf b1ae 21be
000003f0: 114f 39be 7d09 81be 11a1 ff3d 8bbb 50be
-0.51163393 -0.054145515 -0.2411093 -0.41134706 -0.19486156 -0.25189492 -0.03566833 -0.48332503
-0.3083389 -0.0076856026 -0.2757657 -0.684833 -0.29994613 -0.6221886 -0.9027516 -0.63041025
-0.34202337 -0.24506578 0.108242854 -0.13619387 0.15612008 -0.36464295 0.07440159 -0.41377494
-0.45408636 -0.17654437 -0.14363219 -0.12598108 -0.27319452 -0.49901488 0.060929224 -0.5953476
-0.19410874 -0.08656571 0.061654262 -0.11080267 -0.13092284 -0.27691808 -0.40166816 -0.18542281
-0.112800464 -0.18862966 0.11935156 0.10450694 -0.18603905 -0.6312061 -0.28033364 0.12668386
-0.38560718 -0.1646765 -0.10515394 -0.31645852 -0.15625842 0.0058846977 -0.66207194 0.07015227
-0.19818951 -0.4821078 0.10062143 -0.11419202 -0.38456357 0.12731616 -0.09298781 0.1534586
-0.3614752 -0.6114054 0.0013046387 -0.53313845 -0.4823681 -0.011780522 -0.004224702 0.00026086607
0.0072965454 0.14022875 0.13160299 -0.016741557 -0.25675818 0.04395927 -0.012995721 -0.019889316
-0.1479395 0.11453558 -0.45775595 0.09193283 0.16763613 -0.44765267 0.1863781 0.07152655
-0.37413204 0.07452755 0.18590423 -0.61013114 -0.3762278 -0.3731085 0.102013126 0.15597798
-0.70247096 -0.1875729 -0.17968853 0.05160966 0.19465853 0.059126683 -0.45616853 0.09683223
-0.19794919 -0.4034168 -0.43804246 0.06149912 0.084407024 -0.29155278 -0.12875172 -0.682431
-0.5144879 -0.36440974 0.22833903 -0.27772072 -0.21262984 -0.3511675 -0.12727115 -0.4126528
-0.589962 -0.497245 -0.29901156 -0.477023 -0.2642549 0.19921255 -0.39390782 0.18073975
-0.18469386 0.1457056 0.10133731 -0.40759495 -0.39458635 0.101636015 -0.30175477 0.02889177
-0.47233275 -0.16070826 -0.09942278 -0.73500943 -0.38534242 0.082199275 -0.12667504 -1.1608908
-0.34846163 -0.42621648 -0.43355286 0.15179229 -0.1783713 -0.38586333 -0.48361573 0.19387308
0.08328055 -0.080015466 -0.6576305 -0.47077855 -0.13777237 -0.43158892 -0.017096307 0.05969235
-0.28390554 -0.76858914 0.034271512 -0.44919524 -0.22921629 -0.39091298 -0.2459577 -0.28979072
-0.052258 -0.33560073 -0.18679783 -0.052484944 -0.25581214 0.11981882 0.17061283 0.046016492
-0.03545563 0.04916712 0.07970033 -0.18639906 0.009536721 -0.16478422 -0.10404922 0.038227014
0.07035324 -0.49165693 -8.1580925e-05 -0.5801377 -0.43566966 -0.2327705 -0.38390446 -0.14984219
0.0040899403 -0.17090477 0.21300225 -0.5309387 0.21577394 -0.8397207 0.15506026 0.028880497
-0.5303987 0.16475868 0.0970421 0.0019904438 -0.46356684 -0.063903965 -0.25266194 -0.5466254
-0.56242204 -0.17448287 0.082472004 0.0366969 -0.2826924 0.06890758 -0.31230816 0.14032033
-0.40157703 -0.75960845 -0.43016973 0.062737815 -0.41330096 -0.13755625 -0.049269777 -0.342776
0.036554337 -0.4182714 -0.4419452 -0.018438041 0.13822281 -0.073361084 -0.54766333 -0.4362346
-0.2012485 -0.28634113 -0.048735477 0.16622607 -0.5407976 0.08389404 -0.16152136 -0.5397093
-0.17597626 0.16636719 -0.64622927 -0.010657049 -0.25947988 0.074944675 0.03324685 -0.30289695
-0.65905714 -0.34668088 -0.54867625 -0.15789296 -0.18096568 -0.2520255 0.12481893 -0.20384042

fc3.bias f4 [10]
00000000: 33a7 97be 7d18 f9bd 1157 8f3d a8fe 8dbd
00000010: 8a2d 8bbc 2cbe 26be 20b5 a3bd 4528 0dbd
00000020: 5148 b33e 47f7 da3d
-0.2961975 -0.12162874 0.069990285 -0.069333375 -0.016989488 -0.16283482 -0.07993531 -0.034462232
0.3501611 0.10691696
