mnist/saved_models/model_epoch_17.pth (torch, 181338 bytes, 10 tensors)

conv1.weight f4 [6, 1, 5, 5]
00000000: 7e39 8dbe f4f6 1f3d c95c 7cbc 0a9b ba3e
00000010: 836d 213e e7f7 733e 3754 e03e 3b6e 6a3e
00000020: 30ac 083e 04ea aa3e e71a 873e 9a6e 263e
00000030: a068 eebd eba3 e9bd d758 78bc 90d1 9cbd
00000040: a3fa 8fbe 4a4b 73be 7036 91be aab8 23be
00000050: d681 e8bd 8bbd aabd 1e15 03bd c32c 6c3e
00000060: ae83 eebd f029 a2be 2500 213e 5a9d cf3e
00000070: a3e5 3cbe 45c9 0ebe 29ce b3be 0784 b53c
00000080: 55cd d93e 3168 4fbc b7e1 5cbb 7fb0 75be
00000090: 876f 99be 3592 973e 5109 4c3e abfe cfbd
000000a0: 3e18 81bd f1cc 04bf 4b1f 15be b323 74be
000000b0: 57dd 28be 3c03 a93e bc0e 933b 64ab 273e
000000c0: a86e 003e f260 d53d d6df cf3a b137 9cbd
000000d0: 896b d0bd e754 0bbd a458 b0be 2281 93bd
000000e0: 5ddc 4dbc 9135 823e 1048 c73e da19 73bd
000000f0: 68ec 723e 4743 5a3e 5bc9 f43e 0004 153f
00000100: 72f1 cdbd 1c4a d5bd 73dc ebbe 5bcf 31be
00000110: 2cc8 a73e efa8 103e 14af b03d 3bf6 7cbe
00000120: 94e3 04bf da5b 35bd 91a6 9a3e 74fc 67bd
00000130: b763 a03d 32ce 91bd 6fcc a3bc 3325 8a3d
00000140: 3205 303d b844 373c 2446 05be f008 ea3d
00000150: 149f 803e ae1a 223d 8eb7 a2bd 430f 91be
00000160: ae66 e0bd a38d 893e 6bd6 b6bd 4b8e f6bd
00000170: c0cb 4abe de36 ca3e 037f e83e 4643 45be
00000180: ebd6 38bc f986 ea3d 0b32 433d 6e0c 013e
00000190: c776 853d 06ac 13bc ae66 943e 4a22 00bd
000001a0: 7210 9b3e 5e16 393d 1727 3bbe 38b9 abbd
000001b0: 2015 2fbd 27df 163e f837 b7bd 797d afbe
000001c0: d43d 9cbe d769 eebe 8a09 93bd 81c4 913e
000001d0: 044e 3abe 34c9 04bf 859b 72be 7e6e 043e
000001e0: 9115 873e abb1 c03e f711 bb3e 76d4 f73e
000001f0: 348e ee3d ccf7 813d 0e26 0f3e 0d0f a7bd
00000200: 44e3 cebc 2024 d73c 5e3b 56be 6833 693e
00000210: a527 053e 45ac b2bd f28d 18be df82 9bbc
00000220: 7d62 133f 57a4 b1bd f5bb 82be e174 b03d
00000230: e78f 573e 1279 a13e be7f febe 7dd8 a63d
00000240: 8b0b 143d 3912 2e3e 8701 2dbe fd44 50be
00000250: 3ba5 78bb e825 3dbd
-0.27582926 0.039053872 -0.015402981 0.3644641 0.15764432 0.23825036 0.4381425 0.22893612
0.13346934 0.33381665 0.26387712 0.16253129 -0.116410494 -0.11408218 -0.0151579 -0.076571584
-0.28120908 -0.23759189 -0.28361845 -0.15988412 -0.11352889 -0.08336934 -0.03200256 0.2306395
-0.1164621 -0.3167262 0.15722711 0.40549737 -0.18446974 -0.13943966 -0.35118225 0.022157682
0.42539468 -0.0126591185 -0.0033703872 -0.23993109 -0.299679 0.29603735 0.19925429 -0.10155996
-0.06303452 -0.51875216 -0.14562719 -0.23841743 -0.16490684 0.3301028 0.0044878405 0.16373974
0.12542212 0.104188815 0.0015859555 -0.0762781 -0.10176761 -0.034016516 -0.34442627 -0.072023645
-0.012564746 0.25431493 0.38922167 -0.059350826 0.23722994 0.21314727 0.47809872 0.5820923
-0.10055818 -0.10414526 -0.46066627 -0.17364256 0.32769907 0.14126943 0.086271435 -0.24703304
-0.51909757 -0.04427705 0.30205205 -0.056637242 0.07831519 -0.07119407 -0.019994942 0.067453764
0.042973705 0.011185817 -0.13015038 0.11427486 0.25121367 0.039576225 -0.079451665 -0.28331956
-0.109570846 0.26865873 -0.08927616 -0.12038859 -0.19804287 0.39494985 0.45409402 -0.19263944
-0.011281709 0.11451525 0.047655147 0.12602398 0.065167956 -0.009013182 0.28984588 -0.0312827
0.30285984 0.045187347 -0.1827663 -0.08384937 -0.042744756 0.14733563 -0.08946222 -0.34275416
-0.3051592 -0.46565124 -0.07179554 0.28470233 -0.18193823 -0.5186951 -0.23692138 0.12932774
0.2638364 0.3763555 0.36537144 0.48404282 0.11648217 0.06346092 0.1397936 -0.081571676
-0.025254853 0.026262343 -0.20921084 0.22773516 0.13003404 -0.08724264 -0.14897898 -0.018983303
0.57572156 -0.086739235 -0.25534025 0.08616043 0.21050988 0.31537682 -0.49706835 0.081467606
0.03614382 0.16999139 -0.16895114 -0.20338817 -0.0037940282 -0.04617873

conv1.bias f4 [6]
00000000: 1194 1cbe 65fa 82bf 0f17 bbbe 6d62 e4be
00000010: 4c66 03bf 67e5 00bf
-0.15290858 -1.0232664 -0.3654103 -0.44606343 -0.5132797 -0.5035004

conv2.weight f4 [16, 6, 5, 5]
00000000: 0c8a 103c 811d 0bbe 441b 693e 45a0 983e
00000010: 6b42 823d 2792 bc3d f998 203d b260 993e
00000020: e7e8 153e fa65 5c3e 8259 873d 1554 543e
00000030: 1b99 b23d 42b6 f3bd f120 033e d6b2 0cbf
00000040: c060 c0be 6af1 d7be cf94 dcbe 58fd 5cbe
00000050: 8e73 64bf 96b5 65bf 8f00 7ebf 0499 c8bf
00000060: 8488 cbbf c49d 823e 0883 8ebe 6a43 26bf
00000070: dea4 b73d 4cc3 1abe f4bd 1b3e eda4 b8be
00000080: cc33 b0be 049a a33c 5459 3bbe 664e b33e
00000090: 170a 533e 0c48 83be f10f e53d 932e 64be
000000a0: d542 ab3e 5df4 b43e b6d1 68bd 890c 923e
000000b0: 9e15 31bc b88e a0bd 417f b93d 1eba 88be
000000c0: be77 773e f63a 5fbe 315b c63e 89b2 513e
000000d0: acbf 2c3d 0505 f8bd 353f 063e b15a 42be
000000e0: 5d16 5a3e 0a14 843d 9741 013c 2e97 4c3e
000000f0: fcb7 023e 6964 823e 3a99 ccbe 224c 6f3d
00000100: 9625 c3bd cee9 cfbe 90b0 f2be 6c08 81bf
00000110: d258 f6be b800 8cbf 7352 f23d 1e4c 40bd
00000120: d57b 7bbe 5b94 e7be 1561 01bf 3a31 793e
00000130: 59be 153f 3260 6abe c31c 9ebe ed6d 8fbe
00000140: fc66 eb3e d12e 663d e2f9 90be 6918 89bd
00000150: d7df 163d c3fc c83c 0c9c 01bf 1ac7 18bf
00000160: a7cd 01bf af8c 55bf a304 8bbe bcd4 00bf
00000170: ea12 9bbf 29b5 a4bf d31b 88bf be87 82bd
00000180: 65a0 cf3a 34b0 f4be c357 13bf be9a 83bf
00000190: 27e0 5c3e 69e9 12bc 5942 75bc 35a5 b03c
000001a0: 8a47 023e 3731 253e 1619 b53d 2787 95be
000001b0: 713b d2be a8bc cc3d 75f6 18be e679 0fbe
000001c0: c765 d3be df09 61be fc33 26be 4854 fc3e
000001d0: b392 893e 53bc 803d 1095 92be c4db eb3c
000001e0: ed82 273e 209f a93e e230 a83e 710b c23e
000001f0: cd36 a13e b7ce 1fbe 11d8 97be 31c5 913e
00000200: 31e3 ad3d 62c0 ef3d 6d19 d83d facb 5f3c
00000210: 1a46 1d3e bc62 233d 6b8c c4be 2337 233e
00000220: 8ec7 9b3c 03e3 89be 00f5 02bf a5f0 86be
00000230: a674 0fbd 32d9 81be 1fa6 3fbf f2f9 bebf
00000240: 03ab 33bf a624 aabc 036f 08be 3c4f 47bf
00000250: 94ff 2dbf de98 b6bf 066b 0cbf f402 d5be
00000260: b803 3dbe 3edf 883e 6eda 9d3e 421a c7be
00000270: 1d6d 1bbf f428 4bbf f4b7 a6be 84fa c7bb
00000280: 5a26 fe3d a28e 143e 30ac 4f3e b5aa 3f3e
00000290: 172f 1b3e 9861 9ebc bca0 923e 55c6 833e
000002a0: 290e 3e3e bd33 283e f6fd 78be 44af debe
000002b0: 76e0 1cbf 54f9 31bf b60c b1be a1e9 a43e
000002c0: f38b 5e3e 0926 acbe 677a 173e 1811 a1bc
000002d0: 7fa1 373b da0a 5abd 1ba9 4dbe 4a8f 5bbe
000002e0: 7668 ffbd 9f47 1a3e 3845 ea3e def8 563e
000002f0: 75f3 0dbf 1066 d7be 08ff 10be 7190 613e
00000300: 7ff4 823d 13a7 9abe 1778 273e baf4 c8bd
00000310: 5771 aebe 439e 04bf bfe2 9abe f5fd b93e
00000320: 62f5 d63c a771 d13d 0440 b2be 4641 0f3d
00000330: f6f2 1d3e 1344 c23e 6184 753e 2e2e 253d
00000340: 6046 14be 6f72 4abe 6738 45bd b03a 8f3e
00000350: 86bd 9b3e e0e3 dc3e ce37 e83d f935 a1be
00000360: 6651 95be 8fcc 4bbd cbf2 e3bc e1de cbbd
00000370: d7e0 1cbe ce13 c5be f071 10bf 1fb7 43bf
00000380: a18c 6fbe e5ce 8c3e 3e26 103e 728e c1be
00000390: 6309 43bd ba66 6fbe a166 f5bc a258 babb
000003a0: f043 8fbe 3549 2fbd 19a9 05be 9848 913d
000003b0: c087 64bc 094d a0be b099 973e 6f2e 31be
000003c0: deb4 403d 480e a1be 6694 4fbe 8cc0 a23e
000003d0: c053 683d fbbe a73e 4d89 833e 6ae2 563a
000003e0: f03c 863d f9d5 a8be a703 a63d df05 bdbe
000003f0: 6996 19be 915c 2f3d 4e83 3d3e 3ade b0bb
0.008821975 -0.13585474 0.22764307 0.29809776 0.063603245 0.09207564 0.039208386 0.29956585
0.14639626 0.21523276 0.06608869 0.207352 0.08720609 -0.11899997 0.12805535 -0.5496038
-0.37573814 -0.42176372 -0.43082282 -0.21581018 -0.8923882 -0.89730203 -0.992196 -1.5671697
-1.5901036 0.2551099 -0.27834344 -0.64946616 0.08966993 -0.15113562 0.1520918 -0.36063328
-0.34414518 0.019970901 -0.18295795 0.3502075 0.20609318 -0.25640905 0.11184681 -0.22283392
0.33449426 0.35342684 -0.05684062 0.2852519 -0.010808377 -0.078397214 0.09057475 -0.26704496
0.24166772 -0.21799836 0.3874145 0.20478262 0.04217498 -0.121103324 0.13110049 -0.18979909
0.21297593 0.06449135 0.007889173 0.19979545 0.12765497 0.25467232 -0.39960653 0.058422215
-0.09528653 -0.40608066 -0.47400331 -1.0080695 -0.4811464 -1.0937719 0.11832132 -0.04694759
-0.24558957 -0.45230374 -0.5053876 0.24335185 0.5849357 -0.22888258 -0.30881318 -0.28013554
0.45977008 0.05619699 -0.28315645 -0.06694109 0.036834564 0.024534589 -0.50628734 -0.59678805
-0.50704426 -0.8341779 -0.27151975 -0.50324607 -1.2115147 -1.2867786 -1.0633491 -0.06373547
0.0015840648 -0.47790682 -0.5755579 -1.0281599 0.21569882 -0.008966782 -0.014969432 0.021563152
0.12722602 0.16132055 0.088426754 -0.29204676 -0.41060975 0.09996921 -0.14937766 -0.14011344
-0.41288587 -0.21976422 -0.16230768 0.49283051 0.26869735 0.0628592 -0.2862935 0.028791316
0.16358538 0.33129215 0.32849795 0.37899354 0.31487122 -0.15606199 -0.29657033 0.28470758
0.08490599 0.11706616 0.105517246 0.013659472 0.15358773 0.039889082 -0.3838838 0.15939002
0.019016054 -0.2693101 -0.5115509 -0.26355472 -0.035023354 -0.2536102 -0.74862856 -1.4920027
-0.7018282 -0.020769428 -0.13323598 -0.7785528 -0.67968106 -1.4265401 -0.54850805 -0.41603816
-0.1845845 0.2673282 0.3083071 -0.3888722 -0.6071337 -0.79359365 -0.3256222 -0.006102862
0.12409659 0.14507535 0.20280528 0.18717463 0.15154682 -0.019333646 0.28638256 0.25737253
0.18560089 0.16425987 -0.24315628 -0.43493092 -0.6128 -0.6952107 -0.3458001 0.32209495
0.21733074 -0.3362277 0.14792787 -0.019661471 0.0028019843 -0.053233005 -0.2008404 -0.21441379
-0.12471096 0.15066384 0.45755935 0.20993373 -0.5544961 -0.42070055 -0.14159787 0.22027756
0.0639429 -0.30205593 0.16354404 -0.09812303 -0.34070846 -0.5180399 -0.3025112 0.36326566
0.026240055 0.102267556 -0.34814465 0.03497436 0.15424713 0.37942562 0.2397628 0.040327244
-0.14479971 -0.19770215 -0.048149493 0.27974463 0.30418032 0.43142605 0.11338769 -0.3148649
-0.29163665 -0.04975563 -0.027825734 -0.0995462 -0.15320145 -0.38491672 -0.56423855 -0.76451296
-0.2339349 0.27501598 0.14077088 -0.3780399 -0.047616374 -0.23379031 -0.029956164 -0.0056868354
-0.2798152 -0.042794425 -0.13052787 0.07093924 -0.013948381 -0.31308773 0.29609442 -0.1730287
0.04704749 -0.31456208 -0.20271453 0.31787527 0.056720495 0.32762894 0.2569069 0.00081971905
0.06554592 -0.32975748 0.081061654 -0.36918542 -0.14998783 0.042812888 0.1850712 -0.005397585

conv2.bias f4 [16]
00000000: 159a acbc b35f a0bd fd0d c8bd 6c71 233e
00000010: 3ec6 803d 703f 043d 6eec 6abe 5694 41be
00000020: 3bb5 15be 1194 40be d610 30bd be7a ab3e
00000030: 8497 0e3e 2182 13be b3d4 cbbd cdd7 0bbe
-0.021069566 -0.07830753 -0.09768293 0.15961236 0.06287812 0.03228706 -0.22941753 -0.18904242
-0.14619915 -0.18806483 -0.042984806 0.33492082 0.13924986 -0.14405109 -0.099526785 -0.1365654

fc1.weight f4 [120, 256]
00000000: 20fc bfbd 9812 a2be f144 d0be c8f4 073e
00000010: 5508 ec3c ea84 cfbe c63f b7be 7e19 6ebe
00000020: f503 aebe 8b91 e83c 926b 3f3c 388f 673e
00000030: 04eb 66be 6ec6 d83a 1e51 a7be 2511 573a
00000040: e842 23be 1032 7abd 8ae6 2c3e 0e22 27be
00000050: 6da5 85be d46f 54be 9359 45be 9b21 d1bd
00000060: b747 59bf bd62 52bf b446 ae3d 78f7 013f
00000070: 4b28 6dbf 2fb2 d53d 0bed 0b3e 4f54 753c
00000080: fd25 a03e 05a5 0e3e c376 183e 6502 32bf
00000090: adeb ad3e 7f93 173f b307 003f e0fe 8c3e
000000a0: 81f4 b4be f69c 64be 8c77 b83e 9c89 c0bc
000000b0: 58fb a43d f336 f33c 6dc1 dd3b 7866 e03d
000000c0: 07a6 51be eb98 203d 9a9a fc3d 5837 c5bd
000000d0: b3ee 9dbe e104 d1be b793 9ebd 6675 e73e
000000e0: 8b60 46be 31c3 d7be 4c1e 8bbd 393c 393e
000000f0: 607d 433f deda bc3e fbb4 6ebe fd7c c5bd
00000100: a4a6 963c 51c6 51bf a353 33be 0b7a 10be
00000110: fb9c 03bc 5ebc 8dbe b32e b3be f5b8 4cbd
00000120: 5402 a9be ebd8 a7be a9a4 bebe 5a2f fdbb
00000130: c534 de3e a971 e33e 3d50 4e3e 13fc 8b3e
00000140: f930 28bf 0dda 863d 4184 e13e 5562 833e
00000150: d936 8dbe 4190 9a3d a37a 1e3e 403a 03bc
00000160: 27ab b43e 8bf5 5abe 0083 4b3e 6d8f d33d
00000170: b994 cb3d 6ab7 14be e81c 35bd e32f dcbe
00000180: ff5b 5b3e 6e4a fb3b 8eb8 8dbe 0d6e b9be
00000190: 5aa7 193e 56e5 c8be 6c96 883e 4062 693e
000001a0: a930 72bf 95f5 23be 95f2 29be 34f9 c2be
000001b0: f4cf 65bd 2944 323e 24f0 88be 64ba 11be
000001c0: 45ba f0be 3ee5 a73d c8f3 e53d 6030 36bf
000001d0: cc83 05bf b539 1e3f 425e da3c 78f6 f5bd
000001e0: 1663 f13c 88ea d53e 72da 893e 44d2 9d3d
000001f0: 57e6 03be ae7b 8fbc 109f 2ebd 20d6 8c3d
00000200: e287 4fbe d7cc 053f 1022 af3c 4a58 37be
00000210: 422c 16bf bd60 a9be 6e70 ca3d 007d 98be
00000220: bb2a b6bf 08d4 dabe 7a5f a83d 7544 ae3d
00000230: 6588 a5bd d964 693e bcee d73d 31e9 cebc
00000240: 4dae 623c d661 83bf 7677 d0bd 358d 1a3e
00000250: 0bee 8abe 70bf 08be f3d2 b5be 4603 28bf
00000260: e870 6ebe 6738 a83e 150e 00be a087 afbe
00000270: a9f3 f63e 96ec 433b a393 18be 7b35 4abe
00000280: 5477 3fbf 0461 aa3e 41ef df3e 000d 713e
00000290: 3ce9 643d 04d3 21be 9f3f d5be 20bd 68be
000002a0: 5725 923e 5ade 14bf c00d f6bd 665d 6dbd
000002b0: 98a8 14bd 1bad 2dbc b159 78bd b55c 73be
000002c0: 2ef6 2ebe ff18 d2be e64c 063f 2090 253f
000002d0: eea0 613e 8b7f eb3e e5ac fcbd e8b2 20be
000002e0: 39e1 4f3e 72fb c53e 05f6 94be 72f5 8dbe
000002f0: 72c2 543e 4c0c 08be 8fec ed3e 05fa 9d3e
00000300: 4785 abbd 0fee 8f3e 37d0 ccbc 091d 49be
00000310: 8edd ebbe 8455 923e 0893 01be af8c 40bc
00000320: 881c cabe a073 193e 3842 ed3b 75a6 5bbe
00000330: 5264 b43d 3777 ad3e 8fdc 7b3e 32f9 bbbe
00000340: d2b4 113f 5880 a03e df80 73bd 8ef5 1fbe
00000350: 9d5d 06bf f91e 9ebd c21d b23c 2d9c 0a3f
00000360: 1d6e 46bd 9c3e f6be 4519 b3be 433e 6a3e
00000370: 83df 5a3e 08cf 173e 9e4c 5a3e c59a 71bd
00000380: 6a84 a4bd 1a50 86be 065f 8ebf befd 97be
00000390: c9ac 0a3f 3c84 583f 1a92 c3be 6e33 3ebe
000003a0: 2851 f03c e82a 023f 3799 b53e 2d85 923e
000003b0: 25ae 28be 1668 553e fa3d 18be 620b 0fbe
000003c0: 846a 843e d32a 913e d89e 26bf 52c8 5ebf
000003d0: 39b0 663e e6f0 6c3e b555 9e3e 4ef9 abbd
000003e0: 87d8 293e 281d bcbc e978 67be fb42 8e3e
000003f0: d939 803e 69db 853e b493 3a3e 6523 773d
-0.09374261 -0.3165481 -0.40677598 0.1327697 0.028812567 -0.40531093 -0.35790843 -0.23251912
-0.33987394 0.028389713 0.011683362 0.22613227 -0.22550589 0.0016538629 -0.32679075 0.0008204154
-0.15943491 -0.0610829 0.16884819 -0.16321585 -0.26102772 -0.20745784 -0.19272451 -0.10211488
-0.84875053 -0.8218191 0.08509579 0.5076823 -0.9263961 0.104343764 0.13664643 0.014973714
0.31278983 0.13930137 0.14889054 -0.69534904 0.3396887 0.59209436 0.5001175 0.27538204
-0.35342792 -0.22325501 0.36028707 -0.023503117 0.080557525 0.029689288 0.006767443 0.10957044
-0.2047349 0.039208334 0.123341754 -0.096296966 -0.30846176 -0.40824035 -0.07743018 0.45206755
-0.19372766 -0.42141107 -0.06792888 0.1808938 0.7636318 0.36885732 -0.23311226 -0.0964298
0.018390007 -0.8194323 -0.17512374 -0.14109056 -0.0080330325 -0.27682775 -0.34996566 -0.049981076
-0.3300959 -0.32782683 -0.37235 -0.007726592 0.43399635 0.44422653 0.20147796 0.27340755
-0.65699726 0.06584559 0.44046214 0.2566096 -0.27580908 0.075470455 0.1547647 -0.008009493
0.3528683 -0.2138273 0.19874191 0.10330091 0.09940476 -0.14523092 -0.04421702 -0.43005285
0.21421812 0.007668785 -0.27679867 -0.36216775 0.15005246 -0.3923747 0.26677263 0.22791386
-0.946055 -0.16011651 -0.16596444 -0.38080752 -0.056106523 0.17408814 -0.26745713 -0.14231259
-0.47017112 0.08198021 0.11228138 -0.71167564 -0.5215423 0.61806804 0.026656274 -0.12009901
0.029466193 0.41780496 0.26924473 0.077061206 -0.12880836 -0.01751503 -0.042632163 0.068767786
-0.20266679 0.52265686 0.021378547 -0.17904773 -0.5866128 -0.33081618 0.098847255 -0.29782867
-1.423179 -0.42739892 0.08221336 0.08509151 -0.08082656 0.22792377 0.10543582 -0.025257679
0.013835502 -1.0264232 -0.10179035 0.15092929 -0.27134737 -0.13354278 -0.35512504 -0.65629995
-0.23285258 0.32855532 -0.12505372 -0.3428316 0.48232773 0.0029895655 -0.14900069 -0.19746964
-0.74791455 0.33277142 0.43737224 0.23540115 0.055886492 -0.15803152 -0.41650102 -0.22728395
0.28544113 -0.5815178 -0.12014341 -0.0579504 -0.036293596 -0.010600354 -0.06063241 -0.23765834
-0.17086098 -0.41034696 0.5246109 0.6467304 0.22034046 0.45995745 -0.123376645 -0.15693247
0.2030076 0.386684 -0.29093948 -0.27726322 0.207773 -0.13285941 0.46469542 0.30854812
-0.0837503 0.28111312 -0.025001628 -0.19639982 -0.4606747 0.28580868 -0.12653744 -0.011752292
-0.39474893 0.14985514 0.00724056 -0.21450217 0.08808197 0.33880016 0.24595855 -0.36713558
0.56916535 0.3134792 -0.059449073 -0.15621015 -0.5248659 -0.07720751 0.021742705 0.54144555
-0.048444856 -0.48094642 -0.34980217 0.22875313 0.21374325 0.1482507 0.2131829 -0.05898549
-0.080330685 -0.26232988 -1.1122749 -0.29685777 0.541699 0.84576774 -0.38197404 -0.18574306
0.029335573 0.5084672 0.35468456 0.2861723 -0.16472681 0.20840487 -0.14867392 -0.13969186
0.25862515 0.28352985 -0.65086126 -0.87024415 0.22528161 0.2313877 0.30924764 -0.083971605
0.16586505 -0.022963122 -0.22604717 0.27785477 0.25044134 0.2614396 0.18220407 0.06033649

fc1.bias f4 [120]
00000000: 18f1 f9bd 3c46 29be 0eee 00bf 4ae4 4abd
00000010: 3e1d 973d b778 683c f396 82be c955 5fbe
00000020: e397 843e d25a 47bf e5b7 833d 9913 98be
00000030: ebd9 1ebc 25d8 c3be 860b 98bd 4550 b3bd
00000040: 13dc 80be 011e aabc 6610 9bbe 4a9f 88bd
00000050: 7ccf b7be 49d4 a6bd 8622 02be b399 983c
00000060: 0cf4 ff3b e46c b3bd 11f9 a93d 3ec4 c5bd
00000070: 000e da3d 3d31 823c 8eb2 99be beca 983d
00000080: 2a8c a0be ad4e eebd 23b9 57bd d916 a2be
00000090: 88b7 62bd aedc 6fbd e1f3 50bd 8849 75be
000000a0: 8ec6 1ebe 60cb 17bf 2ae1 6ebd 36f7 7fbe
000000b0: a56e 8b3d 7ce6 4cbf fb97 5dbe 3fde 07bf
000000c0: 59ba 2e3e 4f0f 86bd 0e0e 013e 641a b63e
000000d0: 7781 53bf 65e7 263e 7977 82be 0c90 9ebd
000000e0: ca2a 99be 9123 08bb e321 f53d ca8f aebd
000000f0: f49b bbbe e1c0 d3bd a396 42be da1c 2dbf
00000100: e2ba 53be 5db7 923b 4e62 d7be 7afa b63d
00000110: db55 f1bc 4dca d4be 1fdd 9ebc f5c1 8fbc
00000120: 70fa dfbd 566e 73bf b66d 22be b51b bbbe
00000130: 813b 4ebe 3617 a5be 7e36 e4be 109f 7e3d
00000140: 758f 31be af83 1abf 6812 9bbe a39d f2bd
00000150: b4b3 883b c163 49be 9306 9dbe 4b4a e3bc
00000160: f4d6 e53d 3558 c7be 85d5 41be 68c1 5cbe
00000170: 0c75 ae3d 5dd4 07bf f293 e9be 6215 493d
00000180: 330e d43c 91af 56bc 0e78 68be 0e98 40bf
00000190: 6451 423c 2bee 18bb dac0 7dbe d775 32be
000001a0: f8b3 ddbd e3c4 5bbe b942 bbbe 8e07 e5bd
000001b0: e858 f6be a688 77bb 7e8f 87be 42ad 0abe
000001c0: 7701 c43c 60c4 52bc 9f4b 01be 8792 58be
000001d0: 628f 3d3e 2aaf 1a3d 258a dbbe d70e 823d
-0.12204188 -0.16530699 -0.5036324 -0.04953412 0.073786244 0.014188937 -0.2550579 -0.21810068
0.2589713 -0.77872956 0.064315595 -0.29702452 -0.00969551 -0.38250843 -0.07424073 -0.087555446
-0.25167903 -0.02076626 -0.3028595 -0.06671007 -0.35900486 -0.08145959 -0.12708482 0.018627977
0.007811075 -0.087610036 0.08299459 -0.09656571 0.106472015 0.01589262 -0.3001904 0.07460545
-0.31356937 -0.116361 -0.052666795 -0.31658056 -0.05535081 -0.058560066 -0.05101383 -0.23953831
-0.1550543 -0.592947 -0.058320202 -0.24996647 0.06808213 -0.8003919 -0.21640007 -0.53073496
0.17063273 -0.06545889 0.12603018 0.3556701 -0.8261942 0.16299208 -0.25481775 -0.077423185
-0.29915458 -0.0020773152 0.11969354 -0.08523519 -0.3664242 -0.10339523 -0.19002776 -0.6762215
-0.20676759 0.004477425 -0.42067188 0.08934493 -0.029459884 -0.41560593 -0.019392548 -0.01754854
-0.10936439 -0.95090234 -0.15862164 -0.36544576 -0.20139886 -0.3224427 -0.44572824 0.062163413
-0.17339881 -0.60357183 -0.3028748 -0.11846473 0.004171813 -0.1966696 -0.30669078 -0.027745387
0.1122264 -0.38934484 -0.18929107 -0.21558154 0.08518419 -0.53058416 -0.45620686 0.049092658
0.025885677 -0.013103382 -0.22702047 -0.7523202 0.011860225 -0.0023335319 -0.24780598 -0.17427765
-0.10825342 -0.21461825 -0.36574343 -0.111830816 -0.48114705 -0.0037770658 -0.26476663 -0.13542655
0.02392648 -0.012864202 -0.12626503 -0.21149646 0.18511727 0.037764706 -0.42878833 0.06350487

fc2.weight f4 [84, 120]
00000000: 4343 013d 280c 56be 77b0 33be 75e9 80be
00000010: ddb4 343e 3373 98be 6ed8 a73e 0caf c6bd
00000020: 897a 613e c4a6 843e 9e98 573e 201b 1f3e
00000030: 11e1 83bd 91ca df3e 417e 1dbd c09f 503c
00000040: 6e77 a03e 9fab debd e086 91be 7794 7ebe
00000050: 60d4 babe 7e26 ca3c 1a8c 823d afc6 dcbc
00000060: eec5 26bf a45c 533d 18e1 de3d ceab 5dbd
00000070: 322f 99bd bc5d c33c 633a 833e 7db4 823e
00000080: 8672 8cbe f827 73be 06df bd3e cc54 27be
00000090: ff44 6bbe 07e8 41bc 6b97 7abe 98bc ebbb
000000a0: 96f5 dd3d 5c46 ee3e be7f 943c 4133 c03d
000000b0: 53f6 f9bd e928 99bd beb6 d0be 5e54 303e
000000c0: 86cb e33d 037a 2abf dd44 c73d 2d00 3dbf
000000d0: 784a a4be 56d6 23bf d0a4 23bd 1beb 523d
000000e0: 84cd 47bd aeb3 20bc 942d b63d 9c2d 75be
000000f0: d7ad c93e fdd1 523d 5365 31be 9c63 98ba
00000100: 888a fe3e 4b99 d93e a772 9e3d 8b22 97bc
00000110: 9a1d c33d 0361 28bf 9cef 143d f3c3 6bbd
00000120: 64c1 85be cf4f 963e 377a 713e fd8e ac3e
00000130: 556b f2be 65a5 debe a9ee 0b3c 7221 9dbe
00000140: 6fab bfbe 4ba4 3a3e 40ac 95bd 15e1 8e3e
00000150: def5 113e 0b43 30bd d515 12b9 fec7 f63e
00000160: 24ad 66be 34ae edbd 76af 1cbd a27c 2e3f
00000170: 0556 47be cbd9 c13d c1e1 c9be 66f7 343d
00000180: 438a 2cbd 62cd 2ebf 22b5 253e fd92 dd3c
00000190: c13b 7c3e 9902 b6bc 740f 24be b1d5 603e
000001a0: a0d7 373e b9c3 0b3f 58a8 9bbd 2a76 90bd
000001b0: b00b 1e3e 4f85 873e d63c 00be ffaf a63d
000001c0: 735d a03d 2877 7cbc 4fdd b5be 25c3 023e
000001d0: 2eed 6ebd ad02 9bbd f746 d7be 4b9d 10be
000001e0: 4505 acbe ce1c e1be 4b46 b4bd 5c11 15be
000001f0: 8585 84be 3a4a a53e 36d8 c0bd 0d40 f33e
00000200: 3347 9a3e 2a7a 5e3e 8942 41bf 590e 6f3e
00000210: 1064 643c 6315 b4bc 4517 d13c ce09 39bd
00000220: 2d4a 3f3d 696e 533e a0bc db3e 6248 153e
00000230: c1d0 e53d 7989 30bd 3daa 143e 7219 873d
00000240: e073 9c3e ec33 71bd 7191 c03c 424d f9bc
00000250: bb7f 523d 36e2 48bd 6c55 06be fc3e 2c3e
00000260: 1ba5 3f3e 3e02 613e 7f07 86be 6386 093f
00000270: 4c6f 4ebf b5b8 35bd 23c2 c3bd f70d 4cbe
00000280: 27cb bbbe b95f a53d dd08 283d ffe1 0a3e
00000290: 4ad4 c9bd 9f73 1f3f 7b06 ccbe 94b9 fcbb
000002a0: 933d 463d 6763 3d3e feb4 4a3d 1fcf 86be
000002b0: 3c3e acbe 9b4e cebe 73bb 87be cd69 e0ba
000002c0: f229 05bf c401 b03d 9a71 24be 5357 243e
000002d0: b56b 07bf f57d 54bd f98b 093e 6728 e63d
000002e0: ec19 1dbe 06d5 e3bd f1db 3f3e 50e3 b73d
000002f0: 4a74 e4bc 358a d73d 6b8c abbd 9cbf 8a3c
00000300: 54f9 363e 6137 aa3c d27a cebc edfd b53e
00000310: 6e2d 2a3f 103f 85be b4d4 0e3e 72a2 08bf
00000320: 8c85 df3d 9290 5c3d e1a0 783e 93b4 103d
00000330: de6d 86bc fd40 d9be ae7a b73e 1ef6 b8bc
00000340: 1ecd 54be 1682 bc3d a965 71be 9945 003e
00000350: 4576 adbe c4d2 2b3e 76d8 923e 1061 853d
00000360: 7526 e0bc 4a66 833d bc36 90be 94bc cb3e
00000370: 4e69 d6bd db4c 843d 678c ab3c ac5b b0be
00000380: e0f7 073f b132 15bf 4c82 0a3e fc05 813d
00000390: 20c3 0a3e aa1e 0fbd 6bee 6b3e 31da 9bbe
000003a0: 5af8 12bd edb2 4fbd f350 743d 7773 9e3e
000003b0: 0af2 afbe 31c6 ef3b a3b9 883e 9e3d a83e
000003c0: f3f1 d33e 6e6d cc3d ff48 88be 07a9 a9bd
000003d0: 514f e13d 03bb 8cbe 96a3 393f 42f1 03bf
000003e0: f5b9 b2be e7c6 073f 109a 40bf f061 c83e
000003f0: 4ada 68bd 5dee 0e3e de70 a03c aff3 763a
0.031558286 -0.20903075 -0.17547785 -0.25178114 0.17647119 -0.2977539 0.3278231 -0.09701356
0.220194 0.25908482 0.21054313 0.15537691 -0.064394124 0.43709233 -0.038450483 0.0127334
0.31341118 -0.10872578 -0.28423214 -0.24861322 -0.36490154 0.024676558 0.063743785 -0.026950208
-0.65145767 0.05160202 0.10882777 -0.054118924 -0.07479705 0.023848407 0.25630483 0.25528327
-0.27431124 -0.23745716 0.37084216 -0.16340941 -0.22975539 -0.011835105 -0.24471824 -0.007194113
0.108378574 0.46538055 0.018127318 0.09384776 -0.12205186 -0.07478506 -0.4076442 0.17219684
0.111228034 -0.66592425 0.097299315 -0.73828393 -0.32088065 -0.63998926 -0.0399521 0.051493745
-0.04877998 -0.009808464 0.08895412 -0.2394318 0.39390442 0.05146979 -0.17323808 -0.0011626366
0.49715066 0.42499766 0.07736712 -0.018449089 0.095271304 -0.6577303 0.03636132 -0.05755992
-0.26124108 0.29357764 0.23581778 0.3370284 -0.47347513 -0.4348556 0.008540788 -0.3068958
-0.3743548 0.18226735 -0.07308245 0.279061 0.14253947 -0.043032687 -0.00013931778 0.48199457
-0.22526985 -0.11605492 -0.03825327 0.68158925 -0.19466408 0.09465369 -0.3943005 0.04418125
-0.042124044 -0.6828214 0.16182378 0.027047629 0.2463217 -0.022218036 -0.1602152 0.21956517
0.17953348 0.54595524 -0.076004684 -0.07053788 0.15434146 0.26468894 -0.12523207 0.08139037
0.07830324 -0.015409268 -0.35520408 0.12769754 -0.05833166 -0.0756887 -0.4204633 -0.14122503
-0.3359777 -0.4396729 -0.0880247 -0.14557403 -0.25883117 0.32283193 -0.09416239 0.47509804
0.30132446 0.2172629 -0.7549215 0.23345317 0.013939872 -0.021982854 0.025523791 -0.045175366
0.0467016 0.20647587 0.42917347 0.14578393 0.11221457 -0.043099854 0.14518066 0.0659665
0.30557156 -0.058887407 0.023506852 -0.030432347 0.051391345 -0.049043857 -0.13118523 0.16820902
0.18715326 0.21973512 -0.26177594 0.5372068 -0.80638576 -0.044365603 -0.09558513 -0.19927202
-0.3667843 0.08074898 0.041024078 0.13562773 -0.09854944 0.622858 -0.39848694 -0.0077125523
0.048398566 0.1849495 0.049489014 -0.26329896 -0.3364123 -0.40294346 -0.265102 -0.0017121375
-0.5201713 0.08594087 -0.1605896 0.16048937 -0.5289872 -0.051877934 0.13432302 0.11238175
-0.1534192 -0.11124615 0.18736245 0.08978903 -0.027887482 0.10524408 -0.08376392 0.01693707
0.17868549 0.02077836 -0.02520505 0.35545292 0.6647557 -0.26024675 0.13948327 -0.5337287
0.10914144 0.05384881 0.2428012 0.03532846 -0.01640981 -0.42432395 0.35835785 -0.022578295
-0.20781371 0.092044994 -0.23573937 0.1252655 -0.33879295 0.1677962 0.28680772 0.06512654
-0.027362088 0.064159945 -0.2816676 0.3979231 -0.10469304 0.064599715 0.020940972 -0.3444494
0.531126 -0.58280474 0.13526267 0.062999696 0.13550997 -0.034941353 0.23040168 -0.30439904
-0.035881378 -0.050707746 0.05964751 0.30947468 -0.3436435 0.0073173274 0.2670413 0.3285951
0.4139553 0.099818096 -0.26618192 -0.082841925 0.110014565 -0.2748643 0.7251524 -0.51540005
-0.349075 0.53037876 -0.7523508 0.3913722 -0.0568488 0.13958116 0.01958507 0.0009420467

fc2.bias f4 [84]
00000000: 1e64 09be cc1d 33be 5287 f9be 22a8 583d
00000010: 2072 d1be 125b f7be ade5 97be a2a1 b6bc
00000020: 69d3 63be 6684 a6bd 1b34 7bbe fdfb cdbe
00000030: c75a a23d df6e 69be ac05 8fbe 0ac4 373e
00000040: 9488 2bbe cf97 a2be 29a8 11bf fc6a a6bc
00000050: 4236 7ebe 78d0 72be 4be2 e5be d43e c53d
00000060: f435 42be ea64 423d 526c 74be d5db d7be
00000070: a045 373b 498a 973d 8c84 e7bd be16 f4bd
00000080: 0490 25be 64cc 4cbf 726d 0abf b39e fe3d
00000090: d4fc 543d f577 9a3d d1b4 bdbd 690e 32be
000000a0: c649 a03d 3025 eebe 469c 73bd 63d9 b9be
000000b0: d36a 95be f020 adbd e530 55be 9219 a2be
000000c0: 9bfa 8c3e f05d 6a3d 6673 a5be 0b32 88be
000000d0: 9241 c9be f6fb 35be b152 32bd 6ca8 dfbe
000000e0: e273 76be 2d2d 7abe 9202 1bbe 8bb6 ebbe
000000f0: f521 b2be e8fc 8a3c 3f6b 503d 4dd1 a0be
00000100: e5c7 abbe 6991 03bf 5512 0dbf 6f39 4dbe
00000110: 3c44 fcbe 2653 e7be ffac 01bd 6cde cfbe
00000120: d905 dbbe 903c 9bbd c9dc 21be 658d 1e3e
00000130: c311 873e c5e7 543d ab82 11be 0a3b 223e
00000140: 00dd fbbe ee8e babe fbb1 3b3e c2d4 32be
-0.13417098 -0.17491835 -0.48736054 0.05289472 -0.40907383 -0.4831167 -0.29667416 -0.02229387
-0.22248615 -0.08130722 -0.24531595 -0.40231314 0.07927471 -0.227962 -0.27934015 0.17945877
-0.16751319 -0.31756446 -0.5689722 -0.020314686 -0.24825385 -0.23712337 -0.4489921 0.09631124
-0.18965894 0.04745952 -0.23869446 -0.42159906 0.0027965084 0.07399423 -0.11304578 -0.119184
-0.16168219 -0.79999375 -0.5407325 0.12432613 0.05199893 0.07542411 -0.092630036 -0.1738831
0.07826571 -0.46512747 -0.059475206 -0.36298665 -0.29183063 -0.08453548 -0.20819433 -0.31660134
0.27534947 0.057218492 -0.32314605 -0.2660068 -0.3930784 -0.17771897 -0.043535892 -0.43683183
-0.24067643 -0.24431296 -0.15137699 -0.46037707 -0.34791532 0.016966298 0.050883528 -0.31409684
-0.33550945 -0.51393753 -0.551061 -0.2004144 -0.4927081 -0.45180625 -0.031659123 -0.40599382
-0.427779 -0.07579911 -0.15806879 0.15483625 0.2638074 0.051978845 -0.14210002 0.15842834
-0.49192047 -0.36437172 0.18329613 -0.17463973

fc3.weight f4 [10, 84]
00000000: 43ec 30bf 75ab acbe b251 47bf 7ea3 2dbf
00000010: 7966 edbe 3a94 5bbf 77aa c9bd ec4d 1ebf
00000020: f4de 1fbf 3062 d3bd 8797 cbbe 4684 86bf
00000030: 018f 23bf 54a3 8dbf 5e79 c4bf 228e 4abf
00000040: 898f 21bf 248f cfbe 254a debd 740e 0dbe
00000050: fac3 133e 5964 cbbe a1bd a4bc 5304 52bf
00000060: b1ad 3dbf 582a 68be 0b0c e4be ec83 31be
00000070: cb94 d4be 39e2 40bf a0c6 ea3d ca91 6bbf
00000080: 4e06 d4be 8432 adbe 3fe2 acbc e395 5dbc
00000090: 0c75 c1be 10cd 36bf 8a7f 4dbf 159a a2be
000000a0: 3dff abbe d377 99be c00a ac3d 9021 293e
000000b0: 4206 23bf 3c63 6ebf 52f1 0ebf d7de 673e
000000c0: c277 73bf 1393 5dbe 39af 05bd 3054 16bf
000000d0: 1a4f 09bf 0b2e 69bd d1cf 51bf b9f9 173e
000000e0: 2d30 2ebf 2472 69bf 29d9 833d 4abe 51be
000000f0: 5330 5dbf 169c 81bd 85c5 36be 9aa8 283e
00000100: bef6 41bf e95d 88bf 3465 023b ffee 88bf
00000110: ee79 16bf 93ed 78bd ae33 44be 275a 92bc
00000120: 81eb 8abe c7e6 d53d 51d7 9a3d 1a2b 3d3d
00000130: f51c 2dbf 6ae9 6fbd 67f0 54bc ceec fc3c
00000140: 339f 3bbf a762 133e 7739 78bf 938f 0d3e
00000150: 2ad8 053d faf5 3abf e906 093e 4b62 0ebd
00000160: 26ee d9be 8f27 8dbc 413a 083e 852d 47bf
00000170: 16ee bebe 950b 1bbf 086a 8e3d a13d 04be
00000180: e1f2 84bf d357 cebe df3c 44be 4d36 a03d
00000190: dd08 033e bb5c 15bd b5ef 5bbf 8f08 823d
000001a0: e0d7 0ebf 624a e0be 74b9 39bf cf69 853c
000001b0: 2210 183d 5c53 3fbf c6a4 8bbe 200c 89bf
000001c0: 0498 3bbf 929e f4be 2c1f 193e 6b38 92be
000001d0: 94e0 d6be 5fb8 0fbf 9d15 05bf 3694 32bf
000001e0: 4cfe 93bf a705 f5be 940e 14bf c34b 5cbf
000001f0: f3c8 08bf f2b1 3a3e bca0 3cbf fd36 d8bd
00000200: 3149 b0be d592 933d 3e1e a4bd 7e2f 13bf
00000210: afcc 4cbf b6d7 693d 1a6f 37bf 20a8 bbbd
00000220: dbd2 0abf ddfa edbe 6413 03bf a771 4bbf
00000230: c33b febe d8e7 883d 2b4c bcbe c47e 9ebf
00000240: 1424 33bf f639 24bf 433f 22bf 922f dc3d
00000250: 9794 60be f8c5 86bf e5b1 59bf 36ba 8f3d
00000260: d9df f4bb 289d 3bbe c838 87bf 774b 1bbf
00000270: 2d20 bfbe 5a5a 51bf df48 ecbd 3bbf b13c
00000280: 3de0 2abf d7a6 bbbf 4960 0c3d ee22 3abf
00000290: 3189 1abf 12a0 21bf 2d1e 18bf 5df9 c8be
000002a0: b76a 0ebe 6556 0ebf a192 7cbe 6b2a d7bd
000002b0: 5b3c b6be 4b7d febd 01fa e03c b812 afbc
000002c0: c6a3 7dbe 67bf 913c 61ee 0dbc 739a d0be
000002d0: 93cc 90be 9bb7 99bf a4cd edbd 351e a03c
000002e0: 8243 bdbd 9db4 3cbf a981 983c 40d6 45bf
000002f0: 01bd 1cbf c264 a4be eaa0 2dbf c84f 02bf
00000300: 109b 15be 60b4 dabe 06ea 5e3e e0fa f3be
00000310: 6ad6 a23e 382e 9bbf 5f2f 053e 9ba3 a83b
00000320: 8717 48bf 3a47 863d 79ad 393c 3551 9ebc
00000330: f5e2 38bf afff 67be c6d7 08bf e00c 40bf
00000340: 2b74 3fbf 7e5d f3be 001a 1f3e 10db 4fbd
00000350: aee9 bebe d313 1dbe 4d6c 35bf 0c4b f73d
00000360: b77e 00bf 3f47 64bf 2368 83bf 53b8 03be
00000370: a4a6 23bf 5a71 4abe e967 c0bd b463 3dbf
00000380: 791b 29bb c302 24bf 9c86 32bf 2fad 33be
00000390: a254 013e ad37 58be 567f 25bf eefd 34bf
000003a0: d9e6 ecbe f665 cfbe a193 7abd 628f 223e
000003b0: 635a 4bbf cf22 1f3d ed7c a0be 9993 8bbf
000003c0: eb99 06be ae31 fa3c 5677 7bbf 241b b1be
000003d0: 32a3 93be a6f8 283e 9bcb 073d a28c 6abf
000003e0: 63a5 b4bf e459 35bf 6a7b 56bf 7daf 8abe
000003f0: e831 00be a23e b0be a821 f63d 9935 21be
-0.69110507 -0.3372456 -0.7785903 -0.67827594 -0.46367243 -0.8577305 -0.09846967 -0.6183765
-0.62449574 -0.10321462 -0.39764044 -1.0509117 -0.6389008 -1.1065469 -1.5349538 -0.7912313
-0.6310964 -0.40538895 -0.10853986 -0.13775045 0.14430228 -0.39724997 -0.020109953 -0.8203785
-0.7409316 -0.22672403 -0.44540438 -0.1733548 -0.4151977 -0.7534519 0.11463666 -0.9201933
-0.4141106 -0.33827603 -0.021103976 -0.013524505 -0.37784612 -0.7140665 -0.80272734 -0.3175818
-0.3359317 -0.2997423 0.08400488 0.1651671 -0.63681424 -0.9312017 -0.55836976 0.226436
-0.9510461 -0.21638136 -0.03263781 -0.5872221 -0.53636324 -0.056928676 -0.8195773 0.14841355
-0.6804226 -0.9118979 0.064379044 -0.20482746 -0.8640186 -0.06328599 -0.17848785 0.16470566
-0.75767124 -1.0653659 0.0019896748 -1.0697936 -0.587798 -0.060773443 -0.19160339 -0.017865254
-0.271328 0.10444408 0.075605996 0.046183683 -0.6762231 -0.05857221 -0.0129967695 0.030874636
-0.73289794 0.14393102 -0.96962684 0.138243 0.032676853 -0.7303158 0.13381542 -0.03476171
-0.42564505 -0.017230777 0.13303472 -0.7780383 -0.3729102 -0.6056455 0.069538176 -0.12914135
-1.0386621 -0.4030138 -0.19163845 0.07822857 0.1279635 -0.036465388 -0.8591264 0.06349289
-0.5579815 -0.4380675 -0.72548604 0.016285805 0.03712476 -0.7473657 -0.2727415 -1.0706825
-0.7327883 -0.4777723 0.14953297 -0.28558668 -0.41968215 -0.561407 -0.51986104 -0.697574
-1.156198 -0.47855875 -0.57834744 -0.86053103 -0.53431624 0.18231943 -0.7368276 -0.10557363
-0.3443084 0.0720574 -0.08013581 -0.5749434 -0.7999982 0.057090484 -0.716539 -0.09162927
-0.5422799 -0.46480456 -0.5120146 -0.79470295 -0.4965497 0.06684846 -0.36776862 -1.2382436
-0.69976926 -0.6415094 -0.6337778 0.10751261 -0.21931683 -1.0529165 -0.8503707 0.07017939
-0.007472974 -0.18321669 -1.0564203 -0.60662025 -0.37329236 -0.8177849 -0.115373366 0.021697631
-0.6674841 -1.466029 0.034271512 -0.7270955 -0.6036559 -0.6313487 -0.59421045 -0.3925275
-0.13907896 -0.5560058 -0.2466531 -0.105061375 -0.35592923 -0.124262415 0.027462961 -0.02137123
-0.24769506 0.017791463 -0.008662791 -0.40742835 -0.28281078 -1.2009157 -0.116114885 0.019545654
-0.09241392 -0.73713094 0.018616514 -0.77280045 -0.612259 -0.32108122 -0.6782366 -0.50902987
-0.14609933 -0.4271574 0.2176896 -0.4765234 0.3180421 -1.212348 0.13006352 0.0051464564
-0.781609 0.06556554 0.011332863 -0.019325832 -0.7222131 -0.2265613 -0.53454244 -0.75019646
-0.74786633 -0.47532266 0.15537262 -0.050746024 -0.37287658 -0.15339594 -0.7086838 0.12074861
-0.5019335 -0.8917121 -1.0266155 -0.12863283 -0.6392615 -0.19769803 -0.09394819 -0.7398026
-0.0025803728 -0.64066714 -0.6973665 -0.17546533 0.12629941 -0.21114989 -0.64647424 -0.70699966
-0.46269873 -0.40507478 -0.061175946 0.15875009 -0.79434794 0.038851555 -0.3134531 -1.0904418
-0.13144653 0.030541267 -0.9822897 -0.3459102 -0.28835446 0.16501102 0.033153158 -0.9162084
-1.4112972 -0.7084029 -0.83782065 -0.27087012 -0.12519038 -0.34422785 0.12018138 -0.15743102

fc3.bias f4 [10]
00000000: 40c8 b9be 5058 e0bd a2d5 6cbc e171 cb3c
00000010: 4bd8 683d 3023 8bbe b455 04be a334 3fbe
00000020: 4151 943e b742 083e
-0.3628559 -0.10954344 -0.014455231 0.024834575 0.056846898 -0.27175283 -0.12923318 -0.18672423
0.28968242 0.133067
