mnist/saved_models/model_epoch_38.pth (torch, 181338 bytes, 10 tensors)

conv1.weight f4 [6, 1, 5, 5]
000000 3f 3d 93 be 81 49 48 3e db 42 df bb e1 31 90 3e
       -0.28757665 0.1955929 -0.0068133897 0.28163055
000010 eb c5 57 3d 2a b4 6e 3e 08 1d 14 3f 85 0e 87 3e
       0.052678984 0.23310915 0.578568 0.26378265
000020 1f 71 9c 3d fe ac 7a 3e 8b 60 27 3e 87 f8 b1 3c
       0.07638764 0.24480054 0.16345422 0.021724952
000030 14 ee 15 be e3 53 9d bd ce 94 00 bb db 2b 46 bd
       -0.14641601 -0.07682016 -0.0019619945 -0.048381668
000040 87 ac c7 be 79 5a 4e be 04 83 83 be 34 84 75 be
       -0.38998815 -0.201517 -0.25685894 -0.23976213
000050 c4 aa e3 bc 4f 3f 7c bc 14 a4 76 3c 21 55 5b 3e
       -0.027791388 -0.015395953 0.015053768 0.21419193
000060 d9 54 3b be c7 e0 9d be 7a 99 9e 3c 5b a4 e7 3e
       -0.18294086 -0.30835554 0.019360293 0.4524258
000070 10 c8 a4 be 83 58 83 be 61 64 d5 be 70 c5 ca 3d
       -0.32183886 -0.25653467 -0.41678146 0.099009395
000080 69 7d 40 3f a4 0c 9b 3d 34 74 27 bc b2 1c 96 be
       0.7519136 0.075707704 -0.010220576 -0.29318768
000090 bb 60 04 bf 64 3a bd 3e ff 70 bd 3e fe 52 92 3d
       -0.517101 0.3695861 0.37000272 0.07144736
0000a0 19 00 e4 bc 6f 12 2b bf a6 57 ee bd ba 73 7c be
       -0.027832078 -0.66825 -0.11637811 -0.24653521
0000b0 4e c1 0e 3d aa 92 a7 3e 70 85 b8 3c 40 30 7c 3e
       0.03485232 0.32729083 0.022524565 0.24627781
0000c0 40 ef 6c 3b c0 cd 0b 3e 08 69 a7 bd 51 e4 32 be
       0.0036153346 0.13652706 -0.0817433 -0.17469908
0000d0 51 4b 44 be 5a c5 99 3c b5 10 92 be f7 4e c0 bd
       -0.19169356 0.018770862 -0.2852837 -0.09390061
0000e0 98 d5 57 bd 5b b7 55 3e 51 3d d7 3e 75 33 05 be
       -0.052693933 0.20870726 0.42038968 -0.1300791
0000f0 ea 4f 8c 3e 92 1e 50 3e 6e 6a 07 3f bc 3a 25 3f
       0.2740472 0.20324162 0.52896774 0.64542747
000100 60 83 f5 bd 5a 23 70 bd 31 56 10 bf bf 42 69 be
       -0.119879484 -0.058627464 -0.5638152 -0.22779368
000110 99 e3 a0 3e f7 d0 02 3e 73 64 32 3d 1c 53 95 be
       0.31423643 0.12775026 0.043552827 -0.2916497
000120 16 36 d9 be 31 0f 67 bd 8a 4f 99 3e 8b ba 31 bd
       -0.42424077 -0.056410972 0.29943496 -0.043390792
000130 6c 7e 18 3e 95 c9 eb bc 0b 3a 81 bd ce 15 7f 3c
       0.14891976 -0.028782645 -0.06309899 0.0155691635
000140 14 e2 0a 3e 06 c6 8e 3d 23 77 96 bd ad e1 0c 3d
       0.13562804 0.06971364 -0.07346942 0.03439491
000150 76 c7 95 3e fd ec 16 3d 31 34 27 be 73 7c cf be
       0.2925374 0.036847103 -0.16328503 -0.40524635
000160 5d 21 b8 bd 3f 69 98 3e 2e 31 28 be 65 fd 06 be
       -0.089907385 0.29767796 -0.1642501 -0.131826
000170 7f a0 40 be 64 b6 ff 3e 3b 08 a4 3e 87 3d 8e be
       -0.18811224 0.4994384 0.3203753 -0.27781317
000180 75 98 5c 3c 1c e4 01 3e 99 f1 51 3c 0d c2 00 3e
       0.013464083 0.12684673 0.012813949 0.12574024
000190 b4 a1 78 3d c6 5f 1f 3d c5 eb 88 3e 06 3a bc bd
       0.060701087 0.038909696 0.26742378 -0.091907546
0001a0 4e 53 b9 3e 39 35 cb 3b 5a 2c 0c be 4a cc 58 bd
       0.3619637 0.006201413 -0.13688794 -0.0529292
0001b0 48 54 f8 3d c7 d6 b0 3e a9 1b cc bd 07 d8 83 be
       0.121254504 0.34538862 -0.09966213 -0.25750753
0001c0 4d fb bd be d8 0a 11 bf ae b0 72 bd 8e fa e7 3e
       -0.3710579 -0.5665717 -0.059250526 0.45308346
0001d0 14 e5 16 be 65 2d 4c bf 8d f4 5c be df ee 65 3e
       -0.14735824 -0.79756767 -0.21577664 0.22454403
0001e0 d9 74 1f 3e 3d 68 13 3f c1 1e 24 3f b2 d2 d7 3e
       0.15571918 0.5758093 0.64109427 0.42152935
0001f0 96 29 c5 3b a2 40 08 3e ac b4 e4 3d a6 8e e8 bc
       0.0060169203 0.13305905 0.11167273 -0.028388333
000200 39 46 6a bc 60 1c d0 3d 41 26 a4 be 87 0a 5b 3e
       -0.014298969 0.10161662 -0.32060435 0.21390735
000210 af 32 29 3e 49 d7 04 be e5 aa b5 bd 3c 79 41 be
       0.1652324 -0.1297275 -0.08870486 -0.18893903
000220 04 e0 35 3f b9 40 3f be f5 bd c0 be 6b d2 cb 3d
       0.71044946 -0.18677033 -0.37644926 0.099522434
000230 0a 8b ae 3e af af e6 3e f7 f5 29 bf c9 29 c5 bc
       0.34090453 0.4505591 -0.6639094 -0.024067776
000240 56 bf 3b 3d ab 9f 9e 3e 2b 1b 7a be ee 1b 15 be
       0.04583677 0.30981192 -0.24424426 -0.14561436
000250 f9 4d 99 3c 66 d1 3d 3c
       0.018713938 0.011585569

conv1.bias f4 [6]
000000 07 b6 a6 be 58 d3 a8 bf 0d f7 fd be e0 b3 4f bf
       -0.3256075 -1.3189497 -0.49602547 -0.8113384
000010 08 92 4a bf 90 32 49 bf
       -0.79129076 -0.7859278

conv2.weight f4 [16, 6, 5, 5]
000000 86 26 28 3e e8 c5 6f 3d c6 3b 39 3e a2 8d 4d 3e
       0.16420946 0.058538347 0.18089208 0.2007356
000010 6b 18 92 3d fe 10 1f 3e bc 15 d8 3d 05 35 fa 3e
       0.071335636 0.15533826 0.105510205 0.48868576
000020 ec 8b 37 3e ae a3 54 3e e2 32 26 3e 24 9c 8c 3e
       0.1792447 0.20765564 0.16230348 0.27462876
000030 fe a0 12 3e eb 92 a6 bd c8 44 a0 3e fa ad 45 bf
       0.14319226 -0.08133491 0.31302476 -0.7721859
000040 81 c2 24 bf 47 da d2 be 4b a2 9b be 36 d1 d5 bd
       -0.6435929 -0.41182157 -0.30397257 -0.104402944
000050 c1 e2 9b bf 9a 0f 88 bf 55 f1 a8 bf 3b 9d 0a c0
       -1.2178575 -1.0629761 -1.3198649 -2.1658466
000060 89 68 28 c0 c8 d8 89 3e df 45 b3 be a7 55 7f bf
       -2.6313803 0.26923203 -0.35014245 -0.9974007
000070 2c 3c 82 3e 65 18 38 be bd 03 c7 bd 3e 0a 08 bf
       0.25436532 -0.17978056 -0.0971751 -0.5314063
000080 43 f1 f2 be 2a 8b 1a 3e 20 73 25 3e 8e 8d 7f 3e
       -0.47449693 0.1509215 0.16157198 0.24956343
000090 1b 78 9f 3e c2 5d 74 be 58 6f 5c be 8b 47 10 3a
       0.3114632 -0.23863891 -0.2152685 0.0005503825
0000a0 65 24 99 3e 7f b0 48 3e df aa ac be 10 20 3f be
       0.2991058 0.19598578 -0.33724114 -0.18664575
0000b0 1e 06 c9 be 1f aa 25 be 04 f6 ff 3c 45 dd de be
       -0.3926248 -0.16178177 0.03124524 -0.4352819
0000c0 0b 73 77 3e c4 35 25 bf 13 c9 8f 3e 45 f4 dc 3e
       0.24164979 -0.64535165 0.28083095 0.43155113
0000d0 cb 84 1d 3d 5d 18 47 be c2 82 08 3e 78 e0 a8 be
       0.03845672 -0.19442888 0.1333113 -0.32983756
0000e0 63 5c 6f 3e 7d 00 37 3e 77 48 0e 3c f4 21 34 3e
       0.23375086 0.1787128 0.008684269 0.17591077
0000f0 44 ff 3e 3e e0 36 b5 3e 4d 31 f9 be 73 53 3c 3e
       0.18652064 0.3539343 -0.48670426 0.18391208
000100 18 8e a0 3d 37 7c 24 bf b0 f6 65 bf bb 7c c7 bf
       0.07839602 -0.64252037 -0.8982954 -1.558494
000110 58 10 7d bf 78 58 0f c0 72 45 ab 3d 8b b6 c6 bd
       -0.98853064 -2.2397747 0.08362855 -0.09702786
000120 43 5a 34 be b4 46 ca be f1 d6 56 bf c3 d5 03 3e
       -0.17612557 -0.39507067 -0.83921725 0.12874512
000130 2d 6a 63 3f 3d 53 a9 be be d7 f2 be 91 5f 21 be
       0.88833886 -0.33071318 -0.47430223 -0.15759112
000140 23 f2 13 3f f0 77 41 3e 8f c8 fc be 24 27 66 be
       0.57791346 0.18893409 -0.49371764 -0.22475868
000150 20 eb 3c be e1 b6 2e 3e 5b 89 59 bf 61 93 5f bf
       -0.18449068 0.1706195 -0.8497521 -0.8733426
000160 1c 9f 4f bf 31 e4 a8 bf da c9 fa bd f4 24 8b bf
       -0.81102157 -1.3194638 -0.122455314 -1.0870652
000170 fc 93 e2 bf 72 4b fc bf 9e ed a2 bf c7 f8 cb 3c
       -1.7701411 -1.9710524 -1.2728765 0.0248989
000180 ab 23 4b be 55 87 61 bf 36 3b d1 be d4 ac 82 bf
       -0.19837825 -0.88097125 -0.40865487 -1.0208993
000190 46 cc c9 3e 66 6e 3e bc 66 d5 94 be a3 9e 26 be
       0.3941366 -0.011623001 -0.2906906 -0.16271453
0001a0 31 56 6c 3e 10 43 6a 3d df f6 96 3e e5 7e c8 3d
       0.23079754 0.057192862 0.29485223 0.09789828
0001b0 a2 f6 8c be 39 8b 0f 3f 09 17 1c be 60 32 a7 be
       -0.27531916 0.5607181 -0.15243162 -0.3265562
0001c0 67 61 a2 be 07 12 ba bd 86 11 6e 3d 6f 60 e4 3e
       -0.31714937 -0.0908547 0.05812218 0.44604823
0001d0 c6 95 74 3e f5 36 33 bd 78 85 e8 be f1 b4 da 3d
       0.23885259 -0.043753583 -0.4541433 0.10679043
0001e0 e5 9b b9 3e 63 80 16 3f 47 92 c8 3e e1 21 99 3e
       0.3625175 0.5878965 0.391741 0.2990866
0001f0 77 cb b2 3e 93 17 63 be 08 dc 03 bf 44 79 48 3e
       0.34920856 -0.22176962 -0.51507616 0.19577509
000200 88 13 66 3e fe 97 21 bd 8c 28 93 3e 86 91 4b be
       0.22468388 -0.03945159 0.28741872 -0.19879732
000210 a5 46 d7 3e 62 18 f4 3d d8 04 1f bf 9d 4c 81 3e
       0.42046085 0.11918713 -0.62116766 0.25253764
000220 66 ed c5 bd 18 76 3a be 59 2b 82 bf df 68 6b bf
       -0.09664421 -0.18209112 -1.0169479 -0.91956896
000230 1e bf a3 bd b2 f3 c5 be f8 2f 42 bf ab 29 04 c0
       -0.07995437 -0.38662487 -0.75854445 -2.0650432
000240 68 88 b4 bf 83 97 43 be c4 96 78 bd 2f dd 7a bf
       -1.4104128 -0.19100766 -0.060690656 -0.9799375
000250 fa 5b 51 bf 23 4e e3 bf 4d 3a 57 bf 9b 30 90 be
       -0.8178097 -1.775822 -0.84073335 -0.28162083
000260 18 27 29 be 1a ad a1 3e ac 05 ae 3e 2b 38 02 bf
       -0.1651882 0.3157738 0.33988702 -0.50866956
000270 1c da 95 bf f1 90 93 bf 28 e1 2a bf ad 53 2b be
       -1.1707187 -1.1528608 -0.6674981 -0.16731139
000280 41 a4 a3 3e ca d4 85 3e 3d fa a1 3e ac 26 88 3e
       0.31961253 0.26138908 0.3163623 0.26592004
000290 fe 0c 03 3e 47 57 a0 ba 35 8a d2 3e c8 8b d9 3e
       0.12797925 -0.0012233042 0.4112107 0.42489457
0002a0 11 99 59 3e 97 08 27 3e 0b 52 c3 be 2f 95 32 bf
       0.21249796 0.1631187 -0.3814853 -0.69758886
0002b0 58 84 70 bf 04 22 37 bf e6 a6 9d be ae 63 86 3e
       -0.9395194 -0.7153628 -0.30791396 0.26247925
0002c0 5f f6 e6 3d 69 b6 ed be 6f b6 ee 3c c7 8e d6 3d
       0.1127746 -0.4642823 0.029139725 0.10476451
0002d0 17 b9 68 3e 54 26 24 bd b9 bb 74 be 73 db ed be
       0.22726856 -0.040075615 -0.23899736 -0.4645649
0002e0 60 53 b1 be 4c 06 ac 3e f6 89 4c 3f a0 ef 82 3e
       -0.34633923 0.33598554 0.7989801 0.25573444
0002f0 0e 76 83 be 2b b0 34 bf b9 a4 0d bf 5a 62 1f 3e
       -0.25676006 -0.7058131 -0.5532947 0.15564862
000300 cf 7e 88 bd 59 e0 96 bf 8b e6 01 3e e2 f4 55 be
       -0.06664812 -1.1787215 0.12685601 -0.20894197
000310 9a 9b 9a be a0 f4 b3 be b6 55 1d bf f9 55 c3 3e
       -0.3019684 -0.35147572 -0.6145891 0.3815153
000320 13 d4 56 3e 48 b5 2b 3c 9c ab dd be 6c f3 4a be
       0.20979337 0.010480233 -0.4329499 -0.1981942
000330 14 af 39 3d cc 83 0d 3f f7 26 75 3e df 51 c3 bd
       0.045332983 0.5527923 0.23940645 -0.095371
000340 aa 16 d0 bd 21 a7 c6 be ba bf 73 bd f2 58 bc 3e
       -0.10160573 -0.38799384 -0.059509017 0.3678661
000350 31 d6 be 3e 6b 99 f9 3e af 41 1d 3e d7 3c 07 bf
       0.3727279 0.4874986 0.15357088 -0.5282721
000360 cb a3 84 be 5d ec af 3d 7c 00 51 be 71 b7 18 be
       -0.25906214 0.085900046 -0.20410341 -0.14913727
000370 a4 d1 f6 bd f0 43 02 bf 60 c1 1f bf b1 d2 55 bf
       -0.120517045 -0.50884914 -0.6240444 -0.83524615
000380 bc 2c 0a be ba a9 5e 3e 88 9f ea 3d 33 67 de be
       -0.13493627 0.21744433 0.114562094 -0.4343811
000390 b6 ac 24 3e ed 65 04 bf e9 be 08 be 61 d7 1c be
       0.16081509 -0.51718026 -0.13354076 -0.15316536
0003a0 78 77 98 be 07 05 2a bd 92 92 16 bf 7f e5 9f 3b
       -0.29778647 -0.0415087 -0.588174 0.004879653
0003b0 67 76 12 be d6 16 0e bf 5c 0d eb 3e ab 3c c7 be
       -0.1430298 -0.55503595 0.4590863 -0.38913473
0003c0 d0 9d c9 3c ce 0a 11 bf ae 56 56 be 33 e9 11 3f
       0.024611384 -0.5665711 -0.20931503 0.5699646
0003d0 8d 0d 00 3e f5 62 d1 3e 5f 0d b4 3e bb 54 9a 3c
       0.12505169 0.4089581 0.3516645 0.01883923
0003e0 bf 03 16 3e 43 94 48 be 2f fc d3 3d 03 3f b4 be
       0.14649867 -0.19587807 0.103508346 -0.35204324
0003f0 74 f0 0f bd 82 54 89 3e a9 1f a3 3d d2 ff 00 be
       -0.035141423 0.26822287 0.07965023 -0.12597588

conv2.bias f4 [16]
000000 06 48 f2 3d 59 f5 a3 be 2e ec ab be 78 c6 de 3d
       0.11830144 -0.32023123 -0.33578628 0.10877699
000010 d3 bd 61 bd 13 08 82 bd d0 cf c1 be c8 18 35 be
       -0.05511267 -0.06349196 -0.3785386 -0.17685235
000020 4a 56 94 be b4 21 a3 be ef 98 b5 bd 64 83 bf 3e
       -0.28972083 -0.3186165 -0.088670604 0.3740493
000030 ed 21 63 3e b2 32 8d be 00 b9 fd bd 82 d1 f9 bc
       0.2218091 -0.2757774 -0.123888016 -0.030495409

fc1.weight f4 [120, 256]
000000 d3 97 30 be 2a 41 1d bf ba 82 33 bf 43 83 5b be
       -0.17245416 -0.6142756 -0.7012135 -0.21436791
000010 b6 11 e1 bd 38 7c 03 bf ef b6 05 bf 2c f1 6c bd
       -0.10989706 -0.5136142 -0.5223226 -0.057847187
000020 2a 9e 03 bf 53 2e 38 3e 59 e5 fe bc 8c 10 01 3e
       -0.51413214 0.17986421 -0.03111522 0.12603968
000030 69 c1 e7 be 7d 3b d2 be 39 84 3f bf 46 10 a2 bd
       -0.45264748 -0.4106101 -0.7481113 -0.0791326
000040 64 a0 41 bd 6e 85 e0 bd 19 92 b9 3e 52 84 70 3d
       -0.0472721 -0.1096295 0.36244276 0.05871994
000050 65 bb 7d be 3b 70 76 3b e0 c0 ff bd 60 e5 cf bd
       -0.24778517 0.0037603516 -0.1248796 -0.10151172
000060 3b e8 a7 bf 01 63 6d bf a8 ef 61 be db 61 50 3f
       -1.3117746 -0.9272919 -0.22064078 0.81399316
000070 27 d0 87 bf fb 78 06 3d 5e 21 93 3e 40 fe 2e 3e
       -1.0610398 0.03283022 0.28736395 0.17089176
000080 9f 64 13 3f d5 79 7b 3e 01 a9 ef 3c aa 7c 4e bf
       0.5757541 0.24558194 0.029255392 -0.8065897
000090 d4 ca fb 3e 25 73 38 3f dd 53 3e 3f b4 b9 dd 3e
       0.49178183 0.72050697 0.74346715 0.43305743
0000a0 a9 61 b2 be b0 9e b3 be 72 1a d9 3e ea 3e 05 be
       -0.34840134 -0.35082006 0.4240299 -0.13012281
0000b0 1b 6c a8 be 2a b2 b2 3c 27 4b de 3c 5f 16 60 3e
       -0.32894978 0.02181347 0.027135445 0.21883534
0000c0 c6 6c 66 3e be 20 b6 3e 1c f2 48 3d 7d de 0b be
       0.22502431 0.35571855 0.04905902 -0.13659091
0000d0 d1 ff 6e bf 97 ae 4f bf f0 8d 07 bf 0e 36 38 3f
       -0.93359095 -0.8112578 -0.52950954 0.7195748
0000e0 46 de a6 bd 5f 63 e1 be 99 72 7b be b6 23 c8 3d
       -0.08147864 -0.44021127 -0.24555434 0.09772436
0000f0 d5 e7 71 3f 8e f3 cc 3e d2 b8 05 be 47 8f 98 bd
       0.9449437 0.40029567 -0.13058785 -0.07449203
000100 7e c2 20 3f 14 88 4c bf 40 1d 30 be 1f 8b 78 3e
       0.6279677 -0.7989514 -0.17198658 0.2427182
000110 61 eb 5f be 48 f4 62 be 1b 19 c3 be 39 2c 0e be
       -0.21867134 -0.22163498 -0.3810509 -0.13884057
000120 bf ba 08 bf 2a a4 4e bf f0 5d 4b be ca bb 23 be
       -0.5340995 -0.80719244 -0.19860053 -0.15989605
000130 a4 29 4a 3f ee 24 fd 3e cd 15 13 3f 3b f4 1d 3e
       0.7896979 0.49442238 0.5745514 0.15425198
000140 a9 77 55 bf 9e aa 79 3e 8d 42 2e 3e 63 5c 62 3e
       -0.8338571 0.24381492 0.17017575 0.22105555
000150 b3 10 a5 be 48 dc 6d bd a3 ab 1d 3e 75 6a 5b bc
       -0.32239303 -0.058071405 0.15397505 -0.013392081
000160 67 c4 01 3f 83 32 da be 9a 10 d3 bc 1a 87 0b bd
       0.5069031 -0.42616662 -0.025764752 -0.03406439
000170 2d 7f 81 3e af 04 16 bf 26 5b 51 be 56 37 dc be
       0.2529234 -0.58600897 -0.20444927 -0.43010968
000180 95 81 c1 3e 6b 6e df 3d e5 e0 48 be f2 93 38 bf
       0.37794176 0.109097324 -0.1961704 -0.72100747
000190 f0 a8 11 3f fe 2a bb be eb 6a 55 3e 72 6b e1 3e
       0.56898403 -0.36556238 0.20841567 0.44027287
0001a0 90 ad ad bf c3 ec 72 bd 93 64 ee 3d 28 bd ad be
       -1.3568592 -0.059307825 0.11640277 -0.33933377
0001b0 86 fa 71 3e 9d 6f a3 3e 02 d2 d0 be c3 06 99 be
       0.23630723 0.31921092 -0.40785223 -0.2988797
0001c0 3c b1 e8 bd dd f2 23 3e a5 ca 91 3e 81 f7 2c bf
       -0.1136193 0.16010614 0.28474918 -0.6756516
0001d0 fd 91 06 bf 62 b3 07 3f 36 94 79 3e 35 8e a3 bd
       -0.5256651 0.5300809 0.24372944 -0.07986108
0001e0 35 96 dd 3d 1d 83 a0 3e ba 8d 5a 3d 39 cb a2 3e
       0.10819665 0.31350031 0.053357817 0.31795672
0001f0 0d 99 82 be 89 f2 f4 bd 79 5e b9 bc c2 e3 d4 3d
       -0.25507393 -0.119603224 -0.022628056 0.10395004
000200 4e 6c 34 3e e0 2a 00 3f 74 3d a8 bc 03 20 5e be
       0.1761944 0.5006542 -0.020537116 -0.21691899
000210 60 d8 90 bf 6f 98 84 be b6 01 ef 3d 71 66 11 be
       -1.1316032 -0.25897548 0.11670248 -0.14199235
000220 ee 83 f7 bf 57 2e 38 bf aa a2 5f 3e 4a cb d6 3e
       -1.9337137 -0.7194571 0.21839395 0.41951972
000230 46 58 d8 be 08 aa d2 3e e2 a8 3d 3e bf 86 5b bd
       -0.42254847 0.4114535 0.18521455 -0.0535953
000240 20 58 85 bd 36 bb 69 bf 26 ef f7 3d fd 33 14 3f
       -0.06510949 -0.91301286 0.12106161 0.5789183
000250 fd 75 64 be e4 0f fb bd 0d 2b 3f bf b0 49 18 bf
       -0.22310634 -0.1225889 -0.74675065 -0.5948744
000260 de b9 1e be fe 49 13 3e 37 72 5e be 9d 14 1d be
       -0.1550059 0.14383695 -0.21723257 -0.15339895
000270 44 52 31 3f 5c 92 75 be d1 d3 a6 be c4 b6 38 be
       0.6926615 -0.23981613 -0.32583478 -0.1803847
000280 1e 48 1d bf 9a d5 e2 3e 9c 61 bf 3e 35 ed 16 3f
       -0.6143817 0.4430359 0.37379158 0.589557
000290 f3 99 1a be 7b ae 0e be 07 46 c7 be 69 5c f2 be
       -0.1509779 -0.13933747 -0.38920614 -0.47336128
0002a0 9a ae f3 3d c4 dd ad bf d4 35 53 bf 83 02 cb bd
       0.11898537 -1.3583302 -0.8250401 -0.099125884
0002b0 ca d2 af 3d ad 80 9d be 1c 32 0d bd 65 0c 68 be
       0.08585127 -0.30762234 -0.034471616 -0.22660978
0002c0 9b d5 94 be ba b0 a0 be 38 84 cd 3e b7 3f 3d 3f
       -0.29069218 -0.31384832 0.40139937 0.73925346
0002d0 f9 ae dc 3c b3 f5 0a 3f 44 a9 eb be 62 22 99 bd
       0.026938902 0.5428116 -0.46027577 -0.07477261
0002e0 85 59 17 be c7 80 f9 3e f4 60 26 bf 76 29 c6 be
       -0.14780243 0.48731062 -0.6499169 -0.38703507
0002f0 56 8d ec b9 56 80 7b be 93 ba f2 3e ba 25 a3 3e
       -0.0004511873 -0.24560675 0.4740797 0.3186472
000300 10 d3 8d be 70 2c 8c 3e 4d 63 db bc d1 b4 a8 3e
       -0.2770009 0.27377653 -0.026780749 0.32950452
000310 33 31 d7 be ad ee d8 3e e9 57 40 be 17 7b bc be
       -0.42029724 0.42369595 -0.18783535 -0.3681266
000320 ab 3a a9 be e0 92 d0 bd a8 56 42 3e d2 ca 7a be
       -0.33052573 -0.10184264 0.18978369 -0.24491432
000330 7f 9e ee 3c 1a 98 fc 3e 59 59 12 3f 87 22 f4 be
       0.029128311 0.49334794 0.57167584 -0.47682592
000340 83 45 8f 3f 01 84 de 3e d7 79 96 bd 29 97 62 bd
       1.1193088 0.43460086 -0.07347458 -0.05531994
000350 81 ae 23 bf 85 c6 74 be a7 75 f6 bc b9 b9 36 3f
       -0.63938147 -0.23903854 -0.030085398 0.7137714
000360 aa bd 2a bd c1 48 55 bf de 3a 2c bd cd 0c fe 3e
       -0.041684784 -0.8331414 -0.042048328 0.4961914
000370 ef e9 70 3c 35 97 51 bd 96 97 4a 3e d5 b7 7a be
       0.014704212 -0.051169593 0.19784388 -0.24484189
000380 3d 61 ee 3b 7e 1c bf bd c7 e4 b3 bf 83 05 30 bf
       0.0072747753 -0.09331606 -1.4054192 -0.6875841
000390 e4 15 75 3f 1e 79 79 3f e2 07 e6 be b7 69 f5 be
       0.9573653 0.97450435 -0.4492789 -0.47932217
0003a0 04 12 0c 3e c3 66 32 3f a1 c9 bf 3e 09 b7 1b 3e
       0.13678747 0.6968805 0.37458518 0.15206541
0003b0 ad 50 a5 be 8a f9 ef 3d 9f 74 e2 bd 11 5b f8 be
       -0.32288113 0.11717518 -0.110574 -0.48506978
0003c0 aa b9 35 3e 6f 6f 02 3f b2 cb 4d bf c3 be 47 bf
       0.17746606 0.50951284 -0.8038894 -0.78025454
0003d0 be c9 d2 3e b1 50 95 3e de 66 95 3e 75 de 14 be
       0.41169542 0.29163125 0.29180044 -0.14537986
0003e0 ff ad 7c 3e 58 55 af 3e 73 8d da be a1 21 ec 3e
       0.24675749 0.342448 -0.42686042 0.46119407
0003f0 62 9d e0 3e 31 69 f4 3e d9 88 b6 3e dc ca 73 3e
       0.43870074 0.47736505 0.3565128 0.23807853

fc1.bias f4 [120]
000000 65 9d 63 be 20 e9 70 be 9b 23 49 bf 30 4b 48 be
       -0.2222801 -0.2352643 -0.78569955 -0.19559932
000010 24 52 91 3d a9 ea 5d be 77 fe f9 be 42 62 1a bf
       0.07095745 -0.21671547 -0.48826954 -0.6030618
000020 d2 c4 79 3e c4 b2 86 bf 8c 98 95 3e 0b b7 16 bf
       0.24391487 -1.0523305 0.29217947 -0.5887305
000030 eb d9 1e bc 05 ce 7d bf 51 92 98 bd 45 50 b3 bd
       -0.00969551 -0.99142486 -0.07449783 -0.087555446
000040 8c 3f 0a bf 20 e3 20 be 69 b5 19 bf 3a 5d 55 be
       -0.54003215 -0.15711641 -0.60042435 -0.20836344
000050 5f 30 27 bf 49 d4 a6 bd 9d 55 80 be b3 99 98 3c
       -0.65308183 -0.08145959 -0.25065318 0.018627977
000060 d8 43 5d be e4 6c b3 bd 56 70 10 bc 3e c4 c5 bd
       -0.21607912 -0.087610036 -0.0088158455 -0.09656571
000070 21 f8 3d 3e 3d 31 82 3c cb fb f8 be 91 de 92 3e
       0.18551685 0.01589262 -0.48629603 0.2868543
000080 74 48 32 bf 62 6b cf be 52 98 38 3e 33 49 18 bf
       -0.69641805 -0.40511614 0.18026856 -0.59486693
000090 47 e7 b8 be ae dc 6f bd 24 4e b5 bd 99 f4 a6 be
       -0.3611395 -0.058560066 -0.08852795 -0.32608488
0000a0 ed 5a 4e be dc d4 84 bf 2a e1 6e bd 36 f7 7f be
       -0.20151873 -1.037746 -0.058320202 -0.24996647
0000b0 82 dd 63 be 06 b8 9e bf 05 c6 c8 be e5 d2 3e bf
       -0.22252467 -1.239991 -0.39213577 -0.7454055
0000c0 f1 7d 2f 3e ea 10 f8 3d fa 78 b5 3e 00 98 95 3e
       0.17137887 0.12112601 0.3544386 0.2921753
0000d0 e4 e9 85 bf 6e 33 de bd 72 76 8d be 33 90 9e bd
       -1.0462003 -0.10849653 -0.2762943 -0.077423476
0000e0 3f 0a 96 be a0 17 cb bc d6 ff 96 bd b0 d6 b4 be
       -0.29304692 -0.024791539 -0.073730156 -0.35320044
0000f0 55 9e 0d bf e1 c0 d3 bd f0 1f d6 be 44 df 88 bf
       -0.5531972 -0.10339523 -0.4182124 -1.0693135
000100 77 f8 b8 be 4e 34 aa bd 36 2d 31 bf e2 1c 07 3c
       -0.36127064 -0.083107576 -0.6920961 0.008246632
000110 81 b3 16 be 0f b2 0f bf 57 c8 92 bc f5 c1 8f bc
       -0.14716913 -0.5613107 -0.017917795 -0.01754854
000120 13 1d a8 be 6a eb b5 bf ee b3 09 3d 20 6f 28 bf
       -0.32834682 -1.4212468 0.03361886 -0.65794563
000130 54 14 bc be 62 d6 0f bf 5a 18 89 bf 14 7e b3 bd
       -0.3673426 -0.561865 -1.0710557 -0.08764282
000140 ed b5 47 be e8 42 68 bf ef ec 18 bf 5f e0 f8 be
       -0.19502993 -0.9072709 -0.5973653 -0.48608682
000150 73 68 98 3c df 3d 01 be e3 42 23 bf e5 0c f3 3d
       0.018604493 -0.12621258 -0.63773936 0.11867694
000160 6a 90 31 3c 42 19 2e bf f5 a4 ec be 8c a4 b7 be
       0.010837654 -0.6800729 -0.46219602 -0.35867727
000170 f5 51 38 3d b3 b7 5c bf 14 65 61 bf d1 d4 19 3e
       0.045000035 -0.862178 -0.8804486 0.1502259
000180 2c 00 f6 bd 1a 78 7d 3d 52 9a bc be d9 ea 9a bf
       -0.120117515 0.061882116 -0.36836487 -1.210292
000190 a8 db 9b bd 18 9b 09 be 4a 86 0d bf 8b 7c d8 bd
       -0.076102555 -0.1343807 -0.55283034 -0.1057063
0001a0 5a 56 e0 bd 0f 05 e4 be 3d bb 64 bf 8e 07 e5 bd
       -0.1095397 -0.4453511 -0.893482 -0.111830816
0001b0 ca 95 24 bf 57 f9 dd bd 3e d5 ce be c6 42 18 3c
       -0.6429106 -0.108385734 -0.40397066 0.009293264
0001c0 bf 9f c2 bb 60 c4 52 bc 8e d2 63 bc 6c 70 d9 be
       -0.0059394534 -0.012864202 -0.013905181 -0.42468584
0001d0 2b 0c b3 3d 53 e9 e2 3b 13 8a 1b bf de 19 ba bd
       0.08742555 0.006924787 -0.6075756 -0.09086965

fc2.weight f4 [84, 120]
000000 31 b9 a1 3d fc 6c 90 be 83 6d a3 3d 1c 71 34 bf
       0.078966506 -0.28208148 0.07979872 -0.7048509
000010 f4 79 76 3e 64 d1 d0 be 23 2d b5 3e e2 ec 30 3e
       0.24069959 -0.40784752 0.35386 0.17277864
000020 0f 71 91 3d 74 14 5b 3e a5 4e 53 3d 83 8b b9 3e
       0.07101642 0.21394521 0.051588673 0.36239251
000030 11 e1 83 bd 67 8b 04 3f 41 7e 1d bd c0 9f 50 3c
       -0.064394124 0.5177521 -0.038450483 0.0127334
000040 64 ee 07 3f 88 c8 80 bd be 69 aa be 9e 28 36 bf
       0.5309813 -0.06288248 -0.332838 -0.71155727
000050 1c bc 26 bf 7e 26 ca 3c 46 e4 d6 3c af c6 dc bc
       -0.6513078 0.024676558 0.026231896 -0.026950208
000060 f6 98 63 bf a4 5c 53 3d 29 33 82 3e ce ab 5d bd
       -0.88905275 0.05160202 0.25429657 -0.054118924
000070 ad 36 f6 be bc 5d c3 3c 08 fa 27 3e 18 ba 5f 3e
       -0.4808859 0.023848407 0.16403973 0.21848333
000080 5a e4 b1 be fb 15 5b be a9 48 a6 3e 21 98 ad be
       -0.3474453 -0.21395104 0.3247731 -0.33905128
000090 74 03 f7 bd 07 e8 41 bc 03 dc b5 be e1 91 03 3e
       -0.120612055 -0.011835105 -0.35519418 0.12848617
0000a0 93 22 44 bd 3f 7f 3d 3f be 7f 94 3c 41 33 c0 3d
       -0.047884535 0.7402229 0.018127318 0.09384776
0000b0 ba f2 c1 bd 13 c5 2c be e4 d0 8b be f3 b8 e4 3e
       -0.094701245 -0.16872053 -0.27307808 0.44672355
0000c0 20 8e a4 bd 2f ac 03 bf 32 3a 43 3e b3 6b 6b bf
       -0.08034921 -0.51434606 0.19065168 -0.9196121
0000d0 7c 67 2e bf 43 ab 23 bf 9f 94 71 be 1b eb 52 3d
       -0.68126655 -0.639332 -0.2359185 0.051493745
0000e0 fb e5 9f be 3e 88 b6 bd 4a 3d 61 3e a9 df d3 be
       -0.3123015 -0.08912705 0.21996036 -0.41381577
0000f0 15 19 8f 3e fd d1 52 3d 7f 27 8f be 71 8e a6 be
       0.27948824 0.05146979 -0.2795982 -0.3253055
000100 f2 e0 37 3f 80 c2 de 3e 51 f8 c5 3c d5 8a 12 bb
       0.71827614 0.43507767 0.024166258 -0.0022360582
000110 73 d9 e4 3e 46 94 44 bf df e1 66 3e f3 c3 6b bd
       0.4469715 -0.7678875 0.225471 -0.05755992
000120 ca 52 20 bf 70 2d 07 3f 37 1c 14 3d c9 f3 db 3e
       -0.62626326 0.5280371 0.03615972 0.4295943
000130 12 66 45 bf 23 bc 08 bf 28 6d e2 bd 97 dc 33 be
       -0.7710887 -0.53412074 -0.11055976 -0.17564617
000140 6b 1b 1f bf ee 77 73 3e bf 0d 04 3e 8e 49 82 3e
       -0.6215121 0.23776218 0.12895869 0.25446743
000150 d9 5b 70 3d 13 4d 1b 3d e5 a3 16 3e 32 77 21 3f
       0.058681343 0.0379153 0.14710958 0.630725
000160 56 00 82 be 86 18 17 3e e8 f9 ea 3c ca d7 45 3f
       -0.2539088 0.14755449 0.028683618 0.7728239
000170 00 ec db be 6a 61 29 3e a5 a0 62 be d1 35 c9 3d
       -0.4295349 0.16541067 -0.22131594 0.09824718
000180 32 b8 60 3d 85 a0 40 bf 4c ce c7 3e d7 15 37 3d
       0.054863162 -0.75244933 0.3902458 0.044698562
000190 b3 9c 88 3e a1 4b a4 bd 94 da 8b be a1 7c c8 3e
       0.26682052 -0.080222376 -0.273152 0.39157584
0001a0 6d 05 e2 3e 7a 54 07 3f 00 ca 12 bc 2a 76 90 bd
       0.44144765 0.52863276 -0.008959293 -0.07053788
0001b0 ee f1 0a 3e a7 3c c4 3d a9 c6 ce bd f6 e4 1a 3e
       0.13568851 0.09581881 -0.10096485 0.15126404
0001c0 73 5d a0 3d 28 77 7c bc fa f4 2f bf df 5c a7 3d
       0.07830324 -0.015409268 -0.6873318 0.08172011
0001d0 59 e7 08 3e 06 95 38 bd 3f a3 c9 bd 5e 5c ac be
       0.13369502 -0.045063995 -0.0984559 -0.3366422
0001e0 b5 94 44 be dd d5 0d bf 37 f2 80 3d 5e 99 f2 bd
       -0.19197352 -0.55404454 0.06296199 -0.11845659
0001f0 ed 67 8a be 38 67 db 3e 74 e4 31 be 52 29 da 3e
       -0.27032414 0.42852187 -0.17372304 0.4260965
000200 bc c8 de 3e bd 5a a0 3e 30 d4 e8 be fb 3a aa 3e
       0.43512523 0.31319228 -0.45474386 0.33248124
000210 10 64 64 3c 82 6d e6 bc 45 17 d1 3c ce 09 39 bd
       0.013939872 -0.02812839 0.025523791 -0.045175366
000220 ed b8 31 be ec 35 b8 3e 55 c3 b9 3e f9 16 7b 3e
       -0.173557 0.3597864 0.3628184 0.24520482
000230 f0 7c c5 3e 79 89 30 bd 29 19 19 3f 72 19 87 3d
       0.38571882 -0.043099854 0.59804016 0.0659665
000240 ce 61 bd 3e ec 33 71 bd f1 28 ba be 42 4d f9 bc
       0.36988682 -0.058887407 -0.3635936 -0.030432347
000250 84 32 89 3e 36 e2 48 bd 2f e7 ae be 13 aa 40 3e
       0.26796353 -0.049043857 -0.34160754 0.18814878
000260 45 9f d0 3e 93 eb 22 3d 11 f1 02 bf f2 ca f0 3e
       0.40746513 0.039775442 -0.5114909 0.47029835
000270 04 4c 6c bf b5 b8 35 bd fb 64 48 be 95 5c dd be
       -0.9230349 -0.044365603 -0.19569771 -0.43234697
000280 a6 bc f4 be 2d d1 bd 3e dd 08 28 3d ff e1 0a 3e
       -0.47800177 0.3707365 0.041024078 0.13562773
000290 48 22 0c bd 11 18 38 3f cf 5b 45 bf d1 54 03 3e
       -0.03421238 0.7191172 -0.77093214 0.12825324
0002a0 b7 e5 ca 3e 9e dd 65 3e 08 0e b9 39 dd 0d 50 bd
       0.39628384 0.22447821 0.00035296404 -0.05079447
0002b0 72 0a 18 bf 0e 05 36 bc a8 5f 85 be cd 69 e0 ba
       -0.5939094 -0.011109604 -0.26049542 -0.0017121375
0002c0 a7 36 1b bd 44 f1 af 3e 47 01 cc 3d 89 9e 72 3e
       -0.037893917 0.3436376 0.09961181 0.23693289
0002d0 74 a4 5e bf f5 7d 54 bd 3d 90 21 3e d8 56 7f 3e
       -0.86969686 -0.051877934 0.15777679 0.24935472
0002e0 f9 d1 6d be 28 2a f3 3d b0 5a cb 3d e8 35 61 3e
       -0.2322463 0.11873275 0.09929407 0.2199322
0002f0 76 1c 33 be 2a 5a 69 3c 94 3c 3e 3e 9c bf 8a 3c
       -0.17491326 0.014242688 0.18577796 0.01693707
000300 80 f7 58 3d 2c 92 03 3c b6 f4 b2 bd a1 c2 fb 3e
       0.05297041 0.008030456 -0.08738081 0.49171928
000310 9c d9 33 3f c7 70 c2 be ee cf 8b 3e 6a d4 23 bf
       0.7025392 -0.37976667 0.27307075 -0.63995993
000320 40 a0 a5 bc ad 69 85 3d df 7b 4e 3e 74 3c 1e 3e
       -0.020218015 0.06514297 0.2016444 0.15452749
000330 3a 0f 4e 3e fb d3 b7 be c8 96 03 3f ed 33 a9 be
       0.20122996 -0.35903916 0.5140195 -0.3304743
000340 3a d3 2d be ed ea 54 3e 94 6b c4 be 66 ff aa 3e
       -0.16975108 0.20792742 -0.38363326 0.3339798
000350 1f 01 82 be 37 c2 cf 3e 26 18 3b 3f 5e 89 46 be
       -0.2539148 0.40577862 0.7308372 -0.19388339
000360 90 f8 bd bc 20 7d 75 3e ed 43 07 bf a0 21 0b 3d
       -0.023189813 0.23973513 -0.5283802 0.033967614
000370 df 6a b6 bc 88 c8 29 3e be 06 e9 3c 94 ae 30 be
       -0.022267757 0.16580403 0.028445598 -0.17254096
000380 3e 19 4f 3f 49 c0 41 bf f8 76 81 3e fc 05 81 3d
       0.8089789 -0.7568403 0.25286078 0.062999696
000390 86 0f 0d 3e a6 aa 18 be de f9 e6 3d 08 90 66 be
       0.13775453 -0.14908847 0.11278127 -0.22515881
0003a0 da 5b f3 bc ed b2 4f bd 73 0b f0 3d 01 88 37 3e
       -0.029706884 -0.050707746 0.11720934 0.17922975
0003b0 ec 90 03 be ef ec ef 3b 43 a2 16 3e 1b a8 f8 3e
       -0.12848252 0.007321946 0.14710335 0.48565754
0003c0 23 46 0e 3f ba 67 87 3e f8 2f 93 be 40 85 00 bf
       0.5557577 0.26446325 -0.28747535 -0.50203323
0003d0 ab 19 c8 3e f6 2d 2d be 6d 62 59 3f ef 29 00 bf
       0.39082083 -0.16912064 0.8491581 -0.50063986
0003e0 0a c9 06 bf df 75 2b 3f ba 8c 81 bf 40 c6 8a 3e
       -0.5265051 0.6697673 -1.0121071 0.27104378
0003f0 4a da 68 bd 21 48 91 3e de 70 a0 3c af f3 76 3a
       -0.0568488 0.28375342 0.01958507 0.0009420467

fc2.bias f4 [84]
000000 5a 15 e2 be 8e 51 10 bf 2b cc 89 bf c2 7a f1 bd
       -0.44156915 -0.5637444 -1.0765432 -0.11790992
000010 04 6a 49 bf ae b6 6a bf 91 56 4c bf b4 32 70 be
       -0.7867739 -0.91685 -0.7981959 -0.23456842
000020 77 af 41 bf 3d 6d 58 be 15 30 52 bf d3 0b 69 bf
       -0.75658363 -0.21135421 -0.8210462 -0.9103367
000030 e1 a4 d3 bd aa e8 35 bf 65 15 04 bf ab 00 a1 bc
       -0.103341825 -0.7105814 -0.51595145 -0.019653639
000040 16 9a 09 bf 84 39 49 bf 55 d2 64 bf 2e 84 47 be
       -0.5375074 -0.78603387 -0.8938344 -0.19484016
000050 de ed 0d bf 3e 4d 04 bf d1 eb 64 bf 8f ae 1e be
       -0.5544108 -0.5168036 -0.8942233 -0.15496276
000060 3e f0 23 bf 72 0c e4 be 7b 84 c8 be cb 2f 32 bf
       -0.64038455 -0.44540745 -0.39163575 -0.69604176
000070 78 35 02 bf 20 e4 8f bc a9 c1 f5 be a1 b1 f0 be
       -0.50862837 -0.017564833 -0.47999313 -0.4701052
000080 43 6b d9 be 70 ea af bf 39 c9 5b bf bb fd 74 be
       -0.42464647 -1.374342 -0.85853916 -0.23924915
000090 52 c3 89 be 25 7d 7a be 18 4e d5 be 1e 8f 02 bf
       -0.2690683 -0.24461801 -0.41661143 -0.5099963
0000a0 dd e5 10 be 18 d5 3f bf 60 2e e1 be ad 19 45 bf
       -0.14150186 -0.7493453 -0.43980694 -0.76992303
0000b0 84 b6 07 bf 46 5a f4 be 36 03 db be 51 85 43 bf
       -0.5301287 -0.47725123 -0.42775887 -0.763753
0000c0 40 d3 9d 3d d3 05 c7 bd 4e 63 0e bf 5d 21 0f bf
       0.07706308 -0.09717908 -0.55620277 -0.55910283
0000d0 f7 22 53 bf e4 74 0b bf f1 8b c2 be fb 06 43 bf
       -0.8247523 -0.54475236 -0.37997392 -0.76182526
0000e0 37 ee 18 bf 01 25 42 bf 8e 89 36 be db bf 81 bf
       -0.59738487 -0.75837713 -0.1782591 -1.0136675
0000f0 25 62 5a bf cb 68 00 bf ca 93 dc be 51 4a 23 bf
       -0.85306007 -0.501599 -0.43081504 -0.6378527
000100 19 e8 2b bf 21 93 85 bf 01 07 88 bf 39 e2 47 bf
       -0.6715103 -1.0435525 -1.0627137 -0.78079563
000110 a3 4d 6c bf cd 79 75 bf 9c 2e b9 be c1 29 53 bf
       -0.92305964 -0.9588898 -0.36168373 -0.82485586
000120 0e 0b 8f bf a3 98 cc be c3 ad 7f be b7 66 cc be
       -1.1175249 -0.39960203 -0.24968629 -0.39922115
000130 16 ae 93 3d f2 5f 50 bd c9 df 31 be ae 3d 9c bc
       0.07210939 -0.05087275 -0.17370524 -0.01907238
000140 cf 55 40 bf b2 51 c5 be 35 d7 c8 3d a0 5d 1d bf
       -0.75130934 -0.3853889 0.098066725 -0.61470985

fc3.weight f4 [10, 84]
000000 a6 0c 5c bf 77 d4 09 bf ec 0a 64 bf d4 8e 8a bf
       -0.859568 -0.5383982 -0.89079165 -1.0824838
000010 a5 d1 e9 be 88 11 81 bf bc 64 35 be 2a 4c 7d bf
       -0.4566776 -1.0083475 -0.17714208 -0.9894434
000020 5e cf 5b bf 0f cb a6 be 63 5d 0a bf 59 22 89 bf
       -0.8586329 -0.32576796 -0.54048747 -1.0713607
000030 35 be 4d bf 49 91 91 bf 93 94 cb bf 53 47 5f bf
       -0.8036836 -1.1372463 -1.5904716 -0.8721821
000040 11 f4 78 bf f5 43 06 bf b0 97 13 bd a1 0c f0 bd
       -0.97247416 -0.52447444 -0.036033332 -0.11721159
000050 8d 2d f3 3c 14 78 df be b0 99 2a be cf ac 9d bf
       0.029684806 -0.436463 -0.1666019 -1.2318362
000060 17 59 78 bf fb ad c5 be bd 6e 50 bf 7a 2d bc bd
       -0.9701094 -0.386093 -0.81418973 -0.091883615
000070 c5 01 37 bf b1 84 8f bf f0 56 2f 3d 58 7d cc bf
       -0.71487075 -1.1212369 0.04280752 -1.5975752
000080 ca b2 65 bf d7 89 da be 04 30 5a bd 9f 58 32 be
       -0.89725935 -0.42683288 -0.053268448 -0.17416619
000090 dc 7b 7c be 8a ed 8f bf 3c cc 53 bf 5a 88 e9 be
       -0.24656624 -1.1244366 -0.8273351 -0.4561184
0000a0 f6 f5 f6 be da 18 65 bf e0 e6 e3 bd 5c 39 1b 3e
       -0.48234528 -0.89491045 -0.1112802 0.151586
0000b0 9c f3 4b bf 0b 1a a3 bf be 65 62 bf 61 c4 e1 3d
       -0.79668593 -1.2742323 -0.88436496 0.110237844
0000c0 d0 8b 9f bf 9f 44 50 be 5b 0b 02 be 62 30 7b bf
       -1.2464542 -0.20338677 -0.12699644 -0.981207
0000d0 64 5e 84 bf 85 15 01 be e7 11 c3 bf f2 69 39 3d
       -1.0341306 -0.12605865 -1.5239838 0.045267053
0000e0 c5 ce 99 bf 35 0e aa bf 59 24 96 bc e8 c4 75 be
       -1.2016226 -1.3285586 -0.018327879 -0.24000895
0000f0 32 84 2b bf 68 86 f5 bd dc 0e 99 be 58 15 b7 3c
       -0.6699859 -0.119885266 -0.2989415 0.022349045
000100 aa 38 a8 bf 2d 9f 9e bf 05 e3 22 3d 93 ee 93 bf
       -1.3142292 -1.2392327 0.039767284 -1.1557182
000110 cf 26 5c bf ed 61 8f be 1d ca c1 be 3f 41 96 be
       -0.8599672 -0.280044 -0.37849513 -0.29346654
000120 43 00 7a be a9 93 0a 3d 70 7c 31 3d 1a 65 a8 3d
       -0.24414162 0.033832226 0.043331563 0.082224086
000130 0e b5 70 bf ed 09 e8 be fc e5 52 bc 44 96 88 bc
       -0.9402627 -0.45320073 -0.012872215 -0.016673215
000140 2b 32 5c bf 3c 8e 3e 3d 1d 25 a9 bf 2a f5 58 3c
       -0.8601405 0.046522364 -1.3214451 0.013242045
000150 fc ab f1 ba d0 bf 80 bf c1 d9 f4 bd 16 9d 9c 3b
       -0.0018438096 -1.0058537 -0.11955596 0.0047794683
000160 5c f3 69 bf 4c b7 89 be bc 0c 41 bd 72 f6 59 bf
       -0.9138696 -0.26897657 -0.047131285 -0.8514167
000170 3f 77 3a bf 60 76 6e bf 0a 02 75 bd b1 1b 87 be
       -0.72838205 -0.93149376 -0.059816398 -0.26388314
000180 57 98 8f bf b9 ba f3 be fe 4e 29 bf 90 0f b6 bd
       -1.1218365 -0.47603396 -0.6613616 -0.08889687
000190 56 ef 5f 3e ba 18 65 be aa ff 72 bf fa f1 a8 bd
       0.21868643 -0.22372714 -0.9492136 -0.08249278
0001a0 52 b5 65 bf 50 14 d9 be 01 03 80 bf 29 a4 5a be
       -0.897298 -0.4239831 -1.0000917 -0.21351685
0001b0 f6 06 de bd e7 62 93 bf 01 fd b4 be 97 60 a6 bf
       -0.108411714 -1.1514558 -0.35349277 -1.2998227
0001c0 1e 9c 90 bf 01 0c 94 bf f4 ee 0d 3e 47 9e c1 bf
       -1.1297643 -1.1566163 0.13860685 -1.5126427
0001d0 01 a2 1b bf 33 75 59 bf af d8 53 bf 5d c9 ab bf
       -0.60794073 -0.84944457 -0.8275251 -1.3420826
0001e0 d8 db ba bf 1c 24 86 bf d9 4b 36 bf 50 fa be bf
       -1.4598341 -1.047977 -0.71209484 -1.4920139
0001f0 86 41 47 bf bb 14 ad 3b 9c 33 45 bf 09 de 80 3d
       -0.77834356 0.0052820123 -0.77031875 0.0629235
000200 9b d8 63 bf 0d 5c b8 bd 88 6b 7a bd 18 d3 7e bf
       -0.8900239 -0.09001932 -0.061137706 -0.99540854
000210 ba 01 b2 bf a3 1b e4 bc af 16 db bf 6a ed 7b be
       -1.3906777 -0.02784521 -1.7116297 -0.24602285
000220 4d e7 fc be ad 86 42 bf c2 9f c5 bf 94 41 5f bf
       -0.49395218 -0.7598675 -1.5439379 -0.8720944
000230 60 9f 90 bf 44 fd b9 bd 52 08 0f bf 87 84 92 bf
       -1.1298637 -0.0908151 -0.5587207 -1.1446694
000240 8b 98 93 bf d1 db 93 bf db 23 4e bf 6f 4f e9 3b
       -1.1530927 -1.1551458 -0.8052346 0.007120065
000250 04 37 f3 be 36 32 85 bf 09 91 b4 bf 48 e6 83 bd
       -0.4750291 -1.0405948 -1.4106761 -0.06440407
000260 1c 19 8f 3d c0 55 10 bf aa 2f db bf 8e eb 34 bf
       0.06987211 -0.56380844 -1.7123921 -0.7067193
000270 ce 16 ea be 6b cc 7d bf 37 23 34 3e 14 e5 03 be
       -0.45720524 -0.9914004 0.17591558 -0.12880355
000280 3e 92 2d bf 6e ca fa bf c1 5f 0c 3d d8 50 66 bf
       -0.6780127 -1.9593027 0.034271006 -0.8996711
000290 68 38 46 bf 5d 4f 34 bf bc e3 79 bf a1 aa 38 bf
       -0.7742982 -0.704336 -0.9761312 -0.7213536
0002a0 7c c3 11 bf 0d bf 40 bf ff 7a aa be 1d 25 8d be
       -0.5693891 -0.7529152 -0.33296964 -0.27567378
0002b0 f1 5c d0 be 50 8f af be dd 68 d1 bd b2 50 bb bd
       -0.4069591 -0.34289026 -0.10225079 -0.09146251
0002c0 84 5d 28 bf fc d7 88 bb 46 19 88 bd d7 64 94 bf
       -0.65767694 -0.004176138 -0.066454455 -1.1593274
0002d0 2c 56 51 bf 8f a6 d6 bf 21 c2 97 be e5 a3 70 3d
       -0.8177211 -1.676958 -0.29640296 0.058750052
0002e0 bc 41 2c be 7c 59 63 bf 8d 64 e4 bd fe e9 aa bf
       -0.1682195 -0.8880842 -0.11151991 -1.3352659
0002f0 ad 13 85 bf 21 d5 dc be 11 c5 52 bf 1e 12 7c bf
       -1.039663 -0.43131354 -0.8233195 -0.98465145
000300 99 38 4a be 41 55 3a bf 1d 0d 17 3e c7 a7 30 bf
       -0.19748153 -0.7278634 0.14751096 -0.6900601
000310 f8 f1 a2 3e be c4 cf bf 62 fb 8e 3b ca e9 17 bd
       0.31825233 -1.6231916 0.0043634633 -0.037088193
000320 0c 56 6a bf 61 00 8c be 07 a5 07 3e ff 5f 2f be
       -0.9153755 -0.2734404 0.13246547 -0.17126463
000330 43 64 69 bf 69 b0 e6 be 85 5c 19 bf 28 04 95 bf
       -0.9116861 -0.45056465 -0.599068 -1.1641893
000340 e3 99 c0 bf c9 18 44 bf 0a 55 c1 3d a8 bd 24 be
       -1.5046962 -0.7660032 0.09440048 -0.16087973
000350 4a d8 0d bf 44 6a 07 bf 4e 9c b3 bf 89 00 81 3d
       -0.55408156 -0.52896523 -1.4032075 0.0629893
000360 4b 14 22 bf 3f ba 9d bf c8 79 59 bf 77 c0 39 be
       -0.63312215 -1.2322463 -0.8495145 -0.18139826
000370 b6 73 5f bf b1 59 de be b3 e6 b9 be 3f fd 6b bf
       -0.87285936 -0.43427804 -0.36308822 -0.921833
000380 d5 dd 5f be 4f 4b 36 bf da da 6b bf a7 c5 20 be
       -0.21861966 -0.7120866 -0.92130816 -0.15700398
000390 91 95 68 3d 6c 56 07 bf ed 4e 4b bf c7 dc 57 bf
       0.056783263 -0.52866244 -0.79417306 -0.84321254
0003a0 4f 92 3a bf 4e a8 c7 be b2 ac 40 bd eb e2 65 3d
       -0.728795 -0.38995594 -0.047039695 0.05612461
0003b0 2a 72 9b bf 6d cf 2a bd bf 86 d2 be 87 97 c8 bf
       -1.2144215 -0.041701723 -0.41118428 -1.5671242
0003c0 76 ca 98 be cb 6c a4 bd f5 e9 d6 bf 4a d0 64 bf
       -0.29841965 -0.08028563 -1.6790148 -0.89380324
0003d0 5d 1f c2 be 8d 3c 7b 3d 33 d2 84 3d 12 d3 c8 bf
       -0.37914553 0.061337043 0.06485405 -1.5689414
0003e0 28 86 e5 bf d1 6e 94 bf 7e bf 81 bf c1 27 0f bf
       -1.7931566 -1.1596318 -1.0136564 -0.55920035
0003f0 b8 01 4b bd 3b c3 15 bf 57 80 71 3d 85 19 3d be
       -0.049562186 -0.58501023 0.058960285 -0.18466766

fc3.bias f4 [10]
000000 1e 99 f7 be 5b 89 8d bd c4 47 75 be aa e5 ff 3b
       -0.48359007 -0.06910964 -0.23953158 0.0078093605
000010 8c d7 fc bd 81 06 f7 be d7 30 75 be 15 a4 8d be
       -0.123458 -0.4824715 -0.23944412 -0.27664247
000020 8a c7 bf 3e 84 13 62 3e
       0.37456924 0.22077757
