mnist/saved_models/model_epoch_34.pth (torch, 181338 bytes, 10 tensors)

conv1.weight f4 [6, 1, 5, 5]
000000 e5 6f 9e be 74 9e fa 3d 7a db 9c 3b bb 79 9d 3e
       -0.30944744 0.12237254 0.004786906 0.30756935
000010 2f 69 85 3d a1 c9 56 3e 55 64 04 3f b8 00 83 3e
       0.06514203 0.20975353 0.51715595 0.25586486
000020 7d ae e0 3d 3e 25 90 3e 79 97 42 3e 44 b7 4e 3d
       0.10970781 0.28153414 0.19003095 0.050467744
000030 78 e4 1c be 4e 30 bc bd ee 52 7c bc 0f 8e de bc
       -0.15321529 -0.09188901 -0.015400631 -0.027167348
000040 e3 d6 bd be 5d 1d 69 be c7 9f a1 be 62 50 8f be
       -0.37078008 -0.22765107 -0.31567213 -0.27991015
000050 46 d0 5a bd 7f 50 e1 bc 32 de c9 bb d8 64 26 3e
       -0.05342128 -0.027504204 -0.006160521 0.16249406
000060 78 c1 73 be ce 95 a0 be e5 03 83 bd f6 95 d4 3e
       -0.23804271 -0.31364292 -0.06397227 0.4152066
000070 28 27 66 be 91 90 eb bd 84 33 cd be 5a 97 e2 3c
       -0.22475874 -0.11502183 -0.40078366 0.02766006
000080 fb 81 21 3f e9 94 ad 3d 0d 54 c9 3d 4e d7 98 be
       0.6308896 0.08475668 0.098304845 -0.29851764
000090 d2 9b f5 be 57 96 b4 3e 25 9a c7 3e f8 66 e0 3d
       -0.47970444 0.3527095 0.3898479 0.1095714
0000a0 8e 22 ae bc a3 0b 1e bf 9f f8 d6 bd 28 9e 78 be
       -0.021256711 -0.61736506 -0.104966395 -0.24279082
0000b0 a8 a5 b5 bb 3d 74 92 3e 51 f0 25 3a 38 56 2c 3e
       -0.0055434294 0.28604308 0.00063300604 0.16829765
0000c0 65 72 f9 bc ec 42 40 3e 40 ca b2 bd ec bc 38 be
       -0.030450055 0.18775529 -0.087299824 -0.18040818
0000d0 eb e6 0e be 66 3c 83 3d f8 b9 98 be 59 f5 ee bd
       -0.13955276 0.064080045 -0.29829383 -0.1166789
0000e0 7f 4c b1 bd 5d 56 81 3e 19 96 f4 3e 87 aa 04 be
       -0.086571686 0.25261202 0.47770765 -0.12955676
0000f0 3b 4e 81 3e a7 d2 25 3e 35 47 f9 3e 51 08 28 3f
       0.25254998 0.16193639 0.4868714 0.6563769
000100 36 46 c2 bd ad 36 8e bc 78 f3 08 bf e3 17 86 be
       -0.09486048 -0.017360056 -0.53496504 -0.261901
000110 71 8a b6 3e 16 36 10 3e f3 94 73 3d 5b f5 82 be
       0.35652497 0.14083132 0.05946822 -0.25577816
000120 a1 cc d0 be 0c 26 10 bb ca 4c 82 3e 60 fd 98 3c
       -0.4078112 -0.0021995334 0.2544921 0.018675506
000130 55 15 32 3e 66 2a d5 3b 12 3b 42 bc ef 89 66 3d
       0.1739095 0.0065052984 -0.011854904 0.056283887
000140 07 94 1d 3e a8 32 8d 3d ca a9 be bd 2e fc 70 bc
       0.15388499 0.068944275 -0.093097284 -0.014708562
000150 08 cd 7e 3e 5a f0 2c 3d 82 5b 15 be 7c 5a d3 be
       0.248829 0.042221405 -0.14585689 -0.41279972
000160 fe 5f 12 be cc 6a 88 3e 4a e2 1c be 3d c1 a2 bd
       -0.1429443 0.2664398 -0.15320697 -0.079470135
000170 9a d7 0f be 30 df 00 3f 02 b1 c6 3e 1e f9 91 be
       -0.14047089 0.5034056 0.3880692 -0.28510374
000180 ac 05 59 3d a6 ba 23 3e 5a ca 0b 3c 64 3b 05 3e
       0.052983925 0.1598917 0.008532131 0.13010937
000190 26 0e d7 3d 6d 2a 69 3d 5d c3 9c 3e e6 0b 5a bd
       0.105007455 0.056925226 0.306178 -0.053234003
0001a0 90 db a6 3e e1 6a fc 3a eb 2e 02 be d9 e1 f8 bc
       0.32589388 0.0019257927 -0.1271321 -0.03038113
0001b0 58 ed e1 3d f5 96 87 3e 0a 2e f3 bd c8 33 7c be
       0.11031598 0.2648236 -0.11874016 -0.24629128
0001c0 4a 33 ae be 1c 57 10 bf 24 30 83 bd ec 72 c4 3e
       -0.34023505 -0.5638292 -0.064056665 0.38368928
0001d0 d8 46 5a be 75 14 49 bf ae 07 6b be ba 29 5c 3e
       -0.21316087 -0.7854684 -0.22952148 0.21500292
0001e0 05 b0 05 3e 8c b4 08 3f e5 28 10 3f b6 c1 d9 3e
       0.13055427 0.5340049 0.563124 0.42530602
0001f0 fa 57 3b bd 28 05 16 3e 4c a7 05 3e c5 64 b5 bd
       -0.045738198 0.14650404 0.130521 -0.08857111
000200 8b b5 14 bd 2a 54 c6 3d 57 3a 87 be 1c ce 51 3e
       -0.036305945 0.09684022 -0.26411697 0.2048878
000210 48 e4 02 3e 6a 77 11 be 98 90 92 bd 20 d8 26 be
       0.12782395 -0.14205709 -0.07156485 -0.16293383
000220 ab e4 2a 3f ec 8f 51 be 66 46 a6 be c0 36 0c 3e
       0.6675517 -0.20465058 -0.32475585 0.1369276
000230 ec 1c a1 3e fe 8f c8 3e ae 5b 1b bf 56 a3 42 3d
       0.31467378 0.39172357 -0.6068677 0.04751905
000240 3d b7 32 3d 7a 93 b5 3e 42 16 83 be a5 b5 cb bd
       0.04363178 0.35464078 -0.2560292 -0.09946755
000250 d1 15 bd 3d 94 e8 58 3c
       0.09232677 0.013239045

conv1.bias f4 [6]
000000 4e dc 95 be 91 b8 aa bf cd 06 f3 be 30 36 3c bf
       -0.29269642 -1.3337575 -0.47466126 -0.73520184
000010 50 3a 47 bf d3 5a 49 bf
       -0.7782335 -0.7865421

conv2.weight f4 [16, 6, 5, 5]
000000 f2 cc 98 3d cd 41 3b bd 24 b2 f7 3d 00 eb bd 3d
       0.07460965 -0.04571705 0.120945245 0.09273338
000010 44 25 39 bd 31 c6 0a 3e 7f a5 d2 3d 2c 6d cb 3e
       -0.045201555 0.13552167 0.10285472 0.3973173
000020 0b 45 eb 3d 9b 66 74 3e 54 e1 80 3e f6 d9 98 3e
       0.11487778 0.23867266 0.25171912 0.2985379
000030 c2 d1 0a 3e 09 b2 a4 bd d9 18 9c 3e 78 b7 2b bf
       0.13556579 -0.0804177 0.30487707 -0.67076826
000040 5f 3e 1f bf 71 bb 02 bf 5b b5 a6 be db 6e 09 be
       -0.62204546 -0.5106726 -0.32560238 -0.13421194
000050 8d 73 9c bf 2f 4b 86 bf a9 8c a0 bf bf b0 fd bf
       -1.2222763 -1.0491694 -1.2542926 -1.9819564
000060 4b e4 19 c0 a5 65 98 3e b3 47 8e be 59 c6 85 bf
       -2.404559 0.2976505 -0.27789077 -1.0451156
000070 ba 5b 1f 3e 3d b5 03 be 4d 31 1f bc 32 44 01 bf
       0.15562335 -0.12862106 -0.009716344 -0.5049468
000080 52 c6 cd be 44 d1 0f 3e 26 2f cb 3c 34 3f 80 3e
       -0.4019037 0.14044672 0.024802756 0.2504822
000090 b6 3f 16 3e a6 7d 7c be f3 01 e6 bd 7d 95 ec bd
       0.14672741 -0.24657306 -0.112308405 -0.1155195
0000a0 b4 3e 7e 3e 8b 92 f3 ba 29 7f a8 be 80 ae 6d 3c
       0.24828607 -0.0018583102 -0.32909516 0.014506936
0000b0 79 0b c5 be cf cb 5f be 45 72 c3 bd 45 3d 02 bf
       -0.38485315 -0.2185509 -0.095432796 -0.5087474
0000c0 15 1f 89 3e 72 23 1a bf 61 e1 97 3e 78 24 bc 3e
       0.26781526 -0.60210335 0.29664138 0.36746573
0000d0 e7 de 11 bd de bc 51 be 14 2f 58 3e e6 97 94 be
       -0.035612967 -0.20482203 0.21111709 -0.2902214
0000e0 eb 5f 82 3e d0 74 07 3e ae 6e 4d bd 20 5e 24 3e
       0.25463805 0.13228154 -0.05015438 0.16051531
0000f0 36 ed 54 3e b8 e3 8b 3e ce d4 da be f9 6a 3a 3e
       0.20793614 0.27322173 -0.42740482 0.1820487
000100 c8 9b 6e 3d d7 8f 38 bf 4b 22 8f bf 5f 5a b6 bf
       0.058254033 -0.7209448 -1.118234 -1.4246329
000110 8c e4 62 bf 03 d3 08 c0 b5 04 96 3d 7a 26 0b be
       -0.88629985 -2.1378791 0.073251165 -0.13588896
000120 a6 81 14 be 91 1d d2 be cc c2 41 bf ac 7a 81 3e
       -0.14502582 -0.41038182 -0.7568786 0.25288904
000130 40 82 42 3f 7b d8 af be 47 77 01 bf f6 d3 38 be
       0.75979996 -0.3434485 -0.5057263 -0.18049607
000140 8f 4f 05 3f 6f 5d ac bc 7d 67 e7 be df 0d 95 be
       0.5207452 -0.021040646 -0.45196143 -0.29112145
000150 1d 6d c2 bd 9d 50 28 bd 51 99 67 bf 43 2a 49 bf
       -0.09493468 -0.041092504 -0.9046832 -0.7858011
000160 ff 9f 49 bf 8e aa 9e bf 39 ef a0 be 2d f7 92 bf
       -0.7875976 -1.2395799 -0.31432512 -1.1481682
000170 a1 73 d6 bf 37 40 ef bf e7 fc ac bf d1 0a 4d bd
       -1.6754037 -1.8691472 -1.351468 -0.050059143
000180 b8 22 81 be b3 4b 67 bf 12 71 02 bf f5 55 96 bf
       -0.252218 -0.9034988 -0.5095378 -1.1744982
000190 b1 9a cb 3e 8e e1 0c bb 32 37 39 be 12 4f a1 bd
       0.39766458 -0.0021496746 -0.18087462 -0.078764096
0001a0 2f 1f 58 3e 7b c4 01 3e 60 a4 71 3e 43 27 11 bd
       0.21105646 0.12672608 0.2359786 -0.035437834
0001b0 2b 0d 61 be 07 b7 f4 3e 6c 9c 17 be 34 b1 6a be
       -0.2197768 0.4779589 -0.14805764 -0.2291916
0001c0 c1 b2 a1 be e8 25 cf bd d7 15 3e 3e a6 7b dd 3e
       -0.3158169 -0.10114652 0.18563019 0.432584
0001d0 a7 f2 59 3e 78 7a e8 bc ca 99 f0 be 52 78 91 3b
       0.21283971 -0.02837871 -0.46992332 0.004439392
0001e0 1c 19 72 3e 0f 80 e9 3e c4 d0 6f 3e fe 1e 24 3e
       0.23642391 0.45605513 0.23419482 0.16027448
0001f0 6d 6e 4b 3e 6e ef 4b be 15 c9 8d be c4 36 a2 3e
       0.19866343 -0.19915554 -0.27692476 0.31682408
000200 4d f0 36 3c da bc 7c 3d fc 90 9e 3e 71 1d f0 bc
       0.011165691 0.06170354 0.3096999 -0.029310914
000210 da 7c a5 3e f0 a8 95 bd 41 0d f2 be a5 c0 43 3e
       0.32321817 -0.07307613 -0.47275737 0.19116457
000220 4f 19 0c be a0 45 79 be 9a f0 60 bf c1 bc 55 bf
       -0.1368153 -0.24342966 -0.8786713 -0.8349114
000230 2d a5 69 be bc c1 a6 be a9 bd 7d bf d4 aa 03 c0
       -0.22816916 -0.32569683 -0.99117523 -2.0573015
000240 93 be aa bf 7c 40 8d be 00 b0 d2 3d 78 cc 91 bf
       -1.3339409 -0.2758826 0.102874756 -1.1390524
000250 48 81 2e bf bf 72 d0 bf d1 76 49 bf a4 14 46 be
       -0.6816602 -1.6285018 -0.78696924 -0.19343811
000260 e9 e0 88 be 8a b8 86 3e a7 10 cd 3e 49 97 0a bf
       -0.26734093 0.26312667 0.40051767 -0.5413709
000270 ab fa 80 bf 5b 9f 62 bf 64 e0 c0 be b4 94 31 3d
       -1.0076498 -0.8852441 -0.37671196 0.043354705
000280 db d1 7b 3e ae a0 59 3e 8a 56 91 3e d6 e8 54 3e
       0.24591772 0.212527 0.28386337 0.20791945
000290 3b 66 ff 3d 5e 50 e7 bd 77 4d a5 3e 2c f8 99 3e
       0.12470671 -0.11294626 0.32285663 0.30072153
0002a0 93 1f f8 3d 02 ea e6 3d 39 a6 a0 be 19 71 24 bf
       0.12115397 0.11275102 -0.31376818 -0.64235073
0002b0 e5 c8 6c bf 8a 27 42 bf 75 b9 cf be a5 60 8c 3e
       -0.9249404 -0.7584158 -0.4057118 0.27417484
0002c0 95 b8 05 3e 6b bb 01 bf 30 3b 6d bc 05 0e 36 3e
       0.13058694 -0.506766 -0.014479443 0.17778786
0002d0 8d ed f7 3d 80 6b c5 bc 16 8f 9d be 7a 25 b3 be
       0.12105856 -0.024099112 -0.30773228 -0.3498953
0002e0 74 aa 20 be 0c ba 9b 3e cb a4 39 3f f2 8c ee 3d
       -0.15690023 0.3041538 0.7251708 0.11647977
0002f0 7c fa 62 be 8e 0e 34 bf 0a 23 0a bf c4 e9 6b 3e
       -0.22165865 -0.7033471 -0.53959715 0.23038393
000300 79 40 51 be 11 2c 81 bf 96 99 4c 3e 1a 72 fd bd
       -0.2043475 -1.0091573 0.19980463 -0.12375279
000310 01 aa 8d be 22 aa d6 be f3 74 21 bf 37 e4 a2 3e
       -0.27668765 -0.41926676 -0.63069075 0.3181474
000320 ec 47 7b 3e 68 86 8f 3d ea ec 05 bf 3b d4 4d be
       0.24539155 0.07008058 -0.5231463 -0.20100491
000330 98 9c f7 3d 92 09 07 3f 6e 89 1f 3e 8b b6 0f be
       0.12090415 0.5274898 0.15579769 -0.14034478
000340 77 44 9c bd 25 ee 9b be cd d0 c9 bd a5 ca b0 3e
       -0.07630246 -0.30455127 -0.09854279 0.34529606
000350 52 5a 8b 3e bc ee ed 3e e7 e1 77 3d 5f 8c d7 be
       0.27217346 0.46471202 0.06051817 -0.42099282
000360 48 47 7a be 14 3f 05 bd c8 9b 43 be 4c 8f 5b be
       -0.24441254 -0.03253086 -0.19102395 -0.21441382
000370 e3 72 24 bc 4b 12 c8 be 97 2e 28 bf 18 e4 51 bf
       -0.010037157 -0.39076456 -0.6569609 -0.8198867
000380 40 1c 36 be 1c 6b 3f 3e 7d 8c f8 3d e4 d8 ce be
       -0.17784214 0.18693203 0.12136171 -0.4039985
000390 9a 88 ee 3d b9 20 94 be 5a 38 ff bd 6d b8 c7 bd
       0.116471484 -0.28931215 -0.1246192 -0.09751973
0003a0 43 3b 55 be b1 51 a8 bc 07 cb 01 bf ff 2d f2 3d
       -0.20823388 -0.020546766 -0.5070042 0.11825179
0003b0 12 e2 9c bd 08 ec 04 bf f0 cf ca 3e 40 61 01 bf
       -0.07660307 -0.51922655 0.3961177 -0.50539017
0003c0 9f 88 aa 3d aa 17 14 bf b6 c5 78 be f4 45 07 3f
       0.0832684 -0.5784861 -0.2429417 0.52841115
0003d0 26 39 2b 3d bb 99 f2 3e 88 14 91 3e 68 9a 01 be
       0.041802548 0.47382912 0.28335977 -0.12656558
0003e0 c5 db 89 3e bb 4a 7e be 4d 7d ca 3d d7 22 ba be
       0.26925483 -0.24833195 0.098871805 -0.36354706
0003f0 a3 31 b9 bd 4f 48 9a 3e 77 3d 46 3e aa d0 a8 bd
       -0.090426706 0.30133292 0.19359384 -0.082429245

conv2.bias f4 [16]
000000 6c 91 02 3d d0 2f 6e be ba 24 a5 be 83 6b 21 3d
       0.031876966 -0.23260427 -0.32254583 0.03940917
000010 50 70 5d 3d 83 c7 54 bd 57 46 a3 be 0c ec 18 be
       0.054062188 -0.05194808 -0.31889603 -0.14933795
000020 0d f0 83 be 7b ed a5 be 0d 53 6d bd 28 5f c1 3e
       -0.25769082 -0.32407746 -0.05794053 0.3776791
000030 c0 32 12 3e 9c e5 80 be 36 29 f9 bd fd 97 ab bd
       0.14277172 -0.25175178 -0.121660635 -0.08378599

fc1.weight f4 [120, 256]
000000 db 36 fb bd 69 77 ff be af e6 3a bf 83 21 7e be
       -0.12266322 -0.4989579 -0.73008245 -0.24817471
000010 74 0d 12 bd c3 a8 eb be 52 61 f1 be 58 f2 c8 3d
       -0.03565736 -0.46027192 -0.47144562 0.098118484
000020 a3 2c 09 bf d4 a6 cb 3d da 5b 2b 3d ac c2 11 3e
       -0.53583735 0.09943929 0.041835643 0.14234418
000030 d0 50 d7 be b1 96 98 be 39 ee 22 bf 33 00 88 3d
       -0.42053843 -0.29802468 -0.6364475 0.06640663
000040 cc 7e 84 bc b2 39 bf bd 04 d3 e2 3e 9a fc ee 3d
       -0.016173743 -0.093371764 0.44301617 0.11669274
000050 e5 00 77 be af 98 56 bd 5e 40 d4 bd d0 2c 21 bd
       -0.24121435 -0.052391704 -0.103638396 -0.039349377
000060 33 e4 a7 bf 61 3e 5b bf 08 e8 e9 bd b9 f0 2d 3f
       -1.3116516 -0.8564206 -0.114212096 0.6794544
000070 c0 3b 7b bf c0 8c 2d 3e 54 6c d6 3e af bb d4 3d
       -0.98138046 0.16948223 0.41879523 0.1038736
000080 b2 be c5 3e 10 f1 7a 3e ec 49 e1 3d c0 3b 2a bf
       0.3862205 0.2450602 0.110004276 -0.6649742
000090 4a 90 07 3f 9d 36 4a 3f fb ce 44 3f 95 c0 d8 3e
       0.5295454 0.78989583 0.7687833 0.42334428
0000a0 f2 a7 99 be ab 18 9f be 6b bb ab 3e cf 5a a8 bd
       -0.30010945 -0.31073508 0.33541426 -0.08220445
0000b0 21 d2 8d be 13 1c 8a 3d 71 7b 25 3d 7c 98 e7 3d
       -0.27699378 0.06743636 0.040400926 0.11308381
0000c0 52 00 ad 3b 6c 81 38 3e e5 8b a3 bd b7 56 5e be
       0.005279579 0.1801812 -0.07985667 -0.21712767
0000d0 5e 1a 59 bf c6 32 4b bf 72 06 0f bf 76 89 ff 3e
       -0.8480586 -0.7937435 -0.5586921 0.49909562
0000e0 94 c6 85 bd b3 94 0b bf 97 77 5e be 73 b5 78 3d
       -0.065320164 -0.5452377 -0.21725307 0.06071992
0000f0 92 ef 4a 3f ca d2 e6 3e d4 fc 35 be d4 82 2a 3d
       0.79271805 0.45082694 -0.17772228 0.041628674
000100 49 28 1d 3f 21 3c 67 bf 62 85 88 be 98 0d 20 3e
       0.61389595 -0.90326124 -0.26664263 0.15630186
000110 07 88 68 be 10 bf 2d be f7 fe 9f be 0c ad 39 be
       -0.2270814 -0.16967416 -0.3124921 -0.18132418
000120 5d 50 07 bf 85 67 23 bf 72 e4 43 be b2 97 17 be
       -0.52857 -0.63829833 -0.19130114 -0.14803961
000130 a2 4a 3b 3f d4 42 da 3e c5 fb e9 3e 1c f1 7f 3e
       0.73160756 0.4262911 0.45699897 0.2499432
000140 76 2a 6a bf c5 69 87 3e 51 08 57 3d 3a ec 3c 3e
       -0.9147104 0.26447883 0.052498166 0.18449488
000150 38 d8 b2 be 90 9a 25 bd ad 96 dc 3d 52 17 28 3e
       -0.34930587 -0.040430605 0.107709266 0.16415146
000160 ad b7 fe 3e 2f 8c d5 be 75 a9 84 3d df 48 a3 bd
       0.49749509 -0.41708514 0.06477634 -0.079728834
000170 e9 ea 2c 3e 03 c9 0e bf dd 2b ae be c4 f0 54 be
       0.16886486 -0.5577547 -0.3401784 -0.2079497
000180 4f 4d 8d 3e 64 84 fa 3d 7f 8a 5f be 41 95 2b bf
       0.27598044 0.12232283 -0.21830176 -0.6702462
000190 4f ee e4 3e a4 e5 e4 be 77 4c 37 3e 0b 7f 98 3e
       0.44713065 -0.44706452 0.17900263 0.29784426
0001a0 53 6b 88 bf c8 29 1c bd dd e7 25 3e cc 2d 25 be
       -1.0657753 -0.038125783 0.1620173 -0.16130751
0001b0 78 cb ea 3e dc 89 c2 3e d0 80 90 be 06 a1 b5 be
       0.4585836 0.37995803 -0.28223276 -0.35474414
0001c0 98 ea 54 be 20 54 16 3d 1c 32 80 3e 7a 91 30 bf
       -0.20792615 0.03670132 0.2503823 -0.6897198
0001d0 ea e5 0e bf 79 3f 40 3f 92 c1 7f 3e 97 31 dc ba
       -0.5581957 0.7509685 0.24976185 -0.0016799447
0001e0 6f e5 ae bc 3d da 82 3e 72 4c e3 3d 82 5f a0 3e
       -0.021349637 0.25557128 0.11098565 0.31322867
0001f0 dd 1c d5 be 18 60 29 be 79 10 d8 3c 9d 7e e2 3c
       -0.41623583 -0.16540563 0.026375042 0.027648265
000200 da eb 06 3e 31 f6 9e 3e c3 05 67 3b 57 07 53 be
       0.13175908 0.31047204 0.0035251237 -0.20608269
000210 a4 5b 6c bf e7 f8 c5 be bd d7 49 bc be a9 4f be
       -0.9232733 -0.3866646 -0.012319502 -0.20279595
000220 a6 02 f1 bf 09 5a 39 bf 08 73 08 3e d7 d4 8f 3e
       -1.8828933 -0.7240301 0.13325131 0.2809207
000230 60 13 a5 be e6 70 ce 3e 33 91 4e 3e c8 c1 d1 3d
       -0.32241344 0.4032051 0.20172577 0.10242039
000240 86 18 53 bd 17 ef 5b bf d4 c0 31 3e e6 4a 1b 3f
       -0.05153706 -0.859117 0.17358714 0.6066116
000250 25 72 4b be 28 dd 0f 3b dc 99 38 bf a6 67 55 bf
       -0.19867761 0.0021951888 -0.7210977 -0.8336128
000260 67 81 29 be 87 7c 1d 3e 61 72 e6 bd 1e f9 97 be
       -0.1655327 0.15379535 -0.11252285 -0.2968225
000270 0a ad 01 3f 86 27 80 be 83 71 27 be b0 ec b5 be
       0.5065466 -0.25030154 -0.16351895 -0.3553214
000280 2a ae 2d bf 69 ae ac 3e df 88 ae 3e 3a 79 0d 3f
       -0.6784388 0.33726814 0.340888 0.552631
000290 44 21 f1 bd 1a 90 38 be a9 65 06 bf 80 1f c3 be
       -0.11773923 -0.1802372 -0.5249887 -0.3810997
0002a0 fc be 42 3c ea d5 93 bf 80 a5 34 bf e1 67 85 bd
       0.011886355 -1.1549656 -0.7056503 -0.06513954
0002b0 93 e0 a9 bc ff 31 91 be 0d 9d ae bd c1 34 8a be
       -0.020736968 -0.28358456 -0.08526049 -0.26993373
0002c0 b5 a7 a5 be 5a 46 96 be 22 61 c6 3e 83 42 1c 3f
       -0.32354513 -0.2935055 0.3874598 0.6103899
0002d0 73 cd b1 3d f4 56 27 3f b5 3b 06 bf 96 09 a5 3c
       0.086817645 0.65367055 -0.52434856 0.020146172
0002e0 8c 6a 67 be 0e 8a fd 3e 1d e3 22 bf 6b 55 a8 be
       -0.22599238 0.4951939 -0.636278 -0.3287767
0002f0 b7 80 f3 bb 9f 06 2e be 05 ba cf 3e b7 6a 6c 3e
       -0.0074311155 -0.16994713 0.4057161 0.23087583
000300 dc 86 59 be e2 ad 89 3e 78 f1 ad bd 58 d8 55 3d
       -0.21242851 0.26890475 -0.08493322 0.052208275
000310 8c 03 d4 be bb fe ca 3e 0c 21 60 be 98 a6 c2 be
       -0.41408956 0.3964747 -0.21887606 -0.38017726
000320 c6 35 98 be 23 55 96 3c 38 e4 02 3e 9a 0d 9d be
       -0.29728526 0.018351143 0.12782371 -0.3067444
000330 6e aa c6 3d 6b e8 07 3f c3 15 fe 3e 9d bf e4 be
       0.09700476 0.53089017 0.49625978 -0.4467744
000340 80 20 7b 3f 79 5e ca 3e 87 17 21 bd 45 d5 05 3d
       0.98096466 0.39525202 -0.039329078 0.032674093
000350 06 a3 4b bf 12 92 52 be 52 62 93 bc 45 87 1b 3f
       -0.7954563 -0.20563534 -0.017991219 0.6075328
000360 5c 8c b7 bc 3b 3c 63 bf 04 64 b3 bd ac 1f f2 3e
       -0.022405796 -0.8876378 -0.08759311 0.4728979
000370 81 a0 2d 3e 62 41 80 bc b0 c4 57 3e 5a 38 e0 bd
       0.16955759 -0.015656177 0.21071124 -0.10948248
000380 51 d7 e9 bd ca 60 d6 bd 00 e1 b0 bf 4d c1 17 bf
       -0.114180215 -0.1046768 -1.3818665 -0.5927933
000390 bd fb 64 3f 06 6d 66 3f 15 c4 d3 be a3 d7 a5 be
       0.8944662 0.90010107 -0.41360536 -0.3239108
0003a0 1b a0 ad 3d 7a 8f 48 3f f3 5e 19 3f 52 dd 99 3e
       0.08477803 0.7834393 0.59910506 0.30051666
0003b0 97 c7 aa be 39 9c 2a 3e 5e 22 a5 bc ed 6d b4 be
       -0.333554 0.16661157 -0.02015799 -0.35240117
0003c0 e0 5e f0 3d d0 41 c3 3e 6f a3 44 bf cc 4a 76 bf
       0.11736846 0.38136148 -0.7681188 -0.9620788
0003d0 2a cc c8 3e f1 a7 80 3e ca ab b3 3e cd 6f 0c be
       0.39218265 0.2512813 0.35092002 -0.13714524
0003e0 2e 12 60 3e d9 b1 d5 3e 7c 77 e4 be 9f 1c 0f 3f
       0.21881935 0.4173725 -0.4462241 0.5590305
0003f0 aa 1f c2 3e d8 90 da 3e ca 23 f3 3e c1 d7 a7 3e
       0.37914783 0.42688632 0.47488242 0.32781795

fc1.bias f4 [120]
000000 b7 61 56 be 12 c7 8c be c2 b3 49 bf d4 cb 07 be
       -0.20935713 -0.2749563 -0.78789914 -0.13261348
000010 8e dd 7a 3c 0b 26 be bd 69 cc d8 be 6d 4e ff be
       0.015311612 -0.092846 -0.42343453 -0.49864522
000020 72 bb 5f 3e f2 6d 82 bf 9c 86 75 3e a4 54 05 bf
       0.21848848 -1.0189803 0.2397713 -0.52082276
000030 eb d9 1e bc 66 54 65 bf 52 09 98 bd 45 50 b3 bd
       -0.00969551 -0.89581907 -0.07423653 -0.087555446
000040 79 8a 17 bf 53 52 2e be 27 5a 02 bf 02 c1 2b be
       -0.5919567 -0.17023592 -0.5091881 -0.16772845
000050 2f 10 11 bf 49 d4 a6 bd 53 08 a0 be b3 99 98 3c
       -0.5666532 -0.08145959 -0.3125635 0.018627977
000060 ac 46 34 be e4 6c b3 bd 63 ba da 3b 3e c4 c5 bd
       -0.17605084 -0.087610036 0.006675051 -0.09656571
000070 f1 f4 55 3e 3d 31 82 3c 16 58 0b bf c6 fa 4c 3e
       0.20894219 0.01589262 -0.54431283 0.20017537
000080 72 62 2b bf 96 69 dc be 9b 42 13 3e c7 96 1b bf
       -0.6694709 -0.43049306 0.14380877 -0.6077694
000090 80 ee b6 be ae dc 6f bd 34 82 2d bd 00 ef a6 be
       -0.35728836 -0.058560066 -0.0423605 -0.32604218
0000a0 d3 44 8b be 66 6a 71 bf 2a e1 6e bd 36 f7 7f be
       -0.27200946 -0.94302976 -0.058320202 -0.24996647
0000b0 26 6b ad bd 20 8c 90 bf a6 a7 9c be 5c c0 3d bf
       -0.084677026 -1.1292763 -0.30596656 -0.7412164
0000c0 02 80 21 3e d6 6c 87 3d b6 1c 82 3e 95 43 98 3e
       0.15771487 0.06612556 0.2541253 0.2973906
0000d0 54 e9 86 bf 20 14 83 bd f4 08 a1 be 33 90 9e bd
       -1.0539956 -0.06400323 -0.31452143 -0.077423476
0000e0 40 9c 93 be 4e dd 11 be bf 86 ce 3c 4a 87 a3 be
       -0.28830147 -0.14244577 0.025210736 -0.31939155
0000f0 3b 71 04 bf e1 c0 d3 bd 0f 65 c1 be e2 c8 80 bf
       -0.51735276 -0.10339523 -0.37772414 -1.0061305
000100 eb 5e 9d be 44 6c f6 bc ea df 2b bf fe 17 6d 3d
       -0.3073648 -0.030080922 -0.6713854 0.05788421
000110 35 2f ec bd 19 2c 01 bf 33 09 a4 3b f5 c1 8f bc
       -0.115324415 -0.5045791 0.0050059794 -0.01754854
000120 77 17 92 be 5e 7f b3 bf c9 8c d9 bc 7b 01 0f bf
       -0.28533527 -1.4023244 -0.02655639 -0.55861634
000130 f8 d2 8a be 68 a6 07 bf 2f 00 77 bf 70 9f 13 bb
       -0.2711408 -0.5298829 -0.96484655 -0.0022525452
000140 59 5c 05 be 27 db 5a bf 63 cc 0b bf 93 70 aa be
       -0.13023509 -0.8549065 -0.54608744 -0.33289012
000150 64 1d 2d bd ac d1 01 be 49 8c 1a bf ac 12 6e 3d
       -0.042264357 -0.1267764 -0.6037031 0.058123276
000160 44 8b 28 3d 81 8f 2a bf a1 e6 fa be 6a a3 af be
       0.04114844 -0.6662522 -0.4900408 -0.34304363
000170 b3 01 c9 3d 47 5f 51 bf 23 34 50 bf f6 43 43 3e
       0.09814777 -0.81786007 -0.81329554 0.19068894
000180 e9 00 f6 bd c7 9d 6f 3d d9 dd b8 be 04 d3 89 bf
       -0.12011892 0.058500078 -0.36106756 -1.0767522
000190 b5 16 3c bd e7 b2 f0 bd a8 c1 e6 be c9 a2 a8 bd
       -0.045920093 -0.11752873 -0.45069623 -0.08234174
0001a0 81 20 34 be a2 2a c6 be 5f 53 4d bf 8e 07 e5 bd
       -0.17590524 -0.387044 -0.8020534 -0.111830816
0001b0 f3 ca 10 bf 37 52 02 bd fa 8a 9f be ef a9 f6 3c
       -0.56559676 -0.031816687 -0.31160718 0.030110328
0001c0 bf 9f c2 bb 60 c4 52 bc 60 c0 6b 3c 60 db 98 be
       -0.0059394534 -0.012864202 0.0143891275 -0.2985487
0001d0 74 29 ce 3d 53 e9 e2 3b 56 da 0d bf 81 43 fa bc
       0.100665 0.006924787 -0.5541128 -0.030549766

fc2.weight f4 [84, 120]
000000 a0 f0 d1 3c a5 f4 af be 1a b0 0c bd e9 03 25 bf
       0.025627434 -0.34366336 -0.03434763 -0.6445909
000010 fd 90 de 3d 54 3d e5 be 11 b0 d2 3e ad 00 58 3e
       0.10867498 -0.44773352 0.41149953 0.21094008
000020 54 dc 05 3d fe b2 a1 3e 35 51 ac 3d af 46 d5 3e
       0.032680824 0.31581873 0.084139265 0.4165549
000030 11 e1 83 bd e9 80 fb 3e 41 7e 1d bd c0 9f 50 3c
       -0.064394124 0.49121788 -0.038450483 0.0127334
000040 60 61 0f 3f ce 4c d0 bd f2 a8 d3 be ae 40 29 bf
       0.5600796 -0.10170899 -0.41339833 -0.6611432
000050 a1 50 23 bf 7e 26 ca 3c d2 ec 02 3d af c6 dc bc
       -0.63794905 0.024676558 0.03196413 -0.026950208
000060 18 3c 53 bf a4 5c 53 3d 26 30 f4 3d ce ab 5d bd
       -0.8251357 0.05160202 0.11923246 -0.054118924
000070 54 ee a9 be bc 5d c3 3c 10 f9 97 3d 8e 38 33 3e
       -0.33189642 0.023848407 0.07420552 0.17502043
000080 fc e0 c9 be f6 dd 97 be d4 49 b1 3e d7 81 b1 be
       -0.39429462 -0.2966153 0.3462664 -0.34669372
000090 9c 69 67 be 07 e8 41 bc c4 0b d0 be d4 5e 4f 3e
       -0.2259888 -0.011835105 -0.40633976 0.20251018
0000a0 6a 22 49 bd 71 87 24 3f be 7f 94 3c 41 33 c0 3d
       -0.049105085 0.6426917 0.018127318 0.09384776
0000b0 6f 0b 34 bd 1b d2 39 be 69 d3 89 be 20 d2 02 3f
       -0.043956216 -0.18146555 -0.26919106 0.51101875
0000c0 e6 5d 14 bd d7 9a 08 bf 43 ac 3c 3e ef ef 6b bf
       -0.03622236 -0.53361267 0.18425088 -0.92162985
0000d0 68 82 25 bf 9c 0b 4b bf 75 ac 8d be 1b eb 52 3d
       -0.6465211 -0.7931459 -0.27670637 0.051493745
0000e0 1a 42 66 be 5f e3 d3 bd 16 33 6c 3e ee 75 a4 be
       -0.22486153 -0.10346102 0.23066363 -0.32121223
0000f0 6b 31 6e 3e fd d1 52 3d d2 f6 6f be 63 01 78 be
       0.23261039 0.05146979 -0.23433998 -0.24219279
000100 4d 74 36 3f d5 f0 ad 3e ff 21 ff 3d d3 80 ef bd
       0.7127121 0.33972803 0.12457656 -0.11694493
000110 a9 8f 2f 3e 28 d5 54 bf 5f d6 56 3d f3 c3 6b bd
       0.17144646 -0.8313775 0.052450534 -0.05755992
000120 43 06 16 bf 82 05 d9 3e fa 00 27 3e c9 22 f5 3e
       -0.58603305 0.42387015 0.16308966 0.478781
000130 13 8a 5d bf 1d b5 00 bf 9b 40 28 be 12 b9 81 be
       -0.8653881 -0.50276357 -0.16430895 -0.2533651
000140 99 f5 1f bf e0 27 37 3d 73 6e 8e bc 30 01 67 3e
       -0.6248413 0.044715762 -0.01738665 0.22559047
000150 1b 2f c0 3d b5 76 95 bd ae 57 bf 3d 8a bd 0c 3f
       0.09383985 -0.07298032 0.093428954 0.54976714
000160 88 fd 8e be 88 4c ca 3d f2 92 35 3d 39 a2 25 3f
       -0.27927804 0.098778784 0.04432959 0.6470066
000170 d8 1a ab be 82 ee 58 3e 47 a5 55 be f2 4d b5 3d
       -0.33418918 0.21184734 -0.2086383 0.088527575
000180 32 b8 60 3d f1 8e 25 bf e6 d8 80 3e 65 ec 7d 3d
       0.054863162 -0.64671236 0.2516548 0.06199302
000190 a7 cd 88 3e 3d ee a7 bb 2a b0 14 be 5a 6e 87 3e
       0.267194 -0.0051248358 -0.14520326 0.2645138
0001a0 91 ef f8 3e e5 01 12 3f f0 14 49 bd 2a 76 90 bd
       0.48620275 0.5703414 -0.049092233 -0.07053788
0001b0 ee 2c 63 3e b4 32 0a 3e 3d 8e 3d be 54 6d c5 3d
       0.22185108 0.13495904 -0.18511291 0.09639993
0001c0 73 5d a0 3d 28 77 7c bc 64 23 30 bf 34 83 18 3e
       0.07830324 -0.015409268 -0.68804 0.148938
0001d0 0d f0 4a 3b 06 95 38 bd a4 f9 97 be da 7b a9 be
       0.0030965835 -0.045063995 -0.29682648 -0.33102304
0001e0 9e 3c 5c bd 1e 29 f9 be 78 56 d2 3c 6e 58 47 be
       -0.053768747 -0.48664182 0.025675997 -0.19467327
0001f0 a4 b4 f6 be ce 32 e0 3e 2c df 78 be 67 97 d4 3e
       -0.48184693 0.4378876 -0.24303883 0.4152176
000200 2f e8 d6 3e 7b f9 95 3e 91 8b 12 bf 40 9d 58 3e
       0.41974017 0.292919 -0.5724421 0.21153736
000210 10 64 64 3c 1d 0c 70 ba 45 17 d1 3c ce 09 39 bd
       0.013939872 -0.00091570785 0.025523791 -0.045175366
000220 c8 b1 3b be 61 2b a7 3e 1c 4c da 3e d1 86 75 3e
       -0.18329537 0.32650283 0.42636192 0.2397721
000230 12 43 98 3e 79 89 30 bd 04 56 04 3f 72 19 87 3d
       0.2973867 -0.043099854 0.5169375 0.0659665
000240 0e 5e 5b 3e ec 33 71 bd 63 b1 5d be 42 4d f9 bc
       0.21422598 -0.058887407 -0.21649699 -0.030432347
000250 fd d5 d4 3d 36 e2 48 bd 3a a3 87 be 08 9f 44 3e
       0.103923775 -0.049043857 -0.2649172 0.1920129
000260 3b 30 b4 3e a4 65 f2 3c df 11 00 bf 8a ed 1a 3f
       0.35193047 0.029589482 -0.5002727 0.60518706
000270 35 97 72 bf b5 b8 35 bd ec 1c dd bd 0d 01 de be
       -0.94761974 -0.044365603 -0.10796532 -0.43360177
000280 00 a6 f3 be dd 26 28 3e dd 08 28 3d ff e1 0a 3e
       -0.47587585 0.16421075 0.041024078 0.13562773
000290 78 46 0c 3b b0 ce 3b 3f ee 7f 31 bf e8 31 81 3e
       0.0021404307 0.73362255 -0.6933583 0.25233388
0002a0 de dc c7 3e f6 41 24 3e 7e d5 73 3d 1d 89 83 bd
       0.39035696 0.16040787 0.059529774 -0.06422637
0002b0 4e d0 0f bf 1d 8a 55 be 7c 5b 45 be cd 69 e0 ba
       -0.5617722 -0.20853467 -0.1927318 -0.0017121375
0002c0 6a 0d 61 be 29 a2 99 3e 12 87 86 bd e4 49 a4 3d
       -0.21977773 0.3000653 -0.06568731 0.08021906
0002d0 49 84 6b bf f5 7d 54 bd 34 bf 4b 3e 46 76 9b 3e
       -0.91998726 -0.051877934 0.19897157 0.30363673
0002e0 61 2f 7e be 94 64 42 3e 47 52 1d 3c e9 a1 94 3e
       -0.24822761 0.1898368 0.009602136 0.29029778
0002f0 ca a3 08 be 0b 9e 73 bd ec 7d 5a 3e 9c bf 8a 3c
       -0.1334373 -0.059476893 0.21337098 0.01693707
000300 6d b6 9b 3d 6f d5 14 bd cf c1 08 be 7a 8c b4 3e
       0.07603154 -0.03633636 -0.13355182 0.35263425
000310 1e a8 15 3f 4a 60 00 bf f8 be ad 3e 2c cc d6 be
       0.5845965 -0.50146925 0.3393476 -0.41952646
000320 d5 b3 f1 bd 19 e7 88 3d 3a fb 88 3e 77 9b 4a 3e
       -0.11801878 0.066847034 0.2675417 0.19785868
000330 b3 51 45 3e ff f6 ea be 65 9d d3 3e 49 45 9a be
       0.19269447 -0.45891568 0.4133102 -0.30130985
000340 25 5c 4c be bf b0 83 3e 5e b1 c5 be 9d 55 8c 3e
       -0.19957025 0.25720784 -0.38611883 0.27409068
000350 bd d3 67 be 27 92 d0 3e f7 51 1e 3f 78 b2 d4 be
       -0.22639365 0.40736505 0.6184382 -0.4154241
000360 b5 f8 bd bc b0 31 4f 3e 5c 37 ed be b6 28 f7 3d
       -0.023189882 0.20233798 -0.46331298 0.12068312
000370 8c d4 69 bd a5 31 50 3e c0 4a d4 3d 34 8d 7c be
       -0.057087466 0.20331438 0.1036582 -0.2466324
000380 1a f3 33 3f 3f c4 4a bf 80 ca 00 3e fc 05 81 3d
       0.7029282 -0.792057 0.12577248 0.062999696
000390 b9 42 4b 3d 20 0f 5e bd 1b 2b d0 3d 88 98 63 be
       0.04962418 -0.054213643 0.10164472 -0.22226155
0003a0 da 5b f3 bc ed b2 4f bd 17 69 f9 3d fe f1 1c 3e
       -0.029706884 -0.050707746 0.121782474 0.15326688
0003b0 55 53 09 be ef ec ef 3b e9 8a 1d 3e 44 30 e7 3e
       -0.13410695 0.007321946 0.15385021 0.4515401
0003c0 41 db 02 3f 4f 62 a2 3e 22 05 8e be c2 f0 d4 be
       0.51115805 0.31715629 -0.2773829 -0.41589934
0003d0 33 c9 88 3e 14 db 56 be 87 90 5a 3f cd 3f 16 bf
       0.26716003 -0.20982009 0.8537678 -0.586911
0003e0 9a 4f ff be c1 17 15 3f da 6d 57 bf fa ce 06 3e
       -0.4986542 0.5823937 -0.84151995 0.13164893
0003f0 4a da 68 bd 8e 55 21 3e de 70 a0 3c af f3 76 3a
       -0.0568488 0.15755293 0.01958507 0.0009420467

fc2.bias f4 [84]
000000 3b 6b ed be cf f9 07 bf 5b f7 88 bf b6 bc a1 bd
       -0.46370873 -0.5311555 -1.0700487 -0.07897322
000010 88 e3 1e bf 04 08 4c bf 11 82 20 bf 16 3c 52 be
       -0.62065935 -0.7969973 -0.62698466 -0.20530733
000020 fa f1 12 bf 25 44 7f be d4 3d 22 bf b5 7a 35 bf
       -0.57400477 -0.24928339 -0.6337559 -0.7089036
000030 bc 5c 0b be f8 af fa be d9 b0 0e bf 8c ef 34 bc
       -0.13609594 -0.48962379 -0.557386 -0.011043441
000040 90 5a 17 bf 78 6f 13 bf 1d 56 53 bf e7 b0 ea bd
       -0.5912256 -0.5759196 -0.82553273 -0.11459523
000050 e3 93 d8 be 75 c5 d8 be 52 a8 42 bf d4 1f 23 be
       -0.4230033 -0.42338148 -0.76038086 -0.1593011
000060 a1 04 0f bf 4e 5e c9 be b0 20 8d be 72 2a 1f bf
       -0.5586644 -0.3932976 -0.27564 -0.6217414
000070 e9 5a da be 0c b6 22 3c 85 f8 27 bf d6 86 fa be
       -0.42647484 0.009931099 -0.65613586 -0.48930997
000080 25 5b b5 be 90 0d 9d bf 5f 8f 56 bf 6d eb 39 be
       -0.354211 -1.2269764 -0.83812517 -0.18156214
000090 49 05 90 be 91 1e 25 be 60 70 aa be b6 52 fb be
       -0.28129032 -0.16124941 -0.3328886 -0.4908654
0000a0 bd ac a5 bc 98 5d 34 bf a5 b8 c4 be 77 cd 26 bf
       -0.02022397 -0.7045531 -0.38422123 -0.65157264
0000b0 80 51 a5 be 3f 5e b0 be 67 fa e1 be 8d fc 1f bf
       -0.32288742 -0.34446904 -0.44136354 -0.62494737
0000c0 db cd 02 3e 7e c7 c2 bd 32 c8 d0 be ba d6 0c bf
       0.1277384 -0.09510706 -0.40777737 -0.55015147
0000d0 ae 6c 1f bf ed d0 fd be cd b5 82 be f4 b9 1a bf
       -0.6227521 -0.4957346 -0.25529328 -0.6043999
0000e0 17 56 f3 be af 42 12 bf 7c 43 89 be fc 6e 5d bf
       -0.4752662 -0.57133 -0.268093 -0.86497474
0000f0 a0 dc 4e bf 85 46 da be b5 13 bd be 31 51 17 bf
       -0.808054 -0.42631927 -0.36929098 -0.59108263
000100 f5 9a 2b bf c2 46 71 bf 88 24 6f bf e4 31 19 bf
       -0.6703332 -0.9424859 -0.9341512 -0.5984175
000110 3a da 57 bf 42 bc 5c bf 02 12 e2 be 5e ff 49 bf
       -0.8431736 -0.8622476 -0.44154364 -0.78905284
000120 63 be 7c bf 7f ad a6 be ca d5 3b be 1f 55 6c be
       -0.9872801 -0.32554242 -0.18343273 -0.23079346
000130 0f 72 25 3e 54 2a df 3c 22 8d 11 be 32 1c 9c bc
       0.16156791 0.027241863 -0.14213994 -0.019056413
000140 b9 67 30 bf e3 48 9a be 92 58 75 3d af 24 0c bf
       -0.6890827 -0.30133733 0.05989892 -0.54743475

fc3.weight f4 [10, 84]
000000 3e 6d 49 bf 81 cb f7 be e5 88 48 bf c7 ca 80 bf
       -0.78682315 -0.4839745 -0.78333884 -1.0061883
000010 fb eb 0e bf f7 84 7a bf 87 9e 94 be 7a 8c 58 bf
       -0.5582883 -0.9785914 -0.29027197 -0.8458935
000020 c9 d1 4d bf 1e 5a 73 be 90 f0 10 bf 74 cb 88 bf
       -0.8039823 -0.23764846 -0.5661707 -1.0687089
000030 b9 da 43 bf f9 49 8f bf 19 66 c0 bf 80 2d 52 bf
       -0.7650562 -1.119445 -1.5031158 -0.8210068
000040 6f 88 3a bf 35 03 d2 be a9 48 fc bc 17 ae 23 bd
       -0.7286443 -0.41018072 -0.030796366 -0.039960947
000050 68 01 72 3d b7 3c 01 bf c1 e9 00 be 23 21 a4 bf
       0.059083372 -0.5048327 -0.1258917 -1.2822613
000060 c9 e1 5e bf 9a 7e b7 be 21 b0 41 bf 28 1a 01 be
       -0.8706327 -0.35838777 -0.75659376 -0.12607634
000070 94 22 26 bf 98 bb 91 bf de f9 64 3d 22 91 c7 bf
       -0.6489651 -1.1385374 0.055902354 -1.5591166
000080 72 20 36 bf 4f 7e c6 be a3 07 77 bd df 1f cd bd
       -0.7114326 -0.3876824 -0.060310017 -0.100158446
000090 3a 2f 8e be 5c 94 82 bf fa dd 59 bf 2a 9a d7 be
       -0.27770406 -1.0201526 -0.85104334 -0.42109805
0000a0 eb 2e ea be 0b 27 60 bf 7b 96 b1 3b 4c 8b c1 3d
       -0.4573892 -0.87559575 0.00541955 0.09450397
0000b0 be e1 71 bf 7c 6c 97 bf 58 bf 47 bf 73 bc 54 bc
       -0.9448508 -1.1829982 -0.7802634 -0.012984383
0000c0 26 2f 98 bf 87 b5 86 be 2c 7b 51 bd df 6a 7e bf
       -1.1889389 -0.2631037 -0.051142856 -0.9938182
0000d0 60 a1 62 bf 8c 62 2c be e0 fd c4 bf 4a 67 d0 3d
       -0.8852749 -0.16834468 -1.5389977 0.10175951
0000e0 c9 29 93 bf e4 65 a6 bf 59 18 5a bd c3 69 53 be
       -1.1497127 -1.2999845 -0.053245876 -0.20645814
0000f0 37 6b 2b bf 3c 6a c7 39 2b 4d a9 be b8 83 35 3d
       -0.6696047 0.0003803539 -0.33066687 0.04431507
000100 5a f3 92 bf 41 2a 9c bf 97 33 9a 3c ba cf 96 bf
       -1.1480515 -1.2200395 0.018823428 -1.1782143
000110 41 e4 5b bf 35 8a 8f be dd 7b a2 be a3 85 18 be
       -0.8589516 -0.2803513 -0.31735125 -0.14894728
000120 e5 7a 4f be 4c 44 81 3d 28 00 70 3c 1c 47 14 3c
       -0.20261724 0.06311855 0.014648475 0.009050157
000130 14 34 71 bf 38 53 de be 67 f0 54 bc b1 b1 8e bb
       -0.9422009 -0.43422866 -0.0129967695 -0.0043546786
000140 0d 1a 55 bf b9 ad 8b 3d cd 42 a2 bf ea a4 c9 3d
       -0.83242875 0.06820244 -1.2676636 0.09845908
000150 2d 51 2d 3d 81 07 56 bf 92 ea 5e 3b c5 cc d4 bc
       0.042313743 -0.836052 0.0034014327 -0.025976548
000160 33 9d 6c bf 90 86 6f be c5 28 ce 3c fa 51 5b bf
       -0.92427367 -0.23391175 0.025165925 -0.8567196
000170 8c 2d 2b bf 04 01 70 bf 6c 80 2d 3d d8 f1 9b be
       -0.66866374 -0.9375155 0.0423588 -0.3045795
000180 41 e2 98 bf 87 84 f3 be 4a aa 26 bf f4 b8 98 3b
       -1.1944047 -0.47562048 -0.6510359 0.00466072
000190 fd 01 19 3e 7c 68 43 be 77 03 67 bf 98 3a 9a bd
       0.14942165 -0.19082826 -0.9023966 -0.07530707
0001a0 3b 4d 72 bf ad 3f eb be ca 3c 59 bf 4b 84 ea bd
       -0.94649094 -0.45947018 -0.8485838 -0.11451014
0001b0 6e 9a 12 be 45 f8 90 bf 8b 94 9e be 4c ef a8 bf
       -0.14316723 -1.1325766 -0.30972704 -1.3198028
0001c0 61 f6 80 bf f2 8b 90 bf 18 20 a9 3c ab 06 9e bf
       -1.0075189 -1.1292708 0.020645186 -1.2345785
0001d0 d6 72 13 bf 6f c7 5a bf d7 22 3c bf 46 80 a7 bf
       -0.575971 -0.8546056 -0.7349066 -1.3086021
0001e0 c9 a9 9d bf a5 8e 7a bf 74 ec 42 bf fa 42 bd bf
       -1.2317439 -0.9787391 -0.7614205 -1.4786065
0001f0 01 4e 46 bf d2 75 b3 3d f5 9f 3b bf c5 c3 d8 bd
       -0.77462775 0.08762707 -0.7329095 -0.10584215
000200 68 8a 59 bf 38 39 90 bd 1a 90 12 be a5 d8 69 bf
       -0.84976816 -0.070421636 -0.14312783 -0.913462
000210 5f e3 a8 bf 58 df 7d bd 8d cc bf bf 0b 42 4c be
       -1.3194388 -0.061980575 -1.4984299 -0.19947068
000220 3c fc 09 bf 75 05 df be e5 df ca bf d9 0b 53 bf
       -0.53900504 -0.4355885 -1.5849577 -0.82439953
000230 41 fa 83 bf a8 f2 27 3a 48 28 f7 be f8 69 a0 bf
       -1.0310746 0.0006406703 -0.4827292 -1.2532339
000240 11 b7 7b bf 39 d2 72 bf d2 f4 4c bf 49 2a 25 be
       -0.9832621 -0.94852024 -0.80061066 -0.16129412
000250 30 f8 a2 be 26 bc 82 bf 15 d7 b6 bf 55 65 7e 3c
       -0.31829977 -1.0213668 -1.4284388 0.015527089
000260 20 69 32 3e 2a e0 0f bf 9a 3a c5 bf 0b ff 21 bf
       0.17422915 -0.5620142 -1.5408509 -0.6327979
000270 96 c5 c8 be 16 c7 66 bf 52 cb 11 3e 41 56 10 be
       -0.39213246 -0.9014753 0.14237717 -0.14095403
000280 df d0 35 bf c5 7d e9 bf 49 60 0c 3d ec 10 5b bf
       -0.71021837 -1.8241507 0.034271512 -0.85572696
000290 42 37 3c bf de 91 23 bf 1e 6d 5f bf 95 12 2e bf
       -0.73521817 -0.6389445 -0.87275875 -0.67997104
0002a0 df 47 f8 be 3c 70 45 bf c4 47 97 be 2a 2c b4 bd
       -0.48492333 -0.7712438 -0.2954694 -0.08797486
0002b0 be db be be 7c 36 90 be 84 ed 9c bc 32 9c 61 bc
       -0.37277025 -0.28166568 -0.019156225 -0.01377015
0002c0 34 a0 1b bf 44 ee 07 bd b7 57 97 3d b1 bd 8b bf
       -0.60791326 -0.033186212 0.07389777 -1.0917264
0002d0 7a 5e 1f bf 57 c7 b7 bf 89 3f 79 be b8 9e 32 bb
       -0.62253535 -1.4357709 -0.24340643 -0.0027255248
0002e0 ab 1e fd bd a2 13 68 bf 4f 45 1f be cb 37 9d bf
       -0.12359365 -0.9065496 -0.15553783 -1.2282652
0002f0 71 bd 65 bf ea c7 ac be 4d 76 56 bf 11 71 70 bf
       -0.8974219 -0.33746272 -0.8377426 -0.93922526
000300 c8 e8 92 be 7e 14 32 bf a9 04 03 3e 89 61 29 bf
       -0.28693223 -0.6956252 0.12794746 -0.6616445
000310 26 8b bb 3e 62 da c4 bf be f7 19 3d de a0 a7 3b
       0.366296 -1.5379145 0.03758978 0.0051156124
000320 2f 23 7a bf 74 fd 7a be 50 13 5d 3e b4 2a ff bd
       -0.97709936 -0.24510747 0.21589398 -0.12459317
000330 1f a3 6e bf 73 84 c5 be a1 44 1d bf 4f 04 92 bf
       -0.93217653 -0.38577613 -0.61432844 -1.1407565
000340 a0 47 c0 bf c1 5f 47 bf 8a 63 06 3e 20 77 ef bd
       -1.5021858 -0.77880484 0.13123909 -0.11692643
000350 1d 55 18 bf f4 cb db be 03 e4 9e bf 09 ea 10 3e
       -0.5950487 -0.4292904 -1.2413334 0.14151777
000360 cf ef 14 bf 05 7c 9b bf b4 7a 4b bf 82 29 77 bd
       -0.5817842 -1.2147223 -0.79484105 -0.06034232
000370 1d 79 4b bf c9 d6 da be 96 29 9b be 90 cc 6f bf
       -0.7948168 -0.42741993 -0.30305165 -0.9367151
000380 29 41 e9 bd 86 10 26 bf 0a f5 71 bf ab 17 18 be
       -0.113893814 -0.6486896 -0.94514525 -0.14852779
000390 c5 f7 b4 3d 72 96 02 bf ed de 51 bf a4 18 6f bf
       0.08836321 -0.5101081 -0.8198078 -0.93396974
0003a0 8f fc 45 bf f5 fe b9 be a4 66 f3 3c 3e 79 16 3d
       -0.773385 -0.3632733 0.029712029 0.03673672
0003b0 63 42 a0 bf 8e 1b 31 bd cb e6 89 be fe 0a b6 bf
       -1.252026 -0.04323917 -0.26933894 -1.4222105
0003c0 f6 b8 c4 be b4 e2 03 be fe 62 e1 bf 85 80 30 bf
       -0.38422364 -0.12879449 -1.7608335 -0.68946105
0003d0 47 1f b8 be 45 10 18 3e 47 bc 07 3d 68 3c b4 bf
       -0.35961363 0.14849956 0.03313854 -1.4080935
0003e0 a1 73 dd bf 61 8a 8a bf 39 76 89 bf 98 01 cd be
       -1.7300912 -1.082348 -1.0739204 -0.40040278
0003f0 34 02 37 3c 44 94 d9 be b9 94 f3 3b cc cb 8d be
       0.011169959 -0.4249593 0.0074335006 -0.27694547

fc3.bias f4 [10]
000000 8e 94 f8 be 2c 91 15 bd 48 83 3f be de 4e 5e bd
       -0.48550838 -0.0365154 -0.18702424 -0.054274432
000010 74 a6 e2 bc ef 2e be be 63 f8 7d be 2e 5f 86 be
       -0.027667262 -0.37145182 -0.24801783 -0.2624449
000020 6b 4f b8 3e 4d 2f 24 3e
       0.3599809 0.16033669
