mnist/saved_models/model_epoch_36.pth (torch, 181338 bytes, 10 tensors)

conv1.weight f4 [6, 1, 5, 5]
0	0xbea04cb5	-0.31308523
1	0x3e015ba0	0.12632608
2	0xbd415986	-0.047204517
3	0x3e8c92ab	0.2745565
4	0x3d3b5901	0.045739178
5	0x3e938a73	0.28816566
6	0x3f147ac6	0.5799984
7	0x3e8371c5	0.25672737
8	0x3dbb4d49	0.091456
9	0x3e88cae2	0.26717287
10	0x3e6995ef	0.22811101
11	0x3d5c088e	0.053719096
12	0xbe26ba8c	-0.162821
13	0xbd6a1d8b	-0.05715708
14	0x3c914cde	0.017736848
15	0xbd49d860	-0.049278617
16	0xbed35d19	-0.41281965
17	0xbe7fd142	-0.2498217
18	0xbe89dba0	-0.26925373
19	0xbe715462	-0.23567346
20	0xbdaab7b6	-0.08335821
21	0xbd7a1670	-0.061056554
22	0x3a6e7cf6	0.00090976
23	0x3e523879	0.20529355
24	0xbe4f01cb	-0.20215528
25	0xbeb729aa	-0.35773975
26	0xbd850423	-0.0649493
27	0x3eecd6d9	0.46257666
28	0xbe73e528	-0.23817885
29	0xbe2b8d55	-0.16753133
30	0xbedba8be	-0.42902178
31	0x3d4843f3	0.048892926
32	0x3f2c5492	0.67316544
33	0x3d85bd95	0.065303005
34	0x3d4d026a	0.05005113
35	0xbe97a1c2	-0.296156
36	0xbefd59da	-0.49482614
37	0x3eaa8ffa	0.3331297
38	0x3eb2f636	0.3495347
39	0x3d83c864	0.06434706
40	0x3c0dacc6	0.008647149
41	0xbf22c4fc	-0.63581824
42	0xbe0e6be5	-0.13908346
43	0xbe9ae1ee	-0.30250496
44	0xbd4f9097	-0.050675
45	0x3ec3ec90	0.3826642
46	0x3d5b2823	0.053505074
47	0x3e42ae12	0.19011715
48	0xbda4e1cd	-0.080508806
49	0x3dfb9261	0.12283779
50	0xbdbcab37	-0.09212344
51	0xbe32cd87	-0.17461215
52	0xbe606cc4	-0.21916491
53	0x3bf5b563	0.0074984296
54	0xbe6c5ee4	-0.23083073
55	0xbdd85c61	-0.10564495
56	0xbc27cd7e	-0.010241864
57	0x3e8378ba	0.25678045
58	0x3ed40055	0.41406503
59	0xbdc4b247	-0.09604316
60	0x3e7a0650	0.2441647
61	0x3e64de85	0.2235051
62	0x3f098dac	0.537318
63	0x3f1ebec1	0.6200982
64	0xbdd5ffaf	-0.104491584
65	0xbd32b00b	-0.04362492
66	0xbf07d11f	-0.5305347
67	0xbe5938c0	-0.21213055
68	0x3ea8317d	0.32850257
69	0x3e025d42	0.12730888
70	0x3d56cbd4	0.05244048
71	0xbe882b90	-0.26595736
72	0xbec9fb15	-0.39449373
73	0x3ba8422d	0.005134842
74	0x3e89f41b	0.2694405
75	0xbd2c3d54	-0.042050675
76	0x3e046f08	0.1293298
77	0xbd26a28e	-0.040682368
78	0xbd09105f	-0.03346288
79	0x3d809f9c	0.06280443
80	0x3dce7b49	0.100821085
81	0x3c934d38	0.017981157
82	0xbdfdc6c1	-0.12391425
83	0xbbf22c3b	-0.0073905266
84	0x3e9a28cb	0.30109248
85	0x3bc111ee	0.00589203
86	0xbe2d95f1	-0.1695173
87	0xbeceddaa	-0.4040349
88	0xbe0352a8	-0.128245
89	0x3e9ec8aa	0.3101247
90	0xbe358e33	-0.17730026
91	0xbdd96f14	-0.106168896
92	0xbdf9fcda	-0.12206431
93	0x3ef97deb	0.4872888
94	0x3ec34646	0.38139552
95	0xbe89e5b7	-0.2693307
96	0x3d6e7a90	0.058222353
97	0x3e227c68	0.1586777
98	0xbbfe63e1	-0.0077633713
99	0x3e01594c	0.1263172
100	0x3dde4f31	0.10854948
101	0x3dae0de0	0.0849874
102	0x3e972a89	0.2952464
103	0xbd92866e	-0.07154547
104	0x3eb4b0ff	0.35291287
105	0x3cdd789e	0.027035054
106	0xbdd8719a	-0.10568543
107	0xbd1f87d7	-0.038947906
108	0x3df32443	0.11872151
109	0x3e9d2d4a	0.30698615
110	0xbdd10b2a	-0.102072075
111	0xbe829763	-0.25506124
112	0xbeb9a261	-0.36256698
113	0xbf120b36	-0.57048357
114	0xbd774a2c	-0.06037347
115	0x3eece619	0.462693
116	0xbe29eaff	-0.1659355
117	0xbf4a05b8	-0.78914976
118	0xbe7a2bcd	-0.24430771
119	0x3e694ccc	0.22783202
120	0x3e13bc68	0.1442734
121	0x3f089d16	0.53364694
122	0x3f0d582e	0.55212677
123	0x3ebd4474	0.36966288
124	0xbd91d360	-0.07120395
125	0x3e083423	0.13301139
126	0x3dd97d49	0.10619599
127	0xbd6019ad	-0.054711986
128	0xbc6bb4ff	-0.014386415
129	0x3dedd7cb	0.11613425
130	0xbe91d41f	-0.28482148
131	0x3e5c73c3	0.21528535
132	0x3e41463a	0.18874446
133	0xbdd68d50	-0.10476172
134	0xbd7832f1	-0.060595457
135	0xbe11a3d9	-0.14222659
136	0x3f314451	0.6924487
137	0xbe1832a3	-0.14863066
138	0xbea918ca	-0.33026725
139	0x3dfc992c	0.12333903
140	0x3eafe902	0.34357458
141	0x3ebf6b40	0.37386513
142	0xbf217d9e	-0.630823
143	0x3ccef32e	0.025262441
144	0x3d0f12ba	0.03492997
145	0x3eb5275d	0.35381594
146	0xbe96ba32	-0.2943893
147	0xbe0d7d03	-0.1381722
148	0x3d74824f	0.059694584
149	0xb98d9dfb	-0.0002701132

conv1.bias f4 [6]
0	0xbe979a10	-0.29609728
1	0xbfa72c30	-1.306036
2	0xbf032300	-0.5122528
3	0xbf3f6399	-0.7476135
4	0xbf42d2b1	-0.7610274
5	0xbf4ceda1	-0.8005009

conv2.weight f4 [16, 6, 5, 5]
0	0x3d309ebb	0.043120127
1	0xbd927b3e	-0.07152413
2	0x3e0e5a3a	0.13901606
3	0x3e21e1b2	0.15808752
4	0x3cea054f	0.028566984
5	0x3dacabe3	0.08431222
6	0x3d6fd54f	0.058553036
7	0x3ee4c51d	0.44681635
8	0x3e0e3f22	0.13891271
9	0x3e546e85	0.20745285
10	0x3e18d1f0	0.14923835
11	0x3e816885	0.25275055
12	0x3e179cad	0.14805861
13	0xbd89c663	-0.067272924
14	0x3e95c00b	0.2924808
15	0xbf2f9b7b	-0.6859662
16	0xbf169a05	-0.58828765
17	0xbeeea203	-0.4660798
18	0xbe9cc69d	-0.3062028
19	0xbd871c0d	-0.06597147
20	0xbf9a44d1	-1.2052251
21	0xbf9054cd	-1.1275879
22	0xbfafa866	-1.3723266
23	0xc00210a4	-2.0322657
24	0xc0235f1c	-2.55268
25	0x3e6d4821	0.23172046
26	0xbe8ec27b	-0.27882752
27	0xbf7a8764	-0.9786284
28	0x3e6190ce	0.22027895
29	0xbe272cf4	-0.16325742
30	0xbe26bea0	-0.16283655
31	0xbee61cbd	-0.449438
32	0xbeb58568	-0.35453343
33	0x3e04acbd	0.1295652
34	0x3d0d454e	0.034489922
35	0x3e460d57	0.19341026
36	0x3e7bba51	0.24582793
37	0xbe41a05b	-0.18908827
38	0xbe470eee	-0.19439289
39	0xbd6c2b6a	-0.05765859
40	0x3e52872e	0.2055938
41	0x3dae82ea	0.085210636
42	0xbed18c30	-0.40927267
43	0xbddf606d	-0.10907064
44	0xbeaa4314	-0.33254302
45	0xbe3dcf1d	-0.18536039
46	0xbd3b71f8	-0.045762986
47	0xbf0805e4	-0.5313399
48	0x3e8fd44c	0.28091657
49	0xbf2a8c74	-0.66620564
50	0x3e8376a4	0.25676453
51	0x3eccb63b	0.3998278
52	0x3c83d2b5	0.016091684
53	0xbe29e90d	-0.16592808
54	0x3e5abe9b	0.21361773
55	0xbebd3adc	-0.3695897
56	0x3e55689a	0.20840684
57	0x3e1ff85f	0.1562209
58	0xbd0fd202	-0.03511239
59	0x3e16bec5	0.1472121
60	0x3e488e95	0.1958564
61	0x3e95c7ba	0.29253942
62	0xbedb4dd6	-0.42832822
63	0x3e3f5cf0	0.18687797
64	0x3dd919aa	0.10600598
65	0xbf1788bb	-0.5919301
66	0xbf6ffb9c	-0.937433
67	0xbfbbb2f9	-1.4663993
68	0xbf665cc1	-0.8998528
69	0xc00fb064	-2.245141
70	0x3dc5cf1b	0.09658643
71	0xbd957ce6	-0.07299213
72	0xbe2bed36	-0.16789708
73	0xbed8dead	-0.42357388
74	0xbf50fa69	-0.81632096
75	0x3e44dd2b	0.19224994
76	0x3f6b5283	0.9192278
77	0xbe962d5e	-0.29331487
78	0xbefd345b	-0.49454007
79	0xbe479c27	-0.19493161
80	0x3f12d427	0.5735497
81	0x3dc5b566	0.0965374
82	0xbeda5c14	-0.42648375
83	0xbe602e3b	-0.21892636
84	0xbe1e592e	-0.15463707
85	0x3d3dce01	0.04633904
86	0xbf764799	-0.96203
87	0xbf51f20f	-0.8200998
88	0xbf423d73	-0.75875014
89	0xbfa15acc	-1.2605834
90	0xbe4e254e	-0.20131418
91	0xbf88228c	-1.0635543
92	0xbfe11fee	-1.7587869
93	0xbffaa5ef	-1.9581889
94	0xbfa0182e	-1.2507379
95	0x3d3eb4f4	0.04655929
96	0xbe2ccd71	-0.16875245
97	0xbf676846	-0.90393484
98	0xbebc3eeb	-0.36766753
99	0xbf8be207	-1.0928353
100	0x3ea90c9c	0.33017433
101	0xbd9b4ae9	-0.07582647
102	0xbe86ab9a	-0.26302797
103	0xbdfd32e0	-0.12363219
104	0x3e2e7e2e	0.17040321
105	0x3de44aff	0.11147117
106	0x3e9eeb92	0.310391
107	0x3da3224a	0.079655245
108	0xbe4d2a45	-0.20035656
109	0x3f130f6f	0.57445425
110	0xbe39f0d4	-0.18158275
111	0xbeadb87c	-0.33929813
112	0xbebcb71f	-0.3685846
113	0xbe308bde	-0.17240855
114	0x3ddb6589	0.10712726
115	0x3ef20f77	0.47277424
116	0x3e6c90d4	0.23102123
117	0x3c86cafd	0.016454214
118	0xbed6c139	-0.41944292
119	0x3ddd715c	0.10812637
120	0x3e94ceaf	0.29063937
121	0x3ef0ad31	0.47007135
122	0x3e749660	0.23885489
123	0x3e635a3a	0.22202387
124	0x3e96fee1	0.29491332
125	0xbe5f8037	-0.21826254
126	0xbeefeff3	-0.46862754
127	0x3e55b730	0.20870662
128	0x3dcb6982	0.099322334
129	0x3bc71d59	0.0060764966
130	0x3e87240f	0.26394698
131	0xbe213a66	-0.15744933
132	0x3ebe954a	0.37223274
133	0xbb3c214d	-0.0028706372
134	0xbf103a9a	-0.5633942
135	0x3e6cd7fe	0.2312927
136	0xbdcbaf40	-0.09945536
137	0xbe69b6a5	-0.2282358
138	0xbf6def30	-0.92943096
139	0xbf5f1af4	-0.871505
140	0xbe00b8b9	-0.12570466
141	0xbebd486e	-0.36969322
142	0xbf6c3334	-0.9226563
143	0xc002c3a7	-2.0431917
144	0xbfafb154	-1.3725991
145	0xbe3ec240	-0.18628788
146	0x3d17e1d0	0.037080586
147	0xbf8ebf9f	-1.1152228
148	0xbf442d05	-0.76631194
149	0xbfe3edf2	-1.780699
150	0xbf52417b	-0.82131165
151	0xbe43c5fa	-0.19118491
152	0xbe6afc42	-0.22947791
153	0x3e75125e	0.23932788
154	0x3eae87c5	0.3408796
155	0xbf1ac25a	-0.60452807
156	0xbf8da86f	-1.1067027
157	0xbf7bd309	-0.9836889
158	0xbefdfb45	-0.49605766
159	0xbd9cef09	-0.0766278
160	0x3e9abb1e	0.30220884
161	0x3e880f0b	0.26573977
162	0x3e870703	0.26372537
163	0x3e27f924	0.16403633
164	0x3db13da2	0.08654334
165	0xbced708e	-0.028984334
166	0x3eb34f90	0.3502164
167	0x3eaa5d68	0.33274388
168	0x3e31365c	0.17305893
169	0x3e24b418	0.16084325
170	0xbec35872	-0.38153416
171	0xbf41b225	-0.7566245
172	0xbf74451c	-0.9541795
173	0xbf3e38f8	-0.7430568
174	0xbed0af06	-0.40758532
175	0x3e8ea62f	0.27861163
176	0x3d85c7ea	0.06532271
177	0xbefa0ce0	-0.48837948
178	0x3d6e5042	0.05818201
179	0x3df965c4	0.121776134
180	0x3e15d05a	0.14630261
181	0xbdeb1519	-0.114786334
182	0xbe16bc57	-0.14720283
183	0xbeb90e8a	-0.36143905
184	0xbe28699a	-0.16446534
185	0x3eaf2a1e	0.3421182
186	0x3f298f16	0.66233957
187	0x3e85a707	0.26103994
188	0xbe8310ca	-0.25598747
189	0xbf1fc3b5	-0.62408
190	0xbf09134f	-0.5354509
191	0x3e1e5148	0.15460694
192	0xbdddaee4	-0.10824373
193	0xbf8284f2	-1.0196822
194	0x3e5514d0	0.2080872
195	0xbe189e0a	-0.14904037
196	0xbe9f1793	-0.31072673
197	0xbebf0a6e	-0.37312645
198	0xbf081626	-0.53158796
199	0x3ee32bf6	0.44369477
200	0x3e471fa0	0.19445658
201	0x3d16dc44	0.036831155
202	0xbeda56e9	-0.42644432
203	0xbe2cecd2	-0.16887215
204	0x3d9950df	0.07486128
205	0x3efaf6b8	0.49016356
206	0x3e1bad6c	0.15202874
207	0xbdbc3d82	-0.09191419
208	0xbe1ccd16	-0.15312609
209	0xbecc8b27	-0.39949915
210	0xbd484ebf	-0.048903223
211	0x3ec6e2da	0.3884495
212	0x3ead2b4c	0.33822095
213	0x3ee5cad8	0.4488132
214	0x3d84931a	0.0647337
215	0xbee43ca7	-0.44577524
216	0xbe96fa5c	-0.29487884
217	0x3dc2469f	0.09486126
218	0xbdf4ce07	-0.11953359
219	0xbdf063a6	-0.117377564
220	0xbd322891	-0.04349572
221	0xbeed7b15	-0.46382967
222	0xbf365a9d	-0.71232015
223	0xbf62bf15	-0.8857282
224	0xbde02064	-0.10943678
225	0x3e4664cb	0.19374387
226	0x3e1d6784	0.1537152
227	0xbea6cfde	-0.32580465
228	0x3e31de43	0.17369942
229	0xbeb6908f	-0.35657164
230	0xbe317bf1	-0.17332436
231	0xbe089967	-0.13339768
232	0xbe4503c0	-0.19239712
233	0x3daedc89	0.085381575
234	0xbef1f00c	-0.47253454
235	0xbd830a61	-0.06398464
236	0xbdd9c8e3	-0.10634019
237	0xbeff1490	-0.49820375
238	0x3ec6da99	0.38838652
239	0xbefd584c	-0.49481428
240	0xbd8964fc	-0.06708714
241	0xbf0e0344	-0.5547373
242	0xbe5793a0	-0.21052408
243	0x3f0bbc7b	0.54584473
244	0x3ce676db	0.028132847
245	0x3ee81c63	0.45334157
246	0x3ebdec46	0.37094325
247	0x3d08ab24	0.033366337
248	0x3e6f1339	0.23347177
249	0xbe398557	-0.18117271
250	0x3e11be19	0.14232673
251	0xbeaacfc1	-0.3336163
252	0xbdc6cf03	-0.09707453
253	0x3e7ac843	0.24490456
254	0x3e066414	0.13124114
255	0xbd75c4ad	-0.060002018

conv2.bias f4 [16]
0	0x3d3dafe5	0.046310324
1	0xbe864767	-0.2622635
2	0xbe87b9c3	-0.26508912
3	0x3d4022bf	0.046908136
4	0x3cc0cec3	0.023536092
5	0xbdb0d79b	-0.086348735
6	0xbeac2237	-0.33619854
7	0xbe61ad18	-0.22038686
8	0xbe50c19f	-0.2038636
9	0xbe8df1d8	-0.27723575
10	0xbdd2fc82	-0.10302068
11	0x3ecc335e	0.3988294
12	0x3e1c97cd	0.15292282
13	0xbe85b98c	-0.26118124
14	0xbd8f52fe	-0.069982514
15	0x3ca250a9	0.019813852

fc1.weight f4 [120, 256]
0	0xbdb8f5a0	-0.09031224
1	0xbf0e9acc	-0.5570495
2	0xbf2476b3	-0.6424362
3	0xbe3b5c13	-0.18296842
4	0x39aa2ffc	0.00032460678
5	0xbee2ed6e	-0.4432177
6	0xbef3f299	-0.47646025
7	0x3b8fb652	0.004385748
8	0xbee27d6e	-0.4423632
9	0x3e1ad940	0.15121937
10	0xbd4522b4	-0.0481288
11	0x3dce3ad8	0.10069817
12	0xbecd9f66	-0.40160674
13	0xbeb379b4	-0.3505379
14	0xbf29b11b	-0.66285866
15	0x3d0a85f3	0.03381915
16	0x3a4aa8d0	0.00077308435
17	0xbda3ab33	-0.07991638
18	0x3eca827b	0.39552674
19	0x3e041a57	0.12900673
20	0xbe20e45d	-0.15712114
21	0xbc268d40	-0.010165513
22	0xbd568daf	-0.052381214
23	0xbdb47fec	-0.08813462
24	0xbfa6fb78	-1.3045492
25	0xbf51e9f3	-0.81997603
26	0xbe13c1d1	-0.14429404
27	0x3f5bdec2	0.85886776
28	0xbf7337d2	-0.9500705
29	0x3e5b39d2	0.21408775
30	0x3ed32143	0.41236314
31	0x3e29d848	0.16586411
32	0x3f003d10	0.50093174
33	0x3ea02a8c	0.3128246
34	0x3defdac2	0.117116466
35	0xbf2b15d4	-0.6683018
36	0x3f0dbbc4	0.5536463
37	0x3f596b19	0.84929043
38	0x3f3c7de0	0.7362957
39	0x3ee338d2	0.44379288
40	0xbecb5e19	-0.39720228
41	0xbea6d9f2	-0.32588154
42	0x3f019daa	0.506312
43	0xbdfae93c	-0.12251517
44	0xbea5c92e	-0.3238005
45	0x3df70757	0.12061947
46	0x3d920dfc	0.071315736
47	0x3e5c8223	0.21534018
48	0x3e6ebc29	0.23313965
49	0x3eb300ad	0.34961453
50	0x3d41c19c	0.04730378
51	0xbe327fcb	-0.17431562
52	0xbf5f7c93	-0.8729946
53	0xbf48d981	-0.78456885
54	0xbf00b26b	-0.50272244
55	0x3f302fc7	0.688229
56	0x3d48bd7b	0.049008828
57	0xbebbdf41	-0.36693767
58	0xbe220268	-0.1582123
59	0x3e256bb2	0.16154364
60	0x3f58f8b3	0.84754485
61	0x3eee84a9	0.46585587
62	0xbe4f336c	-0.2023446
63	0xbd7a8198	-0.061158746
64	0x3f25e5a7	0.64803547
65	0xbf567f94	-0.8378842
66	0xbe72c807	-0.23709117
67	0x3e645002	0.22296146
68	0xbe2d8e67	-0.16948853
69	0xbe318608	-0.17336285
70	0xbea57e2b	-0.3232282
71	0xbe0b96bd	-0.13631721
72	0xbf06d8aa	-0.52674353
73	0xbf2f1451	-0.68390375
74	0xbe397273	-0.18110065
75	0xbdd4c1c7	-0.103885226
76	0x3f4a49fe	0.79019153
77	0x3ecf42ed	0.40480748
78	0x3f184516	0.59480417
79	0x3e1d648a	0.15370384
80	0xbf516c9b	-0.81806344
81	0x3e7990c1	0.24371625
82	0x3dd656d2	0.104657784
83	0x3e84601c	0.25854576
84	0xbea93ee7	-0.33055803
85	0x3c11ddbb	0.008902962
86	0x3e1fc447	0.15602218
87	0x3d665a26	0.056238316
88	0x3f060d9f	0.52364534
89	0xbeac3942	-0.33637434
90	0x3c767a76	0.015043845
91	0xb9e0d672	-0.00042884384
92	0x3e76f00d	0.2411501
93	0xbf1e06f0	-0.61729336
94	0xbe765e23	-0.24059348
95	0xbeb8d534	-0.3610016
96	0x3efe47c0	0.49664116
97	0x3e1ee848	0.15518296
98	0xbe027108	-0.1273843
99	0xbf11209e	-0.56690395
100	0x3f04f042	0.51929104
101	0xbec294c1	-0.38004115
102	0x3e57aa03	0.21060948
103	0x3efd4b2e	0.4947142
104	0xbf99376e	-1.1970041
105	0x3c450b07	0.012026555
106	0x3e567fc0	0.2094717
107	0xbe8b4036	-0.27197427
108	0x3ecc9dec	0.39964235
109	0x3edcbab7	0.43111202
110	0xbe8289c1	-0.25495723
111	0xbe75d7dc	-0.24008125
112	0xbe37f92b	-0.17966144
113	0x3e0fe77c	0.14053148
114	0x3e94e722	0.2908259
115	0xbf294792	-0.6612483
116	0xbef3fcb8	-0.47653747
117	0x3f229a85	0.6351703
118	0x3e88ecb8	0.26743102
119	0xbc173c2e	-0.009230657
120	0x3e0b23fd	0.13587947
121	0x3e55e0b1	0.20886494
122	0x3d9b3605	0.07578663
123	0x3ebc239a	0.36745912
124	0xbebe81c8	-0.3720839
125	0xbdb88aa8	-0.090108216
126	0xbdacd9e1	-0.084399946
127	0x3e1fa2d3	0.15589456
128	0x3e54a449	0.20765795
129	0x3f063b70	0.52434444
130	0x3d3d5652	0.0462249
131	0xbe25afd8	-0.1618036
132	0xbf7b3f0e	-0.9814309
133	0xbe9362d5	-0.2878634
134	0x3d600f67	0.05470219
135	0xbe751ed8	-0.23937547
136	0xbff041c6	-1.8770072
137	0xbf4204f7	-0.75788826
138	0x3e54e961	0.20792152
139	0x3ecffb2c	0.40621316
140	0xbe902333	-0.28151855
141	0x3ed218c4	0.4103452
142	0x3e241620	0.16024065
143	0x3dd9459a	0.106089786
144	0xbceaa1fb	-0.028641691
145	0xbf57bf52	-0.84276307
146	0x3e7a49fc	0.24442285
147	0x3f1b268c	0.6060569
148	0xbe3c04c0	-0.18361187
149	0xbc8e53aa	-0.017373879
150	0xbf41a1d3	-0.7563755
151	0xbf2d7880	-0.67761993
152	0xbd4d14d7	-0.050068703
153	0x3ddc0187	0.10742479
154	0xbcacd475	-0.021097401
155	0xbe440c73	-0.19145374
156	0x3f26ba8b	0.6512839
157	0xbe54e8da	-0.20791951
158	0xbe75f372	-0.24018648
159	0xbe1d2910	-0.15347695
160	0xbf21a7f2	-0.6314689
161	0x3ece3d81	0.402813
162	0x3ec0c454	0.37649786
163	0x3f1f7108	0.62281847
164	0xbd8c66dd	-0.06855557
165	0xbe09efd3	-0.13470392
166	0xbedcf13d	-0.431528
167	0xbedfac38	-0.4368608
168	0x3dc1936b	0.09451946
169	0xbf9c56b5	-1.2213961
170	0xbf2f15d5	-0.6839269
171	0xbd65993f	-0.05605435
172	0x3ca0252f	0.01954898
173	0xbe880875	-0.26568952
174	0xbdb72497	-0.08942526
175	0xbe8712e5	-0.26381603
176	0xbe7570c0	-0.23968792
177	0xbe8f8364	-0.2802993
178	0x3ed5b728	0.417413
179	0x3f4b2cfe	0.7936553
180	0x3dea53d9	0.11441774
181	0x3f06fc03	0.5272829
182	0xbf03fcf1	-0.5155783
183	0xbc95dba6	-0.018293213
184	0xbe12cd0a	-0.14336029
185	0x3eea4209	0.45753506
186	0xbf27ca45	-0.65543014
187	0xbeba0f32	-0.36339718
188	0x3dd31683	0.10307028
189	0xbe06c1d4	-0.13159877
190	0x3edd62fa	0.43239576
191	0x3eb97a0c	0.36225927
192	0xbdf87617	-0.12131899
193	0x3ea70acb	0.32625422
194	0xbd0bf155	-0.0341657
195	0x3e806d3d	0.25083342
196	0xbea99e66	-0.3312866
197	0x3f024250	0.50882435
198	0xbe2ff5ed	-0.17183657
199	0xbea730ad	-0.32654324
200	0xbea34ffa	-0.31896955
201	0x3d870d2d	0.0659431
202	0x3e613543	0.21992974
203	0xbe97c556	-0.29642743
204	0x3e13fe3d	0.14452453
205	0x3f042d4a	0.51631606
206	0x3f0fa54b	0.5611159
207	0xbedbcd55	-0.42930093
208	0x3f8c8148	1.0976954
209	0x3eff9444	0.49917805
210	0xbd7066db	-0.05869184
211	0xbcda8974	-0.02667687
212	0xbf2131b2	-0.62966454
213	0xbde768c8	-0.11299282
214	0x3c8ec4a1	0.017427744
215	0x3f4deaf6	0.80436647
216	0xbc7f2382	-0.015572431
217	0xbf6b8727	-0.920031
218	0x3ce92cdc	0.028463773
219	0x3f046ee7	0.51731724
220	0x3e336bed	0.17521639
221	0xbbcf4d8d	-0.0063263834
222	0x3e85dc0a	0.2614444
223	0xbde9dc33	-0.11418953
224	0xbd631a4c	-0.055445
225	0x3a679be8	0.00088351825
226	0xbfade1c8	-1.3584528
227	0xbf0f63ec	-0.56011844
228	0x3f7b7b35	0.98234874
229	0x3f679c07	0.90472454
230	0xbec1cf2d	-0.37853375
231	0xbec455e8	-0.3834679
232	0x3e09b633	0.1344841
233	0x3f3a2f90	0.72728825
234	0x3f04bd5f	0.5185146
235	0x3e533cdb	0.20628683
236	0xbe928c02	-0.28622442
237	0x3dfe6293	0.12421145
238	0x3ce3f503	0.027826792
239	0xbed5df9c	-0.41772163
240	0x3e2bd7c4	0.16781527
241	0x3f07389e	0.52820766
242	0xbf404d5d	-0.75118047
243	0xbf520164	-0.8203337
244	0x3ecd3816	0.40081853
245	0x3e92dcc6	0.28684062
246	0x3eb45df1	0.35227922
247	0xbdbeed13	-0.09322562
248	0x3e83815d	0.25684634
249	0x3edf1c2d	0.43576184
250	0xbec4dce7	-0.38449785
251	0x3ef0b3ea	0.47012264
252	0x3f055b3c	0.5209234
253	0x3efe01e1	0.49610808
254	0x3ede53e6	0.43423384
255	0x3e4cfee1	0.20019104

fc1.bias f4 [120]
0	0xbdf04fad	-0.11733947
1	0xbe930d34	-0.2872101
2	0xbf3e5208	-0.7434392
3	0xbe3bd5a4	-0.18343216
4	0xbd269a43	-0.04067446
5	0xbe0c635c	-0.13709778
6	0xbede136f	-0.43374202
7	0xbf0d1f03	-0.55125445
8	0x3e7636a1	0.24044277
9	0xbf829436	-1.020148
10	0x3ea23e8d	0.31688347
11	0xbf123103	-0.57106036
12	0xbc1ed9eb	-0.00969551
13	0xbf7222eb	-0.9458453
14	0xbd980952	-0.07423653
15	0xbdb35045	-0.087555446
16	0xbefa2fdb	-0.48864636
17	0xbe34cde4	-0.17656666
18	0xbf051471	-0.51984316
19	0xbe55a00c	-0.20861834
20	0xbf180933	-0.59389037
21	0xbda6d449	-0.08145959
22	0xbe7e73d8	-0.24848878
23	0x3c9899b3	0.018627977
24	0xbe41bb91	-0.18919207
25	0xbdb36ce4	-0.087610036
26	0xbcbf8e42	-0.023383263
27	0xbdc5c43e	-0.09656571
28	0x3e5642e7	0.20923959
29	0x3c82313d	0.01589262
30	0xbf13c58b	-0.577233
31	0x3e49d686	0.1971074
32	0xbf375207	-0.7160954
33	0xbec124e4	-0.37723458
34	0x3e6477a4	0.22311264
35	0xbf2ba491	-0.67047983
36	0xbe88aac5	-0.26692787
37	0xbd6fdcae	-0.058560066
38	0xbd61361a	-0.054983236
39	0xbea17192	-0.3153196
40	0xbe4acce5	-0.19804724
41	0xbf7dad1a	-0.9909226
42	0xbd6ee12a	-0.058320202
43	0xbe7ff736	-0.24996647
44	0xbdd445a3	-0.10364845
45	0xbf974964	-1.1819272
46	0xbebfd41c	-0.37466514
47	0xbf2b6d37	-0.66963524
48	0x3e11d62d	0.14241858
49	0x3e2eb610	0.17061639
50	0x3e95230b	0.29128298
51	0x3ea76cf3	0.3270031
52	0xbf86f471	-1.0543348
53	0xbd9611d4	-0.07327619
54	0xbea6af4d	-0.3255562
55	0xbd9e9033	-0.077423476
56	0xbe82ccf2	-0.25546986
57	0xbbd9acbb	-0.0066429055
58	0xbd5dbf93	-0.054137778
59	0xbeb2bec8	-0.3491118
60	0xbf041d37	-0.5160708
61	0xbdd3c0e1	-0.10339523
62	0xbede1df3	-0.43382224
63	0xbf808f6c	-1.0043769
64	0xbeb2d36c	-0.34926927
65	0xbd260ecc	-0.040541455
66	0xbf362684	-0.7115252
67	0x3d2abf0a	0.041686095
68	0xbdf5b5d9	-0.11997575
69	0xbf05db64	-0.5228789
70	0xbc2692be	-0.010166822
71	0xbc8fc1f5	-0.01754854
72	0xbea5f6a2	-0.32414728
73	0xbfb41d1d	-1.4071385
74	0xbcc36c45	-0.023855338
75	0xbf32ce46	-0.69846
76	0xbea1535c	-0.3150891
77	0xbf1ab71f	-0.6043567
78	0xbf7d7f63	-0.990225
79	0xbdbaeef5	-0.09127609
80	0xbe288c64	-0.16459805
81	0xbf696cc3	-0.9118158
82	0xbf15232b	-0.5825679
83	0xbee655bd	-0.44987288
84	0xbd226016	-0.039642416
85	0xbe1b8552	-0.15187576
86	0xbf228419	-0.63482815
87	0x3dca09e6	0.09865169
88	0x3d9a070b	0.075208746
89	0xbf31089e	-0.69153774
90	0xbf03f1e2	-0.5154096
91	0xbeb66d05	-0.3563005
92	0x3db58fe9	0.08865339
93	0xbf6f33eb	-0.93438596
94	0xbf500b0c	-0.81266856
95	0x3e420fec	0.18951386
96	0xbdf600e9	-0.12011892
97	0x3cab0f9e	0.02088147
98	0xbead8300	-0.33889008
99	0xbf948f7f	-1.1606292
100	0xbd8b9987	-0.068163924
101	0xbe1f19df	-0.15537213
102	0xbf01fbc5	-0.50774795
103	0xbdbd3b89	-0.09239871
104	0xbe27c4f9	-0.16383733
105	0xbedbd333	-0.4293457
106	0xbf5d6e3a	-0.8649632
107	0xbde5078e	-0.111830816
108	0xbf26bd51	-0.65132624
109	0xbe013cd5	-0.12620862
110	0xbec88c96	-0.3916976
111	0x3d66dea2	0.056364663
112	0xbbc29fbf	-0.0059394534
113	0xbc52c460	-0.012864202
114	0x3ca17f9a	0.019714165
115	0xbeb320a0	-0.34985828
116	0x3d90ac31	0.07064093
117	0x3be2e953	0.006924787
118	0xbf0d1f6d	-0.55126077
119	0xbd059b6d	-0.03261893

fc2.weight f4 [84, 120]
0	0x3d3955b8	0.045247763
1	0xbe909167	-0.28235933
2	0xbd1089a0	-0.0352875
3	0xbf276d5b	-0.6540124
4	0x3e46bc0c	0.19407672
5	0xbeda7690	-0.4266858
6	0x3ecdf6cc	0.40227354
7	0x3e7353c2	0.2376242
8	0x3b636033	0.003469479
9	0x3e9377cc	0.28802335
10	0x3d778559	0.060429905
11	0x3ec83091	0.39099553
12	0xbd83e111	-0.064394124
13	0x3f047d06	0.5175327
14	0xbd1d7e41	-0.038450483
15	0x3c509fc0	0.0127334
16	0x3f07f396	0.5310606
17	0xbdd77151	-0.1051966
18	0xbea0934c	-0.3136238
19	0xbf32ce49	-0.69846016
20	0xbf26c4f9	-0.65144306
21	0x3cca267e	0.024676558
22	0x3bc966b4	0.0061462764
23	0xbcdcc6af	-0.026950208
24	0xbf54c5ad	-0.8311413
25	0x3d535ca4	0.05160202
26	0x3e828369	0.25490883
27	0xbd5dabce	-0.054118924
28	0xbec79910	-0.38983965
29	0x3cc35dbc	0.023848407
30	0x3db57a74	0.08861247
31	0x3e6940dd	0.2277865
32	0xbe853caa	-0.26022846
33	0xbe733115	-0.23749192
34	0x3ea658a7	0.3248951
35	0xbeab2bf6	-0.33431977
36	0xbe056811	-0.1302798
37	0xbc41e807	-0.011835105
38	0xbece81fa	-0.4033354
39	0x3e5d15a3	0.21590285
40	0xbd48e67e	-0.04904794
41	0x3f2a79a6	0.6659187
42	0x3c947fbe	0.018127318
43	0x3dc03341	0.09384776
44	0xbdb2cd29	-0.087305374
45	0xbe472ef4	-0.19451505
46	0xbe91f39a	-0.28506166
47	0x3f01a57d	0.5064314
48	0xbdf052ef	-0.11734568
49	0xbf0715a5	-0.527674
50	0x3de6b896	0.11265676
51	0xbf77fc9c	-0.96869826
52	0xbf215f43	-0.6303598
53	0xbf3feba9	-0.74968964
54	0xbe9332c8	-0.2874968
55	0x3d52eb1b	0.051493745
56	0xbeb3f5b0	-0.35148382
57	0xbd9f5540	-0.07779932
58	0x3e32a5a6	0.17446002
59	0xbec5bb85	-0.3861963
60	0x3ea4fca0	0.32223988
61	0x3d52d1fd	0.05146979
62	0xbe8a834d	-0.270533
63	0xbe96686d	-0.29376546
64	0x3f36cd6b	0.7140719
65	0x3eba1bc8	0.3634932
66	0x3d9dddbe	0.077083096
67	0xbd8e7d67	-0.06957512
68	0x3e8a4b1e	0.27010435
69	0xbf42fc3d	-0.76166135
70	0x3da13d8f	0.078730695
71	0xbd6bc3f3	-0.05755992
72	0xbf1b8845	-0.60754806
73	0x3eefad9f	0.4681215
74	0x3d247096	0.040146433
75	0x3edabb68	0.42721105
76	0xbf4c3e42	-0.797825
77	0xbef1cca9	-0.47226456
78	0xbd5a24c9	-0.053257737
79	0xbe377eaf	-0.1791942
80	0xbf2bf5e3	-0.6717207
81	0x3de4c1f5	0.11169807
82	0x3d422045	0.047394056
83	0x3e88e19d	0.2673463
84	0x3d562b39	0.052287314
85	0xbd83d4e1	-0.06437088
86	0x3e2a8b50	0.16654706
87	0x3f0559d8	0.52090216
88	0xbe4ed0c7	-0.2019683
89	0x3daf9560	0.08573413
90	0x3ddde365	0.10834388
91	0x3f237024	0.6384299
92	0xbed5e2cd	-0.41774598
93	0x3e1dff1f	0.15429352
94	0xbe81e601	-0.25370792
95	0x3dad2100	0.0845356
96	0x3d60b832	0.054863162
97	0xbf3d44d2	-0.73933136
98	0x3eb12c67	0.3460419
99	0x3cf037e5	0.029323528
100	0x3ea27464	0.31729424
101	0xbe06a488	-0.13148701
102	0xbe6b0839	-0.22952355
103	0x3e96bc03	0.29440317
104	0x3ee0a880	0.43878555
105	0x3f011ee3	0.50437754
106	0xbc98eb7c	-0.018666975
107	0xbd90762a	-0.07053788
108	0x3e60e173	0.21961002
109	0x3e153e90	0.14574647
110	0xbe3079bd	-0.1723394
111	0x3ddbacdf	0.10726332
112	0x3da05d73	0.07830324
113	0xbc7c7728	-0.015409268
114	0xbf299b0d	-0.66252214
115	0x3e56ad22	0.20964482
116	0x3dd12f49	0.10214097
117	0xbd389506	-0.045063995
118	0xbe3c934f	-0.18415569
119	0xbea1a112	-0.315682
120	0xbe0bc203	-0.13648228
121	0xbeffaefc	-0.4993819
122	0x3c7a573a	0.0152795855
123	0xbd9c82fd	-0.076421715
124	0xbe9e161a	-0.30876237
125	0x3ec137a9	0.37737778
126	0xbe72f324	-0.23725563
127	0x3eceb74f	0.40374228
128	0x3ecf8d32	0.4053741
129	0x3e921be2	0.28536898
130	0xbec92ce0	-0.3929205
131	0x3e8789f4	0.26472437
132	0x3c646410	0.013939872
133	0xbce93eea	-0.028472383
134	0x3cd11745	0.025523791
135	0xbd3909ce	-0.045175366
136	0xbe345c1a	-0.17613259
137	0x3e9c8bbd	0.30575362
138	0x3e918a96	0.28426045
139	0x3e30037a	0.17188826
140	0x3ec46b84	0.38363278
141	0xbd308979	-0.043099854
142	0x3f0b143e	0.5432776
143	0x3d871972	0.0659665
144	0x3ec338cf	0.3812928
145	0xbd7133ec	-0.058887407
146	0xbe6e7247	-0.23285781
147	0xbcf94d42	-0.030432347
148	0x3df3fc27	0.119133286
149	0xbd48e236	-0.049043857
150	0xbe95a4d6	-0.29227322
151	0x3e2c0133	0.16797332
152	0x3e9dce73	0.3082157
153	0x3d196027	0.037445214
154	0xbeec70d4	-0.4617983
155	0x3ee6722d	0.45008984
156	0xbf6595f7	-0.89681953
157	0xbd35b8b5	-0.044365603
158	0xbd6a7f58	-0.05725035
159	0xbea575e1	-0.32316497
160	0xbef23e7c	-0.47313297
161	0x3e87b259	0.26503256
162	0x3d2808dd	0.041024078
163	0x3e0ae1ff	0.13562773
164	0xbb540ab5	-0.0032355015
165	0x3f4faf75	0.811271
166	0xbf42c2b6	-0.76078355
167	0x3e648d07	0.22319423
168	0x3ed73ea0	0.42039967
169	0x3e4df81f	0.20114182
170	0x3d5f1b00	0.05446911
171	0xbd9ce32b	-0.07660516
172	0xbf1de9b8	-0.6168475
173	0xbdffd261	-0.124912985
174	0xbe491648	-0.19637406
175	0xbae069cd	-0.0017121375
176	0xbe31af57	-0.17352043
177	0x3eb48351	0.35256436
178	0x3c800d54	0.015631355
179	0x3e5b6968	0.21426928
180	0xbf757faa	-0.95897925
181	0xbd547df5	-0.051877934
182	0x3e3dc7db	0.1853327
183	0x3e7cd28e	0.24689695
184	0xbe9928a1	-0.2991381
185	0x3e6e0eaa	0.23247781
186	0x3d369b63	0.044581782
187	0x3e98eecd	0.2986969
188	0xbe133529	-0.14375748
189	0xbd99952c	-0.074991554
190	0x3e80efcd	0.25182953
191	0x3c8abf9c	0.01693707
192	0x3bae620d	0.005321747
193	0xbd5716d0	-0.05251199
194	0xbe01041a	-0.12599221
195	0x3ede3fa8	0.4340794
196	0x3f1dc286	0.61624944
197	0xbed0e058	-0.4079616
198	0x3eab25ea	0.33427364
199	0xbee7f560	-0.45304394
200	0xbdc5ea2e	-0.09663807
201	0x3e32a257	0.1744474
202	0x3e77e3b3	0.24207954
203	0x3e30291c	0.17203182
204	0x3e45e6dc	0.19326347
205	0xbee4a4d7	-0.44657013
206	0x3ee2be50	0.44285822
207	0xbeb524f6	-0.3537976
208	0xbe6459b1	-0.2229984
209	0x3e9984e2	0.29984194
210	0xbec2daf9	-0.38057688
211	0x3eb15037	0.34631512
212	0xbe48d73e	-0.19613358
213	0x3ef5600c	0.4792484
214	0x3f25dbe5	0.6478866
215	0xbeac1e95	-0.33617082
216	0xbcbdf8b5	-0.023189882
217	0x3e2485f9	0.16066732
218	0xbef7c100	-0.48389435
219	0x3da2e063	0.079529546
220	0xbdd85c65	-0.10564498
221	0x3e35a8d7	0.17740189
222	0xbd0d613e	-0.034516566
223	0xbe831f97	-0.2561004
224	0x3f468e39	0.77560765
225	0xbf4b219b	-0.7934815
226	0x3e194544	0.14967829
227	0x3d8105fc	0.062999696
228	0x3dedc8ae	0.11610542
229	0xbd8bc060	-0.06823802
230	0x3daf1e9c	0.0855076
231	0xbe734686	-0.23757371
232	0xbcf35bda	-0.029706884
233	0xbd4fb2ed	-0.050707746
234	0x3d3ad0e8	0.045609385
235	0x3e2ed310	0.17072701
236	0xbde7893b	-0.113054715
237	0x3befecef	0.007321946
238	0x3e172730	0.14761043
239	0x3ef4bc64	0.4779998
240	0x3f0c79b6	0.54873216
241	0x3e5d6a09	0.2162248
242	0xbe681661	-0.22664787
243	0xbed23ee4	-0.41063607
244	0x3ea27899	0.31732634
245	0xbe4a5395	-0.19758447
246	0x3f54b26d	0.83084756
247	0xbeff18c7	-0.4982359
248	0xbf032d9e	-0.5124148
249	0x3f34443a	0.70416605
250	0xbf787259	-0.9704948
251	0x3e9481c8	0.29005265
252	0xbd68da4a	-0.0568488
253	0x3e5e8f13	0.21734266
254	0x3ca070de	0.01958507
255	0x3a76f3af	0.0009420467

fc2.bias f4 [84]
0	0xbef12f9a	-0.4710663
1	0xbf08937b	-0.5335004
2	0xbf83a27d	-1.0283962
3	0xbd550353	-0.052005123
4	0xbf2f1c2c	-0.6840236
5	0xbf5d84b2	-0.865306
6	0xbf269679	-0.65073353
7	0xbe95d2c5	-0.29262367
8	0xbf27dfb6	-0.6557573
9	0xbe4d25ad	-0.20033903
10	0xbf3f853c	-0.74812675
11	0xbf4e99ec	-0.80703616
12	0xbdfb523a	-0.12271543
13	0xbf0f9c54	-0.5609791
14	0xbedd2ffd	-0.43200675
15	0xb91b1fac	-0.0001479375
16	0xbf131322	-0.5745107
17	0xbf416ac5	-0.7555354
18	0xbf6324a3	-0.8872778
19	0xbe84f788	-0.259701
20	0xbf09d8c1	-0.53846365
21	0xbf0a5d92	-0.54049027
22	0xbf60b0be	-0.8776969
23	0xbe437d1f	-0.19090699
24	0xbf16e399	-0.58941036
25	0xbeded672	-0.43522984
26	0xbe9046e7	-0.28179094
27	0xbf1fb441	-0.6238442
28	0xbeea4a25	-0.45759693
29	0xbd1709e6	-0.036874674
30	0xbf11f476	-0.5701364
31	0xbf0a85d2	-0.54110444
32	0xbeaaa96c	-0.33332384
33	0xbfad5873	-1.3542618
34	0xbf62ec6d	-0.8864201
35	0xbe15c5d7	-0.14626251
36	0xbe732bed	-0.23747225
37	0xbe8ed261	-0.2789488
38	0xbebd998f	-0.37031218
39	0xbee037ff	-0.43792722
40	0xbe1c0fb4	-0.15240365
41	0xbf4018b7	-0.7503771
42	0xbea9c28c	-0.3315624
43	0xbf47affb	-0.780029
44	0xbec958df	-0.39325616
45	0xbef90306	-0.4863512
46	0xbeebc834	-0.4605118
47	0xbf265bb7	-0.64983696
48	0x3dbfcf91	0.09365762
49	0xbe33fea5	-0.17577608
50	0xbee59059	-0.4483669
51	0xbf0e459c	-0.55574965
52	0xbf3a64d3	-0.72810096
53	0xbf0f4fc9	-0.5598112
54	0xbea288ab	-0.31744894
55	0xbf3af663	-0.73032206
56	0xbf0d2d1d	-0.5514696
57	0xbf306a1b	-0.68911904
58	0xbe207148	-0.15668213
59	0xbf76ab32	-0.96354973
60	0xbf522350	-0.8208513
61	0xbf00ee01	-0.50363165
62	0xbec59d1b	-0.38596424
63	0xbf2484fe	-0.6426543
64	0xbf2f5e47	-0.6850323
65	0xbf78ee9a	-0.9723908
66	0xbf7ca324	-0.9868643
67	0xbf20c599	-0.6280151
68	0xbf5fcd04	-0.87422204
69	0xbf8220d7	-1.0166272
70	0xbec4c524	-0.38431656
71	0xbf4c83e7	-0.79888767
72	0xbf892af6	-1.0716236
73	0xbe9e78fe	-0.30951685
74	0xbe8c28b9	-0.2737482
75	0xbeb85a53	-0.36006412
76	0x3d7f0d48	0.062268525
77	0x3d00789b	0.03136502
78	0xbe116415	-0.14198335
79	0x3dc37d4d	0.095453836
80	0xbf4236ef	-0.7586507
81	0xbecc9ecd	-0.39964905
82	0x3e068ce8	0.13139689
83	0xbf0e27c3	-0.5552942

fc3.weight f4 [10, 84]
0	0xbf608172	-0.8769752
1	0xbf09cfe3	-0.53832835
2	0xbf630994	-0.8868649
3	0xbf88603c	-1.0654368
4	0xbf1097f4	-0.5648186
5	0xbf70e178	-0.9409404
6	0xbe6e995d	-0.23300691
7	0xbf6a9209	-0.9162908
8	0xbf507566	-0.81429136
9	0xbe966242	-0.2937184
10	0xbf035a02	-0.51309216
11	0xbf83732c	-1.0269523
12	0xbf54d828	-0.8314233
13	0xbf8e38b3	-1.1111053
14	0xbfc51887	-1.539811
15	0xbf6bd7a9	-0.92125946
16	0xbf443c3f	-0.7665443
17	0xbef39761	-0.4757643
18	0x3d165b59	0.03670821
19	0xbe0a2ea6	-0.13494357
20	0x3d5b41a8	0.05352941
21	0xbeee3c5b	-0.46530423
22	0xbe29eb6b	-0.16593711
23	0xbf9c04d4	-1.2188973
24	0xbf6e22a9	-0.9302164
25	0xbec68c88	-0.38779092
26	0xbf442604	-0.7662051
27	0xbd56a115	-0.052399714
28	0xbf3e3988	-0.74306536
29	0xbf910e76	-1.1332538
30	0x3db0f6e7	0.08640843
31	0xbfcd001a	-1.6015656
32	0xbf380fb9	-0.7189899
33	0xbeca682e	-0.39532608
34	0xbdcde115	-0.100526966
35	0xbe2f00ea	-0.17090192
36	0xbea54aef	-0.32283732
37	0xbf8d46f1	-1.1037275
38	0xbf4bad1d	-0.79561025
39	0xbed59f15	-0.41722932
40	0xbee88e09	-0.45420864
41	0xbf572df4	-0.84054494
42	0xbd310dd0	-0.043226063
43	0x3e383f04	0.17992789
44	0xbf5e42a8	-0.8682046
45	0xbfa0c76e	-1.2560861
46	0xbf4c9ee1	-0.7992993
47	0x3cb81eb6	0.022475582
48	0xbf9fcaeb	-1.2483801
49	0xbe851c75	-0.25998273
50	0xbcea3a33	-0.028592205
51	0xbf7f2d3c	-0.996784
52	0xbf66d05a	-0.9016167
53	0xbe4c2c76	-0.19938836
54	0xbfc583c6	-1.5430839
55	0x3d9adc13	0.07561507
56	0xbf944140	-1.1582413
57	0xbfa820af	-1.3134974
58	0xbc86ad80	-0.016440153
59	0xbe4e7e95	-0.20165475
60	0xbf2a9c2a	-0.6664454
61	0xbd438efa	-0.047743775
62	0xbeb692a6	-0.3565876
63	0x3d96520c	0.07339868
64	0xbfa20798	-1.2658567
65	0xbf9fe8e9	-1.2492954
66	0x3d23ba42	0.03997255
67	0xbf947716	-1.1598842
68	0xbf614704	-0.87998986
69	0xbe9bc077	-0.30420277
70	0xbeb7c6ae	-0.35893768
71	0xbe554043	-0.20825295
72	0xbe47aed5	-0.19500287
73	0x3d9eb82b	0.07749971
74	0x3d36b9db	0.04461084
75	0xbc7a762e	-0.015286965
76	0xbf7513c6	-0.95733297
77	0xbeeb0b3a	-0.45907003
78	0xbc52e5fa	-0.0128722135
79	0xbd2e9479	-0.042622063
80	0xbf466e00	-0.77511597
81	0x3da11932	0.07866134
82	0xbfa72c86	-1.3060462
83	0x3d0ec5b2	0.034856506
84	0xbcc509e7	-0.024052573
85	0xbf62ec3b	-0.8864171
86	0xbd10596c	-0.03524153
87	0xbd078479	-0.03308532
88	0xbf76df5c	-0.9643457
89	0xbe7dfa07	-0.24802409
90	0xbd881c89	-0.06646068
91	0xbf5ce246	-0.86282766
92	0xbf2ccd0d	-0.6750038
93	0xbf6e6c8f	-0.931344
94	0xbc91eb92	-0.017812524
95	0xbe8cb32c	-0.27480447
96	0xbf950341	-1.1641618
97	0xbeeaf2eb	-0.45888457
98	0xbf30860b	-0.68954533
99	0xbe0a22b4	-0.134898
100	0x3e567f2d	0.20946951
101	0xbe8c4159	-0.27393606
102	0xbf60decc	-0.8783996
103	0xbe0369b1	-0.12833287
104	0xbf635976	-0.8880838
105	0xbeeeecc6	-0.4666502
106	0xbf7f2644	-0.99667764
107	0xbe243a8a	-0.16037956
108	0xbe2717a7	-0.16317616
109	0xbf9263cb	-1.1436704
110	0xbeb940d0	-0.3618226
111	0xbfa95960	-1.32304
112	0xbf83d041	-1.0297929
113	0xbf8f729c	-1.1206851
114	0xbcaca6a3	-0.021075552
115	0xbf9f5550	-1.244791
116	0xbf170851	-0.58997065
117	0xbf4de661	-0.80429655
118	0xbf3959cd	-0.7240265
119	0xbfab6587	-1.3390359
120	0xbfade610	-1.3585835
121	0xbf743848	-0.9539838
122	0xbf36891f	-0.7130298
123	0xbfc9f2a9	-1.5777179
124	0xbf3dc1a2	-0.74123585
125	0x3d84455d	0.064585425
126	0xbf4f7747	-0.8104138
127	0xbd3fdaa5	-0.046839375
128	0xbf5fc3a9	-0.8740793
129	0xbdd9ea05	-0.10640339
130	0xbdf6c602	-0.12049486
131	0xbf755737	-0.95836204
132	0xbfa80b43	-1.3128437
133	0xbd8b92f6	-0.0681514
134	0xbfccd7b3	-1.6003326
135	0xbe74d4c7	-0.23909293
136	0xbf130e61	-0.57443815
137	0xbf0fe1ae	-0.56203735
138	0xbfd2eec7	-1.6479119
139	0xbf5f47e2	-0.8721906
140	0xbf8e3814	-1.1110864
141	0xbd512c79	-0.051067803
142	0xbf207874	-0.62683797
143	0xbf990e94	-1.1957574
144	0xbf8f1ca6	-1.1180618
145	0xbf88a44d	-1.0675141
146	0xbf4696e9	-0.7757402
147	0xbe0223e6	-0.12709007
148	0xbea5996d	-0.32343617
149	0xbf822abc	-1.0169291
150	0xbfb0aa53	-1.3801979
151	0xbcaa566c	-0.020793162
152	0x3e1a3763	0.15060191
153	0xbf0cf010	-0.55053806
154	0xbfcc6d8e	-1.5970933
155	0xbf25dc5d	-0.6478937
156	0xbec5f7d7	-0.3866565
157	0xbf82ee34	-1.0228944
158	0x3de3ed5b	0.11129256
159	0xbd9e434c	-0.077276796
160	0xbf228ddf	-0.6349773
161	0xbfec240c	-1.8448501
162	0x3d0c6049	0.034271512
163	0xbf5c397c	-0.86025214
164	0xbf3b7011	-0.73217875
165	0xbf22d14b	-0.63600606
166	0xbf6f51b2	-0.9348403
167	0xbf291877	-0.66052955
168	0xbee4bd29	-0.44675568
169	0xbf38db64	-0.72209764
170	0xbeab859f	-0.33500382
171	0xbe27549c	-0.1634087
172	0xbecef593	-0.40421733
173	0xbea110cc	-0.31458127
174	0xbdce6625	-0.10078076
175	0xbdae891f	-0.085222475
176	0xbf285b86	-0.65764654
177	0x3c2395a3	0.009984407
178	0xbb8cb7fa	-0.0042943927
179	0xbf967bb1	-1.1756498
180	0xbf4bf033	-0.7966339
181	0xbfcfc240	-1.6231155
182	0xbe858fe7	-0.2608635
183	0x3d603094	0.054733828
184	0xbe1fa293	-0.15589361
185	0xbf5aca0a	-0.8546454
186	0xbe1628f4	-0.1466406
187	0xbfa240cb	-1.2676023
188	0xbf82567a	-1.018264
189	0xbecf58ae	-0.40497345
190	0xbf51fd6c	-0.82027316
191	0xbf6f9082	-0.93579876
192	0xbe94ed4b	-0.2908729
193	0xbf280902	-0.65638745
194	0x3dc755f4	0.09733191
195	0xbf32a25a	-0.6977898
196	0x3ea6082e	0.32428116
197	0xbfc9c19b	-1.5762209
198	0xbc0c6612	-0.008569257
199	0xbd5b7656	-0.05357965
200	0xbf7eea8a	-0.9957663
201	0xbe76d4a9	-0.24104561
202	0x3e28bf67	0.16479264
203	0xbddf84c4	-0.10913995
204	0xbf64fe14	-0.8945019
205	0xbed0a543	-0.40751085
206	0xbf2638e5	-0.64930564
207	0xbf9184fd	-1.136871
208	0xbfc45d88	-1.5341043
209	0xbf372f04	-0.71556115
210	0x3dce5d81	0.10076428
211	0xbe26a783	-0.16274838
212	0xbf14d19d	-0.58132344
213	0xbefecd7c	-0.49766147
214	0xbfb6fc97	-1.4295834
215	0x3dcda655	0.10041491
216	0xbf21ad82	-0.63155377
217	0xbf9f0c54	-1.2425637
218	0xbf511d66	-0.81685483
219	0xbdf1ef6e	-0.11813246
220	0xbf4aa56c	-0.79158664
221	0xbecff75e	-0.40618414
222	0xbebf7be4	-0.3739921
223	0xbf71073b	-0.9415166
224	0xbe306baf	-0.17228578
225	0xbf280df0	-0.65646267
226	0xbf75c1ff	-0.9599914
227	0xbe4a9299	-0.19782485
228	0x3d4e24ee	0.050328188
229	0xbeecb389	-0.46230724
230	0xbf4eb97a	-0.80751765
231	0xbf707d51	-0.9394122
232	0xbf4bba6e	-0.79581344
233	0xbeed03f3	-0.46292076
234	0x3d7b1385	0.061297912
235	0x3d95c2ec	0.07312569
236	0xbfa4d925	-1.2878767
237	0xbab97dcb	-0.0014151869
238	0xbec59fa9	-0.38598374
239	0xbfc95109	-1.5727855
240	0xbeb047f7	-0.34429905
241	0xbdf79c2b	-0.120903336
242	0xbfd5a53c	-1.669105
243	0xbf5d2552	-0.8638507
244	0xbece0d1c	-0.40244377
245	0x3d704913	0.05866344
246	0x3d07bc38	0.033138484
247	0xbfc75940	-1.5574112
248	0xbfe19dcc	-1.7626281
249	0xbf8e2e54	-1.1107888
250	0xbf854fef	-1.0415019
251	0xbef3c506	-0.47611254
252	0x3c48c702	0.012254478
253	0xbf0f1313	-0.5588848
254	0x3cb31ece	0.021865275
255	0xbe77cef3	-0.24200039

fc3.bias f4 [10]
0	0xbf0088ff	-0.5020904
1	0xbd6aa3fc	-0.057285294
2	0xbe31c702	-0.17361072
3	0xbc195a45	-0.009359901
4	0xbd5bac40	-0.053631067
5	0xbed67fdd	-0.41894427
6	0xbe829887	-0.25506994
7	0xbe81af71	-0.25329164
8	0x3eb464d8	0.35233188
9	0x3e1fdf59	0.15612544
