mnist/saved_models/model_epoch_32.pth (torch, 181338 bytes, 10 tensors)

conv1.weight f4 [6, 1, 5, 5]
000000 b0 04 45 be 3a f5 0a 3e 2b 6e 54 bd 55 66 88 3e
       -0.1924007 0.13570109 -0.051862877 0.26640573
000010 43 2b 01 3c 34 77 85 3e 83 92 ff 3e 8c 4e 3b 3e
       0.00788385 0.26067507 0.49916467 0.18291682
000020 fd 17 47 3d e6 91 62 3e 56 0a 2d 3e 17 df 23 3d
       0.04860686 0.22125968 0.16898474 0.040007677
000030 2c c9 4b be 11 78 b0 bd 88 c5 93 bc af 4d 93 bd
       -0.1990096 -0.08616651 -0.018038526 -0.07192551
000040 b3 b9 ca be ee c2 82 be 65 34 80 be a5 44 56 be
       -0.39594802 -0.25539345 -0.25039974 -0.20924623
000050 2e d6 3a bd ef 74 4f bd 40 c9 d5 bc 15 0c 4c 3e
       -0.045614414 -0.050648626 -0.02609694 0.19926484
000060 e6 77 46 be da 39 6f be 9d f9 b4 3d 1e df e2 3e
       -0.19381675 -0.23361912 0.088366725 0.4431085
000070 6c 77 76 be 1d 51 89 be ac 85 c1 be 53 4d b1 3d
       -0.24068993 -0.26819697 -0.37797296 0.086573265
000080 b1 74 27 3f 64 15 92 3d 43 dc be 3c 51 76 a5 be
       0.6541243 0.07132986 0.023298388 -0.3231683
000090 90 09 e1 be 34 47 be 3e ec 00 ad 3e 9a 6a 7d 3d
       -0.43952608 0.371637 0.33789766 0.06186924
0000a0 8e 7f 14 bd 52 3e 19 bf a2 64 c7 bd 75 a9 84 be
       -0.036254458 -0.5986072 -0.09735991 -0.25910535
0000b0 7f 87 4e bd 92 ab 80 3e 27 50 f1 bc 1a 26 58 3e
       -0.050422188 0.25130898 -0.029457165 0.21108285
0000c0 7c 5d d0 3c 61 ac 11 3e 75 be ec bd 81 70 49 be
       0.025435202 0.14225914 -0.11559764 -0.19671823
0000d0 f0 b6 43 be 08 41 36 3c 5a c8 8f be 45 36 e4 bd
       -0.19112754 0.011123903 -0.28082544 -0.111431636
0000e0 0e 8f c5 bd 1b 1c 47 3e e0 6e dd 3e 8f af 19 be
       -0.09646426 0.19444315 0.43248653 -0.15008377
0000f0 81 97 86 3e 60 9d 50 3e 2c 29 03 3f d5 9c 1d 3f
       0.26287463 0.20372534 0.512347 0.6156743
000100 e0 fe 11 be b2 10 91 bc aa 86 ed be 69 79 49 be
       -0.14257383 -0.017708156 -0.46391803 -0.1967522
000110 29 7c af 3e dc a0 20 3e 8f 4a 1e 3d fd 5f 83 be
       0.34274414 0.15686363 0.038645323 -0.2565917
000120 c5 de c9 be 26 14 ad bc 12 96 85 3e 0e 3a 93 bd
       -0.39427772 -0.021127772 0.26091057 -0.071888074
000130 44 a4 ef 3d 7e e7 31 bc c6 63 b0 b9 63 b6 cb 3d
       0.11701253 -0.010858415 -0.00033643673 0.09946897
000140 55 45 f5 3d 09 06 61 3d b6 da 6a bd 84 de 98 3d
       0.11976115 0.054937396 -0.057337485 0.074643165
000150 3f c2 9a 3e f2 42 78 3d 48 bd ee bd 47 3e a2 be
       0.30226323 0.06061072 -0.11657196 -0.3168814
000160 eb bd 25 bd c7 05 95 3e 59 cf 1b be 8e 1b c2 bd
       -0.040464323 0.2910597 -0.15215816 -0.09477912
000170 11 14 00 be 96 6c ff 3e e0 0d bd 3e 95 b7 9b be
       -0.12507655 0.49887532 0.36924648 -0.304135
000180 df 4c 04 3b fa 0b 0a 3e 63 a7 00 3d 8b 35 05 3e
       0.002018742 0.13481131 0.031409632 0.13008706
000190 85 8e c2 3d 2e ef 9d 3c 41 19 9f 3e 28 46 b3 bc
       0.0949984 0.019279089 0.31073955 -0.021884039
0001a0 92 12 9c 3e 10 c4 77 bc 9c 33 3d be dc 85 6e bd
       0.30482918 -0.015122429 -0.18476719 -0.058233127
0001b0 12 14 bd 3d 00 25 80 3e 0c b6 dd bd 89 d0 91 be
       0.09232344 0.2502823 -0.10825738 -0.28479412
0001c0 e9 05 bb be ba 63 13 bf fd 88 ea bd 54 38 d5 3e
       -0.36527947 -0.57574046 -0.1145191 0.41644537
0001d0 7b 6a 54 be 56 9c 53 bf 7e 62 aa be 89 e3 fb 3d
       -0.20743744 -0.82660425 -0.3327827 0.12299258
0001e0 04 fc 4b 3e 2b 2a 18 3f 90 33 0e 3f d8 29 c5 3e
       0.19920355 0.59439343 0.5554743 0.38508487
0001f0 da fc 81 bd f0 da f9 3d 1f 65 fe 3d 95 79 86 bd
       -0.06347056 0.12199962 0.12421631 -0.06566159
000200 75 dc 1d bd bf 9c 8b 3d 94 42 7c be 45 cf 53 3e
       -0.038540322 0.06817006 -0.24634773 0.20684536
000210 d5 b7 20 3e 74 29 02 be 0a 17 ba bd 67 93 e7 bd
       0.15695126 -0.12711126 -0.090864256 -0.11307412
000220 a0 65 30 3f ed 96 23 be 9e ed ad be 70 b7 dd 3d
       0.6890507 -0.15975542 -0.3397035 0.108260036
000230 cc 15 ae 3e e9 ab bc 3e a6 5d 29 bf 2e 66 00 3c
       0.34001005 0.36849907 -0.6615852 0.007836862
000240 eb 31 ad 3b a9 e3 a3 3e 3e ed b1 be 9c 68 41 be
       0.0052854917 0.32009628 -0.34751314 -0.18887562
000250 f8 6d 1b 3d 36 46 49 bd
       0.03794667 -0.049139224

conv1.bias f4 [6]
000000 9b 60 7a be 04 28 a6 bf d4 80 f3 be 99 d8 3f bf
       -0.24450915 -1.2980962 -0.47559226 -0.74939877
000010 de 81 2d bf a7 82 33 bf
       -0.67776287 -0.70121235

conv2.weight f4 [16, 6, 5, 5]
000000 b1 13 30 3e b8 81 32 bd be 20 3a 3e 1c 1a 35 3e
       0.17195012 -0.04358074 0.18176553 0.17685741
000010 85 1b c6 3d 72 a1 df 3d 7b cb 4a 3d cf ab c2 3e
       0.09673218 0.10919465 0.04951046 0.38021705
000020 36 0c dc 3d 97 2a 57 3e eb 84 03 3e fc d1 75 3e
       0.107445166 0.2101234 0.12843673 0.24005884
000030 df 95 1f 3e 41 d0 1d bd fe f2 9c 3e 34 b5 35 bf
       0.15584515 -0.038528685 0.30654138 -0.7097962
000040 ac 18 0c bf e7 28 cc be 8f 4e 7f be 4b 1d d7 bd
       -0.54725146 -0.39874956 -0.24932311 -0.10503634
000050 4f 54 95 bf a5 9f 7d bf fd 62 b1 bf d4 d0 fa bf
       -1.1666354 -0.99071723 -1.3858334 -1.9594979
000060 70 7a 15 c0 91 0b 43 3e d8 2d 8f be 34 f9 73 bf
       -2.335598 0.19047381 -0.27964664 -0.9530213
000070 7f 29 6f 3e 4f 1a 11 be 6c ee 93 bd cb 6e f3 be
       0.23355673 -0.14170192 -0.0722321 -0.47545466
000080 d2 05 95 be c2 d6 22 3e 0a 3d 3e bc c1 50 62 3e
       -0.29106003 0.15902236 -0.0116112325 0.22101118
000090 dc ae 70 3e 8c a1 1a be d7 4a ac bc e5 86 0b be
       0.23504204 -0.15100688 -0.02103178 -0.13625677
0000a0 dc 92 8c 3e 5f d3 08 3e 18 5d c3 be 22 39 12 3e
       0.27455795 0.13361882 -0.38156962 0.14279607
0000b0 a2 f3 90 be 85 a6 ad bd 27 a2 f8 bd 84 a0 25 bf
       -0.28310877 -0.08479027 -0.12140303 -0.6469805
0000c0 ba 2c 45 3e ad f7 13 bf cf 53 b8 3e 81 d6 c6 3e
       0.19255343 -0.577998 0.3600144 0.38835528
0000d0 7e 59 89 bc 24 52 72 be cd b8 1e 3e df 67 a9 be
       -0.016766306 -0.23664147 0.15500183 -0.3308706
0000e0 3c 48 75 3e 35 e0 2f 3e 6f 40 81 bd 86 c4 ca 3d
       0.23953336 0.17175372 -0.06311118 0.09900765
0000f0 98 85 10 3e ec 1c 68 3e dd 22 cb be 5e 8d 84 3e
       0.14113462 0.22667283 -0.39675036 0.25889105
000100 a0 ce 6b 3c df a0 1f bf 06 bd 82 bf f3 e7 bf bf
       0.014392525 -0.62354845 -1.0213935 -1.499266
000110 91 08 6e bf 95 af fa bf 29 eb b9 3d 30 e3 0d be
       -0.9298182 -1.9584833 0.09078056 -0.13856196
000120 76 c5 f0 bd fb 85 91 be 4f 67 2b bf e8 ab 87 3e
       -0.11756413 -0.2842253 -0.6695451 0.26498342
000130 e0 f6 55 3f 19 ec 8e be c7 26 01 bf aa 9e 0e be
       0.83579826 -0.27914503 -0.50449795 -0.13927713
000140 49 b3 1a 3f 6c 22 a2 3d 0a 88 9d be 6b 3b 5c be
       0.6042982 0.07916722 -0.30767852 -0.21507041
000150 49 4f ad bd e1 f7 1a 3c 37 13 6a bf 75 44 3b bf
       -0.08462388 0.009458513 -0.9143557 -0.7315133
000160 73 7a 29 bf 7a 00 9f bf 8e 60 9e be 04 fe 8d bf
       -0.6620247 -1.242202 -0.3093304 -1.1093144
000170 91 f0 cb bf dc 59 e4 bf 91 0c af bf 50 e0 e7 bd
       -1.593279 -1.7839923 -1.367571 -0.11322081
000180 a8 4f 43 be ce ea 4c bf 7c 0a 04 bf d7 de 8d bf
       -0.19073355 -0.80045784 -0.515785 -1.108363
000190 7d 87 89 3e 34 2b 01 be 94 8f 6b be 5c b2 20 bc
       0.26861182 -0.12614137 -0.2300399 -0.009808149
0001a0 da b1 86 3e 7c e1 03 3e 8a b5 48 3e d1 77 90 bd
       0.26307565 0.12878984 0.19600502 -0.07054103
0001b0 fa f8 ac be 9e 11 c5 3e 48 43 84 be ee f8 63 be
       -0.33783704 0.38490003 -0.25832582 -0.22262928
0001c0 d5 94 8d be 53 a3 f9 bd fd ea 27 3e e3 1b cf 3e
       -0.27652612 -0.12189355 0.16398235 0.40450963
0001d0 4d 68 33 3e 0a 25 fd bc b0 08 ad be 8a 52 1a 3e
       0.17520256 -0.03090145 -0.3379569 0.15070549
0001e0 41 3d 98 3e bb c5 fa 3e c3 4a 92 3e 9e c7 48 3e
       0.29734233 0.4897898 0.28572664 0.19607398
0001f0 a4 66 82 3e 24 f8 83 be e0 96 9c be 53 b2 af 3e
       0.25468934 -0.25775254 -0.30583858 0.34315738
000200 89 42 99 3d 36 30 1b 3e f1 8c 69 3e c8 e9 17 bd
       0.07483394 0.1515511 0.22807671 -0.037088186
000210 58 6c 90 3e 7a 66 8e bc f7 89 da be 2b bd 40 3e
       0.2820766 -0.017382849 -0.42683384 0.18822162
000220 0f f3 b6 bd 81 81 78 be 13 16 46 bf ae 49 3d bf
       -0.089330785 -0.24268152 -0.7737743 -0.7394055
000230 02 a6 23 be 87 ed 89 be ef 52 6f bf 5a f9 0c c0
       -0.15981296 -0.2693903 -0.9348592 -2.2027192
000240 1e a6 a6 bf ed 75 3c be b8 20 ad 3d d5 f4 a3 bf
       -1.3019445 -0.1840436 0.08453506 -1.2809092
000250 84 24 3a bf 73 a1 cb bf 93 ae 44 bf 55 43 26 be
       -0.7271197 -1.5908645 -0.7682888 -0.16236623
000260 2e d8 81 be 54 b4 8d 3e 15 16 b5 3e 9a 45 14 bf
       -0.25360245 0.27676642 0.3536841 -0.57918704
000270 9d 40 89 bf d4 e1 60 bf 49 e5 bd be e0 60 bf 3d
       -1.0722843 -0.87844586 -0.37088993 0.09344649
000280 1e d6 42 3e d7 26 59 3e 19 fc 67 3e 61 93 13 3e
       0.19026992 0.21206222 0.22654761 0.1441169
000290 23 f1 03 3e 61 48 9d bd c8 2a ac 3e 0f a2 aa 3e
       0.12884955 -0.07679821 0.3362639 0.33326766
0002a0 d7 6c 80 3e 3f 02 83 3e 07 2d b4 be 16 c7 30 bf
       0.25083038 0.2558765 -0.35190603 -0.6905378
0002b0 a2 e7 61 bf 3a b2 34 bf 2d 21 ab be 01 60 9e 3e
       -0.8824407 -0.7058445 -0.3342375 0.3093262
0002c0 0c c7 76 3e de ff bb be b4 77 ca bd 8e 99 2e 3e
       0.24099368 -0.3671865 -0.09886113 0.17050764
0002d0 ad 7a 7c 3e 12 9d bf 3d d4 55 fa bd f9 50 99 be
       0.24656172 0.09356131 -0.12223402 -0.2994459
0002e0 81 6e ae bd 53 b3 c7 3e 1d 34 45 3f 73 f1 44 3e
       -0.08517171 0.39004 0.77032644 0.1923273
0002f0 ad 8b 84 be f0 ef 50 bf d0 d1 e1 be 91 26 48 3e
       -0.25887814 -0.81616116 -0.44105387 0.19545962
000300 68 96 81 bd 40 8a 6b bf aa a9 35 3d 6f ad 0c be
       -0.06327516 -0.9200783 0.044351257 -0.13738035
000310 7b 17 ab be 82 fc ae be 41 aa 14 bf 60 69 84 3e
       -0.33416352 -0.34177023 -0.58072287 0.25861645
000320 ae e8 63 3e 3c 5a c1 3d 44 ed d7 be c4 c8 74 be
       0.22256729 0.09441039 -0.42173207 -0.23904711
000330 e1 dd 1c 3e 37 f1 04 3f d4 6e 4f 3e 43 d5 81 bd
       0.15319015 0.51930565 0.20257121 -0.063395046
000340 05 25 0e be 4e af a9 be 07 4e d0 bd f8 0f c6 3e
       -0.1388131 -0.3314156 -0.101711325 0.38684058
000350 91 8e 89 3e 9d 75 ef 3e c0 f7 d8 3c c5 d5 f1 be
       0.26866582 0.4676942 0.026485324 -0.47233406
000360 41 da 86 be ff 9d 36 3e 3a 5e 1c bd cb 15 64 be
       -0.2633839 0.17833708 -0.0381758 -0.22273938
000370 21 3c cb bd 44 75 12 bf f8 99 1d bf e4 74 53 bf
       -0.09923578 -0.57210183 -0.6156306 -0.82600236
000380 93 0a 61 be f6 f4 4e 3e 77 d2 1e 3e f0 46 02 bf
       -0.2197669 0.20210633 0.15509973 -0.5088949
000390 c3 a0 d4 3d 89 aa 90 be d7 50 80 bd 1e 99 12 be
       0.10382225 -0.28255108 -0.06265419 -0.14316222
0003a0 3a 2a 9a be 26 12 d0 bd 18 94 ee be 12 64 81 3d
       -0.3011034 -0.101597115 -0.46597362 0.06317915
0003b0 c5 47 93 bd 52 31 de be bc d9 ce 3e fd 1c f6 be
       -0.07191423 -0.43397003 0.40400493 -0.4806899
0003c0 af db 4e bd c3 a8 f4 be 1a eb 07 be 4d 54 0e 3f
       -0.050502475 -0.47785005 -0.13273278 0.5559738
0003d0 bc fa 0f bd e4 d3 ea 3e 9e 1e 96 3e 37 49 a8 3c
       -0.03515123 0.45864785 0.29320234 0.020542724
0003e0 4a cb 95 3e f7 e2 bd be f8 17 0b 3e be 04 87 be
       0.2925666 -0.37087223 0.13583362 -0.26370806
0003f0 c8 27 a3 3a cc 31 a9 3e 59 dd 34 3e 43 41 cd bd
       0.0012447769 0.33045805 0.17662562 -0.10022213

conv2.bias f4 [16]
000000 43 32 ca bc ac 8f 84 be 2d 72 9a be 27 e9 1c 3c
       -0.02468217 -0.25890863 -0.30165234 0.009577072
000010 a0 34 dd bc de 66 b9 bd 16 9d 91 be c7 47 08 be
       -0.027002633 -0.090528235 -0.2844016 -0.13308631
000020 9e ae 90 be 8e 38 8d be 13 44 20 be d0 d1 a1 3e
       -0.28258222 -0.2758221 -0.15650968 0.31605387
000030 af 00 21 3e 64 09 5d be e3 0b 99 bd 13 54 44 bd
       0.15722917 -0.21585613 -0.0747297 -0.047931742

fc1.weight f4 [120, 256]
000000 1e d5 e9 bd 13 6d 00 bf ba ce 37 bf c5 a8 03 be
       -0.11417602 -0.50166434 -0.71799815 -0.12857349
000010 f8 8e 66 3d 86 97 e1 be 60 13 21 bf b6 52 91 3d
       0.05628869 -0.44060916 -0.6292019 0.07095854
000020 a0 38 0f bf fb 1e bc bc 84 e6 74 3d dc 50 32 3e
       -0.5594578 -0.022963991 0.05979015 0.17413658
000030 85 d5 af be 63 37 5e be dd a9 fb be 1b 1d 0b 3e
       -0.3434259 -0.21700816 -0.49153033 0.13585322
000040 e1 ff 54 bd a4 2e b3 bd 69 4e a9 3e 18 7f 1d 3e
       -0.052001838 -0.0874913 0.33067635 0.15380514
000050 8d 47 38 be 0e 7f a7 bd bf b5 75 be 2f 62 74 bd
       -0.17996044 -0.08178531 -0.23995112 -0.059663948
000060 b3 12 a0 bf 5d b5 65 bf 26 55 b4 3c b6 db 3b 3f
       -1.2505707 -0.89729863 0.022013258 0.7338213
000070 de 80 79 bf 16 50 51 3e 42 7f dd 3e 1e 12 36 3e
       -0.9746226 0.20440707 0.43261153 0.17780349
000080 7a f6 9e 3e 9b 23 6d 3e 88 df fc bb 08 4b 3d bf
       0.31047422 0.23158114 -0.0077170767 -0.73942614
000090 32 11 e3 3e 10 d6 2e 3f 13 b8 3d 3f e1 02 c4 3e
       0.44349056 0.68295383 0.74109 0.38283446
0000a0 13 83 9c be 60 74 37 be dc 1e 87 3e df 46 c8 bd
       -0.30568752 -0.17915487 0.2639073 -0.097791426
0000b0 07 ca 21 be 22 19 28 3d 28 07 6c 3c 69 4f f9 3d
       -0.15799724 0.041039594 0.014406003 0.121733494
0000c0 31 24 5f 3d fc 62 38 3e f4 2d 67 3d 74 6f 27 be
       0.054477874 0.1800651 0.05644031 -0.1635111
0000d0 41 40 2a bf 3c 32 38 bf 5e 5f ea be f2 eb 06 3f
       -0.66504294 -0.7195165 -0.45775884 0.52703774
0000e0 26 1e f7 bd b1 80 d9 be 84 d3 1b be 63 61 01 3e
       -0.12066297 -0.42480996 -0.15217406 0.12634806
0000f0 10 20 54 3f 72 9f dd 3e fb dc 1f be a1 3b a6 3c
       0.82861423 0.4328571 -0.15611641 0.020292105
000100 2f c3 0c 3f 3f 3f 51 bf ea d6 49 be c6 1d 64 3e
       0.54985327 -0.8173713 -0.1971089 0.22276983
000110 41 f2 72 be 00 b2 f2 bd 5f bc 69 be 75 5c a4 bd
       -0.23725225 -0.11850357 -0.22825764 -0.08025447
000120 a6 a6 20 bf 16 41 36 bf f4 6f 24 be de 42 05 be
       -0.62754285 -0.71193063 -0.16058332 -0.13013789
000130 75 af 33 3f ef 12 0d 3f 8c 6e d0 3e 36 fc af 3e
       0.701896 0.55107015 0.4070934 0.3437211
000140 66 af 5c bf 64 50 41 3e 7a 4d fe 3d 9a 74 4b 3e
       -0.86205137 0.18878323 0.12417121 0.19868699
000150 95 b6 81 be 08 a9 24 3d e0 87 34 3e 34 42 80 3e
       -0.25334612 0.040200263 0.17629957 0.2505051
000160 85 92 fe 3e 6e 93 df be 4e 4b 8b 3d cc 62 4a be
       0.4972116 -0.43667167 0.068014726 -0.1976425
000170 aa 73 5d 3e 38 c5 09 bf 11 c8 96 be 85 e3 b5 be
       0.21626154 -0.53816557 -0.29449514 -0.35525146
000180 10 5e a6 3e 86 13 e7 3c 2e 93 ae be a1 ad 27 bf
       0.3249364 0.028207552 -0.34096664 -0.6549931
000190 ab ed 01 3f aa 99 2a bf 81 15 4a 3e 45 b5 d4 3e
       0.5075328 -0.6664072 0.19734766 0.41544548
0001a0 82 98 76 bf ba ad 97 bc b0 14 59 3e 28 40 b3 bd
       -0.9632646 -0.018515456 0.21199298 -0.08752471
0001b0 96 c5 9f 3e b4 93 87 3e 6a 71 a0 be 6e 14 93 be
       0.31205434 0.26479876 -0.31336528 -0.28726524
0001c0 fd f0 75 be 1a fa a0 3d 5f 69 41 3e b5 3f 34 bf
       -0.24017711 0.07860203 0.18887852 -0.7040971
0001d0 7b 3f 07 bf d6 22 49 3f 0b 7a 8b 3e d0 7a 90 3c
       -0.5283124 0.7856878 0.2724155 0.017636687
0001e0 eb 15 6c 3d 89 1c b1 3e 5f 8e 68 3e 88 24 a0 3e
       0.05763809 0.34592083 0.2271056 0.3127787
0001f0 51 8d ad be 8b 0f f9 bd 37 0d f9 3d f8 50 ec 39
       -0.33896878 -0.12161168 0.12160724 0.00045073754
000200 f5 68 5d 3d 44 6f c8 3e 35 62 fa bc a0 a5 6f be
       0.054055173 0.3914739 -0.030564407 -0.23403025
000210 b4 40 76 bf de 2f 9a be e2 7f e4 3d 34 18 b3 be
       -0.9619248 -0.30114645 0.11157204 -0.34979403
000220 d1 95 e9 bf a5 f1 21 bf 50 f9 ff 3d 25 50 34 3e
       -1.8248845 -0.63259345 0.124987245 0.17608698
000230 d6 d1 a3 be 30 01 da 3e f7 ed 5b 3e 4c 65 0a 3e
       -0.3199603 0.4257903 0.21477495 0.13515204
000240 6a bc 74 bd ee fe 72 bf 61 f5 13 3e 5d 77 09 3f
       -0.05975 -0.9492024 0.14449073 0.5369776
000250 ad 93 6e be e1 c6 5f bd e3 fa 23 bf 34 2a 5c bf
       -0.23298521 -0.054633025 -0.640547 -0.86001897
000260 fd 83 8f be e2 0e 5a 3e 86 9b 21 be 93 bd a1 be
       -0.28030387 0.2129474 -0.15781984 -0.31589946
000270 3a 69 0f 3f ca 64 52 bd 5a 86 4b be fb 70 83 be
       0.5601994 -0.05136565 -0.1987547 -0.25672135
000280 80 59 29 bf d3 ea a3 3e f4 ce 9d 3e 68 b9 d8 3e
       -0.6615219 0.32015094 0.30821955 0.42328954
000290 75 46 c2 bc d9 27 80 be 91 3f 0a bf a2 14 ae be
       -0.023715237 -0.250304 -0.54003245 -0.34000117
0002a0 88 67 91 bd d9 66 8d bf 91 ae 30 bf fb ed 49 bd
       -0.07099825 -1.1047012 -0.6901637 -0.04929922
0002b0 fd fa d3 bd 17 4c 92 be cf 3f 29 bd d5 5d 1e be
       -0.103506066 -0.28573677 -0.04132062 -0.15465482
0002c0 ac 72 ad be e2 d9 89 be bb b1 d3 3e 79 56 2c 3f
       -0.3387655 -0.26924044 0.41346535 0.67319447
0002d0 fb 10 18 3e 1d 02 32 3f 55 24 04 bf 15 31 3a 3d
       0.14850228 0.69534475 -0.5161794 0.045456965
0002e0 1f b0 89 bd 34 ff f7 3e d7 89 1b bf c4 2c 9a be
       -0.067230456 0.48436892 -0.607572 -0.30112278
0002f0 18 51 a6 3c 10 12 bb be d7 95 03 3f e2 84 51 3e
       0.02030234 -0.36537218 0.5140051 0.20460847
000300 a2 c8 80 be 4f 2a ba 3e 73 b1 b9 3b c0 35 8f 3d
       -0.2515307 0.36360404 0.0056669055 0.06992674
000310 7f 05 d4 be b5 97 f1 3e 85 20 41 be a5 79 89 be
       -0.41410443 0.47186056 -0.18860061 -0.2685062
000320 ba f6 5f be 21 cf 18 3d be ca 48 3e 34 ac b5 be
       -0.21871462 0.03730691 0.1960859 -0.35482943
000330 39 da a9 3d db 66 e9 3e 48 e6 ef 3e 10 44 dc be
       0.08293576 0.45586285 0.46855378 -0.43020678
000340 a7 21 7d 3f b1 d3 d1 3e 65 b5 43 3d f8 5c ad 3a
       0.98879474 0.4098182 0.047780413 0.0013226559
000350 ea 39 44 bf a9 92 40 be 36 fd ce ba 57 42 00 3f
       -0.7665087 -0.18805946 -0.0015792015 0.50101227
000360 75 31 04 bd 5b 34 42 bf fa f7 5f bd b2 81 0d 3f
       -0.03227373 -0.7586114 -0.05467985 0.55276024
000370 d8 81 07 3d 5b a6 49 bd f6 d6 79 3e 64 0b 1d be
       0.033082813 -0.049230915 0.24398407 -0.15336376
000380 47 77 0b be 2b c3 a4 bd f7 95 a5 bf 3a 51 0d bf
       -0.1361972 -0.08045038 -1.2936391 -0.55202067
000390 a2 bf 75 3f 4b 76 52 3f 9c 05 e1 be 57 d6 99 be
       0.95995533 0.8221175 -0.43949592 -0.3004634
0003a0 6c 3b 45 3d 5a 13 34 3f ab 2d 22 3f 51 e0 b3 3e
       0.048152372 0.7034203 0.63350934 0.35132077
0003b0 5e 4c b1 be b4 95 69 3e f6 d8 f2 bc 2b 89 bf be
       -0.34628576 0.22811013 -0.02964447 -0.37409338
0003c0 81 f2 f2 3c 11 01 d6 3e 5d 9a 48 bf d4 58 72 bf
       0.02965665 0.4179769 -0.7836054 -0.9466679
0003d0 11 48 d9 3e ad 66 35 3e b8 f8 ad 3e 64 b3 38 be
       0.42437795 0.17714949 0.3397882 -0.18037182
0003e0 94 0b 6a 3e 62 0a c3 3e 8a 64 d3 be 87 0c f3 3e
       0.22855979 0.3809386 -0.41287643 0.47470495
0003f0 6a 56 d8 3e 34 56 e9 3e f0 ed da 3e 0c 7e ad 3e
       0.4225343 0.4557358 0.42759657 0.3388523

fc1.bias f4 [120]
000000 5e 10 37 be da bd 21 be d6 f2 42 bf 9f 4b 05 be
       -0.17877337 -0.15795079 -0.7615179 -0.13017128
000010 9c a8 c7 3b b8 27 3f bd 6f 3a c4 be 33 82 f0 be
       0.006093098 -0.046668738 -0.3832583 -0.46974334
000020 ef 4a 39 3e fd ad 83 bf af 3c 6d 3e 6f 3e ed be
       0.18094991 -1.0287472 0.2316768 -0.46336696
000030 eb d9 1e bc e7 ac 4f bf 52 09 98 bd 45 50 b3 bd
       -0.00969551 -0.81123203 -0.07423653 -0.087555446
000040 6d 9f 02 bf 9c 7c 0a be 66 95 0c bf fc 75 2e be
       -0.51024514 -0.13524097 -0.54915464 -0.17037195
000050 bd 4b 17 bf 49 d4 a6 bd 60 db a4 be b3 99 98 3c
       -0.5909994 -0.08145959 -0.3219862 0.018627977
000060 f1 7e 4e be e4 6c b3 bd 18 a1 5d bd 3e c4 c5 bd
       -0.20165612 -0.087610036 -0.05410871 -0.09656571
000070 67 c9 31 3e 3d 31 82 3c 70 40 03 bf 42 37 a7 3d
       0.17361985 0.01589262 -0.512702 0.081648365
000080 02 cc 31 bf f1 66 b4 be 46 fe ec 3d 83 62 14 bf
       -0.69451916 -0.35234788 0.11571936 -0.57962817
000090 a5 19 ae be ae dc 6f bd 22 9f 94 bd 5f ff b8 be
       -0.3400394 -0.058560066 -0.07256915 -0.36132333
0000a0 84 da 34 be 3c c2 63 bf 2a e1 6e bd 36 f7 7f be
       -0.17661482 -0.88968253 -0.058320202 -0.24996647
0000b0 40 a3 f4 bc ad da 8f bf 60 9b 72 be 56 25 38 bf
       -0.029863 -1.123861 -0.23692083 -0.7193197
0000c0 24 7b 01 3e 8c bd 6e 3d ec 1c 5c 3e fc 2f a8 3e
       0.1264463 0.058286235 0.21495408 0.3284911
0000d0 e3 ad 83 bf 94 77 51 3d 91 61 84 be 33 90 9e bd
       -1.0287441 0.05113943 -0.25855687 -0.077423476
0000e0 eb a7 a0 be 72 c1 28 be 87 16 21 3d f9 c2 8a be
       -0.3137811 -0.16480044 0.039328124 -0.27101877
0000f0 eb 5a f1 be e1 c0 d3 bd e6 e5 bb be f9 27 70 bf
       -0.47139677 -0.10339523 -0.36698836 -0.93810993
000100 d5 52 8a be 4c f2 0e 3c 68 db 36 bf ed ec cd 3d
       -0.2701632 0.00872476 -0.7142854 0.10054956
000110 36 75 20 be 2f 61 05 bf a9 4a 24 bc f5 c1 8f bc
       -0.15669712 -0.52101415 -0.010027566 -0.01754854
000120 6f 64 37 be 64 6a ac bf 1b 3a 90 bd 39 78 07 bf
       -0.17909406 -1.3469968 -0.07042333 -0.5291782
000130 ec e3 84 be d9 03 09 bf e7 76 73 bf c3 b2 61 bd
       -0.2595514 -0.53521496 -0.95103306 -0.05510212
000140 64 67 25 be b0 37 5b bf a6 9d 0d bf 6c fd a5 be
       -0.16152722 -0.8563185 -0.5531868 -0.32419908
000150 90 8b f7 bd c4 3b 39 be 50 99 0b bf b6 c0 5e 3c
       -0.12087166 -0.18089205 -0.5453081 0.013595751
000160 84 bd d2 3d 44 a8 0e bf a9 b3 cc be 9a 31 b0 be
       0.102900535 -0.557255 -0.3998082 -0.34412843
000170 b6 0b 16 3e 78 96 48 bf 31 9d 54 bf dd 5d 54 3e
       0.14652905 -0.783546 -0.83052355 0.20738931
000180 e9 00 f6 bd c4 d7 83 bc 65 5c 9a be 6a 4c 8e bf
       -0.12011892 -0.016094096 -0.30148616 -1.111707
000190 67 13 1e 3c b6 79 15 be 2c ee ec be d0 0f 83 bd
       0.009648181 -0.1459721 -0.4627546 -0.063995
0001a0 50 29 36 be f8 7a c8 be 64 67 2b bf 8e 07 e5 bd
       -0.17789197 -0.39156318 -0.66954637 -0.111830816
0001b0 cc 03 1d bf d7 13 8f bd f1 71 ba be 3f 9d 8d 3d
       -0.6133392 -0.06986206 -0.36415055 0.06914758
0001c0 77 01 c4 3c 60 c4 52 bc b1 34 cf bb fe b7 7f be
       0.02392648 -0.012864202 -0.00632342 -0.24972531
0001d0 4d 14 24 3e 53 e9 e2 3b 1e 83 ff be d5 f4 27 bd
       0.16023369 0.006924787 -0.49904722 -0.041004974

fc2.weight f4 [84, 120]
000000 64 a1 c9 3d 0b 7b c1 be ef e6 e8 bc 61 0a 07 bf
       0.09845236 -0.37789187 -0.02843043 -0.5275021
000010 15 1e a4 3d 12 1b ab be bb 24 d0 3e 84 d0 4c 3e
       0.0801355 -0.3341909 0.40653023 0.20001417
000020 f9 ac 63 3e 0e 39 a2 3e 19 46 72 3d c7 b0 d4 3e
       0.22233953 0.31684154 0.05914888 0.4154112
000030 11 e1 83 bd f9 a5 f6 3e 41 7e 1d bd c0 9f 50 3c
       -0.064394124 0.48173502 -0.038450483 0.0127334
000040 69 0b 18 3f 47 e5 37 bb f4 1d e7 be 83 6b 17 bf
       0.5939241 -0.0028060244 -0.4514004 -0.59148425
000050 a4 7c 21 bf 7e 26 ca 3c 55 1c 33 3e af c6 dc bc
       -0.6308081 0.024676558 0.17491277 -0.026950208
000060 c3 59 3a bf a4 5c 53 3d 61 e7 b1 3d ce ab 5d bd
       -0.72793216 0.05160202 0.0868671 -0.054118924
000070 36 d1 db be bc 5d c3 3c 27 b2 3f 3e 8e 01 04 3d
       -0.42933053 0.023848407 0.18720303 0.032228045
000080 67 46 cc be b9 e3 a9 be 81 63 8c 3e 12 09 51 be
       -0.39897463 -0.3318155 0.27419665 -0.20413616
000090 1c 37 1a be 07 e8 41 bc e4 39 cd be 40 e1 88 3e
       -0.15060085 -0.011835105 -0.4008323 0.26734352
0000a0 0a 5e db 3c 69 d4 12 3f be 7f 94 3c 41 33 c0 3d
       0.02677824 0.5735536 0.018127318 0.09384776
0000b0 92 8d 2f be c3 f1 61 be 90 d5 74 be 62 9f fa 3e
       -0.17143849 -0.22064881 -0.23909593 0.48949724
0000c0 86 44 81 3c 28 c9 19 bf c9 a0 23 3e 48 40 56 bf
       0.015779745 -0.60072565 0.15979303 -0.83691835
0000d0 cf 9a 13 bf 6f 3a 3d bf 6e e5 88 be 1b eb 52 3d
       -0.57658094 -0.7391729 -0.2673754 0.051493745
0000e0 4d cc 9e be 94 2c 06 bd d2 35 85 3e dd 63 e2 be
       -0.31015244 -0.032757357 0.26017624 -0.44216815
0000f0 65 25 ab 3e fd d1 52 3d 7e a2 50 be 5e 67 47 be
       0.33426967 0.05146979 -0.20374486 -0.19473025
000100 14 b9 30 3f 83 9b 91 3e b4 bf 4e 3d d6 14 00 be
       0.69032407 0.2843896 0.05047579 -0.12507948
000110 e6 d3 89 3d dc 1f 54 bf f4 97 f3 3c f3 c3 6b bd
       0.067298695 -0.82861114 0.029735543 -0.05755992
000120 ee 89 08 bf 6a 3e d7 3e 6e e8 06 3e f8 25 15 3f
       -0.53335464 0.42039806 0.13174602 0.5826106
000130 97 9b 4f bf 9b 06 fe be 4f b1 82 bd 5a 43 82 be
       -0.81096786 -0.49614415 -0.06381475 -0.2544201
000140 49 5a 08 bf bd 1a 49 3d 97 62 0b be 1b 29 97 3e
       -0.53262764 0.049097765 -0.13611828 0.29523548
000150 e6 e4 2c 3e fc 0d 37 bd ba 64 20 3d 79 07 f3 3e
       0.16884193 -0.04469107 0.03915856 0.4746664
000160 90 71 a2 be 66 db b6 b9 4a 87 46 3b c2 f7 2f 3f
       -0.31727266 -0.0003487721 0.003029304 0.68737423
000170 aa 23 95 be c4 c9 5b 3e ed 65 35 be 55 ee 09 3e
       -0.29128772 0.21463686 -0.17714663 0.13469823
000180 32 b8 60 3d a2 ce 15 bf 31 7e 85 3e ae 6d 9c 3d
       0.054863162 -0.5851842 0.2607284 0.07638107
000190 45 af b8 3e 5b 0b 9d bd 3a cc ca bd af 31 8d 3e
       0.3607122 -0.076681815 -0.099022344 0.27576968
0001a0 1b 7f 04 3f 8a 68 25 3f 97 57 af bb 2a 76 90 bd
       0.5175645 0.6461264 -0.0053510177 -0.07053788
0001b0 96 6b b8 3e 80 d0 73 3d cb b0 81 be 68 15 cc 3d
       0.36019582 0.059525013 -0.25330195 0.099650204
0001c0 73 5d a0 3d 28 77 7c bc e1 6c 1a bf fa 13 74 3e
       0.07830324 -0.015409268 -0.60322386 0.23835745
0001d0 bb de 77 bd 06 95 38 bd 96 90 90 be 33 ce 5c be
       -0.060515147 -0.045063995 -0.2823531 -0.21563034
0001e0 1d 4c 19 bd 5d bb f4 be ea 69 32 bc ce e5 7b be
       -0.037426103 -0.47799197 -0.01088951 -0.24599382
0001f0 04 8f f5 be 66 75 06 3f 68 2b 67 be 24 15 f5 3e
       -0.47960675 0.52522886 -0.22575152 0.47867692
000200 d1 20 fa 3e 63 af 10 3e a4 1c 28 bf 86 6c 77 3e
       0.48853162 0.14129405 -0.656687 0.24162492
000210 10 64 64 3c 9d 29 6a bb 45 17 d1 3c ce 09 39 bd
       0.013939872 -0.003573037 0.025523791 -0.045175366
000220 7f 51 0c be 0f 95 69 3e 3d 01 bf 3e 95 31 27 3e
       -0.13702963 0.22810768 0.37305632 0.16327508
000230 2c 74 82 3e 79 89 30 bd 31 a9 c6 3e 72 19 87 3d
       0.25479257 -0.043099854 0.38800958 0.0659665
000240 a1 d9 91 3e ec 33 71 bd b1 ae bd bd 42 4d f9 bc
       0.2848635 -0.058887407 -0.09261835 -0.030432347
000250 66 de 00 3e 36 e2 48 bd 8f b8 82 be 1a ca 48 3e
       0.12584838 -0.049043857 -0.25531432 0.19608346
000260 f8 0b ad 3e 55 30 d0 3d 6b a6 e9 be 84 6a 18 3f
       0.33798194 0.101654686 -0.4563478 0.5953753
000270 90 25 72 bf b5 b8 35 bd 20 a2 10 be f9 a3 ab be
       -0.94588566 -0.044365603 -0.14124346 -0.3352354
000280 8e 39 b4 be 1f 10 7b 3e dd 08 28 3d ff e1 0a 3e
       -0.3520016 0.24517868 0.041024078 0.13562773
000290 71 9e 16 bc 82 34 29 3f ee 74 19 bf 40 fb 25 3e
       -0.009193049 0.66095746 -0.59944046 0.16209126
0002a0 25 4f ae 3e c2 d9 22 3d b6 a4 b8 3d cf 19 29 3b
       0.34044757 0.03975845 0.09015791 0.0025802737
0002b0 e0 57 10 bf fc 01 2d be 6d 01 85 be cd 69 e0 ba
       -0.56384087 -0.16895288 -0.2597765 -0.0017121375
0002c0 d5 4b af be e4 47 69 3e d4 e2 e6 bd de 2b 97 3d
       -0.34237543 0.2278133 -0.11273733 0.07381414
0002d0 19 ba 63 bf f5 7d 54 bd 69 3a 9c 3e 56 7f 6f 3e
       -0.8895584 -0.051877934 0.30513313 0.23388419
0002e0 f3 5e 5f be cb eb 97 3d 7e a5 10 3e ae b0 aa 3e
       -0.21813564 0.07418021 0.1412563 0.3333792
0002f0 01 88 68 be 3a 05 39 bc d5 e7 cd 3d 9c bf 8a 3c
       -0.22708131 -0.01129275 0.10053984 0.01693707
000300 51 50 ca bb ed 7d ee bd 37 88 0e be 9f b7 ad 3e
       -0.0061741252 -0.11645112 -0.1391915 0.33929154
000310 e5 78 0f 3f 2a 0c ec be be bc 86 3e 37 c1 c6 be
       0.56043845 -0.4610303 0.26315874 -0.38819286
000320 2a d0 3a bd e1 a3 a0 b8 75 31 8a 3e 5f 58 84 3e
       -0.045608677 -7.659919e-05 0.26990858 0.25848672
000330 0c 99 47 3e 6b bd 06 bf 34 fc e5 3e 50 d7 5d be
       0.19491976 -0.5263278 0.44918978 -0.21664166
000340 80 d4 3f be e0 25 96 3e 02 42 8e be d1 ff 83 3e
       -0.18733406 0.2932577 -0.27784735 0.2578111
000350 2e 33 b4 be 74 08 ea 3e a6 6b 2a 3f 0b 1c 1b be
       -0.35195297 0.45709574 0.6657051 -0.15147416
000360 b5 f8 bd bc 35 7b 2e 3e 95 45 e9 be fa da f5 3d
       -0.023189882 0.17039187 -0.455609 0.12004657
000370 fa 08 3e 3d 0a 59 12 3e c4 fb 05 3d 04 e1 a8 be
       0.04639528 0.14291778 0.032710806 -0.32984173
000380 8a 4a 3e 3f ae 21 3b bf 5f 7a 35 3d fc 05 81 3d
       0.7433249 -0.73098266 0.044306155 0.062999696
000390 91 0a e8 3d 20 af 7c bc b2 4a 26 3d 2c b3 8d be
       0.113301404 -0.015422612 0.04059858 -0.2767576
0003a0 5a f8 12 bd ed b2 4f bd 83 62 22 3d 56 b1 90 3e
       -0.035881378 -0.050707746 0.03964473 0.28260297
0003b0 c1 f6 e4 bd ef ec ef 3b 39 c9 96 3e ef 12 00 3f
       -0.11179877 0.007321946 0.29450396 0.5002889
0003c0 c1 38 17 3f 6a 93 59 3e c6 d3 67 be ff 77 e6 be
       0.59070975 0.2124764 -0.22639379 -0.45013425
0003d0 5f 85 40 3e d8 b3 7d be 9e 30 4f 3f 1c 76 1f bf
       0.18800877 -0.24775636 0.8093356 -0.62289596
0003e0 b8 d5 03 bf 2c a3 04 3f 63 69 5a bf 93 2a 02 3e
       -0.51497984 0.5181148 -0.8531706 0.12711553
0003f0 4a da 68 bd 85 83 76 3e de 70 a0 3c af f3 76 3a
       -0.0568488 0.24073608 0.01958507 0.0009420467

fc2.bias f4 [84]
000000 ac 3e c0 be a7 6d e9 be 4d 72 8a bf 1f 4d 01 bd
       -0.37547815 -0.4559147 -1.0816132 -0.03156769
000010 50 09 0a bf 2a ac 3f bf 53 86 29 bf fd 64 51 be
       -0.5392046 -0.74872077 -0.6622059 -0.2044868
000020 c6 ba 04 bf 81 ca 94 be d5 8f 1c bf 0b f0 39 bf
       -0.51847494 -0.29060748 -0.6115697 -0.726319
000030 fe c0 b3 bd 48 9c e5 be 12 44 ec be c3 72 c5 3c
       -0.08777045 -0.44845796 -0.46145684 0.024102574
000040 42 cd 0a bf e9 9a 11 bf 71 23 4d bf 48 2f 98 bd
       -0.5421945 -0.56877 -0.80132204 -0.07430893
000050 00 a8 dd be 65 69 d4 be ff 98 49 bf 34 32 0a be
       -0.43292236 -0.4148666 -0.7874908 -0.13495713
000060 72 4a 03 bf 5a d6 b2 be ae 19 a6 be f7 c7 25 bf
       -0.5128547 -0.34929162 -0.32441467 -0.6475825
000070 1b a4 b4 be 5d 41 f5 3c 09 e4 0c bf 1f 6f b8 be
       -0.35281453 0.029938394 -0.55035454 -0.3602228
000080 d5 38 8f be 5d c3 8e bf 5b 4e 5b bf c7 f6 98 bd
       -0.27973047 -1.115337 -0.85666436 -0.07468944
000090 c3 52 ee bd 65 2f 08 be d3 ac 8e be 1c aa 03 bf
       -0.11636879 -0.1329933 -0.2786623 -0.5143144
0000a0 bc e1 01 be 3f 01 27 bf 9f ed aa be de ee 1d bf
       -0.12683767 -0.65236276 -0.33384416 -0.6169261
0000b0 ad 46 ab be c4 84 8e be c1 a2 e2 be 35 65 1c bf
       -0.3345236 -0.27835667 -0.44264796 -0.6109193
0000c0 2a 58 30 3e b1 29 b6 bd 7f c2 de be 1f 7f 13 bf
       0.17221132 -0.08894671 -0.43507764 -0.57615846
0000d0 cf 6c fa be 21 e4 ee be 2a c1 a1 be 32 ea 18 bf
       -0.4891114 -0.46658424 -0.31592685 -0.59732354
0000e0 f8 64 00 bf a8 10 0b bf 15 e1 82 be b9 17 5e bf
       -0.50154066 -0.5432229 -0.2556235 -0.8675495
0000f0 f8 12 5e bf 8e 8e ba be 6d 53 cd be f7 76 e3 be
       -0.86747694 -0.36436886 -0.4010271 -0.444267
000100 14 21 20 bf ad 4d 69 bf 54 c1 62 bf 8d b8 17 bf
       -0.62550473 -0.9113415 -0.88576245 -0.5926598
000110 5e 81 51 bf 5b 11 52 bf e5 97 be be 59 33 3d bf
       -0.81838024 -0.8205773 -0.3722526 -0.73906475
000120 d8 d5 74 bf 93 7f b4 be 9e 67 7a be b4 f7 5a be
       -0.956388 -0.3525358 -0.2445359 -0.21383554
000130 ac 95 21 3e 9b 09 6a 3c 19 87 11 be 6d d7 87 3b
       0.15779752 0.014284517 -0.14211692 0.004145554
000140 85 56 40 bf cf 79 aa be 50 bd 24 3e be b5 0d bf
       -0.7513202 -0.33296058 0.16087842 -0.5535544

fc3.weight f4 [10, 84]
000000 b8 9c 52 bf 8c 7b f0 be d8 82 38 bf 87 88 74 bf
       -0.82270384 -0.4696926 -0.7207465 -0.95520824
000010 50 84 ea be 40 76 5d bf ff c2 71 be c3 07 53 bf
       -0.4580407 -0.8650856 -0.23609541 -0.8243372
000020 61 a9 41 bf 8b b6 78 be 67 c0 0c bf d8 23 7b bf
       -0.75649077 -0.24288385 -0.5498108 -0.9810157
000030 de c5 35 bf 74 e1 95 bf 34 c4 bd bf f7 c9 52 bf
       -0.71005046 -1.1709428 -1.4825501 -0.82339424
000040 09 63 34 bf 07 03 b6 be ad 01 97 bc cf 01 2b bd
       -0.70463616 -0.35549185 -0.018433416 -0.04174977
000050 0a 09 07 3e cd 18 01 bf 5f 62 c1 bd cd b7 98 bf
       0.13187042 -0.5042847 -0.09442591 -1.1931092
000060 61 84 62 bf cb a5 ca be ae c1 4b bf ee 3a 2a be
       -0.88483244 -0.39579615 -0.79592407 -0.16624042
000070 a3 5f 1b bf f1 df 8e bf db 7e 15 3e fd 69 cb bf
       -0.60692805 -1.1162091 0.14599173 -1.589172
000080 fc ba 3e bf 67 71 8d be 62 c1 10 bd 2a 08 1d be
       -0.74504066 -0.27625582 -0.035340674 -0.15335146
000090 3d 6b a9 be 5b 6b 8c bf 47 21 5e bf 13 dd ee be
       -0.3308963 -1.0970262 -0.8676953 -0.4665304
0000a0 c4 5a eb be 9b 83 5c bf f7 98 c9 3b a4 3f ba 3d
       -0.45967686 -0.86138314 0.006152268 0.0909417
0000b0 fb 1b 69 bf a1 77 9a bf 2b 2b 5c bf 9d 95 1d 3d
       -0.9105832 -1.2067758 -0.8600337 0.03847276
0000c0 76 ab 97 bf 43 11 96 be 2d 6a 2b bd a5 2a 73 bf
       -1.1849201 -0.29310045 -0.041849304 -0.94986945
0000d0 0c fa 40 bf 48 ac 85 bd 9c 1c be bf 53 1d c3 3d
       -0.7538154 -0.06527001 -1.4852481 0.095270775
0000e0 71 77 8d bf 78 6c a8 bf e1 4c aa bc 3c b3 80 be
       -1.1052076 -1.3158102 -0.020788612 -0.25136745
0000f0 9d 40 31 bf 21 ff 1b 3d ee 4e a6 be a2 42 07 3e
       -0.6923922 0.038085107 -0.32482094 0.13209012
000100 fc 98 90 bf 3d b2 9b bf 50 c1 da 3d 95 fb 9b bf
       -1.1296687 -1.2163769 0.10681403 -1.2186152
000110 08 8a 60 bf dc fb 97 be ea 2d 9b be c5 c9 02 be
       -0.8771062 -0.2968434 -0.30308467 -0.12772281
000120 10 64 84 be 84 61 bc 3d ab 17 ee 3c ca d3 8b 3d
       -0.25857592 0.09198287 0.02906402 0.06827505
000130 91 02 78 bf 23 e1 dc be 67 f0 54 bc a5 2c 1b bd
       -0.96878916 -0.43140516 -0.0129967695 -0.037884373
000140 57 f0 4a bf 91 43 f9 3d 78 25 a8 bf 13 1f eb 3d
       -0.7927298 0.121710904 -1.3136435 0.11480536
000150 77 06 a0 3a 45 5a 68 bf 66 c6 c4 3c ce 0e bc bd
       0.0012208958 -0.9076274 0.024020385 -0.09182511
000160 3e a6 42 bf 03 c0 48 be 68 6f 52 3d 81 72 52 bf
       -0.76034915 -0.19604497 0.051375777 -0.8220597
000170 84 f4 18 bf 8a d2 69 bf 6e 23 4d 3d 20 4a 4d be
       -0.597481 -0.9133688 0.050082617 -0.20047808
000180 0f 9f 95 bf f4 82 f5 be e8 38 0f bf 81 34 1e 3c
       -1.1689166 -0.47951472 -0.5594621 0.009656073
000190 8a 6d e8 3d a7 7b 61 be 02 07 6a bf 43 99 97 bd
       0.11349018 -0.22019826 -0.91416943 -0.07402279
0001a0 fc f2 60 bf d5 65 0c bf f1 7e 5f bf 5d 7a 10 be
       -0.87870765 -0.54842883 -0.8730307 -0.14109178
0001b0 64 24 af bc 3f 95 79 bf 8f f5 9c be 26 41 a8 bf
       -0.021379657 -0.97493356 -0.30656096 -1.3144882
0001c0 0c b9 84 bf 2b 79 7b bf 55 fd 21 bb 20 81 8b bf
       -1.0368972 -0.9823176 -0.0024717648 -1.0898781
0001d0 06 68 12 bf 31 25 5b bf 68 17 20 bf fe f8 a8 bf
       -0.5718998 -0.85603625 -0.62535715 -1.3200986
0001e0 a9 64 a4 bf a7 c1 84 bf 4e e2 28 bf 3e 2b 9d bf
       -1.2843219 -1.0371598 -0.65970314 -1.2278821
0001f0 ea 68 29 bf 99 00 97 3d 0b ed 37 bf d0 8a e9 bc
       -0.6617571 0.07373161 -0.71846074 -0.028508574
000200 5f b4 4e bf 02 ff cd bd 2a 4e 43 be a9 81 58 bf
       -0.80743974 -0.100584045 -0.19072786 -0.84572846
000210 34 fe aa bf d0 70 af bd 04 9d ba bf 99 bb 74 be
       -1.3358827 -0.08566439 -1.4579167 -0.23899688
000220 95 f3 0b bf 6c 39 eb be 62 d6 c4 bf 11 da 59 bf
       -0.5466855 -0.45942247 -1.5377924 -0.8509837
000230 f1 21 6c bf 6f e7 f1 bc 9a c4 cb be 5b 4b 9f bf
       -0.9223929 -0.029529301 -0.39798433 -1.2444872
000240 8f f0 5e bf 56 30 7f bf 62 97 39 bf e9 ca b7 bd
       -0.87085813 -0.9968313 -0.72496617 -0.08974249
000250 cf 60 a1 be 4f 2b 6b bf 24 3e a8 bf 96 b4 8c bb
       -0.31519172 -0.9186296 -1.3143964 -0.0042939885
000260 63 0f 8c 3d 91 56 06 bf 39 82 cd bf 2d 4d 2a bf
       0.06838872 -0.5247584 -1.6055366 -0.6652401
000270 f9 78 b0 be cc 6e 75 bf 6c f6 04 3e ed 92 e9 bd
       -0.34467295 -0.9587219 0.12984627 -0.11404977
000280 b7 60 34 bf 6c 10 d5 bf 49 60 0c 3d bb a7 3e bf
       -0.70460075 -1.6645637 0.034271512 -0.74474686
000290 2d 8a 41 bf 3e 19 21 bf 4d b2 6d bf 43 0f 0c bf
       -0.75601465 -0.6292914 -0.9285019 -0.5471079
0002a0 da 68 a7 be ae a4 21 bf 5a 5e b5 be ea d0 da bd
       -0.32697183 -0.63141906 -0.35423547 -0.106843784
0002b0 b7 ed ce be 46 53 8e be 41 3f 48 bc ba ea be bd
       -0.40415737 -0.27797908 -0.012222112 -0.09322114
0002c0 f1 33 07 bf b1 03 5e bd d0 77 ae 3d cd e5 78 bf
       -0.5281363 -0.05420274 0.08518946 -0.9722565
0002d0 83 e4 20 bf 99 95 bc bf 59 07 88 be df b9 65 bb
       -0.6284868 -1.4733154 -0.26568106 -0.0035053415
0002e0 4c cf 0b be 3d 4c 51 bf 95 80 16 be ec 25 94 bf
       -0.13653296 -0.81756955 -0.14697488 -1.1574073
0002f0 ab ad 7f bf 8a f6 8f be d8 9e 4e bf f2 8c 69 bf
       -0.9987437 -0.28117782 -0.80711126 -0.9123069
000300 27 65 a6 be 24 17 2d bf 66 8d f7 3d 4b fb 1d bf
       -0.32499048 -0.67613435 0.120875165 -0.6171157
000310 de 3f a5 3e 14 85 c8 bf 61 4e 91 3c 83 cd f3 3c
       0.3227529 -1.5665612 0.01773757 0.029761082
000320 89 f7 74 bf 8a 81 46 be b1 29 3a 3e f1 81 ef bd
       -0.9569021 -0.19385353 0.18179967 -0.11694706
000330 b6 42 81 bf 91 be c2 be 38 3c 2d bf e6 b4 85 bf
       -1.0098484 -0.38036016 -0.6767001 -1.0445831
000340 77 ea c0 bf cc 85 31 bf e7 74 fd 3d 03 37 00 be
       -1.5071553 -0.6934478 0.12375813 -0.12520985
000350 df ec 17 bf 7e 14 e0 be 4e 15 94 bf 13 f5 90 3d
       -0.5934581 -0.43765634 -1.1569002 0.07077994
000360 7d 7d 1c bf 63 0b 84 bf a5 c2 55 bf 63 b9 d6 bd
       -0.6112898 -1.0315975 -0.8350013 -0.104845785
000370 a4 e8 41 bf 34 6c dd be d8 d2 c9 be 48 2e 75 bf
       -0.75745606 -0.43246615 -0.39418674 -0.95773745
000380 2e 65 33 be 33 a3 30 bf fa 51 67 bf e6 36 16 be
       -0.17519066 -0.6899902 -0.9035946 -0.1466938
000390 8b 36 33 3e 33 44 03 bf 7c a6 4e bf de 2f 74 bf
       0.17501275 -0.5127594 -0.80722785 -0.9538554
0003a0 0e d6 57 bf 98 82 b7 be a4 ec f6 bd 79 6a 5f 3d
       -0.84310997 -0.35841823 -0.12056854 0.0545449
0003b0 12 54 a3 bf a7 66 f9 bd 42 c9 bc be cc 20 b8 bf
       -1.2760031 -0.121777825 -0.36872298 -1.4385009
0003c0 ab 93 c0 be 07 e7 eb bd 49 ac dd bf 88 83 35 bf
       -0.37612662 -0.11518674 -1.7318202 -0.70903826
0003d0 ae de 9d be f9 e4 43 3e 16 c9 07 3d 83 8d b5 bf
       -0.30833954 0.19130315 0.033150755 -1.4183811
0003e0 2b 67 cf bf 88 f0 7f bf af 20 8d bf 6b 22 df be
       -1.6203359 -0.99976397 -1.1025599 -0.43580946
0003f0 85 6f 6d bc 79 fc 06 bf 43 79 de 3d 29 c3 9e be
       -0.01449192 -0.5272899 0.108629726 -0.3100827

fc3.bias f4 [10]
000000 b1 a0 fc be 77 c2 9b bd 51 3b 42 be 7b 40 89 3c
       -0.49341348 -0.076054506 -0.1896794 0.01675438
000010 f6 f3 e4 bc 1e 74 d8 be 51 b8 ee bd 31 46 7c be
       -0.02794836 -0.4227609 -0.11656249 -0.24636151
000020 0a 1a cc 3e 98 dd 0c 3e
       0.39863616 0.13756406
