mnist/saved_models/model_epoch_30.pth (torch, 181338 bytes, 10 tensors)

conv1.weight f4 [6, 1, 5, 5]
00000000: 6a5c 6abe fcf2 393e 7ea9 313d babf bc3e
00000010: 64f3 353d 4d6b 643e 4edb 033f 0ec7 723e
00000020: c1e2 013e 243f 603e afb5 1e3e c530 cb3d
00000030: 03dc 2fbe 2f0b a4bd 41e2 b4bd f551 bdbd
00000040: 1774 8fbe a16a 51be 3090 8cbe ada8 89be
00000050: 2c1c ebbd f8bd 9ebc 536a 47bd 32f2 343e
00000060: ff87 5fbe ddd4 84be 01fa 5b3d e132 e73e
00000070: 81a7 34be fb84 39be f29d c6be f497 ea3d
00000080: 9866 283f 4e88 d43d e21e f03c d173 91be
00000090: 1353 b7be b2fc a43e 6b14 9c3e 1ac1 3c3d
000000a0: 3013 bc3c e8f3 0cbf c068 22be 9432 8ebe
000000b0: 9e17 56bd 4e2c c03e 0c7c a13c ef21 313e
000000c0: 2051 ac3d 61ea 503e 733d c5bd 74e1 2fbe
000000d0: dbae 29be 69bf bdbc ab6c aabe c305 f7bd
000000e0: 921f d4bd 8aeb 533e 6f7e d03e b649 0ebe
000000f0: 9bcf 613e 21e0 053e 49c8 eb3e ee43 1f3f
00000100: cd25 7cbd dc40 b5bd 14c9 02bf ae2c 55be
00000110: 8ec4 a83e c1f3 543e f9d4 a63c 1015 89be
00000120: 7ad2 debe aa38 9abd 0d1b 8b3e 2da9 41bd
00000130: 5f92 cb3d e747 ccbc c4a9 e7bc 1e75 8f3d
00000140: 033a e43d bb31 2c3d 8afe 9abd bd54 093d
00000150: a4dc 873e 9ce8 473d 9ff5 ffbd 8f13 9abe
00000160: e5d7 89bd 5f6b 843e fad4 12be 05a6 08be
00000170: 83d8 09be cd1f fe3e 709b c13e 1e29 75be
00000180: 77de b13c 7eb9 303e 8dc1 8c3d 7a1e f83d
00000190: 2925 d43d 7a0c 88bb 1f9e 9c3e a9de 0cbd
000001a0: ee75 923e 3b83 4e3c 1ba9 19be cfd8 23bc
000001b0: 2f3b de3d d538 883e dec8 cfbd 69ad 84be
000001c0: 0672 90be 78f0 f2be 238b f6bc 73ab c63e
000001d0: f095 25be 3741 32bf a2f5 82be 4049 fe3d
000001e0: 3a04 b53d c50f e63e 9b86 043f 9e1d e33e
000001f0: 84e9 92bd 507a 683e d531 363e a85f e7bd
00000200: 7f5a 4bbd 3783 b73d 0b2a 3fbe e0d0 533e
00000210: 0701 143e 3496 a5bd cc40 d4bc ccf6 27bd
00000220: cc47 293f 4362 18be e90d 95be 8e27 003e
00000230: 806f 963e 3fe9 bb3e 08f2 1dbf 7f75 173d
00000240: fed3 f73c ce50 4f3e 4a38 adbe c72c 3cbe
00000250: e88c 203d 18d1 ddbb
-0.22886816 0.18159097 0.04337453 0.36865026 0.04442157 0.22306557 0.5150651 0.23708746
0.12684156 0.21899086 0.15498994 0.099214114 -0.17173772 -0.080099456 -0.08832217 -0.09244148
-0.28018257 -0.20450832 -0.27453756 -0.26886502 -0.11479983 -0.019377694 -0.048685383 0.17670515
-0.21829222 -0.25943652 0.05370522 0.45156005 -0.17642023 -0.18117134 -0.38792378 0.11454764
0.65781546 0.103775606 0.029311601 -0.28408673 -0.35805568 0.3222404 0.30484328 0.046082594
0.022958368 -0.5505967 -0.15860271 -0.27772963 -0.052268617 0.37533802 0.01971247 0.17298101
0.08413911 0.20401908 -0.09630861 -0.17175847 -0.16570608 -0.02316256 -0.33286032 -0.12061646
-0.10357584 0.2069532 0.4072146 -0.13895306 0.22051851 0.1307378 0.46051243 0.6221303
-0.061559487 -0.088502616 -0.5108807 -0.20817825 0.3296246 0.2079611 0.020365225 -0.26773882
-0.43519956 -0.07530339 0.27169076 -0.04728048 0.099400274 -0.02493663 -0.028279193 0.0700476
0.11143877 0.042039614 -0.07568081 0.03352808 0.26535523 0.048805818 -0.124980204 -0.30093047
-0.06730632 0.25863168 -0.14339057 -0.13344581 -0.13461499 0.49633637 0.37813902 -0.23941466
0.021712525 0.1725826 0.068728544 0.12115188 0.1035865 -0.004151878 0.30589387 -0.034392033
0.28605598 0.01260453 -0.15005915 -0.010000422 0.10851132 0.2660586 -0.10145734 -0.2591355
-0.28211993 -0.47449088 -0.030095642 0.3880268 -0.16170478 -0.6963076 -0.25578028 0.12416315
0.08838697 0.44933906 0.5176789 0.44358534 -0.07173446 0.22702909 0.17792447 -0.11297542
-0.04964685 0.08960574 -0.18668382 0.20685148 0.14453517 -0.080852896 -0.025909804 -0.04100685
0.6612518 -0.14881234 -0.29112175 0.12515089 0.29381943 0.3670139 -0.61697435 0.036977287
0.030252453 0.20245668 -0.33832008 -0.18376456 0.03919688 -0.0067693107

conv1.bias f4 [6]
00000000: c196 3abe 197b a1bf dfc5 ffbe 2537 38bf
00000010: b8fb 47bf b716 34bf
-0.1822157 -1.2615691 -0.4995565 -0.71959144 -0.7811847 -0.7034716

conv2.weight f4 [16, 6, 5, 5]
00000000: caff 5e3e 7abe 803d 0750 a83e 323a 813e
00000010: c45f b83d 0741 9f3d 892a 933d 5e36 be3e
00000020: 6eb2 c63d 66a3 6d3e d1f8 013e 5709 663e
00000030: 0905 f33d 5f01 e3bd 2f91 713e 138f 38bf
00000040: 0313 0dbf 47cc 00bf 7e2d 98be 887e 2cbe
00000050: d535 8cbf 5d48 7cbf e14d a6bf 0984 ecbf
00000060: 5038 0bc0 6987 723e effd 33be cef0 4fbf
00000070: a667 a73d 1db4 a1bd 2c69 863c b8eb e3be
00000080: 664f 64be 0a85 b83c e056 99bc 9569 783e
00000090: 085c 7a3e 5166 cfbd 022c 93bc 9f02 09be
000000a0: a82a 7b3e d4e7 393e 2c7b a2be 040d 003e
000000b0: 17ab 46be de6e a7bd c0ef 023d 6da8 19bf
000000c0: 052e 343e 61b7 16bf 63df b03e 4adf a73e
000000d0: 07a1 b9bd 9c40 9ebe ec40 0c3e 41ff a3be
000000e0: c7dc 563e 4964 c93d 7d27 dabd dd5a 883d
000000f0: 15c1 143e 5d07 bb3e 8153 cbbe 4f04 693e
00000100: 74cf 64bc 0a16 09bf 7115 53bf f220 bbbf
00000110: ad73 5bbf 49e7 e4bf d9f9 243e 6a70 a2bc
00000120: 499d f2bd c566 bfbe 0d05 4cbf 5a48 af3e
00000130: 0424 7c3f 4c9b abbe 6829 a9be 2093 f2bd
00000140: abb1 233f f518 eb3d 14b2 cabe cb62 0dbe
00000150: a1d4 93bd c130 da3d 3096 6dbf 760a 25bf
00000160: 940f 23bf 97c6 97bf b132 50be 9f67 83bf
00000170: fdfe c2bf 868d d9bf 72c9 abbf 0548 02bd
00000180: 76d7 a9bd 7efc 3abf b728 14bf 4a87 86bf
00000190: 301d a93e 7e4a c1bb 57d2 3fbe bac6 e43c
000001a0: a91b 5b3e 815d 2e3e afef c93d c0d9 17be
000001b0: 182f c7be 30c6 cb3e 3e1d 4fbe aff5 22be
000001c0: 3575 adbe 87b9 91be ff75 893b cde5 e13e
000001d0: c9b2 433e 6c8d 763c 5645 d5be 54c5 94ba
000001e0: 4025 6e3e 137d dd3e b410 623e 53ec 423e
000001f0: 68bc 623e f5a1 a0be 6eea 8bbe cd25 c93e
00000200: b24a 2d3e 1cf1 bd3d 9e9c 653e ad09 97bc
00000210: 5034 ac3e dbb9 23ba 2d54 d3be a966 813e
00000220: 3544 29bd 7a11 43be 8dcb 44bf 382c 33bf
00000230: a85b 07bc 7798 53be 6be4 67bf 353d 0bc0
00000240: a267 9dbf 6a45 afbc 1ad3 943d 3df3 8fbf
00000250: 8f76 31bf 15f7 cfbf 51fa 41bf b75f 5bbe
00000260: 3500 81be 938e a13e 63b2 c63e d08f 11bf
00000270: 92ec 7bbf 8404 59bf b98b d9be 189f a33c
00000280: ba7f 2e3e 2b78 483e 0778 943e 7150 5c3e
00000290: 5a6f 283e 07f9 b1bd 0876 ac3e 5c52 b83e
000002a0: 027c 633e 144b 583e 4aad adbe 7a3c 21bf
000002b0: 5742 5fbf c093 3cbf f803 b6be 66a2 503e
000002c0: f062 2c3e c9ae dbbe d58e f2bd 54ba 0e3e
000002d0: 9f62 833d 48d1 bcbd 3bd5 edbd e53f afbe
000002e0: 6300 41be 067c 8e3e 3534 1e3f cee3 873e
000002f0: 2841 ffbd 5be0 46bf 2be0 cfbe 623d 863e
00000300: 429d 0ebe c826 3bbf ff71 9b3d e9ef c4bd
00000310: fd83 4cbe 89d5 ffbe 83a5 06bf 8a77 663e
00000320: 8b4e a83d cbfb af3c ff7f cbbe ae6d 21be
00000330: 635d 193e 8f12 e33e 4ded 283e 13b9 a63d
00000340: c2d4 aebd 9b48 d5be ef3e b8bd c0d0 ab3e
00000350: 4513 c33e e0fd 153f a7db ac3d 2295 c9be
00000360: ae05 65be 781d 9e3d 9796 4fbc 966d 44be
00000370: 6e8c bcbd 68db e7be d352 07bf c1b1 3dbf
00000380: d985 9fbe 1655 a13d 78c0 0b3e 31e5 e9be
00000390: 98ae 993d ff44 a5be c43d bebd 9073 ccbd
000003a0: fb0d 48be b607 f5bd 5a3c f6be 689b 153d
000003b0: 052c 45be e032 cbbe eb2c d53e 475a ccbe
000003c0: 88b9 80bd 8d33 e2be 42c6 bebd 10b9 003f
000003d0: 183a 783d f3b4 c23e 0872 a83e 3234 f2bb
000003e0: 464e b23e 8c02 a7be 52cf 533e f4b8 aabe
000003f0: e0ef bebd 6353 803e c51d 343e 706e 88bd
0.21777263 0.062863305 0.32873556 0.25239712 0.09002641 0.07776075 0.07185847 0.37150854
0.097020015 0.23206863 0.12692572 0.224645 0.11866195 -0.11084246 0.2359054 -0.72093314
-0.55107135 -0.503117 -0.29722208 -0.16845143 -1.0953928 -0.9854792 -1.2992517 -1.8477794
-2.175312 0.23684467 -0.17577337 -0.81226814 0.08174066 -0.07895682 0.016407572 -0.44515777
-0.22295913 0.022524375 -0.018718183 0.24259026 0.2444917 -0.10126937 -0.01796532 -0.13379906
0.24527991 0.18154842 -0.31734598 0.12504965 -0.19401203 -0.08175443 0.031966925 -0.6002262
0.1759568 -0.58873564 0.3454543 0.32787544 -0.09063917 -0.30908668 0.1369664 -0.3203068
0.20982657 0.09833581 -0.10652063 0.06657956 0.1452678 0.36529055 -0.39712146 0.2275555
-0.013965476 -0.53549254 -0.8245459 -1.4619429 -0.8572338 -1.7883083 0.16110934 -0.019828994
-0.11846406 -0.37383094 -0.79695207 0.34234887 0.98492455 -0.3351692 -0.33039403 -0.11844468
0.63942975 0.114793696 -0.39588988 -0.13807218 -0.0721829 0.1065383 -0.9280729 -0.6446909
-0.63695645 -1.185748 -0.20331837 -1.0265998 -1.5234066 -1.6996315 -1.3420851 -0.031806964
-0.08293049 -0.7304152 -0.57874626 -1.0510037 0.3303008 -0.0058987727 -0.18732582 0.027926791
0.2139727 0.17027856 0.09860169 -0.14829159 -0.38903117 0.39799643 -0.20225999 -0.15914033
-0.33878484 -0.2846186 0.0041949744 0.44120637 0.1911117 0.015048366 -0.41654462 -0.0011350312
0.23256397 0.43259487 0.22076684 0.19035463 0.22142184 -0.31373563 -0.27327293 0.39286652
0.16923025 0.092745036 0.22423026 -0.018437231 0.3363366 -0.0006245651 -0.4127516 0.25273636
-0.041324813 -0.19049636 -0.76873094 -0.6998935 -0.008261599 -0.2066363 -0.90582913 -2.1756108
-1.2297251 -0.021395404 0.07266827 -1.1246105 -0.6932153 -1.6247278 -0.7577258 -0.21423231
-0.2519547 0.31554088 0.38807973 -0.56860065 -0.9840785 -0.84772515 -0.42489412 0.019973323
0.17040911 0.1957709 0.28997824 0.21515061 0.16448727 -0.08690076 0.336838 0.36000335
0.22215274 0.2112239 -0.33921272 -0.62982905 -0.872106 -0.7366295 -0.35549903 0.2037445
0.16834617 -0.42906788 -0.11843649 0.13938266 0.06415295 -0.09219605 -0.11612936 -0.34228435
-0.18847804 0.27828997 0.6179841 0.2654099 -0.124635994 -0.7768609 -0.40600714 0.26218706
-0.13927177 -0.7310605 0.075901024 -0.09616072 -0.19972225 -0.49967602 -0.525963 0.22506538
0.08218106 0.021482369 -0.3974609 -0.15764496 0.1497703 0.44350097 0.16496773 0.08140769
-0.08536674 -0.41656956 -0.08996379 0.335577 0.3810064 0.5859051 0.08440333 -0.39371592
-0.22365448 0.077204645 -0.012670181 -0.19182429 -0.09206472 -0.4528458 -0.52860755 -0.74099356
-0.31156805 0.07877557 0.1364764 -0.45682672 0.07504004 -0.32279202 -0.092891246 -0.09982979
-0.19536583 -0.11964361 -0.4809292 0.03652516 -0.19255073 -0.39687252 0.41635832 -0.39912626
-0.06285387 -0.44179955 -0.093151584 0.5028238 0.060602278 0.38028678 0.328995 -0.007391476
0.34825343 -0.3261913 0.20684555 -0.33344233 -0.09323096 0.2506362 0.17589481 -0.06661689

conv2.bias f4 [16]
00000000: 18fa 663d 2b36 5abe 11b7 98be 9291 573d
00000010: 7705 3fbc 901a ffbd adb6 91be 4c72 0ebe
00000020: 1edf 68be cca1 8ebe f397 1ebe 427f a73e
00000030: 1119 773d 35f2 50be df5e 86bd f557 c4bd
0.05639085 -0.21309726 -0.2982717 0.05262906 -0.011659018 -0.12456238 -0.28459683 -0.13910788
-0.22741362 -0.27857816 -0.15487652 0.32714278 0.06032664 -0.20404895 -0.06561064 -0.09587089

fc1.weight f4 [120, 256]
00000000: 51dc 0abe b2d7 c2be 8754 3bbf 3384 abbd
00000010: 429b 103d be61 c5be 4e57 f6be bc93 62bd
00000020: b189 f8be 6925 183c 6b09 a3bb b40a ee3d
00000030: 5f1e bfbe 7944 7bbe 7a22 e6be ec92 4b3e
00000040: ac54 89bd 7c53 6dbd 36a3 a63e ee7c d53d
00000050: c8d6 0abe a0bb 3bbd 803e 13be bc62 edbd
00000060: 3430 a0bf 661b 6bbf 7112 3abc 02b1 283f
00000070: ec0a 83bf d141 193e 6833 b03e 6192 933d
00000080: 989f 7a3e c53c 863e 9a4b 303d b146 56bf
00000090: 9b3b f63e b6ad 393f 48be 253f 7521 e53e
000000a0: b7d7 a8be 598f 5bbe 16c4 be3e 6c81 90bc
000000b0: 2133 3ebe 0d9d a23d 87ef 3e3d 750b ee3d
000000c0: 4697 67bd d5ad 1e3e 5a33 a33d 6615 84be
000000d0: 2cac 27bf 719b 21bf 38a7 ddbe 11f3 d33e
000000e0: f2a8 57be d574 e4be ff9d bcbd fc64 c23d
000000f0: dcdb 553f 8f93 b13e 4497 2cbe bfa6 99bd
00000100: 4d9c fb3e 80f2 57bf ff93 42be d288 2d3d
00000110: 94b4 b5be 387e c9bc 50f4 a2be 0fa5 69be
00000120: 452b 1bbf ebef 2abf d4c3 44be a61a e6bd
00000130: 3338 193f a559 103f 23da c63e 132e ac3e
00000140: 54e1 79bf cdda 3a3e 0885 393e aa11 3d3e
00000150: e7fa babe 820e 8c3c aed8 053e fba8 e43d
00000160: 9849 9f3e cf85 07bf 2038 b03d b9a3 7cbe
00000170: 9eb6 153e 4b88 f8be 117f 91be 9b89 b8be
00000180: 37ba 4f3e afcf ba3d cb2a 7bbe d07c 17bf
00000190: 4a0e 053f f8cf 2dbf 5773 623e 3da6 af3e
000001a0: b9cf 63bf a7ad 153d 2489 513e 9cb9 01be
000001b0: e60f 8e3e 1ebe 3a3e 798d adbe e1c2 babe
000001c0: be6a a0be 6938 db3c f005 2e3e 682a 2bbf
000001d0: 7279 0cbf bb71 1b3f 0783 433e a04f a03c
000001e0: 9b43 8fbd ae90 a83e bc14 4e3e b5f5 503e
000001f0: abcd 94be cc75 a6bd 6d8b e23c c7e9 5c3d
00000200: c65b 7fbd 5023 9b3e 8d50 d4bd c2a2 94be
00000210: b1c9 76bf 2fb3 d3be 48e9 5c3d 7153 61be
00000220: dc10 ebbf e0a8 11bf 107b 863d d457 493e
00000230: 324d 57be 9a24 9b3e 6441 0e3e fa1c 233d
00000240: a592 cdbd 299e 82bf e9f5 943d e7e1 b73e
00000250: beda 89be 21d8 08bd 4267 37bf 2dbf 59bf
00000260: e033 a0be a7bd 453e a9f0 8ebe 263f a3be
00000270: 9a0e cc3e 793e a1bd 9362 45be 1101 a3be
00000280: 4f88 36bf 1ee8 c03e d3a6 533e 1662 cc3e
00000290: 402d 2abe 72f4 46be 6bb8 1abf d5a1 b2be
000002a0: 12dd 0bbe 0de6 84bf 41c1 32bf aebd 63be
000002b0: 4311 42be 774d 94be 8ede f7bd e6d3 3abe
000002c0: 288d b3be e022 5dbe a75f 043f f5a5 1b3f
000002d0: ceb3 283e f83a 363f 2320 15bf 9ebc c7bd
000002e0: b08a edbd eb16 f43e e4dc 2dbf 994f b2be
000002f0: bdb4 923b 9b06 9bbe f10a 043f d6ac 633e
00000300: b0ea 86be f195 a03e 4012 1ebc 7660 da3c
00000310: 6544 d2be 7d4b bb3e 1a53 52be e755 63be
00000320: fa57 28be dac3 d93c 9684 3b3e d955 72be
00000330: ae6a c53d c9eb f93e be9a c43e 853d c3be
00000340: 4b2a 713f 766c e23e cfa2 d13c 1279 02bd
00000350: cae9 30bf a790 93be ff85 8f3d c49e 093f
00000360: 9c88 3b3d 2dee 59bf 2f9d cabd 9765 f53e
00000370: b094 263e 0a16 c33b d797 213e 1b94 c2bd
00000380: d6a0 f9bd 1719 03be 5a2d a3bf c0b1 12bf
00000390: c28a 633f 9ff2 703f 1941 d1be a3e2 9fbe
000003a0: 3064 b63d 374a 343f ecc2 0e3f d2a7 a83e
000003b0: 6281 cabe 4274 323e 56ef 0f3d 8346 6fbe
000003c0: f422 e43d 1210 d53e 8a07 4fbf 2189 79bf
000003d0: 0676 e23e d884 423e 6166 b73e 8108 bfbd
000003e0: 0346 543e 881b 9c3e ecdc d6be 4ba5 e13e
000003f0: fd72 b43e b076 ec3e b89c d63e bd3c 9e3e
-0.13560607 -0.38055187 -0.73175853 -0.083748244 0.035304315 -0.38551134 -0.48113483 -0.05531667
-0.4854255 0.009286263 -0.004975488 0.11623135 -0.3732786 -0.24537839 -0.4494818 0.19880265
-0.06705603 -0.057940945 0.32546395 0.10424219 -0.13558495 -0.04583323 -0.1437931 -0.11591098
-1.251471 -0.9183868 -0.011356936 0.6589509 -1.0237708 0.14966513 0.3441422 0.07205654
0.24474943 0.26218238 0.04304085 -0.83701617 0.4809235 0.72530687 0.6474347 0.44752088
-0.32977077 -0.21441402 0.37258977 -0.017639838 -0.18574192 0.07940111 0.04661515 0.11623279
-0.05654075 0.15495999 0.07968779 -0.25797576 -0.6549709 -0.6312781 -0.4329164 0.41396382
-0.21060541 -0.44620386 -0.09209823 0.094919175 0.83538604 0.3468289 -0.16854578 -0.075025074
0.49142686 -0.843544 -0.19001769 0.04236681 -0.35489333 -0.024596319 -0.3182702 -0.22816871
-0.606129 -0.66772336 -0.19215328 -0.112355515 0.5985138 0.56386787 0.388383 0.33628902
-0.9760945 0.18247528 0.18117154 0.1846377 -0.36519548 0.017096762 0.13070938 0.11165043
0.31110835 -0.5293855 0.08604455 -0.2467183 0.14620444 -0.48541483 -0.28417256 -0.36042485
0.20285879 0.09121644 -0.24528043 -0.59174824 0.5197493 -0.6789546 0.22114311 0.34306517
-0.88988835 0.03654256 0.20462471 -0.1266846 0.27746505 0.18236586 -0.33896998 -0.36476806
-0.31331438 0.026760297 0.16994452 -0.6686158 -0.5487281 0.60720414 0.19092952 0.019569218
-0.069953166 0.32922882 0.20125097 0.2040623 -0.29063162 -0.08127937 0.027654374 0.053933885
-0.06234338 0.3030038 -0.10366926 -0.29030424 -0.96401507 -0.41347644 0.05393341 -0.22004487
-1.836452 -0.5689831 0.06566441 0.1966241 -0.21025541 0.30301362 0.13892132 0.039822556
-0.10037736 -1.0204517 0.07273466 0.35914537 -0.269247 -0.03340924 -0.71641934 -0.85057336
-0.31289577 0.19310628 -0.27917984 -0.31884116 0.3985489 -0.07873244 -0.19275884 -0.3183675
-0.7130174 0.3767709 0.20669107 0.39918584 -0.16618824 -0.19429186 -0.6043765 -0.34889093
-0.1365855 -1.0382706 -0.6982613 -0.22240326 -0.18951897 -0.2896535 -0.12102996 -0.18244895
-0.3506863 -0.21595335 0.51708454 0.60800105 0.1647484 0.7118373 -0.5825216 -0.09752773
-0.11598718 0.47673735 -0.6791518 -0.34826353 0.004477112 -0.30278477 0.51579195 0.222339
-0.26350927 0.31364396 -0.009647906 0.026657324 -0.41067806 0.3658103 -0.20539513 -0.22200738
-0.1643981 0.026582647 0.18312296 -0.23665561 0.09639488 0.48812702 0.3839931 -0.38132873
0.9420516 0.44223374 0.025590328 -0.031853743 -0.69106734 -0.28821298 0.070079796 0.5375788
0.045784578 -0.8512905 -0.09893262 0.4792907 0.16267657 0.005953555 0.15780579 -0.09500905
-0.1218888 -0.1280254 -1.2748215 -0.57302475 0.888836 0.9412021 -0.40869978 -0.31227598
0.08905828 0.7042574 0.5576618 0.32940537 -0.39551836 0.17427161 0.035140358 -0.23366742
0.11139479 0.41613823 -0.8087088 -0.9747487 0.4423067 0.18995988 0.35820296 -0.09327794
0.20729832 0.30489755 -0.41965425 0.4407142 0.3524398 0.461843 0.41916442 0.30905715

fc1.bias f4 [120]
00000000: c648 52be 0422 35be c75b 38bf 4df6 dabd
00000010: a376 353b e2a4 e0bd 4dd4 c0be 664e debe
00000020: 2a2e 573e afdd 78bf 7aa6 ed3d 9e8f 01bf
00000030: ebd9 1ebc e947 41bf 5209 98bd 4550 b3bd
00000040: f946 e7be 10b8 dabd 62f8 09bf 260e 3cbe
00000050: 5096 05bf 49d4 a6bd ba0c 89be b399 983c
00000060: e38e 23be e46c b3bd 0a82 d3bc 3ec4 c5bd
00000070: aa1e 033e 3d31 823c dc0c f2be c36a 093e
00000080: b0d9 1abf 5dab 9ebe 409c 973d 27f5 0bbf
00000090: 4d6b 94be aedc 6fbd be65 a1bd 9973 b9be
000000a0: 27b5 c7bd b4bf 77bf 2ae1 6ebd 36f7 7fbe
000000b0: e7d3 9abc 0dd5 82bf 6d6b 8ebe f58d 26bf
000000c0: 36df 363e a5f2 1a3c 72f3 183e e5ab ab3e
000000d0: 1e9b 86bf d923 283d ca38 7cbe 3390 9ebd
000000e0: c541 c7be ce4c b3bd cab3 7d3d e6d1 7ebe
000000f0: b0e2 f4be e1c0 d3bd 35c3 c4be ab46 74bf
00000100: 6072 8cbe 1ccc 333d 97db 2cbf 84d3 913d
00000110: c4ba c6bd 2e67 f6be d9c5 253d f5c1 8fbc
00000120: 2fce 43be 5cdd a9bf 09ba 8dbd 92f5 1ebf
00000130: 61a7 86be 1913 02bf 26e4 63bf d4e7 913b
00000140: 6243 64be 3730 4abf 55f4 eabe a7ad 98be
00000150: 686f 83bd dd74 6bbe c756 01bf 9681 d13c
00000160: 000c 2c3e f7e1 09bf 1fea b2be 454e 99be
00000170: a71f d03d 5fbc 3bbf a12c 45bf 250a 2e3e
00000180: e900 f6bd 9c11 84bd 1e0c 9cbe 4496 82bf
00000190: d876 83bd 9f8f f7bd 0d85 bebe 3d53 06be
000001a0: c6b9 0bbe 4b36 babe 8a5a 58bf 8e07 e5bd
000001b0: 607c 1bbf bbd9 64bd c01f cfbe 7a67 803c
000001c0: 7701 c43c 60c4 52bc 281c 39bd 97d1 4dbe
000001d0: e51d dc3d 53e9 e23b f41d f3be 8516 e8bc
-0.20535573 -0.17688757 -0.7201504 -0.106915094 0.0027689121 -0.10968949 -0.37661973 -0.43419188
0.21013704 -0.9721326 0.116040185 -0.5060977 -0.00969551 -0.7550035 -0.07423653 -0.087555446
-0.45171335 -0.106796384 -0.5389463 -0.18364772 -0.52182484 -0.08145959 -0.26767522 0.018627977
-0.15972476 -0.087610036 -0.025818843 -0.09656571 0.12804666 0.01589262 -0.47275436 0.13419633
-0.60488415 -0.30990115 0.07402849 -0.5467095 -0.28988114 -0.058560066 -0.07880734 -0.36221007
-0.09751349 -0.9677689 -0.058320202 -0.24996647 -0.018899871 -1.0221268 -0.27816334 -0.6506036
0.17858586 0.009457265 0.14936617 0.33529583 -1.0516088 0.041049812 -0.24631038 -0.077423476
-0.38917366 -0.08754884 0.06193904 -0.24884757 -0.478292 -0.10339523 -0.3843018 -0.9542033
-0.2743101 0.043895826 -0.6752257 0.071204215 -0.097035915 -0.48125595 0.040471885 -0.01754854
-0.19121622 -1.3270679 -0.06920249 -0.6209346 -0.26299575 -0.5081039 -0.8902 0.004452685
-0.2229133 -0.7897982 -0.45889536 -0.29819986 -0.064177334 -0.22993799 -0.50523037 0.025574487
0.16801453 -0.5386042 -0.34944245 -0.29942527 0.10162287 -0.73334306 -0.77021223 0.16996057
-0.12011892 -0.06448671 -0.30477995 -1.0202107 -0.06419152 -0.120879404 -0.37210885 -0.1311769
-0.13645086 -0.36369547 -0.8451315 -0.111830816 -0.60736656 -0.055871706 -0.4045391 0.015674341
0.02392648 -0.012864202 -0.045192868 -0.20099483 0.107478894 0.006924787 -0.4748379 -0.02833105

fc2.weight f4 [84, 120]
00000000: 5f99 b53d 33b9 8ebe bbcb 73bc c1b7 16bf
00000010: b1cf 993d 9430 95be 4fad de3e ba22 693e
00000020: aae4 6b3e 34aa a53e df37 013e aa4b a83e
00000030: 11e1 83bd 866e 063f 417e 1dbd c09f 503c
00000040: f8b5 153f b8d5 55bd b791 debe 0f9c 13bf
00000050: 6b90 12bf 7e26 ca3c 8cef 0d3e afc6 dcbc
00000060: e0a1 53bf a45c 533d 2a69 8dbc ceab 5dbd
00000070: 4d51 b1be bc5d c33c 28ef 8d3e 7145 14bd
00000080: 87c9 c9be 4320 acbe 6806 923e 117d aebe
00000090: 8b2f 27be 07e8 41bc 5d89 e6be 072c 9a3e
000000a0: 7550 ab3d 0561 0d3f be7f 943c 4133 c03d
000000b0: 3216 8bbe 1e51 59be bf87 83be c91c bf3e
000000c0: 8dd5 a03c 6170 09bf 46f1 363e 95e7 5ebf
000000d0: 2e0b 15bf 32df 4bbf 98f0 87be 1beb 523d
000000e0: fb37 54be 1600 3b3d 3c03 af3e ae17 bebe
000000f0: 9b50 e63e fdd1 523d f0cf 6fbe 4062 50be
00000100: a6a6 3a3f f695 8f3e 9e8f 863d 7578 32be
00000110: d666 503d f069 45bf 68e8 de3c f3c3 6bbd
00000120: c37f 05bf f846 b13e 3cea 603e 850c 133f
00000130: f423 36bf 0894 d8be 1542 0cbe 51bd 5abe
00000140: 7db0 07bf 1c1d 873d 26fa 9fbd 751f 413e
00000150: 35b4 593e a290 78bd 8f90 233d f80c 093f
00000160: 4122 87be 97c9 21bd e415 27bd 98c3 233f
00000170: 7248 82be 809f 413e b9e9 6cbe 6071 1f3e
00000180: 32b8 603d f1cc 18bf 6fdc 8a3e 984e a83d
00000190: f334 c03e 775c 06bd 7b04 abbc 8db5 993e
000001a0: 8125 033f d147 183f 5905 ef3c 2a76 90bd
000001b0: 44af 9a3e 1cdc d13d 1522 6dbe 3fcd f43d
000001c0: 735d a03d 2877 7cbc db46 1bbf 81b4 783e
000001d0: 8064 aebd 0695 38bd 4f0b 8fbe b6db 93be
000001e0: 041d f3bc 3c18 b9be d6a6 f5bd ac21 42be
000001f0: 63d6 edbe 5874 173f 658f 6abe 35d7 f13e
00000200: 5de8 d63e 33c4 693e 09d8 1bbf cd10 953e
00000210: 1064 643c 0fa0 15bd 4517 d13c ce09 39bd
00000220: ccd8 bfbd 28ce a23e 4694 b33e 78bc 413e
00000230: d92f 293e 7989 30bd f178 de3e 7219 873d
00000240: e8e9 823e ec33 71bd 7915 6dbd 424d f9bc
00000250: e5da 253d 36e2 48bd 89ac 25be 5b39 2d3e
00000260: c1be 933e 5b46 233e abe4 b6be c09a 213f
00000270: a1a1 67bf b5b8 35bd 5678 4dbe 4b33 d0be
00000280: d757 b9be 0320 4b3e dd08 283d ffe1 0a3e
00000290: d5b2 d5bc 98fd 233f 69bb f7be 0d70 903e
000002a0: 48b5 893e abc4 0c3e cf46 bf3d 8bd1 e1bc
000002b0: 529f 0dbf 119b 52be bd68 4abe cd69 e0ba
000002c0: cd00 b9be c7cb 4b3e d916 19be e203 403e
000002d0: f71a 4bbf f57d 54bd 887c cf3e 015a 373e
000002e0: 93c4 69be fec3 a73d be48 e83d 8a28 b73e
000002f0: 84b2 5ebe 5b3f 15bd a367 283e 9cbf 8a3c
00000300: 97ce ce3d fdc9 f5bd 9e68 79bd da02 aa3e
00000310: 6981 143f ecd0 c5be 0658 a33e fc31 debe
00000320: bc00 313c fd61 463c ab24 6b3e 0509 4c3e
00000330: 12c1 963d 9400 15bf ec5b df3e 961a 88be
00000340: 567c 54be 1a4c 6a3e 184b a2be 02a6 753e
00000350: d386 a8be 37a1 bf3e f065 1d3f a88a 03be
00000360: b5f8 bdbc a6ff 433e c7aa efbe 2cfb 4e3e
00000370: a35a 3ebd 0ac5 573e 67fd aa3c cead a2be
00000380: d31c 483f 20c0 40bf 8756 113e fc05 813d
00000390: 0a56 fb3d 1214 c4bd 88f7 823d abb0 a1be
000003a0: 5af8 12bd edb2 4fbd 2fc1 083d 57da be3e
000003b0: 1bb6 5ebe efec ef3b 4df2 af3e d3cf f13e
000003c0: 866f 153f 63fb 5b3e 39c3 5fbe 604d c2be
000003d0: ee34 803e 2162 8dbe bb9a 623f 7d9b 00bf
000003e0: 157a 04bf d1f2 f53e c11e 3bbf 8e3f d83d
000003f0: 4ada 68bd c101 833e de70 a03c aff3 763a
0.08867144 -0.2787567 -0.014880116 -0.58874136 0.07510317 -0.29138625 0.434916 0.22767153
0.23036447 0.32356417 0.1261897 0.32870227 -0.064394124 0.52512395 -0.038450483 0.0127334
0.5848079 -0.05220577 -0.43470547 -0.5766 -0.57251614 0.024676558 0.13860911 -0.026950208
-0.82668877 0.05160202 -0.01726206 -0.054118924 -0.3463234 0.023848407 0.27721524 -0.036199037
-0.39411566 -0.33618364 0.28520513 -0.34079793 -0.1632673 -0.011835105 -0.45026675 0.30111715
0.08364955 0.55226165 0.018127318 0.09384776 -0.2716537 -0.2122235 -0.25689504 0.3732665
0.019633079 -0.536871 0.17865476 -0.87072116 -0.58220184 -0.79637444 -0.26550746 0.051493745
-0.2072448 0.04565438 0.34182155 -0.3712744 0.44983372 0.05146979 -0.23419166 -0.2034998
0.72910535 0.280441 0.065703616 -0.17428763 0.050879322 -0.7711477 0.02721043 -0.05755992
-0.52148074 0.34624457 0.21964353 0.5744098 -0.7114861 -0.4230044 -0.13697083 -0.21361281
-0.53003675 0.06597349 -0.07811384 0.18859656 0.2126015 -0.060684808 0.039932784 0.53535414
-0.2639332 -0.03949889 -0.04079236 0.6397033 -0.25445896 0.189085 -0.23136033 0.15570593
0.054863162 -0.59687716 0.27121302 0.082181156 0.37540397 -0.032803025 -0.02087616 0.30021325
0.512291 0.59484583 0.029177355 -0.07053788 0.30211842 0.10247061 -0.23157533 0.1195321
0.07830324 -0.015409268 -0.6065499 0.24287607 -0.085152626 -0.045063995 -0.27938315 -0.28878564
-0.029676922 -0.36151302 -0.11994712 -0.18958157 -0.46452627 0.591619 -0.22906263 0.47234502
0.41974154 0.2282875 -0.6087652 0.2911438 0.013939872 -0.036529597 0.025523791 -0.045175366
-0.093675226 0.3179791 0.3507406 0.18919551 0.16522159 -0.043099854 0.43451646 0.0659665
0.2556908 -0.058887407 -0.057881806 -0.030432347 0.040491957 -0.049043857 -0.16179098 0.1691641
0.2885647 0.15944807 -0.35721335 0.63126755 -0.90481 -0.044365603 -0.20065436 -0.40664133
-0.3619983 0.1983643 0.041024078 0.13562773 -0.02608625 0.6405883 -0.4838517 0.28210488
0.2689612 0.13746898 0.093396775 -0.027565738 -0.5532123 -0.20566966 -0.19766517 -0.0017121375
-0.36133423 0.19901954 -0.14950122 0.18751481 -0.7933802 -0.051877934 0.40524697 0.17905428
-0.22828893 0.081916794 0.113419995 0.35773116 -0.21747786 -0.036437374 0.16445784 0.01693707
0.10097998 -0.12001417 -0.060890786 0.332053 0.58009964 -0.38635957 0.31903094 -0.4339751
0.010803398 0.012108323 0.22963206 0.19925316 0.07361044 -0.5820401 0.43624818 -0.26582783
-0.20750555 0.22880593 -0.31697917 0.23989108 -0.32915363 0.37427685 0.6148367 -0.12845862
-0.023189882 0.19140491 -0.4680998 0.20213002 -0.046473157 0.21071258 0.020872785 -0.31773227
0.7816898 -0.7529316 0.14193164 0.062999696 0.1227227 -0.095741406 0.06394869 -0.315801
-0.035881378 -0.050707746 0.03338736 0.37275955 -0.21749155 0.007321946 0.34364548 0.4722887
0.58373296 0.21482615 -0.21851815 -0.37949657 0.25040382 -0.2761393 0.8851735 -0.50237256
-0.5174878 0.48036817 -0.730938 0.10558997 -0.0568488 0.25587276 0.01958507 0.0009420467

fc2.bias f4 [84]
00000000: 21a7 9fbe 88ea b4be 1a7a 79bf 3e73 0c3c
00000010: f3ab 0cbf e7ce 4cbf 8b50 11bf 6c8b 55be
00000020: 5d42 e8be 14d4 42be 0b24 10bf 5b60 34bf
00000030: 634a a1bd caa5 ddbe d576 e3be ce91 99bb
00000040: 2fab eabe f14c f8be 8131 56bf 2f98 febd
00000050: 8c6d 02bf ed82 c2be 1614 36bf f479 40bd
00000060: 3c78 f1be e592 a2be e594 66be c179 19bf
00000070: 9aa1 97be 6f2f bd3d 0aa0 fabe 5978 93be
00000080: 855b 9dbe 8f59 96bf e93e 63bf c102 45be
00000090: b47e 30bd 5495 3dbe 7480 92be 4bd3 dbbe
000000a0: 2252 1abd eeb3 2fbf 78da acbe 9f83 15bf
000000b0: 891f 84be bf78 67be cdf8 90be 347c fbbe
000000c0: e4cb 3d3e a70d 0a3c 1ab3 aabe 3da1 13bf
000000d0: faff 03bf e6b1 d6be 88d2 8fbe 86c3 21bf
000000e0: 33e1 c5be ce1a e8be 5ca2 8dbe e8fe 3abf
000000f0: 0d31 59bf dc7e bdbe 0f01 a7be c58e e0be
00000100: de50 08bf aaf8 3bbf c79a 52bf ec31 12bf
00000110: aec1 4cbf c102 45bf 09cb a9be bf2c 27bf
00000120: 37a6 6abf d9d5 b2be aada 92be e643 72be
00000130: b089 243e d154 1c3d 6587 11be f565 393e
00000140: 71c7 2cbf 0b65 a7be 80d9 3c3e 1380 0abf
-0.31182197 -0.35335183 -0.9745194 0.008572398 -0.54949874 -0.8000321 -0.56763524 -0.20853966
-0.4536313 -0.19026214 -0.56305 -0.70459527 -0.07875516 -0.4329055 -0.444266 -0.0046865707
-0.45833728 -0.48496202 -0.83669287 -0.124313705 -0.50948405 -0.37990513 -0.711244 -0.046991304
-0.47162044 -0.31752697 -0.22517736 -0.59951407 -0.2961548 0.09237563 -0.48950225 -0.28802755
-0.30733886 -1.1746081 -0.8876787 -0.19239332 -0.043089584 -0.18513995 -0.28613627 -0.4293464
-0.037675984 -0.68633926 -0.33760428 -0.5840396 -0.2580531 -0.22604655 -0.2831482 -0.49118197
0.1853481 0.008426107 -0.3333977 -0.57667905 -0.51562464 -0.419326 -0.2809031 -0.6318897
-0.38648376 -0.4533295 -0.27662933 -0.73045206 -0.8484047 -0.3701085 -0.32617995 -0.43858925
-0.53248394 -0.73426306 -0.8226742 -0.57107425 -0.7998303 -0.7695733 -0.33162716 -0.6530265
-0.91659874 -0.34928778 -0.28682452 -0.23658714 0.16068149 0.038166825 -0.14211805 0.181053
-0.67491823 -0.32694277 0.18442345 -0.54101676

fc3.weight f4 [10, 84]
00000000: fe58 4ebf 002d d8be 51cf 45bf 16ab 75bf
00000010: 3ce2 09bf 34a3 4fbf e14d 5dbe 8c80 66bf
00000020: 041d 4dbf 742c 8bbe d4b9 0ebf 720d 88bf
00000030: 4b8d 30bf 20a1 8fbf f5b9 bcbf 52a5 6cbf
00000040: 5589 2ebf a704 d1be a12b c0bc b187 96bd
00000050: 4528 ef3c 8dff eabe e7ac 9fbd c322 9bbf
00000060: b369 68bf 654b d3be 14dd 45bf c6a9 53be
00000070: d6c0 22bf 4cb8 8cbf a706 af3c e2af c3bf
00000080: 9991 3dbf 1876 adbe e91d bbbd 9ac1 53be
00000090: 4180 b4be 41a3 85bf 21b4 59bf 1279 cfbe
000000a0: 3c72 04bf 310c 68bf fca2 5a3c 9bf0 d83d
000000b0: 39f7 74bf b56f 8cbf a410 58bf ad24 9abc
000000c0: 0683 9abf 3cce a1be 1103 b6bd e962 81bf
000000d0: ad6f 38bf af8c 9fbd f94f bbbf 5aab 903d
000000e0: e2db 89bf 3ddc adbf 82a6 84bd 521f 6dbe
000000f0: 38bb 40bf b7a0 a0bd 2e33 a9be 9d00 d13d
00000100: 69d9 96bf a260 9ebf c5a1 053e 916d 98bf
00000110: 0421 65bf daae c0be 7274 a8be 77dd b2bd
00000120: 8bb5 6dbe 2757 6c3d 266a 69bc 0857 263d
00000130: 796c 64bf 4750 bbbe 67f0 54bc e5a0 9cbd
00000140: 5c55 49bf fc14 c53d 73f6 adbf d8ad 503d
00000150: 127f 9a3d ca60 72bf c4c3 c93d 3586 d4bc
00000160: a0c4 39bf c69f 3ebe e1fd 583d 27a9 5dbf
00000170: b959 0bbf a45c 57bf f217 373d ade5 0dbe
00000180: 247b 94bf d724 00bf 0a7c f7be 8411 be3c
00000190: 8830 213e b649 2dbe fae4 56bf a410 0abd
000001a0: 71cb 50bf ecab 08bf 7ea3 56bf add2 9dbd
000001b0: e1ea babd 1821 68bf 53aa babe 9e79 9fbf
000001c0: ae37 8dbf 2894 6ebf 8f2a 5e3d ccb1 82bf
000001d0: e5be 1fbf b01b 35bf 3ac6 29bf 7db4 a2bf
000001e0: e4d4 a7bf 1341 64bf b34e 1abf b156 84bf
000001f0: 26d5 36bf 5a66 e43d feec 46bf 33b6 343d
00000200: bc8a 2cbf 28df 7fbd 924d f0bd fdf5 58bf
00000210: 0bd3 aabf 61ec 8fbd 614d bbbf 7b2f 6ebe
00000220: a3c0 fdbe 61db 00bf 6bee adbf 5e54 60bf
00000230: 9644 71bf ba1b 233b 1af7 c5be 77be a4bf
00000240: 2f71 5abf 4825 5dbf 95d0 33bf 7d62 63bd
00000250: 6484 56be 151d 77bf 2495 9fbf 368b 303d
00000260: f351 b73c afd7 10bf 93d3 c9bf a9a7 2cbf
00000270: 6be1 aabe 95cc 84bf caa1 f23d 941a 23be
00000280: cb1e 2ebf 66c1 ddbf 4960 0c3d 5e2d 3bbf
00000290: dcba 34bf b1de 1fbf f0c2 7cbf 0a64 09bf
000002a0: 4fa0 cbbe ef4d 22bf f88e c6be 03e5 71be
000002b0: 9974 c1be d9fd 8cbe b8c4 43bb 5692 03be
000002c0: 3ba7 13bf 5c72 22bd 1b76 be3d 5527 79bf
000002d0: aea7 19bf 3ce3 bdbf 839f 49be 4b22 fd3b
000002e0: 8204 1fbe e705 46bf f887 c1bd 5cde 8bbf
000002f0: 04b2 7abf d7a9 8bbe 31a6 3fbf c978 5dbf
00000300: c5f5 b6be 762c 29bf f681 ab3d 9f70 1cbf
00000310: a0bd 943e 064e c2bf d20b 97bb e704 80bc
00000320: 26b8 5abf 1e44 cdbd c7c3 193e 0978 81bd
00000330: ff67 66bf f282 cfbe af5d 34bf 3b65 89bf
00000340: 8d9b b1bf 4267 1abf 729e f43d f6c2 c3bd
00000350: b0e3 f9be 3994 bebe 3456 8cbf b0f8 ed3c
00000360: 3d9c 29bf b839 8fbf 44b1 60bf efc8 3fbe
00000370: d051 3ebf 6d3b babe ee14 a2be e487 60bf
00000380: 98e8 11be 8414 29bf 61a5 53bf e6a8 ecbd
00000390: 7286 8f3d 51fc ddbe 75b2 3abf dd6f 6dbf
000003a0: 7af8 44bf 0ef3 abbe 753d aabd 40cd 4c3d
000003b0: 8200 9fbf e765 cfbd 21f4 babe d1c2 bbbf
000003c0: af49 aabe e3db 85bd 2f82 d4bf 1345 2bbf
000003d0: 9642 bebe cdec 3e3e 34cb 073d 4285 b0bf
000003e0: dbb9 c9bf 6193 6abf a570 89bf c408 dabe
000003f0: c966 87bd ed10 05bf e9c8 723d 3e52 89be
-0.8060454 -0.42221832 -0.77269465 -0.9596418 -0.5386083 -0.81108403 -0.2161174 -0.90039897
-0.801224 -0.27182353 -0.557523 -1.0629103 -0.68965596 -1.1221046 -1.474425 -0.9243976
-0.681783 -0.40823862 -0.023458304 -0.073501 0.029194007 -0.45898095 -0.077966504 -1.2119983
-0.90786284 -0.4126846 -0.77290463 -0.20670232 -0.63575494 -1.0993743 0.021365477 -1.528805
-0.7405029 -0.3387916 -0.09136564 -0.20679322 -0.352541 -1.0440446 -0.8504048 -0.40522057
-0.5173681 -0.906436 0.013344523 0.10592767 -0.9568973 -1.097159 -0.8440039 -0.018816317
-1.2071235 -0.31602657 -0.088873036 -1.010831 -0.72045404 -0.07790505 -1.4633781 0.07063933
-1.0770228 -1.3582836 -0.06477071 -0.23156479 -0.75285673 -0.07843154 -0.3304686 0.10205195
-1.1785098 -1.237324 0.13049991 -1.1908437 -0.895035 -0.376334 -0.3290134 -0.08733647
-0.23213784 0.057700302 -0.014246499 0.040610343 -0.89228016 -0.36584684 -0.0129967695 -0.07647876
-0.78645873 0.09623143 -1.3590835 0.05094704 0.07543768 -0.9467894 0.098517925 -0.025942901
-0.7256565 -0.18615636 0.052976493 -0.8658623 -0.5443378 -0.84125733 0.04470057 -0.13857146
-1.160008 -0.50056213 -0.48336822 0.023201711 0.1574117 -0.1692265 -0.8394314 -0.033707276
-0.81560427 -0.5338733 -0.8384322 -0.07706199 -0.09126831 -0.906755 -0.36458072 -1.245899
-1.1032617 -0.9319482 0.054239806 -1.0210509 -0.62400657 -0.7074537 -0.66318095 -1.2711331
-1.3111844 -0.89161795 -0.60276335 -1.0338956 -0.7141899 0.111523345 -0.7770537 0.04411907
-0.6739919 -0.062468678 -0.11733545 -0.8475035 -1.3345655 -0.070275076 -1.4632989 -0.232603
-0.49561033 -0.50334746 -1.3588384 -0.87628734 -0.9424528 0.0024888352 -0.38665086 -1.2870625
-0.85328954 -0.8638501 -0.70240146 -0.055513848 -0.2094894 -0.9652875 -1.2467389 0.043101512
0.022377944 -0.5657911 -1.5767692 -0.6744333 -0.33375105 -1.0374933 0.11847265 -0.15928108
-0.68015736 -1.7324646 0.034271512 -0.731161 -0.70597625 -0.62449175 -0.9873495 -0.5366827
-0.39770743 -0.6340017 -0.38780951 -0.23622517 -0.3778427 -0.2753742 -0.0029871892 -0.12848791
-0.5767705 -0.039659843 0.092998706 -0.9732564 -0.60021484 -1.4834971 -0.19689755 0.0077250353
-0.15529063 -0.77352756 -0.09449762 -1.0927234 -0.9792788 -0.27278015 -0.7486296 -0.8651243
-0.35734382 -0.66083467 0.083743975 -0.61109346 0.29050922 -1.5180061 -0.0046095634 -0.015627338
-0.8543724 -0.10022758 0.1501609 -0.06321723 -0.90002435 -0.4052959 -0.7045545 -1.0734018
-1.3875595 -0.6031381 0.119442835 -0.0955867 -0.48806524 -0.3722246 -1.0963807 0.029049248
-0.66254026 -1.1189489 -0.87770486 -0.18728994 -0.74343586 -0.36373463 -0.31656593 -0.8770735
-0.14248884 -0.6604693 -0.82674223 -0.11555652 0.07008065 -0.43356565 -0.72928554 -0.92748815
-0.76941645 -0.33583874 -0.08312503 0.05000043 -1.242203 -0.10126858 -0.3651438 -1.4668828
-0.3325934 -0.06536081 -1.6602229 -0.66902274 -0.37160176 0.1864502 0.033152774 -1.3790667
-1.5759844 -0.9163113 -1.0737501 -0.42584813 -0.066114016 -0.5197895 0.059273634 -0.26820558

fc3.bias f4 [10]
00000000: 63c0 05bf 86f6 4fbd af63 37be 95c9 0cbd
00000010: 016b 8fbc 4851 b6be c944 a2bd 652e 89be
00000020: 88bf b13e b45c 2f3e
-0.52246684 -0.050772212 -0.1790912 -0.03437193 -0.017507078 -0.35608888 -0.07923276 -0.2679321
0.3471644 0.17125207
