mnist/saved_models/model_epoch_33.pth (torch, 181338 bytes, 10 tensors)

conv1.weight f4 [6, 1, 5, 5]
00000000: f3de 46be 5233 2e3e 4321 09bd d274 8c3e
00000010: 842e 383d 7702 7e3e 5fbd 013f 57c5 4f3e
00000020: d75f 9e3d a27f 883e 4974 223e 26e8 893c
00000030: 7aa4 4bbe b851 d2bd 5170 02bd 46ae 9dbd
00000040: 9820 bfbe f0f9 65be 7bdd 92be fac8 8cbe
00000050: 0321 50bd 5b2a 84bc 4a7e a1bb 8d16 2b3e
00000060: 0ae2 7ebe 7c39 a3be 6993 10bd 3e65 c93e
00000070: e8bf 91be c1e5 30be 46cd cebe f281 4b3d
00000080: 60b8 233f cf43 2c3d 4a6c e53d a98f 9fbe
00000090: 7d95 dbbe c49e c43e a370 9c3e 51ae 693d
000000a0: 00a4 debc c822 11bf 2906 9bbd 58dc 92be
000000b0: b8db a6bd e3a4 923e 630c a23c d208 663e
000000c0: 3859 6fbc 061a f73d ef45 c1bd 04df 3fbe
000000d0: 6a08 29be 5e50 653c 4cda 90be 5e58 dabd
000000e0: ac0f dabd d419 313e d352 cd3e af7f 19be
000000f0: 006a 893e 970d 393e 148b fc3e 9a77 1e3f
00000100: c1ee fdbd b480 9d3b c3aa efbe 5ef8 4bbe
00000110: ade8 b63e a4f8 4b3e 0aad 983d 8224 74be
00000120: 4d53 c4be f064 ebbb 128b 8f3e 335f 503c
00000130: b867 383e f8da 9d3c 9a80 ab3c 6a5b a53d
00000140: 1e11 3a3e faa5 c03d 9726 75bd e725 033d
00000150: ecd1 873e 76ef a43d f648 01be 9db9 bcbe
00000160: cc3e d5bd f311 803e 99f3 1bbe 6a53 c4bd
00000170: 9610 34be b0f9 f13e cd31 ae3e 2bc8 8fbe
00000180: 4bdd 073d ec47 fb3d a8b3 38bc 14e5 f33d
00000190: 7664 c83d 79fb b23c 5cdb 923e 45d3 42bd
000001a0: bda6 953e 1ecf eb3c 837d 20be fe51 80bd
000001b0: e1ef 913d 33af 6c3e a450 9dbd 83b1 80be
000001c0: 9359 b9be 9540 13bf 6171 adbd 12ae dd3e
000001d0: d894 3fbe 6257 50bf 4a7d 83be f0aa 4a3e
000001e0: ef84 433e f82c 183f 61bb 143f 9109 db3e
000001f0: 61c6 2cbd 3391 1f3e b964 173e 476b 99bd
00000200: 2c97 27bd 90e7 a93d 6482 82be f859 433e
00000210: 6564 0f3e 8c56 ccbd 8d2a 2ebd c1d4 19be
00000220: 9c1d 2c3f 31b2 27be a8d5 9dbe 0a9e 183e
00000230: a9fe 9e3e aa94 d13e 3b12 16bf ca4a 123d
00000240: 0aaa 9c3c 4dd3 a13e 9dac 71be 6980 9cbd
00000250: ff0c a93d 1a56 36bc
-0.19420986 0.17011765 -0.033478986 0.27432877 0.044966236 0.24805628 0.5067958 0.20290123
0.07733124 0.26659876 0.15864672 0.01683433 -0.19886962 -0.10269493 -0.031845395 -0.07699256
-0.37329555 -0.22458625 -0.286846 -0.27497083 -0.050812732 -0.016133478 -0.004928385 0.16707821
-0.24890915 -0.31879795 -0.03529683 0.39335054 -0.28466725 -0.17275144 -0.40390986 0.049684472
0.6395321 0.042056855 0.11202295 -0.31164292 -0.42887488 0.3840238 0.30554685 0.057051007
-0.02717781 -0.56693697 -0.07569534 -0.28683734 -0.08147377 0.28641424 0.019781297 0.22464302
-0.014608674 0.120655105 -0.09437167 -0.18737417 -0.16507116 0.013996212 -0.28291547 -0.10661386
-0.106475204 0.17295009 0.40102252 -0.14990114 0.26838684 0.1807159 0.49324858 0.6190125
-0.12399054 0.0048066024 -0.46809968 -0.19918963 0.35724393 0.19919068 0.074548796 -0.23842052
-0.38344803 -0.0071836635 0.2803579 0.01271801 0.18008316 0.019269451 0.020935345 0.080740765
0.18170592 0.094066575 -0.059851255 0.03201857 0.26527345 0.08053486 -0.12625489 -0.36860362
-0.10412368 0.25013694 -0.15229644 -0.095862225 -0.17584452 0.4726081 0.3402237 -0.28082404
0.033170026 0.122695774 -0.011273302 0.119089276 0.097847864 0.021848427 0.28682983 -0.047564764
0.29228774 0.028785285 -0.15672879 -0.06265639 0.071258314 0.23113708 -0.076813966 -0.2513543
-0.36201152 -0.5752042 -0.08468891 0.43296868 -0.18709123 -0.81383336 -0.25681525 0.1979177
0.19093679 0.59443617 0.5809842 0.42780736 -0.042181376 0.15582733 0.14784516 -0.07491165
-0.040915653 0.0829612 -0.25490105 0.19077289 0.14003141 -0.09977445 -0.04252105 -0.15022565
0.6723268 -0.16376568 -0.3082707 0.14904037 0.31053665 0.40933734 -0.5862157 0.035715856
0.01912405 0.31606522 -0.23601003 -0.0764168 0.08254432 -0.011128927

conv1.bias f4 [6]
00000000: 087f 72be 3325 aabf fac7 febe 2853 46bf
00000010: d0cf 32bf 6ff4 40bf
-0.23681271 -1.3292602 -0.49761945 -0.77470636 -0.69848347 -0.75372976

conv2.weight f4 [16, 6, 5, 5]
00000000: b1ca 223e 25ea 7cbc 6aee 353e 0bab 2c3e
00000010: e3e7 df3c ec75 123e b9df d23d f4ea dc3e
00000020: 1c11 dd3d 4196 403e fd09 243e 5da1 803e
00000030: 8575 003e 5bc7 a2bd bffb 9c3e 999b 29bf
00000040: 6a4e 1abf 0765 edbe b50d aebe b482 25be
00000050: b953 96bf fa4d 7ebf 1fc7 a3bf c638 fcbf
00000060: 2439 19c0 668d 883e de64 88be 31ca 72bf
00000070: e10c 4d3e 4c4e eebd b8bf b1bd d288 f3be
00000080: 9c42 b0be 54ae 133e 2d92 933d c610 2d3e
00000090: cac1 1a3e 79f7 84be d82a c4bc 9a25 cbbd
000000a0: f687 953e dafd ba3d 7ee1 ddbe b870 4f3d
000000b0: e2d2 b0be 6640 47be 56ea b3bd e47c 2bbf
000000c0: 3dd3 393e e65d 1dbf b790 c03e dea4 d13e
000000d0: 3c7b 8b3c e12a 70be aa16 4c3e 01a0 bbbe
000000e0: 5d05 583e 47a0 203e db08 7dbd 2816 f83d
000000f0: 3eb5 263e 122e 433e b6ca ebbe 57ed 353e
00000100: 2311 4cbc 343f 24bf 558a 8fbf a1b4 c5bf
00000110: 930b 60bf 69eb 02c0 2277 883d 4e0b 36be
00000120: b392 13be 8c06 bfbe fd86 3dbf a1c1 823e
00000130: d011 573f fb5e b2be 90b7 f7be 4d86 05be
00000140: 4054 1c3f b32f 653c d76b bfbe 0fb4 4abe
00000150: 9791 afbd 4f3e f7bb aff7 7cbf 50ff 47bf
00000160: a39c 35bf 8001 a1bf 8aeb 84be a61a 94bf
00000170: 048f cdbf 41e5 e7bf d86c adbf 4237 7fbd
00000180: 6a86 6bbe 9ace 4fbf 86b1 03bf 9583 8dbf
00000190: c26e 913e d1eb f3bd c0f2 81be 89a0 84bd
000001a0: b65d 703e c4ee 413e 4bdc 323e b89a 9fbd
000001b0: efbf a8be 13ac d73e b95a 75be 0ab3 7fbe
000001c0: 9541 8dbe 464f e5bd 03d7 2c3e fad8 c93e
000001d0: 116c 1e3e edc8 a5bd e57b d5be 3f37 de3d
000001e0: 25ad 753e 7ddc f23e 73a4 8c3e de8b 373e
000001f0: 4928 6e3e 26e6 8ebe 9c4c a5be b553 aa3e
00000200: 643a bf3d 4146 c53d 5b0d 643e 8bdc 4abd
00000210: 62b0 b23e d2a7 c0bd 821e fabe 9647 423e
00000220: 9a5b f4bd f745 55be 0fa3 68bf 14eb 4bbf
00000230: 7e72 5fbe d5ad 9bbe 0173 64bf 0edc 08c0
00000240: c068 acbf 0dec 80be 1db1 c13d e29f 92bf
00000250: 5693 4fbf 16b2 ccbf 4dc0 3cbf fec7 23be
00000260: 90d7 8bbe 4f96 933e 1bc5 cd3e 6aab 07bf
00000270: 729e 85bf e453 59bf cf3d 99be 9d8a b53d
00000280: 0c7b 463e bfd1 6b3e 8aa2 9e3e ae6e 513e
00000290: 2fb2 083e 4ca3 d7bd 8295 ae3e 5f97 ad3e
000002a0: f477 593e da38 543e e107 9ebe 70b3 1dbf
000002b0: df90 67bf bcaa 3ebf ea3a bfbe 456c 683e
000002c0: 5d40 473e decc b7be 526c 71bd a655 283e
000002d0: 9762 1c3e e65e 0f3d 4fc8 4ebe 20f6 9cbe
000002e0: 1843 08be 44c7 8b3e 5086 3d3f dbb5 233e
000002f0: fdc9 b6be 8bea 56bf a695 03bf 64e3 1e3e
00000300: 07f2 0cbe 3819 7cbf a6e8 d83d fc10 37be
00000310: d509 aabe 1c06 d4be 2814 20bf a2c7 923e
00000320: 9e0f 573e 1348 163e a645 cabe 3373 4abe
00000330: e4e8 213e fa4b f43e 4cf9 553e 44cb f8bd
00000340: e59b ffbd ef98 b8be 80cf 19be 8ca2 a53e
00000350: 997a 913e 9593 fa3e 85fc bc3d 4d31 f6be
00000360: 32c0 b2be 2cfe 773d 0338 14be 6758 7dbe
00000370: 015f 2fbd c55d f0be 448b 28bf 3cc6 4ebf
00000380: 3e85 3cbe 8790 283e 80ed 603e dd7a f1be
00000390: d5ff 283d d86c 9fbe 9acc c2bd 93e2 2cbd
000003a0: 5431 80be 4613 d5bd 2442 febe c2ce 673d
000003b0: b151 eabd 2b8d fbbe 5ecc b73e 0d88 f6be
000003c0: 34e3 d0bc 49ba 1cbf ae77 58be 44b8 073f
000003d0: 0c89 ca3d 156a e33e b209 7b3e 9742 98bd
000003e0: afa1 a03e 2e34 97be a23c bd3d 4241 acbe
000003f0: c2ea c7bd aeb5 923e 70b0 263e afed 9abd
0.15897633 -0.015436684 0.17766729 0.16862123 0.027332252 0.14302796 0.10296578 0.43148005
0.10794279 0.18807317 0.16019435 0.2512311 0.1254483 -0.0794818 0.30660817 -0.6625305
-0.602759 -0.4636614 -0.33994833 -0.1616314 -1.17443 -0.9933773 -1.2795142 -1.9704826
-2.3941126 0.26670378 -0.26639456 -0.9483977 0.20024444 -0.11636028 -0.086791456 -0.47565323
-0.3442582 0.1442197 0.07205615 0.1690093 0.15112987 -0.25970057 -0.02394621 -0.09919281
0.29205292 0.091304496 -0.433361 0.050644606 -0.3453589 -0.1945816 -0.087849304 -0.6698744
0.18146987 -0.614714 0.3761041 0.40946096 0.017026536 -0.23453857 0.1993052 -0.3664551
0.21095796 0.15686141 -0.061776023 0.12113601 0.16280076 0.19060543 -0.46053094 0.17766319
-0.012455258 -0.6415894 -1.121409 -1.5445749 -0.8751766 -2.0456183 0.06663348 -0.1777775
-0.1441143 -0.37309682 -0.740341 0.25538352 0.84011555 -0.3483809 -0.48382235 -0.13039513
0.61066055 0.013988423 -0.37386963 -0.1979525 -0.08572691 -0.0075452696 -0.98815435 -0.7812395
-0.70942134 -1.2578583 -0.25960952 -1.1570632 -1.605927 -1.8116838 -1.3548841 -0.062308557
-0.23000494 -0.81174624 -0.51442754 -1.1055781 0.28404814 -0.11910213 -0.25380516 -0.06475932
0.23473248 0.18938738 0.17466848 -0.07793182 -0.32958934 0.4212347 -0.23960389 -0.24970642
-0.27589098 -0.11196761 0.16878895 0.39423352 0.15470912 -0.08094964 -0.41696087 0.10850381
0.2399183 0.47433844 0.27469215 0.17924449 0.23257555 -0.27909964 -0.3228501 0.33266988
0.09337309 0.096325405 0.2227072 -0.049526732 0.34900194 -0.09407009 -0.488514 0.1897262
-0.11931534 -0.2082747 -0.9087381 -0.79655576 -0.21821019 -0.3040606 -0.8923798 -2.138431
-1.3469467 -0.25180092 0.0945761 -1.1455042 -0.8108419 -1.5991848 -0.7373093 -0.1599426
-0.273129 0.28825614 0.40189442 -0.5299593 -1.0438979 -0.8489363 -0.2992997 0.08864329
0.19382876 0.2302923 0.30983382 0.20452377 0.13349222 -0.10529193 0.3409844 0.3390455
0.21237165 0.20724812 -0.30865386 -0.61601925 -0.9045543 -0.7447927 -0.37349635 0.22697552
0.19458146 -0.3589849 -0.058941193 0.16438922 0.15271984 0.03500261 -0.20193599 -0.30656528
-0.13306844 0.27300465 0.7403307 0.15987341 -0.3570098 -0.83951634 -0.5140022 0.1551643
-0.13764201 -0.9847598 0.10591249 -0.17877573 -0.33210626 -0.4141091 -0.62530756 0.28667933
0.21002051 0.14675932 -0.39506263 -0.19770508 0.15811497 0.47714216 0.2089588 -0.12148145
-0.124809064 -0.3605418 -0.15020561 0.32350576 0.28413847 0.4894072 0.09227852 -0.4808449
-0.34912258 0.06054513 -0.14474492 -0.24740754 -0.042815212 -0.4694654 -0.658375 -0.8077123
-0.18410203 0.16461383 0.21965599 -0.4716405 0.041259605 -0.3113773 -0.09511681 -0.042208266
-0.25037634 -0.10404067 -0.49659836 0.056593664 -0.11441363 -0.4913114 0.35898107 -0.48150674
-0.025498964 -0.6122175 -0.21139404 0.5301554 0.09889421 0.44416872 0.24515417 -0.07434576
0.31373355 -0.29531997 0.092400804 -0.33643538 -0.097615734 0.28654236 0.16278243 -0.07564866

conv2.bias f4 [16]
00000000: 8f42 083b 3eea 8dbe 7077 a3be 0cef 44bc
00000010: cfb2 133c b56a dbbd 9c65 a8be 3aa2 1bbe
00000020: 8edc 45be be39 9dbe fa8c 0dbe 387a 913e
00000030: c406 c63d 3fba 67be 323e 9fbd 7142 5fbd
0.0020791625 -0.27717775 -0.3192706 -0.012019884 0.009014799 -0.10713712 -0.32890022 -0.15198603
-0.19322416 -0.30708116 -0.1382331 0.28413558 0.09669259 -0.22629641 -0.07775535 -0.054506723

fc1.weight f4 [120, 256]
00000000: 7ac9 19be 4deb f0be 4fe2 37bf 2bf5 5bbe
00000010: 210f 263d 6e71 e8be 4d9e 25bf 103b 683d
00000020: f7bc 0dbf 2caf 6d3d 0ba5 803d a9f5 153e
00000030: d79f cdbe f49f 8bbe 0e32 12bf d305 623d
00000040: 09f2 1ebd b457 15be e5c4 a43e f2b6 cf3d
00000050: 1848 6dbe 0196 eebd e84e 6ebe 6a1a 61bd
00000060: 2203 a5bf aec6 6cbf 0830 a4bd bf83 2b3f
00000070: 725e 77bf 798d 243e d989 d23e f0aa 2b3e
00000080: bc45 aa3e a68e 873e 07da 893d fc81 3ebf
00000090: 6be3 033f 9887 333f 4d98 373f 1584 c13e
000000a0: fde4 85be f617 89be a6a9 803e 785e 09be
000000b0: 4a9a 51be a916 c03b 207a 1dbd 1908 0a3e
000000c0: dda8 aa3d 86e1 eb3d 54a7 2dbd f3e3 6ebe
000000d0: 2239 47bf 18d6 39bf ff61 0dbf 9eb9 fa3e
000000e0: 9a7f 7dbd a42b 06bf d1c0 71be 8757 ee3c
000000f0: 9b79 543f 8870 d33e c1cf 4bbe dada 5e3b
00000100: 3865 153f a705 5cbf 1f43 6dbe 1406 323e
00000110: 477c 86be 73e9 b2bd b904 81be 5472 38be
00000120: ba6d 1dbf 8fda 36bf 3d66 23be 8bf2 5dbe
00000130: e008 293f 5efb 033f c7b2 dd3e a12c 933e
00000140: ca36 69bf 71f4 723e e87b 923c f354 4d3e
00000150: e515 97be 0066 12bd 8858 a43d 5a31 103e
00000160: 3373 e13e bc07 dbbe f8fb 343d 14ab 60be
00000170: d98f 293e 64ba 08bf 6ba7 a8be 76e4 a4be
00000180: 6b8c 973e 3be0 823b 0363 aabe 5cbc 28bf
00000190: 8e8b f63e fc59 0bbf d132 053e 60b6 b53e
000001a0: dc9e 80bf f85d 4f3d be5b 033e e615 ecbd
000001b0: 12fc d53e 86be 9b3e a9c9 bbbe a1d1 a8be
000001c0: 6d81 69be bbe7 d03d f352 613e f00d 36bf
000001d0: 9040 0dbf 920d 383f 254b 863e 127e 20bd
000001e0: 6c9a b2bc dca1 8a3e b21f 2d3e 4d0a a33e
000001f0: 8cdf dbbe 7ff2 29be 0d9d ef3d 9d4a 4bbd
00000200: 9179 953c 0de5 a43e c498 a3bc d9f0 7cbe
00000210: e425 7abf 5390 c8be 898a e33b fb3e b3be
00000220: 2414 edbf d0f6 35bf a70c e63d 8047 613e
00000230: 5bed b5be 7b20 a43e 5daa 613e 304d fb3d
00000240: e5d6 d0bd be31 68bf b59a 4e3e c941 163f
00000250: 46cd 86be b78d 91bd 1a5d 2ebf bfd2 6bbf
00000260: c110 66be 5233 323e f587 10be c6ac d2be
00000270: 575c f43e e796 2cbe d3ea 39be bc29 8fbe
00000280: 0740 1bbf 7929 a53e 7122 873e 1640 fa3e
00000290: f62a d4bc aafd 6dbe feda 17bf 8603 d5be
000002a0: f34e d4bd c99c 99bf d811 3abf 1158 95bd
000002b0: acff 6fbd 051c 89be 8ae7 f9bd b0c4 3cbe
000002c0: 0007 94be 308f 7dbe 8c58 ae3e e010 153f
000002d0: e623 1e3e bf01 2c3f 04af 0abf e679 ebbb
000002e0: e28c 1ebe 297e f03e a1f7 29bf 05f4 b7be
000002f0: cee5 d1bc cbcf 99be 3a27 f43e d453 4a3e
00000300: b170 8abe 9ac4 943e 57cd 84bd 9cfa a139
00000310: 6384 e6be e4b5 c93e 5839 71be 3c42 b6be
00000320: cc8e 82be efe4 1cbc 9dad 323e f4fc bbbe
00000330: 55bb 063d e48a fa3e e192 083f 6d03 f4be
00000340: 8efa 6e3f 0e0a a83e 4cc7 0bbd 2e8d 3dbc
00000350: cc5e 4abf 8db0 1fbe f97a 6bbd 30fe 033f
00000360: 4a89 e1bc 8817 5bbf fad6 07be f5ff ee3e
00000370: a4cd 0c3e ba73 18bc 33c0 6e3e 4ada 1dbe
00000380: dc4a f1bd cd13 76be 83f0 adbf 6865 18bf
00000390: 8b8f 5c3f 7a07 623f 40dd f6be b39a c3be
000003a0: a150 d43c 48cd 353f 3141 233f 00e8 a43e
000003b0: 8c96 95be 886e 4a3e 3c32 bbbd b786 cbbe
000003c0: b9a7 0a3c 5abd a43e 75f7 53bf 3c23 81bf
000003d0: 50b9 ba3e 78e2 4b3e 9c9a ad3e e71e 58be
000003e0: 8157 2f3e 73db bc3e d620 d5be 2d44 f93e
000003f0: 27e8 c03e 59ba e53e 044b e63e b453 b43e
-0.15018263 -0.4705452 -0.71829695 -0.21480243 0.04054177 -0.4539904 -0.6469467 0.05669695
-0.5536646 0.058028385 0.062814794 0.14644493 -0.4016101 -0.27270472 -0.5710763 0.055181336
-0.03880504 -0.14584237 0.3218147 0.10142316 -0.23172033 -0.11649705 -0.23272288 -0.05495683
-1.2891581 -0.9249066 -0.08016974 0.66997904 -0.9662849 0.16069593 0.41120794 0.16764426
0.33256328 0.2647602 0.067310385 -0.7441709 0.5151889 0.70128775 0.7171677 0.37796083
-0.26151267 -0.26776093 0.2512943 -0.13414943 -0.20469013 0.0058620763 -0.038446546 0.13479652
0.08332989 0.115176246 -0.042395905 -0.23329143 -0.7782155 -0.72592306 -0.55227655 0.4896974
-0.06188927 -0.5241034 -0.2360871 0.02909447 0.82998055 0.41296792 -0.1990347 0.0034004957
0.5835757 -0.85946125 -0.23170136 0.17385131 -0.2626669 -0.08735933 -0.25198916 -0.18012363
-0.61495554 -0.71427244 -0.1595697 -0.21674554 0.6602917 0.5155543 0.4330046 0.28744987
-0.91099226 0.2372606 0.017881349 0.20051937 -0.29508892 -0.035741806 0.080246985 0.14081326
0.44033203 -0.42779338 0.04418561 -0.21940261 0.1655878 -0.5340941 -0.3294023 -0.32205552
0.29599318 0.0039940155 -0.33278665 -0.65912414 0.48153347 -0.5443418 0.13007666 0.35490704
-1.004848 0.050626725 0.12827966 -0.11527614 0.41793877 0.30418795 -0.36677292 -0.32972434
-0.22803278 0.10200449 0.22004299 -0.71115017 -0.5517664 0.71895707 0.26229206 -0.03918273
-0.02180215 0.27076614 0.16906622 0.31843796 -0.4294399 -0.16596411 0.11699877 -0.049631704
0.018246444 0.32206002 -0.019970305 -0.24701251 -0.97714067 -0.3917261 0.006944005 -0.35008988
-1.8521771 -0.7107973 0.11232882 0.21999931 -0.3553265 0.3205603 0.22037645 0.12270582
-0.10197238 -0.907009 0.20176204 0.5869413 -0.26328486 -0.07107108 -0.6811081 -0.9211845
-0.22467329 0.1740239 -0.14114363 -0.4114744 0.477267 -0.1685444 -0.18155985 -0.27961528
-0.6064457 0.32258204 0.26393464 0.4887702 -0.025899392 -0.23241296 -0.5931853 -0.4160425
-0.10366621 -1.2000972 -0.7268348 -0.07292188 -0.058593437 -0.2677919 -0.12202366 -0.18434405
-0.2891159 -0.24761653 0.3405193 0.58228874 0.15443382 0.67190164 -0.541733 -0.0071861623
-0.1548343 0.46971253 -0.66393477 -0.3592836 -0.025622275 -0.30041346 0.47686177 0.1975854
-0.27039102 0.29056245 -0.06484478 0.00030895032 -0.45022878 0.39396584 -0.23557031 -0.35597408
-0.2549957 -0.009576066 0.1744904 -0.36716425 0.032893497 0.4893409 0.5334912 -0.47658864
0.93351066 0.3282017 -0.03412561 -0.011569304 -0.790509 -0.15594693 -0.057490323 0.51559734
-0.027531285 -0.8558278 -0.13265601 0.46679655 0.1375032 -0.009304935 0.23315506 -0.15415302
-0.117818564 -0.24030991 -1.3589023 -0.59529734 0.8615653 0.8829266 -0.48215675 -0.38203964
0.025917353 0.7101636 0.6377135 0.32208252 -0.2921642 0.19768727 -0.09140441 -0.39751217
0.00846284 0.32175714 -0.82799464 -1.0088878 0.36469507 0.1991061 0.3390702 -0.21105538
0.17123224 0.36886176 -0.41626614 0.48684826 0.37677118 0.44868734 0.44979107 0.3522011

fc1.bias f4 [120]
00000000: 6d93 6ebe e264 43be 760d 4cbf 6bb8 27be
00000010: b9ad 5fbc 8f6c 79bd 7149 e3be 4f64 00bf
00000020: a89b 5f3e 60d2 86bf b189 743e 3667 eebe
00000030: ebd9 1ebc 0283 4ebf 5209 98bd 4550 b3bd
00000040: 24e1 f7be 5793 23be d098 0abf 91ed 81be
00000050: bd84 10bf 49d4 a6bd 6b58 a0be b399 983c
00000060: 4fc8 30be e46c b3bd 94a6 9bbb 3ec4 c5bd
00000070: 720a 153e 3d31 823c 9243 12bf 57a2 243e
00000080: 5680 26bf 0030 98be fc93 cd3d f42e 1dbf
00000090: 87e1 a8be aedc 6fbd 6e3d a7bd 89a0 9ebe
000000a0: c936 58be 05f1 67bf 2ae1 6ebd 36f7 7fbe
000000b0: acbb c2bd a3df 8fbf 00f3 89be b682 29bf
000000c0: 2fb6 413e 6a10 1c3d 9a59 533e 6ae0 883e
000000d0: a2b8 8cbf 0fd7 8bbc 234a 88be 3390 9ebd
000000e0: 0ba3 99be 992d d8bd d06c 0c38 0a2b 97be
000000f0: 6f13 0dbf e1c0 d3bd f854 ebbe 7c50 7fbf
00000100: f1f4 b1be 616c b7bc acda 29bf cecf 923d
00000110: 5e8f 93bd f5fe 0cbf 3a6f 48bc f5c1 8fbc
00000120: 5466 60be 6dd9 adbf 615b a9bc 41e8 01bf
00000130: 55fd 8fbe 30e6 07bf 0d7d 5ebf 22f7 35bd
00000140: 1009 19be 70a1 68bf b58a 17bf d102 b1be
00000150: 98a7 96bd 8402 cebd 7613 13bf 2a51 c93c
00000160: a222 c53d 3c73 12bf cb84 d5be d81d c9be
00000170: a163 383e 0d4a 5bbf 992e 47bf b059 453e
00000180: e900 f6bd 1582 cb3c 92ea b4be cb68 8fbf
00000190: 5381 57bd a391 06be 0b55 f7be 6c95 4abd
000001a0: 98e4 39be 9862 c2be a4af 43bf 8e07 e5bd
000001b0: acb4 1bbf 785e 9ebd 6ccb 9ebe 97c2 b33d
000001c0: bf9f c2bb 60c4 52bc 686f 29bd fcb6 68be
000001d0: 1014 c53d 53e9 e23b ca26 0abf 4120 39bd
-0.23298426 -0.19081452 -0.7970804 -0.16378944 -0.013652259 -0.060894545 -0.4439197 -0.5015306
0.21836722 -1.0532951 0.2388065 -0.4656312 -0.00969551 -0.8066865 -0.07423653 -0.087555446
-0.48413956 -0.15974174 -0.54139423 -0.2537656 -0.5645254 -0.08145959 -0.31317458 0.018627977
-0.17263912 -0.087610036 -0.0047500823 -0.09656571 0.14554766 0.01589262 -0.57134354 0.16077553
-0.65039575 -0.2972412 0.100379914 -0.6139977 -0.32984564 -0.058560066 -0.08166014 -0.30981854
-0.21114649 -0.9060214 -0.058320202 -0.24996647 -0.09508452 -1.1240124 -0.26943207 -0.66215074
0.18917154 0.03810159 0.20639649 0.26733714 -1.0993845 -0.017070321 -0.26619062 -0.077423476
-0.30007204 -0.10555572 3.347994e-05 -0.29525024 -0.5510778 -0.10339523 -0.45963264 -0.99732184
-0.34757188 -0.022390546 -0.6634929 0.07168542 -0.072050795 -0.55076534 -0.01223355 -0.01754854
-0.21914035 -1.3581978 -0.020673456 -0.50745016 -0.28122965 -0.53085613 -0.8690956 -0.044425137
-0.14944863 -0.90871334 -0.59196025 -0.3457246 -0.07356185 -0.100590736 -0.5745157 0.024574835
0.09625746 -0.57207084 -0.41702875 -0.3928058 0.18006755 -0.8565987 -0.7780548 0.19272494
-0.12011892 0.024842301 -0.35335213 -1.1203855 -0.052613568 -0.13141493 -0.4830707 -0.049458906
-0.18153608 -0.37965846 -0.7643988 -0.111830816 -0.6082256 -0.07732862 -0.31014574 0.087773494
-0.0059394534 -0.012864202 -0.04136601 -0.22726053 0.09622967 0.006924787 -0.5396544 -0.045196775

fc2.weight f4 [84, 120]
00000000: fdfa 5d3b 8f64 c4be 9fd8 7cbd 0938 1cbf
00000010: 7acb b53d 90b4 dfbe 6e3e b53e 95c3 0c3e
00000020: d6ef 0b3e 6c5b 9f3e b8c0 923d d203 e13e
00000030: 11e1 83bd bb43 fd3e 417e 1dbd c09f 503c
00000040: 94b4 1a3f 53a2 a4bd eae8 e4be 3201 24bf
00000050: 5392 1ebf 7e26 ca3c 26c1 a83d afc6 dcbc
00000060: 372a 49bf a45c 533d 8e3a ce3d ceab 5dbd
00000070: b915 c7be bc5d c33c 9f59 e53d 9e87 d53d
00000080: c96b e1be ab1b c7be 9005 a33e f7f4 93be
00000090: e5de 5ebe 07e8 41bc fd2d babe 6740 8a3e
000000a0: cb1c a53c c200 0f3f be7f 943c 4133 c03d
000000b0: 20f5 0cbe 3978 3dbe 1bbc a0be cbe2 f63e
000000c0: 9ff6 d2bc 0bc3 0fbf 3ea3 243e 29bf 62bf
000000d0: 46ca 19bf 14c2 4bbf f964 a3be 1beb 523d
000000e0: 802b 71be 08ce 99bd be9b a73e a3d6 afbe
000000f0: d158 873e fdd1 523d b6d3 6ebe b68f 3abe
00000100: e564 423f 69f8 8a3e 29b1 b83d 0dfc 11be
00000110: f23e c93d 8af1 51bf eb89 80ba f3c3 6bbd
00000120: ef7b 19bf 177e e73e 6aa9 4c3e 1d4b ef3e
00000130: 4c13 4ebf 7797 00bf 4fe3 e3bd 4225 74be
00000140: b5ba 1ebf 63e5 3d3d 4b27 0dbe 6059 723e
00000150: 24cd 093e 62bf 99bd 79a4 823d d018 043f
00000160: 0dab 90be 24f4 843d 90f4 a9bb 8f66 293f
00000170: 064b c3be 14fc 363e 66e5 5dbe 9c20 0e3e
00000180: 32b8 603d 12c1 1cbf f081 673e c0a2 0b3d
00000190: 341d 943e 97ef 0dbd 2860 dabd 1644 803e
000001a0: d971 f33e 88f5 193f 9d3f 2cbd 2a76 90bd
000001b0: fce8 883e d2ef 7a3d b52b 22be 1293 9f3d
000001c0: 735d a03d 2877 7cbc 5756 27bf 0be4 603e
000001d0: e89e f3bc 0695 38bd e996 a1be 1195 91be
000001e0: 48fb 31bd bd6e ffbe 31c3 71bb 2b21 7ebe
000001f0: 0e28 0cbf 782c f13e 6d35 5abe 07d3 d23e
00000200: ba0d fd3e 254a 373e fffb 1bbf 1acb 473e
00000210: 1064 643c d75f 273d 4517 d13c ce09 39bd
00000220: 4cd1 2bbe ba0f 803e 48e7 df3e c693 4c3e
00000230: 480d 9f3e 7989 30bd a3ab d73e 7219 873d
00000240: 15a2 913e ec33 71bd 2afa 1abe 424d f9bc
00000250: 5f1b c43d 36e2 48bd 2882 8fbe f259 3a3e
00000260: 9c67 cd3e 7222 3d3d a277 e8be 5895 183f
00000270: 265c 79bf b5b8 35bd 8351 2cbe 44a8 cabe
00000280: 6058 c0be 33fc 653e dd08 283d ffe1 0a3e
00000290: ad66 34bd 8da7 363f 38f4 2abf 45f1 503e
000002a0: 16fa d13e 9f2c e83d 3175 c43d 89de c4bc
000002b0: 7a52 07bf 6a2b 6ebe b706 71be cd69 e0ba
000002c0: 4f94 73be d005 623e 5486 d0bd 0a5a 6b3d
000002d0: c8c2 6fbf f57d 54bd 0d55 823e 42dc 8a3e
000002e0: f287 82be f2cd d13d 1ce4 053e d662 923e
000002f0: 0c9d 59be 94ce 98bc caaf fc3d 9cbf 8a3c
00000300: de75 c4bc e7a8 d3bd 6007 03be 1181 ce3e
00000310: b081 163f 2f21 e9be 56d6 823e 71a1 e5be
00000320: 5f40 a1bd 6f79 23bb 9e1b 8d3e 8c3f 5d3e
00000330: 349e 3b3e 2364 fbbe 5957 da3e 97b2 71be
00000340: 019d 4cbe 20e7 8b3e 06b3 a8be 5218 533e
00000350: 443b b1be 2699 ea3e 704b 2f3f 1ea3 6fbe
00000360: b5f8 bdbc 5cdb 4d3e 2ed8 ecbe cd0f 1b3e
00000370: 6c26 c2bc 4a17 3d3e 8cab c63d f3fd a5be
00000380: 8616 433f b102 34bf c77e 1f3d fc05 813d
00000390: 0819 e53d 7813 27bd 4736 583d 21cb 88be
000003a0: da5b f3bc edb2 4fbd 9cf9 863d b7f0 813e
000003b0: 4194 53be efec ef3b bd6c 583e d33e ea3e
000003c0: 33af 093f 9f6b 333e 94ea 7fbe e174 debe
000003d0: 34b6 3d3e 7b63 51be bcdc 503f 82d6 16bf
000003e0: dfcf ebbe 731b 0e3f 6618 5dbf 94b5 2b3e
000003f0: 4ada 68bd 23a7 263e de70 a03c aff3 763a
0.0033871525 -0.3835797 -0.061730023 -0.61023 0.08876701 -0.43692446 0.35399193 0.13746484
0.13665709 0.31124437 0.071656644 0.43948227 -0.064394124 0.49465737 -0.038450483 0.0127334
0.6043179 -0.080387734 -0.4470895 -0.64064324 -0.61942023 0.024676558 0.08239965 -0.026950208
-0.7858004 0.05160202 0.10069762 -0.054118924 -0.3888376 0.023848407 0.111987345 0.104262576
-0.44027546 -0.38888296 0.3184018 -0.2889783 -0.21764715 -0.011835105 -0.3636321 0.2700226
0.020155331 0.5586053 0.018127318 0.09384776 -0.13765383 -0.18502893 -0.31393513 0.48219904
-0.025752364 -0.56156987 0.16077897 -0.8857294 -0.6007427 -0.79593015 -0.31912974 0.051493745
-0.2355175 -0.075100005 0.3273601 -0.34343442 0.2643495 0.05146979 -0.23322949 -0.18218884
0.759352 0.27142647 0.090181656 -0.14256306 0.09826459 -0.82009184 -0.0009806728 -0.05755992
-0.5995473 0.45213386 0.19986501 0.46736994 -0.80498195 -0.50231117 -0.1112734 -0.23842338
-0.6200364 0.04636134 -0.1378452 0.23666906 0.13457161 -0.075072065 0.06379027 0.5160036
-0.282555 0.06491879 -0.005186625 0.66172117 -0.38143176 0.17869598 -0.2166954 0.13879627
0.054863162 -0.612321 0.22608161 0.034090757 0.2892853 -0.03465232 -0.106628716 0.25051945
0.47547796 0.60140276 -0.042052854 -0.07053788 0.26740253 0.061263867 -0.15836985 0.07791723
0.07830324 -0.015409268 -0.6536612 0.21961991 -0.029738858 -0.045063995 -0.31560448 -0.2843404
-0.04345253 -0.49889174 -0.0036890025 -0.2481734 -0.5474862 0.4710424 -0.21309443 0.41176626
0.49424535 0.17899378 -0.6093139 0.19511071 0.013939872 0.040862884 0.025523791 -0.045175366
-0.16779059 0.25011998 0.4373114 0.19978246 0.3106482 -0.043099854 0.42123136 0.0659665
0.2844397 -0.058887407 -0.15134493 -0.030432347 0.09575533 -0.049043857 -0.2802899 0.18198374
0.4011811 0.046175428 -0.45403773 0.5960288 -0.9740623 -0.044365603 -0.16827969 -0.395815
-0.37567425 0.22459488 0.041024078 0.13562773 -0.04404323 0.7134941 -0.667789 0.20404537
0.41011113 0.11336636 0.09592665 -0.024031894 -0.52860224 -0.23258749 -0.23537718 -0.0017121375
-0.23787044 0.2207253 -0.10181871 0.057458915 -0.9365659 -0.051877934 0.25455514 0.27121168
-0.25494343 0.10244359 0.13075298 0.2859103 -0.21251315 -0.018653192 0.123382166 0.01693707
-0.023981985 -0.1033495 -0.12795782 0.40332845 0.5879164 -0.4553313 0.2555415 -0.44849733
-0.07873606 -0.0024944206 0.27560133 0.21606272 0.18322068 -0.49099836 0.42644766 -0.23603283
-0.19981767 0.27324772 -0.32949084 0.20614746 -0.3461553 0.45819968 0.68474483 -0.23402068
-0.023189882 0.2010321 -0.46258682 0.15142746 -0.023699962 0.18465915 0.09700689 -0.3242031
0.76206243 -0.70316607 0.038939264 0.062999696 0.11186415 -0.04079005 0.052786138 -0.26717475
-0.029706884 -0.050707746 0.06590578 0.25378963 -0.20662023 0.007321946 0.2113523 0.45751056
0.5378296 0.17521523 -0.24991828 -0.43448547 0.18526536 -0.20448105 0.81586814 -0.5892106
-0.4605703 0.55510634 -0.86365354 0.16768485 -0.0568488 0.16274695 0.01958507 0.0009420467

fc2.bias f4 [84]
00000000: 0dba e7be 2abc 06bf 0082 8dbf bbf4 8bbd
00000010: 77d5 0fbf feff 4cbf bc53 1cbf cb08 51be
00000020: df43 0abf 1423 82be dbfb 1bbf 2aa3 37bf
00000030: 0449 e6bd 20d6 fdbe 6f08 fbbe 855a d83c
00000040: 6d93 21bf ab74 16bf 850e 4ebf 8bcd d3bd
00000050: e93b dcbe 4e1c fabe e9ca 33bf 3201 02be
00000060: ff8e 05bf 94d8 d1be f975 8fbe 825d 28bf
00000070: e83b c2be f909 b03d f8cf 1ebf 576d d8be
00000080: 73d4 bbbe 648e 92bf 2a6c 53bf 7dbe cdbd
00000090: 30cf 73be b17e 15be 35fc 96be 056d f1be
000000a0: 0b61 8ebd 88db 37bf 87b4 c1be ef2c 23bf
000000b0: 1ffa b5be 2a82 acbe 63bd f8be beea 2abf
000000c0: dc76 003e 37c0 0bbe 1653 ffbe b17f 0abf
000000d0: bf82 06bf 817e edbe de81 8abe 9e0d 0dbf
000000e0: 0966 cfbe 02a9 10bf 5d6f 94be a597 60bf
000000f0: d505 6bbf 9038 cbbe 963e d5be 46e5 f7be
00000100: 0296 23bf 6623 77bf d5ce 6abf 0390 1ebf
00000110: c47e 59bf 9ece 61bf 8b48 babe f767 41bf
00000120: 33d9 73bf f99e a8be 946a 74be 3f32 69be
00000130: aaec 263e 16fa 273a 228d 11be 81e8 9b3c
00000140: 203f 2ebf c740 a6be dc32 0c3e 9632 0bbf
-0.45259133 -0.52630866 -1.1055298 -0.06833788 -0.56185097 -0.80078113 -0.6106527 -0.2041351
-0.54009813 -0.25417387 -0.60931176 -0.71733344 -0.112443954 -0.49577427 -0.49029872 0.02641035
-0.6311558 -0.5877177 -0.80490905 -0.103419386 -0.43014458 -0.4884972 -0.7023149 -0.12695768
-0.5217132 -0.40985548 -0.28019693 -0.6576768 -0.3793633 0.08595652 -0.62036085 -0.4227092
-0.36685523 -1.1449704 -0.8258692 -0.100460984 -0.23809505 -0.1459911 -0.29489294 -0.47153488
-0.06952103 -0.71819353 -0.37833044 -0.6374044 -0.3554239 -0.33693057 -0.4858199 -0.6676444
0.12545341 -0.13647543 -0.49868077 -0.5410109 -0.5254325 -0.46385577 -0.27052206 -0.55098903
-0.40507534 -0.56507885 -0.28991213 -0.8773139 -0.91805774 -0.3969159 -0.41649312 -0.4841711
-0.6390077 -0.9653839 -0.9172185 -0.61938494 -0.84959054 -0.882059 -0.3638347 -0.7554926
-0.95253295 -0.32933787 -0.23868781 -0.22773074 0.16301218 0.000640781 -0.14213994 0.019031765
-0.6806507 -0.32471296 0.13691276 -0.54374063

fc3.weight f4 [10, 84]
00000000: 6c93 44bf 2655 e7be ed45 40bf b64b 7cbf
00000010: e743 f3be aad9 60bf 118c 6abe ac7f 5ebf
00000020: d2ff 49bf b995 71be 8440 0dbf ca4a 82bf
00000030: c307 2dbf 5815 8dbf 3d8a c5bf 055d 55bf
00000040: c164 34bf d9a2 c0be 9673 00bd 623f 0bbd
00000050: ccdb cc3d ba89 04bf cd1a 06be 26b1 9cbf
00000060: 7612 5cbf 5d18 dabe 751e 35bf 2cf0 36be
00000070: ddc5 27bf e02a 94bf 6d49 7b3d 8d1c c7bf
00000080: 7035 2ebf 5b1b a2be 5447 1abd d661 3fbe
00000090: 6c4c 9abe b643 82bf 4da6 5dbf 71dd e6be
000000a0: 0072 fcbe 2bdc 66bf 38a8 21bc e153 123e
000000b0: 0655 63bf c7cd 9abf 6830 4fbf f064 773d
000000c0: 7b75 98bf fd6b 6bbe a70e acbd d302 80bf
000000d0: 733a 61bf 2ba9 fabd 02ee c3bf 7100 fd3d
000000e0: e760 93bf 88e1 a5bf 83b2 5fbd d36f 50be
000000f0: 0dbc 28bf 61ce 13bd 5cf1 b2be d3d0 e63d
00000100: e148 90bf 7366 99bf 7544 353d 8242 92bf
00000110: 7216 5fbf ec3e 90be 2f73 a4be d828 d8bd
00000120: c816 81be 8b2a be3d 3e8b 8a3d a227 053d
00000130: 2d7d 6cbf a78f d1be 67f0 54bc d215 31bd
00000140: f0b8 5abf 8b83 963d 8d87 a6bf 6e76 433d
00000150: 530e 663d 0f02 60bf 54a1 573c 05ca eabd
00000160: a82f 5cbf 958e 13be ec5e bb3c fbc0 5abf
00000170: 9e30 1dbf c98e 72bf fc55 163d 538d 7dbe
00000180: 08dd 9abf 0502 09bf 7a81 27bf dde7 903b
00000190: a0c7 4c3d 8308 4cbe 3076 5fbf 9f7d ddbd
000001a0: 5155 64bf b90b 00bf 09a8 5cbf a81b 08be
000001b0: 7d7d 80bd f5d2 8abf e39d a0be 0c74 a7bf
000001c0: 4e74 7cbf 0e1b 91bf 25da 823d ebd9 98bf
000001d0: a676 19bf 7849 53bf 8260 26bf b030 aebf
000001e0: 2226 a1bf a341 7dbf c1cf 2cbf d8dd aebf
000001f0: 5983 2dbf 1292 9f3d e537 3dbf 56cb e1bd
00000200: 2c26 46bf 408c d0bd ff4c 29be d4c8 5bbf
00000210: 6879 a5bf 3d9a d0bd 4fff c2bf 35c4 66be
00000220: b18d f0be db80 e5be ab28 c7bf 93d9 5bbf
00000230: a768 83bf 14d3 5a3a cdf5 eabe 5f4d 9fbf
00000240: 6b60 59bf 82ee 75bf 610c 3abf a30b fcbd
00000250: da5c abbe 9c1b 77bf 9aa9 aebf 57ea 7c3c
00000260: 6b56 da3d 4955 00bf 3136 cabf 508c 2cbf
00000270: c73b bbbe 86ce 74bf ce7f 0f3e ee5d 3bbe
00000280: d12e 46bf 3e5b e4bf 4960 0c3d 4519 55bf
00000290: 2543 4bbf 9511 31bf ee1f 67bf 4ae6 15bf
000002a0: a109 ddbe 4e4f 39bf 2bfa 95be ce8f 9bbd
000002b0: f6bd bfbe 93b1 a7be bb79 46bc dee7 72bd
000002c0: adc9 15bf ca93 3c3c 0493 263d f322 86bf
000002d0: 743e 2cbf d037 babf 5a2b 84be 8a85 ca3b
000002e0: 03fa 19be c892 4fbf 9cc5 34be cdde 97bf
000002f0: 6fe6 6ebf f823 a2be 8ff5 56bf 3347 71bf
00000300: 5e26 a6be eb0a 1dbf d348 063e 753e 2ebf
00000310: bce8 b23e a27d c7bf 4717 3c3d 97b8 d13c
00000320: 99ff 79bf 60bb 28be 9c14 713e faeb 00be
00000330: da56 6ebf 4026 b2be 3271 26bf 1df3 93bf
00000340: 0f49 c7bf 7e68 2ebf 9b35 113e 5eb6 00be
00000350: 8735 26bf f1a3 dfbe 7aca 99bf 2936 9e3d
00000360: d434 1ebf b82b 8fbf 2aec 4dbf 57da c1bd
00000370: 39ab 55bf a22b e7be 0ab0 a2be 3726 72bf
00000380: 4aab efbd e279 21bf 57f4 77bf e4d4 4abe
00000390: d329 e13d c04f 11bf d546 56bf db65 80bf
000003a0: d79b 47bf 4511 c3be 0af2 35bd 365e 653d
000003b0: 485c a6bf e7c3 54bd c620 9ebe 5cec b5bf
000003c0: f474 cebe c2ca cfbd b038 e5bf ab7d 35bf
000003d0: 3aa8 abbe c31e 353e 47bc 073d 4f5e b7bf
000003e0: e5d5 dfbf b881 8dbf 9e01 89bf 1cb0 d4be
000003f0: a791 5f3c ace6 f2be 56ec 473c e956 8bbe
-0.7678745 -0.4518215 -0.751067 -0.98553026 -0.47512743 -0.8783213 -0.22904994 -0.8691356
-0.78905976 -0.23592271 -0.5517657 -1.0179074 -0.6758997 -1.1022139 -1.5432812 -0.8334506
-0.7046624 -0.37624243 -0.03136023 -0.033995993 0.100028604 -0.51772654 -0.13096161 -1.2241561
-0.8596567 -0.42596713 -0.707496 -0.17865056 -0.6553629 -1.1575584 0.06134932 -1.5555588
-0.6805029 -0.31661496 -0.03766568 -0.18689665 -0.3013643 -1.0176914 -0.8658188 -0.4509082
-0.49305725 -0.901797 -0.009866767 0.1428981 -0.8880161 -1.2094048 -0.8093324 0.060398996
-1.1910852 -0.22990413 -0.08401232 -1.0000862 -0.8797981 -0.122392975 -1.5307009 0.123536
-1.1513947 -1.2959452 -0.0546136 -0.20355158 -0.6591194 -0.03608549 -0.34949768 0.11270299
-1.1272241 -1.198439 0.04425474 -1.1426547 -0.87143624 -0.28173006 -0.32119128 -0.10554665
-0.25212693 0.09285458 0.067648396 0.0325085 -0.92378503 -0.4092991 -0.0129967695 -0.0432337
-0.8543844 0.073493086 -1.3010117 0.047720365 0.056166004 -0.8750314 0.013161022 -0.114643134
-0.8601022 -0.1440986 0.02287241 -0.85450715 -0.6140231 -0.9474912 0.036703095 -0.24760942
-1.2098703 -0.53518707 -0.6543194 0.0044221715 0.049995065 -0.19925122 -0.87289715 -0.10814976
-0.8919268 -0.5001789 -0.861939 -0.132918 -0.06273935 -1.0845629 -0.31370458 -1.308229
-0.98614967 -1.1336381 0.06389264 -1.1941503 -0.5994667 -0.8253398 -0.6499101 -1.3608608
-1.2589762 -0.9892828 -0.6750451 -1.3661451 -0.67778546 0.077915326 -0.73913413 -0.110251114
-0.77401996 -0.101830006 -0.16533278 -0.85853314 -1.2927675 -0.101856686 -1.5234164 -0.22535785
-0.46983102 -0.4482487 -1.5559286 -0.85878867 -1.0266312 0.0008347493 -0.45890656 -1.2445487
-0.8491275 -0.9606706 -0.7267514 -0.12306907 -0.33469278 -0.96526504 -1.3645508 0.01543673
0.10661014 -0.50130135 -1.5797788 -0.674016 -0.36569044 -0.9562763 0.14013597 -0.1829755
-0.77415186 -1.7840345 0.034271512 -0.83241683 -0.7939933 -0.69167453 -0.90283096 -0.5855452
-0.4317141 -0.72386634 -0.29292426 -0.07595788 -0.37449616 -0.32752666 -0.012113984 -0.059303157
-0.5851086 0.011509845 0.04066755 -1.0479416 -0.67282796 -1.4548283 -0.25814325 0.00618047
-0.15036778 -0.81083345 -0.17653507 -1.1864868 -0.93320364 -0.31668067 -0.8396844 -0.94249266
-0.32451147 -0.61344784 0.13113718 -0.6806405 0.34943187 -1.5585215 0.045920637 0.025600715
-0.97655636 -0.16477728 0.23543018 -0.12590018 -0.93101275 -0.34794807 -0.6501647 -1.1558567
-1.5569171 -0.6812819 0.14180605 -0.12569568 -0.64925426 -0.43679765 -1.2014916 0.07725174
-0.6179936 -1.1185217 -0.8043848 -0.09465473 -0.8346439 -0.45150477 -0.31774932 -0.9458956
-0.11702593 -0.63076603 -0.9685721 -0.19807774 0.109943055 -0.56762314 -0.8370183 -1.0031084
-0.7797217 -0.38099113 -0.04442028 0.05599805 -1.2996912 -0.05194464 -0.3088438 -1.4212756
-0.40323603 -0.10146095 -1.7907925 -0.7089488 -0.33526784 0.17687516 0.03313854 -1.4325656
-1.748715 -1.1055212 -1.0703619 -0.4154061 0.013645566 -0.47441614 0.012202343 -0.27214745

fc3.bias f4 [10]
00000000: d5d6 01bf 459d 86bd e41e 38be 47d2 24bc
00000010: 8e20 b0bc afb2 bbbe dc66 4fbe 47ac 92be
00000020: da43 d03e c2b1 0a3e
-0.5071843 -0.065729655 -0.17980534 -0.0100599 -0.021499898 -0.36659762 -0.20254081 -0.28647062
0.40676767 0.13544372
