mnist/saved_models/model_epoch_47.pth (torch, 181338 bytes, 10 tensors)

conv1.weight f4 [6, 1, 5, 5]
-0.2993029 -0.08152924 0.16775411 0.20160306 0.41102704 -0.21449359 -0.4309292 -0.508137
-0.57096446 0.16785583 -0.010032002 0.103412256 -0.18930325 -0.21067016 0.040473726 0.08542156
0.3240549 0.16816291 0.33664942 -0.05601129 0.021263914 0.07736764 0.09397283 0.3147628
0.17197895 0.1646713 -0.04480117 0.07284443 0.52616376 0.8118321 0.11789158 -0.197572
-0.47974885 -0.74116826 0.24190232 0.15690863 -0.32445574 -0.11440897 -0.34166476 -0.40026602
0.292401 0.066277735 0.08854577 -0.1149423 -0.3668732 0.14458816 0.031471923 0.109633826
0.37105 0.19460994 -0.17667589 0.19803712 0.021475075 0.03476426 0.022303607 0.22114061
0.36144316 0.08266064 0.23619924 0.34375322 0.72467303 -0.26688176 -0.41978607 -0.13963379
0.21033329 0.06168943 -0.37466925 -0.43000937 -0.1874863 0.6698511 -0.013431869 0.050632864
0.1144221 -0.12827341 0.3148888 0.084846936 -0.1581953 -0.031524353 0.06815553 0.17988218
-0.07728781 0.17940117 -0.14624378 -0.53403085 -0.19755046 -0.08363679 0.1805262 -0.3481271
-0.6831468 -0.12617898 -0.021563785 0.41164738 0.120971255 0.11332509 0.17145598 -0.4849077
0.37515956 0.38365117 0.27516225 -0.12842491 0.007108525 0.11078283 0.33090675 -0.21249267
-0.014083217 -0.08335957 0.09349497 -0.365919 -0.38678703 0.2310453 0.1421282 -0.22683838
-0.5894135 0.41150722 0.35579863 -0.19909158 -0.30515584 -0.050571118 0.7171767 0.014273159
0.00041576222 0.1342357 -0.09080301 0.294002 -0.058758765 0.11934281 -0.2655616 -0.1245133
0.004043361 0.42553696 -0.2695341 0.19900079 0.28269646 0.53551394 0.41975355 -0.047342904
0.016586687 0.084258765 -0.10536903 -0.12304677 -0.09218693 0.060619757 -0.15418988 -0.1049304
-0.11580448 -0.09514101 -0.2122 -0.36585504 -0.025907634 0.019428028
00000000: 3b3e 99be cdf8 a6bd bcc7 2b3e 0871 4e3e
00000010: 2372 d23e 35a4 5bbe c1a2 dcbe 4415 02bf
00000020: ba2a 12bf 66e2 2b3e 445d 24bc cec9 d33d
00000030: b6d8 41be ebb9 57be c7c7 253d 80f1 ae3d
00000040: 86ea a53e e632 2c3e 505d ac3e 186c 65bd
00000050: a931 ae3c ed72 9e3d d474 c03d 9728 a13e
00000060: 401b 303e 989f 283e 6e81 37bd 762f 953d
00000070: abb2 063f 3ad4 4f3f 2471 f13d 5050 4abe
00000080: a4a1 f5be 34bd 3dbf 3eb5 773e a8ac 203e
00000090: 101f a6be 404f eabd afee aebe abef ccbe
000000a0: 95b5 953e 9fbc 873d 7c57 b53d de66 ebbd
000000b0: ced6 bbbe eb0e 143e b4e8 003d b387 e03d
000000c0: 44fa bd3e d447 473e 86ea 34be 3eca 4a3e
000000d0: 7fec af3c f864 0e3d 0eb6 b63c af72 623e
000000e0: 140f b93e fb49 a93d 37de 713e 6c00 b03e
000000f0: 2c84 393f baa4 88be 33ee d6be 29fc 0ebe
00000100: 9c61 573e 0eae 7c3d a6d4 bfbe 302a dcbe
00000110: 69fc 3fbe 5d7b 2b3f 5811 5cbc 6864 4f3d
00000120: 2256 ea3d 1b5a 03be 1b39 a13e 3bc4 ad3d
00000130: f3fd 21be ae1f 01bd 2095 8b3d 0933 383e
00000140: 1249 9ebd f1b4 373e eec0 15be 3fb6 08bf
00000150: ab4a 4abe c449 abbd dcdb 383e b73d b2be
00000160: b5e2 2ebf 1035 01be 89a6 b0bc 72c3 d23e
00000170: c7bf f73d fc16 e83d 2892 2f3e d245 f8be
00000180: ea14 c03e ed6d c43e 11e2 8c3e d281 03be
00000190: a1ee e83b 1ce2 e23d 9c6c a93e ae97 59be
000001a0: 4bbd 66bc 6cb8 aabd 4a7a bf3d bc59 bbbe
000001b0: f308 c6be 2497 6c3e 0e8a 113e 5248 68be
000001c0: cee3 16bf 13b1 d23e 3d2b b63e aade 4bbe
000001d0: 633d 9cbe a923 4fbd e498 373f f8d9 693c
000001e0: a9fa d939 1575 093e eef6 b9bd 6e87 963e
000001f0: 08ad 70bd 016a f43d b1f7 87be d400 ffbd
00000200: 2c7e 843b fbdf d93e 6000 8abe ddc6 4b3e
00000210: 97bd 903e 7117 093f f0e9 d63e a2ea 41bd
00000220: cee0 873c dc8f ac3d b8cb d7bd f2ff fbbd
00000230: 80cc bcbd 6c4c 783d f4e3 1dbe c0e5 d6bd
00000240: e62a edbd 4ad9 c2bd f54a 59be 5a51 bbbe
00000250: 3f3c d4bc 8727 9f3c

conv1.bias f4 [6]
-1.5510798 -1.2531435 -1.6204163 -0.47347584 -0.7484055 -0.42764223
00000000: c889 c6bf 0267 a0bf cd69 cfbf 6d6b f2be
00000010: 8197 3fbf ecf3 dabe

conv2.weight f4 [16, 6, 5, 5]
0.10554859 -0.108130075 -0.51978636 -0.8594766 -0.24264513 0.18343085 -0.025124526 -0.3038441
-0.30882528 -0.43616655 0.052127272 -0.59502435 -0.53069705 -0.19010374 0.23899764 1.1329767
0.22177328 -0.09847365 -0.1622072 0.17788468 0.9092433 0.30891153 -0.3351578 -0.18107778
0.03169083 -0.8559075 -0.06608441 0.09176126 0.052126646 -0.35094047 0.3757573 0.06838688
-0.76746535 -0.86098903 0.02576706 0.32452792 0.29659346 -0.22194123 0.29826477 0.3091369
0.8141066 0.39314076 -0.06499703 -0.22584262 -0.453433 0.18457969 -1.0367594 -1.3995459
-0.7073586 0.11739498 -0.2794559 -0.46496573 0.11646901 -0.515436 0.6176775 0.6699239
0.16175751 0.22635506 -0.07672477 -0.0787815 0.044648755 -0.8705963 -1.374059 -0.1318066
0.53746873 0.59573424 0.31030616 -0.44471583 -0.015755586 -0.149724 0.28739372 -0.431941
-0.24023159 -0.81104463 -1.0599574 -0.2870909 -0.30439624 -0.1593528 -0.44879997 0.3146728
-0.024887651 0.6021957 0.608817 0.14589931 -0.31404212 -1.2114394 -1.788866 -1.6818503
-1.6848792 -1.2321837 0.012771572 -0.07425125 0.020425934 0.09753029 0.4809373 0.35404417
0.5525929 0.21924071 0.43514192 0.82510686 -0.023694606 0.4324042 0.313402 -0.0128788585
0.1434703 -0.2561745 0.34697554 0.4827681 -0.35909185 -0.007791913 -1.7032225 -0.96317637
-1.7021267 -1.3238167 -0.4582217 -1.3243257 -1.2310722 -0.34743765 0.27801013 0.24556825
0.8402542 -0.14949627 0.15521817 -0.10324483 -0.4966714 -0.22629327 0.21368626 -0.023398446
0.08425583 -0.2772379 0.18964452 0.17415373 0.053652007 0.13926688 0.09790685 0.28286818
0.49607652 0.82101434 0.44980916 0.015034882 -0.52393216 0.316779 -0.22367482 -1.2068734
-0.41650897 -1.6839381 -2.0303144 -0.98049945 -0.061182316 0.2528943 -0.2122183 0.0063315886
0.29429454 -0.03806034 -0.04640058 -0.030633176 -0.2819306 -0.032151494 -0.015718292 -0.22975299
-0.16010101 -0.3669514 -0.2504719 -0.2840481 -0.77105105 -0.06591542 0.45686603 0.70520806
0.0058843414 -1.204446 0.3666463 0.3493873 -1.0688276 -1.2217257 -0.8236806 -0.5889864
0.16826312 -0.17241946 -0.44557038 0.37932718 0.08517663 -0.06917233 -0.09813332 0.1383969
-0.091747485 0.017062498 0.023812411 0.3495113 -0.022096682 0.24727882 0.4398943 0.3714452
-0.8077361 -0.94532293 -0.29411697 0.51723546 0.123474225 0.014618975 -0.08586345 -0.19975182
-0.6348068 -0.88572544 -0.16468748 0.24293454 0.33662677 0.6891894 -0.15033464 0.3172987
0.28938207 0.60702455 -0.05273941 -0.1686394 0.32721633 0.8461948 0.7296784 -0.49000913
-0.045170747 -0.40574118 -0.8457414 0.4470928 0.04589875 -1.5420734 -1.3501174 -0.546985
0.26686898 -0.29403138 -0.076875366 -0.20577686 0.48958987 0.37174785 -0.75298685 -0.11681726
0.5562837 0.555321 0.8126547 0.20315222 0.13034901 -0.24604651 -0.016496249 -0.35305744
0.41528678 0.7164415 0.87781477 -0.6885993 -1.5483857 0.33957052 -0.48831993 -0.71108437
-0.327745 -0.2544345 -0.2442249 0.1417976 0.032399073 -0.039110184 -0.83442295 0.260715
00000000: dc29 d83d 4d73 ddbd b810 05bf a906 5cbf
00000010: f777 78be 4cd5 3b3e f3d1 cdbc 7491 9bbe
00000020: 591e 9ebe 3951 dfbe 6883 553d 8453 18bf
00000030: c3db 07bf 8eaa 42be ccbb 743e 6105 913f
00000040: 8918 633e 8eac c9bd a519 26be 6727 363e
00000050: 2bc4 683f a729 9e3e ce99 abbe 746c 39be
00000060: 3ece 013d c11c 5bbf 4357 87bd 54ed bb3d
00000070: c082 553d 78ae b3be 4363 c03e 6c0e 8c3d
00000080: 9c78 44bf c769 5cbf 7115 d33c 8628 a63e
00000090: 19db 973e 9044 63be 29b6 983e 3147 9e3e
000000a0: 4a69 503f bf49 c93e 2a1d 85bd 4a43 67be
000000b0: 5f28 e8be 7502 3d3e 88b4 84bf 5224 b3bf
000000c0: 7415 35bf c76c f03d d814 8fbe fd0f eebe
000000d0: 4e87 ee3d 9df3 03bf 1d20 1e3f 2280 2b3f
000000e0: c3a3 253e 9fc9 673e e021 9dbd 3258 a1bd
000000f0: 9de1 363d 66df 5ebf 2ae1 afbf 4ff8 06be
00000100: 8d97 093f 0a82 183f 73e0 9e3e cbb1 e3be
00000110: dc11 81bc 4051 19be 4525 933e 5f27 ddbe
00000120: 45ff 75be 9fa0 4fbf afac 87bf 94fd 92be
00000130: d3d9 9bbe 612d 23be 1cc9 e5be cb1c a13e
00000140: 30e1 cbbc 7f29 1a3f 6edb 1b3f a166 153e
00000150: 21ca a0be 7210 9bbf 90f9 e4bf df46 d7bf
00000160: 1faa d7bf 32b8 9dbf db3f 513c 0a11 98bd
00000170: 4a54 a73c f6bd c73d 6a3d f63e 4745 b53e
00000180: ba76 0d3f a380 603e ecca de3e 343a 533f
00000190: 311b c2bc 1564 dd3e 3a76 a03e d901 53bc
000001a0: e1e9 123e 4e29 83be c7a6 b13e 612d f73e
000001b0: e3da b7be 4e53 ffbb 3203 dabf ba92 76bf
000001c0: 4adf d9bf d372 a9bf 099c eabe 8183 a9bf
000001d0: c693 9dbf 59e3 b1be 5857 8e3e 3e76 7b3e
000001e0: e61a 573f 8d15 19be 83f1 1e3e 0772 d3bd
000001f0: b74b febe 6cb9 67be 92d0 5a3e 19ae bfbc
00000200: 528e ac3d 20f2 8dbe 2c32 423e 5b55 323e
00000210: 35c2 5b3d fa9b 0e3e 6383 c83d 19d4 903e
00000220: befd fd3e ff2d 523f 634d e63e de54 763c
00000230: 6b20 06bf db30 a23e 030b 65be d47a 9abf
00000240: aa40 d5be 498b d7bf acf0 01c0 0302 7bbf
00000250: 4f9a 7abd 5d7b 813e c14f 59be 3779 cf3b
00000260: c6ad 963e 29e5 1bbd 890e 3ebd 6df2 fabc
00000270: 3559 90be 49b1 03bd a6c3 80bc 5e44 6bbe
00000280: 85f1 23be 0ee1 bbbe da3d 80be c16e 91be
00000290: 9a63 45bf aafe 86bd 58ea e93e 8488 343f
000002a0: 6fd1 c03b 492b 9abf 10b9 bb3e e4e2 b23e
000002b0: 58cf 88bf 8261 9cbf bbdc 52bf d0c7 16bf
000002c0: 2b4d 2c3e ba8e 30be cd21 e4be 2c37 c23e
000002d0: 1671 ae3d 39aa 8dbd 1ffa c8bd ebb7 0d3e
000002e0: 1be6 bbbd a7c6 8b3c 3f12 c33c 25f3 b23e
000002f0: 1a04 b5bc a936 7d3e d339 e13e 112e be3e
00000300: cbc7 4ebf af00 72bf 8096 96be 8b69 043f
00000310: 0ee0 fc3d 6d84 6f3c 2dd9 afbd be8b 4cbe
00000320: b382 22bf e7be 62bf d6a3 28be d5c3 783e
00000330: 585a ac3e b76e 303f 53f1 19be fa74 a23e
00000340: e329 943e f665 1b3f 4805 58bd cfaf 2cbe
00000350: e688 a73e 39a0 583f 34cc 3a3f 7ae2 fabe
00000360: f604 39bd 4fbd cfbe 8282 58bf 59e9 e43e
00000370: 5400 3c3d a962 c5bf a6d0 acbf 3507 0cbf
00000380: 0da3 883e 488b 96be d570 9dbd 2bb7 52be
00000390: 86ab fa3e bc55 be3e bfc3 40bf e33d efbd
000003a0: 9c68 0e3f 8429 0e3f 230a 503f 2307 503e
000003b0: 367a 053e 9ef3 7bbe 2423 87bc f2c3 b4be
000003c0: 78a0 d43e b668 373f 78b8 603f 0b48 30bf
000003d0: 8131 c6bf 30dc ad3e 1205 fabe a009 36bf
000003e0: 31ce a7be 3d45 82be 1816 7abe 6433 113e
000003f0: e4b4 043d 0032 20bd be9c 55bf 707c 853e

conv2.bias f4 [16]
0.080622375 -0.44050977 -0.12681122 0.29295793 0.015115033 -0.19332816 -0.5917991 -0.560485
-0.25896043 0.022335771 -0.17145249 -0.27590668 -0.37002534 -0.31936797 0.18055025 -0.18364118
00000000: 581d a53d 7f8a e1be cdda 01be 95fe 953e
00000010: 0ba5 773c d1f7 45be 2580 17bf f27b 0fbf
00000020: 7696 84be 82f9 b63c 3e91 2fbe a443 8dbe
00000030: f673 bdbe 3384 a3be 2ae2 383e 6f0c 3cbe

fc1.weight f4 [120, 256]
-0.37701467 0.22192453 0.31046614 0.4578172 -0.079739675 -0.71117866 0.18283446 0.8744504
-0.48213366 0.3569709 -0.50092477 -1.4670169 0.385984 0.64809066 0.052949958 -0.6061006
-0.055388886 -0.05109864 0.07237466 -0.6579297 -0.4295959 0.24872297 -0.0850341 0.53054506
0.6103184 0.17349394 0.48356947 -0.6102254 0.9574676 0.8781383 0.32887495 -1.0779966
-0.2292318 0.33835092 -0.035121508 0.8021975 -0.20376049 -0.045609847 -0.60242313 -0.24642506
0.038098305 0.59418464 0.18342224 -0.36882818 -0.31029105 -0.59673744 -1.1206504 0.329457
-0.36066222 -0.09497377 -0.048777077 0.0010363775 0.92562 0.3620778 0.38609052 -0.23031914
0.43945897 -0.57178664 0.29744437 0.42852253 -0.6001334 0.4144023 0.7834034 0.6091293
-0.47606188 0.011711536 -0.048846655 0.2975421 0.40001434 0.15652019 -0.5069229 -0.6101043
-0.06898831 -0.19025117 0.02068727 0.46337515 -0.89261544 0.30224606 0.84228957 0.90929407
-0.3049917 -0.7933612 -0.7494558 -0.33535102 0.10466049 0.089977294 0.96998787 -0.74302626
0.32573098 0.9131864 -0.28634852 0.34530514 0.26017112 0.98362744 0.5353987 -0.3941473
-0.37710062 -0.14643836 -0.49593735 -0.330105 0.064769074 0.31780186 0.44336975 -0.31810513
-0.5509778 0.61699724 -0.15404949 0.118768975 -0.74414676 -0.5051683 0.14054766 -0.13232188
0.6450844 -0.018955447 -0.27878004 -0.7738942 0.19021271 0.18441369 -0.041632544 0.05826609
0.58705693 0.809771 0.8922998 -0.10553134 0.44151688 0.230486 -0.12988994 0.661247
0.41601315 -0.22498408 0.47020343 0.39132705 -0.21263556 0.76376563 0.08327933 0.22179042
-0.685977 -0.019840583 -0.3572381 -0.1522894 -0.708061 0.06565737 0.32993937 0.115881935
-0.31643206 -0.1470105 -0.39863703 0.31407425 -0.110691056 -0.2615752 -0.01723794 -0.05414999
0.5683387 -0.43181002 -0.6384023 0.44571304 0.75781155 -0.35969332 -1.6110067 -0.041292164
-0.095100254 -0.28472963 -0.015344553 -0.41325605 -1.2918669 -0.5516637 0.08567204 0.7083935
-0.40794414 -0.54251707 0.45534617 0.25471428 0.4057303 0.2544331 -0.71450955 -0.28327256
-0.09873471 0.738021 0.5923342 -0.40374684 -0.7050726 -0.36777648 -0.13825586 -0.2535924
-0.65932566 0.12747774 0.30634513 -0.9510784 0.46378824 -0.08940259 -0.98422617 -0.6338142
-0.22860599 0.24921466 -0.37014833 -0.26865166 0.122541286 -0.29834387 -0.32812423 -0.015623083
0.07135885 0.1442506 -0.26120168 -0.4547637 0.46006736 0.063748 -0.45991027 -1.0418897
-0.3187132 -0.015293462 0.040744234 -0.62209374 0.05939058 -0.03967621 -0.16642614 -0.4686454
-1.2902906 0.24377973 0.47963363 -0.70256823 0.02249987 0.3471485 0.18982737 -0.7447537
-0.43874893 -0.08022181 -0.026187906 0.11021391 0.36152598 -0.0073677734 0.16813008 0.029512972
0.13094957 -0.17886709 0.95166326 -0.081334636 -0.022398284 0.44869438 0.13488276 -0.38238636
-0.13981171 -0.33005875 -0.63741016 -0.11117033 -0.60688895 0.54727566 0.9092172 0.4382193
0.058330078 0.028649457 0.5805148 -0.80006564 0.3630256 0.62094516 -0.569149 1.0263498
00000000: 1108 c1be 2f40 633e 6bf5 9e3e 0467 ea3e
00000010: 8e4e a3bd ce0f 36bf f538 3b3e fbdb 5f3f
00000020: 39da f6be e4c4 b63e 9b3c 00bf 36c7 bbbf
00000030: b29f c53e 45e9 253f 0ee2 583d 6929 1bbf
00000040: 75df 62bd cf4c 51bd 2a39 943d 156e 28bf
00000050: fef3 dbbe 3cb1 7e3e 5c26 aebd cdd1 073f
00000060: d43d 1c3f 65a8 313e 6b96 f73e bb37 1cbf
00000070: 991c 753f accd 603f 4c62 a83e cbfb 89bf
00000080: bebb 6abe 553c ad3e 92db 0fbd d15c 4d3f
00000090: 97a6 50be 64d1 3abd 6738 1abf da56 7cbe
000000a0: f80c 1c3d 7c1c 183f 0ad3 3b3e 0cd7 bcbe
000000b0: 78de 9ebe c9c3 18bf 7971 8fbf 97ae a83e
000000c0: b8a8 b8be 9c81 c2bd 79ca 47bd 0fd7 873a
000000d0: 6ff5 6c3f 4362 b93e a8ad c53e c8d8 6bbe
000000e0: c400 e13e 9c60 12bf a14a 983e 4e67 db3e
000000f0: 58a2 19bf 8a2c d43e 208d 483f e6ef 1b3f
00000100: 62be f3be bee1 3f3c 6e13 48bd 7057 983e
00000110: aece cc3e d446 203e b3c5 01bf cc2f 1cbf
00000120: be49 8dbd 34d1 42be 5a78 a93c 823f ed3e
00000130: 7282 64bf ffbf 9a3e 4aa0 573f 7fc7 683f
00000140: df27 9cbe b819 4bbf 56dc 3fbf 21b3 abbe
00000150: 3d58 d63d 0446 b83d 2051 783f f836 3ebf
00000160: 36c6 a63e 95c6 693f 469c 92be d6cb b03e
00000170: 2635 853e 02cf 7b3f e40f 093f adcd c9be
00000180: 5513 c1be f0f3 15be 80eb fdbe 8603 a9be
00000190: a6a5 843d edb6 a23e 5c01 e33e adde a2be
000001a0: e20c 0dbf 88f3 1d3f 26bf 1dbe 263d f33d
000001b0: 6780 3ebf b652 01bf baeb 0f3e 637f 07be
000001c0: 4024 253f 7448 9bbc 42bc 8ebe ee1d 46bf
000001d0: 1fc7 423e f1d6 3c3e e386 2abd 6ca8 6e3d
000001e0: 5d49 163f 274d 4f3f c26d 643f d120 d8bd
000001f0: 800e e23e 8604 6c3e de01 05be 7c47 293f
00000200: adff d43e 3a62 66be 81be f03e 055c c83e
00000210: 23bd 59be 2586 433f 5a8e aa3d 071d 633e
00000220: 309c 2fbf b888 a2bc eae7 b6be c1f1 1bbe
00000230: 7c43 35bf 5f77 863d d0ed a83e 8253 ed3d
00000240: 6203 a2be ec89 16be 271a ccbe 57ce a03e
00000250: feb1 e2bd 2fed 85be 9536 8dbc 61cc 5dbd
00000260: a57e 113f 3416 ddbe 556e 23bf 8034 e43e
00000270: f0ff 413f b929 b8be 7835 cebf f921 29bd
00000280: ecc3 c2bd 15c8 91be b867 7bbc 4c96 d3be
00000290: e55b a5bf d539 0dbf d374 af3d 4759 353f
000002a0: 0ede d0be 66e2 0abf 2223 e93e e969 823e
000002b0: e2bb cf3e 0e45 823e 19ea 36bf 1a09 91be
000002c0: 6c35 cabd f2ee 3c3f 37a3 173f e8b7 cebe
000002d0: a37f 34bf 334d bcbe f292 0dbe ddd6 81be
000002e0: 91c9 28bf 8689 023e 45d9 9c3e e079 73bf
000002f0: a775 ed3e b518 b7bd 3ff6 7bbf a641 22bf
00000300: b017 6abe 2132 7f3e 1584 bdbe b68c 89be
00000310: edf6 fa3d 87c0 98be e6ff a7be f6f7 7fbc
00000320: 9724 923d 6eb6 133e 3abc 85be cad6 e8be
00000330: f38d eb3e 508e 823d 5c79 ebbe a45c 85bf
00000340: 602e a3be 6e91 7abc 6de3 263d 8941 1fbf
00000350: 8943 733d 8683 22bd 9d6b 2abe 4af2 efbe
00000360: 3e28 a5bf 65a1 793e 8a92 f53e 83db 33bf
00000370: a651 b83c 73bd b13e 1b62 423e 2ea8 3ebf
00000380: b3a3 e0be 554b a4bd 0588 d6bc d5b7 e13d
00000390: ef19 b93e 5d6d f1bb 4b2a 2c3e 30c5 f13c
000003a0: a517 063e ef28 37be 34a0 733f c692 a6bd
000003b0: 9b7c b7bc 45bb e53e b51e 0a3e 25c8 c3be
000003c0: cd2a 0fbe 76fd a8be 502d 23bf 45ad e3bd
000003d0: 135d 1bbf 421a 0c3f 75c2 683f 485e e03e
000003e0: 85eb 6e3d 44b2 ea3c 9e9c 143f 1ad1 4cbf
000003f0: 7ede b93e 43f6 1e3f c0b3 11bf 6e5f 833f

fc1.bias f4 [120]
-0.39099726 -1.366059 0.1531833 -0.35022736 -0.5069631 -0.14961377 -0.27454582 -0.15613908
-1.2871603 -0.9434741 -0.29464796 -0.026237251 -0.03495266 -1.0642446 -0.48030218 -0.45342612
-1.3166474 -0.14853497 0.06754942 -0.08519708 0.44641122 0.05551062 -0.1202283 -0.21524979
0.18049522 -0.45706433 -0.49280003 -0.63823724 -0.8030847 0.085309625 -0.007839266 0.022137253
-0.030516025 -0.19790202 -0.94710475 -0.049427394 -0.18539351 -0.035525203 0.19491783 -0.01941759
0.029280154 0.03968956 0.12854178 0.227211 -0.08050799 -0.17792954 -0.09607628 -0.12011089
-0.5068435 -0.63224256 -0.80422586 -0.6906229 -0.18681134 -0.0033086957 0.16246393 -0.04972011
-0.36016703 -0.08514635 -0.48023722 -0.17596163 0.045032263 -0.8185047 -0.10186433 -0.38347638
-0.6882633 -0.09911189 -0.08738507 -0.5088667 -0.47798413 0.037504286 -0.106474824 -0.61151236
-0.3322925 -0.35312513 -0.029119333 -0.5219251 -0.55347043 -0.28562933 -1.3935744 -0.060235817
-0.032958675 -0.73720026 -0.09409991 -0.632578 -0.097929545 -0.5064949 -0.34565514 -0.20282933
0.2894032 -0.031950805 -1.0060533 -0.0770867 -0.20619912 -0.0529584 -0.06941234 -0.4103511
-0.09959978 -0.2787676 -0.3871062 -0.0031786752 -0.10153094 -0.053475466 -0.24402931 -0.073077954
-0.3580774 -0.07296156 -0.08219351 -0.53233385 -0.07384983 0.019235196 -0.054707296 -0.035408057
0.37351856 -0.7956666 -0.010737938 -1.1379626 0.055588074 -0.70274425 -0.14406098 -0.65679425
00000000: cb30 c8be 05db aebf 15dc 1c3e 0051 b3be
00000010: 55c8 01bf 5a34 19be 4591 8cbe ece2 1fbe
00000020: abc1 a4bf 8587 71bf 19dc 96be 81ef d6bc
00000030: 852a 0fbd 2b39 88bf 2bea f5be 7827 e8be
00000040: e787 a8bf 8d19 18be 5a57 8a3d cf7b aebd
00000050: 0390 e43e 1b5f 633d 413a f6bd 716a 5cbe
00000060: bdd3 383e 5604 eabe 4950 fcbe 8463 23bf
00000070: f596 4dbf d0b6 ae3d 4470 00bc 2f59 b53c
00000080: befc f9bc d4a6 4abe 7575 72bf 6174 4abd
00000090: ccd7 3dbe e082 11bd 8a98 473e a311 9fbc
000000a0: efdc ef3c 8591 223d 75a0 033e 00aa 683e
000000b0: 60e1 a4bd 2933 36be a4c3 c4bd b3fc f5bd
000000c0: 7fc0 01bf a6da 21bf bfe1 4dbf aacc 30bf
000000d0: 794b 3fbe b4d6 58bb f25c 263e 50a7 4bbd
000000e0: d067 b8be 3661 aebd a7e1 f5be 492f 34be
000000f0: c073 383d 8689 51bf 3f9e d0bd 0457 c4be
00000100: 0632 30bf 2dfb cabd f2f6 b2bd 1745 02bf
00000110: 56ba f4be 189e 193d 790f dabd 138c 1cbf
00000120: 3e22 aabe d1cc b4be ab8b eebc e29c 05bf
00000130: 3db0 0dbf 023e 92be a560 b2bf d5b9 76bd
00000140: adff 06bd 28b9 3cbf 74b7 c0bd a2f0 21bf
00000150: 498f c8bd a6a9 01bf b6f9 b0be 7eb2 4fbe
00000160: a82c 943e d9de 02bd 5bc6 80bf a2df 9dbd
00000170: dd25 53be e8ea 58bd 0f28 8ebd 8a19 d2be
00000180: f8fa cbbd a0ba 8ebe c932 c6be 5251 50bb
00000190: 74ef cfbd 1709 5bbd d2e2 79be e5a9 95bd
000001a0: ec55 b7be df6c 95bd 1255 a8bd 0847 08bf
000001b0: 943e 97bd 2193 9d3c c214 60bd 0a08 11bd
000001c0: d33d bf3e ceb0 4bbf 2dee 2fbc c2a8 91bf
000001d0: 52b0 633d 0ce7 33bf b984 13be ab23 28bf

fc2.weight f4 [84, 120]
-0.03277911 0.6254704 -0.44791305 -0.2654855 0.22299893 -0.27196926 0.34226906 -0.6107745
0.6030253 1.008619 0.34401944 -0.041397408 0.091233075 0.42168432 0.09757534 0.17554392
-0.043459643 0.19546138 -0.24594592 0.033411082 -0.4055943 -0.23850396 0.36210775 -0.029519701
0.10385108 0.3822484 0.6618631 -1.0858796 0.42874902 0.017570777 -0.032443997 -0.3648476
0.28821316 -0.34160948 -0.030251518 -0.044778347 0.2950729 0.013873039 -0.13460682 -0.2088994
0.05361869 0.0076267035 -1.1181619 -0.07455639 0.017227972 -0.5810268 -0.01268575 0.020954914
-0.26715234 0.03972995 0.07004452 0.294773 -0.958636 -0.08554783 -1.0027608 -0.055358704
0.17142686 -0.032970127 -0.10666325 -0.29629692 -0.124563925 0.16913715 0.20412862 -0.76375294
0.24947323 -0.0046836142 -0.05043692 0.1337092 -0.19605698 0.17811294 -0.8744323 -0.1481797
0.5515237 -0.65109247 -0.3190992 -0.1727066 0.024091532 -1.0945292 0.17821623 -0.06384393
-0.35068554 -0.411492 -0.17706266 0.2127028 0.021919373 -0.71403044 -0.15762173 0.08269474
-0.39297426 0.03472133 0.08666413 -0.044280443 0.20583951 0.10630887 -0.010810353 -0.34526983
0.0037801692 0.60243 0.39532125 -0.06131497 -0.09776827 -0.002477439 -0.6458604 0.0035723294
0.3660327 0.037963346 -0.08835495 -0.20496741 0.038111344 -0.06981691 -0.054033373 -0.021563571
-0.40573794 -0.123485416 0.065900095 0.50154096 0.5754416 0.795907 0.45550922 -0.20518127
0.24384385 0.4891719 -0.2915092 0.3240601 0.037904516 -0.08148916 0.10781557 -0.31286666
0.12786207 0.3635889 0.089010626 -0.08639931 0.0056877644 -0.27205625 -0.10439911 0.376056
-0.0761047 0.35145724 0.05573989 0.016223526 -0.7520106 -1.1451621 -0.52224314 -0.30817673
0.2667051 0.30578882 0.19990404 -0.08533446 -0.0063288794 0.090205014 -0.03482134 0.3328725
0.24464053 -0.19917832 0.15014017 -0.06660538 0.342274 -0.08691512 -0.4590299 0.46497813
-0.114406824 -0.77521294 -0.14002903 -0.01855841 -0.0124255875 0.22005275 0.045501526 0.066268675
0.24145225 -0.5953255 0.45117944 -0.097001754 0.22454332 -0.18675911 -0.17769222 -0.017219162
0.14722565 -0.06883483 0.39000595 -0.07906357 -0.17088531 0.1313204 0.30737308 -0.0627239
-0.2853799 -0.07036212 0.0037466427 -0.03317326 -0.040986776 -0.4396463 0.034623172 -0.49828234
-0.09008474 0.29084477 -0.01119416 0.2131806 0.39247814 0.06443486 0.22708598 -0.033807795
0.13973089 -0.07337962 -0.7972684 1.0752823 0.047819056 0.5691558 0.10500614 0.184588
-0.65355587 -0.111120425 0.07945723 0.06308735 -0.78781736 0.037497826 -0.49930382 -0.92524207
0.018910611 0.21224521 0.26362985 -0.71504873 -0.25494072 0.07369061 -1.2881525 -0.11067385
-0.021622697 -0.061359674 -0.046539236 0.3209393 -0.08642253 -0.069856614 -0.07483835 -0.2783963
-0.48451233 -0.23434487 0.2608311 0.26397356 0.16964856 -0.3750695 0.022171183 -0.73689705
-0.07432664 0.20730497 -0.22283077 0.23383102 0.17475101 -0.10518596 -0.01052949 0.026380429
0.71458566 -0.03466139 -0.1457264 -0.11157119 -0.0844391 0.017339988 0.073295444 -0.06515153
00000000: 6343 06bd d41e 203f dc54 e5be b7ed 87be
00000010: d559 643e 8e3f 8bbe e43d af3e b85b 1cbf
00000020: de5f 1a3f 6d1a 813f 5123 b03e 5490 29bd
00000030: 68d8 ba3d 02e7 d73e 94d5 c73d c9c1 333e
00000040: bd02 32bd 0727 483e 3fd9 7bbe 0fda 083d
00000050: 0eaa cfbe 623a 74be 3066 b93e 4dd3 f1bc
00000060: e0af d43d 10b6 c33e dc6f 293f 1afe 8abf
00000070: fe84 db3e 97f0 8f3c ffe3 04bd 4ecd babe
00000080: ad90 933e 70e7 aebe 08d2 f7bc 8069 37bd
00000090: cc13 973e be4b 633c 5fd6 09be b9e9 55be
000000a0: 469f 5b3d 6de9 f93b ee1f 8fbf 05b1 98bd
000000b0: ad21 8d3c 2cbe 14bf e4d7 4fbc a4a9 ab3c
000000c0: 31c8 88be dfbb 223d 8073 8f3d 7dec 963e
000000d0: 2b69 75bf b333 afbd 775a 80bf cfbf 62bd
000000e0: 868a 2f3e af0b 07bd 4372 dabd 3bb4 97be
000000f0: 5f1b ffbd 4a32 2d3e 1807 513e 5085 43bf
00000100: e975 7f3e 0179 99bb f296 4ebd 11eb 083e
00000110: 29c3 48be 3d63 363e ccda 5fbf 6bbc 17be
00000120: a830 0d3f ffad 26bf f860 a3be 00da 30be
00000130: 9b5b c53c 8819 8cbf 517e 363e 9bc0 82bd
00000140: 0e8d b3be 14af d2be ea4f 35be c3ce 593e
00000150: 4290 b33c b3ca 36bf 9767 21be dc5b a93d
00000160: ec33 c9be f437 0e3d f77c b13d 695f 35bd
00000170: 98c7 523e 77b8 d93d e81d 31bc 35c7 b0be
00000180: b7bc 773b da38 1a3f 8c67 ca3e 6825 7bbd
00000190: bb3a c8bd 875c 22bb 1b57 25bf be1d 6a3b
000001a0: a368 bb3e 747f 1b3d 71f3 b4bd fae2 51be
000001b0: a41a 1c3d 2bfc 8ebd 1952 5dbd 16a6 b0bc
000001c0: e2bc cfbe ece5 fcbd a1f6 863d fd64 003f
000001d0: 2450 133f 90c0 4b3f 8138 e93e 0a1b 52be
000001e0: 34b2 793e bd74 fa3e b240 95be 35eb a53e
000001f0: c441 1b3d cae3 a6bd 69ce dc3d 0f30 a0be
00000200: 46ee 023e 5328 ba3e 344b b63d 1ff2 b0bd
00000210: 6d60 ba3b f54a 8bbe 33cf d5bd 698a c03e
00000220: c8dc 9bbd 34f2 b33e 834f 643d 33e7 843c
00000230: c483 40bf ac94 92bf bab1 05bf 57c9 9dbe
00000240: 928d 883e 5a90 9c3e a5b3 4c3e d5c3 aebd
00000250: 7d62 cfbb 68bd b83d d2a0 0ebd 446e aa3e
00000260: 0c83 7a3e 67f5 4bbe 58be 193e 6768 88bd
00000270: 8a3e af3e 8e00 b2bd f805 ebbe 9d11 ee3e
00000280: 204e eabd 5b74 46bf c563 0fbe cf07 98bc
00000290: b194 4bbc 8255 613e cf5f 3a3d dfb7 873d
000002a0: 423f 773e 4167 18bf fe00 e73e dba8 c6bd
000002b0: afee 653e c83d 3fbe f3f4 35be 330f 8dbc
000002c0: 52c2 163e 46f9 8cbd dcae c73e 15ec a1bd
000002d0: 8ffc 2ebe db78 063e 0160 9d3e 6375 80bd
000002e0: 501d 92be 041a 90bd 3c8a 753b afe0 07bd
000002f0: c0e1 27bd 5219 e1be 07d1 0d3d dd1e ffbe
00000300: 597e b8bd 9be9 943e b667 37bc 044c 5a3e
00000310: e5f2 c83e 6df6 833d 3a89 683e 0b7a 0abd
00000320: 9d15 0f3e 0e48 96bd c819 4cbf daa2 893f
00000330: eadd 433d 32b4 113f 760d d73d a304 3d3e
00000340: 704f 27bf 1b93 e3bd 79ba a23d f133 813d
00000350: 66ae 49bf 5297 193d c0a4 ffbe aadc 6cbf
00000360: 6dea 9a3c cf56 593e 7efa 863e 6f0d 37bf
00000370: 9787 82be 1aeb 963d 2ee2 a4bf f9a8 e2bd
00000380: 1522 b1bc 4854 7bbd ed9f 3ebd 2852 a43e
00000390: 4cfe b0bd fc10 8fbd d944 99bd f689 8ebe
000003a0: 0012 f8be 1af8 6fbe a78b 853e 8b27 873e
000003b0: 5ab8 2d3e 1c09 c0be 57a0 b53c 49a5 3cbf
000003c0: 9138 98bd c147 543e c02d 64be 6671 6f3e
000003d0: eef1 323e bd6b d7bd e283 2cbc c51b d83c
000003e0: 16ef 363f 1af9 0dbd 4d39 15be 707f e4bd
000003f0: 68ee acbd 970c 8e3c ec1b 963d 2a6e 85bd

fc2.bias f4 [84]
-0.51355845 -0.4984859 -0.18029062 -0.8915115 -0.49045432 -0.6166763 -0.5167048 -0.3915414
-0.9757935 -0.561336 -0.30994534 -0.6233328 -0.49341306 -0.45704308 0.03345895 -0.21654107
-0.9366905 -0.2774786 -1.154361 -0.43141338 -0.48631892 -0.61263114 -1.2678777 -0.80470663
-0.9213623 -1.2577983 -0.14401276 -0.8724076 -0.83498883 -0.67057675 -0.72496384 -0.6706511
-0.07358899 -0.2733343 -0.93823475 -0.38475978 -0.30451167 -1.3419939 -0.7114886 -0.7083781
-0.8102883 -0.84907866 -0.65799046 -0.7065612 -1.1095165 -1.1310357 -0.44987255 -0.70995396
-1.0011508 -1.1466901 -0.5056431 -1.0750575 -0.3070297 -0.32716992 -0.82156795 -0.34367076
-0.39549938 -1.0323447 -1.0150104 -0.61434436 -0.800154 -0.1984535 -0.9449725 -0.2771172
-1.0002773 -0.70082337 -0.42503992 0.17852545 -0.5282476 -1.1017275 -0.82764256 -1.0508072
-0.7959394 -0.07640286 -0.79177135 -0.8293021 -0.5624547 -0.4249557 -0.45754808 -0.75367135
-0.78622186 -0.51934236 -0.40189707 -0.11277418
00000000: 9178 03bf 8b39 ffbe 1b9e 38be 193a 64bf
00000010: d41c fbbe 7fde 1dbf c446 04bf 1d78 c8be
00000020: 9acd 79bf b7b3 0fbf 28b1 9ebe bd92 1fbf
00000030: a3a0 fcbe 8d01 eabe 410c 093d f1bc 5dbe
00000040: f3ca 6fbf ad11 8ebe 1ac2 93bf 37e2 dcbe
00000050: cbfe f8be 65d5 1cbf d149 a2bf 4101 4ebf
00000060: 66de 6bbf 89ff a0bf 1578 13be 1b56 5fbf
00000070: d4c1 55bf ebaa 2bbf 3b97 39bf caaf 2bbf
00000080: d3b5 96bd 79f2 8bbe 2730 70bf 3cff c4be
00000090: f4e8 9bbe 75c6 abbf 1e24 36bf 4458 35bf
000000a0: 0e6f 4fbf 385d 59bf 1072 28bf 32e1 34bf
000000b0: a304 8ebf c7c5 90bf b255 e6be 8bbf 35bf
000000c0: b625 80bf bec6 92bf d471 01bf 7c9b 89bf
000000d0: ff32 9dbe d182 a7be 4752 52bf 9df5 afbe
000000e0: e57e cabe df23 84bf dceb 81bf ac45 1dbf
000000f0: e4d6 4cbf 6537 4bbe b8e9 71bf 4ee2 8dbe
00000100: 1609 80bf 2969 33bf d59e d9be 60cf 363e
00000110: 3c3b 07bf 6805 8dbf 62e0 53bf da80 86bf
00000120: afc2 4bbf 1a79 9cbd 87b1 4abf 244d 54bf
00000130: 08fd 0fbf cb93 d9be be43 eabe 9bf0 40bf
00000140: d645 49bf 9ff3 04bf 74c5 cdbe 26f6 e6bd

fc3.weight f4 [10, 84]
-2.067756 -1.2942119 -1.7113202 -0.66302454 -1.2859395 -0.56230944 -1.048872 -0.81046
-0.17984109 -0.6000712 -0.14806828 -1.6665742 -0.01630912 -1.0385852 -1.4840351 -1.1628363
-0.31875542 0.18695082 -0.40291 -0.921508 -0.91550165 0.031618457 -0.33988073 -0.19434668
-0.21754454 -0.9084006 -0.2875921 -0.98241 -0.3886847 -0.30832824 -1.4635832 -0.11933184
-0.10644397 -0.709159 -0.37579414 -0.33999094 -0.7828457 -0.21173373 -0.3457167 -0.9709876
-0.23340389 -0.9197301 -0.407709 -0.019056523 -0.847088 -0.04276672 -0.19028862 -1.1526829
-0.7633525 -0.10672834 -0.921881 0.15225846 0.1564194 -1.6467797 -0.984211 -1.2196088
-0.47305247 -0.15832743 -0.3526081 -0.52306616 -0.5419271 -2.5696244 -0.10445212 -1.1481323
-0.2432684 -0.74058515 -0.12864469 -0.82216287 -0.62666094 -0.95007044 -0.53092283 -0.029048318
-0.52624726 -0.96220356 -0.59937227 -0.53160495 -1.0158108 -0.94602704 0.12073265 0.105888404
-0.8455992 -0.945041 -0.43199977 -0.94471395 -0.1776967 -0.5494928 -1.0653734 0.017069485
-1.3165462 -1.3701074 -1.7069231 -0.20981345 -1.3972884 -0.2664408 -1.2110249 -0.2279496
-0.5206346 -0.33156604 -0.60969687 -1.3854424 -0.77641517 -1.8725486 -1.5568019 -1.7144494
-0.98995036 -1.2878462 -0.27637783 -2.360104 -0.4557862 -0.14183472 -1.3834407 -0.6450588
-1.2967143 -0.94950664 -0.38034505 -0.25449818 0.011557877 -0.52440435 -0.30314764 -0.37156174
-0.95963424 -0.23443049 -0.59779793 -0.42116278 -0.10520406 -1.2093405 0.04002325 -1.339104
-1.1041323 -0.41198286 -0.8305232 0.08738727 -0.32857355 -0.34100056 -0.87250143 -1.4131367
-2.6686997 -0.18916187 -0.48439223 -0.71940786 -0.78959984 -0.7337954 -1.4632795 -1.568297
-0.7869556 -1.1215822 -1.2835615 0.040723663 -1.1481671 -1.3874807 0.19386421 -1.4114214
-1.0395731 -0.14132203 -0.91366345 -0.39088312 -0.8511328 0.057709392 -0.19606067 -0.101504095
-0.0030719086 -0.111340985 -0.04448062 0.027041113 -0.27722308 -0.062026672 -0.014220175 -1.3698127
-0.06960906 -0.6343 -0.35484165 -0.5564082 -1.1333896 -0.529408 -0.39728504 -0.25632358
-0.632704 0.058975015 -0.28622875 -1.9002657 -0.18899208 -0.27430254 0.004857544 -0.21623348
0.07439058 -0.6728069 0.036514625 -1.1177905 -0.37769666 -0.13723502 -1.1445456 -0.34118474
-0.635666 -0.010879771 -0.09722583 -0.4045647 -0.7487539 0.023482434 -1.1220858 -0.73548293
-0.12879638 -0.7805003 -1.0507019 -0.6187942 -0.2718919 -0.44836545 -0.6220964 -0.34764978
-0.40666616 -0.20778409 -0.17857774 -1.0576686 -0.27552724 -0.43821684 -0.79945016 -0.37979633
-1.3425763 -0.94264394 -1.6857573 -0.7655592 -1.0847036 -0.5164943 -0.014674859 -1.3949288
-0.003945249 -0.85892814 -0.19548887 -2.0139925 -0.04510663 -1.1092489 -0.67833346 -1.1940116
-0.39846283 -1.2478701 -1.112881 -0.38983935 -0.8993774 -0.29760087 -0.21692215 -0.0064938692
-0.9062749 -1.3059677 -0.5848164 -0.01683302 -0.24496885 -0.11241829 -0.103665724 0.122593895
-1.1165851 -0.30486262 -0.05039446 -1.0649233 0.12835398 -0.08469072 -0.36242688 0.027812012
00000000: 1d56 04c0 bca8 a5bf 8a0c dbbf fabb 29bf
00000010: aa99 a4bf 83f3 0fbf 7041 86bf 4e7a 4fbf
00000020: 4328 38be 449e 19bf 369f 17be 4e52 d5bf
00000030: b49a 85bc 5cf0 84bf ddf4 bdbf d2d7 94bf
00000040: e933 a3be 0970 3f3e 384a cebe f3e7 6bbf
00000050: 515e 6abf 5b82 013d d904 aebe d102 47be
00000060: ffc3 5ebe f18c 68bf 463f 93be 397f 7bbf
00000070: ae01 c7be 33dd 9dbe b256 bbbf 4064 f4bd
00000080: 4cff d9bd 728b 35bf 1768 c0be 4b13 aebe
00000090: 9368 48bf bad0 58be c801 b1be a592 78bf
000000a0: 6e01 6fbe 6f73 6bbf 3cbf d0be 6d1c 9cbc
000000b0: c2da 58bf 282c 2fbd 05db 42be 1d8b 93bf
000000c0: 126b 43bf 6394 dabd 6500 6cbf a4e9 1b3e
000000d0: 682c 203e adc9 d2bf 41f5 7bbf 241c 9cbf
000000e0: ef33 f2be 9620 22be 0d89 b4be aae7 05bf
000000f0: bcbb 0abf ba74 24c0 feea d5bd 00f6 92bf
00000100: 5a1b 79be fd96 3dbf 6fbb 03be 4479 52bf
00000110: da6c 20bf d137 73bf 8fea 07bf bdf6 edbc
00000120: 24b8 06bf f952 76bf 7670 19bf 4317 08bf
00000130: 1706 82bf d42e 72bf ae42 f73d 05dc d83d
00000140: 3079 58bf 35ee 71bf 132f ddbe c6d8 71bf
00000150: 20f6 35be 8fab 0cbf 285e 88bf 4ed5 8b3c
00000160: 9684 a8bf ae5f afbf 757c dabf 56d9 56be
00000170: 59da b2bf ee6a 88be dd02 9bbf 9f6b 69be
00000180: 4f48 05bf 06c3 a9be 1815 1cbf 2d56 b1bf
00000190: 25c3 46bf acaf efbf 4945 c7bf 1473 dbbf
000001a0: 636d 7dbf 25d8 a4bf 6581 8dbe f20b 17c0
000001b0: cf5c e9be 1f3d 11be 9614 b1bf 9322 25bf
000001c0: bcfa a5bf de12 73bf 96bc c2be 964d 82be
000001d0: 405d 3d3c 5d3f 06bf 2b36 9bbe 573d bebe
000001e0: 97aa 75bf 8c0e 70be 4909 19bf a6a2 d7be
000001f0: 3a75 d7bd abcb 9abf 6bef 233d c367 abbf
00000200: 3554 8dbf 6bef d2be 2b9d 54bf 19f8 b23d
00000210: cb3a a8be a097 aebe 415c 5fbf aae1 b4bf
00000220: facb 2ac0 a6b3 41be 4202 f8be 1d2b 38bf
00000230: 3723 4abf 04da 3bbf be4c bbbf f5bd c8bf
00000240: ec75 49bf 0190 8fbf be4b a4bf dbcd 263d
00000250: 24f7 92bf f898 b1bf 5784 463e 75a9 b4bf
00000260: bb10 85bf b9b6 10be d9e5 69bf d521 c8be
00000270: d7e3 59bf af60 6c3d 21c4 48be 61e1 cfbd
00000280: 1352 49bb be06 e4bd 5031 36bd 5385 dd3c
00000290: 2ff0 8dbe ae0f 7ebd bdfb 68bc 0656 afbf
000002a0: 328f 8ebd 7c61 22bf cead b5be c570 0ebf
000002b0: e912 91bf 4887 07bf f268 cbbe d83c 83be
000002c0: e4f8 21bf c98f 713d 938c 92be e83b f3bf
000002d0: 2487 41be 6271 8cbe 082c 9f3b 4f6c 5dbe
000002e0: 175a 983d 133d 2cbf 5c90 153d c213 8fbf
000002f0: 7561 c1be 5687 0cbe 7880 92bf c4af aebe
00000300: 02bb 22bf 1141 32bc 561e c7bd 1b23 cfbe
00000310: 56ae 3fbf 3c5e c03c 82a0 8fbf 9c48 3cbf
00000320: 33e3 03be dece 47bf 667d 86bf 4c69 1ebf
00000330: 6a35 8bbe 2890 e5be b641 1fbf 27ff b1be
00000340: 8c36 d0be 5ac5 54be 15dd 36be af61 87bf
00000350: e811 8dbe f55d e0be c4a8 4cbf aa74 c2be
00000360: 8ad9 abbf 1d51 71bf e5c6 d7bf b0fb 43bf
00000370: 91d7 8abf f838 04bf d26e 70bc 078d b2bf
00000380: 2647 81bb b7e2 5bbf 3c2e 48be 41e5 00c0
00000390: bbc1 38bd defb 8dbf 43a7 2dbf 5fd5 98bf
000003a0: 5203 ccbe 35ba 9fbf e272 8ebf 0699 c7be
000003b0: 993d 66bf 245f 98be d720 5ebe 86ca d4bb
000003c0: a201 68bf f329 a7bf 87b6 15bf 67e5 89bc
000003d0: 1dd9 7abe 8f3b e6bd b24e d4bd 8212 fb3d
000003e0: 43ec 8ebf f416 9cbe 6c6a 4ebd 684f 88bf
000003f0: 3a6f 033e 5472 adbd 0490 b9be 04d6 e33c

fc3.bias f4 [10]
-0.4441893 -0.19620273 -0.21647331 -0.07745599 -0.14012098 -0.49731234 -0.3569088 -0.16935095
0.5607664 -0.043862272
00000000: c86c e3be 5ee9 48be 2eab 5dbe 3fa1 9ebd
00000010: e07b 0fbe b99f febe c0bc b6be 566a 2dbe
00000020: 638e 0f3f eda8 33bd
