mnist/saved_models/model_epoch_9.pth (torch, 181324 bytes, 10 tensors)

conv1.weight f4 [6, 1, 5, 5]
000000 9e 47 37 be bf 52 07 3d 26 b5 95 3d be 41 ce 3e
       -0.17898414 0.033037897 0.07309942 0.40284532
000010 32 ea 34 3e 94 d0 a6 3e 71 7b d2 3e 08 22 95 3e
       0.17667463 0.32581007 0.41109803 0.29127526
000020 f6 98 1f 3e 50 c4 99 3e 65 a0 8d 3e 79 cb 18 3e
       0.15585694 0.30032587 0.27661434 0.14921369
000030 0d d3 24 be 57 63 20 be 53 21 d4 bd de dd b1 bd
       -0.16096134 -0.15662895 -0.103579186 -0.08684896
000040 2b 48 ae be 89 ff b0 be 56 f5 ae be 73 5d 74 be
       -0.34039435 -0.34569958 -0.3417155 -0.23863773
000050 2d 0d 30 be 3a 13 4a be e4 3f 9c bd b2 6c 88 3e
       -0.17192526 -0.19733897 -0.07629374 0.26645428
000060 bc 63 ce bc 1e a7 8a be b0 1b 01 3e 1c 45 99 3e
       -0.025194041 -0.27080625 0.12608218 0.2993554
000070 14 57 63 bd 22 ce 80 be 17 01 7d be ab ef 71 3d
       -0.055502966 -0.25157267 -0.24707447 0.059066456
000080 9c bb ab 3e 53 04 fc 3d 35 00 91 3c 12 e6 46 be
       0.33541572 0.12305512 0.017700294 -0.19423702
000090 09 c7 1d be 4a 77 7e 3e f8 2d 7d 3e 36 b0 c9 bd
       -0.15407957 0.24850193 0.24724567 -0.09848063
0000a0 2c c1 4e bd fd 9b c0 be d0 ec ff bd 69 3e 3b be
       -0.05047719 -0.3761901 -0.1249634 -0.18285526
0000b0 1d 7e f4 bd ae a8 60 3e f5 42 56 bd d2 3d b9 3d
       -0.11938117 0.21939346 -0.05230995 0.090449944
0000c0 48 50 b1 3d d8 d2 bc 3b e3 bc b3 3c 53 77 f4 bd
       0.086578906 0.005762439 0.021940654 -0.11936822
0000d0 03 d0 0e be d7 6f 17 bc e7 a6 cf be f3 ff 86 bd
       -0.13946538 -0.009242973 -0.40557024 -0.06591787
0000e0 3a 78 52 bd bf ca a1 3e e6 36 0c 3f 88 75 3e 3c
       -0.05138419 0.31599995 0.5477127 0.011624701
0000f0 d7 7c 83 3e 15 22 33 3e f8 47 e3 3e 69 f4 10 3f
       0.25681183 0.1749347 0.44390845 0.5662294
000100 30 08 2e bd b4 c2 05 be 45 e6 bc be 41 3c 8e bd
       -0.042488277 -0.13062555 -0.36894432 -0.06945086
000110 6b fa a8 3e b4 1f 30 3e 30 88 b5 bc 50 73 a0 be
       0.33003554 0.17199594 -0.022159666 -0.31337976
000120 51 ce 16 bf e6 61 b3 bd 5c ed 82 3e e7 bf 2b bd
       -0.58908564 -0.08758907 0.25571716 -0.04193106
000130 67 d1 b8 3d cf b8 89 bd 2b 6b b7 3d 3b 3b df 3d
       0.09024315 -0.067247026 0.089559875 0.10899969
000140 02 2b 8d 3d 5c cc a8 3c 9e 11 2a be 45 91 38 3e
       0.06892969 0.020605259 -0.16608283 0.18024166
000150 12 56 70 3e 69 94 9f 3d e8 aa cf bd 6b 83 aa be
       0.23470333 0.07791979 -0.1014002 -0.3330339
000160 17 74 e0 bd 5e 60 99 3e c5 cb 54 bd 82 5f 17 be
       -0.109596424 0.29956335 -0.051952142 -0.14782527
000170 e9 27 82 be 3d 2c be 3e 39 95 08 3f 99 17 f7 bd
       -0.25421074 0.37143126 0.53352696 -0.12065048
000180 f9 c9 60 bc ce 00 6a 3d ec 5d 8f 3d 9c 01 82 3e
       -0.013720029 0.057129674 0.07000336 0.25391853
000190 d0 52 7a 3d ec 78 17 bb 88 33 a5 3e 8e dd 4b 3d
       0.061114132 -0.0023112847 0.32265878 0.049771838
0001a0 7d b6 bb 3e 3c 6f 30 3d 16 dc 22 be e5 f0 a1 bd
       0.36662665 0.04307483 -0.15904269 -0.07907275
0001b0 31 ea 4e bd 30 57 98 3d 03 23 1b be 0d e6 a9 be
       -0.05051631 0.07438505 -0.15150075 -0.33183327
0001c0 e0 9b 74 be 5b 8b c3 be ed ab fe bd 20 5e 28 3e
       -0.23887587 -0.38192257 -0.12435136 0.16442156
0001d0 19 89 07 be 48 86 94 be b8 db 34 be 47 ca 6c 3b
       -0.13235892 -0.29008698 -0.17661941 0.003613131
0001e0 fb c7 93 3e 88 1e aa 3e 93 ba 7c 3e e0 af bf 3e
       0.2886351 0.33226418 0.24680547 0.3743887
0001f0 45 e3 64 3e f2 df 55 3c 6e ea 66 3e 6e a5 c8 3c
       0.22352321 0.013053881 0.22550365 0.024492946
000200 32 09 43 3d 00 5c b9 3d a4 22 e4 bd 29 80 6a 3e
       0.04761619 0.09050751 -0.1113942 0.22900452
000210 35 9c 2d 3e d2 c0 94 bd 38 b1 00 be a7 f3 6b 3d
       0.1695412 -0.0726334 -0.12567604 0.05760541
000220 3d 65 d6 3e f8 28 63 bd 3e e7 9c be c5 54 7b 3c
       0.41874114 -0.055458993 -0.30645174 0.015340035
000230 aa c2 50 3e 9e da 82 3e 90 fc d9 be 02 d1 54 3d
       0.20386758 0.25557417 -0.42575502 0.051957138
000240 fa dc 52 ba a0 2b 2a 3e 56 a1 9a bd 30 dd 09 be
       -0.00080437923 0.16618204 -0.07550304 -0.13463283
000250 19 89 d0 bc 9e 0b 71 bd
       -0.025455998 -0.05884897

conv1.bias f4 [6]
000000 7e 42 3a 3d 6b fd 41 bf 47 96 40 be d6 2b 90 be
       0.04547357 -0.7577731 -0.18807326 -0.28158444
000010 a8 7d cc be 5c dd 95 be
       -0.39939618 -0.29270446

conv2.weight f4 [16, 6, 5, 5]
000000 fc 5d 6a 3b bc a6 5d bd c5 54 6b 3e 63 19 88 3e
       0.0035761585 -0.05411409 0.22981556 0.2658187
000010 5b e8 a1 bc d2 a8 07 3e 86 25 d3 3c 34 be 72 3e
       -0.019764116 0.13247994 0.025774729 0.23705369
000020 6f 01 da 3d 8c e4 4b 3e ca 9d 01 3d f1 79 08 3e
       0.10644805 0.19911402 0.03164462 0.13327767
000030 20 ff 7d 3d 9c ae 16 be f9 f6 5a 3d 0f 86 ee be
       0.062010884 -0.14715046 0.053458188 -0.46586654
000040 58 4f b0 be 3e f3 50 be a1 49 9c be a5 04 60 be
       -0.34435534 -0.2040529 -0.30524924 -0.21876772
000050 f9 ec 17 bf 3a 39 08 bf ab 1d 49 bf 43 54 90 bf
       -0.59345967 -0.5321232 -0.78560895 -1.1275715
000060 9f 7e 95 bf c1 0e 9d 3d ee db 70 bd 9d 44 05 bf
       -1.1679267 0.0766883 -0.05880349 -0.5205782
000070 71 a6 74 bd af b0 4c be d6 3a 44 3d bc 14 1d 3d
       -0.059729043 -0.19989274 0.047907673 0.038349852
000080 cf 01 bb be 35 66 43 bd 5f 6d 8f 3c 1d 24 00 3e
       -0.36524817 -0.047704894 0.017508207 0.12513776
000090 85 a0 43 3e e4 76 d1 bd 43 a4 2a 3d a4 a6 7a bc
       0.19104202 -0.10227755 0.04166056 -0.015298519
0000a0 e5 d7 34 3e 62 af 18 3e b1 cc 39 bd 72 03 d7 3d
       0.17660482 0.14910653 -0.045361225 0.10498704
0000b0 48 cd 63 bd 75 fc 1d bd 69 ee 17 3d 97 db 15 be
       -0.055615693 -0.03857084 0.0370926 -0.14634548
0000c0 5a 33 1c bd 3d 04 8e be ab 9a 9f 3e 97 a5 03 3e
       -0.03813491 -0.2773761 0.3117269 0.12856136
0000d0 04 79 cf bc 21 0d 85 bd 6f ad 00 3e 44 f6 bf bd
       -0.02532626 -0.06496645 0.1256616 -0.09373143
0000e0 55 37 7d 3e 69 e3 43 3d 4f c2 aa 3a f0 e4 5c 3e
       0.24728139 0.047824297 0.0013027879 0.21571708
0000f0 38 30 a3 3d 6f f1 73 3e da 2b 80 be 0c b3 d5 bc
       0.07968181 0.23822568 -0.25033456 -0.026086353
000100 aa 51 02 be 77 c9 bc be e7 41 d5 be 05 5a 26 bf
       -0.12726465 -0.36872455 -0.41651842 -0.6498111
000110 bf 16 0b bf 10 78 4b bf 56 80 46 3d 6c 71 38 be
       -0.5433158 -0.79480076 0.048462234 -0.18012017
000120 48 c5 96 be 0a ef f8 be 47 f1 e6 be ca 87 70 3e
       -0.2944739 -0.48619872 -0.45105955 0.234893
000130 47 5e ba 3e d3 81 3e be 7b 1e bd bd ed 30 c3 be
       0.36400053 -0.18604212 -0.09234329 -0.38123265
000140 3f 8d f5 3e b6 6f 8c 3d 43 8f 9a be 48 5c 40 bd
       0.47959325 0.06857245 -0.30187425 -0.046963006
000150 b2 ad b9 bc 9c 29 69 3d d7 67 94 be 42 4c 92 be
       -0.022665832 0.056924447 -0.28985474 -0.28573805
000160 42 23 9f be 58 19 ea be 06 6d 7d be f7 ed 1b bf
       -0.31081587 -0.4572246 -0.2474862 -0.6090998
000170 e8 57 84 bf ce b0 31 bf f2 f5 0f bf 49 20 cd bd
       -1.0339327 -0.6941041 -0.5623466 -0.100159235
000180 ee 97 24 bb eb 9c 94 be d1 5f 13 bf b8 bb 3a bf
       -0.0025114971 -0.2902597 -0.5756808 -0.72942686
000190 ce 38 a8 3d 88 70 0d be c8 5c 19 bd 6d 25 9d bd
       0.0821396 -0.13812459 -0.037442 -0.07673154
0001a0 b5 17 98 bd 17 c6 86 3e d1 11 7e 3d 48 70 15 be
       -0.07426397 0.26323006 0.06202871 -0.14593613
0001b0 3e f1 30 be c8 61 90 3d ff 61 b3 bc c8 e1 5b bd
       -0.17279527 0.070499 -0.021897314 -0.05368212
0001c0 72 00 8a be 34 14 57 be 01 69 a8 bd 36 ce 82 3e
       -0.26953465 -0.210038 -0.08223153 0.2554795
0001d0 27 89 f2 3d e1 a5 db bc 0e 44 91 be 6a 14 87 bd
       0.11842566 -0.026812496 -0.28372234 -0.065956905
0001e0 4d 3b 6b 3e ff b6 d1 3e 49 3f a2 3e ba 9e 58 3e
       0.2297184 0.40959927 0.31688908 0.211543
0001f0 47 89 1b 3e 0f 93 04 be 94 5f 6a be 7d 05 8e 3e
       0.15189086 -0.12946723 -0.22888023 0.27738562
000200 43 5c 22 3d 8e ab 25 be bc 80 b6 3b 50 f8 d4 bb
       0.03963877 -0.16178724 0.0055695456 -0.0064993277
000210 a2 cf fd 3d 4c a9 97 bd 46 f8 67 be 3a 3b e0 3d
       0.123931184 -0.07405338 -0.22653303 0.109487966
000220 cd ba 0c bc 4e 7f 69 be 39 1d aa be b5 60 ed bd
       -0.008589459 -0.22802469 -0.3322542 -0.11590711
000230 b9 3a 91 bb d2 9c 3d be e6 dc 1d bf a9 cd 8b bf
       -0.004432049 -0.18516853 -0.6166519 -1.0922137
000240 15 9d be be 54 93 92 3b 13 1f ef bd f5 4a d7 be
       -0.3722922 0.0044731293 -0.11675849 -0.42049375
000250 67 ab fb be b0 fb 6c bf 5c 1d e0 be 95 e4 b8 be
       -0.49154207 -0.92571545 -0.437724 -0.36111894
000260 d9 bd 37 3b f3 d5 8a 3e be b4 93 3e ec 95 bf be
       0.0028036742 0.27116355 0.28848833 -0.3741907
000270 32 c6 f7 be 07 aa 1b bf 85 5c 5f be 9f f5 ea bc
       -0.483934 -0.60806316 -0.21812637 -0.028681574
000280 f8 71 ef 3d 09 0f cc 3d 49 4e ce 3d 7a 45 2d 3e
       0.1169166 0.09963805 0.100735255 0.16921034
000290 1b df 2b 3e 96 3b 95 3c 77 29 6f 3e 3f 94 48 3e
       0.16784327 0.01821689 0.23355661 0.19587801
0002a0 dd 4e 33 3e 25 f8 3a 3e ac 56 4c be 39 8c bb be
       0.17510553 0.18258722 -0.19954938 -0.3663042
0002b0 ee 20 fd be 18 74 1d bf d6 1d c5 be 6d 2c af 3e
       -0.49439186 -0.6150527 -0.38499326 0.34213582
0002c0 96 d1 74 3e 61 c5 a5 be 6d b4 42 3e e2 c5 21 be
       0.23908076 -0.3237715 0.1901414 -0.15798143
0002d0 8f c3 ff bc 70 9e c6 3c 04 e0 50 be 92 93 e4 3c
       -0.03122118 0.02424547 -0.20397955 0.027902398
0002e0 50 a3 67 be 91 fc 11 3e 96 a7 bb 3e 13 f0 aa 3d
       -0.22620893 0.14256503 0.36651295 0.08346572
0002f0 f4 bb b0 be e9 3f dd be 4e d4 6a bd b2 73 38 3e
       -0.34518397 -0.43212822 -0.057331376 0.18012884
000300 93 4a 55 3d f9 64 83 be c2 75 14 3d 67 6c 14 be
       0.052073073 -0.25662974 0.036245115 -0.14494477
000310 aa d0 a7 be 4e 24 d4 be 42 35 8f be 81 e4 f6 3d
       -0.32776386 -0.41433948 -0.2797032 0.120553024
000320 25 68 2c 3d c4 67 06 bd 63 6e 61 be 04 a9 35 3d
       0.042091507 -0.032813802 -0.22014765 0.04435064
000330 66 a8 9a bd d1 8c a6 3e 4d c3 58 3e ef 37 85 3d
       -0.07551651 0.3252931 0.21168251 0.06504809
000340 4d c2 aa bd f1 44 62 be b1 1b 92 3d 74 53 9e 3e
       -0.08337841 -0.22096612 0.07134188 0.30923045
000350 0b 7d 8b 3e 5b 77 de 3e ac 9a f5 3d 38 6e 3b be
       0.27243838 0.43450436 0.11992392 -0.18303764
000360 55 c1 20 be 00 a7 74 bc f8 9c a9 3d 9d 85 b1 bd
       -0.1569875 -0.014932394 0.082818925 -0.08668063
000370 e9 d4 c2 be 0f 10 e6 be 47 0e b9 be 5c e8 be be
       -0.38053063 -0.44934127 -0.36143705 -0.3728665
000380 04 71 3b be fc 0e 95 3e e2 59 a3 bd 35 92 6d be
       -0.18304831 0.29112995 -0.07976128 -0.23200305
000390 46 38 34 be 01 bc 41 be 4b d4 fd bc b3 fd f0 bd
       -0.17599592 -0.18919374 -0.030985018 -0.11767139
0003a0 c6 fb 7b be af 20 2b be d8 3e 0c be 24 0f bb bc
       -0.24607763 -0.16711687 -0.13695848 -0.022834368
0003b0 35 47 5c be e0 d1 32 be ba b1 89 3e 54 ee 15 be
       -0.21511538 -0.17462873 0.26893407 -0.14641696
0003c0 40 ad c2 bd 4e 6b 99 be 51 a5 0f be 7f 7d 37 3e
       -0.09505701 -0.2996468 -0.14027907 0.17918967
0003d0 71 4f a3 bd fd 06 85 3d 28 03 0f 3e 66 61 cc 3d
       -0.079741366 0.064954735 0.13966048 0.09979515
0003e0 17 78 39 3d 80 c4 a2 be 19 2f 02 3c a4 ea a9 be
       0.045280542 -0.31790543 0.007945799 -0.3318683
0003f0 40 9f 2a bd 0e 2d c0 3c ac 44 51 3e e8 cc 1d 3d
       -0.04165578 0.023458984 0.20436352 0.038525492

conv2.bias f4 [16]
000000 72 bb d0 3d 76 04 d3 bc 4d 19 b9 bd 17 9f 22 3e
       0.10192002 -0.025758963 -0.09038029 0.15881
000010 e8 a7 87 3d 7e 51 12 3d be 95 89 bd 94 94 2e be
       0.066238225 0.03572225 -0.06718014 -0.17048866
000020 26 74 06 bd fc f2 1a be 06 4c e5 bd 3c 64 77 3e
       -0.03282561 -0.15131754 -0.11196141 0.2415933
000030 07 e1 f3 3d 82 7d 20 be 48 40 25 3d e1 7f 98 bd
       0.11908155 -0.15672877 0.040344507 -0.07446266

fc1.weight f4 [120, 256]
000000 bf 9a dd 3c ff 0b 42 be 51 1a ac be d3 cf d0 bd
       0.027051328 -0.18949889 -0.33613828 -0.10195889
000010 f4 7e 06 bd 6d 10 4f bd 1b 52 4d bd 31 67 2c 3d
       -0.032835916 -0.050552774 -0.05012713 0.0420906
000020 b0 1d 82 bd a3 9e a8 3d b8 f4 de 3d 60 0e b3 3e
       -0.06353319 0.082333826 0.1088652 0.34971905
000030 f9 5d 6a be 3f 9a 76 3c f6 1b c0 be 73 2f 64 bd
       -0.2288741 0.015051424 -0.37521333 -0.055709314
000040 d2 3b 2d bd 61 2c 6c bd c9 34 ac 3d f5 3a d2 bd
       -0.042293377 -0.05765951 0.084085055 -0.102651514
000050 90 62 6e be a4 0e 18 be 35 d0 b1 bd d5 3b 4f bb
       -0.23279786 -0.14849335 -0.086822905 -0.0031621356
000060 ce b0 25 bf 3e 03 d9 be 00 09 08 bd 78 95 6c 3e
       -0.6472291 -0.42385286 -0.033211708 0.23103893
000070 70 d7 1f bf ed 60 73 3c cc 47 9e 3d ce 7d 04 bd
       -0.62438107 0.014854652 0.07728538 -0.03234654
000080 3e eb 79 3d 78 fb 2c 3e 9b d9 7d 3e 92 7a c3 be
       0.06101536 0.16892803 0.24790041 -0.3817945
000090 98 0a 45 3e 9a 56 aa 3e df 2f ae 3e 57 08 13 3e
       0.19242322 0.33269197 0.34020898 0.1435865
0000a0 f3 ab c6 be a4 0b c6 bd 3a 40 20 3e a2 a8 62 3d
       -0.38803062 -0.09670189 0.156495 0.055336602
0000b0 2c 7a fa 3d f7 9f e0 bd 82 6c 23 3c 06 bd ad 3d
       0.12230334 -0.10968011 0.009974601 0.08483319
0000c0 5f a4 9c be 9b ee 5b be 02 07 46 3e d4 fd 85 bd
       -0.30594155 -0.2147774 0.19338611 -0.065425545
0000d0 c5 14 04 be 56 41 fc be b2 47 35 3c 93 16 20 3e
       -0.12898548 -0.49268597 0.011064457 0.15633611
0000e0 a9 08 7a be db ca ab be a1 f7 ef 3d 5a 51 57 3e
       -0.24417366 -0.33553204 0.11717153 0.21027127
0000f0 7e 92 1d 3f 5f ab 8d 3e 45 df 93 bd 1e 92 77 3d
       0.61551654 0.27669808 -0.0722032 0.060442083
000100 bc 5c 9f bd 64 03 27 bf a3 53 07 be 20 6d d5 bd
       -0.077813596 -0.6523955 -0.13215499 -0.104212046
000110 df 83 ae bc ef 3c 86 bd 8b 44 42 be c1 6a 87 bd
       -0.021303115 -0.06554591 -0.1897146 -0.066121586
000120 87 0c 2c be d6 9e e4 bd 9a 1f 86 be 6a f7 d1 bb
       -0.16801654 -0.11163108 -0.26195985 -0.006407668
000130 0e aa ce 3e c9 f3 c3 3e d7 8c 29 3e cb 07 89 3d
       0.40364116 0.3827193 0.16557632 0.066909395
000140 89 cc ec be f9 24 b1 bd c3 f0 94 3e 63 71 93 3e
       -0.46249798 -0.0864963 0.29089937 0.28797445
000150 8a 4f f7 bb ef 5a 38 be 0a 3d f4 3d 06 ea 47 be
       -0.0075473236 -0.18003438 0.11925705 -0.19522867
000160 7b 0e 3d 3e 82 3f 9e be c4 f1 a1 3e 69 58 99 bd
       0.18462555 -0.30907828 0.31629765 -0.07487566
000170 2b 15 84 3d 37 10 04 3d f8 6e 87 3c cf b3 5c be
       0.0644935 0.032242026 0.016532406 -0.21552967
000180 68 f6 2b 3e 79 bc f6 3c 21 e0 f9 bd df 01 92 be
       0.16793215 0.030119168 -0.12200952 -0.28517053
000190 6b 70 13 be 78 f5 b4 be 7e 5e 77 3e ca d5 1a 3e
       -0.14398353 -0.35343528 0.2415714 0.15120617
0001a0 90 3d 36 bf 10 66 93 be 1a 35 17 bd 76 ef ed bd
       -0.71187687 -0.28788805 -0.036915876 -0.11617939
0001b0 e2 dd d6 3d 94 c1 a2 bd ab c9 41 be 0c bc 61 bb
       0.104915395 -0.07947078 -0.18924586 -0.003444436
0001c0 21 91 1b bf c0 8e 5c 3d 14 5a fa 3d 26 f9 a1 be
       -0.60768324 0.053847075 0.12224212 -0.31635398
0001d0 1b cd 9c be e1 54 00 3f 5b c1 d1 bb 73 4d 20 be
       -0.30625233 0.50129515 -0.0064012236 -0.15654545
0001e0 a9 41 77 3a 23 8a 6f 3e 83 1b f4 3d de eb 10 be
       0.00094320864 0.23392539 0.1191931 -0.14152476
0001f0 e1 e9 3a be 09 21 42 bd 1f 3a d7 bc 7a 58 b9 bd
       -0.1825328 -0.047394786 -0.026272831 -0.09050079
000200 05 bc df bd 87 1e c5 3e 60 b6 85 3e 7e 46 fe bc
       -0.10924534 0.38499853 0.26115704 -0.031039473
000210 56 de b7 be 17 61 30 be 32 54 99 3d 9c 17 ca bd
       -0.35911816 -0.17224537 0.07486762 -0.098677844
000220 cb 63 81 bf df e7 88 be 94 75 a4 3d 90 24 11 bb
       -1.0108579 -0.26739404 0.08030239 -0.0022147037
000230 76 9d 66 be fe 36 7e 3e 0f d9 23 3e ef 9d df 3c
       -0.22521004 0.24825665 0.1600077 0.027296988
000240 de e6 47 be 5e 1a 2f bf 73 02 1e bd c9 7c 87 3e
       -0.19521663 -0.6839961 -0.038576555 0.2646239
000250 be 69 53 be c8 ec 2e bd 1e 01 61 be c9 95 9c be
       -0.20645806 -0.04270628 -0.21973082 -0.30583027
000260 5f ff a1 be 9a 19 6a 3e 05 f0 0b be 43 02 5b be
       -0.31640145 0.22861329 -0.13665779 -0.21387582
000270 0f 63 b9 3e ed 49 c8 bd 8c d9 95 3c d4 55 e9 bd
       0.36208388 -0.09779725 0.018292211 -0.113933235
000280 57 53 0a bf da ab 85 3d b0 fa cb 3d 30 e2 f2 3d
       -0.54033417 0.06526919 0.09959924 0.11859548
000290 f4 91 bb 3d 78 40 1e be ff 41 40 be b9 3c 6e be
       0.09158698 -0.1545428 -0.18775176 -0.23265351
0002a0 f4 ff 1d 3e 8a 3c e0 be 0a 00 1a be 25 9a 43 be
       0.1542967 -0.43796188 -0.15039077 -0.1910177
0002b0 62 aa 01 be 95 57 c0 bd a6 2c 9e 3a e1 7e aa be
       -0.12662652 -0.09391705 0.001206775 -0.33299926
0002c0 5c 23 ab be 58 e7 d1 be 95 3a 8e 3e 7e 71 aa 3e
       -0.33425415 -0.40996814 0.2777907 0.33289713
0002d0 19 c8 63 3e 75 f1 53 3e 2a 95 22 bd cf c0 50 3d
       0.222443 0.20697577 -0.039693035 0.050965127
0002e0 54 8f 12 3e c2 c5 49 3e 1a df 85 be 10 06 2c be
       0.14312488 0.19704345 -0.26146775 -0.16799188
0002f0 96 7d 8c 3b 04 62 ea bd 92 b7 d1 3e c2 cd d9 3d
       0.004287432 -0.11444476 0.40960366 0.10634948
000300 57 a8 8f 3b 82 8b 6f 3e aa d4 f2 3d 25 d1 03 bd
       0.0043840813 0.23393062 0.11856969 -0.032181878
000310 45 d6 b4 be cf f0 85 3e dd 8d 79 bd 50 8b cc bb
       -0.35319725 0.26160285 -0.060926307 -0.0062421933
000320 77 1b 28 be 53 88 1c 3e fc 30 44 3e 2b 55 c6 3c
       -0.16416727 0.15286379 0.19159311 0.024210533
000330 58 26 88 3d ce 3f 7e 3e d8 40 ae 3d 62 94 77 be
       0.066479385 0.24829027 0.08508462 -0.24177697
000340 ee d3 ae 3e 90 fd 86 3e 42 a4 20 3d 9e 81 00 be
       0.34146065 0.26365328 0.03921915 -0.12549445
000350 bb 69 fb be 31 40 5b 3d 0b 5b 3a 3d fc c6 b4 3e
       -0.49104103 0.053528015 0.04549698 0.35308063
000360 c1 5c fb bb 00 78 08 be 21 33 6d be e1 89 58 3e
       -0.0076709692 -0.13327026 -0.23164035 0.21146347
000370 db 7d 6b 3e ab e8 be 3d 5c d0 ba 3d a7 c3 1d bc
       0.22997229 0.09321722 0.09121773 -0.009629167
000380 33 26 c2 3c 5f 83 04 be 28 9a 16 bf 9c 08 b1 be
       0.023699855 -0.12940739 -0.58828974 -0.3457688
000390 f0 b3 0e 3f 0a 42 ea 3e 50 9c 9a bc e4 c3 3e 3d
       0.5574331 0.4575351 -0.018873364 0.046573535
0003a0 1e 7c be 3d 2e f9 83 3e bc ac f9 3e b0 0f a3 3e
       0.09301017 0.25776047 0.48764598 0.31847906
0003b0 7c de 34 be 61 f8 12 3d 6b 22 3e be aa 78 11 3e
       -0.17662996 0.035881404 -0.18567817 0.14206186
0003c0 49 4a b8 3e 3f b9 4b 3e 24 5b 8b be b6 25 1a bf
       0.35994175 0.19894885 -0.27217972 -0.6021379
0003d0 97 e3 41 3e 9a 34 a0 3d 6e 99 f8 3d 96 e3 05 be
       0.18934475 0.07822533 0.121386394 -0.13075098
0003e0 d3 23 ea 3d b2 87 ea bd 85 d0 c1 bd f6 11 8c 3e
       0.11432614 -0.11451663 -0.094636 0.27357453
0003f0 6a 2c 96 3d 22 c0 2b 3d f9 4a 29 3e 5b 5a 53 bd
       0.0733269 0.04193128 0.16532506 -0.05159984

fc1.bias f4 [120]
000000 11 33 07 be 58 e6 c2 bc ef 24 a2 be 27 0e 4d bd
       -0.13203074 -0.023791477 -0.31668803 -0.050062325
000010 40 0b a4 3c 56 d0 13 3b e3 a0 fc bd e7 c5 0b be
       0.020024896 0.0022554598 -0.12335374 -0.13649713
000020 f2 c0 3d 3e 6c 23 d8 be 4a 4e c3 3c 7c ad 1d be
       0.18530634 -0.42214525 0.023841042 -0.1539821
000030 eb d9 1e bc 6c 85 a9 bc 86 0b 98 bd 45 50 b3 bd
       -0.00969551 -0.020693503 -0.07424073 -0.087555446
000040 b1 7f 8a bd 0d 72 e4 3b 08 a0 e2 bd c2 f9 fd 3c
       -0.067626365 0.0069716037 -0.1106568 0.031002883
000050 13 cc 6f be 9d d4 a6 bd 32 7c ff bd b3 99 98 3c
       -0.23417692 -0.081460215 -0.1247486 0.018627977
000060 02 2a 8b 3d e4 6c b3 bd 80 32 de 3d 3e c4 c5 bd
       0.06795122 -0.087610036 0.10849476 -0.09656571
000070 6b d3 80 3d 3d 31 82 3c 5b 3b b6 bc 36 13 d4 bc
       0.06290325 0.01589262 -0.0222451 -0.025888067
000080 cd 2d 92 3c 0b 50 8d bd 67 0c 1b bd 8e 99 38 be
       0.017844105 -0.069000326 -0.037853625 -0.18027326
000090 4f 9f 9f bd ae dc 6f bd f2 57 b5 bd 75 bc 4b be
       -0.077940576 -0.058560066 -0.08854665 -0.1989611
0000a0 bd a0 16 bd 7f 55 c3 be 2a e1 6e bd ec 5c 33 bd
       -0.036774386 -0.38151166 -0.058320202 -0.04378979
0000b0 c2 16 64 3e c8 df de be a8 8f 11 be ad d2 8b be
       0.22274306 -0.43530107 -0.14214957 -0.2730917
0000c0 81 6f 0a 3e 01 b9 a0 bd 05 8f 21 bd 8b 96 89 3e
       0.13519098 -0.07847787 -0.039443035 0.26872668
0000d0 41 ab e9 be 65 f9 4c 3e 5b 53 d3 bd 0c 90 9e bd
       -0.4563847 0.20017011 -0.10318633 -0.077423185
0000e0 1f ca 76 be 01 ba c5 3d 02 86 5a 3e 76 bb 64 bd
       -0.2410054 0.09654618 0.21340182 -0.05584284
0000f0 95 ea a1 be e1 c0 d3 bd 64 9f 15 be c9 bf d5 be
       -0.31624284 -0.10339523 -0.14611584 -0.41747883
000100 b4 ed 1f be b2 08 17 bb 82 1d 9d be e5 d3 b2 ba
       -0.1561802 -0.0023045954 -0.30686575 -0.0013643472
000110 af c6 48 3c 77 ff 92 be d1 1c 4e bd f5 c1 8f bc
       0.012254401 -0.2871053 -0.05032045 -0.01754854
000120 c3 05 52 bd ba d2 01 bf 15 a1 87 be c9 76 1a be
       -0.051275026 -0.5071217 -0.26490083 -0.15084375
000130 7d 4f 27 be 67 fa 8f be a3 9d 86 bd a7 a8 1b 3e
       -0.16338916 -0.2812073 -0.065730356 0.15201055
000140 69 f7 e4 bd f3 f3 c4 be 49 d5 13 be 04 7f 93 bd
       -0.11180002 -0.38467368 -0.1443683 -0.07201961
000150 a3 db a4 3d 84 fa 90 ba f8 a0 9a bc 15 7f 84 bd
       0.08049705 -0.0011060988 -0.018875584 -0.064695515
000160 b1 7e 24 3d e8 82 73 bd 0e 2a 20 be 47 a0 00 be
       0.040159885 -0.059451014 -0.15641043 -0.12561141
000170 ed 4e 8b 3d ed ee a3 bd 4c 0b 3a be 4f 11 34 bd
       0.06802163 -0.08004556 -0.18168372 -0.04396182
000180 33 0e d4 3c db b1 e3 bd d8 81 d7 bd 20 48 d2 be
       0.025885677 -0.111179076 -0.105228126 -0.41070652
000190 c2 77 20 3e 9a 9e 4f 3e b8 37 c6 bd 95 61 ec bd
       0.15670684 0.20275345 -0.09678596 -0.1154205
0001a0 67 22 8e bd 4b 77 ea bd fa 66 54 3b 8e 07 e5 bd
       -0.069401555 -0.114485346 0.0032410012 -0.111830816
0001b0 de 66 b9 be 35 0e b8 3b 21 b4 f8 bd 8c cf a6 bd
       -0.36211294 0.005616928 -0.12143732 -0.08145055
0001c0 44 41 c4 3c 60 c4 52 bc cd 76 0c be de 0c 25 be
       0.023956902 -0.012864202 -0.13717194 -0.1611819
0001d0 b3 cc 55 3e f1 43 1b 3d 5c 95 67 be ae 68 65 bc
       0.20878868 0.03790659 -0.2261557 -0.014002008

fc2.weight f4 [84, 120]
000000 ef 28 86 bd 58 5b 8e bd 68 f3 cb bc 17 fd 54 be
       -0.06550776 -0.06951016 -0.024896339 -0.20799671
000010 0a ca 1d 3e 71 ed 50 be bd 03 61 3e 79 ea 28 3c
       0.15409103 -0.20403077 0.21974082 0.010309809
000020 bc a6 f7 3d fe 12 a6 3e 95 53 6b 3e ba e3 3f be
       0.12092349 0.32436365 0.22981103 -0.18739215
000030 11 e1 83 bd 94 e2 3e 3d 41 7e 1d bd c0 9f 50 3c
       -0.064394124 0.0466028 -0.038450483 0.0127334
000040 ea 73 4e 3e e3 22 11 be f1 b1 d6 bd d4 dd 90 be
       0.20161405 -0.14173464 -0.104831584 -0.2829424
000050 f3 8d 75 be 7e 26 ca 3c 8f 61 b7 bd af c6 dc bc
       -0.2397993 0.024676558 -0.08954155 -0.026950208
000060 a6 de fd be a4 5c 53 3d 02 db dc 3d ce ab 5d bd
       -0.4958393 0.05160202 0.1078396 -0.054118924
000070 47 8b ba 3d bc 5d c3 3c 85 89 6c 3e f3 56 55 3e
       0.09108596 0.023848407 0.23099335 0.2083395
000080 d3 fc 0d bd ac 33 76 3c c8 97 8f 3e 51 66 f3 bd
       -0.03466494 0.015026968 0.28045487 -0.1188475
000090 96 80 b6 bd 07 e8 41 bc 66 65 0c be 99 39 1f 3c
       -0.089112446 -0.011835105 -0.13710555 0.009718322
0000a0 49 c9 1e 3e 05 e9 a4 3e be 7f 94 3c a9 0a 35 bd
       0.15506472 0.3220903 0.018127318 -0.04419962
0000b0 46 76 1f be 16 37 d3 bc ae c8 1d be 5f 9d 47 bd
       -0.15572461 -0.025783103 -0.15408584 -0.048734065
0000c0 c0 3e 27 ba 8d 6a 07 bf 9a e9 fb 3d 86 0d fa be
       -0.0006379895 -0.5289696 0.12300415 -0.48838443
0000d0 bd 1e 12 be 40 a1 ee be 15 cf 8b 3d 1b eb 52 3d
       -0.14269538 -0.466074 0.06826607 0.051493745
0000e0 a3 7b f0 3a ef 04 17 bd 4c ba 20 3e 02 dc 64 be
       0.0018347393 -0.03686994 0.15696067 -0.22349551
0000f0 64 f4 aa 3e fd d1 52 3d 1d 49 3b be 5a b3 c1 3d
       0.3338958 0.05146979 -0.18289609 0.09458037
000100 fe 0d e8 3e c7 b8 ac 3e 13 74 c9 3d d7 7a ea bb
       0.45323175 0.33734724 0.098365925 -0.007155757
000110 20 2a 30 3e 8e d7 ae be 67 1b 8e bd f3 c3 6b bd
       0.1720357 -0.3414883 -0.0693882 -0.05755992
000120 b3 6b d7 bd 4b 7d 92 3e bb f5 72 3e bd 44 4e 3e
       -0.10518589 0.28611216 0.23726551 0.20143409
000130 c7 b3 fe be 94 6b 65 be 40 1c 99 3d 4f 79 9a be
       -0.49746534 -0.22404319 0.074760914 -0.30170676
000140 b5 81 b0 be 3a 46 79 3e b8 d9 3b 3d 1d 22 66 3e
       -0.3447396 0.24343196 0.04586193 0.2247395
000150 0d e4 b5 3d 77 a6 04 bd cf 2a fb 3d b9 03 ea 3e
       0.08881388 -0.032385316 0.122640245 0.45705965
000160 95 bf a3 bd 20 20 61 be ab 68 9a 3c f6 b2 d0 3e
       -0.07995526 -0.21984911 0.018848738 0.40761536
000170 70 99 12 be 52 69 2f 3d ee ef 9b be 92 36 9a bd
       -0.14316344 0.04282505 -0.3045649 -0.0752994
000180 43 8a 2c bd 1e 97 01 bf b5 38 13 3e d7 d0 0e 3d
       -0.042124044 -0.5062121 0.14377101 0.034867134
000190 33 4f 18 3e 4d c5 8b bd 16 d9 de bd 0b 44 c7 3d
       0.14873962 -0.068247415 -0.108812496 0.09729775
0001a0 bf 0b 13 3e f4 97 96 3e 1f 2b 97 bc 2a 76 90 bd
       0.1435995 0.29412806 -0.018453179 -0.07053788
0001b0 a0 b0 14 3e a9 7c 4c 3e df a4 9d bd 26 3c a7 3d
       0.14520502 0.19969429 -0.07697462 0.08165769
0001c0 73 5d a0 3d 28 77 7c bc 2c 53 bc be dd 8b cb 3d
       0.07830324 -0.015409268 -0.36782205 0.09938786
0001d0 68 b2 11 be 23 07 9b bd cc 22 81 be 05 8e 62 be
       -0.14228213 -0.075697206 -0.2522186 -0.22124489
0001e0 0b a7 e9 bd f8 8e a9 be c4 af 4a be 02 5c de bb
       -0.11408814 -0.3311689 -0.19793612 -0.0067858705
0001f0 a3 d2 05 be da d1 ed 3e 8d 5e 1e be b6 45 23 3f
       -0.13068633 0.46449167 -0.15465756 0.63778245
000200 50 cd b4 3e fc 18 da 3d e7 fc 2a bf 7a 77 d3 3d
       0.3531289 0.10649297 -0.6679215 0.10325523
000210 10 64 64 3c 97 a6 ba 3c 45 17 d1 3c ce 09 39 bd
       0.013939872 0.022784514 0.025523791 -0.045175366
000220 84 f8 0e 3e 19 b4 2c 3e 35 84 b9 3e 42 f3 a7 3d
       0.13961989 0.16865577 0.36233678 0.082006946
000230 74 e3 14 be 79 89 30 bd 5c 5f cd 3c 72 19 87 3d
       -0.14539891 -0.043099854 0.025069885 0.0659665
000240 10 4e 5a 3e ec 33 71 bd 2e 7f 04 be 42 4d f9 bc
       0.21318841 -0.058887407 -0.1293914 -0.030432347
000250 86 4f 53 3d 36 e2 48 bd 59 a6 16 bd 33 00 ff 3c
       0.05158951 -0.049043857 -0.036779735 0.031128025
000260 31 e7 4e bd e7 4a 2b 3e 92 57 ba bc 53 54 ad 3e
       -0.05051345 0.16727792 -0.022746835 0.33853397
000270 ce e2 2d bf b5 b8 35 bd b4 ea 1d be ee 3c 8d bd
       -0.679242 -0.044365603 -0.15421563 -0.06896387
000280 d6 ba 90 be a1 b4 db 3d dd 08 28 3d 1e 7e ab 3d
       -0.28267545 0.107278116 0.041024078 0.08373664
000290 99 39 88 bc 65 0c b8 3e 22 a1 35 be 71 67 34 3c
       -0.016629027 0.35946956 -0.17737249 0.0110109905
0002a0 e4 77 05 3e ff cd 8c 3d 4b 77 dc 3d 52 65 79 be
       0.13034016 0.06875228 0.10764941 -0.24355057
0002b0 61 e3 5d 3d d4 0b ab 3b 6a c0 70 be cd 69 e0 ba
       0.054171924 0.005219916 -0.235109 -0.0017121375
0002c0 fe 2f 13 bf b6 ee fe 3d bc 8f 87 bd 3f 13 43 bc
       -0.57495105 0.12447874 -0.06619212 -0.011906444
0002d0 80 85 d1 be f5 7d 54 bd ea d7 00 3e 39 4c 60 3e
       -0.40922165 -0.051877934 0.12582365 0.21904077
0002e0 46 74 08 be 5b 1f 08 3e 5f 9b 03 3c fb a7 35 3e
       -0.13325605 0.13293211 0.008032649 0.1773986
0002f0 ac 4b c7 3d aa ab 34 3e 2b 4b 9f bb 9c bf 8a 3c
       0.0973123 0.1764361 -0.0048612556 0.01693707
000300 64 ac e0 3d b3 5f 50 ba 82 aa 61 be 6e 42 8a 3e
       0.10970381 -0.00079488306 -0.220377 0.27003807
000310 b9 35 c2 3e 60 da 30 be 28 cf f8 3d 84 95 bd be
       0.37931612 -0.17270803 0.12148887 -0.37028134
000320 27 24 40 3e f8 14 ee 3d 47 7f f4 3d 69 53 7c 3c
       0.18763791 0.11625093 0.11938339 0.015400746
000330 8e 22 82 3d 3e 53 b1 bd ea d9 90 3d a3 14 0c 3e
       0.06354247 -0.08658455 0.07072814 0.13679747
000340 5f e9 a8 bd c1 13 8a 3e bf 20 8f bd e2 01 ab 3d
       -0.08247637 0.26968196 -0.06988668 0.083499685
000350 e7 d1 f5 bc 2e a6 22 3e db 6f 88 3e dc 74 59 3c
       -0.030007316 0.15883705 0.2664784 0.01327249
000360 75 26 e0 bc 72 57 87 3d e9 e7 8e be 87 58 14 3e
       -0.027362088 0.06608476 -0.27911308 0.14486896
000370 76 22 cf bd cc 93 36 be 10 c5 75 bd 7a 30 8f be
       -0.10113995 -0.17829818 -0.060002387 -0.27966672
000380 d4 2a bd 3e 44 65 e6 be be 6a f3 3c fc 05 81 3d
       0.36946738 -0.44999135 0.029713985 0.062999696
000390 86 c9 13 3e 64 97 fc 3c 4f 83 5c 3e 60 ad 8c be
       0.14432344 0.030833907 0.21534465 -0.27476025
0003a0 fe f9 12 bd ed b2 4f bd f2 1e 56 3e f6 8b 3a 3e
       -0.035882942 -0.050707746 0.20910242 0.18217453
0003b0 71 3f d0 be 31 c6 ef 3b 98 85 3d 3d 0d 99 4b 3e
       -0.40673402 0.0073173274 0.046269983 0.19882603
0003c0 4a 05 86 3e 98 6f 42 3e a7 97 aa bd 1b cb 8c bd
       0.2617591 0.18987882 -0.08329707 -0.06874677
0003d0 63 7e e9 3d 3a 90 9a be a2 f2 fb 3e 93 07 dd be
       0.114010595 -0.3018816 0.49208552 -0.4316984
0003e0 31 17 9b be 0d 8f 97 3e 12 1a 02 bf e5 36 4b 3e
       -0.3029113 0.29601327 -0.5082103 0.1984516
0003f0 4a da 68 bd d3 9d bc 3d de 70 a0 3c af f3 76 3a
       -0.0568488 0.0920979 0.01958507 0.0009420467

fc2.bias f4 [84]
000000 5f fb e2 bd fa 0e 83 3c 5c c7 72 be bd 63 27 3e
       -0.110831015 0.015998352 -0.23708862 0.16346641
000010 f0 45 1e be a3 f7 92 be 21 be 15 be 7e b2 1d 3e
       -0.15456367 -0.28704557 -0.1462331 0.1540012
000020 cc 79 2a be 3b 47 2f 3e 34 3d 88 bd 71 25 7c be
       -0.16648024 0.17117016 -0.066522986 -0.24623658
000030 39 92 8b bd 5a 6b 05 be ac eb bd bd 97 0e a2 3e
       -0.06814999 -0.13029233 -0.092734665 0.31651756
000040 1b 39 a2 bd b7 44 65 be 9a b0 bc be 36 ad 23 3e
       -0.07921048 -0.22389494 -0.36853486 0.15984043
000050 a2 42 00 be 3c d8 34 be b7 19 40 be a4 1b 4e 3e
       -0.12525418 -0.17660612 -0.1875981 0.20127732
000060 a4 e4 97 bd 33 28 eb 3d 06 46 5f bd 3c 29 0f be
       -0.074166566 0.11482277 -0.05451014 -0.13980573
000070 32 99 82 3d 13 66 f4 3d 12 a9 e3 bd 04 9b 01 bd
       0.06376876 0.119335316 -0.11116232 -0.031641975
000080 0a 5b 76 bc a6 1d f2 be 60 38 9c be 61 27 87 3e
       -0.015036354 -0.47288245 -0.3051176 0.2639723
000090 74 78 54 3e b3 5c 6b 3e 7c 51 12 bd 90 f7 d0 bc
       0.20749074 0.2298458 -0.03572224 -0.025508672
0000a0 5f b2 81 3e 85 76 a7 be e4 91 0a 3e c1 77 24 be
       0.253314 -0.3270761 0.13532215 -0.16061307
0000b0 af 9b 4a bd 74 ec 99 b9 16 65 d6 bd e9 d8 01 be
       -0.049464878 -0.00029358605 -0.10468499 -0.12680401
0000c0 5b 4e b3 3e 18 5a 76 3e 8b c1 15 be 62 f1 8d bd
       0.35020718 0.24057806 -0.14624612 -0.06930806
0000d0 76 83 17 be 55 b0 c6 bc b8 94 3b bd 2f 35 88 be
       -0.14796242 -0.024254004 -0.045796126 -0.26603076
0000e0 da 15 df 3b 61 52 fc bd 2d 9b 7e bd 7f 80 c4 be
       0.006808025 -0.123204 -0.062159706 -0.38379285
0000f0 cd d8 1a be 88 e0 54 3e 99 95 d6 3d 48 b2 89 be
       -0.15121765 0.20788777 0.10477752 -0.2689383
000100 8b a2 dc bd 1d ac 89 be 52 18 9c be d6 c2 d0 bd
       -0.1077319 -0.26889125 -0.30487305 -0.10193412
000110 20 c9 90 be 70 27 1b be a5 a6 19 3e 68 f8 df bd
       -0.28278446 -0.15151763 0.15004976 -0.109360516
000120 59 a7 91 be 3d 20 04 3e 6a 6f ad bd 2f d1 37 3e
       -0.2844799 0.12902923 -0.08468516 0.17950891
000130 aa 9c 07 3e fa 3c 1f 3e 61 fb 0a be c6 b1 6f 3e
       0.13243356 0.15550604 -0.13572456 0.23407659
000140 b4 e1 6b be 36 55 5f be 26 61 a1 3e 56 73 99 3d
       -0.23035318 -0.21809849 0.3151943 0.07492702

fc3.weight f4 [10, 84]
000000 34 b1 03 bf 13 6e 0a be 46 c6 a2 be 0d 6f 15 bf
       -0.51442266 -0.13518552 -0.31791896 -0.58372575
000010 f3 2d a3 be 9e 42 fb be be 13 ea 3b 7d 87 fc be
       -0.31870994 -0.49074262 0.0071434667 -0.4932212
000020 df 68 c9 be 25 7e da bc dd ab 97 be 04 e1 40 bf
       -0.39337823 -0.026671479 -0.2962331 -0.75343347
000030 c5 0b a8 be 7a c1 2c bf f3 94 7c bf 44 0d 1f bf
       -0.3282148 -0.6748272 -0.9866478 -0.62129617
000040 dc 36 e3 be 03 61 a9 be 40 08 98 3d 1c fc 16 be
       -0.44377792 -0.33081827 0.074234486 -0.1474461
000050 cc 9d 44 3e 45 6d db be eb 73 96 3d 5e 89 e7 be
       0.1920082 -0.42856804 0.07346328 -0.4522199
000060 01 62 08 bf 2c ba 3c be a3 b0 00 be 9a 66 ea bd
       -0.5327454 -0.18430394 -0.12567382 -0.11445351
000070 b5 95 ad be 78 d1 12 bf 1b 6d 56 3d a2 4a 23 bf
       -0.3390328 -0.57350874 0.052350145 -0.63785756
000080 2f 02 36 be bc 75 0b be 1a f3 bf 3d 3f 13 81 bd
       -0.1777427 -0.13619131 0.0937254 -0.06302499
000090 ae a3 38 be fb a4 b9 be d3 28 d9 be 04 ee 82 be
       -0.18031189 -0.36258683 -0.4241396 -0.25572217
0000a0 02 8b df bd 21 58 41 be d8 42 15 3e 36 e3 eb 3d
       -0.109151855 -0.18881275 0.1457628 0.115179464
0000b0 17 75 70 be e0 5e 41 bf 8b 67 bc be d0 96 26 3e
       -0.23482166 -0.7553539 -0.36797747 0.16268468
0000c0 cc d6 14 bf c5 71 14 be 49 53 b8 bd 90 99 f5 be
       -0.58140254 -0.14496525 -0.090002604 -0.4796872
0000d0 87 ff 2b be 46 2f 22 3d 0a 85 4a bf 70 df 82 3d
       -0.16796695 0.039595865 -0.7910925 0.063902736
0000e0 38 ce 6d be 41 de 16 bf ba 35 d1 3d 30 30 33 be
       -0.23223197 -0.5893288 0.10215326 -0.17498851
0000f0 bd 1d d5 be c4 10 f8 3d 0d ed 23 be 07 ba 48 3e
       -0.4162425 0.12112573 -0.16008396 0.19602214
000100 4b 6e f1 be 03 39 25 bf 1c 3a 49 3d 25 1f 12 bf
       -0.4715446 -0.6454012 0.049127683 -0.5707877
000110 0e 4b f0 be d6 3c 51 3b 5d b9 25 bd 14 38 01 3d
       -0.46932262 0.003192713 -0.04045998 0.03154762
000120 d2 81 c4 bd 28 26 29 3e 07 e3 09 3e 66 5e db ba
       -0.09595074 0.16518462 0.1346551 -0.0016736507
000130 be b6 bb be 55 b9 f1 3c 01 ec 54 bc 6a 89 a6 3d
       -0.3666286 0.029507319 -0.012995721 0.081316784
000140 19 b7 b5 be 8e fc 1e 3e 15 fd fe be 7d b3 15 3e
       -0.35491255 0.1552603 -0.4980246 0.1461925
000150 3a 2e ef 3d 05 e6 00 bf 97 c5 12 3e e0 54 08 3d
       0.11678739 -0.5035098 0.14333187 0.033284068
000160 e9 08 d3 be 73 af 0f 3d ca 5a 09 3e 54 e2 27 bf
       -0.41217735 0.03507943 0.1341354 -0.65579724
000170 ad 68 d2 be 6c c3 9a be 69 4a a3 3d be 7d c5 3d
       -0.41095486 -0.3022722 0.07973177 0.09643124
000180 a1 05 37 bf 23 0c 7c be 12 e4 62 be 2d 06 e3 3c
       -0.71492964 -0.24614005 -0.22157314 0.027712906
000190 1c eb 51 3e f6 ac 41 3b b5 56 ec be be d5 81 3d
       0.20499843 0.0029552556 -0.46159902 0.06339596
0001a0 01 72 7d be 94 0a 04 bf 8b 78 fd be 3f e0 a3 3c
       -0.2475052 -0.5157864 -0.4950603 0.02000439
0001b0 24 28 fd bc 34 26 e1 be 22 42 1b be 49 f2 67 bf
       -0.03090293 -0.4397446 -0.15161946 -0.9060407
0001c0 95 73 f4 be c0 ad 07 bf 78 99 4d 3e 20 8e 9c be
       -0.47744432 -0.52999496 0.20078075 -0.30577183
0001d0 7c 2c c5 be be c9 ec be f2 26 88 be 75 03 dc be
       -0.385105 -0.46247667 -0.26592213 -0.42971388
0001e0 7c 02 35 bf 4f ea dd be 67 71 b3 be fb ef 11 bf
       -0.70706916 -0.43342826 -0.35047457 -0.57006806
0001f0 3e 36 9f be 05 85 1e 3e ba 4a 0b bf c7 8a 0a 3e
       -0.3109607 0.1548043 -0.544109 0.13529502
000200 e7 f0 83 be 64 3b d7 3d c3 11 cc 3d 1a ee eb be
       -0.2576973 0.10509375 0.09964325 -0.46080095
000210 7b 2f d3 be c5 7a 14 3d fe 08 b4 be 09 7f 89 3c
       -0.41247162 0.036249895 -0.3516311 0.016784208
000220 09 d7 d2 be f8 97 9e be 39 9f de bd f1 f7 43 bf
       -0.41179684 -0.30975318 -0.10870213 -0.76550204
000230 f6 cf f8 be c6 9b 43 3d c7 a6 2c be 2e a9 a5 bf
       -0.48596162 0.04775598 -0.16860496 -1.2942255
000240 78 a6 be be 1a 2b c0 be 31 16 08 bf 96 9d ef 3d
       -0.3723638 -0.37532884 -0.5315886 0.11699979
000250 9b 80 3c be 8e 03 10 bf e9 4e 13 bf 5a 40 04 3e
       -0.18408434 -0.56255424 -0.5754228 0.12915173
000260 65 44 9a 3d 48 96 5d be c0 65 4b bf 2e e4 f3 be
       0.075325765 -0.21639359 -0.79452133 -0.47635025
000270 fd 6e 8c be 2b 24 f3 be b9 c5 23 bd 7a 39 df 3c
       -0.27428427 -0.4748853 -0.039983485 0.027249087
000280 88 6f 5c be 39 60 6b bf 49 60 0c 3d 9e e4 ec be
       -0.21526921 -0.919437 0.034271512 -0.4626817
000290 34 ad da be 25 63 ea be f5 30 6e be e5 88 98 be
       -0.42710268 -0.45778766 -0.23260863 -0.29791942
0002a0 08 e1 73 bd 8d 5a b0 be 9f 3e 19 be 38 f1 74 bd
       -0.05954078 -0.34444085 -0.14965294 -0.059800357
0002b0 4f 47 7b be f6 0b bf 3d a7 51 1f 3e 46 ac 24 3d
       -0.24538921 0.09328453 0.15558492 0.040203355
0002c0 0f c5 d4 bd ca 6a f6 3c 66 75 b0 3d 71 6e 2e be
       -0.103891484 0.030080218 0.08616142 -0.17034318
0002d0 8b ce 7e 3d 46 4d 52 be 54 8a bf bd 30 f7 cf 3c
       0.062208693 -0.2053729 -0.09352556 0.025386423
0002e0 dc 01 df 3d b9 a8 08 bf 1f 4d a1 3c 82 d2 1d bf
       0.108890265 -0.5338245 0.019690095 -0.61649334
0002f0 4a 10 04 bf b4 19 c8 be 2a cd dd be 3d 69 61 be
       -0.51587355 -0.3908211 -0.4332059 -0.22012801
000300 65 d4 9c ba 4e 65 2f be 94 2b 66 3e 5d 48 1f bf
       -0.0011965154 -0.17128488 0.22477561 -0.6221979
000310 40 01 95 3e be f0 72 bf 43 7b 1b 3e 5b d3 27 3d
       0.29102516 -0.94898593 0.1518374 0.04097305
000320 e8 67 05 bf 2f dc b4 3d b7 fa 80 3d 1b 15 0d bd
       -0.52111673 0.08831059 0.0629782 -0.034443956
000330 73 53 f4 be 04 4f ba bd 0b 94 74 be fe 5e 15 bf
       -0.47719917 -0.09097102 -0.23884599 -0.5834807
000340 26 8a 25 bf 5b 9a 92 be 4a ef ba 3d 8b 3b 1b 3d
       -0.6466392 -0.2863339 0.09127672 0.03789858
000350 cd e3 a2 be 76 50 b9 3d 0c d5 d2 be 41 50 3f 3e
       -0.31814423 0.0904855 -0.41178167 0.18682958
000360 c1 3b a5 be 50 ae 3b bf 75 ee f8 be 81 4a 5c 3c
       -0.3227215 -0.73312855 -0.48619428 0.0134454975
000370 84 f5 21 bf 80 e3 30 be 79 34 f2 bc 23 95 9e be
       -0.6326525 -0.17274284 -0.029566037 -0.30973157
000380 e2 29 cd 3d fb 36 d5 be 6b 4a 0a bf 27 c6 e7 bb
       0.10017754 -0.4164351 -0.540198 -0.007073182
000390 c1 50 0a 3e cf ec f3 bd bf 15 0d bf 1c 2d 11 bf
       0.13507368 -0.11910402 -0.55111307 -0.56709456
0003a0 48 d1 93 be 94 82 98 be 0e 09 1f bd 1e 59 29 3e
       -0.28870606 -0.29787123 -0.038826995 0.16537902
0003b0 38 ed 40 bf cc c7 91 3d 58 df 62 be e9 8e 2f bf
       -0.7536197 0.07118186 -0.22155511 -0.6857744
0003c0 36 1d 3b be 42 f2 2a 3e 6f 20 35 bf 44 0c ae bd
       -0.18272862 0.16693977 -0.70752615 -0.08498433
0003d0 3f 7e 86 be 86 61 cb 3c d9 2d 08 3d 07 5f c7 be
       -0.26268193 0.024826776 0.03324685 -0.38939688
0003e0 fb bb 63 bf bb ba f6 be 8c 9f 02 bf 1d e8 24 be
       -0.8895871 -0.4818934 -0.510247 -0.16104169
0003f0 80 a5 17 be f1 4b be be 1f bc 08 3e cf cb 31 be
       -0.14809227 -0.37167314 0.13353013 -0.17362903

fc3.bias f4 [10]
000000 22 99 9e be 2c 19 aa bd b3 0d ab 3d 1f 0d 9f bd
       -0.30976206 -0.083055824 0.08352222 -0.077661745
000010 7d 9b 20 bb ec 61 3d be 07 e7 df bd a3 0e 9b bd
       -0.002450674 -0.18494385 -0.10932737 -0.07571151
000020 c0 9c b6 3e b8 f5 d1 3d
       0.35666466 0.10251945
