mnist/saved_models/model_epoch_40.pth (torch, 181338 bytes, 10 tensors)

conv1.weight f4 [6, 1, 5, 5]
000000 1a 5d a8 be b8 5c fb bd c6 5d 43 3e e0 50 3a 3e
       -0.3288353 -0.12273544 0.1907874 0.18194914
000010 16 fe b2 3e d3 56 5a be b9 46 c6 be 08 54 e1 be
       0.34959477 -0.21322183 -0.38725832 -0.44009423
000020 65 58 09 bf 8f 94 df 3d 79 bd 37 bd 0c f0 d4 3d
       -0.53650504 0.10917007 -0.04485843 0.10397348
000030 db 59 0e be 38 45 90 be 27 b5 f7 bd af 27 21 3d
       -0.13901465 -0.2817781 -0.12095099 0.039344486
000040 a5 56 54 3e a1 44 7a 3d 1a 29 6e 3e fa 69 64 bd
       0.20736177 0.061100606 0.23257867 -0.05576513
000050 eb 3c 71 3d fd c6 44 3d 1e 54 db 3d 84 8b b0 3e
       0.058895987 0.048041333 0.107094035 0.34481442
000060 36 b6 3b 3e ed c2 39 3e 85 9f 67 bd e2 a9 36 3d
       0.18331227 0.18140765 -0.056548614 0.044595607
000070 12 74 e2 3e df a3 47 3f d4 77 9b 3d a4 d7 c9 bd
       0.4422918 0.7798442 0.07591215 -0.09855583
000080 37 fa a8 be 4a fa 14 bf 84 27 79 3e 7d da 80 3d
       -0.330034 -0.5819441 0.2433148 0.06291673
000090 8a fd 54 be 65 2a ec bd e5 0f b4 be 27 59 db be
       -0.20799842 -0.115315236 -0.35168377 -0.42841455
0000a0 4f d1 06 3e 14 ee 57 3b 83 6e 55 3d 28 5a 2d be
       0.13165782 0.0032948302 0.052107345 -0.16928923
0000b0 18 06 b2 be fe 46 13 bc 88 cb 2a bd b6 c9 95 3d
       -0.34770274 -0.008989094 -0.04169801 0.07313864
0000c0 64 b5 b6 3e c5 a7 91 3e 9b 7e b0 bd 5a e3 6f 3e
       0.35685265 0.2844831 -0.08617898 0.23426571
0000d0 95 c9 35 3e c7 8f 0f 3e 07 cd 91 3d 63 ad 57 3e
       0.17752679 0.1401969 0.07119184 0.21062236
0000e0 39 8f b1 3e 77 66 ad 3d 1b 2e 5f 3d 93 26 63 3e
       0.34679583 0.08466809 0.05448733 0.22182684
0000f0 15 eb 0f 3f b8 d5 2a be 10 b2 b8 be ff 5d 9b be
       0.5621808 -0.1668309 -0.3607335 -0.3034515
000100 8c 75 3e 3e 24 d1 85 3d c6 5b b8 be 21 be b5 be
       0.18599528 0.06534031 -0.36007518 -0.3549662
000110 b0 00 fc bd 01 60 3d 3f 91 cd 0b bd d0 0d 4c bc
       -0.12304819 0.73974615 -0.03413159 -0.012454465
000120 e4 65 e5 3d da 31 42 be d7 41 db 3e d5 0d d3 3d
       0.11201075 -0.1896433 0.4282367 0.103053726
000130 13 e8 f3 bd 81 65 89 bc 1f c4 8a 3d a2 17 1b 3e
       -0.11909499 -0.016772034 0.067756884 0.15145734
000140 00 ea 61 bd 47 4f 57 3e 58 81 0e be 6b ba 0e bf
       -0.0551548 0.21026336 -0.13916528 -0.557532
000150 5d 39 4b be 72 05 fc 39 6c 4d 65 3e 5b a8 a6 be
       -0.19846101 0.00048069243 0.22392815 -0.3255032
000160 df 42 37 bf ef ef 1d be e0 db 9e ba fd 23 d7 3e
       -0.7158641 -0.15423559 -0.0012119971 0.42019644
000170 96 3d 27 3e 91 ac 2b 3e 43 08 5a 3e 53 b8 cf be
       0.16332087 0.16765048 0.21292214 -0.40570316
000180 d9 aa ca 3e af ad d3 3e 08 69 8d 3e 03 85 2e be
       0.3958347 0.41343448 0.27619195 -0.17042927
000190 7a d0 d1 bc 02 62 b9 3d 75 12 9b 3e 38 e1 f4 bd
       -0.025612105 0.09051897 0.3028752 -0.119570196
0001a0 11 e5 cc bc f8 fc 0d be 08 9e 9a 3d bc 68 b7 be
       -0.025011571 -0.13866031 0.07549673 -0.35822093
0001b0 b9 2c c1 be 60 92 1a 3e e5 f6 24 3e b6 b1 4d be
       -0.37729433 0.150949 0.16109808 -0.20087323
0001c0 8e ea 14 bf 34 e7 9f 3e 5a 76 a4 3e 62 32 0f be
       -0.581704 0.3123108 0.32121545 -0.13984063
0001d0 e5 8f 90 be 40 ae 6e bc ab a6 23 3f c3 a1 8a 3d
       -0.28234783 -0.014567912 0.6392619 0.06769135
0001e0 b2 98 b2 3d a6 e3 53 3e 41 cf 3b bd 02 e7 80 3e
       0.087205306 0.2069231 -0.04585195 0.25176245
0001f0 16 f3 a1 bd e4 a9 cd 3d ce b2 85 be 8a 52 22 be
       -0.07907693 0.1004217 -0.2611298 -0.15851799
000200 8e 66 88 3c 72 bc c6 3e 4d e8 a1 be c1 7b 30 3e
       0.016650464 0.38815647 -0.31622544 0.17234708
000210 ed 64 ae 3e 5b 41 0b 3f 47 b8 aa 3e d0 2d 62 bd
       0.34061375 0.543966 0.33343717 -0.05521947
000220 72 bd 17 3d eb 44 56 3d aa 19 f8 bd ad f0 48 be
       0.037045904 0.05231182 -0.1211427 -0.1962306
000230 63 ce 60 bd c1 76 ae 3d 9b 85 22 be 4f 19 0f bd
       -0.054884326 0.08518744 -0.15871279 -0.034936246
000240 b5 0a 08 be 0b b9 a8 bd d9 ab 68 be 30 29 b6 be
       -0.13285334 -0.08238419 -0.22721805 -0.355783
000250 3e 18 7f 3c 94 26 32 3d
       0.015569745 0.043493822

conv1.bias f4 [6]
000000 f3 c9 ba bf b2 d2 97 bf e2 3c c8 bf e5 16 d1 be
       -1.459288 -1.1861174 -1.564358 -0.4083778
000010 7e 0c 2c bf 6b c2 d9 be
       -0.6720656 -0.42531142

conv2.weight f4 [16, 6, 5, 5]
000000 87 f0 46 3d 66 a9 86 bd 5e ae ec be cb f7 59 bf
       0.04856923 -0.06575279 -0.46226782 -0.8514373
000010 b2 9c 7f be 0e 48 5c 3e 14 d3 50 3d b5 e9 61 be
       -0.24962118 0.21511862 0.05098255 -0.22061808
000020 23 44 a0 be 9f 8b 01 bf c3 01 f1 3d ae b4 0e bf
       -0.31301984 -0.5060367 0.11767914 -0.55744445
000030 f4 03 0b bf cf 50 0e be 85 1d 87 3e 7d 66 81 3f
       -0.54302907 -0.13898014 0.2638971 1.0109402
000040 98 f6 a6 3d ee 62 16 be 81 bb 17 be b5 9c 03 3e
       0.08152503 -0.14686176 -0.14817621 0.12852748
000050 65 ac 39 3f cb d0 5b 3e 66 bb ae be fb 48 1c be
       0.7252868 0.21466367 -0.3412735 -0.15262215
000060 ce 5f 1a 3e f6 af 4e bf 63 80 4c be cd 4c 7a bd
       0.15075609 -0.80737245 -0.1997085 -0.0611084
000070 bb 04 8d 3d 60 7d 88 be 89 f9 c6 3e 38 e1 30 3e
       0.06885668 -0.26658154 0.38862255 0.17273414
000080 9c 55 35 bf 66 30 2c bf be 22 3a be 7b e9 85 3e
       -0.70833755 -0.6726135 -0.18177316 0.26154694
000090 6a d6 38 3e 67 20 03 be a4 73 99 3e 5e 7d be 3e
       0.18050542 -0.1280533 0.2997104 0.37205023
0000a0 31 70 23 3f 7d d3 86 3e fc 5a 03 be c0 7d be be
       0.63843066 0.26333228 -0.12827677 -0.37205315
0000b0 8f 07 e9 be 88 9d 3a 3e a0 f7 49 bf 0a 14 78 bf
       -0.4551358 0.18224156 -0.7889347 -0.9690558
0000c0 a2 ae 20 bf 83 47 e5 3d bc c6 88 be 33 9b 8a be
       -0.6276647 0.111952804 -0.26714122 -0.27071533
0000d0 98 60 4c 3e 82 c5 0e bf 02 a1 16 3f 5a 3d 32 3f
       0.19958723 -0.55770123 0.5883943 0.69624865
0000e0 45 97 18 3e 4c ed 87 3e c3 53 51 be 51 3d 4b 3c
       0.14901455 0.2654823 -0.20442109 0.012404756
0000f0 ca 87 c8 bc d3 ba 51 bf 3c 29 9b bf 96 28 6a be
       -0.024478812 -0.81925696 -1.2121959 -0.22867045
000100 f8 ce 09 3f 60 d8 06 3f 47 23 8f 3e 75 89 79 be
       0.53831434 0.5267391 0.27956602 -0.24368842
000110 7c 9f 15 3e 86 1f 11 be f8 cb ac 3e a7 a2 9f be
       0.1461162 -0.14172181 0.33749366 -0.3117878
000120 f0 50 0a be fe 0f 46 bf 16 b1 53 bf 74 be 74 be
       -0.13507438 -0.7736815 -0.82692087 -0.23900777
000130 fc ce 9e be e5 6a 39 be 48 05 cb be 28 1f 99 3e
       -0.31017292 -0.18107183 -0.39652467 0.29906583
000140 67 74 80 3d 47 d5 23 3f 4f 84 06 3f c8 89 7d 3c
       0.06272202 0.6399731 0.52545637 0.015474744
000150 00 31 df be 42 6c 9f bf f1 1a db bf 69 69 d0 bf
       -0.43592072 -1.2454913 -1.7117597 -1.6282169
000160 6e ab b7 bf 69 21 72 bf ea 00 c2 bd 33 47 c1 bd
       -1.4349191 -0.9458223 -0.094728306 -0.09437408
000170 a0 ef 86 bd 3d b8 33 bd ee 23 d0 3e c7 cd 59 3e
       -0.065886736 -0.043876875 0.40652412 0.21269904
000180 a3 29 f0 3e e3 02 56 3e 47 a6 d6 3e 55 85 38 3f
       0.46906766 0.20899539 0.41923735 0.7207845
000190 03 f0 d2 3c 6a cf c0 3e e4 e1 3b 3e eb 40 98 3d
       0.025749212 0.37658244 0.18347889 0.07434257
0001a0 d1 96 3c 3e 03 20 58 bd 01 c5 93 3e 22 5c 08 3f
       0.18416907 -0.052764904 0.2886124 0.53265584
0001b0 80 3c 81 be 06 d3 a1 bd b0 a8 da bf c0 f3 83 bf
       -0.2524147 -0.07901578 -1.7082729 -1.0308762
0001c0 f7 ec b3 bf e9 51 a0 bf 5a 72 bc be 3e 69 9f bf
       -1.4056691 -1.2524997 -0.36805993 -1.2453992
0001d0 b7 90 89 bf 17 d0 56 be d0 46 b3 3e ea 1c 9c 3e
       -1.0747288 -0.20977817 0.35014963 0.3049081
0001e0 eb 83 4c 3f cd 37 b9 bd c3 32 03 3e 38 7d 23 bc
       0.7988879 -0.09043846 0.12812333 -0.009978585
0001f0 2b a5 d3 be 28 04 72 be d4 7f e2 3d ae 10 21 3d
       -0.4133695 -0.23634398 0.110595375 0.039322548
000200 d0 33 38 3d d6 65 70 be 36 06 7f 3e 3f 0d 52 3e
       0.044971287 -0.23476347 0.24904713 0.20512865
000210 98 64 a5 3d 1d 51 24 3e 82 f5 c9 3d 00 c8 6f 3e
       0.08075827 0.16046567 0.0986128 0.23416138
000220 1c 10 e4 3e 6a 49 43 3f b9 32 bd 3e 66 00 58 bd
       0.4454354 0.76283896 0.3695276 -0.052734755
000230 46 12 d5 be a8 0f a4 3e e2 12 2e be ac bc a7 bf
       -0.41615504 0.32043195 -0.1699939 -1.3104453
000240 fd a2 0c bf d0 05 c9 bf 9a c5 e1 bf c5 e6 49 bf
       -0.549362 -1.5704899 -1.7638428 -0.7886775
000250 b8 1f 28 3d 20 8c 8b 3e 11 f7 92 be 6d c6 3d 3d
       0.041045874 0.27255344 -0.28704122 0.04633181
000260 8d a0 9e 3e c7 e7 a4 3d e4 e6 17 3e ff 9a c8 bd
       0.30981866 0.080520205 0.14834172 -0.09795188
000270 65 46 23 be 8f 7f 7c 3d 41 74 8e bd a6 c0 a8 be
       -0.15944822 0.061645087 -0.069557674 -0.3295948
000280 d7 47 43 be b2 05 7e be 37 c9 e0 be 72 b5 02 bf
       -0.19070373 -0.2480686 -0.43903515 -0.51058114
000290 41 9e 40 bf 37 6b ce bd b8 98 03 3f c9 40 21 3f
       -0.75241476 -0.10079043 0.51404905 0.6298948
0002a0 25 79 e9 bd e0 e5 8f bf 46 2c d3 3e af fe 48 3e
       -0.114000596 -1.1242027 0.41244715 0.19628404
0002b0 53 46 98 bf 66 36 a2 bf 66 8b 43 bf 6d 09 04 bf
       -1.1896461 -1.2672851 -0.7638458 -0.5157688
0002c0 f1 d0 a1 3d eb bf 10 be 10 3f b5 be 4b 76 a1 3e
       0.079011805 -0.14135711 -0.35399675 0.31535563
0002d0 0c 66 8b 3d c9 f0 20 be a5 56 66 be 64 47 ea 3d
       0.06806573 -0.15716852 -0.2249399 0.11439398
0002e0 8f cc 0e be 69 99 cb b8 7e eb ba bc f1 de 5d 3e
       -0.1394522 -9.708369e-05 -0.02281737 0.21667077
0002f0 23 95 8f 3c 01 91 5c 3e 40 d0 c9 3e 09 22 ad 3e
       0.017527169 0.2153969 0.39416695 0.3381503
000300 85 57 58 bf 08 27 87 bf 13 54 04 bf 7f 8e 21 3f
       -0.84508544 -1.0558786 -0.5169079 0.63108057
000310 e0 b6 90 3d d1 41 de bb 52 9d 1a be 2f 62 34 be
       0.07066131 -0.0067827483 -0.15099075 -0.17615579
000320 f3 c5 b7 be 8b 91 22 bf 53 e4 1b be 7d 5a 89 3e
       -0.3589321 -0.6350333 -0.15223818 0.2682685
000330 d3 f9 c9 3e db e6 1c 3f 42 b2 b8 3d b0 73 d3 3e
       0.39448413 0.6128976 0.09018375 0.412992
000340 f7 ca b2 3e 7a 8b 23 3f ff 63 2d 3d 09 ea 41 3d
       0.34920475 0.638847 0.04233169 0.047342334
000350 29 56 9f 3e fd cd 6c 3f 8c 2c 22 3f ea 43 9f be
       0.31120422 0.92501813 0.63349223 -0.31106502
000360 21 49 18 bd 65 ff 6d bd c8 5a 1a bf d0 c3 e1 3e
       -0.037179116 -0.05810489 -0.6029477 0.44094706
000370 5b ee 29 bd 92 bb ab bf 60 bb c0 bf d6 64 01 bf
       -0.04148708 -1.3416617 -1.5057182 -0.5054449
000380 39 11 80 3e 31 e2 b3 be 43 b6 5d 3c 68 4a 4f bd
       0.2501314 -0.35133508 0.013532224 -0.05060807
000390 3b 31 fd 3e 5a 02 a1 3e 5c 7d 2e bf df f3 96 bd
       0.49451622 0.31447107 -0.68160033 -0.073707335
0003a0 4d 9d 1b 3f a3 54 05 3f d5 33 1c 3f 4d 7f 25 3e
       0.60786897 0.5208227 0.6101659 0.16161843
0003b0 a2 a3 59 3e b7 cc 85 be b4 01 82 bb df d5 ae be
       0.21253827 -0.26132748 -0.003967488 -0.34147546
0003c0 60 75 f2 3e 82 dd 2d 3f 7e be 6c 3f 82 54 3a bf
       0.47355175 0.6791612 0.9247817 -0.727852
0003d0 9e b7 c9 bf f0 5c c8 3e 74 e4 de be 93 d6 31 bf
       -1.575916 0.39133406 -0.4353367 -0.6946804
0003e0 21 89 bc be 55 8b 9f be d3 34 8a be bb ef 59 3d
       -0.3682337 -0.3116099 -0.26993427 0.05320714
0003f0 0c 90 63 bc 3a 0a 18 3d fe e5 1e bf a6 8b 9a 3e
       -0.013889324 0.037119128 -0.6206969 0.30184668

conv2.bias f4 [16]
000000 01 1f ab 3d 7b 83 c3 be 4e d0 8f bd 0c e4 70 3e
       0.08355523 -0.3818625 -0.07022153 0.23524493
000010 f1 e3 3c bb 9c f8 71 be 54 8c fc be f3 0d fd be
       -0.0028822387 -0.23629993 -0.49325812 -0.49424705
000020 ab 35 65 be 04 de cf 3d 5f 81 4a be 82 61 9f be
       -0.22383754 0.10149768 -0.19775914 -0.3112908
000030 6c 71 92 be 29 8f b4 be 2e ca 52 3e ff 52 0a be
       -0.2860216 -0.35265473 0.20584938 -0.13508223

fc1.weight f4 [120, 256]
000000 8a 38 07 bf 8f 10 84 bc 76 af 83 3e 06 3c b3 3e
       -0.52820647 -0.016121177 0.25719804 0.35006732
000010 b0 cd 2c be b3 b6 51 bf 29 55 1f 3d e7 74 51 3f
       -0.16875339 -0.819194 0.038899574 0.81819004
000020 1e fe f5 be 8f b7 64 3e c9 fa e2 be da 41 c9 bf
       -0.4804544 0.22335647 -0.4433196 -1.5723221
000030 1d d7 e2 3e 89 52 0f 3f 0c 6b b0 3c bc 13 bd be
       0.44304743 0.55985314 0.021535419 -0.3692912
000040 19 15 94 3d fb 93 df bc 2f c2 ef bd 16 f0 1b bf
       0.072305866 -0.027292242 -0.117069595 -0.6091322
000050 c7 1f c4 be 00 2c 95 3e 1f bd 70 bd 9d 99 fd 3e
       -0.38305494 0.29135132 -0.05877411 0.4953126
000060 08 73 19 3f 84 45 bb 3d a7 b0 cf 3e 80 c3 31 bf
       0.5994115 0.091441184 0.40564463 -0.69438934
000070 6d 6b 4a 3f ae 5c 22 3f 23 58 e5 3e 81 3f 6f bf
       0.7907017 0.6342267 0.44793805 -0.93456274
000080 ae f6 f7 bd ee 31 2c 3e 36 e2 e6 3d 69 a8 40 3f
       -0.12107597 0.16815922 0.11273615 0.75256974
000090 5d 38 ba 3d 33 22 a5 bd 21 28 10 bf 95 2c 7b bd
       0.09092782 -0.080631636 -0.5631123 -0.061321814
0000a0 e1 3a 96 3e 42 79 15 3f 7d 9d 8d 3e bd a3 92 be
       0.29341796 0.5838815 0.27659217 -0.28640547
0000b0 50 b8 c9 be 0e 50 3b bf 26 c8 69 bf 2e c0 05 3f
       -0.39398432 -0.7316903 -0.9132103 0.5224637
0000c0 6f dc 9a be 5b 90 37 be 23 fc b6 bd b2 88 30 3d
       -0.30246302 -0.17926161 -0.0893481 0.043099113
0000d0 b3 39 5d 3f 8e fc eb 3e 9f 3b 48 3e 93 08 1c be
       0.8641617 0.4609112 0.19553994 -0.15237646
0000e0 87 af a4 3e 55 00 0b bf 85 fb 33 3d 42 f6 99 3e
       0.32165167 -0.5429738 0.04394104 0.30070692
0000f0 ee f4 25 bf 48 98 0c 3f 72 93 24 3f 6f a5 31 3f
       -0.6482686 0.5491986 0.64287484 0.69393057
000100 a3 bc f4 be 1f 5a 4c bd fe 89 ca 3d f4 be e4 3e
       -0.47800168 -0.049890634 0.09889601 0.44676936
000110 dc e4 c7 3e 05 90 cd 3d f4 ec 9e be 9a 2f 16 bf
       0.39041793 0.10037235 -0.31040156 -0.58666384
000120 66 96 c8 3d 43 8c d6 be dd 29 09 3e 6c 00 85 3e
       0.09794311 -0.41903886 0.13394876 0.25976884
000130 8c 74 25 bf 72 50 47 3e e4 79 89 3f cd 7e 2b 3f
       -0.6463096 0.19464281 1.0740323 0.6699036
000140 ee 12 95 be 3c 1e 2a bf 5c 92 4f bf 45 a6 b1 be
       -0.29116005 -0.66452384 -0.810827 -0.34697166
000150 70 4a 63 bc 21 ba 82 3e 00 f3 4a 3f f4 fd 61 bf
       -0.013872728 0.2553263 0.7927704 -0.88278127
000160 e3 88 c9 3e 57 8e 66 3f 7b b4 75 be cc 34 a5 3e
       0.3936225 0.90060943 -0.23994629 0.32266843
000170 d1 f8 89 3e 05 e8 77 3f 2d e4 f7 3e d5 f0 05 bf
       0.26947644 0.9683841 0.48416272 -0.52320606
000180 c6 24 cc bd e2 5c 4c bd dd 8d ee be df 58 8c be
       -0.099679515 -0.049893267 -0.46592608 -0.27411553
000190 4f 78 97 3e d0 04 df 3e a8 3c c0 3e 8a fd d9 be
       0.29583976 0.4355836 0.37546277 -0.42576247
0001a0 be 63 ed be 0f 60 c8 3e b5 20 4a be a8 52 b3 3d
       -0.4636516 0.39135787 -0.19739039 0.08756
0001b0 d0 f8 4d bf 6d a8 ef be 73 81 1a 3e dc 14 f7 3c
       -0.8045778 -0.46808186 0.15088443 0.030161314
0001c0 1b b1 06 3f a0 4f b4 3d 1e aa 9e be 6d fd 51 bf
       0.5261399 0.0880425 -0.30989164 -0.8202732
0001d0 4f 92 5f 3e 27 77 99 3e b8 05 02 be f6 60 c5 bc
       0.21833156 0.2997372 -0.12697494 -0.024094086
0001e0 60 3c 6f 3f dd ca 46 3f 95 7a 13 3f 28 90 70 be
       0.934515 0.77653295 0.5760892 -0.23492491
0001f0 9b 8c 06 3f 29 f4 7d 3e 95 4b a9 bd 6a 0e 00 3f
       0.52558297 0.24800171 -0.08266369 0.50021994
000200 ed 53 e5 3e ee 46 b2 bd 3a a6 f7 3e 59 16 be 3e
       0.44790593 -0.08704935 0.48369008 0.37126425
000210 98 b1 84 be 6b c6 ea 3e d4 4b d5 bd 60 fe a3 3d
       -0.25916743 0.45854506 -0.10414854 0.080075026
000220 88 da 3b bf af a9 38 bc f2 fa 9c be a9 df 7e be
       -0.7338033 -0.0112709245 -0.30660206 -0.24890007
000230 28 f1 05 bf 54 84 07 3d 42 7d 8a 3e c9 73 56 bd
       -0.523211 0.033085182 0.2704869 -0.052356515
000240 4b 82 15 be 25 31 77 bd 27 2e cf be 75 9f b1 3e
       -0.14600484 -0.060349602 -0.404649 0.3469197
000250 9b ce 8b be 85 f2 76 be 89 15 43 bd e9 ae a3 ba
       -0.27306065 -0.24115951 -0.04762796 -0.001248804
000260 fe 8d e9 3e 5c 02 bb be e9 24 19 bf 82 d8 d8 3e
       0.45616144 -0.36525238 -0.59821945 0.42352682
000270 ba 3c 5e 3f d5 a7 17 be 13 74 ae bf d5 3e 34 be
       0.8681141 -0.14810117 -1.3629173 -0.17602094
000280 4e 80 c8 3c 82 42 88 be 28 29 1f bc 93 2f 6e be
       0.024475243 -0.2661324 -0.009714402 -0.23260336
000290 36 4d 91 bf 88 76 07 bf 5e d1 bc 3b 0b c9 47 3f
       -1.1351688 -0.5291524 0.005762263 0.7804114
0002a0 1a df 08 bf 61 d5 1a bf a0 44 d2 3e 26 ff 22 3d
       -0.53465426 -0.6048184 0.41067982 0.03979411
0002b0 f0 2c b3 3e 56 b6 81 3e 2e 14 2c bf 09 89 b3 be
       0.34995222 0.25334424 -0.6721829 -0.35065487
0002c0 41 f2 5f be 6a 65 1a 3f fa 86 0d 3f 0d 51 87 be
       -0.21869756 0.60310996 0.5528408 -0.26429024
0002d0 fc 70 eb be 8a d4 af be 79 3d c4 bb 29 d9 15 be
       -0.45984638 -0.34341842 -0.0059887734 -0.14633621
0002e0 61 31 9a be c0 0f ab 3e ff 98 ad 3e 2e 81 63 bf
       -0.30115798 0.33410454 0.3390579 -0.8886899
0002f0 68 2d d6 3e 60 94 61 be a4 e4 5b bf 0b 64 05 bf
       0.41831517 -0.22029257 -0.8589575 -0.5210578
000300 6d c4 ad be d0 75 94 3d 65 84 63 be 89 3a 6a be
       -0.33938923 0.072490335 -0.22218473 -0.22873892
000310 4a c3 a0 3d 80 73 b1 be 2c 4b bd be 04 56 77 3d
       0.078497484 -0.34658432 -0.36971414 0.060384765
000320 02 88 ee 3d 8e 39 9b 3e 1f b4 d3 be 53 89 e2 be
       0.11647035 0.30317348 -0.4134836 -0.44245395
000330 76 3b b9 3e 58 b4 53 3d bd b2 80 be e9 3f 7f bf
       0.36178178 0.05168566 -0.25136366 -0.99706894
000340 ba d6 b6 be b3 22 d2 3d bc d7 ec bc 51 35 c1 be
       -0.35710698 0.102605246 -0.028911464 -0.3773599
000350 80 8f df 3d 1c 87 05 be 40 ce e0 bd ef be c7 be
       0.10916042 -0.13039821 -0.10976839 -0.39012858
000360 df fe a5 bf ec 44 7e 3e 66 b4 c7 3e aa ba 3e bf
       -1.2968405 0.24830979 0.3900482 -0.74503577
000370 f3 29 01 bb d7 43 87 3e e3 cd 36 3e aa 44 17 bf
       -0.0019708842 0.26418945 0.17851977 -0.5908915
000380 75 72 c2 be 52 50 ea bd 2f ab b6 bd 44 e9 f1 3d
       -0.3797795 -0.11441101 -0.089193694 0.1181207
000390 7e 93 80 3e 5f 34 90 3d c9 7a 15 3e c1 79 0a bd
       0.25112528 0.07041239 0.1459762 -0.03380752
0003a0 df 10 d8 3d 66 c0 bb 3c 36 0e 4e 3f 80 32 9a bd
       0.10550093 0.022918891 0.80490434 -0.07529163
0003b0 85 79 68 3c cd e7 00 3f f0 0c 68 bd 98 56 c9 be
       0.014189129 0.503537 -0.056652963 -0.39323878
0003c0 5c 9d 69 bd 7c ef a1 be 0a fd 32 bf 45 92 18 be
       -0.057034835 -0.31628025 -0.69917357 -0.14899547
0003d0 17 11 42 bf ee cd cf 3e 44 58 45 3f 90 08 75 3e
       -0.7580733 0.405868 0.7708781 0.23929048
0003e0 ef f9 34 be c4 9c ef 3b 60 50 05 3f a8 51 5b bf
       -0.17673467 0.007312389 0.5207577 -0.8567147
0003f0 cb 7d dd 3e 49 fd d3 3e bb 85 d6 be 3d db 4a 3f
       0.43260035 0.4140418 -0.41898903 0.7924078

fc1.bias f4 [120]
000000 98 11 af be b8 cb 9c bf e4 06 5b 3e 88 da 4f be
       -0.3419311 -1.224967 0.21389347 -0.20298207
000010 51 d5 d7 be df 7c 5f be 24 c8 68 be ae e4 0b bd
       -0.42154935 -0.21824978 -0.22732598 -0.034153633
000020 27 8f 93 bf 04 f3 74 bf 1d 15 88 be 81 ef d6 bc
       -1.1528062 -0.9568331 -0.26578608 -0.026237251
000030 85 2a 0f bd 1a 01 69 bf 83 d9 ca be 88 4a a2 be
       -0.03495266 -0.91017306 -0.39619073 -0.31697488
000040 1d 3e 9d bf 35 e5 cd bd 07 ef 7f 3d cf 7b ae bd
       -1.228458 -0.100534834 0.062483814 -0.08519708
000050 5a 7f cc 3e ea 43 87 3d 91 98 dd bd 09 a7 17 be
       0.39940912 0.066047505 -0.10820115 -0.14809813
000060 ff 30 23 3e 91 93 cb be 1a a5 ec be fc da 09 bf
       0.1593666 -0.39761022 -0.46219712 -0.5384977
000070 cd a3 45 bf 8e 51 8b 3d e2 8a 00 bc b9 bd f5 bb
       -0.77203065 0.06802665 -0.007845612 -0.0074994233
000080 06 bf 05 3d 8f fd f1 bd 31 63 55 bf 61 74 4a bd
       0.032652877 -0.118159406 -0.8335448 -0.049427394
000090 63 d8 26 be e0 82 11 bd 0b 62 55 3e 88 7b 59 bd
       -0.16293482 -0.035525203 0.20838182 -0.053096324
0000a0 ef dc ef 3c 37 89 37 3d 30 bb 06 3e 2c 4b fd 3d
       0.029280154 0.044808593 0.13157344 0.123678535
0000b0 60 e1 a4 bd 74 c0 2f be a4 c3 c4 bd b3 fc f5 bd
       -0.08050799 -0.17163259 -0.09607628 -0.12011089
0000c0 ec d2 ed be 9a a6 26 bf 20 f6 44 bf d5 0e 1c bf
       -0.46449983 -0.65097964 -0.76938057 -0.6096013
0000d0 79 78 fa bd 73 85 34 3d d4 0e 5b 3e 50 a7 4b bd
       -0.122300096 0.04407258 0.21392375 -0.04972011
0000e0 8d 3b 8b be 36 61 ae bd 38 c3 bc be 00 89 cc bd
       -0.2719387 -0.08514635 -0.3686769 -0.09987068
0000f0 1c d0 0e b9 77 c3 4c bf f1 f9 d2 bd f6 17 ca be
       -0.00013619702 -0.79985756 -0.10301579 -0.39471406
000100 8f 8d 24 bf 2d fb ca bd f2 45 65 bd f3 88 f9 be
       -0.642785 -0.09911189 -0.05597491 -0.48737296
000110 89 bc d8 be 0f 7a cc 3d 17 9e e1 bd d2 dc 18 bf
       -0.4233134 0.09984218 -0.11016481 -0.59711945
000120 57 b8 c4 be e7 4e c8 be 71 b8 6a 3c 20 4a 00 bf
       -0.3842189 -0.39122698 0.014326201 -0.50113106
000130 22 cf ea be 94 23 8e be f4 2b aa bf d5 b9 76 bd
       -0.45861155 -0.2776152 -1.3294663 -0.060235817
000140 09 cb 1f 3d c1 04 3c bf 49 5d 03 be bf d6 0f bf
       0.03901199 -0.73444754 -0.12828554 -0.5618705
000150 49 8f c8 bd 97 0f dd be 27 ad 63 be 7e b2 4f be
       -0.097929545 -0.43175957 -0.22234021 -0.20282933
000160 c6 f1 4e 3e d9 de 02 bd 77 04 6f bf a2 df 9d bd
       0.20209417 -0.031950805 -0.9336619 -0.0770867
000170 3a b0 08 be e8 ea 58 bd cf 90 9d bd 0f 3f a7 be
       -0.13348475 -0.0529584 -0.07693636 -0.32665297
000180 f8 fa cb bd d0 b8 58 be 99 da db be 26 cd 5a 3d
       -0.09959978 -0.2116425 -0.42940214 0.0534183
000190 25 0f 18 be 17 09 5b bd 84 b1 23 be ac e3 68 be
       -0.14849527 -0.053475466 -0.15985686 -0.227431
0001a0 38 e8 93 be df 6c 95 bd 12 55 a8 bd 8e a8 03 bf
       -0.28888106 -0.07296156 -0.08219351 -0.5142907
0001b0 94 3e 97 bd 21 93 9d 3c c2 14 60 bd 8b ef d5 bd
       -0.07384983 0.019235196 -0.054707296 -0.1044608
0001c0 48 92 cf 3e 9e ef 39 bf a3 ed 8e 3d 60 24 8f bf
       0.4054129 -0.7263125 0.06978919 -1.1182976
0001d0 14 1b c3 3c 04 3a 21 bf d5 df 84 bd 57 07 0c bf
       0.023816623 -0.6297915 -0.06488005 -0.546987

fc2.weight f4 [84, 120]
000000 ef e9 e4 bc 4a 18 14 3f 50 69 2e bf 0b ed 3c ba
       -0.02794358 0.5784956 -0.68129444 -0.0007206953
000010 9b 01 05 3e 95 36 86 be ac eb e7 3e e4 38 0e bf
       0.12988894 -0.26213518 0.4529699 -0.5555556
000020 dc 52 17 3f 7d 73 7a 3f cc 62 bd 3e 54 90 29 bd
       0.5911081 0.9783247 0.3698944 -0.041397408
000030 68 d8 ba 3d 54 ce c1 3e ea 3d 35 3d 58 cd 09 3e
       0.091233075 0.37852728 0.0442485 0.13457239
000040 72 8b 5f bd d6 79 82 3e fc 1c 09 be 0f da 08 3d
       -0.054576345 0.25483578 -0.13389963 0.033411082
000050 27 1f d5 be bb b1 21 be 0a 66 80 3e 54 cd 96 bd
       -0.4162533 -0.15790455 0.2507785 -0.07363382
000060 b1 ef 45 3e ed 00 0e 3f 1f 63 26 3f 26 56 55 bf
       0.19329716 0.5547016 0.64994997 -0.8333458
000070 3b 84 fc 3e 28 4f d0 bd ff e3 04 bd 2f 5b ac be
       0.49319634 -0.10171348 -0.032443997 -0.33663318
000080 ab 84 73 3e 40 b8 8a be cc a5 39 3d 80 69 37 bd
       0.23781078 -0.27093697 0.04532413 -0.044778347
000090 57 f9 68 3e be 4b 63 3c a8 08 bf bd 99 30 6c bd
       0.22751366 0.013873039 -0.09327823 -0.057663534
0000a0 46 9f 5b 3d 20 8c bf bc 27 7d 84 bf bd c9 5d be
       0.05361869 -0.023382246 -1.0350693 -0.21658988
0000b0 ad 21 8d 3c 7d 57 eb be e4 d7 4f bc a4 a9 ab 3c
       0.017227972 -0.45965186 -0.01268575 0.020954914
0000c0 9a 98 b6 be f1 f5 4d 3e db d2 9c 3d 14 bd b4 3e
       -0.356633 0.2011335 0.07657405 0.35300505
0000d0 0f 25 6e bf 2f a6 29 3e 68 a8 75 bf cf bf 62 bd
       -0.93025297 0.165673 -0.9596009 -0.055358704
0000e0 6f 3b 0d 3e af 0b 07 bd 50 73 82 3d 02 66 e6 bd
       0.13792203 -0.032970127 0.0636965 -0.11249925
0000f0 69 b0 4a bd be 24 55 3e 7d 37 99 3e 92 62 1d bf
       -0.049484644 0.20814797 0.29925147 -0.6147853
000100 f7 13 95 3e 01 79 99 bb f2 96 4e bd e1 87 51 3e
       0.29116794 -0.0046836142 -0.05043692 0.2046199
000110 0e 05 31 3c 32 70 07 3e 3c 6e 35 bf e6 a9 18 bd
       0.010804428 0.13226393 -0.7087133 -0.037271403
000120 4c 8c f1 3e 14 79 0c bf a3 e8 b3 bc c0 ef 0a be
       0.4717735 -0.5487225 -0.021961516 -0.1356802
000130 5c a2 e5 3b 52 57 8c bf 8d a1 0e 3e 9b c0 82 bd
       0.00700788 -1.0964148 0.13928814 -0.06384393
000140 c1 ec 82 be 55 67 56 be 93 19 5b bc e6 95 c3 3e
       -0.25571254 -0.20937856 -0.013372797 0.382003
000150 42 90 b3 3c 22 5f 4c bf 5a 85 1e be dc 5b a9 3d
       0.021919373 -0.7983266 -0.15480557 0.08269474
000160 d2 fb ba be f4 37 0e 3d 05 8d 04 3e 69 5f 35 bd
       -0.3652025 0.03472133 0.1294442 -0.044280443
000170 a8 d5 73 3e 77 b8 d9 3d a6 52 58 bd 25 98 91 be
       0.23811972 0.10630887 -0.052813195 -0.2843639
000180 b7 bc 77 3b e9 f2 35 3f 0d 6d a1 3e ee 84 42 3c
       0.0037801692 0.71073776 0.31528512 0.011872513
000190 0d 33 a3 bd 87 5c 22 bb cf 9f 02 bf 04 ab ca bd
       -0.079687215 -0.002477439 -0.510251 -0.098959
0001a0 be 68 c7 3e 74 7f 1b 3d 71 f3 b4 bd 3b 49 f2 bd
       0.389471 0.037963346 -0.08835495 -0.11830374
0001b0 a4 1a 1c 3d 2b fc 8e bd 19 52 5d bd 92 0b 3f be
       0.038111344 -0.06981691 -0.054033373 -0.18656757
0001c0 d0 95 e7 be e4 2d 92 bd 71 bd 9a bd 77 89 bf 3e
       -0.45231485 -0.07137659 -0.07555664 0.37409565
0001d0 89 c1 13 3f 9b fe 2b 3f 13 57 bd 3e d0 c5 c2 bd
       0.57717186 0.6718537 0.36980495 -0.09510386
0001e0 c2 1d c0 3e 7b 88 96 3e f2 32 9d bd 3b c0 bc 3e
       0.37522703 0.29401 -0.07675733 0.3686541
0001f0 f1 21 10 be ea 41 c4 bd d2 6f 36 3d 7d 30 d2 be
       -0.14075448 -0.095828846 0.044540234 -0.4105262
000200 98 23 09 3e 11 5c d2 3d a7 02 0e 3e 1f f2 b0 bd
       0.13392484 0.102714665 0.138682 -0.08639931
000210 6d 60 ba 3b d1 ab b0 be 4a 05 5a 3d 5a 4c 0f 3e
       0.0056877644 -0.34506086 0.0532277 0.1399397
000220 45 c2 f0 3d a0 13 73 3e ff cd 87 be 33 e7 84 3c
       0.11755804 0.23737955 -0.2652435 0.016223526
000230 78 48 27 bf 30 4e 7a bf f7 e9 da be 74 a7 f2 be
       -0.65344954 -0.97775555 -0.42756626 -0.47393382
000240 e6 eb 0f 3e c3 b5 53 3e 71 af 5e 3e ef b7 70 bd
       0.14054832 0.20674805 0.21746613 -0.058769163
000250 c0 82 7b 3d 27 56 60 bd d2 a0 0e bd be 91 9c 3e
       0.06140399 -0.05476966 -0.03482134 0.30579942
000260 0b 7a 86 3e c2 44 c0 be 21 14 61 3c 67 68 88 bd
       0.26264986 -0.37552458 0.013737709 -0.06660538
000270 12 75 61 3e 8e 00 b2 bd ff 2f fa be 47 ab f5 3e
       0.22017315 -0.08691512 -0.48864743 0.47982237
000280 20 4e ea bd 18 25 0e bf 72 c9 56 be c8 cf ed bc
       -0.114406824 -0.5552535 -0.20975283 -0.029029742
000290 b1 94 4b bc b6 59 bc 3d cf 5f 3a 3d df b7 87 3d
       -0.0124255875 0.091967985 0.045501526 0.066268675
0002a0 91 4f db 3e 2e f1 06 bf 1d 43 8a 3e 7b 42 14 be
       0.42834142 -0.5271176 0.27004328 -0.14478485
0002b0 2a 81 6c 3e dc 66 93 bd 72 09 a0 bd 33 0f 8d bc
       0.23096147 -0.07197353 -0.078143016 -0.017219162
0002c0 69 df 01 3e 46 f9 8c bd b5 cc a4 3e 8b 71 1d be
       0.1268288 -0.06883483 0.3218743 -0.15375344
0002d0 f3 5c 96 be dd 1c 76 bd 4f 83 d0 3e be 8c 3b bd
       -0.2936779 -0.06008612 0.4072518 -0.04578852
0002e0 35 90 cf be 04 1a 90 bd 3c 8a 75 3b 0f f4 71 bd
       -0.4053971 -0.07036212 0.0037466427 -0.059070643
0002f0 06 74 89 3c 27 4c d1 be 68 2c c3 3d 06 16 d0 be
       0.016778957 -0.40878412 0.09529954 -0.40641803
000300 b6 0e 31 be aa 57 91 3d fc a5 d5 bd 82 2d c2 3d
       -0.17290768 0.07096799 -0.1043205 0.09481336
000310 bd a1 d7 3e cc 31 b9 bd 20 8f b2 3d 0b 7a 0a bd
       0.42115584 -0.09042701 0.08718705 -0.033807795
000320 14 7b 53 3e f9 67 57 bd 59 ee 53 bf 6b 85 53 3f
       0.2065242 -0.05258939 -0.82785565 0.82625455
000330 ea dd 43 3d 1c cb 0b 3f 7b 29 32 3e a3 04 3d 3e
       0.047819056 0.54606795 0.17398636 0.184588
000340 41 c8 30 bf 1b 93 e3 bd b2 cf ff b8 f1 33 81 3d
       -0.69055563 -0.111120425 -0.00012198034 0.06308735
000350 ec b1 31 bf 52 97 19 3d 62 98 0a bf 02 91 53 bf
       -0.6941211 0.037497826 -0.5413877 -0.8264314
000360 6d ea 9a 3c 9c 52 02 3e 5e a8 e7 3d 94 77 2c bf
       0.018910611 0.12726825 0.1131141 -0.6736996
000370 56 47 ae be 1a eb 96 3d fd 48 9b bf 6b d8 96 be
       -0.340388 0.07369061 -1.2131649 -0.2946199
000380 b3 25 a3 be 48 54 7b bd ed 9f 3e bd 8f ed 9c 3e
       -0.318647 -0.061359674 -0.046539236 0.30649993
000390 4c fe b0 bd fc 10 8f bd d9 44 99 bd 7e 09 c9 be
       -0.08642253 -0.069856614 -0.07483835 -0.39265054
0003a0 e1 8d 05 bf cc 76 55 be ec 2a 47 3e 90 0d 0c 3e
       -0.52169615 -0.20846099 0.19449967 0.13677049
0003b0 60 72 d0 3d 51 c4 ee be 34 ca e1 bd b2 d7 57 bf
       0.10178065 -0.46634153 -0.11024895 -0.843135
0003c0 c8 c4 5e bd 6e c9 48 3e d2 e8 10 be 79 23 f5 3d
       -0.054386884 0.1960809 -0.14151314 0.119696565
0003d0 4b a9 4a 3e 5d 02 11 3e 07 e5 cd 3b 47 4c ce 3b
       0.19791143 0.14161058 0.0062834057 0.006295714
0003e0 af ee fc 3e ff ba fa bc 9a a9 7f 3a 70 7f e4 bd
       0.4940085 -0.030606745 0.00097527506 -0.11157119
0003f0 68 ee ac bd 57 3f c7 bc 05 36 65 3d ee cb 5d be
       -0.0844391 -0.024322195 0.05595972 -0.21659824

fc2.bias f4 [84]
000000 08 b8 cf be 6a 45 af be a6 23 18 be b8 84 3c bf
       -0.40570092 -0.34232646 -0.14857349 -0.7364001
000010 f6 83 ce be 51 47 0b bf 50 8c f9 be 31 98 88 be
       -0.40335053 -0.54405695 -0.48739862 -0.26678613
000020 03 1e 40 bf 91 c3 c6 be d3 1e 92 be 87 73 38 bf
       -0.75045794 -0.3882108 -0.28539142 -0.7205128
000030 8a c3 9d be d3 c8 98 be 6f 35 a9 3d 5c 63 8a be
       -0.30813247 -0.29840717 0.08262145 -0.2702893
000040 0a 6b 41 bf df 60 45 be 10 06 89 bf a3 44 9a be
       -0.75553954 -0.19275235 -1.0704975 -0.3013049
000050 64 9c c6 be 0a b8 01 bf 65 78 99 bf 2d dc 3f bf
       -0.38791192 -0.50671446 -1.1989866 -0.74945337
000060 e7 3d 5f bf e0 90 65 bf 38 fd e0 bd ef d9 70 bf
       -0.8720383 -0.89674187 -0.10985798 -0.9408254
000070 6d 5e 56 bf 87 7d 1e bf 92 73 2e bf 9c 98 13 bf
       -0.8373783 -0.6191029 -0.68145096 -0.5765474
000080 55 6c 95 bd 03 54 0f be f1 d6 80 bf 98 1b f3 be
       -0.07296053 -0.13996892 -1.0065595 -0.4748199
000090 60 c1 75 be b0 92 99 bf cd 41 36 bf 98 0d 14 bf
       -0.23999548 -1.199789 -0.71194154 -0.5783324
0000a0 1e d4 26 bf ab ad 26 bf 43 48 21 bf e7 13 28 bf
       -0.65167415 -0.65108746 -0.6300089 -0.6565537
0000b0 56 57 59 bf 51 6b 83 bf fa 3e 5e be 0e ba 31 bf
       -0.8489889 -1.0267125 -0.21703711 -0.6942452
0000c0 fa 9e 7e bf 3b 06 8d bf 06 5d fe be 4c ff 81 bf
       -0.9946133 -1.1017526 -0.49680346 -1.0156035
0000d0 1e e4 f0 be 65 cf f5 bd 16 14 2a bf 95 36 03 be
       -0.4704904 -0.12002448 -0.664369 -0.1281379
0000e0 36 c5 b5 be b8 b2 6f bf 47 8d 62 bf b5 63 c0 be
       -0.35502023 -0.9363208 -0.8849682 -0.3757607
0000f0 00 7d 2d bf 2e e2 06 be 30 f9 55 bf 3d 77 8d bd
       -0.6776886 -0.13172218 -0.83583355 -0.069075085
000100 a4 dc 51 bf bd 4e f4 be 3c cd 00 bf 8a 5a 9e 3d
       -0.81977296 -0.47716323 -0.5031316 0.07732113
000110 5e 5e e7 be ff 28 62 bf a8 8b 57 bf e8 4e 5d bf
       -0.45189184 -0.88343805 -0.84197474 -0.86448526
000120 38 60 39 bf f2 ab c3 3d f0 f9 46 bf 5c d8 3d bf
       -0.72412443 0.0955428 -0.77725124 -0.74158263
000130 9d ac e6 be 75 3f 88 be 50 ab a9 be 4d ed 27 bf
       -0.45053568 -0.26610914 -0.33138514 -0.6559647
000140 7d 48 2e bf d2 8d e6 be 64 ac a6 be 8e ec 48 3d
       -0.6807936 -0.45030075 -0.325534 0.04905372

fc3.weight f4 [10, 84]
000000 33 dc ee bf cb 9b 9e bf a4 b4 c5 bf 73 ac 0c bf
       -1.866095 -1.2391294 -1.5445752 -0.54950637
000010 df ec a3 bf 30 13 c0 be 85 d4 83 bf 25 f6 2a bf
       -1.2806662 -0.3751464 -1.0299231 -0.66781837
000020 85 81 df bd 6a 8f e5 be 80 82 47 be ba 3f c2 bf
       -0.10913376 -0.4483598 -0.19483376 -1.5175698
000030 31 08 02 bc df 4b 57 bf 05 ef bd bf 4c b8 64 bf
       -0.007936523 -0.84100145 -1.4838568 -0.89343715
000040 b7 02 23 be a7 29 0f 3e 88 de 6f be e1 ae 83 bf
       -0.15919004 0.13980733 -0.23424733 -1.0287744
000050 c9 52 55 bf 44 d7 0f 3e 51 db 96 be de b2 3b 3c
       -0.83329445 0.14046961 -0.294642 0.0114562195
000060 3b 84 98 be db 53 7c bf a5 8a 58 be d2 65 39 bf
       -0.29788384 -0.98565453 -0.21146639 -0.7242099
000070 1d 36 47 be d7 e8 bf be f5 b3 a6 bf 3f e1 bc bd
       -0.19454236 -0.3748233 -1.3023669 -0.0922265
000080 b6 76 d7 bd 3d cc 09 bf 16 9b 96 be 49 73 bc be
       -0.10520689 -0.5382727 -0.29415196 -0.36806706
000090 09 f9 48 bf a8 82 7f be 5d fe fa be e9 61 62 bf
       -0.78505 -0.24952185 -0.4902219 -0.8843065
0000a0 b9 f7 f7 bd fb 3d 58 bf 68 2f 82 be 05 dc 95 3d
       -0.12107796 -0.84469575 -0.25426793 0.07317356
0000b0 67 ae 63 bf 03 64 cd 3d 8b a9 63 be c1 7a 81 bf
       -0.8893799 0.10028841 -0.22232644 -1.0115587
0000c0 18 a9 29 bf 7a b0 82 bd 53 53 57 bf 1e 8e 42 3e
       -0.6627364 -0.063813165 -0.8411152 0.18999526
0000d0 f0 12 99 3e b1 28 d3 bf a9 31 63 bf 83 81 9b bf
       0.2989726 -1.6496793 -0.8874765 -1.2148899
0000e0 4d d7 e2 be 9c c7 e1 bd d3 1a ba be 9d 29 09 bf
       -0.44304886 -0.110244006 -0.3634859 -0.5357912
0000f0 49 9b e5 be 7e 89 18 c0 61 75 a2 bd 5b 65 84 bf
       -0.44845036 -2.3833919 -0.079325445 -1.0343431
000100 9e 27 98 be f1 79 16 bf 1a 2a e1 bd 88 76 36 bf
       -0.29717726 -0.5877982 -0.10994358 -0.71274614
000110 34 ff 0a bf 3a 26 65 bf db 37 8a be 04 cc 14 be
       -0.5429566 -0.89511454 -0.2699574 -0.14530951
000120 73 57 fd be e7 dc 4d bf 50 78 28 bf 12 cf 27 bf
       -0.4948078 -0.80415195 -0.6580858 -0.6555034
000130 0f b9 73 bf c9 35 36 bf 44 06 bc 3d b7 78 43 3e
       -0.9520425 -0.7117582 0.091808826 0.19089018
000140 55 7e 32 bf b2 16 56 bf 6a 04 d1 be 64 e0 66 bf
       -0.6972402 -0.8362838 -0.4082368 -0.9018614
000150 0d f1 90 bd 73 ba db be a6 f9 7b bf 48 d4 b3 3d
       -0.07077227 -0.42915687 -0.9842781 0.08780724
000160 00 2f 9e bf 50 a9 9a bf 4b 8b c5 bf 9b 49 0d be
       -1.2358093 -1.208292 -1.5433134 -0.1379761
000170 15 9d b5 bf 1c 54 4a be b8 9a 9b bf 26 74 44 be
       -1.4188563 -0.19758648 -1.2156591 -0.19184932
000180 92 66 1a bf 1c 18 51 be 89 e0 08 bf e2 1e 98 bf
       -0.6031276 -0.20419353 -0.53467613 -1.1884425
000190 ba 5b 4b bf 72 6c e9 bf bc aa ae bf d8 b4 d3 bf
       -0.7943684 -1.823622 -1.3645854 -1.6539564
0001a0 f7 73 56 bf 43 75 76 bf 8d a0 51 be dd 4e 0c c0
       -0.837707 -0.9627268 -0.20471402 -2.1923134
0001b0 a9 e7 5b be c3 a2 a3 bd fe a2 98 bf 3c 08 17 bf
       -0.2147509 -0.07990029 -1.1924741 -0.5899694
0001c0 e2 1b 89 bf 22 4d 34 bf 09 a7 a2 be e5 81 76 be
       -1.0711634 -0.70430195 -0.31768063 -0.24072988
0001d0 40 5d 3d 3c b1 af 01 bf 60 b3 9b be 7a 3d 55 be
       0.011557877 -0.5065871 -0.3041029 -0.20824233
0001e0 7d 7a 75 bf 74 69 f6 bd 6e 71 e9 be a6 25 a3 be
       -0.9589003 -0.12031832 -0.45594352 -0.3186466
0001f0 fc b0 b2 bd ae d1 90 bf f9 20 6f bd c1 2e a1 bf
       -0.08725163 -1.1313989 -0.058381055 -1.2592393
000200 19 e7 86 bf c7 81 a4 be c2 96 20 bf c5 12 27 3d
       -1.0539275 -0.32130262 -0.6273004 0.040789384
000210 ce a7 ac be a3 72 9b be 04 79 66 bf 41 ef 97 bf
       -0.33721775 -0.30360898 -0.90028405 -1.186989
000220 65 da 20 c0 ca ec 55 be 7c 5f ba be 82 57 18 bf
       -2.5133297 -0.20891109 -0.36400974 -0.59508526
000230 4e c1 3b bf 34 95 09 bf 59 da c5 bf 31 a8 a7 bf
       -0.73341835 -0.5374329 -1.545726 -1.3098203
000240 a0 7c 32 bf ea 0d 66 bf d4 e5 9b bf d7 ee c6 3d
       -0.6972141 -0.8986498 -1.2179513 0.09713524
000250 d7 47 84 bf 92 60 b2 bf 31 0a 45 3e 34 02 b3 bf
       -1.0334424 -1.3935721 0.19242169 -1.3985047
000260 f7 c3 79 bf 2d c3 6a bd 87 9f 32 bf 9d 28 b4 be
       -0.97564644 -0.05731504 -0.6977467 -0.35187235
000270 e6 a4 57 bf 1a 18 21 3e c5 6a dc bd 67 7b 19 bd
       -0.8423599 0.1573185 -0.10762552 -0.0374712
000280 5e 1b 5c 3d 69 5c 0a be 01 0a 42 bd 15 8d e5 3d
       0.053737037 -0.13511814 -0.04737282 0.1120855
000290 0a 10 a4 be 40 58 c5 3c 76 dd a5 3d 48 ae ad bf
       -0.32043487 0.024089932 0.08098881 -1.3568811
0002a0 23 7e d3 bc 03 5a ca be b6 c6 66 be c2 1a f0 be
       -0.025816983 -0.39521798 -0.2253674 -0.46895415
0002b0 a3 18 9a bf 86 2a 03 bf b9 20 ce be c8 6c 76 be
       -1.2038769 -0.5123676 -0.4025934 -0.24064934
0002c0 51 02 38 bf cb 51 b7 3d ca 06 16 be 2e 86 e9 bf
       -0.71878535 0.08951148 -0.14651027 -1.8244073
0002d0 bb 57 da bc 8f aa 41 be 33 39 43 bc 41 bd 82 be
       -0.026653161 -0.18912719 -0.011915493 -0.25535014
0002e0 bc 11 fa 3d b7 8c 33 bf 59 f3 b8 3c 32 3a 70 bf
       0.12210414 -0.7013659 0.022576975 -0.938388
0002f0 4a be 3a be 23 2a 13 be 52 3a 61 bf 16 2b aa be
       -0.18236652 -0.14371543 -0.87979615 -0.33235997
000300 b0 40 01 bf a4 8b 09 bd 69 2e 95 be 42 2d bd be
       -0.5048933 -0.033580437 -0.2913697 -0.3694859
000310 03 31 44 bf cf df 64 3c 7d dd 77 bf f5 5d 30 bf
       -0.76637286 0.013969376 -0.9682234 -0.6889337
000320 3d 21 05 be 67 6c 23 bf 3b 07 5d bf d2 dd 04 bf
       -0.1300096 -0.63837284 -0.8633916 -0.5190097
000330 d9 59 25 be 40 e2 7a be d4 b5 ec be ac ca d6 be
       -0.16147555 -0.2450037 -0.46232474 -0.419515
000340 d3 dc ec be 79 40 0f be 9a b0 83 be 80 2f 78 bf
       -0.46262226 -0.13989438 -0.25720674 -0.9694748
000350 65 d7 09 be 54 75 15 bf b6 dc 1f bf b8 c2 ce be
       -0.13461073 -0.58382154 -0.62446153 -0.40382934
000360 4e a7 b8 bf 58 ea 25 bf 63 30 c6 bf 6c 7f 4c bf
       -1.4426057 -0.64810705 -1.5483516 -0.7988193
000370 46 5f 8b bf 2a e3 01 bf 0c a3 8b bd e2 90 9b bf
       -1.088845 -0.5073725 -0.06818208 -1.215359
000380 30 24 f8 3d 94 49 53 bf 7d 37 54 be 7f 6e f7 bf
       0.12116277 -0.82534146 -0.20724292 -1.9330596
000390 b9 6c de 3b 17 2a 80 bf c1 95 38 bf a6 a9 84 bf
       0.006787863 -1.0012845 -0.72103506 -1.0364273
0003a0 15 f9 99 be 20 ef a0 bf 73 f0 86 bf db 36 ad be
       -0.30072847 -1.2572975 -1.0542129 -0.33830914
0003b0 c4 aa 3e bf 95 5a 44 be 05 d4 3a be 53 69 9b 3d
       -0.7447932 -0.1917518 -0.18244942 0.075884484
0003c0 31 f9 5f bf 4b 75 9a bf 36 4f 10 bf 96 18 de 3d
       -0.8748961 -1.2067045 -0.56370866 0.10844533
0003d0 d8 30 38 be 3d 39 4d bd 26 b2 f0 bd 1c 74 64 3e
       -0.17987382 -0.050103415 -0.11752729 0.22309917
0003e0 66 0f 86 bf d2 55 21 be e0 ca 68 bd bf 48 88 bf
       -1.0473449 -0.15755394 -0.0568341 -1.06472
0003f0 c6 5f d2 3d 67 c9 50 bd 95 5a 8c be 6a 37 a2 3d
       0.102721736 -0.050973322 -0.2741286 0.07920726

fc3.bias f4 [10]
000000 e8 86 ea be 89 b1 d1 bd c2 52 c6 bd f4 02 22 be
       -0.4580605 -0.1023894 -0.096837536 -0.15821439
000010 3e 5c 29 be ea 3f a6 be 42 75 b1 be fb 31 11 be
       -0.16539094 -0.32470638 -0.34659773 -0.14179222
000020 3b 42 fb 3e 5b e7 a6 3c
       0.49073967 0.02037399
