mnist/saved_models/model_epoch_49.pth (torch, 181338 bytes, 10 tensors)

conv1.weight f4 [6, 1, 5, 5]
000000 45 62 76 be 86 9f b3 bc ac 24 66 3e 3f 79 88 3e
       -0.24060924 -0.021926653 0.22474927 0.26655003
000010 ae 49 d1 3e c7 6d 0e be 94 43 c6 be 70 55 e0 be
       0.40876526 -0.13909064 -0.38723433 -0.43815184
000020 61 99 0b bf bb 3b 34 3e 06 51 d3 3c 09 f6 5a 3e
       -0.5453091 0.1760091 0.02579547 0.21382917
000030 4a 45 36 bd 9b 1a 53 be 50 7d 71 3d 1a 40 8d 3b
       -0.044499673 -0.20615618 0.058957398 0.00431062
000040 c5 ac 93 3e 1f 9f f0 3d 7f 2b 8b 3e 2d 27 40 bd
       0.2884275 0.117491 0.27181622 -0.04691236
000050 65 dc d5 3d 37 65 a7 3d f4 2b 6c 3d 36 e8 7c 3e
       0.104424275 0.08173602 0.057659104 0.24697956
000060 99 5b 4b 3e 21 5f 37 3e 92 51 14 bd c4 22 a1 3d
       0.1985916 0.17907383 -0.036210604 0.07867959
000070 65 77 0d 3f 2e ea 4e 3f a7 a7 15 3e 8b 49 e3 bd
       0.55260307 0.8082608 0.14614736 -0.110980116
000080 df 02 b4 be d8 c1 29 bf 36 e6 8b 3e 34 60 1a 3e
       -0.3515844 -0.6631141 0.27324075 0.15075761
000090 4f 1d 89 be c5 bf e3 bc c6 55 90 be 74 e8 cb be
       -0.26780173 -0.027801404 -0.2819044 -0.39825785
0000a0 d3 04 60 3e 08 3f 3b 3d 9e 81 75 3d 3b d9 09 be
       0.2187684 0.04571441 0.059938066 -0.13461773
0000b0 bc 47 ba be 7e c3 53 3d 06 99 d4 bc 7c 4e 87 3d
       -0.36382854 0.051700108 -0.025951874 0.066067666
0000c0 65 ac b3 3e d9 09 69 3e 8c 60 54 be 1d 5e 59 3e
       0.35092464 0.22757663 -0.20739955 0.21227308
0000d0 dd b6 97 3d ad 55 86 3d 8a bc bd bc 19 51 4f 3e
       0.07407925 0.0655931 -0.023161191 0.2024578
0000e0 2a b7 ca 3e 4a 55 d6 3d f8 c1 19 3e 34 e7 79 3e
       0.39592868 0.10465486 0.150154 0.24404603
0000f0 db 17 40 3f 53 5a 5c be 8c 13 e2 be 75 d5 75 be
       0.750364 -0.21518831 -0.44155538 -0.24007209
000100 5f 8a 2c 3e 15 08 bb 3d 06 63 b4 be 15 17 df be
       0.1684966 0.09132401 -0.352318 -0.43572298
000110 8a cf 7c be 21 86 20 3f 10 98 8e bc 18 89 4d 3d
       -0.24688545 0.62704664 -0.017406493 0.05017957
000120 32 02 cf 3d 15 c7 c3 bd 24 fd b9 3e 41 a1 21 3c
       0.101078406 -0.09559456 0.36325943 0.009865106
000130 18 67 2d be d9 64 aa 3c 9c bf ed 3d 73 53 5b 3e
       -0.16933858 0.020800041 0.11608812 0.21418552
000140 a3 6c 90 bd 44 34 58 3e 5e ab ac bd c5 fc 04 bf
       -0.07051971 0.21113688 -0.08431123 -0.51948196
000150 fd 9c 37 be e5 55 96 bd d4 35 53 3e 3b 47 aa be
       -0.1793098 -0.07340602 0.20626003 -0.3325747
000160 b7 a4 43 bf 5e 9b 10 be a8 32 8f 3c d9 6f ea 3e
       -0.7642321 -0.14121768 0.01748021 0.45788458
000170 3f 13 0b 3e 84 eb 45 3d d9 48 0f 3e 1f a9 e6 be
       0.1358156 0.04832031 0.13992633 -0.45050904
000180 d1 12 e6 3e b3 83 f8 3e 4c 69 8c 3e 93 61 08 be
       0.4493623 0.4853798 0.27424085 -0.13318472
000190 3a 86 d7 bc 87 d7 3e 3d 2d 33 a7 3e 50 2f fe bd
       -0.026309121 0.04659226 0.32656232 -0.12411368
0001a0 11 90 9a 3d da aa 02 be 86 0b 16 3d 05 08 da be
       0.0754701 -0.12760487 0.036632083 -0.42584243
0001b0 a8 a5 ba be fa 95 78 3e be 0d 07 3e b5 c9 77 be
       -0.3645451 0.24275962 0.13188836 -0.24198039
0001c0 cd bd 1c bf 51 63 da 3e 67 50 a0 3e 89 06 37 be
       -0.61227113 0.42653897 0.31311342 -0.17873587
0001d0 75 e1 98 be 4c fa 7d 3b 28 ff 4b 3f 18 b4 b6 3b
       -0.2985951 0.0038753925 0.7968621 0.005575668
0001e0 af d2 97 3d 33 a2 23 3e 3f 2f 85 bd c5 75 b0 3e
       0.074132316 0.15979843 -0.06503152 0.3446485
0001f0 35 8c 17 bd 04 4b 3e 3e d1 d6 5b be ee 1e da bd
       -0.036998946 0.18583304 -0.21468665 -0.106504306
000200 b7 15 bc bc 1e 97 b7 3e fa ca 9d be b1 01 44 3e
       -0.022959573 0.3585748 -0.3081892 0.1914127
000210 b2 b4 8b 3e 4b d0 04 3f aa 25 b9 3e 7f ea 92 bd
       0.27286297 0.5188033 0.36161548 -0.07173633
000220 55 63 5a 3d 20 bb b6 3d 07 90 d6 bd 0d 4d 19 be
       0.053317387 0.0892241 -0.1047669 -0.14970799
000230 72 cb 87 bd b0 43 df 3d db 3d 18 be 9a dd c4 bd
       -0.06630601 0.10901582 -0.14867346 -0.0961258
000240 c6 cf ad bd e6 19 ab bd db a8 32 be 09 11 b2 be
       -0.08486895 -0.08354549 -0.17447226 -0.34778622
000250 23 87 93 bb 57 1b 45 3d
       -0.0045021935 0.048121776

conv1.bias f4 [6]
000000 1f 11 d4 bf 31 b6 ab bf 5c 48 d6 bf f7 a4 df be
       -1.6567725 -1.3414975 -1.6740832 -0.43680546
000010 e3 e3 39 bf 7c f9 d7 be
       -0.7261335 -0.4218253

conv2.weight f4 [16, 6, 5, 5]
000000 83 1f 06 3e e9 b0 35 be ff bd 13 bf dd 38 53 bf
       0.13097958 -0.17743267 -0.57711786 -0.8250864
000010 97 0a 4d be 42 fd a2 3d 6b 48 1d be 09 73 cb be
       -0.20023571 0.07958461 -0.15359657 -0.39736202
000020 fe 76 ae be 5e d9 c1 be 13 84 5a 3e 57 ff f9 be
       -0.3407516 -0.3786115 0.21339445 -0.4882762
000030 06 2a 12 bf fd c6 81 be bf 36 bd 3d 09 f8 95 3f
       -0.5709537 -0.2534713 0.092389576 1.1716319
000040 41 f9 43 3e bb e4 dc bd c0 6e 09 be 8e d8 7d 3e
       0.19138052 -0.107858144 -0.13421154 0.2478964
000050 a5 a1 5a 3f d1 3c 98 3e 26 74 96 be 43 59 2c bd
       0.854029 0.297339 -0.2938549 -0.042077314
000060 90 36 1b 3e d1 f9 84 bf 09 f5 76 be 38 ae c2 3d
       0.15157533 -1.0388738 -0.24116911 0.09505886
000070 0e 27 d3 3d 17 8c 8a be cb 5e fd 3e 57 bf dd 3d
       0.103101835 -0.27060005 0.49486384 0.10827511
000080 16 57 58 bf 07 03 7c bf 4a e4 16 3c 31 74 b8 3e
       -0.8450788 -0.9844212 0.009209702 0.36026147
000090 e6 50 9a 3e 80 91 2e be f1 42 98 3e 04 32 5f 3e
       0.30139846 -0.17047691 0.29738572 0.21796423
0000a0 61 72 55 3f bb b3 af 3e 1f 3f f2 bd 93 f9 7c be
       0.83377653 0.3431681 -0.11828446 -0.2470458
0000b0 9c d6 d6 be 8b e3 ef 3d b7 ca 95 bf 8a 50 b3 bf
       -0.4196061 0.11713322 -1.1702489 -1.4008954
0000c0 12 f8 32 bf 4c 55 14 3e c2 84 92 be dd db f4 be
       -0.69909775 0.14485663 -0.2861691 -0.47823992
0000d0 39 10 3d 3e cf fa 07 bf 7c f2 2f 3f 66 76 21 3f
       0.1846322 -0.5311708 0.68729377 0.63071287
0000e0 d1 cd 2c 3e cb b8 c7 3e 7c 24 89 bd 07 dc 91 bd
       0.16875388 0.39008173 -0.06696412 -0.07122045
0000f0 28 4b cc bd 27 4f 71 bf 1c 78 c7 bf 9e 12 01 be
       -0.099752724 -0.942614 -1.558353 -0.12604758
000100 65 78 1d 3f 41 c8 02 3f 20 7c a3 3e 69 8f 1b bf
       0.6151183 0.51086813 0.31930637 -0.607657
000110 7e 13 cf bd e4 7a e7 bd d5 0b 3a 3e 16 3c 0d bf
       -0.1011114 -0.113027364 0.18168576 -0.5516981
000120 e8 f4 2a be 3c 01 3d bf 1c a4 89 bf a8 70 8d be
       -0.16694987 -0.7383001 -1.0753207 -0.27625012
000130 7e a8 90 be ec d7 01 be 3f 1d e6 be 1d 91 a8 3e
       -0.2825355 -0.12680024 -0.44944188 0.32923213
000140 88 73 be bd 75 3b 26 3f 58 e6 1e 3f 8b 10 2f 3e
       -0.092993796 0.64934474 0.62070227 0.17096154
000150 a8 d9 72 be 87 20 93 bf 74 48 eb bf e9 a6 d7 bf
       -0.23715842 -1.1494302 -1.8381486 -1.6847812
000160 7d 1a fa bf bb 29 af bf 0c 9a f0 bc f3 f5 b1 bd
       -1.9539334 -1.368461 -0.02937033 -0.08689489
000170 21 3e b8 3d a3 0c 03 3e c5 c8 00 3f 9c 83 a1 3e
       0.08996225 0.1279779 0.5030635 0.31545722
000180 50 7b 04 3f 30 ff 8a 3e c4 62 01 3f 1b ea 55 3f
       0.5175066 0.27147818 0.5054133 0.8356034
000190 79 8f 05 3d bb d4 fc 3e 27 57 8b 3e 7a 84 bf bd
       0.03260753 0.4938105 0.2721493 -0.0935144
0001a0 b1 53 b4 3c 74 21 7d be a6 ed d3 3e a8 87 05 3f
       0.022012563 -0.24719793 0.4139225 0.5216012
0001b0 6f d3 d5 be 7c 4a 2f bd 10 c6 db bf c9 cd 67 bf
       -0.41762874 -0.042795643 -1.7169819 -0.9054838
0001c0 09 f6 e8 bf b7 b2 a5 bf 85 a1 e1 be 7e 5a b4 bf
       -1.8200084 -1.2945164 -0.44068542 -1.4090116
0001d0 57 ea 87 bf 41 6a ca be 38 70 8f 3e 69 74 9c 3e
       -1.061839 -0.3953419 0.28015304 0.30557564
0001e0 80 3e 60 3f d4 e2 a3 bd ad 9d 28 3e df 5a e2 bd
       0.8759537 -0.080022484 0.16466399 -0.110524885
0001f0 6a a8 e3 be a7 e4 83 be 78 2d 86 3e a7 ee 05 3d
       -0.44464427 -0.25760385 0.26206565 0.0326983
000200 f7 6a f2 3d 9f 2a 59 be 8f df 7e 3e 5b 22 67 3e
       0.11836808 -0.21207665 0.24889968 0.225717
000210 7f 6f 89 3d 8c cf cd 3d e2 1b 1c bd a5 e8 a3 3e
       0.06710719 0.10049352 -0.03811253 0.3201343
000220 4e 2c 06 3f d7 09 48 3f 9c 04 ce 3e 75 45 8d bd
       0.52411354 0.78140014 0.40237892 -0.068980135
000230 ac 73 cf be 5a 73 9d 3e 99 f0 a9 be 32 b6 9d bf
       -0.40517938 0.3075207 -0.33191374 -1.2321227
000240 9a 99 d1 be b6 30 d4 bf dc 76 03 c0 44 9e 84 bf
       -0.409375 -1.6577365 -2.0541296 -1.0360799
000250 3c 38 2c bd d0 99 57 3e f3 39 70 be 49 4b 3f bc
       -0.042045817 0.21054769 -0.23459606 -0.011675664
000260 6c 83 9c 3e b2 ca 4a bb d7 45 03 3e 72 0b 77 bd
       0.30569017 -0.003094357 0.1281961 -0.06031365
000270 b0 1e 88 be 4b 5f c6 3b 31 a0 b2 3b 81 a1 84 be
       -0.26585913 0.0060538403 0.005451225 -0.25904468
000280 ae d3 92 bd 71 21 92 be 24 26 5c be 88 ff 80 be
       -0.07169281 -0.2854114 -0.21498924 -0.25194955
000290 7d e3 56 bf 8b ea 81 bd a6 39 08 3f f5 05 4a 3f
       -0.8394087 -0.06343564 0.53212965 0.7891534
0002a0 ef 1e de bd 63 15 ab bf 76 42 ee 3e 03 3a fb 3e
       -0.10845744 -1.3365902 0.4653508 0.49067697
0002b0 6f 6c 82 bf b6 29 b0 bf b2 77 54 bf dd 25 11 bf
       -1.0189341 -1.3762729 -0.8299514 -0.566984
0002c0 b1 50 76 3d 3a 57 68 be c6 ba f4 be 79 c8 97 3e
       0.060135547 -0.22689524 -0.47798747 0.29645136
0002d0 a7 a0 90 3d d1 50 57 be b8 43 c3 bd e8 d7 5f 3e
       0.07061892 -0.21026923 -0.09534401 0.21859705
0002e0 3d b5 bb bb ee 47 c1 3d b6 64 80 bc e2 54 5e 3e
       -0.0057283924 0.094375476 -0.015673023 0.21712068
0002f0 11 03 26 bb e9 66 ab 3e 17 e5 00 3f 7f 90 a2 3e
       -0.0025331418 0.33476952 0.50349563 0.31750867
000300 20 33 69 bf 28 48 74 bf fe 49 8f be 95 4d 24 3f
       -0.91093636 -0.954226 -0.2798614 0.6418088
000310 d0 4d 83 3e f6 fd f9 3d a1 9c b8 3b bc a3 1e be
       0.25645304 0.12206642 0.005633906 -0.15492147
000320 7a a6 13 bf d3 30 6a bf 36 c6 82 be d3 4a 42 3e
       -0.576759 -0.9148075 -0.25541848 0.18973856
000330 c2 d9 c9 3e a7 80 18 3f c1 31 f1 bd 26 fd 83 3e
       0.3942395 0.5957131 -0.11777068 0.25779074
000340 82 3f 33 3e 50 26 28 3f 49 7b db bd 36 62 00 be
       0.17504695 0.6568346 -0.10716874 -0.12537464
000350 2b ee 99 3e 43 44 60 3f 90 82 37 3f 4f 83 2a bf
       0.3006452 0.8760416 0.716836 -0.6660661
000360 61 c6 7c bd 2f d2 b8 be e5 cb 56 bf bb 0a e1 3e
       -0.061712626 -0.36097857 -0.8390487 0.439535
000370 63 42 e1 3d b5 23 b7 bf fa cb ae bf 43 5d fd be
       0.109989904 -1.4307772 -1.3655999 -0.49485216
000380 fe 76 06 3e c3 bd 62 be 52 0e 86 bd d8 d3 42 be
       0.1313133 -0.22142701 -0.065457 -0.19026124
000390 ba fc fb 3e 06 6c c1 3e 76 8c 63 bf 0b 88 0a be
       0.49216253 0.37777728 -0.888862 -0.13528459
0003a0 be 26 2b 3f cc 2e 0e 3f 54 d7 50 3f c9 df 6d 3e
       0.6685599 0.55540156 0.81578565 0.23229899
0003b0 0c 41 76 3d bd 55 52 be 75 cb 36 3d 05 09 ab be
       0.060120627 -0.20540519 0.044627625 -0.3340532
0003c0 27 22 d9 3e 20 40 2d 3f 91 c1 65 3f f0 80 38 bf
       0.4240887 0.6767597 0.89748484 -0.72071743
0003d0 23 13 cc bf 9c 0b e4 3e 54 3a 1b bf 5d 14 5f bf
       -1.594334 0.44540107 -0.60635877 -0.87140447
0003e0 de f4 cd be a7 a5 87 be bf 89 89 be 6c 4f 69 3d
       -0.4022588 -0.2649357 -0.26862904 0.05696051
0003f0 7f 3a ff 3c 7c c9 11 bc 89 70 3b bf d2 df 4b 3e
       0.031155823 -0.008898135 -0.7321859 0.199096

conv2.bias f4 [16]
000000 db 93 d3 3d bd ce f9 be 11 eb 65 bd b7 80 83 3e
       0.103309356 -0.4879054 -0.05613238 0.2568414
000010 3b 2e 1e bd 2b 62 2e be 43 be 1e bf a7 44 0a bf
       -0.038618308 -0.17029636 -0.62009066 -0.54011005
000020 49 8e 4c be 66 6d e1 3c 81 58 69 be a3 87 91 be
       -0.19976152 0.027517986 -0.22787668 -0.28423795
000030 fc 62 b9 be 11 e2 a9 be 76 40 54 3e 6e 57 11 be
       -0.36208332 -0.33180287 0.20727715 -0.14193508

fc1.weight f4 [120, 256]
000000 e4 6d ab be 2b 24 6d 3e d5 b2 a5 3e 14 88 c7 3e
       -0.33482277 0.23158328 0.32363 0.38971007
000010 6d 65 c8 bd 89 c1 37 bf 72 cb 7d 3e 81 2d 68 3f
       -0.097849704 -0.71779686 0.2478464 0.90694433
000020 48 50 c5 be 91 64 07 3f 0b 41 a2 be b9 08 b3 bf
       -0.38537812 0.5288783 -0.3169025 -1.3987037
000030 1e b3 f9 3e 72 27 3d 3f 57 11 e6 3d a8 e2 00 bf
       0.48769468 0.73888314 0.11233776 -0.5034585
000040 3c cc b4 bc 6c 8d 23 3d 74 47 cd 3c 51 4b 14 bf
       -0.022070043 0.039929792 0.025058486 -0.57927424
000050 5b 04 d5 be 56 09 a2 3e 89 90 52 3c 6c ff 21 3f
       -0.41604885 0.31647748 0.012851843 0.6328037
000060 9b 14 3e 3f af 1b 67 3e 2d 7c d0 3e 5e 1f 09 bf
       0.7425019 0.22569154 0.4071974 -0.5356349
000070 13 c6 6c 3f 79 d4 78 3f 55 ba b1 3e aa bc 86 bf
       0.9248974 0.9719921 0.34712473 -1.0526326
000080 6a df 63 be dc 67 ca 3e 51 02 c5 bb b6 4a 64 3f
       -0.22253194 0.39532363 -0.006012239 0.891765
000090 eb 32 1d be 2c ff aa bd 4a a0 01 bf 2c 6e 49 be
       -0.15351455 -0.083494514 -0.50635207 -0.19670933
0000a0 11 d4 31 3d ab 25 3f 3f 87 6c 91 3e cf b1 37 be
       0.043415133 0.7466685 0.28403112 -0.17938922
0000b0 47 68 99 be 7c a7 23 bf 25 fd 85 bf e8 6d 8e 3e
       -0.2996237 -0.63927436 -1.0467879 0.27818227
0000c0 ca 1d 99 be ad fe 7e bd 22 17 45 bc 7c 14 09 3d
       -0.2990554 -0.062254597 -0.012029441 0.0334668
0000d0 43 d2 77 3f cb 23 f6 3e 00 24 e1 3e 48 94 67 be
       0.9680521 0.48074183 0.43972778 -0.22615159
0000e0 29 bc e5 3e 09 90 24 bf 41 cd 92 3e 9f e6 e9 3e
       0.44870117 -0.6428228 0.2867222 0.45683762
0000f0 7f 50 23 bf 9f 1f d8 3e 0d a4 43 3f 49 b7 1f 3f
       -0.637947 0.42211625 0.76422197 0.62389046
000100 5f 36 b1 be c3 37 44 bd 85 f1 8a 3c 7a d1 c7 3e
       -0.34611794 -0.04790474 0.016960869 0.39027005
000110 ef 87 de 3e fe 04 bc 3d f5 c0 ef be 82 cb ff be
       0.43463084 0.0918064 -0.46826902 -0.49959952
000120 23 eb 92 bd 26 6a 72 be 20 ca e5 3d f1 03 d7 3e
       -0.07173755 -0.23673305 0.11220193 0.41995195
000130 e9 39 62 bf 53 1c 75 3e 71 d0 57 3f ee b2 62 3f
       -0.88369614 0.23936586 0.8430243 0.88554275
000140 63 08 88 be 3f d8 2d bf 2b 99 3e bf 77 44 a3 be
       -0.265689 -0.6790809 -0.74452466 -0.31888172
000150 98 f0 d4 3d d2 02 8f 3d bd 75 83 3f 24 ba 33 bf
       0.10397452 0.0698296 1.0270306 -0.70205903
000160 ff 8d 9a 3e a5 e2 86 3f 43 e2 72 be 41 eb a9 3e
       0.3018646 1.0537916 -0.23719124 0.33187297
000170 79 bb 93 3e 95 04 65 3f 20 55 1b 3f 1a 7c bd be
       0.28853968 0.89460117 0.60676765 -0.37008744
000180 0b 25 c8 be fa db 58 be 08 72 11 bf 2a 02 9e be
       -0.39090762 -0.21177664 -0.5681462 -0.30861026
000190 53 7e 00 3e a4 62 c6 3e da 61 de 3e 23 de 04 be
       0.12548189 0.38747132 0.4343403 -0.12975363
0001a0 30 31 20 bf a7 21 08 3f d8 cd dc bd f7 d9 06 3e
       -0.62575054 0.5317635 -0.10781449 0.13169084
0001b0 24 56 40 bf 10 95 07 bf 73 5e 98 3d da 84 c6 bc
       -0.7513144 -0.52961826 0.0743989 -0.02423327
0001c0 38 af 29 3f 7b e8 dd bc 6c 69 85 be 02 4e 3f bf
       0.6628299 -0.027088394 -0.26056993 -0.74728405
0001d0 bb 3a c2 3e 4a 07 60 3e d4 19 a5 bd 98 54 48 bc
       0.37935433 0.2187778 -0.08061567 -0.0122272
0001e0 c7 31 2d 3f 83 6a 3e 3f b5 da 68 3f d6 66 aa bc
       0.6765408 0.74381274 0.9095872 -0.02080099
0001f0 18 a6 f2 3e 70 5d 5d 3e bf 23 ea bd 53 3e 3e 3f
       0.47392344 0.21617675 -0.11432599 0.7431385
000200 e1 f0 e5 3e f7 6b 69 be b3 63 0d 3f c5 cf 9d 3e
       0.4491034 -0.22795092 0.55230254 0.30822578
000210 85 4a fb bd 1f 3b 35 3f 32 62 e8 3d d3 cb 33 3e
       -0.12270073 0.70793337 0.11346854 0.17558222
000220 e3 a0 42 bf d2 f7 35 3d b0 a8 a2 be 72 a8 f5 bd
       -0.76026744 0.044425793 -0.31769323 -0.11995019
000230 9f 40 13 bf 3a eb dc 3d be bb f1 3e c8 d8 8a 3e
       -0.5752048 0.107870534 0.47213548 0.27118516
000240 52 60 81 be d7 59 f1 bd 8a 48 da be 21 3f b8 3e
       -0.252688 -0.11784714 -0.42633468 0.35985664
000250 7e 55 09 bd 52 d4 32 be c4 d8 74 3c 65 e5 4c bd
       -0.033528797 -0.17463806 0.014944259 -0.050023455
000260 fc e1 02 3f ae f0 f0 be 72 80 39 bf 7d 03 e0 3e
       0.51126075 -0.47058624 -0.72461617 0.4375266
000270 3a 25 57 3f 04 38 9d be d0 70 c3 bf 97 fe a3 bd
       0.8404118 -0.307068 -1.5268803 -0.080075435
000280 fd 97 87 bd a1 1a 9c be a5 c0 30 bd c4 af be be
       -0.06620786 -0.30489066 -0.04315247 -0.37243474
000290 e5 7b 98 bf 76 37 09 bf 28 80 0c 3e ca 7d 47 3f
       -1.191281 -0.5360025 0.13720763 0.77926314
0002a0 f9 45 b0 be 16 40 fa be 99 00 0a 3f d9 f4 6d 3e
       -0.34428385 -0.4887702 0.5390716 0.23237933
0002b0 25 e8 0d 3f de 23 6e 3e 73 b1 26 bf 17 39 61 be
       0.5543235 0.2325587 -0.65114516 -0.21994434
0002c0 50 ac f4 bd cf 69 48 3f 05 91 29 3f 35 a6 71 be
       -0.119469285 0.7828645 0.6623691 -0.23598559
0002d0 c1 6e 68 bf 07 b9 05 bf 52 46 0d be 6a fc 11 be
       -0.90794 -0.52235454 -0.13796356 -0.14256445
0002e0 3a 65 0c bf c8 60 2d 3e 2a 7c a9 3e ad ef 68 bf
       -0.5484196 0.1693145 0.33102542 -0.90990716
0002f0 e3 4d ff 3e 59 b9 37 be 85 9c 6d bf e9 19 11 bf
       0.4986411 -0.17941798 -0.92816955 -0.5668016
000300 79 79 31 be 49 ae 51 3e fa 63 c1 be 52 a5 9f be
       -0.17331494 0.20476641 -0.3777159 -0.31180817
000310 5c 82 9d 3d 08 15 86 be 7f f4 9d be 59 7a 4d 3d
       0.0769088 -0.2618792 -0.30850598 0.050165508
000320 e1 2f 2b 3e b9 76 39 3e c6 06 7e be 28 a9 f3 be
       0.16717483 0.18111695 -0.24807271 -0.47589993
000330 25 04 f4 3e fb 4d 56 3e 33 ed 8c be c8 8c 6b bf
       0.47659412 0.20928185 -0.2752472 -0.9201169
000340 5c 26 ac be 23 0e 26 bc 88 f9 1c 3d c5 9e 07 bf
       -0.33623016 -0.010135206 0.03832391 -0.5297664
000350 17 d2 29 3d 50 e5 2c be ca e0 d0 bd 41 e9 ae be
       0.041460123 -0.16884351 -0.10199125 -0.34162334
000360 f7 16 a0 bf 5f 74 7b 3e 1e d9 d7 3e 9a db 2f bf
       -1.2507008 0.24556111 0.42157835 -0.6869446
000370 1c b3 62 bd 35 82 9e 3e b0 ff a1 3e b4 e8 34 bf
       -0.055346593 0.30958715 0.31640387 -0.70667577
000380 61 fd d5 be e6 e6 d7 3d 55 31 86 bd 45 2c 35 3d
       -0.41794875 0.10542087 -0.06552378 0.04423167
000390 9f ea b6 3e 55 3a c3 bd 41 28 d8 3d fa 42 27 bd
       0.35725877 -0.0953261 0.10554553 -0.04083536
0003a0 6b 3f 39 3e 59 df 3c be 80 78 65 3f b0 c6 d4 bd
       0.18090598 -0.18444575 0.89636993 -0.10389459
0003b0 c6 53 dd bc b9 2a 0a 3f 1d 73 86 3e 9f 06 94 be
       -0.027017485 0.5397144 0.262597 -0.28911301
0003c0 5b 0d cb bd 98 62 97 be 7e 3f 1f bf 9c d6 2e be
       -0.09914657 -0.2956741 -0.62206256 -0.17074054
0003d0 de 1f 04 bf ac 28 13 3f 71 79 87 3f 1a 29 eb 3e
       -0.51611125 0.57483935 1.0583936 0.45929796
0003e0 34 43 70 3d 11 c0 d8 3d 62 8d 32 3f ac 34 3d bf
       0.05865784 0.10583509 0.69746983 -0.73908496
0003f0 cc 71 af 3e b8 bd 13 3f 2a 83 e8 be 18 a9 6c 3f
       0.34266508 0.5771136 -0.4541257 0.92445517

fc1.bias f4 [120]
000000 a2 60 a9 be 44 f6 bd bf f3 9c 1b 3e 69 96 a5 be
       -0.33081537 -1.4840779 0.1519659 -0.32341316
000010 41 04 ec be e3 ea 10 be bb 96 b3 be db be 01 be
       -0.46096995 -0.14152102 -0.35075936 -0.12670462
000020 d7 fb a9 bf d8 b0 6d bf ba 9d 95 be 81 ef d6 bc
       -1.327998 -0.9284797 -0.29221898 -0.026237251
000030 85 2a 0f bd 9a cd 8e bf 89 70 15 bf ed 9f e5 be
       -0.03495266 -1.1156495 -0.5837484 -0.44848576
000040 b1 68 b9 bf 08 01 2f be 07 18 17 3e cf 7b ae bd
       -1.4485074 -0.17090237 0.1475526 -0.08519708
000050 9b 3d ee 3e f5 75 99 3c 4f 5f 94 bd 7d aa b8 bd
       0.46531376 0.018733004 -0.07244741 -0.09016893
000060 9d 4d 89 3e 35 77 e0 be 80 a2 11 bf 5d e1 18 bf
       0.26817027 -0.43840948 -0.5688858 -0.5971888
000070 63 81 4d bf c9 98 f7 3d 44 70 00 bc 3a 62 66 bc
       -0.80275553 0.12089688 -0.007839266 -0.014061505
000080 66 ab 8d bc 5e a6 87 be dd 02 7c bf 61 74 4a bd
       -0.017293643 -0.26494116 -0.9844187 -0.049427394
000090 02 44 62 be e0 82 11 bd ed 28 21 3e 99 7e d9 3b
       -0.22096255 -0.035525203 0.15738268 0.006637406
0000a0 ef dc ef 3c 05 6e 89 3c 68 5b c9 3d 51 ad 25 3e
       0.029280154 0.016776094 0.098318875 0.16179396
0000b0 60 e1 a4 bd d7 29 48 be a4 c3 c4 bd b3 fc f5 bd
       -0.08050799 -0.1954721 -0.09607628 -0.12011089
0000c0 41 85 0b bf 62 34 2e bf 6b 97 60 bf b6 0d 20 bf
       -0.54500204 -0.6804868 -0.87731045 -0.6252092
0000d0 6d 50 90 be fa fc 86 bc 1b 4d 23 3e 50 a7 4b bd
       -0.2818636 -0.01647805 0.15947382 -0.04972011
0000e0 95 da b2 be 36 61 ae bd b9 b6 fa be a1 75 33 be
       -0.3493239 -0.08514635 -0.4896753 -0.1752534
0000f0 a0 44 d1 3c a6 1c 4a bf 14 ec 03 be 4a 6d d5 be
       0.025545418 -0.78949964 -0.12883025 -0.41684943
000100 de 76 2d bf 2d fb ca bd f2 f6 b2 bd fa 32 dc be
       -0.677595 -0.09911189 -0.08738507 -0.43007642
000110 b6 c1 08 bf 6b 70 6f 3d 8c 08 b4 bc ca e9 1d bf
       -0.5342058 0.05845682 -0.021976732 -0.6168486
000120 8f 2f c0 be 52 31 d4 be 9d 4e 0a bd 95 e1 11 bf
       -0.37536284 -0.41443878 -0.033766378 -0.56984836
000130 47 0b 0b bf ad 29 9b be bb 41 bc bf d5 b9 76 bd
       -0.5431408 -0.30305234 -1.4707559 -0.060235817
000140 ff 96 51 bd 1d 9b 51 bf d2 75 d5 bd dd c5 1c bf
       -0.05116939 -0.8187731 -0.10422863 -0.61239415
000150 49 8f c8 bd f6 c1 04 bf 9c 54 96 be 7e b2 4f be
       -0.097929545 -0.5185846 -0.29361427 -0.20282933
000160 95 f0 6b 3e d9 de 02 bd 86 23 86 bf a2 df 9d bd
       0.23040994 -0.031950805 -1.0479591 -0.0770867
000170 59 19 64 be e8 ea 58 bd a9 80 26 be 4b 38 bb be
       -0.22275294 -0.0529584 -0.16260017 -0.36566386
000180 f8 fa cb bd 70 e1 90 be e5 2a aa be 15 86 a2 3c
       -0.09959978 -0.28296995 -0.3323585 0.019839326
000190 b0 3b 73 bd 17 09 5b bd 91 d3 77 be 25 8b 75 be
       -0.059383094 -0.053475466 -0.242018 -0.2397886
0001a0 15 27 ba be df 6c 95 bd 12 55 a8 bd 1d e4 0e bf
       -0.36357942 -0.07296156 -0.08219351 -0.55816823
0001b0 94 3e 97 bd 21 93 9d 3c c2 14 60 bd f7 fa c7 bd
       -0.07384983 0.019235196 -0.054707296 -0.097646646
0001c0 3c c0 b2 3e a4 11 4d bf 32 92 1b bd e0 55 93 bf
       0.34912288 -0.8010504 -0.03798122 -1.1510582
0001d0 5c e4 09 bc 7c d7 29 bf 1c 0e 25 be 8d d6 1f bf
       -0.0084162615 -0.6634443 -0.16118664 -0.62436754

fc2.weight f4 [84, 120]
000000 66 96 53 3d 14 fd 23 3f 2c e5 c7 be 99 fc 81 be
       0.051657103 0.6405804 -0.39042032 -0.2538803
000010 63 2d a3 3e 1a 32 59 be e2 c1 d8 3e bd bf 1b bf
       0.31870565 -0.21210518 0.4233542 -0.60839444
000020 41 1f 16 3f 8f cb 86 3f f3 1f ce 3e 54 90 29 bd
       0.5864144 1.0530871 0.4025875 -0.041397408
000030 68 d8 ba 3d b9 fe ed 3e 3b 1f c6 3d 49 8e f0 3d
       0.091233075 0.464834 0.096739255 0.11745889
000040 1f 00 2d bd 2f ee 83 3e 48 80 87 be 0f da 08 3d
       -0.042236444 0.25767657 -0.26465058 0.033411082
000050 96 6f ee be 79 ca 63 be 32 56 a5 3e dd e4 b4 3c
       -0.46569508 -0.22245206 0.32292324 0.022081787
000060 b3 71 16 3e 3a 42 be 3e 79 70 31 3f 66 64 82 bf
       0.1469181 0.37159902 0.69312245 -1.0186889
000070 8f c9 08 3f 3a d0 70 3d ff e3 04 bd 7d 3b ea be
       0.53432554 0.05879233 -0.032443997 -0.4574851
000080 6a c4 92 3e 5f 92 71 be 50 27 94 3d 80 69 37 bd
       0.28665477 -0.23590992 0.07234061 -0.044778347
000090 dc f8 ba 3e be 4b 63 3c 53 5a ad 3c c1 ca f0 bd
       0.3651799 0.013873039 0.021161234 -0.11757422
0000a0 46 9f 5b 3d 91 e4 f4 3b bb bc 87 bf b3 11 8e bd
       0.05361869 0.0074735363 -1.0604471 -0.069369696
0000b0 ad 21 8d 3c 31 f7 1d bf e4 d7 4f bc a4 a9 ab 3c
       0.017227972 -0.6170531 -0.01268575 0.020954914
0000c0 0f ef 9b be 03 d0 58 bd 85 5d c9 3d 5b bc 95 3e
       -0.30455825 -0.05293275 0.098322906 0.29245266
0000d0 7e b5 6c bf 77 af 08 be 0e e8 60 bf cf bf 62 bd
       -0.92464435 -0.13348185 -0.8785409 -0.055358704
0000e0 9f f6 9a 3e af 0b 07 bd b4 8c ca bd e1 3f a9 be
       0.30266282 -0.032970127 -0.09890118 -0.33056548
0000f0 61 84 73 bd 75 8c 33 3e dd eb 7a 3e be d1 30 bf
       -0.05945242 0.17534049 0.24504037 -0.6907004
000100 79 ae 78 3e 01 79 99 bb f2 96 4e bd 90 5b 3c 3d
       0.24285306 -0.0046836142 -0.05043692 0.04598576
000110 fa 68 00 be 60 67 42 3e 64 ee 73 bf 0a f0 60 be
       -0.12540045 0.18984747 -0.9528563 -0.21966568
000120 8e a1 0b 3f 0e f5 1d bf 9a d9 aa be 4c 13 ce bd
       0.5454339 -0.6170205 -0.33369142 -0.10062274
000130 ff 91 51 3c 0e 22 89 bf 0a c2 86 3e 9b c0 82 bd
       0.012791156 -1.0713518 0.26319915 -0.06384393
000140 79 f1 d2 be a9 01 c1 be ff 1c fa bd 6f 8e ba 3e
       -0.41199854 -0.3769658 -0.12212562 0.36436793
000150 42 90 b3 3c 6d 4d 30 bf a0 2f 0c be dc 5b a9 3d
       0.021919373 -0.6886814 -0.13690042 0.08269474
000160 5a 17 c1 be f4 37 0e 3d 22 95 f8 3d 69 5f 35 bd
       -0.37713128 0.03472133 0.1213782 -0.044280443
000170 f8 08 96 3e 77 b8 d9 3d 64 c1 4d 3d cb 97 88 be
       0.29303718 0.10630887 0.05023326 -0.2667831
000180 b7 bc 77 3b 1a c3 07 3f 25 cf dc 3e 8b 6c 9b 3d
       0.0037801692 0.53032076 0.4312679 0.07589062
000190 81 40 00 bd 87 5c 22 bb 6e a7 27 bf 2a c3 9e bc
       -0.031311516 -0.002477439 -0.6548985 -0.01938017
0001a0 24 67 03 3f 74 7f 1b 3d 71 f3 b4 bd 8f a3 53 be
       0.51329255 0.037963346 -0.08835495 -0.20667861
0001b0 a4 1a 1c 3d 2b fc 8e bd 19 52 5d bd b9 63 89 3a
       0.038111344 -0.06981691 -0.054033373 0.001048199
0001c0 b1 cc d3 be d1 b5 a5 3b 9b e8 6a 3d f7 61 ef 3e
       -0.41367105 0.0050570746 0.057350736 0.4675443
0001d0 31 8a 23 3f ee 53 50 3f db 57 02 3f fd 2e 33 be
       0.6388274 0.81378067 0.50915307 -0.17498393
0001e0 4c b1 79 3e 76 0b e9 3e 9f 4f b3 be c1 b2 a6 3e
       0.2438404 0.45516557 -0.35021684 0.32558253
0001f0 d7 44 dc 3d 14 fa 1b be a3 6c 34 bd a2 c2 67 be
       0.10755318 -0.15232116 -0.044048917 -0.2263284
000200 4a 10 21 3e 98 7b d8 3e d8 a2 05 3e 1f f2 b0 bd
       0.1572887 0.42281795 0.13050401 -0.08639931
000210 6d 60 ba 3b 13 d1 a3 be 17 38 d6 bc e5 6a 87 3e
       0.0056877644 -0.31995448 -0.026149793 0.26448742
000220 49 61 6a bd 80 29 ed 3e 31 13 82 bc 33 e7 84 3c
       -0.057221685 0.46320724 -0.015878292 0.016223526
000230 ff 84 4d bf db 55 82 bf 0d 0e 1c bf e8 80 32 be
       -0.8028106 -1.0182451 -0.6095894 -0.17431986
000240 19 14 5b 3e 17 b2 7a 3e 18 1c 84 3e f1 02 3f be
       0.21394385 0.24481998 0.25802684 -0.18653466
000250 42 26 82 bd e4 f2 68 3d d2 a0 0e bd 9c 0f b9 3e
       -0.06354953 0.056872264 -0.03482134 0.36144722
000260 27 85 79 3e 6b 36 5a be 90 b8 10 3e 67 68 88 bd
       0.243672 -0.21309821 0.14132905 -0.06660538
000270 85 0f 92 3e 8e 00 b2 bd 82 98 04 bf 0e 8f ff 3e
       0.28527465 -0.08691512 -0.5179521 0.4991383
000280 20 4e ea bd e7 76 3e bf ce 12 3f be 88 7c 8a bc
       -0.114406824 -0.7440018 -0.18659517 -0.016905084
000290 b1 94 4b bc e3 0b 3f 3e cf 5f 3a 3d df b7 87 3d
       -0.0124255875 0.18656878 0.045501526 0.066268675
0002a0 78 6a 7c 3e 78 dc 09 bf 78 f4 01 3f 43 96 a8 bd
       0.2464999 -0.53852034 0.50763655 -0.08231785
0002b0 0a 98 3e 3e f8 b7 3d be 48 b2 7c be 33 0f 8d bc
       0.18612686 -0.1852721 -0.24677384 -0.017219162
0002c0 18 a8 e3 3d 46 f9 8c bd 7b de bd 3e 48 e8 1a be
       0.11116046 -0.06883483 0.37083802 -0.15127671
0002d0 8c 33 6e be f4 fa 27 3e 92 ae a3 3e 08 16 d8 bd
       -0.23261851 0.16404325 0.31969124 -0.10551077
0002e0 5e 40 ae be 04 1a 90 bd 3c 8a 75 3b ec b4 42 3d
       -0.34033483 -0.07036212 0.0037466427 0.04753582
0002f0 4f a8 33 bd fc b1 c7 be 85 51 c7 3d 02 c8 13 bf
       -0.043861683 -0.3900298 0.097323455 -0.5772706
000300 ef 28 d8 bd 1e c9 a8 3e a7 c2 61 3c 16 63 3f 3e
       -0.105546825 0.3296594 0.013779319 0.18690142
000310 38 9d ff 3e 86 b4 3b 3d ee a2 77 3e 0b 7a 0a bd
       0.49924636 0.045826457 0.24183246 -0.033807795
000320 bb 4a 20 3d cb 27 2d bd 84 a5 5a bf 77 13 82 3f
       0.03913377 -0.042274278 -0.85408807 1.016219
000330 ea dd 43 3d 5d 35 0d 3f 91 66 e2 3d a3 04 3d 3e
       0.047819056 0.5515955 0.11054719 0.184588
000340 79 39 31 bf 1b 93 e3 bd 70 ef 33 3e f1 33 81 3d
       -0.6922832 -0.111120425 0.17571807 0.06308735
000350 a9 83 46 bf 52 97 19 3d 13 62 ef be f3 cb 79 bf
       -0.7754465 0.037497826 -0.46754512 -0.97576827
000360 6d ea 9a 3c dd 70 81 3d 39 5b 89 3e 8c 56 54 bf
       0.018910611 0.06320355 0.2682741 -0.8294456
000370 1b 87 49 be 1a eb 96 3d c4 12 ad bf f1 7a 54 be
       -0.19680445 0.07369061 -1.3521352 -0.20750023
000380 c0 b7 1c be 48 54 7b bd ed 9f 3e bd 05 ff a2 3e
       -0.1530447 -0.061359674 -0.046539236 0.3183519
000390 4c fe b0 bd fc 10 8f bd d9 44 99 bd c9 7d 82 be
       -0.08642253 -0.069856614 -0.07483835 -0.2548659
0003a0 52 d2 f1 be be 75 99 be a8 07 5c 3e c9 37 20 3e
       -0.47230774 -0.29972643 0.21487296 0.1564628
0003b0 3d 2a 33 3e 55 9e cd be 39 4d b6 3c 6a 1c 3b bf
       0.17496581 -0.4015986 0.02225362 -0.7309023
0003c0 ee 0d dc bd 93 fb ec 3d aa 8a 59 be aa ea 85 3e
       -0.107448444 0.115714215 -0.21244302 0.26155597
0003d0 b1 60 63 3e 7e 0f 25 bc cc a7 88 3d e4 a9 bb 3b
       0.22204854 -0.010074494 0.0667263 0.0057270397
0003e0 12 5a 38 3f ab f1 eb 3c ad f9 3a be 70 7f e4 bd
       0.72012436 0.02880176 -0.18259306 -0.11157119
0003f0 68 ee ac bd a3 5c 22 3e e5 84 f7 3d 87 08 39 3d
       -0.0844391 0.1585565 0.120858945 0.045174148

fc2.bias f4 [84]
000000 ea 28 cf be c5 0d 1f bf b8 dc 2d be 05 09 71 bf
       -0.40460902 -0.62130386 -0.16978729 -0.9415439
000010 7a a2 df be ca 90 1f bf 75 fb 08 bf 90 81 c0 be
       -0.43678647 -0.62330306 -0.5350869 -0.37598848
000020 70 9f 68 bf 78 44 03 bf 15 a0 66 be dd 02 36 bf
       -0.9086828 -0.5127635 -0.22522004 -0.7109812
000030 1c 6d d6 be e1 c4 04 bf 95 a0 80 bc d0 68 35 be
       -0.4188012 -0.51862913 -0.015701571 -0.17715764
000040 8e e3 6c bf 9f da 87 be 8a 8a 86 bf c1 08 fc be
       -0.9253472 -0.26533982 -1.0511029 -0.4922543
000050 e3 03 17 bf 6e 39 22 bf d1 9f a5 bf 4c db 30 bf
       -0.58990306 -0.6336888 -1.2939397 -0.6908462
000060 d1 b9 6a bf 16 e8 a2 bf d3 cf 3a be 51 62 66 bf
       -0.91689783 -1.2727077 -0.18243341 -0.8999377
000070 a8 53 66 bf da 46 23 bf 0d 55 50 bf 19 7f 34 bf
       -0.899714 -0.63779986 -0.8137978 -0.70506436
000080 d3 b5 96 bd b1 46 bf be 29 70 7b bf de 13 b6 be
       -0.07358899 -0.3735862 -0.9821802 -0.35562032
000090 04 94 a1 be d6 02 ac bf 13 3c 40 bf a5 a7 2b bf
       -0.3155824 -1.3438365 -0.75091666 -0.6705268
0000a0 a6 a3 6d bf d2 a9 50 bf e5 7d 38 bf a5 20 28 bf
       -0.9282783 -0.81509125 -0.720671 -0.6567481
0000b0 79 dd 8c bf 61 c2 8d bf 6e a9 f2 be e7 fa 35 bf
       -1.1005088 -1.1074945 -0.4739489 -0.7108597
0000c0 21 ff 81 bf 0d 76 8a bf f8 9b 17 bf 06 07 8d bf
       -1.0155984 -1.0817276 -0.59222364 -1.1017768
0000d0 fa 61 d2 be ba ff bc be 01 b5 69 bf c7 2d 97 be
       -0.41090375 -0.36913854 -0.91291815 -0.29527113
0000e0 a1 e0 e7 be 48 96 79 bf e2 60 83 bf d5 99 1e bf
       -0.45288566 -0.97494936 -1.0263941 -0.6195348
0000f0 98 91 4a bf 4b 18 f2 bd cd dd 80 bf 22 bf c4 be
       -0.7912841 -0.1182104 -1.0067688 -0.38427073
000100 eb 86 84 bf 4f 2d 42 bf 9f 49 d4 be 98 cf 97 3d
       -1.0353674 -0.75850385 -0.41462418 0.07412642
000110 8c 3e 18 bf e5 47 8e bf f6 d6 45 bf 46 5d 7d bf
       -0.5947044 -1.111569 -0.7728113 -0.9897045
000120 9f 55 3f bf 95 86 ec bc 4a da 3c bf c8 8e 76 bf
       -0.7474002 -0.028872767 -0.7377058 -0.96311617
000130 4e 57 23 bf 2d 4b 0c bf 4c 22 0b bf 88 2b 4b bf
       -0.6380509 -0.5480221 -0.5434921 -0.793633
000140 74 12 57 bf db d5 0b bf 41 12 d1 be 32 bd ae bd
       -0.8401253 -0.5462319 -0.4083424 -0.0853218

fc3.weight f4 [10, 84]
000000 d4 db 0b c0 c3 54 b4 bf 9f 70 ed bf 31 5e 11 bf
       -2.1852922 -1.4088367 -1.8549994 -0.5678435
000010 4f fa aa bf 50 96 fe be c5 88 90 bf 55 96 4e bf
       -1.3357638 -0.49724054 -1.1291739 -0.8069814
000020 fe 75 6c be 00 94 1c bf 67 bb 2c be c5 ae da bf
       -0.23091885 -0.6116333 -0.16868363 -1.7084585
000030 bb 81 8b 3c 24 a9 88 bf 40 a5 b5 bf 29 38 98 bf
       0.017029634 -1.0676618 -1.4191055 -1.1892139
000040 34 a1 ff be e6 88 09 3e 77 e8 f1 be f6 44 72 bf
       -0.49927676 0.13431129 -0.4724767 -0.94636476
000050 02 86 7e bf b0 9c 14 3d 9b 5c bb be 7d 85 2d be
       -0.9942323 0.03628224 -0.3659409 -0.16945453
000060 3f 9b 63 be 32 de 81 bf c6 07 a4 be 9c c6 6d bf
       -0.2222719 -1.0145934 -0.3203718 -0.9288118
000070 c9 97 ce be d1 00 a4 be 81 e1 bb bf 91 12 1f be
       -0.40350178 -0.32031873 -1.4678193 -0.15534426
000080 4c ff d9 bd 92 95 34 bf b4 d1 d2 be e6 e6 bd be
       -0.10644397 -0.70540726 -0.41175616 -0.37090224
000090 8d e3 4c bf 5c 66 4d be 3c c6 90 be 00 9f 79 bf
       -0.80034715 -0.20058578 -0.2827624 -0.9750824
0000a0 01 01 8b be c6 7a 81 bf 9e 0a ba be c9 cc 6c bd
       -0.27149203 -1.0115592 -0.36336225 -0.057812486
0000b0 e5 09 5c bf 7b 21 53 bb d8 7c 54 be c6 71 97 bf
       -0.859526 -0.0032216 -0.20750749 -1.1831596
0000c0 57 61 57 bf a9 47 1b be 30 eb 66 bf 06 53 15 3e
       -0.84132904 -0.15164055 -0.9020262 0.14582452
0000d0 3c 00 02 3e 2b 03 d7 bf 08 ce 84 bf 22 df af bf
       0.12695402 -1.6797842 -1.0375376 -1.373997
0000e0 1f 39 20 bf 45 c8 ee bd 81 73 d1 be a5 37 10 bf
       -0.6258716 -0.11659292 -0.40908435 -0.56334907
0000f0 75 1f 0b bf 66 cc 24 c0 61 8c 62 be 77 01 95 bf
       -0.54344875 -2.5749755 -0.22123863 -1.1641072
000100 db fc 4c be 57 f2 3d bf 1d 08 c7 bd b2 4a 5c bf
       -0.20018332 -0.74197906 -0.09718344 -0.86051476
000110 c8 ee 16 bf 8f 3f 79 bf 16 62 0f bf 80 0c 99 3c
       -0.589581 -0.9736261 -0.5600904 0.018682718
000120 de d7 f8 be e6 57 82 bf 4f ff 28 bf 0d f0 07 bf
       -0.48602194 -1.0183074 -0.6601457 -0.53100663
000130 38 f3 95 bf 20 4c 7e bf 52 69 2e 3e 59 68 33 3e
       -1.171485 -0.9933491 0.17032364 0.17520274
000140 ba a8 62 bf b3 7c 69 bf e8 91 e5 be b2 85 85 bf
       -0.88538706 -0.912059 -0.4483788 -1.0431426
000150 e6 f7 20 be 0f c0 1e bf 9f 99 8f bf 8a c9 7e 3d
       -0.15719566 -0.6201181 -1.1218756 0.06220392
000160 f3 59 b6 bf 8e 95 a9 bf 38 4d d4 bf 9d 52 7a be
       -1.42462 -1.3248765 -1.6586065 -0.24445577
000170 91 87 b5 bf 47 1e 75 be 53 93 98 bf 8e 1c 9b be
       -1.4181997 -0.23937331 -1.191996 -0.30295223
000180 2c 51 1d bf 40 6d 99 be 3b e2 39 bf bb 50 b5 bf
       -0.61451983 -0.29966164 -0.72610825 -1.4165262
000190 c8 0d 49 bf a2 e9 f0 bf a9 8a d4 bf 56 d1 f0 bf
       -0.78536654 -1.8821299 -1.6604816 -1.8813884
0001a0 c6 15 70 bf a7 a9 be bf 00 93 ed bd 55 00 1c c0
       -0.93783224 -1.4895524 -0.11600304 -2.4375203
0001b0 fc 4d 04 bf 7d 44 12 be ad 2a b3 bf 68 c7 2a bf
       -0.51681495 -0.14283939 -1.3997399 -0.6671052
0001c0 07 64 ae bf ea a6 6c bf d1 9e cb be 03 ed 08 be
       -1.3624276 -0.9244219 -0.39769605 -0.13371663
0001d0 40 5d 3d 3c 0d 6b 09 bf 90 e1 7a be 79 10 8d be
       0.011557877 -0.5367897 -0.24500108 -0.2755163
0001e0 70 e7 64 bf 36 c8 87 be a0 82 32 bf 79 07 d4 be
       -0.89415646 -0.26519936 -0.6973057 -0.4141195
0001f0 7f 03 56 bd a9 71 ad bf 66 b7 90 3d ee 81 ad bf
       -0.052249428 -1.3550311 0.070662305 -1.3555276
000200 07 8e 85 bf 60 ae dd be 7c 8e 6e bf 0f 4c f5 3d
       -1.0433968 -0.432971 -0.93186164 0.11977398
000210 cf 46 96 be ca 6c a4 be 75 60 68 bf b1 ac b8 bf
       -0.29350898 -0.3211425 -0.9077218 -1.4427701
000220 41 9a 30 c0 7c 5b 47 be 78 f3 18 bf f8 d5 81 bf
       -2.759415 -0.19468492 -0.59746504 -1.0143423
000230 d7 7d 4e bf 36 6b 57 bf 54 ec b5 bf 2c a0 e3 bf
       -0.80660766 -0.84147966 -1.4212747 -1.7783256
000240 b5 43 4d bf bf b5 90 bf 84 8d ac bf ec 72 63 3d
       -0.8018144 -1.1305465 -1.3480687 0.05552952
000250 c7 86 95 bf f8 d2 b9 bf e1 89 30 3e 30 e1 ab bf
       -1.1681756 -1.4517508 0.17240097 -1.3428097
000260 71 3a 85 bf f1 3b 5c be 13 1e 7c bf 65 3d ff be
       -1.040846 -0.21507241 -0.9848339 -0.49851528
000270 a9 cf 4a bf 65 5e 99 3d 44 56 19 be 0e 17 1b be
       -0.79223114 0.074887075 -0.14974314 -0.15145513
000280 6e 85 4e 3d 4b 33 b8 bd a8 66 97 3d 1e ca 5f bc
       0.050420217 -0.08994158 0.07392627 -0.013659028
000290 b2 bc 7c be 1b 25 ab bd 2f 96 82 3c b3 ec bb bf
       -0.24681357 -0.08356687 0.015940754 -1.468161
0002a0 d3 40 a3 bd 20 92 28 bf 40 59 e8 be a6 da d5 be
       -0.079713486 -0.6584797 -0.45380592 -0.41768378
0002b0 7e 41 8b bf e4 5d 22 bf d7 ae da be 75 d5 4d be
       -1.0879362 -0.63424516 -0.42711517 -0.20100959
0002c0 44 a1 28 bf 94 6f 33 3d 66 d5 91 be 3d 98 ec bf
       -0.6587107 0.04380758 -0.28483123 -1.848396
0002d0 0e 18 18 be f9 ff 99 be 6d e7 d6 bd 77 ff 35 be
       -0.14852926 -0.30078104 -0.1049336 -0.17773233
0002e0 02 71 1c 3e 0c 95 2a bf 72 90 4a 3d cb 81 90 bf
       0.15277484 -0.6663368 0.04945416 -1.128961
0002f0 78 12 c4 be cd e7 89 bd 2e b7 9b bf 9a 3d a5 be
       -0.3829534 -0.067336656 -1.2165277 -0.3227356
000300 71 69 2e bf 65 9e c0 bd 08 1b 91 bc 00 94 07 bf
       -0.6812964 -0.09405211 -0.017713085 -0.52960205
000310 be 29 4f bf 74 3f 0f 3d 15 73 88 bf 64 4b 53 bf
       -0.8092307 0.034972623 -1.066012 -0.8253691
000320 33 e3 03 be d4 18 47 bf cf 1f 8c bf fc f7 55 bf
       -0.12879638 -0.7777226 -1.0947207 -0.8358152
000330 2c 15 6a be 06 e4 e1 be 07 a7 1a bf e2 17 b9 be
       -0.22859639 -0.4411928 -0.60411114 -0.36151034
000340 f7 70 ed be 40 76 60 be 20 06 ce bd a7 14 86 bf
       -0.46375248 -0.21920109 -0.10059762 -1.0475053
000350 57 5c 97 be c3 14 e1 be eb a0 65 bf a0 6d d1 be
       -0.29562637 -0.43961152 -0.89698666 -0.4090395
000360 b0 53 ae bf 8e ea 61 bf 29 40 dd bf 76 8b 45 bf
       -1.3619289 -0.8824853 -1.7285205 -0.77165926
000370 7a fd 8c bf b5 d7 06 bf da b5 ee bd a6 fb cc bf
       -1.1014855 -0.5267289 -0.11655779 -1.6014297
000380 bc 95 de 3c 2d e8 79 bf f6 19 01 be b4 67 f4 bf
       0.027171008 -0.976199 -0.1260756 -1.9094148
000390 8f 96 10 bd 0d 6d 8f bf cb 5b 31 bf bc ad 95 bf
       -0.035299834 -1.1205155 -0.6928069 -1.1693645
0003a0 92 8e d0 be 50 a4 a5 bf 0e a5 a4 bf c9 40 b1 be
       -0.40733773 -1.2940769 -1.2862871 -0.3461974
0003b0 7e 31 70 bf 33 95 a4 be a7 dc 32 be 91 f7 34 3c
       -0.9382552 -0.3214508 -0.17466985 0.011045353
0003c0 9b 2b 6d bf c2 8a b2 bf 4f 78 25 bf 71 8d 0e be
       -0.9264466 -1.3948596 -0.646367 -0.13921143
0003d0 75 d7 98 be 38 58 0c be ff 5a e6 bd 3b 36 f0 3d
       -0.2985188 -0.13705528 -0.11247825 0.11729094
0003e0 a4 83 85 bf 0e 70 ab be 0b cf e3 bd 9b 01 8b bf
       -1.0430799 -0.33483928 -0.11123475 -1.0859865
0003f0 3d 21 4e 3e b4 fb f6 bd 31 66 9e be 07 b5 21 3e
       0.20129867 -0.12059727 -0.3093734 0.15791713

fc3.bias f4 [10]
000000 3c 91 d3 be b4 20 51 be b9 84 82 be 02 3c c3 bd
       -0.41321743 -0.20422632 -0.25491884 -0.0953293
000010 e9 49 2d be 5d 2e da be f9 b3 d4 be 55 6a 54 be
       -0.16922726 -0.42613497 -0.41543558 -0.20743687
000020 c2 14 03 3f 39 3f ab bb
       0.5120355 -0.0052260426
