mnist/saved_models/model_epoch_37.pth (torch, 181338 bytes, 10 tensors)

conv1.weight f4 [6, 1, 5, 5]
0	0xbe9f92af	-0.31166598
1	0x3e0fbec6	0.14037618
2	0x3c99f393	0.018792903
3	0x3ead02b5	0.33791128
4	0x3d75106e	0.05983012
5	0x3e6984e3	0.22804599
6	0x3f0bb95d	0.54579717
7	0x3e7cbf2b	0.246823
8	0x3da811fa	0.08206554
9	0x3e829b92	0.25509316
10	0x3e37b8ec	0.17941636
11	0xbb9c2c50	-0.0047660246
12	0xbe421a91	-0.18955447
13	0xbdac6508	-0.08417708
14	0xbb360612	-0.0027774614
15	0xbd7cb0ee	-0.06169217
16	0xbedff270	-0.43739653
17	0xbe6e9a72	-0.23301104
18	0xbe740482	-0.23829845
19	0xbe62c539	-0.22145547
20	0xbdd78b50	-0.105246186
21	0xbdc00c01	-0.093772896
22	0x3c850726	0.01623876
23	0x3e793f0c	0.24340457
24	0xbe34c929	-0.17654862
25	0xbea5fe72	-0.3242069
26	0xbd73370f	-0.05937868
27	0x3ec72a49	0.3889945
28	0xbe9f36cb	-0.3109649
29	0xbe3fafa6	-0.18719348
30	0xbed340bd	-0.4126033
31	0x3d3e5305	0.046465892
32	0x3f25cd5e	0.6476649
33	0x3d88ebfa	0.06685634
34	0x3d0b3e5c	0.033995017
35	0xbe96272d	-0.29326764
36	0xbf0d78d0	-0.5526247
37	0x3e8db615	0.2767798
38	0x3e9ff91b	0.3124474
39	0x3d635343	0.055499326
40	0xbc662a0c	-0.014048111
41	0xbf30e7d3	-0.69103736
42	0xbe291c1c	-0.16514629
43	0xbeaa45bf	-0.33256337
44	0xbd8364fd	-0.06415746
45	0x3ecb5792	0.39715248
46	0x3d877d2c	0.066156715
47	0x3e93e859	0.28888205
48	0xbcb0041b	-0.021486333
49	0x3de9f570	0.114237666
50	0xbd0b937a	-0.03407619
51	0xbe03bddd	-0.12865396
52	0xbe3622d8	-0.1778673
53	0x3ca19151	0.019722613
54	0xbe95b360	-0.29238415
55	0xbd713018	-0.058883756
56	0x3d23a1a0	0.03994906
57	0x3e853f5b	0.260249
58	0x3ecf92d8	0.4054172
59	0xbe246496	-0.16053995
60	0x3e960308	0.29299188
61	0x3e80dfcb	0.2517074
62	0x3f0b5246	0.54422414
63	0x3f1e4781	0.61827856
64	0xbe08ebc0	-0.13371181
65	0xba0a0de7	-0.0005266354
66	0xbf0489bd	-0.5177267
67	0xbe625672	-0.22103289
68	0x3e94060b	0.2891086
69	0x3deed32f	0.11661374
70	0x3e009153	0.12555437
71	0xbe871f30	-0.26390982
72	0xbedbe6f9	-0.42949656
73	0xbd28072b	-0.04102246
74	0x3e925294	0.28578627
75	0xbc7bced5	-0.015369137
76	0x3e1aa362	0.15101388
77	0xbc93db9d	-0.018049056
78	0xbb9a573e	-0.004710107
79	0x3d88d0a0	0.06680417
80	0x3dfc589c	0.123215884
81	0x3d0f463b	0.034979086
82	0xbdacda79	-0.08440108
83	0x3d2d4834	0.042305186
84	0x3e9d57d0	0.30731058
85	0x3d132240	0.035921335
86	0xbe25d1a3	-0.16193251
87	0xbed5e367	-0.41775057
88	0xbe1890af	-0.14898942
89	0x3ea11375	0.31460157
90	0xbe2016b1	-0.15633656
91	0xbde2aa5c	-0.1106765
92	0xbe44daf8	-0.19224155
93	0x3ee844b1	0.45364907
94	0x3ebf509e	0.37366194
95	0xbe8511c7	-0.25990126
96	0x3cfbe657	0.030749483
97	0x3de6c1c7	0.11267429
98	0xbc5dc089	-0.0135346735
99	0x3df69d7e	0.12041758
100	0x3d562630	0.052282512
101	0x3d742bf5	0.059612233
102	0x3e9c043c	0.3047198
103	0xbd93683f	-0.07197618
104	0x3ec3294e	0.3811745
105	0xbd1a02f8	-0.037600487
106	0xbe1f322b	-0.15546481
107	0xbd75a64c	-0.059973046
108	0x3dd16685	0.10224632
109	0x3ea8148e	0.32828182
110	0xbe1eccd9	-0.1550783
111	0xbe97b0e9	-0.2962716
112	0xbed1866e	-0.40922874
113	0xbf1e0b7d	-0.6173628
114	0xbdb337b7	-0.08750861
115	0x3ee010f4	0.43762934
116	0xbe2d1a02	-0.16904452
117	0xbf5327bc	-0.82482505
118	0xbe8e8f97	-0.27843925
119	0x3e4ea621	0.2018056
120	0x3df49139	0.119417615
121	0x3f0b36db	0.5438058
122	0x3f145383	0.5793993
123	0x3ec15d95	0.3776671
124	0xbd04cdbb	-0.032422762
125	0x3e3371fc	0.1752395
126	0x3e06ad65	0.13152082
127	0xbd2a8491	-0.04163033
128	0xbd0cfb74	-0.034419492
129	0x3dc800bd	0.09765766
130	0xbe8c981b	-0.27459797
131	0x3e8abf3d	0.27099028
132	0x3e4b1efe	0.19836041
133	0xbde480ca	-0.11157377
134	0xbdc9b3ce	-0.09848748
135	0xbe1d28bb	-0.15347569
136	0x3f43fd63	0.7655851
137	0xbdf53246	-0.119724795
138	0xbebaff85	-0.3652307
139	0x3d89f781	0.06736661
140	0x3eb59ebc	0.35472667
141	0x3eeec783	0.4663659
142	0xbf1d380c	-0.61413646
143	0xbbf9311e	-0.007604732
144	0x3b0b88d4	0.0021291273
145	0x3ea6fb32	0.32613522
146	0xbe7fb106	-0.24969873
147	0xbdf19eed	-0.11797891
148	0x3ccef943	0.025265342
149	0xbcadab67	-0.021199895

conv1.bias f4 [6]
0	0xbeaecd82	-0.34141165
1	0xbfa7d2a1	-1.3111154
2	0xbef5f8a5	-0.48041263
3	0xbf45b04d	-0.7722214
4	0xbf3d6f9a	-0.73998415
5	0xbf47bac6	-0.7801937

conv2.weight f4 [16, 6, 5, 5]
0	0x3e24a978	0.16080272
1	0x3cbbf6d6	0.022944849
2	0x3e278c76	0.16362175
3	0x3e182489	0.14857687
4	0x3d00c4f0	0.031437814
5	0x3dff679e	0.12470935
6	0x3d9fd643	0.07804539
7	0x3f03b1ee	0.51443374
8	0x3e5db1a5	0.21649797
9	0x3e803460	0.2503996
10	0x3df71cc2	0.12066032
11	0x3e862dc6	0.26206797
12	0x3e3df918	0.18552053
13	0xbd0af0fb	-0.033921223
14	0x3eb112d7	0.34584686
15	0xbf439e33	-0.7641327
16	0xbf2700bd	-0.652355
17	0xbef30379	-0.47463587
18	0xbe8a1a8c	-0.2697338
19	0xbd61f6f2	-0.055167146
20	0xbf97f3c4	-1.1871266
21	0xbf8388d5	-1.0276133
22	0xbfae75dd	-1.3629719
23	0xc004c5e1	-2.0745776
24	0xc025f2ca	-2.5929437
25	0x3e78f3c5	0.2431174
26	0xbe9e6dd2	-0.3094316
27	0xbf725112	-0.94654953
28	0x3e3c64c6	0.18397817
29	0xbe8d6d37	-0.27622387
30	0xbe481077	-0.19537531
31	0xbee40e24	-0.44542038
32	0xbe8eecd9	-0.27915075
33	0x3e146aa8	0.14493811
34	0x3b889d5a	0.0041691484
35	0x3e180137	0.14844213
36	0x3e87edc0	0.26548576
37	0xbdde77a5	-0.10862664
38	0xbe2490f3	-0.16070919
39	0xbd8b75dc	-0.06809589
40	0x3e7b6bae	0.24552795
41	0x3dcc8a57	0.09987324
42	0xbed379fc	-0.41304004
43	0xbd457c65	-0.048214335
44	0xbe9fe136	-0.3122651
45	0xbdfcb974	-0.1234006
46	0x3da6cfb9	0.08145089
47	0xbeed279f	-0.4631929
48	0x3e911b57	0.2834117
49	0xbf27c517	-0.6553511
50	0x3e9778cc	0.29584348
51	0x3ef5b66b	0.47990736
52	0x3ddff1b0	0.1093477
53	0xbe1121bf	-0.1417303
54	0x3e35c330	0.1775024
55	0xbecf9f64	-0.40551293
56	0x3e6ad048	0.22931015
57	0x3e627343	0.22114281
58	0x3d0c0c37	0.034191336
59	0x3e3ae357	0.18250786
60	0x3e652884	0.22378737
61	0x3e940d70	0.28916502
62	0xbeec5276	-0.46156663
63	0x3e4cfe05	0.20018776
64	0x3e0746f8	0.13210666
65	0xbf0ccdf1	-0.5500174
66	0xbf63c23e	-0.88968265
67	0xbfbb74e8	-1.4645052
68	0xbf69167f	-0.9104995
69	0xc00e0625	-2.219125
70	0x3e12c6f1	0.14333703
71	0xbd85b5fb	-0.06528851
72	0xbe2ad8a1	-0.166842
73	0xbed2024b	-0.41017374
74	0xbf497218	-0.7868972
75	0x3e27b231	0.16376568
76	0x3f7c3b44	0.9852793
77	0xbe603437	-0.21894918
78	0xbf07cbd4	-0.5304539
79	0xbe4a336a	-0.19746175
80	0x3f1a7a65	0.6034301
81	0x3e32bfbb	0.17455952
82	0xbeb99ce2	-0.36252505
83	0xbe5d55ab	-0.21614711
84	0xbe1948bf	-0.14969157
85	0x3dd6be56	0.104855224
86	0xbf79e497	-0.97614425
87	0xbf4aef1d	-0.7927111
88	0xbf4c826f	-0.79886526
89	0xbfa22a71	-1.2669202
90	0xbe23155c	-0.15926117
91	0xbf894e13	-1.0726951
92	0xbfdf2cbe	-1.7435529
93	0xbffbe0e8	-1.9678011
94	0xbf9bccef	-1.2171916
95	0x3d409822	0.047020085
96	0xbe2a5e5a	-0.16637555
97	0xbf608533	-0.87703246
98	0xbec0e7f3	-0.37676963
99	0xbf708112	-0.93946946
100	0x3ead83d7	0.33889648
101	0xbd955de3	-0.07293298
102	0xbe97eb0f	-0.29671523
103	0xbe1d5ee7	-0.15368234
104	0x3e817ce0	0.25290585
105	0x3e14c913	0.14529829
106	0x3e93e755	0.2888743
107	0x3dabe9a4	0.08394173
108	0xbe47e9f4	-0.1952284
109	0x3f125218	0.57156515
110	0xbdf71da1	-0.12066198
111	0xbe9fbdee	-0.31199592
112	0xbe8f980a	-0.28045684
113	0xbe00702b	-0.12542789
114	0x3d80f415	0.06296555
115	0x3eeffdc3	0.46873292
116	0x3e7de49f	0.24794243
117	0xbb15cce6	-0.0022857725
118	0xbee02420	-0.4377756
119	0x3e107be1	0.14109756
120	0x3e9975dc	0.29972732
121	0x3efe6d78	0.49692893
122	0x3ea37026	0.319215
123	0x3e7842f5	0.24244292
124	0x3ea7de31	0.32786706
125	0xbe85d72d	-0.2614073
126	0xbf06ad92	-0.526086
127	0x3e708dc0	0.23491573
128	0x3e265398	0.16242826
129	0x3d580787	0.052741554
130	0x3e5bf8e3	0.21481661
131	0xbe5672cd	-0.2094223
132	0x3ee6900b	0.4503177
133	0x3dc4b599	0.096049495
134	0xbf177b9f	-0.59173006
135	0x3e1ec2a8	0.15503943
136	0xbddc1cc3	-0.10747673
137	0xbe4e05c2	-0.20119384
138	0xbf7d2ba1	-0.988947
139	0xbf4a6e40	-0.7907448
140	0xbe57b057	-0.21063362
141	0xbeae44f1	-0.34036973
142	0xbf5841b7	-0.8447527
143	0xc00303b6	-2.0471015
144	0xbfa83f60	-1.314434
145	0xbe80b1d3	-0.2513567
146	0xbbcec389	-0.0063099307
147	0xbf8a7bbf	-1.0819014
148	0xbf409a83	-0.75235766
149	0xbfe16784	-1.7609715
150	0xbf685b68	-0.90764475
151	0xbe938ad3	-0.28816852
152	0xbe7f12ff	-0.2490959
153	0x3e822d86	0.25425357
154	0x3ea88525	0.3291408
155	0xbf194afc	-0.5988004
156	0xbf939ca1	-1.1532174
157	0xbf8547be	-1.0412519
158	0xbf0f5e44	-0.5600321
159	0xbdd79bf3	-0.10527792
160	0x3e9a7fd4	0.3017565
161	0x3e954cb3	0.2916008
162	0x3ea35ed1	0.31908277
163	0x3e8654af	0.26236483
164	0x3e398309	0.18116392
165	0xbc6ea750	-0.014566258
166	0x3ec66378	0.38747764
167	0x3ec5b724	0.38616288
168	0x3e576e0e	0.21038076
169	0x3e101177	0.14069162
170	0xbeae7fc3	-0.3408185
171	0xbf2d62a7	-0.67728657
172	0xbf6f0b94	-0.9337704
173	0xbf44cd92	-0.76876175
174	0xbea3f1e4	-0.32020485
175	0x3e9da0d4	0.30786765
176	0x3dfc4cb7	0.1231932
177	0xbee6e39c	-0.45095527
178	0x3d4e440f	0.050357874
179	0x3e060cfd	0.13090892
180	0x3e354f8e	0.17706129
181	0xbde6bab0	-0.112660766
182	0xbe416545	-0.18886288
183	0xbedeab7b	-0.43490204
184	0xbe71addf	-0.23601483
185	0x3eb6dda6	0.3571598
186	0x3f2912cd	0.6604431
187	0x3e6e2073	0.23254566
188	0xbe937680	-0.28801346
189	0xbf245ebe	-0.64207065
190	0xbefdc356	-0.49563092
191	0x3cb5ef8a	0.022208948
192	0xbe096db0	-0.13420749
193	0xbf81950b	-1.0123609
194	0x3e2b5cb7	0.16734587
195	0xbe1c8a91	-0.15287234
196	0xbeb24694	-0.34819472
197	0xbeb8f085	-0.36121002
198	0xbf0830d2	-0.53199494
199	0x3ee76aa8	0.4519856
200	0x3e44b03b	0.19207852
201	0x3bbe5131	0.0058080186
202	0xbec010fe	-0.37512964
203	0xbe32621b	-0.17420237
204	0x3dcf91ec	0.10135254
205	0x3ef9caa7	0.48787424
206	0x3e305ac6	0.17222127
207	0xbd62fd6c	-0.055417463
208	0xbdfad2b8	-0.12247223
209	0xbeb33b6d	-0.35006276
210	0xbd2a2c58	-0.041546196
211	0x3eb49a0a	0.35273772
212	0x3ec4e762	0.3845778
213	0x3f007476	0.50177705
214	0x3de39c84	0.11113837
215	0xbee61e17	-0.44944832
216	0xbe933204	-0.28749096
217	0x3deb36ba	0.11485048
218	0xbdf5ca3e	-0.12001465
219	0xbdcdc5c6	-0.10047488
220	0xbd9ea25d	-0.07745812
221	0xbef746ff	-0.48296353
222	0xbf2672b3	-0.6501877
223	0xbf680cc6	-0.9064449
224	0xbddf6f01	-0.10909844
225	0x3e281613	0.1641467
226	0x3e31516d	0.17316218
227	0xbeca0926	-0.39460105
228	0x3e27f410	0.16401696
229	0xbef1bc71	-0.47214082
230	0xbe4815f1	-0.1953962
231	0xbe2501ae	-0.16113922
232	0xbe7ab6a7	-0.24483739
233	0xbb84a01e	-0.004047408
234	0xbf0c37e9	-0.5477281
235	0xbd22543b	-0.03963111
236	0xbe19ebda	-0.15031376
237	0xbf01f2ef	-0.5076131
238	0x3ed1ec2a	0.4100049
239	0xbee5f013	-0.44909725
240	0xbd3b3e0e	-0.045713477
241	0xbf0e7471	-0.55646425
242	0xbe3a664a	-0.18203083
243	0x3f14be2e	0.5810269
244	0x3da0265d	0.07819817
245	0x3ebb6461	0.3660002
246	0x3eba82a9	0.3642781
247	0x3dc29ad1	0.09502185
248	0x3e63de7c	0.2225284
249	0xbe31a791	-0.17349078
250	0x3e006a97	0.12540661
251	0xbeae12f3	-0.33998832
252	0xbcfe5881	-0.031048061
253	0x3e9d8368	0.30764318
254	0x3e095260	0.1341033
255	0xbdd4a68b	-0.10383328

conv2.bias f4 [16]
0	0x3ddb835a	0.10718413
1	0xbe929044	-0.2862569
2	0xbea7ace5	-0.32749096
3	0x3dd00760	0.10157657
4	0x3d02aa85	0.0319009
5	0xbdc65071	-0.09683312
6	0xbea5c181	-0.32374194
7	0xbe28f9e7	-0.1650158
8	0xbe8dc701	-0.2769089
9	0xbeb38e6d	-0.350696
10	0xbdab3084	-0.08358863
11	0x3ebaf43b	0.36514458
12	0x3e171d44	0.14757258
13	0xbe84cd10	-0.259377
14	0xbd889996	-0.06669919
15	0xbd3963de	-0.045261256

fc1.weight f4 [120, 256]
0	0xbdcd5c4b	-0.10027369
1	0xbf1bc5ce	-0.608487
2	0xbf2ad754	-0.66734815
3	0xbe485fc0	-0.19567776
4	0xbd51cae8	-0.051218897
5	0xbf046ad0	-0.5172548
6	0xbef842b8	-0.48488402
7	0xbcce42eb	-0.025178393
8	0xbeee2de8	-0.465194
9	0x3de4e753	0.11176934
10	0x3d592898	0.05301723
11	0x3e1c8e48	0.15288651
12	0xbecefa80	-0.4042549
13	0xbebab006	-0.3646242
14	0xbf34ca83	-0.7062151
15	0x3d21f5a5	0.039540906
16	0x3c496fbe	0.012294708
17	0xbcb6f8c6	-0.022335421
18	0x3ecb2ab7	0.39681026
19	0x3dcfff07	0.101560645
20	0xbe50d9fd	-0.20395656
21	0xbd2b9b5a	-0.0418962
22	0xbe03cad7	-0.12870346
23	0xbdca8907	-0.09889417
24	0xbf9f23f8	-1.2432852
25	0xbf64e247	-0.8940777
26	0xbe108918	-0.14114797
27	0x3f61a91d	0.8814867
28	0xbf789df8	-0.9711604
29	0x3e37d6b1	0.17952992
30	0x3ec47870	0.38373137
31	0x3e0f2760	0.13979864
32	0x3f1cbe9f	0.61228365
33	0x3ea2c673	0.3179203
34	0x3dc1fe2d	0.09472308
35	0xbf3b2ca5	-0.73115
36	0x3f1067b9	0.5640827
37	0x3f37ccb5	0.71796733
38	0x3f406d9c	0.7516725
39	0x3ee35211	0.4439855
40	0xbec233a1	-0.37930015
41	0xbe8f8a31	-0.2803512
42	0x3efe538d	0.4967312
43	0xbe17de6c	-0.14830941
44	0xbe6b2ed4	-0.22967082
45	0x3d6f5a80	0.058435917
46	0xbb95d3d8	-0.004572373
47	0x3e7f3387	0.24922
48	0x3e70f41b	0.23530619
49	0x3ea26219	0.31715468
50	0x3c93769f	0.018000899
51	0xbe1d4043	-0.15356545
52	0xbf6e6de5	-0.93136436
53	0xbf58a23a	-0.8462254
54	0xbf014099	-0.50489193
55	0x3f326bbf	0.6969566
56	0xbd8ddb91	-0.069266446
57	0xbea18f66	-0.31554717
58	0xbe7b61ac	-0.24548978
59	0x3deaf1c2	0.11471893
60	0x3f5c0089	0.85938317
61	0x3ece456c	0.4028734
62	0xbe11d6b5	-0.1424206
63	0xbdb0a2f5	-0.086248316
64	0x3f244c89	0.64179283
65	0xbf4c3014	-0.7976086
66	0xbe64432f	-0.22291254
67	0x3e6f15df	0.23348187
68	0xbe4b9bd5	-0.19883664
69	0xbe399b40	-0.1812563
70	0xbeb706f0	-0.3574748
71	0xbe06c62a	-0.13161531
72	0xbf09a944	-0.53773904
73	0xbf40f712	-0.75377
74	0xbe2c58a1	-0.16830684
75	0xbe2ca9fb	-0.16861717
76	0x3f48a050	0.7836962
77	0x3ed5c9ba	0.41755468
78	0x3f15ba09	0.5848699
79	0x3e3ae01d	0.18249555
80	0xbf63bd52	-0.88960755
81	0x3e6d9e28	0.23204863
82	0x3e16fd1d	0.14744993
83	0x3e9281aa	0.2861455
84	0xbeb36010	-0.35034227
85	0xbc599086	-0.013279086
86	0x3e39e835	0.18154986
87	0xbceb963e	-0.028758164
88	0x3ef5702b	0.4793714
89	0xbef9b01e	-0.4876718
90	0x3d1d0c83	0.03834201
91	0xbc77bc65	-0.0151206
92	0x3e822772	0.2542072
93	0xbf12c469	-0.5733095
94	0xbe643fdd	-0.22289987
95	0xbecd0088	-0.40039468
96	0x3ef0633a	0.46950704
97	0x3e113282	0.14179423
98	0xbe50d4a3	-0.20393614
99	0xbf283113	-0.6569988
100	0x3f1424d9	0.57868725
101	0xbeb79c0d	-0.35861245
102	0x3e83785a	0.25677758
103	0x3ef6ccbc	0.48203075
104	0xbfa9533b	-1.3228525
105	0x3d0582f4	0.03259559
106	0x3e380622	0.1797109
107	0xbeaf71dc	-0.34266555
108	0x3ea1c6f0	0.3159709
109	0x3ec7a019	0.38989332
110	0xbeb9ead1	-0.36311963
111	0xbe8cc36b	-0.27492842
112	0xbe20f689	-0.15719046
113	0x3df2947d	0.11844728
114	0x3e822e4d	0.2542595
115	0xbf2d976b	-0.6780917
116	0xbf050eff	-0.5197601
117	0x3f125249	0.5715681
118	0x3e915b89	0.28390148
119	0xbcc4e654	-0.02403561
120	0x3e33c656	0.17556128
121	0x3e859d2b	0.26096472
122	0x3cde5c51	0.02714363
123	0x3e9b6e9a	0.3035782
124	0xbea0019f	-0.31251237
125	0xbdc5518c	-0.096346945
126	0xbd8088e0	-0.06276107
127	0x3e260188	0.16211522
128	0x3e285a55	0.16440709
129	0x3f0137db	0.50475854
130	0x3d2beb6d	0.041972566
131	0xbe75c0bd	-0.23999305
132	0xbf807835	-1.0036684
133	0xbe8b0272	-0.27150303
134	0x3d4a1a88	0.04934171
135	0xbe57d1e9	-0.21076168
136	0xbfee4f95	-1.8618037
137	0xbf529d06	-0.8227085
138	0x3e6629ba	0.22476855
139	0x3ec2d7d5	0.38055292
140	0xbeac936e	-0.3370623
141	0x3ef00f73	0.46886787
142	0x3e29c963	0.16580729
143	0x3daf2017	0.085510425
144	0x3c325d74	0.010886539
145	0xbf669552	-0.90071595
146	0x3e7fd07a	0.24981871
147	0x3f17c7dd	0.5928934
148	0xbe2af316	-0.16694292
149	0xbdb76872	-0.08955468
150	0xbf39ca74	-0.72574544
151	0xbf1f29ea	-0.6217333
152	0xbd9573a2	-0.07297446
153	0x3e28ceb0	0.16485095
154	0xbe01d100	-0.12677383
155	0xbe593a46	-0.21213636
156	0x3f2e9b4b	0.6820571
157	0xbe5dd231	-0.21662213
158	0xbe9a063d	-0.30082884
159	0xbe45756f	-0.19283079
160	0xbf213a2a	-0.62979376
161	0x3ee9486f	0.45563075
162	0x3eceead1	0.40413526
163	0x3f26713a	0.6501652
164	0xbde8fa80	-0.11375904
165	0xbde82255	-0.11334673
166	0xbebaedb1	-0.3650947
167	0xbed6a8f4	-0.41925776
168	0x3e08a69a	0.13344803
169	0xbfa6ff15	-1.3046595
170	0xbf367701	-0.71275336
171	0xbddc42ec	-0.10754952
172	0x3c3dc447	0.011582441
173	0xbe81f630	-0.2538314
174	0xbd850264	-0.064945966
175	0xbe75463f	-0.23952578
176	0xbe921605	-0.28532425
177	0xbea0a5f2	-0.31376606
178	0x3ece1e57	0.40257522
179	0x3f45890f	0.7716226
180	0xbad12d50	-0.0015958939
181	0x3f08f486	0.53498113
182	0xbefd4a90	-0.4947095
183	0xbd813662	-0.06309201
184	0xbdb79d52	-0.08965553
185	0x3f03ef89	0.51537377
186	0xbf239629	-0.63901
187	0xbebb13aa	-0.3653844
188	0x3dc44bc8	0.095847666
189	0xbe3e11d5	-0.1856149
190	0x3ede185a	0.43377954
191	0x3eb0b18d	0.3451046
192	0xbe5a24ae	-0.21303055
193	0x3e7f28ec	0.24917954
194	0xbd02c776	-0.031928502
195	0x3e83b500	0.2572403
196	0xbee29f07	-0.44261953
197	0x3eddecc7	0.4334471
198	0xbe20f68b	-0.15719049
199	0xbeb25bcd	-0.34835663
200	0xbeada864	-0.33917534
201	0xbcce6202	-0.025193218
202	0x3e242da3	0.16033034
203	0xbe8af06e	-0.27136558
204	0x3db9bdf6	0.09069435
205	0x3f016d8c	0.5055778
206	0x3f0f8f8a	0.560784
207	0xbed4a70b	-0.41533694
208	0x3f973e4e	1.1815889
209	0x3ee229c7	0.441725
210	0xbd5bd2a3	-0.053667676
211	0xbc9f3518	-0.019434497
212	0xbf383ea0	-0.7197056
213	0xbe1a3bd7	-0.1506189
214	0xbb9de0b6	-0.0048180474
215	0x3f398eaa	0.72483313
216	0xbd0de3a2	-0.034640916
217	0xbf553447	-0.83282894
218	0xbd07d54d	-0.033162404
219	0x3f0844df	0.5323009
220	0x3d6df43d	0.058094252
221	0xbd6a8871	-0.057259027
222	0x3e78054d	0.24220772
223	0xbe2e1af4	-0.1700247
224	0x3ba1fe48	0.0049436428
225	0xbdb11ca5	-0.08648042
226	0xbfb4ed35	-1.413489
227	0xbf1f0f43	-0.6213266
228	0x3f8272c4	1.0191274
229	0x3f6d7bef	0.9276723
230	0xbee1d77b	-0.4410971
231	0xbee3c29f	-0.44484422
232	0x3e2326c0	0.1593275
233	0x3f30167f	0.68784326
234	0x3eef1f36	0.467035
235	0x3e30c11b	0.17261164
236	0xbe8caaab	-0.2747396
237	0x3e09c760	0.13454962
238	0xbc9893a9	-0.018625097
239	0xbef25df9	-0.4733732
240	0x3e3eff63	0.1865211
241	0x3f0c6e2a	0.54855597
242	0xbf4ecf15	-0.8078473
243	0xbf4735d2	-0.778165
244	0x3ec865c5	0.39140144
245	0x3e6fa2d4	0.23401958
246	0x3ea1d605	0.31608596
247	0xbdf3299f	-0.11873173
248	0x3e779e94	0.24181587
249	0x3ecb3c55	0.39694467
250	0xbedb9dfd	-0.42893973
251	0x3eed347b	0.46329102
252	0x3f028a5b	0.50992364
253	0x3f044f68	0.51683664
254	0x3ecc32ef	0.3988261
255	0x3e541715	0.2071193

fc1.bias f4 [120]
0	0xbe21c7b0	-0.15798831
1	0xbe92ebe1	-0.28695586
2	0xbf51367d	-0.8172377
3	0xbe551189	-0.2080747
4	0xbd83acef	-0.06429469
5	0xbe337005	-0.17523201
6	0xbee5a629	-0.44853333
7	0xbf14323b	-0.57889146
8	0x3e79a7b0	0.24380374
9	0xbf7e3a7a	-0.9930798
10	0x3e8eeae6	0.27913588
11	0xbf11087d	-0.5665358
12	0xbc1ed9eb	-0.00969551
13	0xbf75b5f7	-0.9598078
14	0xbd980952	-0.07423653
15	0xbdb35045	-0.087555446
16	0xbf089803	-0.5335695
17	0xbe36fe87	-0.17870532
18	0xbf05e4ba	-0.52302134
19	0xbe7002f6	-0.2343863
20	0xbf259cd1	-0.6469241
21	0xbda6d449	-0.08145959
22	0xbe9068ad	-0.2820486
23	0x3c9899b3	0.018627977
24	0xbe3f26e9	-0.18667187
25	0xbdb36ce4	-0.087610036
26	0xbc28ab65	-0.01029477
27	0xbdc5c43e	-0.09656571
28	0x3e6bd5e8	0.23030818
29	0x3c82313d	0.01589262
30	0xbf0571ed	-0.5212696
31	0x3e6ffcb3	0.23436241
32	0xbf3c7170	-0.7361059
33	0xbecec48e	-0.40384334
34	0x3e87821e	0.2646646
35	0xbf1d930e	-0.6155251
36	0xbe8f5493	-0.27994213
37	0xbd6fdcae	-0.058560066
38	0xbdb4dbda	-0.08830996
39	0xbe9af18e	-0.30262417
40	0xbe802f98	-0.2503631
41	0xbf87db7a	-1.0613854
42	0xbd6ee12a	-0.058320202
43	0xbe7ff736	-0.24996647
44	0xbe3128de	-0.17300746
45	0xbf99fad4	-1.2029672
46	0xbecc301f	-0.39880463
47	0xbf2cc66a	-0.67490256
48	0x3e264fad	0.16241331
49	0x3db7f6c6	0.08982615
50	0x3eba3570	0.36368895
51	0x3e853e5f	0.26024148
52	0xbf86a43a	-1.0518868
53	0xbd8c5de0	-0.06853843
54	0xbe9a2b69	-0.30111244
55	0xbd9e9033	-0.077423476
56	0xbe97b3b8	-0.29629302
57	0xbcbafeeb	-0.022826632
58	0xbe128ed5	-0.14312299
59	0xbe9e4131	-0.30909112
60	0xbf0dad47	-0.55342525
61	0xbdd3c0e1	-0.10339523
62	0xbee27991	-0.44233373
63	0xbf7c536c	-0.9856479
64	0xbe9e7252	-0.30946594
65	0x3cc71f40	0.024306893
66	0xbf2bac52	-0.67059815
67	0x3da6c69e	0.08143352
68	0xbe128194	-0.14307243
69	0xbeff25c7	-0.4983351
70	0xbc352d13	-0.01105811
71	0xbc8fc1f5	-0.01754854
72	0xbea13133	-0.3148285
73	0xbfb78a87	-1.433915
74	0xbc87436a	-0.016511638
75	0xbf384ae0	-0.7198925
76	0xbeb00d9c	-0.34385383
77	0xbf02ca5f	-0.51090044
78	0xbf839ee8	-1.0282869
79	0xbdb6c74b	-0.08924731
80	0xbe601d41	-0.2188616
81	0xbf71576e	-0.9427403
82	0xbf12d946	-0.5736278
83	0xbeec361c	-0.46135032
84	0xbce320cf	-0.027725605
85	0xbe3192b3	-0.17341118
86	0xbf2d5089	-0.6770101
87	0x3db81adb	0.08989497
88	0x3d80f890	0.062974095
89	0xbf2d3ed0	-0.6767397
90	0xbee83336	-0.4535157
91	0xbec01460	-0.37515545
92	0x3d8138db	0.063096724
93	0xbf72aa10	-0.94790745
94	0xbf5ad204	-0.8547671
95	0x3e0cfb58	0.13767755
96	0xbdf6002c	-0.120117515
97	0x3d8e10f4	0.06936827
98	0xbe96e42f	-0.29470965
99	0xbf92f670	-1.1481457
100	0xbdbeb782	-0.09312345
101	0xbe438675	-0.1909426
102	0xbf05bf64	-0.52245164
103	0xbdb37c30	-0.08763921
104	0xbe22e95c	-0.15909332
105	0xbece03f6	-0.40237397
106	0xbf61d850	-0.8822069
107	0xbde5078e	-0.111830816
108	0xbf237323	-0.6384756
109	0xbdec935f	-0.11551546
110	0xbec76efb	-0.3895186
111	0xbb0e285a	-0.0021691532
112	0xbbc29fbf	-0.0059394534
113	0xbc52c460	-0.012864202
114	0x3c4d9862	0.012548538
115	0xbea1d64c	-0.31608808
116	0x3d5e062d	0.05420511
117	0x3be2e953	0.006924787
118	0xbf16505e	-0.5871638
119	0xbdbb995e	-0.09160112

fc2.weight f4 [84, 120]
0	0x3dac56dd	0.08415005
1	0xbe8e4ed1	-0.27794507
2	0xbd8d790e	-0.06907855
3	0xbf3cc890	-0.73743534
4	0x3e3fbc03	0.18724065
5	0xbec0e255	-0.37672678
6	0x3ebc2888	0.36749673
7	0x3e36d35d	0.17854066
8	0x3dbdc5b1	0.09266222
9	0x3e75b581	0.2399502
10	0x3d1da2f4	0.038485482
11	0x3ecf0995	0.40436998
12	0xbd83e111	-0.064394124
13	0x3f0483ca	0.51763594
14	0xbd1d7e41	-0.038450483
15	0x3c509fc0	0.0127334
16	0x3f125ffa	0.571777
17	0xbde7acf2	-0.113122836
18	0xbe996d3e	-0.29966158
19	0xbf268cb5	-0.6505845
20	0xbf217e81	-0.63083655
21	0x3cca267e	0.024676558
22	0x3c385629	0.011251011
23	0xbcdcc6af	-0.026950208
24	0xbf5c84a5	-0.861399
25	0x3d535ca4	0.05160202
26	0x3e65410f	0.22388099
27	0xbd5dabce	-0.054118924
28	0xbef4f3e4	-0.47842324
29	0x3cc35dbc	0.023848407
30	0x3de866c7	0.11347728
31	0x3e57780a	0.21041885
32	0xbeaf8552	-0.34281403
33	0xbe77b493	-0.24189977
34	0x3eb1749b	0.34659275
35	0xbe97055b	-0.29496273
36	0xbe1430d7	-0.14471756
37	0xbc41e807	-0.011835105
38	0xbead230b	-0.33815798
39	0x3e3d047e	0.18458745
40	0xbd4b413a	-0.04962275
41	0x3f2f24c8	0.684155
42	0x3c947fbe	0.018127318
43	0x3dc03341	0.09384776
44	0xbd29d4ec	-0.041462824
45	0xbe71e469	-0.23622288
46	0xbe982997	-0.2971923
47	0x3eff6df0	0.49888563
48	0xbd9b6267	-0.07587128
49	0xbf093dc3	-0.53609866
50	0x3e67a325	0.22620828
51	0xbf6ed1d0	-0.932889
52	0xbf23ede2	-0.64034855
53	0xbf2ffbd3	-0.6874363
54	0xbe8b00a8	-0.27148938
55	0x3d52eb1b	0.051493745
56	0xbeac42c9	-0.33644703
57	0xbd5bf618	-0.05370149
58	0x3de89cfd	0.11358068
59	0xbec5b2e9	-0.3861306
60	0x3ea47962	0.32123858
61	0x3d52d1fd	0.05146979
62	0xbe84bcb8	-0.2592523
63	0xbe9ddbac	-0.3083166
64	0x3f4273d6	0.75958
65	0x3ee103e2	0.43948275
66	0x3bdc2bf4	0.006719107
67	0xbc4f40dd	-0.012649742
68	0x3ea07956	0.31342572
69	0xbf40bab4	-0.75284886
70	0x3dccbef3	0.09997358
71	0xbd6bc3f3	-0.05755992
72	0xbf0bf00a	-0.54663146
73	0x3ef28c0b	0.4737247
74	0x3cde8281	0.027161838
75	0x3ee1f1da	0.4412983
76	0xbf4925a1	-0.7857304
77	0xbf0ecbc8	-0.55779696
78	0xbda15ac5	-0.07878641
79	0xbe1acbf7	-0.15116869
80	0xbf2cdeb5	-0.67527324
81	0x3e131bcf	0.14366077
82	0x3d82eff9	0.063934274
83	0x3e7908fe	0.24319836
84	0xbcd41d29	-0.02589281
85	0xbb2967bc	-0.0025849184
86	0x3de516f3	0.11186018
87	0x3f1ef46c	0.6209171
88	0xbe7ecf25	-0.24883707
89	0x3de8fc85	0.11376289
90	0x3d61391c	0.054986104
91	0x3f372f69	0.7155672
92	0xbef4efa7	-0.4783909
93	0x3e002a6c	0.12516183
94	0xbe4301bf	-0.19043635
95	0x3e1094bb	0.14119236
96	0x3d60b832	0.054863162
97	0xbf3c2ea9	-0.735087
98	0x3eb6f33d	0.3573245
99	0x3cce44c8	0.025179282
100	0x3e8c20a2	0.27368647
101	0xbd16148e	-0.036640696
102	0xbe711482	-0.2354298
103	0x3e972082	0.2951699
104	0x3ee924da	0.45535928
105	0x3f05da5d	0.5228632
106	0x3d8e05ab	0.06934675
107	0xbd90762a	-0.07053788
108	0x3e4f6384	0.20252806
109	0x3e14e726	0.14541301
110	0xbe4a4945	-0.19754513
111	0x3df3ccd5	0.11904303
112	0x3da05d73	0.07830324
113	0xbc7c7728	-0.015409268
114	0xbf2bd2ea	-0.67118704
115	0x3e0ca6fa	0.13735572
116	0x3d9aadc7	0.07552677
117	0xbd389506	-0.045063995
118	0xbe2da547	-0.1695758
119	0xbe818daa	-0.25303394
120	0xbe1a606d	-0.15075846
121	0xbf056856	-0.5211233
122	0x3d33530d	0.043780375
123	0xbd9d05ee	-0.076671466
124	0xbeaabec2	-0.33348662
125	0x3ec58e5f	0.38585183
126	0xbe335d4a	-0.17516056
127	0x3eea9ae9	0.45821312
128	0x3edd8ab7	0.43269894
129	0x3ea586c2	0.32329375
130	0xbed124ef	-0.4084849
131	0x3e8b5fe6	0.27221602
132	0x3c646410	0.013939872
133	0xbce65bc4	-0.02811993
134	0x3cd11745	0.025523791
135	0xbd3909ce	-0.045175366
136	0xbe50e19b	-0.20398562
137	0x3eb74acc	0.35799253
138	0x3e93689c	0.28790748
139	0x3e46587b	0.1936969
140	0x3eb2ee5d	0.34947482
141	0xbd308979	-0.043099854
142	0x3f1cb694	0.6121609
143	0x3d871972	0.0659665
144	0x3ec03e65	0.37547603
145	0xbd7133ec	-0.058887407
146	0xbe9aec63	-0.30258474
147	0xbcf94d42	-0.030432347
148	0x3e237e11	0.1596606
149	0xbd48e236	-0.049043857
150	0xbe8c4757	-0.27398178
151	0x3e283437	0.16426168
152	0x3ead811d	0.33887568
153	0x3d38a37a	0.04507778
154	0xbefe6de7	-0.49693224
155	0x3ee89911	0.4542928
156	0xbf6655b8	-0.89974546
157	0xbd35b8b5	-0.044365603
158	0xbddff9af	-0.10936295
159	0xbeacd78b	-0.33758196
160	0xbef032e9	-0.4691384
161	0x3ead593c	0.33857143
162	0x3d2808dd	0.041024078
163	0x3e0ae1ff	0.13562773
164	0xbb6cf44a	-0.003615635
165	0x3f4ffd75	0.8124612
166	0xbf482326	-0.7817863
167	0x3e20b40f	0.15693687
168	0x3ed07733	0.40715942
169	0x3e5e778e	0.21725294
170	0x3cf8dc50	0.03037849
171	0xbd6279ca	-0.05529193
172	0xbf1cd07f	-0.6125564
173	0xbde5dd79	-0.11223883
174	0xbe7167ca	-0.23574749
175	0xbae069cd	-0.0017121375
176	0xbd8b01fe	-0.06787489
177	0x3ea25be0	0.3171072
178	0x3d9f98f3	0.077928446
179	0x3e80276d	0.2503008
180	0xbf611c08	-0.879334
181	0xbd547df5	-0.051877934
182	0x3e446918	0.19180715
183	0x3e620fce	0.22076342
184	0xbe82df40	-0.2556095
185	0x3e1c2412	0.15248135
186	0x3dac96db	0.08427211
187	0x3e87d8bb	0.2653254
188	0xbe32dd52	-0.1746724
189	0xbc574132	-0.013138102
190	0x3e8ac25b	0.27101406
191	0x3c8abf9c	0.01693707
192	0x3d20eb2b	0.039286774
193	0x3c11b173	0.008892405
194	0xbdc9a1e9	-0.09845335
195	0x3ee7165d	0.4513425
196	0x3f24e08c	0.6440513
197	0xbef4b7ad	-0.47796384
198	0x3ea6a575	0.3254811
199	0xbf15d127	-0.58522266
200	0xbca84d60	-0.020544708
201	0x3e367bf6	0.17820725
202	0x3e7516f7	0.23934542
203	0x3e1bbdc3	0.15209107
204	0x3e587db1	0.21141697
205	0xbec16b5d	-0.37777224
206	0x3eede6dc	0.46465194
207	0xbeac3d6c	-0.3364061
208	0xbe7b9d21	-0.24571659
209	0x3e857c5c	0.2607144
210	0xbec78457	-0.38968155
211	0x3eaf9b62	0.34298235
212	0xbe63ddab	-0.22252528
213	0x3ee93a32	0.45552212
214	0x3f335ab8	0.700603
215	0xbea48b62	-0.3213759
216	0xbcbdf890	-0.023189813
217	0x3e3eed13	0.18645124
218	0xbf0da89a	-0.5533539
219	0x3da4d9b8	0.08049339
220	0xbd3454f9	-0.04402635
221	0x3e181777	0.14852701
222	0xbbe3e148	-0.006954346
223	0xbe18a5ba	-0.1490697
224	0x3f47df8b	0.78075475
225	0xbf472338	-0.77788115
226	0x3e44111b	0.1914715
227	0x3d8105fc	0.062999696
228	0x3e13dc63	0.1443954
229	0xbde01ee8	-0.10943395
230	0x3d83f0b4	0.06442395
231	0xbe5849c9	-0.21121897
232	0xbcf35bda	-0.029706884
233	0xbd4fb2ed	-0.050707746
234	0x3dc28cb3	0.094994925
235	0x3e32cfb9	0.17462052
236	0xbdd8cdf2	-0.10586156
237	0x3befecef	0.007321946
238	0x3e31e1ba	0.17371264
239	0x3ece8da6	0.40342444
240	0x3f0fb868	0.56140757
241	0x3e6a0cc3	0.2285643
242	0xbe78b9e8	-0.24289668
243	0xbef7d91f	-0.48407838
244	0x3ec91b0c	0.39278448
245	0xbe2387dd	-0.15969796
246	0x3f5c1a67	0.85977787
247	0xbef860c9	-0.4851134
248	0xbf010794	-0.5040219
249	0x3f3a8cce	0.728711
250	0xbf75d6f7	-0.96031135
251	0x3e9e5c29	0.30929688
252	0xbd68da4a	-0.0568488
253	0x3e799b51	0.24375655
254	0x3ca070de	0.01958507
255	0x3a76f3af	0.0009420467

fc2.bias f4 [84]
0	0xbecf91d2	-0.4054094
1	0xbf0584ce	-0.5215577
2	0xbf80c8ec	-1.0061316
3	0xbde55ff8	-0.11199945
4	0xbf34d3f5	-0.7063592
5	0xbf54f070	-0.8317938
6	0xbf397371	-0.72441775
7	0xbe5a9c34	-0.2134865
8	0xbf24f034	-0.6442902
9	0xbe3a22d3	-0.18177347
10	0xbf420e2c	-0.75802875
11	0xbf51093a	-0.81654704
12	0xbe12da49	-0.14341082
13	0xbf1f1af4	-0.621505
14	0xbf0658fc	-0.5247953
15	0x3d6b00fa	0.05737398
16	0xbf0fb3f0	-0.5613394
17	0xbf344707	-0.7042088
18	0xbf791d1c	-0.9731004
19	0xbe4482be	-0.19190499
20	0xbf0bb765	-0.5457671
21	0xbf0173be	-0.50567234
22	0xbf73a242	-0.9516946
23	0xbe33fec2	-0.17577651
24	0xbf1b4dfa	-0.6066586
25	0xbecd5f0a	-0.40111572
26	0xbebf488b	-0.37360033
27	0xbf2f6021	-0.68506056
28	0xbeef27dd	-0.467101
29	0xbceda546	-0.029009473
30	0xbef8a236	-0.48561257
31	0xbeeb488f	-0.45953795
32	0xbea36e5d	-0.31920138
33	0xbfaf96c8	-1.371789
34	0xbf6be513	-0.92146415
35	0xbe1f05d7	-0.15529571
36	0xbe558e10	-0.20854974
37	0xbe7b6812	-0.24551418
38	0xbeb8b248	-0.36073518
39	0xbef3afe7	-0.4759514
40	0xbe5eeda7	-0.21770345
41	0xbf39b0eb	-0.7253558
42	0xbebc63bf	-0.3679485
43	0xbf33ca55	-0.7023061
44	0xbefd1c1b	-0.49435505
45	0xbef641aa	-0.48096973
46	0xbeef5a20	-0.46748447
47	0xbf4558b2	-0.77088463
48	0x3d94e201	0.07269669
49	0xbd926220	-0.07147622
50	0xbef1b4f5	-0.47208372
51	0xbf0e10fb	-0.5549466
52	0xbf40b36c	-0.75273776
53	0xbf143d27	-0.5790581
54	0xbea7003c	-0.32617366
55	0xbf479366	-0.7795929
56	0xbf054dea	-0.5207201
57	0xbf36a950	-0.713521
58	0xbe52d2aa	-0.20588174
59	0xbf6e5b4e	-0.9310807
60	0xbf588f76	-0.84593904
61	0xbf0f73ef	-0.56036276
62	0xbed9f367	-0.42568514
63	0xbf1b0caf	-0.6056623
64	0xbf369a53	-0.7132923
65	0xbf75bdbe	-0.9599265
66	0xbf82d006	-1.0219734
67	0xbf379b13	-0.71721
68	0xbf66b103	-0.9011385
69	0xbf8406d8	-1.0314589
70	0xbeacf8f0	-0.33783674
71	0xbf4e5e6e	-0.8061284
72	0xbf888d65	-1.066815
73	0xbeac6041	-0.33667186
74	0xbe660aa7	-0.22465001
75	0xbeac90c9	-0.33704212
76	0x3dbf5ed4	0.09344259
77	0xbd2f5085	-0.0428014
78	0xbe116415	-0.14198335
79	0x3b25a415	0.0025274802
80	0xbf3f99fe	-0.7484435
81	0xbeb6111e	-0.35559934
82	0x3e2c6497	0.16835247
83	0xbf144320	-0.57914925

fc3.weight f4 [10, 84]
0	0xbf5de710	-0.866807
1	0xbf11224d	-0.56692964
2	0xbf69e4b6	-0.9136461
3	0xbf8bae11	-1.0912496
4	0xbefb6072	-0.4909702
5	0xbf808f1c	-1.0043674
6	0xbe536b36	-0.20646366
7	0xbf6cecb1	-0.9254866
8	0xbf66c339	-0.90141636
9	0xbea37917	-0.31928322
10	0xbf09255a	-0.5357262
11	0xbf8d5b80	-1.1043549
12	0xbf523512	-0.8211223
13	0xbf95a493	-1.1690849
14	0xbfc70f9a	-1.5551636
15	0xbf5dde6e	-0.86667526
16	0xbf4d2ca2	-0.8014623
17	0xbefcb008	-0.4935305
18	0xbcc6d829	-0.024272995
19	0xbe0a9a37	-0.13535391
20	0x3d0e1d8a	0.03469614
21	0xbedefd1b	-0.4355248
22	0xbe44c712	-0.19216564
23	0xbf9a26d0	-1.2043095
24	0xbf7ca92a	-0.98695624
25	0xbed6be02	-0.4194184
26	0xbf46c0f0	-0.7763815
27	0xbdcf4d35	-0.10122148
28	0xbf40755f	-0.75179094
29	0xbf97473b	-1.1818613
30	0x3d9ce712	0.07661261
31	0xbfd106bf	-1.6330184
32	0xbf4d122c	-0.80105853
33	0xbeca2ad3	-0.39485797
34	0xbdc3ddd7	-0.09563797
35	0xbe49c0a4	-0.19702393
36	0xbe9dc6cc	-0.30815732
37	0xbf8f38fb	-1.1189264
38	0xbf5bd44d	-0.8587082
39	0xbee899d2	-0.45429856
40	0xbee480b7	-0.44629452
41	0xbf55dc13	-0.8353893
42	0xbd98756a	-0.0744427
43	0x3e4e21bf	0.2013006
44	0xbf48f0f8	-0.7849269
45	0xbfa50d13	-1.2894615
46	0xbf5fb484	-0.8738482
47	0x3d8efb4a	0.06981523
48	0xbfa35ab1	-1.2762052
49	0xbe81c1c6	-0.2534315
50	0xbdd3d963	-0.103441976
51	0xbf76bf65	-0.96385795
52	0xbf6c326d	-0.92264444
53	0xbe5dc986	-0.21658906
54	0xbfc0135c	-1.5005908
55	0x3c65e6d7	0.014032087
56	0xbf94474b	-1.1584257
57	0xbfa548a2	-1.2912791
58	0xbd3fb14f	-0.046799954
59	0xbe796b58	-0.24357355
60	0xbf30b8b2	-0.6903182
61	0xbd20944e	-0.039203934
62	0xbeb11e95	-0.34593645
63	0x3ce60f10	0.028083354
64	0xbfa3850a	-1.2774975
65	0xbfa22067	-1.2666138
66	0x3d3f74e5	0.04674234
67	0xbf904747	-1.1271752
68	0xbf624b32	-0.8839599
69	0xbe8f7a41	-0.2802296
70	0xbecd9776	-0.40154618
71	0xbe6cdbda	-0.23130742
72	0xbe2eba5b	-0.17063276
73	0x3dafc8b5	0.08583204
74	0xba9ecd27	-0.0012115584
75	0x3c684d5e	0.014178602
76	0xbf751fc2	-0.95751584
77	0xbee5cd22	-0.44883066
78	0xbc52e5fa	-0.0128722135
79	0xbd233f09	-0.039855037
80	0xbf557054	-0.83374524
81	0x3cd1a9b3	0.025593614
82	0xbfad1003	-1.3520511
83	0x3ba65f55	0.0050772824
84	0xbc379f62	-0.011207433
85	0xbf77e368	-0.9683137
86	0xbd7b187a	-0.06130264
87	0x3ac7ecc8	0.0015253061
88	0xbf73fa6c	-0.9530399
89	0xbe86a469	-0.2629731
90	0xbd2863e7	-0.0411109
91	0xbf5585df	-0.83407396
92	0xbf3ca95a	-0.7369591
93	0xbf6fe231	-0.93704516
94	0xbceb66a7	-0.028735472
95	0xbe8f1816	-0.27948064
96	0xbf95e445	-1.1710287
97	0xbef32cdb	-0.4749516
98	0xbf298967	-0.66225284
99	0xbdca228a	-0.09869869
100	0x3e3f6a8d	0.1869299
101	0xbe7c9ec7	-0.24669944
102	0xbf5de6b6	-0.8668016
103	0xbd0a684b	-0.033790868
104	0xbf5aaa32	-0.8541595
105	0xbee40bae	-0.4454016
106	0xbf83e816	-1.0305202
107	0xbe2417c9	-0.16024698
108	0xbdf0368d	-0.11729155
109	0xbf95e0c3	-1.1709217
110	0xbebef24e	-0.3729424
111	0xbfa36a46	-1.2766807
112	0xbf8d2b40	-1.1028824
113	0xbf8fe1d5	-1.1240793
114	0x3db3791b	0.087633334
115	0xbfb38b45	-1.4026877
116	0xbf1c23b4	-0.6099198
117	0xbf46a79f	-0.7759952
118	0xbf53c00c	-0.82714915
119	0xbfabc1f3	-1.3418564
120	0xbfb2f7bb	-1.3981851
121	0xbf83f84f	-1.0310153
122	0xbf3aa654	-0.72910047
123	0xbfc59101	-1.5434877
124	0xbf46c285	-0.77640563
125	0x3d93c3f7	0.07215112
126	0xbf4bbba1	-0.79583174
127	0x3dbc8991	0.09205926
128	0xbf57c5e3	-0.84286326
129	0xbdfb7044	-0.12277272
130	0xbe222e8e	-0.15838072
131	0xbf6e7a11	-0.9315501
132	0xbfa9a4ed	-1.3253456
133	0xbc739bc0	-0.014868677
134	0xbfd733f4	-1.681273
135	0xbe57c33a	-0.21070567
136	0xbf0b5db5	-0.5443986
137	0xbf350ef2	-0.7072593
138	0xbfcc521e	-1.596256
139	0xbf6763f3	-0.90386885
140	0xbf92c626	-1.146672
141	0xbd48686f	-0.04892772
142	0xbf13a22f	-0.5766935
143	0xbf970f7b	-1.1801599
144	0xbf9382ce	-1.1524293
145	0xbf8dcd07	-1.1078194
146	0xbf44f045	-0.7692912
147	0xbb7ac637	-0.0038265118
148	0xbeac7133	-0.33680114
149	0xbf84d387	-1.0377053
150	0xbfacbbe4	-1.349484
151	0xbc88ad96	-0.016684335
152	0x3e084720	0.13308382
153	0xbf12081b	-0.5704362
154	0xbfd283ea	-1.6446507
155	0xbf2e0921	-0.6798268
156	0xbed7f40a	-0.42178375
157	0xbf7a4dab	-0.9777476
158	0x3e014652	0.12624481
159	0xbd783bf0	-0.060604036
160	0xbf2f435b	-0.6846215
161	0xbff7b1df	-1.9351157
162	0x3d0c6049	0.034271512
163	0xbf5cc333	-0.8623535
164	0xbf462a8a	-0.7740866
165	0xbf1d9995	-0.6156247
166	0xbf71694b	-0.9430129
167	0xbf2c8618	-0.6739211
168	0xbf09b3b4	-0.5378983
169	0xbf320285	-0.69535094
170	0xbebaf5cf	-0.36515662
171	0xbe7150bf	-0.23565958
172	0xbed7505b	-0.42053494
173	0xbeaacfaa	-0.3336156
174	0xbe008007	-0.12548839
175	0xbda452bc	-0.08023593
176	0xbf232c8c	-0.6373985
177	0x3ca582e3	0.020204013
178	0xbd845853	-0.06462159
179	0xbf99baa3	-1.2010082
180	0xbf51ae4d	-0.81906587
181	0xbfd58e91	-1.6684133
182	0xbe67f649	-0.22652544
183	0x3da7cf54	0.081938416
184	0xbe14390b	-0.14474885
185	0xbf6de7d8	-0.9293189
186	0xbe0c3357	-0.1369146
187	0xbfa20396	-1.2657344
188	0xbf84e85b	-1.0383409
189	0xbede79f9	-0.43452433
190	0xbf46c987	-0.77651256
191	0xbf7afc3f	-0.98041147
192	0xbe51c137	-0.20483862
193	0xbf2c53d3	-0.67315406
194	0x3de91d51	0.11382545
195	0xbf28d3b9	-0.65948063
196	0x3eb1b775	0.3471028
197	0xbfcc9954	-1.5984292
198	0x3cec2ce5	0.028830001
199	0xbd77fd0c	-0.06054406
200	0xbf789d42	-0.97114956
201	0xbe84dc23	-0.259492
202	0x3e1239df	0.14279889
203	0xbe010d43	-0.12602715
204	0xbf6d9fda	-0.9282204
205	0xbec799e3	-0.38984594
206	0xbf23f127	-0.64039844
207	0xbf98889b	-1.1916689
208	0xbfc0c846	-1.5061119
209	0xbf4476fb	-0.7674405
210	0x3e0463ce	0.12928697
211	0xbe653a87	-0.22385608
212	0xbf083938	-0.5321231
213	0xbeff5324	-0.4986812
214	0xbfb2bc05	-1.3963629
215	0x3da1e314	0.0790464
216	0xbf220649	-0.6329084
217	0xbf9f4ab9	-1.2444679
218	0xbf63702c	-0.88843036
219	0xbe0a06ff	-0.13479231
220	0xbf4abe95	-0.79197055
221	0xbee57045	-0.44812217
222	0xbe9287db	-0.28619274
223	0xbf67022a	-0.9023768
224	0xbe23c627	-0.15993558
225	0xbf2f0778	-0.6837077
226	0xbf76556b	-0.9622409
227	0xbe298948	-0.16556275
228	0x3d722d05	0.059124965
229	0xbee0224c	-0.43776166
230	0xbf499bbd	-0.7875326
231	0xbf6f65a1	-0.9351445
232	0xbf45bed0	-0.7724428
233	0xbeeb577a	-0.45965177
234	0x3d6c5887	0.057701614
235	0x3d33198c	0.043725535
236	0xbfa07ead	-1.2538658
237	0x3c59439c	0.013260748
238	0xbec843ab	-0.39114127
239	0xbfcc4061	-1.5957147
240	0xbe97d1fc	-0.29652393
241	0xbdad52b5	-0.08463041
242	0xbfd9cb27	-1.7015122
243	0xbf5cb607	-0.8621525
244	0xbed693bc	-0.41909587
245	0x3cb62bb7	0.022237642
246	0x3d07bc38	0.033138484
247	0xbfc6d7a2	-1.5534556
248	0xbfdeaa0a	-1.7395642
249	0xbf95a309	-1.1690379
250	0xbf86efdc	-1.0541949
251	0xbef1ff4a	-0.47265083
252	0x3cd1c665	0.025607297
253	0xbf0c9549	-0.5491529
254	0x3d82779f	0.06370472
255	0xbe793bdd	-0.24339242

fc3.bias f4 [10]
0	0xbf05def9	-0.52293354
1	0xbd3ee426	-0.046604298
2	0xbe4f20e6	-0.20227394
3	0xbd24f4fd	-0.0402727
4	0xbdc02cc2	-0.09383537
5	0xbed208af	-0.4102225
6	0xbe598777	-0.21243082
7	0xbe90ae99	-0.28258207
8	0x3eb39e33	0.35081634
9	0x3e3fd30a	0.18732849
