mnist/saved_models/model_epoch_48.pth (torch, 181338 bytes, 10 tensors)

conv1.weight f4 [6, 1, 5, 5]
00000000: b3bd 9bbe d75d 85bd 6f6a 573e c766 643e
00000010: 0b53 b83e 2edd 53be 0aa5 c8be c2c0 edbe
00000020: 7bb7 14bf ced2 b73d 904f fcbc 5496 093e
00000030: 1356 03be ab87 9ebe 2c2f 91bd 7da0 213d
00000040: b915 ad3e ce16 1f3e d2b8 893e 1f4d a2bd
00000050: 5d2d 393d 28c0 9e3d f075 903d c928 853e
00000060: a8ee 323e 61c5 223e 8b96 3bbd d77d aa3d
00000070: 3c6f 0c3f 74d7 553f 37ae d73d 1866 32be
00000080: 5439 e5be 5559 3fbf 0386 733e 4519 ed3d
00000090: c762 b0be b9a8 febd 8613 babe 36a9 dabe
000000a0: 600d 823e 3158 fc3c 3661 0c3d 2ba4 20be
000000b0: 4e69 bebe f859 9b3d 32ad 21bd df0e 023d
000000c0: 88aa a33e 275f 533e 6885 68be 4764 203e
000000d0: b359 ef3b a603 693d 4a06 373d 1db9 1a3e
000000e0: 07c6 ad3e f96f 993d 7d65 223e bc34 ab3e
000000f0: b373 323f 867f 94be e692 f6be c82a 7bbe
00000100: 6903 5a3e 1ee1 d83b 9c6c dfbe 5b4c 00bf
00000110: 8b4f 8bbe 8be2 293f c925 9ebd eee2 07ba
00000120: 29a1 833d 0309 e1bd 37ac c33e 8555 7d3d
00000130: eaaa 15be fca5 133c 7646 eb3d 2a0e 483e
00000140: 08c8 4dbd ed8f 503e 0e85 febd 3c86 0cbf
00000150: edda 6abe 5927 c9bc 1752 5b3e 2d10 a4be
00000160: d188 3cbf 37c0 22be b658 9d3d f710 f03e
00000170: e623 413e 4cca e43d b9a5 1d3e 4838 cdbe
00000180: 9efe d33e 4239 e53e 3f96 8a3e aa91 1ebe
00000190: b560 9fbc c758 7d3d 99b4 9e3e 5fdc 26be
000001a0: bb07 bd3d 17d3 d7bd 4376 183d 3417 e0be
000001b0: 6bf7 d9be 096f 723e d631 0d3e e527 7cbe
000001c0: e098 24bf 16c4 b23e b641 9d3e 6284 42be
000001d0: 293b 9ebe 9080 adbc c816 373f 7bc8 16bd
000001e0: 4ec4 303d fbe2 183e 02b0 9dbd a490 8a3e
000001f0: 6d26 a4bd b606 173e e2d3 81be 486f d2bd
00000200: 86e8 303d 2991 e13e 71f5 9abe ef14 1e3e
00000210: 6dbe 7d3e 69f6 ff3e 80c4 c83e e0c7 9bbd
00000220: 0519 2f3c 17b9 663d b9a9 16be 7c5b 25be
00000230: 5ab8 3fbd aeb8 e53d b27e f0bd 8815 a5bd
00000240: 11b8 acbd 4a1d 11bd 7217 21be 78c8 a4be
00000250: 1b03 503c 70f4 173d
-0.30418167 -0.06512039 0.21036695 0.22304831 0.36000857 -0.20689842 -0.39188415 -0.46436125
-0.5809247 0.08975755 -0.030799657 0.13436252 -0.12825803 -0.3096288 -0.070890754 0.039459694
0.33805636 0.15536043 0.2689882 -0.07924866 0.045209277 0.07751495 0.07053745 0.2600768
0.17473853 0.15895607 -0.045797866 0.08324783 0.5485723 0.8353188 0.10531276 -0.17421758
-0.447703 -0.74745685 0.2378159 0.115770854 -0.3445036 -0.12434525 -0.3634302 -0.42707223
0.2540083 0.030803772 0.034272395 -0.15687625 -0.37189716 0.075855196 -0.039471813 0.031752463
0.31966043 0.20641766 -0.2270714 0.15663253 0.007304394 0.056888245 0.044683732 0.15109678
0.33940145 0.0749206 0.15859027 0.3343867 0.69707793 -0.29003543 -0.4815895 -0.24528039
0.21290363 0.006618633 -0.4363755 -0.5011651 -0.27209124 0.663613 -0.07722051 -0.00051836565
0.06427223 -0.10988047 0.38217327 0.061849136 -0.1461598 0.009011742 0.11488049 0.19536653
-0.050239593 0.20367403 -0.12427722 -0.54892325 -0.22935076 -0.024554895 0.21418034 -0.3204359
-0.73646265 -0.15893637 0.07682936 0.46887943 0.1886135 0.111713976 0.1539525 -0.40082002
0.41405195 0.44770247 0.27067754 -0.15485254 -0.019455293 0.061852243 0.3099716 -0.16295002
0.0922999 -0.10538309 0.03722216 -0.43767703 -0.42571577 0.23675169 0.13788542 -0.24624594
-0.6429577 0.34915227 0.30714196 -0.18995813 -0.3090451 -0.021179467 0.71519136 -0.036812287
0.04315596 0.14930336 -0.076995865 0.27063477 -0.08015142 0.14748654 -0.25356966 -0.102751315
0.0431905 0.4405606 -0.30265382 0.15437673 0.24779673 0.49992684 0.39212418 -0.076064825
0.010687117 0.05632886 -0.14713182 -0.1614818 -0.04680667 0.112168655 -0.11742915 -0.080607474
-0.084335454 -0.035428323 -0.157316 -0.32184196 0.012696053 0.03709835

conv1.bias f4 [6]
00000000: 10f4 ccbf b54c 9ebf 3898 cebf e5df ecbe
00000010: 5753 43bf 75bd cbbe
-1.6011982 -1.2367159 -1.6140203 -0.46264568 -0.7629904 -0.39792982

conv2.weight f4 [16, 6, 5, 5]
00000000: 61d8 9c3d b2f8 38be 6843 0bbf e871 52bf
00000010: 8dfd 66be 5768 173e db3f e5bd 225d c0be
00000020: e1e1 b6be 7d06 debe bb43 443e 3678 09bf
00000030: 7022 1abf 572c 4abe b31d 353e ca7b 943f
00000040: abee 6f3e 154f 0ebe fa18 54be ea03 413e
00000050: 4f34 5e3f 3a42 8b3e 9ad1 a9be 3f60 e6bd
00000060: 77d4 a13d 469b 6abf a59c d9bd adf1 f13d
00000070: 5ef7 e33d 822e 93be 3a76 003f 6704 083e
00000080: 153e 4bbf fa2b 72bf c0e6 be3d f1b2 b93e
00000090: 5bb0 a33e e535 11be fb9e b73e 349f 963e
000000a0: f28e 493f 250d a53e 332b 07be 7f21 80be
000000b0: fe8e dbbe a32c 2f3e 76d6 8dbf 4461 b2bf
000000c0: 9d16 39bf 4c68 fa3d 554d b0be 942d f1be
000000d0: f772 363e 48df fbbe 3ca2 2f3f d1d8 173f
000000e0: 5879 113e 8be1 9f3e 5ae0 98bd bac3 d8bd
000000f0: b85f 72bd 8c60 6fbf 31e0 babf 5d6b 23be
00000100: b469 093f 8cc0 093f 3759 943e 28c1 06bf
00000110: 3c8b d1bd 50a1 3ebe 1b45 8c3e b946 e1be
00000120: cab7 36be 565c 4bbf d69b 93bf fecb 93be
00000130: 4e79 9cbe 2abc 16be 3288 d5be 4ab8 a83e
00000140: 08c1 77bd 8067 1f3f dd6b 133f 551f 133e
00000150: 94a8 96be 3daf 92bf 72b1 ebbf a049 d9bf
00000160: 22e4 e4bf 4af1 9ebf 2d78 40bb 34a0 a3bd
00000170: c45a 9f3d 4815 163e 809a 0f3f 7a79 9e3e
00000180: 303e 073f b977 923e a105 053f 62fe 603f
00000190: 1430 813c 9a9a dc3e f931 9b3e dbac 8ebc
000001a0: 90c5 013e 7dee 89be 0180 bc3e 7b6c 0d3f
000001b0: 9050 c5be 0cca 38bb 2427 dabf 30cc 63bf
000001c0: d458 dbbf 341d 9abf 571c d8be b057 afbf
000001d0: 7e71 8fbf 4f67 bbbe 3f1a a93e c3a0 803e
000001e0: d8d7 5a3f a225 acbd 125b 3c3e bd82 9cbd
000001f0: cb4a 09bf 5768 64be 487a 8e3e c318 4f3d
00000200: 662a 093e 07ff 28be d20c 523e 49dc 5c3e
00000210: c695 d83d 3219 2e3e 435b 793d 4d0c 833e
00000220: b906 f13e 507e 4a3f 6d6c d13e a97c 0ebd
00000230: 3784 dfbe 1c25 b33e 13fd 99be 697d 9ebf
00000240: 9dab e5be 25ca d4bf aa4c ffbf 3f1d 6ebf
00000250: 9793 c8bc 3f90 5f3e 9ef2 26be 5560 e33c
00000260: 73dc 983e 7fa8 5a3d 9ac2 f23d aeea a0bd
00000270: 7b76 97be d51d ae3b cfbb 803d 72e3 47be
00000280: 0c7d 76bc dfcf a6be 122d 74be 1dbe 64be
00000290: 0f37 33bf b9a3 be3b 0096 f93e c1a5 443f
000002a0: 1a1f 6bbc 5180 a4bf b01c cb3e c236 c03e
000002b0: ea53 8bbf ba4f a6bf f294 4fbf 8fdc 1cbf
000002c0: 4a47 d93d 5a0e 29be 446d c9be 5d97 d53e
000002d0: 51f3 c43d a887 efbd 68f3 93bc b902 743e
000002e0: a589 3bbd 9350 703d 951c 0c3c 191d 8c3e
000002f0: 8999 cebc f4d7 963e f508 083f f8c0 bd3e
00000300: 2478 4fbf 3869 75bf 7e72 bcbe b6d1 133f
00000310: 72e0 353e eb4e d43d 787c d63c 2d84 3bbe
00000320: 89b0 14bf 579e 64bf 74fb 30be a72a 853e
00000330: 6ccd b23e b9de 1a3f 8c60 11be 9ef4 993e
00000340: 5a16 8c3e 6158 2f3f fb95 dabd 84cd 19be
00000350: 7189 a93e ff65 673f c23b 2e3f 6a7f 04bf
00000360: 6dda 1fbb 5297 9dbe 3941 4abf b1a9 e03e
00000370: bba2 db3d 2fa3 b5bf ae71 b1bf fafc e8be
00000380: e07e 5d3e 8dd1 56be e056 d6bc 0fd6 1dbe
00000390: 8587 033f 2f2f d93e 6f53 4fbf 4bc6 25bd
000003a0: 487f 2b3f 28f0 183f fe7a 683f 6d1e 693e
000003b0: 9803 103e 793e 1fbe 6685 9c3d 9f5b 80be
000003c0: 79ca d33e a89e 393f b3d4 773f 8bdb 30bf
000003d0: cd5f c6bf ab66 cd3e 4288 fbbe e63f 53bf
000003e0: 5a76 bbbe 33bc a9be 2f24 1fbe 709f 203e
000003f0: 2f75 1d3d 61bc 82bd a317 4dbf 5059 a93e
0.076584585 -0.1806362 -0.5439973 -0.8220506 -0.2255766 0.14785896 -0.1119382 -0.37571055
-0.35719207 -0.43364325 0.19166462 -0.5369905 -0.602088 -0.19743477 0.1768711 1.1600277
0.23430888 -0.13897355 -0.20712653 0.1884915 0.86798567 0.27198964 -0.33167726 -0.11248826
0.079018526 -0.9164318 -0.10625581 0.11813674 0.11131166 -0.2874642 0.501804 0.1328293
-0.79391605 -0.9459835 0.09321356 0.36269334 0.31970486 -0.14180715 0.3586348 0.29418337
0.7873374 0.3223659 -0.13200073 -0.25025555 -0.42882532 0.17106871 -1.1081073 -1.3935933
-0.7230013 0.12226924 -0.34434 -0.47105086 0.17817293 -0.49193788 0.68606925 0.5931521
0.14206445 0.31226763 -0.07464667 -0.10584207 -0.059173316 -0.93506694 -1.4599668 -0.15958925
0.53676915 0.5380943 0.28974316 -0.52638483 -0.10231635 -0.18616223 0.27396473 -0.4399927
-0.17843547 -0.7943777 -1.1531932 -0.2886657 -0.30561298 -0.14720216 -0.4170547 0.329531
-0.060486823 0.62267303 0.5758646 0.14367421 -0.2942549 -1.1459728 -1.8413527 -1.6975594
-1.7882121 -1.2417386 -0.0029368505 -0.07989541 0.07780984 0.14656556 0.56095123 0.30952054
0.52829266 0.28606966 0.51961714 0.8788816 0.015769996 0.43086702 0.30311564 -0.017416408
0.1267302 -0.26939765 0.3681641 0.55243653 -0.38538027 -0.0028196601 -1.7043195 -0.8898344
-1.7136483 -1.2040162 -0.42209122 -1.3698635 -1.120651 -0.36602256 0.33027837 0.2512265
0.854856 -0.084056154 0.18394116 -0.07642124 -0.5362975 -0.22305427 0.27827668 0.050560724
0.1339508 -0.16503535 0.20512703 0.21568407 0.10575442 0.17001799 0.06087805 0.25595322
0.4707544 0.7909899 0.40903035 -0.034786854 -0.4365556 0.3498925 -0.30075893 -1.2382022
-0.44857493 -1.662419 -1.9945271 -0.93013376 -0.024484439 0.2183237 -0.16303489 0.027755896
0.2985569 0.053383347 0.118535236 -0.078572616 -0.2958258 0.005313615 0.06285822 -0.19520357
-0.015044462 -0.32580468 -0.23845318 -0.22338147 -0.7000589 0.005817857 0.48747253 0.7681542
-0.014350677 -1.2851659 0.39670324 0.37541777 -1.0884984 -1.2993081 -0.8108665 -0.61274046
0.106093004 -0.16509381 -0.39341176 0.41717044 0.096167214 -0.11695796 -0.018060401 0.23829164
-0.045785565 0.05867059 0.008551736 0.2736595 -0.025219696 0.29461634 0.5313867 0.37061286
-0.81042695 -0.95863676 -0.368061 0.5774187 0.177614 0.10366615 0.026182398 -0.1831214
-0.5808187 -0.8930411 -0.17283422 0.26009104 0.3492235 0.604961 -0.14196986 0.3006944
0.27360803 0.6849423 -0.10673138 -0.15019804 0.33112672 0.9039001 0.68059933 -0.5175692
-0.0024391667 -0.3077951 -0.7900577 0.43879464 0.10724398 -1.4190425 -1.3862817 -0.45505506
0.2163043 -0.20978375 -0.026164472 -0.15413688 0.5137866 0.4241881 -0.80986685 -0.04047231
0.6699109 0.5974145 0.9081267 0.22765513 0.14063871 -0.15551175 0.07642631 -0.250699
0.41365412 0.72507715 0.9680893 -0.69084996 -1.5497986 0.40117392 -0.49127394 -0.82519376
-0.36613733 -0.33151397 -0.15541147 0.1568582 0.038441833 -0.06383587 -0.8011419 0.33075953

conv2.bias f4 [16]
00000000: 7ed3 c83d a632 c9be 0909 ecbd c326 803e
00000010: b2ac 84bd ee6a 44be ee5d 14bf 353a 1abf
00000020: d76f 69be 8b0c 493d 47f8 44be 99c2 89be
00000030: 9e55 babe 1c46 b0be f588 773e eaa0 28be
0.09805964 -0.39296454 -0.11525161 0.25029573 -0.064782515 -0.19181415 -0.57955825 -0.60245067
-0.2279657 0.049084228 -0.19235335 -0.2690628 -0.36393446 -0.3442849 0.24173339 -0.16467634

fc1.weight f4 [120, 256]
00000000: 9e02 9fbe d5fd 403e b8ce 8f3e 89d1 c13e
00000010: 80eb 46bd 403d 31bf 2070 503e b462 643f
00000020: 1eb0 f1be cf5b e03e 69ca c9be 83c4 b2bf
00000030: 785d dd3e 3438 2e3f aace 993d 4a51 0fbf
00000040: 7f04 7fbd c3ff 03bb ccc7 c73d 2435 0cbf
00000050: 8ec6 c0be c8c7 b33e a361 9ebb 6757 0b3f
00000060: 1d24 373f 93c3 753e 4462 eb3e 989d 13bf
00000070: a6e2 703f 088d 653f d7d2 c23e 20d2 83bf
00000080: 18e8 5dbe dbaa cd3e 49eb 7bbb daf2 513f
00000090: c323 7cbe 9b5b adbd 977e 00bf 68e1 65be
000000a0: 43f6 0c3d 5b2f 253f 50d4 793e 8cbb 65be
000000b0: a9c9 a6be bab4 27bf 6375 8ebf c728 963e
000000c0: c691 adbe 9b6b 63bd ed56 e8bc 147e c73d
000000d0: 66aa 7b3f af2e d43e e918 d43e e26f 38be
000000e0: c369 dc3e a28b 1cbf 09fd ad3e 65a6 e43e
000000f0: 71c5 1bbf 2b55 ea3e b724 4f3f 3b98 1b3f
00000100: 8f8c dbbe 36e6 26bc 6799 553d 3301 a23e
00000110: 69ea df3e caa8 453e e2bd e6be 683f 06bf
00000120: f523 0bbe 0e46 5cbe 6a08 b03d d393 ff3e
00000130: 5fb1 6dbf 47ff 943e 6755 543f a0bf 603f
00000140: 5733 8fbe 65c0 36bf a0aa 38bf 9245 93be
00000150: c773 2a3e 80f7 d03d f2f7 7f3f bf9c 26bf
00000160: 585d c13e 6c8a 733f 2c43 84be 919d b03e
00000170: 94f0 833e 4a7a 813f 0b5b 1a3f 349c cdbe
00000180: 417f dcbe 2ec6 57be 795b 00bf 37bd 7ebe
00000190: 6853 743d 86c2 b33e f37a fa3e c2a3 62be
000001a0: 3a33 11bf 0490 123f 584e b4bd b3d6 a63d
000001b0: 527f 3bbf d01c f1be 4170 aa3d f151 86bd
000001c0: c52e 2d3f 53c3 8fba b895 9bbe 71a4 34bf
000001d0: 1e94 673e b02f 3c3e 4ff2 91bd 8a1a 013d
000001e0: 2794 1c3f 503f 403f bb8c 613f bbf8 64bc
000001f0: e2ec f03e 901e 593e 654d 0abe 6e07 333f
00000200: 1b53 e03e e373 77be 1536 033f 9b35 b13e
00000210: 6620 0fbe 4336 3c3f 1393 a63d e646 323e
00000220: 0d87 41bf 0ac5 6f3c 3380 bfbe 0e5c dabd
00000230: f328 20bf b4cb 173e cd50 e43e c1a0 473e
00000240: d2d5 94be 9714 1bbe 771f d8be ebc8 9d3e
00000250: c8eb 6ebd cee9 76be 2306 12bd cedf 22bc
00000260: 42ca 113f c298 e3be 2182 2ebf c490 e93e
00000270: dc6f 463f 53e6 9cbe f10d cabf 21a1 b3bd
00000280: 4189 97bd bb4e 92be cac8 23bd acb2 bcbe
00000290: 2427 93bf c7db 0bbf 4b01 d33d 248c 393f
000002a0: ab7b aabe 97b7 ebbe 7ce9 e53e 07d6 763e
000002b0: 6964 e63e b8c8 8f3e 282c 2cbf d295 7dbe
000002c0: fddf adbd 2d24 453f 76c9 113f 7103 abbe
000002d0: a0b8 59bf ada5 c4be 703c 2bbe d046 73be
000002e0: 7fbf 14bf 5026 fe3d e4c4 ac3e c766 62bf
000002f0: e0ff ef3e 3a73 29be 46bb 71bf 1447 22bf
00000300: 2b28 13be 169a 653e bdcb c9be 982e 91be
00000310: 8e2c f13d c7bf abbe aad6 bfbe 6da6 ef3c
00000320: a71b 173e 144c 143e 3ad3 4bbe d8bd dcbe
00000330: fc1d 003f bc72 313e 9aee b4be 4b1a 75bf
00000340: 02f2 95be 13f4 093c 7949 3a3c 706d 19bf
00000350: 069b 863d 79c7 c7bd f897 01be f991 bcbe
00000360: 589c a0bf 456a 5d3e 0fcf e03e 85e3 2fbf
00000370: 70f5 ecbc 24bc d03e 7fab 733e ead3 39bf
00000380: 8d43 c9be 2475 073d 1063 a5bd 3a95 743d
00000390: 66c0 b43e 3aaa cabd bbbe 193e 2ce2 8a3c
000003a0: ac22 7b3e abe8 0ebe 1f91 6a3f d4af 50bd
000003b0: 6489 0abc afe9 043f 0284 963e 6d69 a5be
000003c0: 5fc3 2ebe cf82 a4be 74a9 2fbf 0a1c c8bd
000003d0: 3747 0cbf fde9 153f c823 763f 4542 033f
000003e0: 88e4 c93d f7ef d03d 990f 1e3f df0e 39bf
000003f0: f97f ca3e 7ccd 123f fe78 eabe 68f0 7b3f
-0.31056684 0.18846829 0.280874 0.37855175 -0.048564434 -0.69234085 0.20355272 0.8921311
-0.4720468 0.43820044 -0.3941224 -1.3966221 0.43235373 0.6805451 0.07510121 -0.5598341
-0.062260147 -0.002014146 0.09754905 -0.54768586 -0.37651485 0.35113358 -0.0048334165 0.5443024
0.7153948 0.24000387 0.45973408 -0.57662344 0.9409584 0.8966832 0.38051483 -1.02985
-0.21670568 0.40169415 -0.0038439801 0.8201119 -0.24623017 -0.08464738 -0.5019316 -0.22449267
0.03441454 0.64525384 0.24397397 -0.22434825 -0.3257573 -0.6551014 -1.1129574 0.29327986
-0.3390028 -0.055522542 -0.028361762 0.09740844 0.9830688 0.41441867 0.41425255 -0.1801143
0.4304944 -0.6115056 0.33982113 0.446582 -0.60848147 0.45768103 0.809154 0.6077916
-0.42880675 -0.0101867225 0.05214825 0.3164154 0.43733528 0.19302669 -0.45066744 -0.524405
-0.13587935 -0.21511099 0.08595355 0.49917468 -0.9284877 0.2910101 0.82942814 0.87792397
-0.27968857 -0.7138732 -0.72135353 -0.28764015 0.16645728 0.10203457 0.9998771 -0.65082926
0.37766528 0.9513309 -0.25832498 0.34495214 0.25769484 1.0115445 0.6029517 -0.40158236
-0.43065837 -0.21071693 -0.50139576 -0.24876867 0.059649855 0.35109347 0.48921928 -0.22132781
-0.5671879 0.57251 -0.088040054 0.081464194 -0.7324115 -0.47092295 0.08322192 -0.06558598
0.6764949 -0.0010968245 -0.30387664 -0.7056342 0.22615096 0.18377566 -0.07126295 0.03151945
0.6116356 0.7509661 0.8810536 -0.013975318 0.47055727 0.21203065 -0.13506086 0.6993321
0.43813404 -0.24165301 0.512544 0.3461121 -0.13977203 0.73520297 0.08133521 0.17409858
-0.75596696 0.01463438 -0.37402496 -0.10662089 -0.62562484 0.148238 0.44592896 0.19494916
-0.29069382 -0.15144573 -0.42211506 0.3081735 -0.058330327 -0.24112627 -0.035650384 -0.0099410545
0.56949246 -0.44452482 -0.6816731 0.4561826 0.77514434 -0.30644473 -1.5785505 -0.08770967
-0.07399226 -0.28575692 -0.03998641 -0.36855066 -1.149632 -0.5463223 0.10302981 0.7247946
-0.33297476 -0.46038505 0.44904697 0.24105082 0.44998482 0.28082824 -0.6725488 -0.24764183
-0.08489988 0.77008325 0.5694803 -0.33401063 -0.8504734 -0.3840765 -0.16722274 -0.23757482
-0.581047 0.12409651 0.33743966 -0.88438076 0.46874905 -0.16547862 -0.9442638 -0.63389707
-0.14370792 0.2242206 -0.39413252 -0.2835586 0.11776076 -0.33544752 -0.37468463 0.029254163
0.14756642 0.14482147 -0.19904795 -0.4311359 0.5004575 0.17328924 -0.3533829 -0.95743245
-0.292862 0.008420008 0.011370056 -0.59932613 0.06572537 -0.09754843 -0.12655628 -0.36830118
-1.2547712 0.2162257 0.43907973 -0.6870654 -0.028925627 0.4076854 0.2379589 -0.7258898
-0.3930935 0.0330707 -0.08075535 0.059712626 0.35303038 -0.098957494 0.15014164 0.01695355
0.24524945 -0.13955943 0.9162769 -0.050948933 -0.008455608 0.5191907 0.2939759 -0.32306996
-0.17066716 -0.3213105 -0.6861794 -0.09770973 -0.54796165 0.5856016 0.9614835 0.51272994
0.09858042 0.1020202 0.6174255 -0.72288316 0.3955076 0.57344794 -0.45795435 0.98413706

fc1.bias f4 [120]
00000000: 116a b1be 313c b7bf 749d 4d3e cb58 b1be
00000010: a35d dfbe 5f29 34be 861a a3be 9bd1 46be
00000020: 47e1 aabf 45f4 64bf a2f1 8cbe 81ef d6bc
00000030: 852a 0fbd 8cdf 8ebf 1e84 07bf 68b1 cabe
00000040: 145f babf 6b66 15be 2bd7 c33d cf7b aebd
00000050: 3752 fa3e 12fe cb3b 2b48 c4bd c405 4abe
00000060: ee6c a23e 5e8c d6be 67d5 0ebf e7c3 1cbf
00000070: b34b 53bf 1876 a23d 4470 00bc c912 cf3c
00000080: 2582 2bbd 2140 4ebe 34cd 7abf 6174 4abd
00000090: 92b6 6bbe e082 11bd cb67 5e3e a261 193d
000000a0: efdc ef3c 1c23 37bc 98e8 e53d dca0 433e
000000b0: 60e1 a4bd 9937 4ebe a4c3 c4bd b3fc f5bd
000000c0: f63b 0abf 409e 20bf 5143 5bbf d35e 23bf
000000d0: da23 62be 4d41 813c 22dc 2b3e 50a7 4bbd
000000e0: 7b0c aabe 3661 aebd 85fe 03bf 191b 10be
000000f0: 868f 293d 783f 40bf 63a2 c8bd efb4 d2be
00000100: fef8 2ebf 2dfb cabd f2f6 b2bd 2fcc ddbe
00000110: f1c7 f8be 24f2 263d da0b 75bc a503 14bf
00000120: cfed cdbe aa2a c2be a8cf adbd 6dae 08bf
00000130: c674 0fbf 22ad 87be d802 b7bf d5b9 76bd
00000140: b88d 2cbd 9166 4ebf 6e39 ebbd 58eb 24bf
00000150: 498f c8bd f81b fcbe 3938 b7be 7eb2 4fbe
00000160: 2515 7b3e d9de 02bd 6fe8 7fbf a2df 9dbd
00000170: d4ee 47be e8ea 58bd f68e 25be 5582 b9be
00000180: f8fa cbbd f8f6 86be ab03 b4be 8329 793d
00000190: 7124 abbd 1709 5bbd 9274 88be 2ebd 28be
000001a0: f2db c5be df6c 95bd 1255 a8bd a829 13bf
000001b0: 943e 97bd 2193 9d3c c214 60bd 2cea 4fbc
000001c0: fdb7 b93e 8e99 4bbf 5d5c 713d f40f 8ebf
000001d0: b24a 6f3d 3ef1 38bf faf6 edbd cfd1 20bf
-0.34651235 -1.4315244 0.20079595 -0.34638056 -0.43626127 -0.17593907 -0.31856173 -0.19415896
-1.3349999 -0.89435226 -0.275281 -0.026237251 -0.03495266 -1.1161971 -0.5293597 -0.39588475
-1.4560266 -0.1458985 0.095625244 -0.08519708 0.4889085 0.006225356 -0.095840774 -0.19728762
0.31723732 -0.41903967 -0.55794376 -0.61236423 -0.8253738 0.07932681 -0.007839266 0.025277512
-0.041872162 -0.2014165 -0.97969365 -0.049427394 -0.23018864 -0.035525203 0.21719281 0.037446626
0.029280154 -0.011177804 0.11226004 0.19104332 -0.08050799 -0.20138396 -0.09607628 -0.12011089
-0.53997743 -0.6274147 -0.8564959 -0.63816565 -0.22083989 0.015778208 0.16783193 -0.04972011
-0.33212647 -0.08514635 -0.5156024 -0.14072837 0.04139664 -0.75096846 -0.09796598 -0.41153666
-0.6834868 -0.09911189 -0.08738507 -0.43319842 -0.48590043 0.040758267 -0.014956439 -0.5781806
-0.40220496 -0.37923175 -0.08486873 -0.5339115 -0.5603756 -0.26499277 -1.4297743 -0.060235817
-0.04212734 -0.80625254 -0.11485563 -0.64421606 -0.097929545 -0.49240088 -0.35785082 -0.20282933
0.24519785 -0.031950805 -0.9996404 -0.0770867 -0.195247 -0.0529584 -0.16167817 -0.36232248
-0.09959978 -0.26360297 -0.35159048 0.060830604 -0.0835656 -0.053475466 -0.26651436 -0.16478416
-0.38644367 -0.07296156 -0.08219351 -0.5748544 -0.07384983 0.019235196 -0.054707296 -0.012690108
0.36273184 -0.7953118 0.058925975 -1.1098619 0.058420844 -0.72243106 -0.11619373 -0.6282014

fc2.weight f4 [84, 120]
00000000: d83e 473c 1845 2b3f 7f45 dbbe 44db 9dbe
00000010: 6901 a23e 41ff 94be 1f06 9f3e 22ad 1dbf
00000020: 6750 173f c955 8a3f 60bc d23e 5490 29bd
00000030: 68d8 ba3d 55cc f93e 5530 cc3d d997 1a3e
00000040: 3b2f 8bbc 1e31 5c3e d128 62be 0fda 083d
00000050: 35f3 e5be cd00 28be 5ffa 993e c882 1f3c
00000060: f4b9 a63d f15d e13e c958 3c3f 9649 86bf
00000070: 94f8 ee3e 924f df3c ffe3 04bd 0a37 d7be
00000080: 1c32 913e 98ef 91be 84aa 753c 8069 37bd
00000090: a476 8e3e be4b 633c 8ba2 abbd e54c f9bd
000000a0: 469f 5b3d 1bb2 603d 913f 88bf 8605 75bd
000000b0: ad21 8d3c a160 1fbf e4d7 4fbc a4a9 ab3c
000000c0: a3c1 85be 1d0e 68bd d989 cd3d 33ea 843e
000000d0: 0544 6bbf cba9 cdbd 9149 7bbf cfbf 62bd
000000e0: 7f95 713e af0b 07bd 3332 0abe f150 9ebe
000000f0: 35b2 f1bd 10f7 fc3d d726 5c3e e5d7 38bf
00000100: 9b79 903e 0179 99bb f296 4ebd 75e8 a23d
00000110: bd0a 2cbe 6d58 743e 8fd9 61bf e804 2abe
00000120: c6e2 0e3f 8d8c 1ebf ce99 a9be 5106 febd
00000130: 75c7 eb3b 6684 88bf d278 7d3e 9bc0 82bd
00000140: f7ff b2be e698 cebe 66ab 2cbe 3f62 543e
00000150: 4290 b33c a3ed 2ebf a1a0 81bd dc5b a93d
00000160: 758c cabe f437 0e3d b758 073e 695f 35bd
00000170: 5c9a 933e 77b8 d93d 55e8 053d 68e5 b9be
00000180: b7bc 773b a4f1 0b3f 935b d83e 4fb9 593d
00000190: ae82 123b 875c 22bb 7779 24bf ba32 543c
000001a0: 5b9d e03e 747f 1b3d 71f3 b4bd 3363 20be
000001b0: a41a 1c3d 2bfc 8ebd 1952 5dbd 3a94 95bb
000001c0: f6d8 c5be 9668 b9bd 2fd4 803d f611 da3e
000001d0: 52c0 283f 7c4a 4e3f 620f fe3e 723a 56be
000001e0: 9a27 8b3e e982 013f 87e1 bebe fdfa a43e
000001f0: bf37 9e3d 6fa6 d9bd f3f5 703d d52e 92be
00000200: 6502 053e d4b2 c13e aba8 1d3e 1ff2 b0bd
00000210: 6d60 ba3b 3df5 90be 2842 d8bc e5de b83e
00000220: 0e3a 6abd 2ea7 d03e 5eb5 9a3d 33e7 843c
00000230: a02e 4abf cc50 8bbf 90fd 14bf b2f6 33be
00000240: 3fc9 743e c7af 9e3e 785e 4d3e 7207 fbbd
00000250: 5e06 2ebd 1d8c a43d d2a0 0ebd 82d8 c63e
00000260: 5ab9 743e 5c9c 5cbe 46a8 183e 6768 88bd
00000270: b347 9f3e 8e00 b2bd 6f4f f4be 86e3 023f
00000280: 204e eabd 52e4 47bf ca6c 24be 272f 24bd
00000290: b194 4bbc 1ff3 573e cf5f 3a3d dfb7 873d
000002a0: 95f0 7f3e 60e3 06bf fd66 003f 1cb0 72bd
000002b0: ff18 c23d a1fe 34be 1f80 5abe 330f 8dbc
000002c0: 5baf 143e 46f9 8cbd c833 db3e e103 e6bd
000002d0: e024 50be e7a4 a63d b5ca b23e 9da2 f3bd
000002e0: 0728 9abe 041a 90bd 3c8a 753b c659 9fbc
000002f0: e527 2abd 9c53 d9be 812f 823d fc6f 10bf
00000300: 40f4 13be fe9b a43e 94a8 01bc ea10 4f3e
00000310: 942b d03e b8d9 613d 9f64 8b3e 0b7a 0abd
00000320: 35ac fc3d aa31 07bd 366f 58bf 7fe9 863f
00000330: eadd 433d 257d 133f 778a b63d a304 3d3e
00000340: e665 31bf 1b93 e3bd 9018 0e3e f133 813d
00000350: fb11 43bf 5297 193d ff61 efbe 2b31 61bf
00000360: 6dea 9a3c 1d5d 0c3e 8906 a93e 1904 41bf
00000370: a178 71be 1aeb 963d f1bd a1bf d164 21be
00000380: 92d0 77bd 4854 7bbd ed9f 3ebd e437 a83e
00000390: 4cfe b0bd fc10 8fbd d944 99bd a6f4 8abe
000003a0: 0d2a f3be f641 96be fcfa 5e3e 04d8 323e
000003b0: af8f 583e c981 b1be 2992 083c 616b 3cbf
000003c0: 45fa a1bd 69b2 0d3e 7350 3cbe 1d4d 843e
000003d0: e5d4 5f3e df13 98bd 3088 393d 39a1 fb3c
000003e0: 8acd 453f 362f 2d3d 0928 1fbe 707f e4bd
000003f0: 68ee acbd 911c dc3d f19a 603d e128 093d
0.012160979 0.66902304 -0.4282646 -0.3083135 0.316417 -0.29100993 0.31059358 -0.61592305
0.5910706 1.080743 0.41159344 -0.041397408 0.091233075 0.48788705 0.09970156 0.15096988
-0.016990295 0.21503112 -0.22085883 0.033411082 -0.44912115 -0.16406555 0.3007383 0.0097357705
0.081409365 0.44016984 0.73572975 -1.0491207 0.46674025 0.027259622 -0.032443997 -0.4203418
0.28358543 -0.28503108 0.014994267 -0.044778347 0.2782489 0.013873039 -0.08380612 -0.121728696
0.05361869 0.054857355 -1.0644399 -0.05981972 0.017227972 -0.6225682 -0.01268575 0.020954914
-0.26124296 -0.056654084 0.10036058 0.2595993 -0.91900665 -0.10042151 -0.9815913 -0.055358704
0.23592184 -0.032970127 -0.13495712 -0.30921128 -0.118015684 0.12351811 0.21499191 -0.7220443
0.28217778 -0.0046836142 -0.05043692 0.07954494 -0.16800971 0.23861857 -0.88222593 -0.16603434
0.5581478 -0.61933213 -0.33125156 -0.124035485 0.007195408 -1.0665405 0.2475312 -0.06384393
-0.3496091 -0.40351027 -0.16862258 0.20740603 0.021919373 -0.68331355 -0.06329466 0.08269474
-0.39560285 0.03472133 0.13217436 -0.044280443 0.28828704 0.10630887 0.032692272 -0.36307836
0.0037801692 0.5466559 0.42257366 0.05315524 0.0022355723 -0.002477439 -0.6424784 0.012951547
0.43870053 0.037963346 -0.08835495 -0.15662841 0.038111344 -0.06981691 -0.054033373 -0.004564789
-0.3864209 -0.09053151 0.06290471 0.42591828 0.6591846 0.80582404 0.4962111 -0.20920733
0.2717865 0.5059038 -0.3728144 0.3222274 0.077254765 -0.10627448 0.058828305 -0.28551355
0.12989195 0.37831748 0.15396373 -0.08639931 0.0056877644 -0.28312102 -0.026398733 0.36107555
-0.05718427 0.40752548 0.07554124 0.016223526 -0.78977394 -1.0884032 -0.58199406 -0.17574576
0.23904894 0.30993482 0.20055568 -0.122572795 -0.04248654 0.08034537 -0.03482134 0.38837057
0.23898831 -0.21544021 0.14907941 -0.06660538 0.3110939 -0.08691512 -0.47716853 0.51128423
-0.114406824 -0.78082764 -0.16057125 -0.04008403 -0.0124255875 0.21088837 0.045501526 0.066268675
0.24994119 -0.52690697 0.5015715 -0.059249982 0.09477424 -0.17675258 -0.21337937 -0.017219162
0.14520018 -0.06883483 0.42812943 -0.112312086 -0.20326567 0.081369214 0.34920278 -0.118962504
-0.30108663 -0.07036212 0.0037466427 -0.019451987 -0.041541953 -0.424466 0.06356717 -0.56420875
-0.14448643 0.32150263 -0.007913727 0.20221296 0.40658247 0.055139273 0.27225205 -0.033807795
0.123375334 -0.033006348 -0.84544694 1.0540007 0.047819056 0.5761283 0.08913129 0.184588
-0.6929611 -0.111120425 0.13876557 0.06308735 -0.7619931 0.037497826 -0.46754453 -0.8796565
0.018910611 0.13707395 0.33012798 -0.7539688 -0.23581173 0.07369061 -1.263609 -0.15761115
-0.060501643 -0.061359674 -0.046539236 0.3285514 -0.08642253 -0.069856614 -0.07483835 -0.27139777
-0.4749302 -0.293472 0.2177543 0.17465216 0.21148561 -0.3466933 0.008335629 -0.7360135
-0.07909063 0.1383759 -0.18390064 0.25840083 0.21858557 -0.07425665 0.045295894 0.030716525
0.7726675 0.042281352 -0.15542616 -0.11157119 -0.0844391 0.10747636 0.054835264 0.03348625

fc2.bias f4 [84]
00000000: 498e efbe 05ed 11bf 6e67 dcbd b7b8 7ebf
00000010: 4aa9 01bf 85ed 1cbf de05 10bf e99a ddbe
00000020: fba4 70bf 6b03 15bf 0c8e 64be 24c7 35bf
00000030: 66ce e9be c9bf 08bf 6282 e53c d6cd 31be
00000040: 87e7 71bf 05f5 9cbe 126c 8dbf 86aa 03bf
00000050: 5a87 05bf cf8e 0bbf 6482 aabf 882a 48bf
00000060: b6ed 53bf 29df a6bf 361c 06be 037d 58bf
00000070: a513 53bf 9870 20bf 244a 49bf c0ee 33bf
00000080: d3b5 96bd 8333 99be 4241 81bf 7f9b babe
00000090: 82bd a2be 5b9a a3bf f8ed 3dbf 91cd 29bf
000000a0: 5169 5dbf f7f9 48bf b46a 35bf 05ef 36bf
000000b0: 58a6 86bf 370d 93bf 126f d1be 53c1 30bf
000000c0: 2906 82bf caa7 92bf bf7e 0bbf c7bd 8ebf
000000d0: 1a73 c7be 53a4 c9be 010e 62bf 5e24 98be
000000e0: 85f7 f0be ed23 8abf 2a89 84bf 7e0e 0dbf
000000f0: de05 49bf 6cf1 1fbe 5502 81bf 7169 86be
00000100: 0c04 83bf 62d4 46bf 13d8 cabe 1329 be3d
00000110: 8b76 16bf 5fb9 8fbf 7c4b 48bf 5195 84bf
00000120: a3b2 34bf 849d 9cbc 974c 52bf 59a8 58bf
00000130: 9cdf 10bf 1ac6 e4be a564 07bf d2af 61bf
00000140: b145 4fbf 0cd4 08bf 8338 f0be b911 e2bd
-0.46788242 -0.5700229 -0.10761915 -0.995006 -0.5064894 -0.61299926 -0.5625895 -0.4328225
-0.9400174 -0.5820834 -0.22319812 -0.7100699 -0.45665282 -0.5341764 0.028016273 -0.17363676
-0.9449391 -0.30655685 -1.1048605 -0.51432073 -0.52159655 -0.54514784 -1.3321042 -0.781899
-0.82784593 -1.3036853 -0.13096699 -0.8456575 -0.8245185 -0.62671804 -0.78628755 -0.7028618
-0.07358899 -0.29922113 -1.009804 -0.3644676 -0.31785208 -1.278148 -0.74191236 -0.66329294
-0.86488825 -0.78506416 -0.7086594 -0.71458465 -1.0519514 -1.1488408 -0.40905052 -0.6904499
-1.015813 -1.1457455 -0.54490274 -1.1151665 -0.38955003 -0.39383182 -0.8830262 -0.29715246
-0.47063842 -1.0792214 -1.0354359 -0.5510024 -0.7852458 -0.15619439 -1.0078837 -0.2625232
-1.023561 -0.7766782 -0.39617977 0.09285178 -0.5877463 -1.1228446 -0.7824018 -1.0358068
-0.7058508 -0.019118078 -0.82148117 -0.8463188 -0.565912 -0.4468239 -0.52887946 -0.88158906
-0.80965716 -0.5344856 -0.46918115 -0.110385366

fc3.weight f4 [10, 84]
00000000: a1ea 05c0 2555 abbf dace e4bf aab4 23bf
00000010: 5499 a6bf 4c51 02bf 8288 88bf 74c8 4fbf
00000020: 40c1 82be fc2f 15bf 5215 05be 38f9 dcbf
00000030: 3be6 18bc 507c 84bf e14d bcbf 9a71 9fbf
00000040: 3dc3 ecbe 199a 263e 9ed9 f0be 67ae 64bf
00000050: 9c6e 7abf c9b9 00bc 1c0a bebe 894d 8cbe
00000060: 98e4 62be 66fb 73bf ba3f 84be 6195 6ebf
00000070: f70f dcbe 4a9a a2be 8075 c1bf 7f03 28be
00000080: 4cff d9bd 5531 36bf 0cc9 b9be c431 9fbe
00000090: 472b 46bf 0f02 51be fc67 77be a75c 71bf
000000a0: 4d26 58be 589d 73bf 5b22 d1be 4633 64bd
000000b0: 8b3b 66bf d208 93bd 95eb 68be 4e51 94bf
000000c0: dd97 53bf 46b7 cebd ae3a 72bf 12df dd3d
000000d0: f479 fa3d 2c6b d3bf 7d4c 81bf f6a1 9ebf
000000e0: b68b 16bf 9e84 1fbe ac09 c9be 2031 07bf
000000f0: c3dd 02bf 5787 22c0 068c 36be 4d8a 98bf
00000100: f644 8fbe 26a6 3dbf 9c6c 1bbe b662 53bf
00000110: faaa 22bf 810b 76bf 3394 07bf f768 90bc
00000120: 8c01 fabe f60e 7fbf 1708 20bf e4b2 11bf
00000130: f94c 88bf 0397 78bf d232 fd3d 0504 063e
00000140: 57e1 66bf c272 63bf 3f6d dcbe 5b35 77bf
00000150: 1fad 4ebe 61fb 18bf 6691 8dbf 90f0 cdbb
00000160: 30c6 abbf c4d3 a8bf 5df7 d8bf 8d6a 8bbe
00000170: 61ae b7bf b2cc 7cbe 1b85 99bf cdb4 9bbe
00000180: 584d 1cbf 80a4 b3be e9b9 24bf 1fba b1bf
00000190: bd19 45bf eea2 e8bf f555 c8bf 9994 dfbf
000001a0: 1ddf 77bf fd73 b0bf 60ab 27be 5f5d 1cc0
000001b0: d56d 05bf 27b9 b9bd ed75 b6bf 3766 25bf
000001c0: 2410 aabf 7075 72bf 9774 ccbe 05f5 1fbe
000001d0: 405d 3d3c 8461 01bf 2a37 9ebe df34 93be
000001e0: 0bfb 65bf 2d50 6abe acff 2bbf 724b bbbe
000001f0: 02cf b9bd 7796 99bf f170 e0bc 3a93 b4bf
00000200: 17bf 83bf 7919 cebe 6c0a 5bbf 2e6d 043e
00000210: 359d 9dbe 1045 adbe 82ea 63bf af63 b3bf
00000220: 2d1f 2fc0 0821 23be e6a8 ffbe 9da7 68bf
00000230: 0445 4ebf 9ec6 3dbf 1154 b0bf 14e1 d8bf
00000240: 833b 4dbf 5446 88bf 348d acbf 1d47 593d
00000250: 131e 93bf 94ea b1bf 0ded 643e e462 b3bf
00000260: 2082 84bf ef86 15be f464 7cbf 0bb9 febe
00000270: 6936 49bf 59e8 3e3d 6067 55be 0be5 e5bd
00000280: 30fc 2d3d ef85 e7bd d15a 51bc 3ce2 c63c
00000290: cec7 72be 9faa 87bd 1de8 b4bc fe2d b6bf
000002a0: c760 1dbd 8053 30bf acfd abbe a365 fabe
000002b0: b391 87bf d789 18bf 2e2f cbbe f5b4 4ebe
000002c0: b8e2 25bf c49a bb3d 5d6b 90be 64b2 eebf
000002d0: e4de edbd bd92 abbe 76ac 87bd 592d d2bd
000002e0: bd0b 2c3e 5c6a 37bf 29dd cc3c 81bb 8bbf
000002f0: c9fb babe adac bebd cc65 93bf 696a a8be
00000300: d08d 18bf 7d44 f43b fb48 deba c9ee 00bf
00000310: ecbc 50bf 0b01 773d 3ba4 84bf ef9a 4abf
00000320: 33e3 03be df44 3cbf d177 84bf 541a 33bf
00000330: 0805 52be c184 dabe 234a 1dbf 77e5 ccbe
00000340: ca39 debe 79fe 25be 26eb 14be cec2 83bf
00000350: fb1a 9bbe 662a c8be 6299 58bf 89ed a5be
00000360: 9588 a8bf f364 6cbf b168 d4bf 655b 3ebf
00000370: d1cc 83bf b230 f6be 456c 82bd 1aa0 c1bf
00000380: c4d0 723d 199d 5cbf 6bf6 0dbe aae6 febf
00000390: e095 313c 8426 89bf f235 31bf 8848 98bf
000003a0: d18e c8be 8175 a0bf bbf5 99bf 487d c3be
000003b0: 51ff 73bf 820c 95be 3f8d 21be c1e8 883d
000003c0: 084e 63bf 407f aebf 0995 29bf 338f 3dbd
000003d0: c4db 8abe 6237 3fbd 5090 16be 4e77 ab3d
000003e0: 5370 89bf ba90 93be b4ca d3bd aaa8 83bf
000003f0: 9064 313e 17cd b9bd f45c adbe 2218 b23d
-2.0924456 -1.3385359 -1.7875626 -0.63947546 -1.3015542 -0.509053 -1.0666659 -0.8116524
-0.25538063 -0.58276343 -0.12996414 -1.7263556 -0.009332235 -1.0350437 -1.4711267 -1.2456543
-0.46242705 0.16269721 -0.4704103 -0.89328617 -0.97825027 -0.007856795 -0.37117088 -0.27402905
-0.22157514 -0.9530548 -0.2582987 -0.93196684 -0.4298093 -0.31758338 -1.5113983 -0.16407584
-0.10644397 -0.71169025 -0.362862 -0.31092656 -0.77409786 -0.20410942 -0.2416076 -0.94282
-0.2110836 -0.9516196 -0.40846524 -0.05571296 -0.89934605 -0.07179417 -0.22746117 -1.1587312
-0.826536 -0.100935504 -0.9462079 0.10833563 0.12230292 -1.6517081 -1.0101467 -1.2393177
-0.5880693 -0.15577933 -0.39265192 -0.52809334 -0.5111963 -2.5395105 -0.17826852 -1.1917206
-0.279823 -0.7408165 -0.1517815 -0.82572496 -0.6354214 -0.96111304 -0.5296051 -0.017628176
-0.48829305 -0.99632204 -0.62512344 -0.5691359 -1.064849 -0.97105426 0.12363209 0.13087471
-0.9018759 -0.8884698 -0.43052098 -0.9656579 -0.20183228 -0.59758574 -1.1059997 -0.006284781
-1.3419857 -1.3189626 -1.6950489 -0.2722973 -1.4350091 -0.2468746 -1.1993746 -0.30411378
-0.6105552 -0.3508644 -0.64346176 -1.3884925 -0.769924 -1.8174722 -1.5651232 -1.7467223
-0.9682482 -1.3785397 -0.16373968 -2.443199 -0.52120715 -0.09068518 -1.4254738 -0.6460909
-1.3286176 -0.94710445 -0.399327 -0.15620811 0.011557877 -0.5053942 -0.30901462 -0.28751275
-0.89836186 -0.22882147 -0.67187 -0.36580998 -0.09072687 -1.1999043 -0.027397605 -1.410743
-1.0292691 -0.4025381 -0.8556278 0.12932274 -0.30784002 -0.33841753 -0.89029706 -1.4014796
-2.7362778 -0.15930569 -0.49933547 -0.9088076 -0.8057406 -0.7413119 -1.3775655 -1.6943688
-0.8016893 -1.0646462 -1.3480592 0.053046335 -1.1493553 -1.3899713 0.22356053 -1.4014554
-1.0352211 -0.14602254 -0.9859154 -0.49750552 -0.7859865 0.046608303 -0.20840216 -0.11225327
0.042476833 -0.11304843 -0.012778 0.024277799 -0.23709032 -0.0662434 -0.022083336 -1.4232786
-0.038422372 -0.6887741 -0.33591974 -0.48905668 -1.0591339 -0.59585327 -0.39684433 -0.20186217
-0.6479907 0.091603786 -0.28206912 -1.864819 -0.11614779 -0.3351039 -0.06624691 -0.10262556
0.16801353 -0.71646667 0.025007801 -1.0916597 -0.36520222 -0.09310279 -1.1515441 -0.32893685
-0.5959139 0.0074544535 -0.0016959006 -0.5036436 -0.8153827 0.06030373 -1.0362619 -0.7914266
-0.12879638 -0.7354259 -1.0349065 -0.6996205 -0.20509732 -0.42679408 -0.6144125 -0.40018818
-0.43403465 -0.16210355 -0.14542827 -1.0293825 -0.30294022 -0.39094847 -0.84609044 -0.32407787
-1.3166682 -0.92341536 -1.6594449 -0.74358207 -1.029688 -0.48084027 -0.06368307 -1.5126984
0.059281126 -0.8617721 -0.13863532 -1.9914143 0.010838956 -1.0714879 -0.6922294 -1.1897135
-0.3917146 -1.2535859 -1.2028116 -0.3818152 -0.95311457 -0.29111105 -0.15776537 0.06685019
-0.8879094 -1.3632584 -0.66243035 -0.046279144 -0.27120793 -0.046683677 -0.14703488 0.08372365
-1.0737404 -0.28821355 -0.10341397 -1.0285847 0.17323518 -0.09072321 -0.3385998 0.08696009

fc3.bias f4 [10]
00000000: 52f2 eabe fc94 55be 73f5 5ebe 6f55 a4bd
00000010: 5805 0abe c4e8 e9be 8765 cabe 3c12 5fbe
00000020: bd31 113f d4d3 0cbd
-0.45888 -0.20857614 -0.21773319 -0.08024108 -0.13478601 -0.456854 -0.39530584 -0.217843
0.5671652 -0.034381703
