mnist/saved_models/model_epoch_13.pth (torch, 181338 bytes, 10 tensors)

conv1.weight f4 [6, 1, 5, 5]
000000 b4 24 4b be 75 7b f8 3c 4c 81 d0 bc 5e fa a1 3e
       -0.1983822 0.030332306 -0.025452279 0.31636328
000010 1a 2e cb 3d 4f 66 9c 3e 78 7d d6 3e 42 36 5b 3e
       0.099209026 0.30546805 0.418926 0.21407416
000020 e5 8b f3 3d 5c c0 93 3e 28 f1 7c 3e 5b 6f 0c 3e
       0.11891917 0.28857696 0.24701369 0.13714354
000030 3e 6a 16 be c0 65 14 be fb 96 8d bd ae 7e de bd
       -0.14688966 -0.1449194 -0.06913563 -0.10864006
000040 e0 23 a4 be 6d ba 9d be c5 cc b0 be d8 50 57 be
       -0.3205862 -0.30806294 -0.34531227 -0.21026933
000050 ab d1 14 be 0b 09 e4 bd 1b 82 9a bd 30 87 69 3e
       -0.14533107 -0.11134537 -0.07544347 0.22805476
000060 56 aa 65 bd 28 3a a4 be 49 31 14 3e e3 a3 bf 3e
       -0.056070648 -0.3207562 0.14471926 0.37429723
000070 43 f1 41 be 0a e3 2b be a9 93 a0 be 4c 44 08 3d
       -0.1893969 -0.16785827 -0.31362656 0.033268258
000080 05 99 e1 3e 4d a8 7b 3d 0c d9 b9 3d f7 76 73 be
       0.44062057 0.0614398 0.090746015 -0.2377585
000090 a3 25 4e be e2 74 b5 3e e1 3d 86 3e 02 72 fc 3c
       -0.20131545 0.35440737 0.26219085 0.030816082
0000a0 e5 76 96 bd 06 94 d6 be b7 bc 91 bd ac a4 5d be
       -0.07346896 -0.41909808 -0.071160726 -0.21644849
0000b0 a2 d1 83 bd 10 3d 7f 3e 5e 61 0d bd af 7a 31 3e
       -0.06436469 0.24925637 -0.034516685 0.17331956
0000c0 af 26 96 3d fe 14 dd 3d 2f 9d 7d bc e0 2a e9 bd
       0.07331597 0.107950196 -0.01547937 -0.11385131
0000d0 ff 56 1d be 70 6d c5 bd db c8 d3 be 4e 0f b3 bd
       -0.15365218 -0.09640014 -0.41364178 -0.087431535
0000e0 0a 1b c0 bc 5c 1b 90 3e 07 0f f4 3e 6a a2 6f bc
       -0.023450393 0.28145874 0.47667715 -0.014626125
0000f0 b5 21 7f 3e 40 34 28 3e f6 cc df 3e ca 87 1b 3f
       0.24915202 0.16426182 0.4371106 0.6075407
000100 1b 2c ca bd b8 ab d2 bd d0 da df be 91 1d c4 bd
       -0.09871694 -0.10286659 -0.43721628 -0.09575952
000110 8e ae cd 3e e5 a6 ec 3d 3a 2a 88 3c 8f a0 a4 be
       0.40172237 0.1155527 0.016621698 -0.32153746
000120 0a de 0c bf cf a8 0e bd ba cf 7c 3e fa 69 c7 bc
       -0.55026305 -0.034828957 0.24688616 -0.024342526
000130 f8 da c2 3d fa 92 83 bd f6 11 21 3d 64 9f ac 3d
       0.09514421 -0.06424518 0.03932377 0.08428839
000140 e2 5d 81 3d 52 bb 0e 3d e0 53 03 be b5 80 24 3e
       0.06316735 0.03484661 -0.12824965 0.16064723
000150 7b aa 82 3e db bd 8b 3d b8 ec 9c bd 11 4e a6 be
       0.2552069 0.068233214 -0.07662338 -0.32481435
000160 b3 7f 1c be 91 ce 7d 3e e0 58 61 bd e8 21 02 be
       -0.15283088 0.2478583 -0.0550164 -0.12708247
000170 0e 46 81 be 7f 48 be 3e 42 fc e2 3e 0a 4b 02 be
       -0.2524876 0.37164685 0.44333082 -0.12723938
000180 85 ed 7b bc 44 ed cc 3d 8a 01 d4 3d 19 6f 13 3e
       -0.015376453 0.10006192 0.10351856 0.14397849
000190 7b 23 31 3d 69 43 5a 3d a1 ef b3 3e db 2a 6b 3c
       0.043246727 0.053286944 0.3514376 0.014353479
0001a0 b9 80 b2 3e 0a 8d 34 3d 62 4b 2a be f1 66 c9 bd
       0.34863833 0.044079818 -0.16630319 -0.09834088
0001b0 eb f9 09 bd 25 33 16 3e 7b 09 01 be 63 e3 ac be
       -0.033685606 0.14667948 -0.12601273 -0.33767232
0001c0 b4 f2 88 be f9 2b d1 be 67 07 c4 bd e4 86 4b 3e
       -0.26747668 -0.4085386 -0.095717244 0.19875675
0001d0 0d 62 44 be 9e 4f da be 46 59 95 be aa 6f bb 3c
       -0.19178028 -0.42638868 -0.29169673 0.022880394
0001e0 87 53 86 3e 82 c2 bc 3e b8 90 94 3e b6 e0 be 3e
       0.262356 0.36867148 0.29016662 0.37280816
0001f0 a0 fb 52 3e 4d 95 34 3d 5f 91 2f 3e de 44 79 bb
       0.206038 0.044087697 0.17145298 -0.0038035433
000200 48 47 21 3c 20 85 79 3d c0 02 77 be f2 15 3c 3e
       0.009843655 0.060917974 -0.24122143 0.18367746
000210 bb e3 24 3e 6c 66 93 bd 79 92 07 be ac 15 46 3b
       0.16102497 -0.0719727 -0.13239469 0.003022532
000220 92 7b fc 3e b0 d4 48 bd b7 85 90 be e5 66 80 3d
       0.49313027 -0.04903096 -0.28227016 0.062696256
000230 b6 5d 7f 3e b8 12 a1 3e 65 b6 dc be 65 82 a0 3d
       0.24938092 0.31459594 -0.43107906 0.07837371
000240 3b f1 c8 bb 78 b2 55 3e f6 92 d4 bd e5 08 05 be
       -0.0061322725 0.20868862 -0.10379593 -0.12991674
000250 3d 6c 14 bc ce d2 b1 bd
       -0.009059009 -0.08682786

conv1.bias f4 [6]
000000 2e ae dc bd 37 be 67 bf 26 3b 8c be 83 1e d3 be
       -0.1077541 -0.9052462 -0.27388877 -0.41234216
000010 b7 06 ed be 79 9a cf be
       -0.46294186 -0.4054754

conv2.weight f4 [16, 6, 5, 5]
000000 d2 82 97 3d 41 0e a6 bd 5c 90 26 3e b7 20 7e 3e
       0.07397999 -0.081081875 0.16266006 0.24817167
000010 af 4a d2 bc bd 05 25 3e 73 01 30 3d 44 5e 8f 3e
       -0.025670378 0.1611547 0.042970132 0.28001606
000020 13 38 0a 3e a7 c9 35 3e ae 00 d6 3b 5d df 1a 3e
       0.13497953 0.17752706 0.0065308427 0.15124269
000030 a0 5c f2 3d e7 3c d5 bd 70 94 9d 3d e6 39 1d bf
       0.11834073 -0.10412007 0.07694328 -0.6141647
000040 10 9c f4 be 64 9e c6 be 77 54 ca be f3 1f 0e be
       -0.47775316 -0.38792717 -0.39517567 -0.13879375
000050 f7 3f 48 bf 8c af 2f bf 4e ae 57 bf b6 ae b6 bf
       -0.782226 -0.6862724 -0.8425034 -1.4272068
000060 ea 7d be bf f8 12 9f 3d 2d d8 2f be 25 83 13 bf
       -1.4882176 0.0776729 -0.17172308 -0.57621986
000070 af d2 b3 bc 4f 26 15 be b8 67 de 3c c3 90 44 be
       -0.021951048 -0.14565395 0.027149066 -0.19195847
000080 2c 65 c4 be 66 75 01 be f8 f3 06 3d fc d9 fc 3d
       -0.38358438 -0.1264244 0.03294751 0.12346265
000090 7a 83 bf 3d 6b d8 3d be 3a e7 16 3e 57 c4 2d bc
       0.09351249 -0.18539588 0.14736643 -0.010605893
0000a0 30 8b 46 3e b8 13 5d 3e 53 e0 32 be ad ff 0e 3e
       0.19389033 0.21589553 -0.17468385 0.1396472
0000b0 74 86 06 3d 20 b2 2f bd fd aa 35 3e 9f 41 85 be
       0.03284307 -0.042894483 0.17741008 -0.26026627
0000c0 29 56 d1 3b bc cf d0 be df df b5 3e ec 68 46 3e
       0.006388445 -0.4078349 0.35522363 0.19375962
0000d0 d7 78 1a bc a3 cf 1d be 22 f5 b0 3d b5 cb 16 be
       -0.0094282245 -0.15411238 0.086405054 -0.14726146
0000e0 b4 89 89 3e de 53 18 3e e1 89 0d 3d 49 73 63 3e
       0.26862872 0.14875743 0.03455532 0.22211947
0000f0 fd 98 77 3d ef 0c 3e 3e 2d 7c f9 be e4 c0 42 bd
       0.060448635 0.18559621 -0.4872755 -0.047547236
000100 32 0f 13 bd 7c d3 d1 be 54 f4 e0 be 9b bd 5a bf
       -0.035903163 -0.40981662 -0.43936408 -0.85445565
000110 e6 c2 06 bf cd 9f 7e bf 11 0d 7a 3d 28 3e a5 bd
       -0.5264114 -0.99462587 0.061047617 -0.08068496
000120 ac 95 8a be 6d 63 de be ff bf ea be 0c 8f 1e 3e
       -0.27067316 -0.4343523 -0.45849606 0.15484256
000130 69 55 f1 3e 25 ac 78 be 61 4f 1b be bc fd 81 be
       0.47135475 -0.24284418 -0.15167 -0.25388896
000140 aa b2 f0 3e 90 3e cb 3d 36 28 43 be 1d b0 bd 3c
       0.4701131 0.09924042 -0.19058308 0.023155266
000150 3d 61 e2 3c ef ec 97 3d bb b5 cf be 40 4e ce be
       0.027634257 0.07418238 -0.40568337 -0.40294075
000160 92 ea 6c be 82 28 29 bf c1 60 62 be 59 8a 45 bf
       -0.23136356 -0.66077435 -0.22107221 -0.77164227
000170 4c 1b 8e bf 3e 53 6e bf 48 70 6a bf bb be 1b 3c
       -1.110208 -0.9309577 -0.9157758 0.009505923
000180 5f 80 d1 ba 73 ca 84 be 7f 14 0f bf 29 cd 66 bf
       -0.0015983692 -0.25935706 -0.5589065 -0.901568
000190 dc 1f 4c 3e c2 0b 22 bd f1 3b e8 ba 75 46 65 bc
       0.19934028 -0.039561994 -0.0017718059 -0.013993849
0001a0 64 85 06 3d 67 16 44 3e ce 3d b5 3d ea c1 88 be
       0.032842055 0.19149171 0.08849679 -0.26710445
0001b0 9a e5 cd be 2c 64 6d bd 7f e7 0f be 78 f2 98 bd
       -0.40214235 -0.05795686 -0.14053153 -0.07468122
0001c0 3c 50 a8 be 5b d2 75 be bb af 0e be a2 01 ab 3e
       -0.32873714 -0.24006025 -0.13934223 0.33399683
0001d0 c1 2a 2f 3e bf 18 61 3d 24 a5 6b be 82 cb ad 3d
       0.17106153 0.05495524 -0.23012215 0.08486082
0001e0 39 88 75 3e 8c e3 b5 3e e2 4b 77 3e ee 48 50 3e
       0.23977746 0.35525167 0.24150041 0.2034032
0001f0 f3 8a f3 3d 53 2c 08 be 50 da b3 be 9a 5f 3a 3e
       0.11891737 -0.13298158 -0.35127497 0.18200532
000200 07 4e b6 3d 27 58 3e bc 18 49 15 bd b0 2b 8a bd
       0.08901601 -0.011617697 -0.03644666 -0.06746614
000210 9d 82 10 3e 86 8b 12 3d 3c 93 91 be 9d 24 95 3d
       0.14112325 0.03577759 -0.28432643 0.07282374
000220 17 3e 92 3b 5c 7d 5c be 02 42 e7 be 3c 7a 66 be
       0.004462968 -0.21532196 -0.45167547 -0.22507566
000230 62 45 97 ba 64 20 3a be 93 f6 31 bf 3c 9a b3 bf
       -0.0011541063 -0.18176419 -0.6951687 -1.4031444
000240 28 38 06 bf ca 88 9c 3b ce 89 b0 bd be 9b 1e bf
       -0.5242944 0.0047770487 -0.08620034 -0.61956394
000250 4a 27 27 bf 57 cc ab bf 21 6c 18 bf 8d 0a e6 be
       -0.65294325 -1.3421735 -0.5953999 -0.44929925
000260 a6 78 49 bd a4 c3 9a 3e 49 6e 94 3e dd 5b d2 be
       -0.049187325 0.30227387 0.2899039 -0.4108571
000270 ab 47 1b bf 66 62 4c bf 2d f3 84 be f3 67 d6 bc
       -0.6065623 -0.79837644 -0.25966778 -0.026172614
000280 2c c0 02 3e 16 ca 0c 3e 3f 96 42 3e c2 89 46 3e
       0.1276862 0.13748965 0.19002627 0.19388488
000290 01 f8 06 3e c1 d3 7b bc ec 0f 5d 3e f8 b7 2e 3e
       0.13180543 -0.01537031 0.21588105 0.17062366
0002a0 b3 48 f4 3d af 3e 03 3e 0a b4 8b be a5 8f ec be
       0.11927929 0.1281688 -0.27285796 -0.46203342
0002b0 02 71 08 bf 24 f0 1c bf 08 44 a5 be bd 1e 92 3e
       -0.53297436 -0.61303926 -0.32278466 0.28539076
0002c0 14 b8 a7 3e 5a e7 8a be 39 e4 83 3e 02 24 4a 3c
       0.32757628 -0.27129632 0.25760058 0.0123376865
0002d0 74 03 cf bc 9c 10 d7 3d d6 ee 30 be 93 8a 09 be
       -0.025270201 0.10501215 -0.17278609 -0.13431768
0002e0 6f c0 7f be 3d ec 0c 3e e2 ea 03 3f fc 90 0b 3e
       -0.24975751 0.13761993 0.5153028 0.13629526
0002f0 11 64 e8 be d7 d9 02 bf 7f f7 16 be f7 1d 47 3e
       -0.45388845 -0.5111365 -0.1474285 0.19445024
000300 51 d9 5c bd 28 5f a0 be a6 a6 a9 3c 00 ae 05 be
       -0.053918187 -0.31322598 0.020709347 -0.13054657
000310 61 d8 c0 be 28 24 d4 be fc e0 a0 be 85 06 28 3e
       -0.37665084 -0.41433835 -0.3142165 0.16408737
000320 9f a8 89 bd cb 5c b9 3c 5a b2 a9 be b7 3f f2 3c
       -0.06721615 0.022627255 -0.33143884 0.029571397
000330 0c 2d 39 3d d9 4a b9 3e e9 40 ad 3e de 25 0b 3e
       0.045208976 0.36189917 0.33838585 0.13588664
000340 f1 2f cc bd 90 21 39 be 30 e9 1f bd a7 08 a4 3e
       -0.099700816 -0.1807921 -0.039040744 0.3203785
000350 93 6d 78 3e f0 9f ce 3e a5 b2 62 3d 40 75 8c be
       0.24260549 0.40356398 0.05534615 -0.27433205
000360 3e 51 31 be e4 9a 5b bd ac f0 d0 bc a6 26 14 be
       -0.17316148 -0.053614512 -0.025505386 -0.14467868
000370 0b 6a 78 be ee 2e ca be 03 e2 d9 be 6d db 19 bf
       -0.24259202 -0.3948893 -0.42555246 -0.6010044
000380 90 bd a4 be 80 a8 bd 3e 3c 21 3e 3d a7 c8 75 be
       -0.32175875 0.37042618 0.046418414 -0.24002324
000390 ee c6 c8 bd c0 6c 9b be 0f 1f 58 3d 7c 87 59 bd
       -0.09803568 -0.30356407 0.052763995 -0.053107724
0003a0 13 1b 97 be 30 f6 15 be 17 0b e4 bd d3 2e c1 3d
       -0.29512843 -0.14644694 -0.11134928 0.09432759
0003b0 ee ce dd bd 88 c1 65 be 11 26 85 3e 0c 6e 43 be
       -0.10830484 -0.22437108 0.26005605 -0.19084948
0003c0 05 7e 32 3d 12 5e 8c be dd 67 ee bd e4 d8 78 3e
       0.043577213 -0.2741552 -0.11640904 0.24301487
0003d0 56 f2 47 bd 28 bb 93 3e c6 da 78 3e 40 b5 f1 3d
       -0.048815094 0.28853726 0.24302205 0.11802149
0003e0 71 8c c7 b9 2f 95 96 be 92 f0 ad 3a f5 91 b0 be
       -0.00038060875 -0.29410693 0.0013270548 -0.34486356
0003f0 f3 18 d2 3c 9e 5b e2 3d e5 ef 4a 3e 33 2d 07 bd
       0.025646662 0.11052631 0.19818075 -0.03300209

conv2.bias f4 [16]
000000 f6 0b 3e 3d 0a f0 9d bd 68 e9 7e bd 68 b7 44 3e
       0.046398126 -0.077117994 -0.062234312 0.19210589
000010 26 03 64 3d 68 5a 1f 3d e4 3b 1e be 10 6a 43 be
       0.055667065 0.038904577 -0.15452534 -0.19083428
000020 72 e7 20 bd 89 58 44 be ca f0 a2 bc 8c b4 9f 3e
       -0.039283223 -0.19174398 -0.019890208 0.31192434
000030 18 09 c2 3d f5 07 20 be 09 a6 2e bd d4 04 de bd
       0.09474391 -0.15628035 -0.042638812 -0.10840765

fc1.weight f4 [120, 256]
000000 1f f8 36 bc 04 ba 77 be 0b 91 ed be 26 29 50 bd
       -0.011167555 -0.24192053 -0.46399722 -0.050820492
000010 fd ed 30 bd a0 70 71 be 61 f1 48 be 8f 88 cd bd
       -0.043195713 -0.2357812 -0.19623329 -0.10035812
000020 e2 cb 45 be 32 0d 10 3d 0d cd d6 3c 77 52 6c 3e
       -0.19316056 0.035168834 0.026220823 0.23078333
000030 db 94 4a be e1 1b 56 3c f3 17 c5 be bc e5 7f 3d
       -0.19783346 0.01306817 -0.38494834 0.06247495
000040 0a 9b 29 be 88 51 9a bd 55 37 ae 3d 48 3c 01 be
       -0.16563049 -0.07535082 0.085066475 -0.12620652
000050 c8 7d b4 be 89 a0 67 be e9 b0 2e be 7e 41 ab bd
       -0.35252213 -0.22619833 -0.17059673 -0.08362101
000060 55 4d 4f bf 85 3f 29 bf 4c 71 29 bd 83 0b c8 3e
       -0.80977374 -0.6611255 -0.041367814 0.39071283
000070 68 cb 3f bf 92 64 d0 3d b2 9f aa 3d fc ce b5 bd
       -0.7491975 0.10175432 0.08331241 -0.0887737
000080 94 d2 8e 3e 23 c7 3f 3e b0 f1 fa 3d f2 a5 e8 be
       0.27895033 0.18728308 0.122531295 -0.45439106
000090 66 5c cc 3e 68 68 fd 3e 72 db bd 3e e6 0c 89 3e
       0.39914244 0.49493718 0.37081486 0.26767653
0000a0 9e fa 9e be 7f 69 59 be 55 a3 97 3e d2 2a da 3c
       -0.3105058 -0.2123165 0.296168 0.026631746
0000b0 2c 8e c5 3d 4d 1a ad bd 17 54 dc 3c 5a 95 99 3d
       0.09646258 -0.08452282 0.026895566 0.0749919
0000c0 b8 54 97 be 22 7f 68 be a8 38 5c 3e af 81 b0 3b
       -0.29556823 -0.22704747 0.21505988 0.0053865532
0000d0 35 7f 20 be a6 1b cf be 31 83 98 bd 58 6c 9f 3e
       -0.15673526 -0.40450782 -0.07446898 0.31137347
0000e0 c4 38 82 be 72 45 d8 be 78 d1 ac 3d df aa 28 3e
       -0.25433934 -0.42240483 0.084383905 0.16471432
0000f0 af e7 27 3f 16 96 b3 3e 01 4a cb bd e5 e3 5d bd
       0.65587896 0.35075444 -0.099262245 -0.054172415
000100 5d e9 b2 3d 1d 6b 3e bf 37 2a 52 be 98 46 4b be
       0.08735917 -0.7438219 -0.20523916 -0.19851148
000110 d2 31 08 bc 08 ed 51 be c0 74 51 be 21 ad be bd
       -0.008312659 -0.20500576 -0.20454693 -0.093103655
000120 44 db ad be ad 05 86 be a2 ec e3 be 79 29 67 bc
       -0.3395635 -0.26176205 -0.44516474 -0.014109009
000130 cb 87 d8 3e 01 07 a7 3e a7 42 47 3e b9 80 6a 3e
       0.42291102 0.3262253 0.1945902 0.22900666
000140 93 ae d1 be 0d 94 0d 3d 63 79 af 3e 43 ab 91 3e
       -0.40953502 0.03456502 0.34272298 0.28450975
000150 b4 86 7e be d9 69 e0 bc 09 d0 9c 3d de 41 03 be
       -0.24856073 -0.027394222 0.07656867 -0.12818095
000160 99 9e 00 3e a8 dd 72 be f2 0a 90 3e 0c 63 12 be
       0.125605 -0.23717368 0.2813335 -0.14295596
000170 5b bd 40 3e a0 20 44 bd e5 0a db bc 0e 8d a4 be
       0.18822233 -0.047882676 -0.026738593 -0.32138866
000180 f5 9f 35 3e b6 76 9c 3d ca eb 42 be 7a 97 a3 be
       0.177368 0.0763983 -0.19035259 -0.31951505
000190 45 3d fd bc 66 53 cc be 87 3a 90 3e 57 c7 2b 3e
       -0.030913005 -0.39907378 0.28169653 0.16775261
0001a0 e4 1f 4a bf fb e5 50 be 21 d6 b9 3d 7f 41 a3 be
       -0.7895491 -0.2040023 0.09074045 -0.31885907
0001b0 13 5f 10 3d 62 65 46 3d a7 29 7a be da 5e ec bd
       0.03524692 0.04843653 -0.24429952 -0.11541529
0001c0 c3 5c 0d bf 93 c0 66 3d ac 06 4e 3e 6f f3 b5 be
       -0.5521967 0.056335997 0.20119733 -0.35537288
0001d0 73 12 9b be c0 d2 1a 3f 52 e9 eb 3c 8a 38 55 be
       -0.30287513 0.6047783 0.02879778 -0.20822349
0001e0 c4 03 d5 3d 2e 6f 9a 3e 73 83 8a 3e c3 89 5a bd
       0.10401109 0.30162948 0.27053413 -0.053354036
0001f0 cd fd 5d be c8 9b 11 bd 80 35 94 bc cb b7 bf 3d
       -0.21678849 -0.035548955 -0.018091917 0.093612276
000200 9f 08 c8 bd 80 28 e8 3e 24 db 4d 3e 24 60 48 bd
       -0.09767269 0.453434 0.20103127 -0.04891981
000210 38 8f 04 bf 71 e6 34 be 5f 74 2f 3e c2 b3 4e be
       -0.51781034 -0.17666031 0.17134236 -0.2018576
000220 6a 9f 97 bf 63 06 ed be d0 8d 0c 3d b4 cc 0c 3e
       -1.1845524 -0.46293935 0.03431493 0.13749963
000230 76 bc 29 be 39 35 c4 3e 0c ff 8d 3d 50 dd ac 3c
       -0.16575798 0.38321856 0.06933412 0.021101624
000240 b5 4a 51 be 93 73 48 bf a2 c1 6c bd 8e eb 4e 3e
       -0.20438655 -0.7830135 -0.05780185 0.20207044
000250 f4 5b 52 be 9a cc 59 bd 7b 0a a4 be c1 5a 12 bf
       -0.2054289 -0.05317364 -0.32039246 -0.5716973
000260 89 7f 6f be 88 05 45 3e 6b 8f 0e be 7c 09 95 be
       -0.23388495 0.19240391 -0.13921897 -0.29108799
000270 d5 e7 f3 3e 0f 57 80 bd 0a 2c a0 bd 76 f6 3e be
       0.4763781 -0.06266605 -0.078209 -0.18648705
000280 4c 88 12 bf d6 6e 9b 3e 81 17 6e 3e 55 18 69 3e
       -0.5723922 0.30358 0.23251154 0.22763188
000290 3e 65 2d 3e ea 59 87 be f4 b4 8a be ac ac 63 be
       0.16933152 -0.26435786 -0.2709118 -0.22233838
0002a0 94 e0 47 3e e3 08 0c bf 51 c3 8a be 56 04 29 be
       0.19519264 -0.5470106 -0.2710214 -0.1650556
0002b0 0e 56 f7 bd 0b 16 83 bd ff ec f2 bd 98 e8 9e be
       -0.120769605 -0.06400689 -0.1186161 -0.3103683
0002c0 e0 e4 69 be 41 05 a6 be 04 ab c5 3e 27 32 c5 3e
       -0.22841215 -0.32425883 0.38607037 0.38514826
0002d0 6c 9d 91 3e f2 0e 9d 3e f2 ad f9 bc 47 8a 98 bc
       0.28440416 0.30675465 -0.030478451 -0.018620623
0002e0 de ba c5 3d 3e 30 66 3e 41 38 8d be f9 ce 84 be
       0.09654783 0.2247934 -0.2758198 -0.25939158
0002f0 be 5c 11 3d db de 0b be cb 1b a4 3e fe d1 87 3e
       0.035488836 -0.13659231 0.32052454 0.265274
000300 e3 26 ec 3b 00 1a 71 3e 7e 31 67 bd 90 1c d9 bd
       0.007206784 0.23545074 -0.056443684 -0.10601151
000310 05 9c c0 be de b3 ad 3e 48 2e fd bc d7 bc 2d 3d
       -0.37619033 0.3392629 -0.030905858 0.04241642
000320 07 43 dc be 11 d7 9d 3d af 3c 0c 3e 66 f0 1f be
       -0.43019888 0.07707036 0.13695024 -0.15619048
000330 1b c9 2d 3d d1 05 84 3e 61 be 19 3e 8d 0a 8d be
       0.042428117 0.25785688 0.1501403 -0.27547112
000340 67 21 ea 3e b4 54 ac 3e 7d 96 10 3d 8e 4f cd bd
       0.4572861 0.33658373 0.035299767 -0.100249395
000350 ab 0c c5 be 7d 4d 2d 3e 95 b1 c2 3c 0e f2 e3 3e
       -0.38486227 0.1692409 0.023766318 0.4452061
000360 97 9d 2a bc be 8b 60 be e9 a8 4d be 70 d9 f2 3d
       -0.010413549 -0.21928307 -0.20083965 0.11857879
000370 29 53 82 3e 5b 27 f4 3d 32 3d 17 3e ad e1 80 bd
       0.2545407 0.11921569 0.14769438 -0.06293044
000380 45 ae 82 bd ac e3 7b be 45 b2 5b bf 4f fe 96 be
       -0.063808955 -0.24598569 -0.8581889 -0.29490897
000390 61 54 19 3f 8e 17 1f 3f 2b 3a 36 be f5 3a b7 bd
       0.59894377 0.62145317 -0.17795627 -0.08946792
0003a0 5b b1 f6 3c a6 fe c6 3e 54 76 cd 3e e1 2d ab 3e
       0.030113867 0.38866156 0.4012934 0.3343344
0003b0 ec 61 97 bd 5f 2c 4a 3d 81 11 f3 bd 1c 0e e2 3b
       -0.07391724 0.04935872 -0.11868573 0.0068986546
0003c0 b1 d7 8b 3e 25 af 1d 3e 95 4e 08 bf 85 30 4c bf
       0.27312997 0.15398844 -0.53244907 -0.79761535
0003d0 b7 46 2d 3e 21 27 df 3d a5 8d 33 3e ec bc ce bd
       0.16921507 0.10896135 0.17534502 -0.10094628
0003e0 49 10 22 3e 21 bc 5b bd 84 d7 51 bd e2 ef 02 3f
       0.15826525 -0.05364621 -0.051230922 0.5114728
0003f0 2f eb 06 3e ec 25 68 3e e7 53 53 3e ee 44 65 bd
       0.13175653 0.22670716 0.20637475 -0.05597394

fc1.bias f4 [120]
000000 94 00 c8 bd 2a f5 ce bd c9 6f ec be 3d 1d b5 3c
       -0.09765735 -0.10105355 -0.46179035 0.022108668
000010 71 49 b7 bc d4 f8 70 3d fc 83 5f be a9 bf 66 be
       -0.022373887 0.05883105 -0.21827692 -0.2253405
000020 0b 53 6f 3e 7d 1d 1e bf c7 20 c7 3c 53 39 28 be
       0.23371522 -0.61763746 0.024307622 -0.16428117
000030 eb d9 1e bc 36 3a 69 be 86 0b 98 bd 45 50 b3 bd
       -0.00969551 -0.22776112 -0.07424073 -0.087555446
000040 79 2a 3c be 73 c4 b2 39 9b a9 3a be 28 d4 c5 bc
       -0.18375577 0.00034097172 -0.18228762 -0.024149016
000050 52 50 ab be 49 d4 a6 bd 63 39 e1 bd b3 99 98 3c
       -0.33459717 -0.08145959 -0.10997274 0.018627977
000060 b0 4e a6 3d e4 6c b3 bd 97 77 0c 3d 3e c4 c5 bd
       0.08120477 -0.087610036 0.034293737 -0.09656571
000070 b7 3b 0d 3e 3d 31 82 3c 09 76 1c be b3 60 1a 3d
       0.1379231 0.01589262 -0.15279402 0.037689876
000080 78 b3 27 be fb e2 de bd 88 5d 00 bd bf cd 80 be
       -0.16377056 -0.10883137 -0.0313392 -0.25156972
000090 3c 14 d5 bd ae dc 6f bd 23 a8 8c bd 1b 60 7f be
       -0.1040425 -0.058560066 -0.06868007 -0.24939005
0000a0 a3 48 04 be 83 78 eb be 2a e1 6e bd 3d 3a 5b be
       -0.12918334 -0.4599038 -0.058320202 -0.21408935
0000b0 6b 7a 17 3e ed 05 19 bf 99 3a 5a be bd bd d3 be
       0.14792792 -0.5977467 -0.21311416 -0.41355696
0000c0 09 d2 13 3e 41 90 6c bd cb 0b 94 3c 11 d2 93 3e
       0.14435591 -0.05775476 0.01807203 0.28871205
0000d0 e7 23 24 bf 17 f2 16 3e 6b 2c 22 be 0c 90 9e bd
       -0.6411728 0.14740787 -0.15837257 -0.077423185
0000e0 be a9 76 be 43 a3 9c 3d bb 6c 05 3e 6f b1 e0 bd
       -0.24088189 0.07648327 0.13029759 -0.10971343
0000f0 fc 64 bd be e1 c0 d3 bd fc 18 1a be 14 b6 00 bf
       -0.36991107 -0.10339523 -0.15048593 -0.5027783
000100 48 25 4c be 67 7b 2d 3d 77 d6 9d be 2f 53 b5 3c
       -0.19936097 0.042354014 -0.30827686 0.022134392
000110 97 85 03 3d e4 4b d0 be c8 e2 28 bc f5 c1 8f bc
       0.032109823 -0.406829 -0.010307975 -0.01754854
000120 31 6c 1c be 5d 32 51 bf 28 3b 3f be 47 aa 99 be
       -0.15275647 -0.81717473 -0.1867491 -0.30012724
000130 63 39 2e be ff 23 b1 be 35 6d 84 be ad 3b 0f 3e
       -0.17014079 -0.34597775 -0.25864568 0.13987608
000140 2f b1 f6 bd f6 26 ca be ae c4 60 be b9 d0 33 be
       -0.12045514 -0.3948285 -0.21950027 -0.1756009
000150 3b 44 a3 3d 2a 4e da bd 0b a8 27 be 99 91 e4 bc
       0.07971998 -0.1065944 -0.16372697 -0.027901458
000160 b9 0d 41 3c 59 7f 95 be 70 e8 67 be 9d ce 33 be
       0.011783057 -0.2919872 -0.22647262 -0.17559285
000170 12 ea 2e 3d 33 52 b6 be cc 5e 8e be 66 a8 0f 3c
       0.042703696 -0.35609588 -0.278067 0.008768177
000180 33 0e d4 3c 86 ba 81 bd 13 30 f2 bd a1 f6 1a bf
       0.025885677 -0.06334405 -0.11825576 -0.60532576
000190 7d d7 9d 3d eb 34 e0 3d 99 8d 3b be 78 08 0c be
       0.07707117 0.10947593 -0.18315734 -0.13675106
0001a0 8b b4 ef bd 62 12 09 be e6 87 35 be 8e 07 e5 bd
       -0.11704358 -0.13385919 -0.17727622 -0.111830816
0001b0 52 8b ee be 55 e9 04 3c 01 da 4e be 24 96 d7 bd
       -0.46590668 0.008112271 -0.2020035 -0.10526684
0001c0 44 41 c4 3c 60 c4 52 bc b5 c6 cd bd b0 76 49 be
       0.023956902 -0.012864202 -0.10047666 -0.19674182
0001d0 c6 36 57 3e f1 43 1b 3d b1 04 a1 be 1a 94 9e 3b
       0.21016988 0.03790659 -0.31448892 0.0048394324

fc2.weight f4 [84, 120]
000000 7e 2a 90 bd fe 3d 25 be 3a 6a e0 bc bb 1b 48 be
       -0.07039355 -0.1613693 -0.027394403 -0.19541828
000010 56 3f b5 3d 92 fd 2e be 05 68 c4 3e 61 31 b0 bc
       0.08849971 -0.17088917 0.3836061 -0.02150792
000020 dd 75 32 3e 41 53 b4 3e d0 3a 3a 3e de e7 3b be
       0.17427774 0.35219768 0.18186498 -0.18350169
000030 11 e1 83 bd 65 dc 76 3e 41 7e 1d bd c0 9f 50 3c
       -0.064394124 0.24107511 -0.038450483 0.0127334
000040 cc 30 82 3e f8 fe 04 be 6e 63 02 bd 0a 52 a9 be
       0.25427854 -0.12987888 -0.031833105 -0.33070403
000050 6f 9f 50 be 7e 26 ca 3c 87 4e 12 3d af c6 dc bc
       -0.20373319 0.024676558 0.03571942 -0.026950208
000060 7c 5b 2b bf a4 5c 53 3d 5a 64 90 3c ce ab 5d bd
       -0.6693647 0.05160202 0.017625976 -0.054118924
000070 d8 ee 6d 3d bc 5d c3 3c fb bf a2 3e 21 f5 9b 3e
       0.058089107 0.023848407 0.31787094 0.30460456
000080 22 4b 16 be e7 f8 2a be e0 b7 7a 3e 62 6a f9 bc
       -0.14677098 -0.16696511 0.24484205 -0.030446235
000090 6d 51 55 be 07 e8 41 bc 37 4d 21 be 90 6d 0c bc
       -0.20831843 -0.011835105 -0.15752111 -0.008571044
0000a0 5f ed 24 3e 94 ea e8 3e be 7f 94 3c b5 0c 05 3e
       0.16106175 0.4549147 0.018127318 0.12993129
0000b0 5a 86 1d be 57 57 f3 bc 67 65 94 be 6a 20 88 3d
       -0.15383282 -0.029704733 -0.28983614 0.066468075
0000c0 6a 4e c0 3d 4f f4 0e bf e4 4e ea 3d 39 dd 2c bf
       0.09389956 -0.55841535 0.114408284 -0.6752506
0000d0 ea 78 55 be 73 35 08 bf 06 86 3a 3d 1b eb 52 3d
       -0.20846906 -0.5320656 0.04553797 0.051493745
0000e0 5b fc 64 bd f0 29 84 3c e5 86 b2 3d 36 1f 1d be
       -0.055904727 0.016133279 0.08717135 -0.15343937
0000f0 ad 01 e1 3e fd d1 52 3d fe 8b 20 be 3a 51 9a 3d
       0.4394659 0.05146979 -0.15678403 0.07535024
000100 8e 7c ec 3e a0 fe a0 3e b8 d6 22 3e 75 67 aa 3b
       0.46188778 0.31444263 0.15902221 0.0052003213
000110 6b 5d 04 3e 31 c5 f0 be 12 35 8a bd f3 c3 6b bd
       0.12926261 -0.47025445 -0.067484036 -0.05755992
000120 1a d3 ac bd 38 dc 94 3e 62 74 64 3e af a0 7b 3e
       -0.08438702 0.29074264 0.22310022 0.24573015
000130 86 dd e8 be ff 38 c5 be 1d cd 00 3d cb d4 7c be
       -0.4548151 -0.38520047 0.03144561 -0.24690549
000140 d8 7e 90 be 81 cd 73 3e 41 17 2d 3c c7 9b 98 3e
       -0.28221774 0.23808862 0.010564626 0.2980635
000150 9a 6b 3f 3e b7 7c 66 bd 02 10 a8 3d e9 8e ec 3e
       0.1869339 -0.05627128 0.08206178 0.46202782
000160 7c fc 84 bd 1e 37 1e be a1 bd 34 bc 2c f1 1d 3f
       -0.0649347 -0.15450713 -0.011031539 0.61696124
000170 4a 76 f3 bd c4 d2 1d 3e 02 b2 bb be 98 d5 f6 bc
       -0.11887796 0.15412432 -0.36659247 -0.030131146
000180 43 8a 2c bd 47 26 1a bf 24 79 18 3e cc b1 fc 3b
       -0.042124044 -0.60214657 0.14889961 0.0077116247
000190 03 89 89 3e fc 95 44 bc 13 9a 6a bd 0e e8 6e 3e
       0.26862344 -0.01199865 -0.057275843 0.2333071
0001a0 5e 13 65 3e 14 e4 da 3e f5 e6 f6 bb 2a 76 90 bd
       0.22370669 0.42752135 -0.0075348564 -0.07053788
0001b0 94 f4 a2 3d a3 d4 73 3e 46 7d 00 3c 7f 11 38 3e
       0.07956806 0.23811583 0.0078423675 0.17975424
0001c0 73 5d a0 3d 28 77 7c bc 2e 5d b6 be 2b 32 ca 3d
       0.07830324 -0.015409268 -0.35617965 0.0987285
0001d0 1e 5c fd bc 23 07 9b bd 82 4b bf be a9 30 05 be
       -0.030927714 -0.075697206 -0.37362295 -0.13006844
0001e0 27 2d 44 be bf 93 a9 be cd de 66 be a2 f4 87 bd
       -0.19157849 -0.33120534 -0.22545929 -0.06638457
0001f0 81 fc f9 bd 52 a0 db 3e c6 89 9e bd ba 13 ed 3e
       -0.122063644 0.42895752 -0.07741122 0.46304113
000200 2a e1 b2 3e 73 7a 3e 3e 68 3b 20 bf 86 4b 4e 3e
       0.34937412 0.18601398 -0.62590647 0.20145997
000210 10 64 64 3c c9 a7 47 bd 45 17 d1 3c ce 09 39 bd
       0.013939872 -0.048743997 0.025523791 -0.045175366
000220 ff 21 ef 3c c8 9c 58 3e d2 04 bb 3e 04 b6 08 3e
       0.029191015 0.21153557 0.36527115 0.13350683
000230 33 cc c2 3c 79 89 30 bd 01 2b 99 3d 72 19 87 3d
       0.02377901 -0.043099854 0.074789055 0.0659665
000240 ab 68 92 3e ec 33 71 bd c8 39 9e bd 42 4d f9 bc
       0.2859548 -0.058887407 -0.07725865 -0.030432347
000250 b0 b5 f6 bc 36 e2 48 bd 2d 4c 02 be ca 48 01 3e
       -0.030115932 -0.049043857 -0.12724371 0.12625423
000260 75 84 e1 bd b3 42 a3 3e 6f d7 bf bd 9b 58 ba 3e
       -0.11011592 0.31886825 -0.093672626 0.36395726
000270 75 cf 5c bf b5 b8 35 bd 82 fb cd bd bb af 3d be
       -0.86254054 -0.044365603 -0.10057737 -0.18524067
000280 15 28 8f be 14 ea 2f 3d dd 08 28 3d c4 cc ea 3d
       -0.27960268 0.042947844 0.041024078 0.11464837
000290 24 f6 62 bd 41 18 c6 3e a4 55 c7 be 3a e0 06 bc
       -0.05541052 0.3869038 -0.38932526 -0.008232171
0002a0 48 23 28 3e 1e 32 8d 3d f6 7a a6 3d 38 a6 65 be
       0.16419709 0.06894325 0.08128922 -0.22426689
0002b0 0f ee 05 be d1 e7 67 be d0 20 a3 be cd 69 e0 ba
       -0.13079093 -0.22647025 -0.3186097 -0.0017121375
0002c0 dd 1a 2b bf be 87 51 3d d5 bf 1a be 79 a1 9c 3d
       -0.66837865 0.051154844 -0.1511224 0.07647986
0002d0 ad e9 0a bf f5 7d 54 bd 7a 21 1c 3e e6 5e a1 3d
       -0.5426281 -0.051877934 0.15247145 0.078794286
0002e0 94 54 5b be 14 c1 cc 3b 27 b1 91 bd bb e3 3a 3e
       -0.21418983 0.0062486026 -0.07113867 0.18250935
0002f0 d4 e4 9a 3d 72 04 2a 3e 51 f5 c3 bc 9c bf 8a 3c
       0.07563177 0.16603258 -0.023920687 0.01693707
000300 b0 2e 0c 3e f8 43 eb 3d 1d 7b 5a bd 1c 2c 82 3e
       0.13689685 0.114875734 -0.053340066 0.25424278
000310 92 34 18 3f 04 00 08 be a9 82 27 3e 94 00 fa be
       0.59455216 -0.13281256 0.16358437 -0.48828566
000320 ea 8f 8a 3e 77 3a a2 bb 56 d8 57 3e 39 55 10 bd
       0.27062923 -0.004950817 0.2107862 -0.035237525
000330 39 58 1e 3d c8 6d b0 be 6d c6 4b 3e 3f aa 7b bc
       0.038658354 -0.34458756 0.19899912 -0.015360414
000340 06 d5 8c be d3 9b 48 3e 2a 1e 4f be 51 8f 32 3e
       -0.27506274 0.19590692 -0.2022635 0.17437483
000350 f5 ca d2 bd e3 df 21 3e 5a 86 a2 3e 78 fe c9 3d
       -0.10292617 0.15808062 0.31743127 0.09862989
000360 75 26 e0 bc e6 dd 44 3d 62 42 a5 be 97 3f 89 3e
       -0.027362088 0.04806318 -0.3227721 0.26806328
000370 08 a5 d9 ba 65 12 7d bd 8c 46 3b bc e9 cd a0 be
       -0.0016604969 -0.06178512 -0.011430394 -0.31407097
000380 8d 38 ef 3e 49 74 e3 be 24 b2 ad bc fc 05 81 3d
       0.46722832 -0.44424656 -0.021203108 0.062999696
000390 28 69 33 3e c2 90 98 3d 7c 1a e3 3d 68 4e 69 be
       0.17520583 0.07449485 0.11089036 -0.22783816
0003a0 fe f9 12 bd ed b2 4f bd e1 b2 2c 3e 77 85 a9 3e
       -0.035882942 -0.050707746 0.16865112 0.33109638
0003b0 db be 82 be 31 c6 ef 3b db 1c d0 3d 1d 51 a6 3e
       -0.25536236 0.0073173274 0.10161754 0.3248376
0003c0 92 97 8f 3e f1 46 11 3e 5f 48 29 be 8a 7f 82 bd
       0.28045326 0.14187218 -0.16531514 -0.063719824
0003d0 10 34 b4 3d e7 b5 88 be 4b bd 1c 3f 55 35 c8 be
       0.08798993 -0.2670128 0.6122634 -0.3910319
0003e0 92 e2 b4 be 50 de e3 3e 85 84 35 bf d3 d4 f7 3e
       -0.3532911 0.44505548 -0.70905334 0.4840456
0003f0 4a da 68 bd 8f 24 54 3e de 70 a0 3c af f3 76 3a
       -0.0568488 0.20717071 0.01958507 0.0009420467

fc2.bias f4 [84]
000000 d9 9c 54 bd 33 e2 b4 bd 6e ff bb be fe 39 62 3d
       -0.051907394 -0.088322066 -0.36718315 0.055231087
000010 8b 1a 61 be de db ec be 1d 16 59 be 0c e2 d7 3d
       -0.21982782 -0.46261495 -0.21199842 0.10541162
000020 3e 3e 0b be c0 06 c5 3d c3 7a ae bd c1 f1 e9 be
       -0.13597962 0.09620428 -0.08519509 -0.45692256
000030 55 ce 22 bd eb c1 5f be 01 79 75 be a4 21 84 3e
       -0.039747555 -0.21851318 -0.2397194 0.25806916
000040 2c 3b 19 be f8 77 58 be 39 8c 11 bf 70 3e a5 3d
       -0.14963979 -0.21139514 -0.5685459 0.0806855
000050 1e a3 a8 bd 0a 83 4f be d6 84 a4 be 62 cd a4 3d
       -0.08234237 -0.20264831 -0.32132596 0.08046986
000060 63 ae 09 be 44 d3 cc 3c ae 58 10 be 1f d2 89 be
       -0.1344543 0.025003083 -0.14096329 -0.26918122
000070 b5 dc 1b 3d 70 ca 0e 3e 4f 05 cb bd 4a a4 85 bd
       0.03805228 0.13944411 -0.09913122 -0.06525476
000080 d3 f6 c4 bc 0d cd 16 bf b5 fa d4 be 8e f4 83 3e
       -0.024043476 -0.5890663 -0.41597524 0.25772518
000090 da a9 0d 3e 69 53 fb 3d ad 3a df bd 93 f5 30 bc
       0.13834324 0.122717686 -0.108998634 -0.010800737
0000a0 f7 0e 47 3e 72 b1 b0 be 42 94 f2 3d 88 fa c1 be
       0.19439302 -0.3451038 0.11844684 -0.37886453
0000b0 0e c2 2d be 87 51 2a bd 5d d1 e1 bd 17 41 51 be
       -0.16968557 -0.041581657 -0.11026261 -0.20434986
0000c0 26 7f 95 3e 2a f2 06 3e 52 d6 3d be 30 3d 36 be
       0.2919857 0.13178316 -0.18538788 -0.17796779
0000d0 f3 47 90 be f9 3d e1 bd 79 f6 1f bd 7f 3a be be
       -0.28179893 -0.109981485 -0.039053414 -0.37154004
0000e0 55 15 3d be 79 ea 5a be 28 fd a6 bd dd 79 da be
       -0.18465169 -0.21378507 -0.081537545 -0.426711
0000f0 a4 13 7a be 7e 0d e4 3d c8 e5 76 3d 0c 48 b5 be
       -0.24421555 0.11135386 0.06027773 -0.3540653
000100 61 b2 84 be 0c a8 d9 be 87 5f d0 be 22 25 3a be
       -0.25917342 -0.42511022 -0.40697882 -0.18178228
000110 5c ad e7 be cc 52 8b be 87 9a af 3d 2d c4 6f be
       -0.4524945 -0.27211607 0.085743956 -0.23414679
000120 0a 50 c6 be fd 96 f6 3c dc 65 76 be a0 00 45 3e
       -0.3873294 0.030101294 -0.24062294 0.1923852
000130 ed c2 16 3e f2 39 e8 3d ab 82 11 be 7d cc 4c 3e
       0.14722796 0.11339177 -0.14210002 0.19999881
000140 56 bb 95 be 1e 97 94 be 58 4c 73 3e 43 92 0b bd
       -0.29244488 -0.29021543 0.23759592 -0.034075033

fc3.weight f4 [10, 84]
000000 75 b5 12 bf bc ca 4c be e3 18 2a bf 7b 69 17 bf
       -0.5730813 -0.19999212 -0.66444224 -0.59145325
000010 f8 e6 96 be 1b d1 2c bf 84 1f d8 3a 42 f0 18 bf
       -0.2947309 -0.6750657 0.0016488885 -0.59741604
000020 c5 57 fa be e1 b9 98 bd 63 97 b8 be a3 8b 7a bf
       -0.48895088 -0.074573286 -0.36053 -0.9786932
000030 d7 03 dd be 10 e0 4d bf c5 d4 96 bf ef 40 36 bf
       -0.43166992 -0.8042002 -1.1783682 -0.7119283
000040 8b 6d 19 bf 69 40 bb be c3 de 98 3c fd 07 a6 bd
       -0.59932774 -0.3657258 0.018660909 -0.081069924
000050 de 14 1f 3e cc af d7 be 65 4b ae 3d d3 74 22 bf
       0.15535304 -0.4212631 0.08510474 -0.6345951
000060 7b 85 1d bf f3 3a 51 be 23 29 b1 be 11 26 1c be
       -0.615318 -0.20432644 -0.34601697 -0.15248896
000070 0e 4c fa be 57 81 12 bf c8 40 bb 3d fc 8d 45 bf
       -0.4888615 -0.57228607 0.091432154 -0.77169776
000080 d1 b7 c6 be 45 b1 33 be be ff a2 3d 9a e7 0d 3d
       -0.38812116 -0.17548092 0.07958935 0.0346447
000090 3e 2d 81 be 36 ce 0b bf 6a 8f 25 bf 75 3d 37 be
       -0.2522983 -0.5461153 -0.6467196 -0.17894538
0000a0 af aa 8f be 19 2d 11 be 47 7e 22 3e 53 00 32 3e
       -0.2805991 -0.1417736 0.15868483 0.17382936
0000b0 aa 92 dd be 30 d5 44 bf 25 1d e5 be d7 9e 26 3e
       -0.43275958 -0.768878 -0.44748798 0.1627153
0000c0 f4 d8 30 bf b2 28 48 be c7 a5 e2 bd db 2b 02 bf
       -0.69081044 -0.19546774 -0.11066776 -0.5084817
0000d0 9c b4 a3 be 0a 18 d4 3c 30 c4 5e bf 0c 9b 33 3d
       -0.31973732 0.025890369 -0.8701811 0.043849036
0000e0 f4 16 c3 be d2 74 24 bf 92 36 95 3d 06 36 5c be
       -0.3810345 -0.64240754 0.07285799 -0.21504983
0000f0 ac 7e 34 bf 64 27 59 3d ae 73 19 be b4 2e 1f 3e
       -0.70505786 0.05301608 -0.14985535 0.1554516
000100 c5 15 27 bf 69 b8 71 bf 80 23 11 bd 3e e4 62 bf
       -0.6526759 -0.9442201 -0.035434246 -0.8862952
000110 05 c8 04 bf 92 8b 6f bd c6 c4 08 bd eb d4 77 3d
       -0.51867706 -0.058482714 -0.033390783 0.06050579
000120 21 b9 86 be 60 6b f7 3d e4 92 e2 3d 17 ee 1e 3e
       -0.26313117 0.12081027 0.110631734 0.15520512
000130 b5 0a 0c bf 4a 63 93 bd 67 f0 54 bc 6e 5c bd 3d
       -0.5470384 -0.07196672 -0.0129967695 0.09246145
000140 53 ae 17 bf 90 2d 16 3e 55 5f 34 bf b9 18 eb 3d
       -0.5925037 0.14665818 -0.70457965 0.11479325
000150 59 7a 86 3c b1 d9 14 bf a0 f9 38 3e 4b 4e 06 bd
       0.016415762 -0.5814467 0.18063974 -0.03278951
000160 49 b6 e8 be 85 cb bb bd 91 55 f0 3d 51 f0 24 bf
       -0.45451573 -0.09169678 0.117350705 -0.64429194
000170 1e 8b db be 00 02 f9 be d8 40 28 3d be b7 b8 bc
       -0.42879575 -0.48634338 0.041077465 -0.022548553
000180 b4 ec 5a bf d2 5f 90 be 21 ed 00 be c1 cf d9 3c
       -0.8551743 -0.28198105 -0.12590457 0.026588323
000190 05 f7 0d 3e 8e fd 57 bc cf 8b 34 bf 36 d8 83 3d
       0.13863762 -0.013183011 -0.7052583 0.06437723
0001a0 3c ec f3 be 86 3c f0 be f1 46 1b bf ba 27 27 bd
       -0.4764117 -0.46921176 -0.60655123 -0.04080937
0001b0 01 67 18 3d 5e 5b 2b bf bc 16 7b be c2 9e 7f bf
       0.037207607 -0.6693629 -0.24520391 -0.9985162
0001c0 8f fe 29 bf cd a9 f2 be 99 ba 23 3e da 40 8f be
       -0.6640405 -0.47395173 0.1598915 -0.27979165
0001d0 64 73 df be d3 f9 db be 8e b1 cc be 51 70 21 bf
       -0.43642724 -0.42964038 -0.39979213 -0.63062006
0001e0 18 16 73 bf 7e aa c9 be 77 41 d7 be 39 60 45 bf
       -0.9495559 -0.39387888 -0.42042133 -0.7709995
0001f0 41 ce cd be 1b 8c 2e 3e a0 b1 37 bf c0 47 2f 3a
       -0.40196422 0.17045633 -0.7175541 0.0006686412
000200 8b 50 96 be 77 31 af 3d f2 56 5a 3b 36 86 14 bf
       -0.29358324 0.085543565 0.0033315984 -0.5801729
000210 2e d6 2a bf e8 2f a9 3d c7 3e 07 bf c9 05 97 bd
       -0.6673306 0.082610905 -0.52830166 -0.0737415
000220 f2 74 f3 be 9b 69 f6 be 46 35 f9 be 6a 2f 3f bf
       -0.4755016 -0.48127446 -0.48673457 -0.74681723
000230 4f ea 09 bf da 70 08 3d 9f cd b9 be c2 d9 a2 bf
       -0.5387315 0.03331075 -0.3628969 -1.2722704
000240 88 95 cf be 51 77 ec be ec 25 15 bf 79 c8 b8 3d
       -0.4054377 -0.4618478 -0.5826099 0.09022612
000250 68 14 86 be 46 32 82 bf 22 72 41 bf 44 51 06 3e
       -0.26187444 -1.0171592 -0.7556478 0.13116938
000260 85 fd c5 3c 3b d0 59 be 64 bf 83 bf 6f f8 f5 be
       0.02416874 -0.2127084 -1.0292783 -0.48041102
000270 a0 b2 b7 be 1f d8 24 bf 00 39 a0 bd dc 69 7d 3d
       -0.35878468 -0.64392275 -0.07823372 0.061868533
000280 8b ce f1 be 2e 20 a4 bf 49 60 0c 3d a5 0e 1d bf
       -0.47227892 -1.282232 0.034271512 -0.6135047
000290 62 ff 03 bf 00 36 f8 be 2d 6d a9 be 97 8d b0 be
       -0.5156156 -0.484787 -0.33091107 -0.34483024
0002a0 0a ee 5a bd 97 9b e1 be 9f e8 1f be 06 29 86 bd
       -0.053449668 -0.44064018 -0.15616082 -0.06550793
0002b0 fd bb 8f be b1 99 9f bd 72 c3 03 3e a5 8e e6 3c
       -0.2807311 -0.07792986 0.12867525 0.02814419
0002c0 f7 ef 37 be 27 ea 00 3d 22 db 5d 3d db d7 e2 bd
       -0.17962633 0.031473305 0.05416406 -0.110763274
0002d0 26 a4 f2 bd bf 8a 12 bf fb 66 8b bd 86 45 ad 3d
       -0.11847715 -0.5724296 -0.06806751 0.08460526
0002e0 69 e0 9f 3b ac 31 2b bf 06 8a 14 3d b8 cb 3e bf
       0.0048790467 -0.6687267 0.036264442 -0.745296
0002f0 19 f0 1b bf 72 6e bb be 51 58 10 bf 40 33 a2 be
       -0.60913235 -0.366077 -0.5638476 -0.31679726
000300 65 7f 00 3d 4f fa 55 be 61 57 56 3e b2 57 16 bf
       0.031371493 -0.20896266 0.2093177 -0.5872756
000310 1b bc a9 3e 94 d9 92 bf 92 2f 07 3e 71 ad a7 3d
       0.33151326 -1.147265 0.1320174 0.08187378
000320 16 0c 17 bf ea f6 da 3d 63 d7 48 3d f5 1e 2e bd
       -0.59002817 0.10691626 0.049033534 -0.04250999
000330 86 3d 2a bf 43 58 0b be f1 f9 cb be 5d 75 2c bf
       -0.6650013 -0.13607888 -0.39839128 -0.6736658
000340 45 10 49 bf da 78 b8 be 23 2c 25 3e c4 a3 5b bd
       -0.7854045 -0.36029702 0.16130118 -0.053622976
000350 49 ff ee be a9 58 9d bd 58 d6 09 bf a9 67 dc 3d
       -0.46679142 -0.07682926 -0.5384269 0.10761959
000360 34 98 c6 be 2a c2 3b bf 13 79 4f bf fa 75 86 bd
       -0.38787997 -0.73343146 -0.8104412 -0.06565471
000370 ba 74 33 bf 18 75 99 be c7 b8 b3 bd 0f 72 1f bf
       -0.70099986 -0.29972148 -0.08775478 -0.62283415
000380 8b 81 20 3d 21 38 f2 be 5f 6b 1e bf 64 3a 71 bd
       0.03918604 -0.47308448 -0.61882585 -0.058893576
000390 ff a0 e7 3d 3b 04 2b be 7f a9 20 bf 6a 38 26 bf
       0.113100044 -0.16700833 -0.6275863 -0.6492983
0003a0 b6 4b 80 be 34 d4 c2 be cc b1 2d 3c 0a 3b 11 3e
       -0.25057763 -0.38052523 0.010601472 0.14182678
0003b0 b1 28 1c bf 7b cb 9c 3d b0 9e 5a be d1 28 5b bf
       -0.6099959 0.07655998 -0.21349597 -0.85609156
0003c0 0d 21 a9 bd 80 cc cd 3d 10 c5 3a bf d0 a0 64 be
       -0.08258257 0.10048771 -0.72956944 -0.2232697
0003d0 20 a6 87 be da 2b 1b 3e 9b cb 07 3d d2 78 32 bf
       -0.2649393 0.15153447 0.033153158 -0.6971561
0003e0 a7 ec a6 bf 6c 55 f7 be 6c c4 26 bf 54 fd a9 be
       -1.304097 -0.4830736 -0.65143466 -0.33201087
0003f0 1d 8f 32 be 9c ad e6 be 6f 84 1c 3e 2c bd 32 be
       -0.17437406 -0.45054328 0.15284894 -0.17454976

fc3.bias f4 [10]
000000 85 ea ad be 35 ba ce bd 5d 71 71 3d ce ad 77 bd
       -0.33967987 -0.1009411 0.058946002 -0.060468487
000010 b3 3b 06 bd 7a 3e 64 be 9e a6 bc bd 2c 20 b7 bd
       -0.032771777 -0.22289458 -0.09211467 -0.08941683
000020 54 47 b7 3e 85 03 ea 3d
       0.35796607 0.114264525
