mnist/saved_models/model_epoch_15.pth (torch, 181338 bytes, 10 tensors)

conv1.weight f4 [6, 1, 5, 5]
-0.29161584 0.02117937 0.04131437 0.41053045 0.13150437 0.23827666 0.4537817 0.27788845
0.16492178 0.31649473 0.22425143 0.16640034 -0.11200002 -0.121585265 -0.04125316 -0.09397998
-0.2710988 -0.25433224 -0.31742248 -0.20397387 -0.1224201 -0.07582975 -0.06550563 0.19586492
-0.11847277 -0.34060597 0.12434557 0.37788048 -0.11697962 -0.16921666 -0.33734107 0.051431723
0.45691627 0.07408422 0.018152043 -0.26049986 -0.24518305 0.32412943 0.22809838 -0.0682782
-0.091296695 -0.47639045 -0.12054709 -0.23267718 -0.11045931 0.3175176 0.027162913 0.17336187
0.07329299 0.08879819 -0.023807485 -0.10781573 -0.1611572 -0.09100236 -0.3715318 -0.07404896
-0.027857533 0.23103313 0.39265037 -0.053461324 0.26145256 0.19755691 0.48094198 0.5892633
-0.1431199 -0.104823664 -0.40379694 -0.07322521 0.39659837 0.10644836 0.04925094 -0.24567457
-0.5268487 -0.088833265 0.20412435 -0.026802538 0.09011282 -0.055672232 0.037647855 0.1304245
0.05705162 0.016579391 -0.116024755 0.16319244 0.2796701 0.056425393 -0.07450902 -0.29510278
-0.14560832 0.2427187 -0.07695391 -0.13229947 -0.23283447 0.36213532 0.43666953 -0.15008932
-0.011785262 0.08759597 0.092570424 0.14804234 0.081167646 0.06674705 0.37965783 0.0032111928
0.3244439 0.06383777 -0.15573967 -0.09343107 -0.0652182 0.13983925 -0.1275054 -0.35347295
-0.2977424 -0.46530086 -0.11519576 0.19339852 -0.20448844 -0.45228183 -0.26472887 0.04262952
0.2608708 0.4032291 0.35431677 0.41526395 0.10251293 0.069306865 0.14602369 -0.014974783
0.007447861 0.04989041 -0.23804183 0.19921389 0.17081335 -0.0734011 -0.13764895 -0.041182995
0.55018324 -0.060881857 -0.24716508 0.0913348 0.21981941 0.31194514 -0.4678171 0.081850134
0.036445756 0.20759869 -0.14170681 -0.16608584 -0.0049214712 -0.049733423
00000000: ac4e 95be 5c80 ad3c 4239 293d 0c31 d23e
00000010: 15a9 063e ccfe 733e 1356 e83e 6547 8e3e
00000020: 41e1 283e 990b a23e 2ba2 653e da64 2a3e
00000030: 4460 e5bd b201 f9bd 13f9 28bd 9378 c0bd
00000040: 76cd 8abe d637 82be 3385 a2be 87de 50be
00000050: 64b7 fabd a14c 9bbd d127 86bd d090 483e
00000060: daa1 f2bd e863 aebe e4a8 fe3d 8d79 c13e
00000070: 0393 efbd 2247 2dbe f8b7 acbe 12aa 523d
00000080: eef0 e93e 78b9 973d 98b3 943c 3d60 85be
00000090: 4411 7bbe 4bf4 a53e 9f92 693e 71d5 8bbd
000000a0: c3f9 babd 73e9 f3be 65e1 f6bd ed42 6ebe
000000b0: 7e38 e2bd ab91 a23e c284 de3c c685 313e
000000c0: a31a 963d d3db b53d ea07 c3bc 7ece dcbd
000000d0: 6506 25be 725f babd 6b39 bebe fba6 97bd
000000e0: 7b35 e4bc f393 6c3e 7809 c93e 43fa 5abd
000000f0: 1cdd 853e 5c4c 4a3e 073e f63e f6d9 163f
00000100: 068e 12be caad d6bd 79be cebe 19f7 95bd
00000110: f10e cb3e 9901 da3d 5bbb 493d 1d92 7bbe
00000120: 8edf 06bf 37ee b5bd f905 513e ff90 dbbc
00000130: 128d b83d 9108 64bd a334 1a3d 008e 053e
00000140: f6ae 693d 81d1 873c 639e edbd eb1b 273e
00000150: eb30 8f3e 501e 673d 2f98 98bd b617 97be
00000160: 591a 15be 408b 783e 039a 9dbd 8379 07be
00000170: 296c 6ebe cd69 b93e 2693 df3e 04b1 19be
00000180: f916 41bc 8465 b33d 9095 bd3d 6998 173e
00000190: 393b a63d adb2 883d 8362 c23e e072 523b
000001a0: 831d a63e 60bd 823d 387a 1fbe ca58 bfbd
000001b0: 1f91 85bd 0532 0f3e c790 02be 68fa b4be
000001c0: b171 98be ea3b eebe c1eb ebbd 430a 463e
000001d0: 6b65 51be 7c91 e7be 8b8a 87be 4b9c 2e3d
000001e0: dc90 853e 0b74 ce3e 0269 b53e 7a9d d43e
000001f0: 4df2 d13d c2f0 8d3d 3c87 153e cb58 75bc
00000200: 300d f43b e359 4c3d 3dc1 73be bafe 4b3e
00000210: b2e9 2e3e 5153 96bd d9f3 0cbe 80af 28bd
00000220: cfd8 0c3f 415f 79bd d818 7dbe bd0d bb3d
00000230: 5718 613e 46b7 9f3e b985 efbe 0ba1 a73d
00000240: 2548 153d c094 543e 971b 11be 6812 2abe
00000250: 4b44 a1bb 46b5 4bbd

conv1.bias f4 [6]
-0.10811437 -0.9240275 -0.30977747 -0.44665778 -0.45707828 -0.44720414
00000000: 116b ddbd 118d 6cbf 279b 9ebe 54b0 e4be
00000010: 2a06 eabe f1f7 e4be

conv2.weight f4 [16, 6, 5, 5]
0.048089717 -0.09330745 0.21092498 0.26106408 0.013424233 0.09921844 0.01834052 0.2769264
0.17079464 0.21333912 0.061661597 0.19259265 0.12427962 -0.08847953 0.15376976 -0.52799064
-0.3650582 -0.28596336 -0.38767686 -0.20588125 -0.9135738 -0.90496856 -1.0075495 -1.5000452
-1.5363207 0.19238292 -0.17700912 -0.6087473 -0.00321929 -0.15980758 0.09809102 -0.22508083
-0.3346368 -0.024705913 -0.023383677 0.2350142 0.22284158 -0.21227106 0.04298945 -0.15395217
0.29356384 0.31095862 -0.07947443 0.24426961 0.089564726 0.0145635 0.2601779 -0.039809506
0.28806847 -0.19794568 0.322493 0.17717503 0.018429939 -0.073682584 0.13979971 -0.1888404
0.25635502 0.090999596 0.0166931 0.2562249 0.1287104 0.2769585 -0.42067182 0.022806205
-0.083945304 -0.36313087 -0.40095237 -0.887643 -0.474155 -1.0020744 0.105257064 -0.050582748
-0.2588649 -0.4253548 -0.5243116 0.27353722 0.59787804 -0.1554387 -0.22234298 -0.20714647
0.49919304 0.21542762 -0.29066464 -0.09017868 0.034823555 0.070709996 -0.33748534 -0.5092597
-0.38270327 -0.71484447 -0.2022542 -0.5064927 -1.056599 -1.1232247 -0.98848736 0.059053134
0.09185986 -0.33043414 -0.61990106 -0.94394463 0.17634876 -0.07723793 -0.054773234 -0.044890143
0.06305061 0.25042602 0.1494668 -0.27652204 -0.399962 0.057622083 -0.22344515 -0.116619535
-0.38114932 -0.23771942 -0.11183086 0.42695117 0.21711406 0.065695 -0.24438111 0.051724087
0.25786814 0.4124973 0.3390863 0.32982147 0.259384 -0.10636175 -0.21529384 0.26725018
0.08866914 0.13696647 0.08018479 -0.0011737549 0.15130293 0.0979885 -0.38251463 0.13758472
0.043204896 -0.16317755 -0.45399478 -0.24563107 0.039090827 -0.19769728 -0.63237 -1.3904215
-0.61530757 0.00825416 -0.14211276 -0.62217087 -0.5642792 -1.3605107 -0.5710941 -0.47792736
-0.12210973 0.30784085 0.3064613 -0.4225849 -0.6201081 -0.8607238 -0.36329406 -0.05239659
0.117156655 0.13103057 0.1749684 0.1948688 0.14740653 -0.0032255782 0.23864333 0.20852675
0.14428687 0.09070316 -0.3240405 -0.47162464 -0.5671032 -0.6909051 -0.37315795 0.24849571
0.27937213 -0.13151388 0.20984727 -0.011082071 -0.043700222 0.039283026 -0.10136174 -0.1670483
-0.17930397 0.119868554 0.50925845 0.24038942 -0.48875058 -0.4235833 -0.11686231 0.12509948
0.0059986142 -0.3675376 0.11630953 -0.046203658 -0.40046757 -0.43743774 -0.28490725 0.36264294
-0.020140937 0.060039215 -0.28524122 0.059423275 0.09516527 0.30694243 0.28096128 0.06695723
-0.16349044 -0.20021923 -0.06453335 0.29646346 0.29152665 0.42221454 0.08935214 -0.28923136
-0.26631543 -0.04818593 -0.026792033 -0.012585786 -0.26878577 -0.3677538 -0.4202557 -0.5830376
-0.21632312 0.31710094 0.14673448 -0.35081777 -0.1464159 -0.22682966 -0.022692086 -0.05692489
-0.3293162 -0.16773778 -0.14024654 0.03036911 -0.09644222 -0.35367978 0.22201623 -0.1290689
0.027025282 -0.29436177 -0.20792508 0.2708285 0.06950797 0.293614 0.20591536 0.03528609
0.08539835 -0.30626854 0.037088383 -0.4026156 -0.1281304 -0.007815542 0.14917158 -0.021737903
00000000: b9f9 443d fa17 bfbd b8fc 573e 31aa 853e
00000010: 50f1 5b3c 0a33 cb3d dc3e 963c 4cc9 8d3e
00000020: cae4 2e3e 9275 5a3e df90 7c3d 0237 453e
00000030: 5086 fe3d c134 b5bd d275 1d3e 652a 07bf
00000040: e9e8 babe ca69 92be 957d c6be 89d2 52be
00000050: f9df 69bf 05ac 67bf 62f7 80bf 7b01 c0bf
00000060: 28a6 c4bf 0700 453e e141 35be ddd6 1bbf
00000070: b9fa 52bb 99a4 23be f2e3 c83d 977b 66be
00000080: 8455 abbe 0e64 cabc 208f bfbc 90a7 703e
00000090: 9530 643e 965d 59be b515 303d a3a5 1dbe
000000a0: 004e 963e f835 9f3e 7dc3 a2bd d021 7a3e
000000b0: b66d b73d bf9b 6e3c 0a36 853e 4b0f 23bd
000000c0: b67d 933e 46b2 4abe cd1d a53e 5f6d 353e
000000d0: 62fa 963c e5e6 96bd a827 0f3e 615f 41be
000000e0: f740 833e ff5d ba3d f8bf 883c e92f 833e
000000f0: a9cc 033e 81cd 8d3e 4c62 d7be 14d4 ba3c
00000100: 84eb abbd 4aec b9be a149 cdbe 923c 63bf
00000110: 72c4 f2be f943 80bf 0491 d73d db2f 4fbd
00000120: f189 84be 1bc8 d9be 4939 06bf 120d 8c3e
00000130: 890e 193f 532b 1fbe e1ad 63be 341e 54be
00000140: 3b96 ff3e 0f99 5c3e ffd1 94be 9aaf b8bd
00000150: 25a3 0e3d 67d0 903d e1ca acbe d85e 02bf
00000160: aff1 c3be 0c00 37bf ba1b 4fbe 81a9 01bf
00000170: a33e 87bf d4c5 8fbf 820d 7dbf b3e1 713d
00000180: 0621 bc3d aa2e a9be d6b1 1ebf 5ba6 71bf
00000190: c594 343e eb2e 9ebd e659 60bd bade 37bd
000001a0: ae20 813d d737 803e d30d 193e 4c94 8dbe
000001b0: d2c7 ccbe 2205 6c3d cece 64be 39d6 eebd
000001c0: 0126 c3be b86c 73be 9407 e5bd 5899 da3e
000001d0: 2653 5e3e 1a8b 863d 0b3f 7abe a3dc 533d
000001e0: 4b07 843e d932 d33e b89c ad3e 5cde a83e
000001f0: fbcd 843e 30d4 d9bd fd75 5cbe 04d5 883e
00000200: 2b98 b53d f040 0c3e ec37 a43d aed8 99ba
00000210: 28ef 1a3e 32ae c83d f5d8 c3be 02e3 0c3e
00000220: 9ef7 303d 0418 27be 0172 e8be b686 7bbe
00000230: b41d 203d 2871 4abe 00e3 21bf 55f9 b1bf
00000240: cc84 1dbf 753c 073c 0286 11be 9746 1fbf
00000250: 9a74 10bf 3725 aebf 3933 12bf e5b2 f4be
00000260: ab14 fabd 519d 9d3e 7fe8 9c3e 0c5d d8be
00000270: 68bf 1ebf 6558 5cbf ae01 babe cf9d 56bd
00000280: d4ef ef3d e12c 063e eb2a 333e b08b 473e
00000290: bdf1 163e 3964 53bb eb5e 743e 0988 553e
000002a0: f0bf 133e 94c2 b93d a3e8 a5be c978 f1be
000002b0: ad2d 11bf 28df 30bf 8f0e bfbe a975 7e3e
000002c0: dd09 8f3e 93ab 06be 34e2 563e 9391 35bc
000002d0: 01ff 32bd 3de7 203d be96 cfbd b60e 2bbe
000002e0: 769b 37be a57d f53d c35e 023f a528 763e
000002f0: 843d fabe e9df d8be 8255 efbd 141a 003e
00000300: 0690 c43b e32d bcbe b133 ee3d 0c40 3dbd
00000310: 160a cdbe d7f7 dfbe 5ddf 91be 56ac b93e
00000320: 9bfe a4bc aeeb 753d 230b 92be d265 733d
00000330: 02e6 c23d 8f27 9d3e 28da 8f3e df20 893d
00000340: 0a6a 27be 4506 4dbe 102a 84bd 0fca 973e
00000350: fb42 953e 812c d83e 41fe b63d 2216 94be
00000360: 7f5a 88be 9c5e 45bd f77a dbbc 9d34 4ebc
00000370: 4a9e 89be 3a4a bcbe c12b d7be f441 15bf
00000380: cf83 5dbe 0e5b a23e 9041 163e 639e b3be
00000390: 0dee 15be 0946 68be c1e4 b9bc 132a 69bd
000003a0: 229c a8be 74c3 2bbe ca9c 0fbe a4c8 f83c
000003b0: 8083 c5bd 8415 b5be 3958 633e a32a 04be
000003c0: 2064 dd3c 96b6 96be 50ea 54be 08aa 8a3e
000003d0: 325a 8e3d 9354 963e 7adb 523e 2688 103d
000003e0: 55e5 ae3d 3bcf 9cbe fde9 173d a223 cebe
000003f0: 9e34 03be c20c 00bc 6fc0 183e b013 b2bc

conv2.bias f4 [16]
0.060424175 -0.077066325 -0.076965466 0.17459494 0.018728586 -0.0056168297 -0.16301075 -0.23838791
-0.055042095 -0.22856602 -0.06690706 0.29423574 0.09291695 -0.12819947 -0.074110016 -0.1519292
00000000: 577f 773d f3d4 9dbd 12a0 9dbd 04c9 323e
00000010: b16c 993c 620d b8bb 4aec 26be f61b 74be
00000020: d273 61bd 360d 6abe 9206 89bd 11a6 963e
00000030: 3e4b be3d b946 03be fec6 97bd 5493 1bbe

fc1.weight f4 [120, 256]
-0.06435586 -0.25341672 -0.39836183 -0.010016456 0.03838815 -0.36148477 -0.30740276 -0.18769222
-0.20499931 0.06787042 -0.044797093 0.17136961 -0.20533217 0.0043359916 -0.3333786 0.0008176796
-0.18820909 -0.008050316 0.1636464 -0.1154158 -0.3165227 -0.23960066 -0.20287102 -0.11921544
-0.86537886 -0.69856375 0.014685033 0.4886159 -0.8302864 0.1291467 0.1161817 -0.016910382
0.30511767 0.11946586 0.11183764 -0.52888 0.3202872 0.60114366 0.52598417 0.28329384
-0.3020055 -0.2219776 0.2476723 0.06633657 0.032499854 -0.01930234 0.08319517 0.13570604
-0.18960811 -0.092727095 0.2041094 0.019684426 -0.21862967 -0.36578822 -0.07766456 0.39575532
-0.17273447 -0.36868978 0.01811367 0.15874748 0.7196387 0.38909343 -0.12926482 -0.039801072
0.03164581 -0.7909526 -0.21264161 -0.12392617 -0.00726036 -0.16079664 -0.25031614 -0.053020265
-0.39996767 -0.31588364 -0.34293452 -0.031248786 0.51138616 0.40232694 0.16935346 0.132057
-0.46982142 0.09391653 0.3531812 0.28181186 -0.25940174 0.12284718 0.12265294 0.0033296328
0.3026949 -0.13509078 0.26552695 -0.06595105 0.122294515 -0.093571916 -0.014325015 -0.4654491
0.23251684 -0.021300247 -0.22599626 -0.30828598 0.11976053 -0.3702235 0.2853494 0.24182457
-0.9234117 -0.12321003 -0.09125878 -0.27532938 -0.006512025 0.041580305 -0.19577058 -0.0073447786
-0.556163 0.046211235 0.13973597 -0.5298783 -0.31160605 0.65008765 0.11314392 -0.19095068
0.11367598 0.38794395 0.19056414 -0.017945904 -0.17082483 0.0060546473 -0.075588144 0.027687602
-0.08700907 0.58596504 0.18822195 -0.20612742 -0.55536556 -0.18816605 0.18403699 -0.13500564
-1.3036869 -0.49282694 0.10372042 0.10835582 -0.057174653 0.34632546 0.058742035 0.042016577
-0.10543724 -0.9870021 -0.1622741 0.20348443 -0.23339799 -0.104407355 -0.34560037 -0.59738433
-0.1630685 0.3530806 -0.12861085 -0.32318288 0.46948546 0.02452239 -0.0928609 -0.21279086
-0.6490369 0.33430713 0.33604482 0.24712016 0.1558719 -0.23930997 -0.34249452 -0.15956865
0.2815397 -0.5595579 -0.21507037 -0.09864618 -0.10755865 -0.026711835 -0.0635786 -0.37472066
-0.21972218 -0.3136253 0.42625135 0.52201486 0.29960644 0.43144843 -0.14930458 -0.014746804
0.21376625 0.36240026 -0.34222576 -0.26803574 0.10368284 -0.16300084 0.41712365 0.26020545
0.0062848395 0.3153209 0.043549016 -0.12007942 -0.4666139 0.32699093 -0.10424084 -0.0122128
-0.49227732 0.023270104 0.06171393 -0.15476927 0.12382219 0.33167988 0.20117477 -0.30386472
0.5999854 0.32459632 0.06813196 -0.07420398 -0.46838412 0.11455761 0.03637633 0.45931235
-0.11961174 -0.33664653 -0.30296472 0.2166396 0.3040944 0.14777918 0.13530412 -0.13185823
-0.01781645 -0.3152332 -1.0619061 -0.40587428 0.6096753 0.6782443 -0.25977442 -0.18780448
0.0654618 0.4898233 0.268343 0.2099435 -0.14511359 0.048282035 -0.27189782 -0.055172756
0.23374063 0.23535506 -0.62256926 -0.78856254 0.1769873 0.12761256 0.2587958 -0.122454666
0.17835532 -0.02930067 -0.10905436 0.38718712 0.2500833 0.24912617 0.13046356 0.08462777
00000000: 01cd 83bd d6bf 81be 15f6 cbbe 101c 24bc
00000010: e53c 1d3d 8814 b9be e563 9dbe 6432 40be
00000020: 57eb 51be a6ff 8a3d 287d 37bd 847b 2f3e
00000030: 9942 52be ef14 8e3b 9ab0 aabe 8d59 563a
00000040: e2b9 40be 79e5 03bc ec92 273e 1e5f ecbd
00000050: 430f a2be e059 75be 6cbd 4fbe 3927 f4bd
00000060: 7889 5dbf 13d5 32bf 7e99 703c dd2b fa3e
00000070: a68d 54bf 083f 043e acf0 ed3d a487 8abc
00000080: 6238 9c3e 84aa f43d 220b e53d ae64 07bf
00000090: affc a33e 8de4 193f e6a6 063f e40b 913e
000000a0: 77a0 9abe 194e 63be cf9d 7d3e 78db 873d
000000b0: 911e 053d f11f 9ebc 3b62 aa3d 86f6 0a3e
000000c0: a128 42be b4e7 bdbd 0e02 513e 3c41 a13c
000000d0: 75e0 5fbe 9848 bbbe 990e 9fbd 71a0 ca3e
000000e0: 4ee1 30be e8c4 bcbe 1f63 943c b38e 223e
000000f0: 3e3a 383f 4137 c73e ff5d 04be 7306 23bd
00000100: 099f 013d df7b 4abf b9be 59be 01cd fdbd
00000110: 50e8 edbb e0a7 24be 7029 80be c72b 59bd
00000120: 90c8 ccbe 80bb a1be 1d95 afbe 74fd ffbc
00000130: 34ea 023f ccfd cd3e fe6a 2d3e f339 073e
00000140: 6f8c f0be 4f57 c03d 2bd4 b43e a549 903e
00000150: 4ed0 84be 4d97 fb3d 7731 fb3d f835 5a3b
00000160: d3fa 9a3e 3d55 0abe 26f3 873e 5811 87bd
00000170: 8c75 fa3d a2a2 bfbd 78b3 6abc 584f eebe
00000180: e518 6e3e db7d aebc 906b 67be a9d7 9dbe
00000190: 0245 f53d ef8d bdbe 5119 923e dca0 773e
000001a0: b664 6cbf 8a55 fcbd e2e5 babd f9f7 8cbe
000001b0: d362 d5bb 1c50 2a3d 1578 48be 78ac f0bb
000001c0: b360 0ebf fe47 3d3d f216 0f3e 1ba6 07bf
000001d0: d48a 9fbe 256c 263f 00b8 e73d 9388 43be
000001e0: f4ce e83d 97a0 c63e 3f23 433e 4a03 93bc
000001f0: b4ec 2ebe 1066 c63b f5cd 9abd 1cd1 e23c
00000200: d031 b2bd ce01 163f 41bd 403e 1113 53be
00000210: 702c 0ebf 9aae 40be 3174 3c3e eb3e 0abe
00000220: 36df a6bf d053 fcbe 5f6b d43d a8e9 dd3d
00000230: f82f 6abd 9251 b13e 7d9b 703d 9319 2c3d
00000240: 7bef d7bd 2bac 7cbf 2f2b 26be 395e 503e
00000250: e2ff 6ebe 86d3 d5bd 88f2 b0be 2eee 18bf
00000260: 6efb 26be fbc6 b43e 90b2 03be 3a78 a5be
00000270: 6660 f03e 2ee3 c83c db2d bebd d9e5 59be
00000280: 4827 26bf 4e2a ab3e 110e ac3e 110d 7d3e
00000290: e29c 1f3e ac0d 75be 715b afbe f765 23be
000002a0: f925 903e 303f 0fbf 683b 5cbe 0207 cabd
000002b0: b647 dcbd c7d2 dabc 7f35 82bd 63db bfbe
000002c0: dafe 60be 7f93 a0be 9e3d da3e c4a2 053f
000002d0: 0466 993e cfe6 dc3e 4de3 18be 949c 71bc
000002e0: 8ae5 5a3e 878c b93e 3738 afbe fb3b 89be
000002f0: ab57 d43d b1e9 26be 3b91 d53e a639 853e
00000300: 0ef1 cd3b be71 a13e 7460 323d 33ec f5bd
00000310: 04e8 eebe 5b6b a73e 397c d5bd 3218 48bc
00000320: c60b fcbe f2a0 be3c bfc7 7c3d d67b 1ebe
00000330: 7d96 fd3d f2d1 a93e c200 4e3e 2894 9bbe
00000340: a598 193f 7d31 a63e c588 8b3d 42f8 97bd
00000350: 0bd0 efbe 2e9d ea3d 59ff 143d fd2a eb3e
00000360: 00f7 f4bd ef5c acbe 311e 9bbe c5d6 5d3e
00000370: 43b2 9b3e 6d53 173e 2a8d 0a3e d805 07be
00000380: cef3 91bc 3f66 a1be 8aec 87bf c1ce cfbe
00000390: ae13 1c3f 6ba1 2d3f 2701 85be d14f 40be
000003a0: d610 863d 1fca fa3e 4164 893e 6efb 563e
000003b0: a898 14be 62c3 453d 3136 8bbe d4fc 61bd
000003c0: b459 6f3e eb00 713e b360 1fbf 3cdf 49bf
000003d0: 293c 353e deac 023e e280 843e 83c9 fabd
000003e0: c7a2 363e f507 f0bc e457 dfbd 643d c63e
000003f0: eb0a 803e ee1a 7f3e 3d98 053e 5351 ad3d

fc1.bias f4 [120]
-0.080598205 -0.12007146 -0.4664859 0.061598834 0.01579615 0.0294341 -0.22855552 -0.23597866
0.25081646 -0.63698035 0.053180426 -0.20844826 -0.00969551 -0.3902159 -0.07424073 -0.087555446
-0.1958804 0.006288628 -0.21695268 -0.09342062 -0.29711938 -0.08145959 -0.11568557 0.018627977
0.030074012 -0.087610036 0.0915195 -0.09656571 0.070521146 0.01589262 -0.2293872 -0.009467997
-0.24213532 -0.104734845 -0.0132713 -0.27711117 -0.066347495 -0.058560066 -0.04731126 -0.26272324
-0.1333575 -0.53723776 -0.058320202 -0.24996647 0.15007615 -0.7897914 -0.23721783 -0.4496743
0.19189064 -0.01289137 0.05526037 0.34268117 -0.6861888 0.1567548 -0.19035146 -0.077423185
-0.3214241 0.054109417 0.22313048 -0.091500744 -0.39852557 -0.10339523 -0.1875566 -0.55623835
-0.18426771 0.02872643 -0.3828536 0.065780945 -0.027685998 -0.3697389 -0.03087401 -0.01754854
-0.1300268 -0.8722327 -0.15186049 -0.35036284 -0.19318643 -0.33413702 -0.34285137 0.12070104
-0.13554396 -0.5308198 -0.26438633 -0.16327128 0.04810239 -0.13635851 -0.2673171 -0.03852461
0.103055395 -0.3655856 -0.22862306 -0.21536829 0.09885815 -0.383448 -0.3543488 0.0008540143
0.025885677 -0.014670484 -0.20399447 -0.6356644 0.04234999 0.0726265 -0.18700947 -0.17715691
-0.07043982 -0.19801435 -0.2745914 -0.111830816 -0.48014024 -0.016525885 -0.20482922 -0.1413433
0.02392648 -0.012864202 -0.19607525 -0.19879717 0.19415885 0.037764706 -0.3086146 0.09663412
00000000: ac10 a5bd 07e8 f5bd 3dd7 eebe 0f4f 7c3d
00000010: ed66 813c c81f f13c 750a 6abe 64a4 71be
00000020: 046b 803e 2511 23bf b8d3 593d 7673 55be
00000030: ebd9 1ebc 61ca c7be 860b 98bd 4550 b3bd
00000040: df94 48be d610 ce3b d828 5ebe 4f53 bfbd
00000050: 0820 98be 49d4 a6bd 8eec ecbd b399 983c
00000060: c65d f63c e46c b3bd 936e bb3d 3ec4 c5bd
00000070: 646d 903d 3d31 823c 7ae4 6abe a81f 1bbc
00000080: 52f2 77be 397f d6bd de6f 59bc 84e1 8dbe
00000090: 32e1 87bd aedc 6fbd 74c9 41bd a983 86be
000000a0: de8e 08be 6a88 09bf 2ae1 6ebd 36f7 7fbe
000000b0: 90ad 193e c52f 4abf 3be9 72be b63b e6be
000000c0: fb7e 443e 5336 53bc b358 623d e873 af3e
000000d0: 12aa 2fbf 5584 203e 7eeb 42be 0c90 9ebd
000000e0: b391 a4be d6a1 5d3d 517c 643e be64 bbbd
000000f0: 8b0b ccbe e1c0 d3bd d60e 40be a365 0ebf
00000100: adb0 3cbe b153 eb3c 6305 c4be 29b8 863d
00000110: bfcd e2bc 6b4e bdbe 7eeb fcbc f5c1 8fbc
00000120: bf25 05be a44a 5fbf 5181 1bbe c262 b3be
00000130: aad2 45be 0214 abbe 378a afbe 1b32 f73d
00000140: 09cc 0abe cee3 07bf a55d 87be 9630 27be
00000150: 0307 453d 91a1 0bbe c9dd 88be fbcb 1dbd
00000160: b50e d33d 092e bbbe 2a1c 6abe 8189 5cbe
00000170: 2476 ca3d 4c53 c4be 356d b5be eedf 5f3a
00000180: 330e d43c 785c 70bc ede3 50be e7ba 22bf
00000190: 2f77 2d3d 34bd 943d 697f 3fbe 9f68 35be
000001a0: c142 90bd 46c4 4abe 3e97 8cbe 8e07 e5bd
000001b0: f1d4 f5be 4b61 87bc c0be 51be 4cbc 10be
000001c0: 7701 c43c 60c4 52bc f3c7 48be 7c91 4bbe
000001d0: 94d1 463e 2aaf 1a3d bc02 9ebe 1ce8 c53d

fc2.weight f4 [84, 120]
-0.020807475 -0.21915072 -0.13663915 -0.26025727 0.15151283 -0.19756056 0.3835926 0.029897265
0.17265578 0.34632766 0.20541398 -0.0710443 -0.064394124 0.30447474 -0.038450483 0.0127334
0.30106914 -0.1523247 -0.085131444 -0.2600622 -0.3240965 0.024676558 0.034285516 -0.026950208
-0.6103082 0.05160202 0.052972026 -0.054118924 0.044218097 0.023848407 0.2916634 0.2608856
-0.21634917 -0.17584531 0.28552452 -0.10438682 -0.22110364 -0.011835105 -0.22323143 -0.056962308
0.06351022 0.42258915 0.018127318 0.09384776 -0.18500146 0.017694829 -0.2482259 0.17287844
-0.048708487 -0.60194474 0.050777752 -0.7470361 -0.31595606 -0.5939401 0.020082198 0.051493745
-0.032110702 -0.0037561909 0.029808518 -0.23008357 0.5017118 0.05146979 -0.18521978 0.032876052
0.5303516 0.38106894 0.04532785 -0.011300418 0.18329681 -0.58144933 -0.059094694 -0.05755992
-0.25179052 0.29603165 0.25392815 0.21115811 -0.35563508 -0.38473046 -0.01983444 -0.27475354
-0.32487723 0.17993686 0.027795743 0.23962139 0.17570187 -0.038684215 0.07207635 0.44417498
-0.15165791 -0.058573563 -0.019703748 0.60959285 -0.17754014 0.18830061 -0.3671013 0.07022112
-0.042124044 -0.71349996 0.15732403 0.024713116 0.27686736 -0.002722562 -0.092148006 0.25565472
0.2684109 0.48912132 -0.0894911 -0.07053788 0.11554328 0.20724529 -0.09008275 0.12332898
0.07830324 -0.015409268 -0.31118783 0.088692464 -0.06383252 -0.0756887 -0.41634956 -0.1218235
-0.323649 -0.35101134 -0.11925281 -0.09150787 -0.1721407 0.3506181 -0.072412856 0.48590988
0.31059724 0.2077666 -0.65928626 0.18575197 0.013939872 -0.05609101 0.025523791 -0.045175366
0.013921466 0.27388006 0.3869045 0.17346233 0.093145706 -0.043099854 0.18865217 0.0659665
0.32307047 -0.058887407 -0.030789338 -0.030432347 0.049872715 -0.049043857 -0.10041622 0.19291241
0.009870065 0.3005442 -0.09648202 0.532482 -0.79113424 -0.044365603 -0.20488586 -0.2580537
-0.27273956 0.022052398 0.041024078 0.13562773 -0.16772194 0.39985535 -0.42428952 0.0220221
0.10577776 0.16506743 0.012040236 -0.2444514 -0.27705264 -0.30145806 -0.21289091 -0.0017121375
-0.54662883 0.093865216 -0.123834126 0.07581589 -0.48867574 -0.051877934 0.20161124 0.12149542
-0.19543058 0.016136535 0.013410393 0.050487608 0.015439039 0.16743547 0.035992652 0.01693707
0.10557118 0.09456007 -0.030291837 0.31583118 0.5821508 -0.20314343 0.055359684 -0.50320244
0.19094588 0.08483087 0.26049438 0.03874795 0.03807916 -0.38280022 0.24618314 -0.031934608
-0.22921868 0.11591062 -0.21513714 0.21687415 -0.31176683 0.13034219 0.33378989 0.09090429
-0.027362088 0.0347524 -0.24703893 0.41960862 -0.054301582 -0.010081549 -0.009220712 -0.27193585
0.5754212 -0.51424813 0.079630494 0.062999696 0.15190975 0.013853704 0.15993336 -0.20692879
-0.035881378 -0.050707746 0.12959658 0.35578787 -0.33461866 0.0073173274 0.14405344 0.34267437
0.39053088 0.016874108 -0.23708346 -0.11543949 0.18082681 -0.30859342 0.5881818 -0.40644327
-0.35028166 0.48328704 -0.7052401 0.39738014 -0.0568488 0.21855265 0.01958507 0.0009420467
00000000: 7074 aabc 0c69 60be 22eb 0bbe 7140 85be
00000010: 2e26 1b3e 514d 4abe 4066 c43e 1ceb f43c
00000020: adcc 303e dc51 b13e 0b58 523e ad7f 91bd
00000030: 11e1 83bd 1de4 9b3e 417e 1dbd c09f 503c
00000040: bc25 9a3e 02fb 1bbe 6559 aebd df26 85be
00000050: faef a5be 7e26 ca3c f86e 0c3d afc6 dcbc
00000060: 283d 1cbf a45c 533d 32f9 583d ceab 5dbd
00000070: 091e 353d bc5d c33c e854 953e cc92 853e
00000080: a38a 5dbe cb10 34be 4530 923e c2c8 d5bd
00000090: fe68 62be 07e8 41bc c896 64be 4f51 69bd
000000a0: a511 823d 9b5d d83e be7f 943c 4133 c03d
000000b0: 0671 3dbe bff4 903c ee2e 7ebe 0c07 313e
000000c0: 8d82 47bd 0d19 1abf 55fc 4f3d c23d 3fbf
000000d0: fec4 a1be 750c 18bf 6c83 a43c 1beb 523d
000000e0: 8386 03bd 6d2a 76bb fe30 f43c 079b 6bbe
000000f0: 2f70 003f fdd1 523d 41aa 3dbe 0aa9 063d
00000100: 1fc5 073f 781b c33e b2a9 393d 6325 39bc
00000110: 29b2 3b3e ddd9 14bf 470d 72bd f3c3 6bbd
00000120: b0ea 80be 7691 973e df02 823e d539 583e
00000130: cd15 b6be 64fb c4be d67b a2bc 7fac 8cbe
00000140: 4f56 a6be 5e41 383e e6b3 e33c 4f5f 753e
00000150: 31eb 333e 5773 1ebd c49c 933d e76a e33e
00000160: 364c 1bbe d5ea 6fbd c169 a1bc 470e 1c3f
00000170: 15cd 35be e0d1 403e b4f4 bbbe 17d0 8f3d
00000180: 438a 2cbd efa7 36bf 8d19 213e 2973 ca3c
00000190: 8fc1 8d3e 036d 32bb 18b8 bcbd 2de5 823e
000001a0: 276d 893e 1c6e fa3e 1c47 b7bd 2a76 90bd
000001b0: f5a1 ec3d 1c38 543e 4e7d b8bd e793 fc3d
000001c0: 735d a03d 2877 7cbc 0354 9fbe 65a4 b53d
000001d0: a0ba 82bd ad02 9bbd c52b d5be 997e f9bd
000001e0: 52b5 a5be c2b7 b3be d13a f4bd 7a68 bbbd
000001f0: a745 30be 3784 b33e 314d 94bd 2ec9 f83e
00000200: 9a06 9f3e c5c0 543e fcc6 28bf c435 3e3e
00000210: 1064 643c b0bf 65bd 4517 d13c ce09 39bd
00000220: dc16 643c 023a 8c3e 5918 c63e 1ca0 313e
00000230: 2dc3 be3d 7989 30bd 092e 413e 7219 873d
00000240: 7e69 a53e ec33 71bd ec39 fcbc 424d f9bc
00000250: 5547 4c3d 36e2 48bd 05a7 cdbd d58a 453e
00000260: 0eb6 213c eee0 993e 5e98 c5bd be50 083f
00000270: c687 4abf b5b8 35bd 99cd 51be 9d1f 84be
00000280: 85a4 8bbe 3ba7 b43c dd08 283d ffe1 0a3e
00000290: 4dbf 2bbe d7b9 cc3e 7a3c d9be b167 b43c
000002a0: 03a2 d83d 7007 293e 6944 453c 7851 7abe
000002b0: d8d9 8dbe b658 9abe 1300 5abe cd69 e0ba
000002c0: deef 0bbf 683c c03d bf9c fdbd 5d45 9b3d
000002d0: b533 fabe f57d 54bd 2d73 4e3e 97d2 f83d
000002e0: f41e 48be c430 843c 44b7 5b3c 18cc 4e3d
000002f0: 06f4 7c3c 3474 2b3e 086d 133d 9cbf 8a3c
00000300: b435 d83d b6a8 c13d 9626 f8bc a0b4 a13e
00000310: d607 153f d504 50be d6c0 623d e0d1 00bf
00000320: 5187 433e cfbb ad3d 855f 853e 2cb6 1e3d
00000330: e5f8 1b3d 64fe c3be 6f17 7c3e ddcd 02bd
00000340: 4db8 6abe 8c62 ed3d e94c 5cbe 4214 5e3e
00000350: e79f 9fbe 6c78 053e 82e6 aa3e 072c ba3d
00000360: 7526 e0bc 8858 0e3d c6f7 7cbe f1d6 d63e
00000370: 566b 5ebd 152d 25bc 7812 17bc 2d3b 8bbe
00000380: ce4e 133f c4a5 03bf 5015 a33d fc05 813d
00000390: 3b8e 1b3e a5fa 623c 92c5 233e 24e5 53be
000003a0: 5af8 12bd edb2 4fbd f7b4 043e d429 b63e
000003b0: 2353 abbe 31c6 ef3b bf82 133e 0473 af3e
000003c0: aaf3 c73e 923b 8a3c 02c6 72be 8a6b ecbd
000003d0: aa2a 393e f5ff 9dbe 1593 163f 5519 d0be
000003e0: 1e58 b3be 6671 f73e 9d8a 34bf 6975 cb3e
000003f0: 4ada 68bd 44cc 5f3e de70 a03c aff3 763a

fc2.bias f4 [84]
-0.110641085 -0.099401616 -0.47499552 0.030353831 -0.33111772 -0.44124126 -0.2035873 0.03318506
-0.21366638 0.038322754 -0.16067782 -0.34347987 -0.061372567 -0.35203215 -0.28217173 0.24549699
-0.19177613 -0.21440679 -0.5568634 0.049412154 -0.13326252 -0.27900085 -0.37187722 0.1025773
-0.1476615 0.04333584 -0.10876939 -0.38660815 0.01888135 0.10631174 -0.1306074 -0.13897303
-0.05067403 -0.71577114 -0.49195322 0.15443611 0.064631015 0.12521268 -0.097461544 -0.084675916
0.121610366 -0.42074597 0.04923434 -0.33813575 -0.3095399 0.036965594 -0.21152903 -0.25733665
0.26470086 0.07723453 -0.21311513 -0.17468773 -0.3883421 -0.122725874 -0.04667646 -0.3772301
-0.1769943 -0.27711058 -0.16703214 -0.43959776 -0.30866456 0.03254789 0.07462197 -0.36418778
-0.18135202 -0.40234068 -0.550557 -0.17586392 -0.425197 -0.29842612 0.023037186 -0.27187502
-0.45789525 0.010518783 -0.1838404 0.17755128 0.16816074 0.073651016 -0.14210002 0.1369526
-0.3354132 -0.31971192 0.23879227 -0.06169615
00000000: cb97 e2bd 1393 cbbd 9d32 f3be 99a8 f83c
00000010: 4388 a9be 60ea e1be 3079 50be 0fed 073d
00000020: 5ccb 5abe 52f8 1c3d ba88 24be 98dc afbe
00000030: cd61 7bbd 8f3d b4be d078 90be 9063 7b3e
00000040: f660 44be 748d 5bbe 9a8e 0ebf 6664 4a3d
00000050: f875 08be 33d9 8ebe b166 bebe 0c14 d23d
00000060: 9434 17be ec80 313d 7cc2 debd 81f1 c5be
00000070: 10ad 9a3c f8b9 d93d f2bd 05be f24e 0ebe
00000080: 928f 4fbd c73c 37bf 4be1 fbbe 8024 1e3e
00000090: 445d 843d c137 003e eb99 c7bd 916a adbd
000000a0: db0e f93d 046c d7be f3a9 493d 2120 adbe
000000b0: 047c 9ebe 3c69 173d 119b 58be a1c1 83be
000000c0: df86 873e 232d 9e3d da3a 5abe 57e1 32be
000000d0: c7d4 c6be b457 fbbd d12f 3fbd 4e24 c1be
000000e0: fe3d 35be 70e1 8dbe 790a 2bbe f512 e1be
000000f0: 4809 9ebe f050 053d 67d3 983d d276 babe
00000100: 58b4 39be 99ff cdbe 4ef1 0cbf ac15 34be
00000110: 6cb3 d9be 4fcb 98be 7bb8 bc3c 3433 8bbe
00000120: 3f71 eabe f956 2c3c a840 3cbe 01d0 353e
00000130: 5432 2c3e 58d6 963d ab82 11be 4d3d 0c3e
00000140: 47bb abbe 48b1 a3be f685 743e 1ab5 7cbd

fc3.weight f4 [10, 84]
-0.58476084 -0.20707288 -0.65475154 -0.63824236 -0.39682725 -0.8058626 -0.036754884 -0.6111672
-0.4706812 -0.04878586 -0.36496156 -0.98388577 -0.42238837 -0.82457167 -1.435664 -0.7345943
-0.59919065 -0.31108654 -0.003589466 -0.055098876 0.13347626 -0.40498176 0.0620347 -0.7592125
-0.6373363 -0.19573149 -0.3923664 -0.14923716 -0.47793624 -0.6154344 0.08387383 -0.73460865
-0.36257544 -0.27666634 0.09660414 0.06969603 -0.32088265 -0.5796256 -0.71266866 -0.21269685
-0.31123716 -0.15620312 0.114151865 0.10277864 -0.50387895 -0.9485299 -0.53665435 0.22643468
-0.7614322 -0.19718902 -0.11858224 -0.52739304 -0.4123496 -0.008754297 -0.820509 0.090775326
-0.54515994 -0.74853605 0.07387978 -0.18832846 -0.84907794 0.08433961 -0.11893204 0.15660065
-0.67867756 -1.0248744 -0.11100547 -1.0210686 -0.5205335 -0.010580607 -0.06597943 0.04728866
-0.17944317 0.09776667 0.06537114 0.15501432 -0.5921917 -0.04427423 -0.0129967695 0.02838828
-0.599655 0.12478024 -0.91721696 0.13236588 0.040068798 -0.70220125 0.14506328 0.028254794
-0.41780192 -0.06634414 0.14232786 -0.7089363 -0.35739857 -0.5832031 0.09153433 -0.071356036
-0.9712944 -0.34298006 -0.1979976 0.071597405 0.120552555 -0.020954097 -0.69674754 0.12466738
-0.5123989 -0.4356629 -0.60201097 -0.050158065 0.00442663 -0.7470941 -0.2650397 -0.9936579
-0.7330643 -0.47177616 0.18982857 -0.24513243 -0.44762805 -0.44388974 -0.31742713 -0.60256827
-0.98808616 -0.4241646 -0.5230979 -0.7909118 -0.49356577 0.16894282 -0.7470645 -0.049740516
-0.38171947 0.10610599 -0.08635006 -0.5546307 -0.74903387 0.057085153 -0.54840785 -0.068913095
-0.5461159 -0.43698058 -0.46057102 -0.77209437 -0.5226065 0.04440146 -0.37240317 -1.223088
-0.49471098 -0.60936666 -0.6434662 0.11880436 -0.25197423 -1.1713694 -0.72801566 0.14239396
0.045645285 -0.17731473 -0.9838966 -0.58941156 -0.35333398 -0.686226 -0.08930231 0.03785395
-0.6054186 -1.3261957 0.034271512 -0.62004405 -0.54772747 -0.59176666 -0.50741965 -0.30796072
-0.14571561 -0.5022453 -0.09929717 -0.05751386 -0.37605754 -0.11267299 0.10637671 0.03916386
-0.23377956 0.057886027 0.061681394 -0.17273815 -0.1522178 -0.66457397 -0.031010259 0.04357364
-0.049801968 -0.7571193 0.08058977 -0.7530469 -0.6073205 -0.35302925 -0.61536217 -0.45135385
-0.011487356 -0.3650357 0.19019417 -0.5352088 0.32682464 -1.221384 0.07465594 0.0707155
-0.69132483 0.11884886 -0.0012755222 -0.012591966 -0.59373426 -0.15199988 -0.49022707 -0.73236555
-0.751453 -0.40075952 0.19540372 -0.020116094 -0.38527247 -0.06804103 -0.7319524 0.076325424
-0.37179825 -0.7618778 -0.9222658 -0.1226702 -0.71695715 -0.22175074 -0.067516744 -0.6998728
0.06839965 -0.44080496 -0.6018042 -0.16876538 0.087046735 -0.1920575 -0.6655423 -0.6983893
-0.40877807 -0.38989297 0.007993495 0.17133686 -0.70128715 0.053649515 -0.18876506 -0.94054705
-0.08488869 0.05132104 -0.91971505 -0.2740235 -0.22463138 0.1527677 0.033153158 -0.8008248
-1.4013113 -0.5884004 -0.7133228 -0.33086213 -0.13427787 -0.33983523 0.13993879 -0.10047391
00000000: e3b2 15bf ea0a 54be cc9d 27bf da63 23bf
00000010: f12c cbbe 034d 4ebf 4a8c 16bd 7475 1cbf
00000020: 20fd f0be afd3 47bd 3edc babe f0df 7bbf
00000030: 4a43 d8be 2117 53bf d7c3 b7bf 5f0e 3cbf
00000040: 8f64 19bf bc46 9fbe 3f3d 6bbb 5caf 61bd
00000050: 00ae 083e c559 cfbe 1918 7e3d c05b 42bf
00000060: 7928 23bf d66d 48be 40e4 c8be a0d1 18be
00000070: 0fb4 f4be 1c8d 1dbf 0bc6 ab3d 500f 3cbf
00000080: 7da3 b9be 36a7 8dbe 64d8 c53d cbbc 8e3d
00000090: bb4a a4be 5862 14bf 7471 36bf 34cd 59be
000000a0: 7a5a 9fbe b6f3 1fbe 74c8 e93d 9c7d d23d
000000b0: 36fe 00bf dbd2 72bf 2e62 09bf 7ede 673e
000000c0: 38ed 42bf ebeb 49be 3fdb f2bd 3b03 07bf
000000d0: 7d1f d3be 2f6e 0fbc e10c 52bf 6ae8 b93d
000000e0: 9a8f 0bbf 0fa0 3fbf 484e 973d 2dd9 40be
000000f0: 2c5d 59bf 3fba ac3d a492 f3bd ec5b 203e
00000100: d0bd 2dbf 162f 83bf d656 e3bd 60b2 82bf
00000110: af41 05bf 485a 2dbc 3920 87bd c1b1 413d
00000120: f3bf 37be e439 c83d 4ee1 853d 13bc 1e3e
00000130: e099 17bf e558 35bd 67f0 54bc 8a8e e83c
00000140: fd82 19bf c88c ff3d bbce 6abf ec8a 073e
00000150: 2e1f 243d 76c3 33bf 788b 143e 9976 e73c
00000160: 22ea d5be 70df 87bd 65be 113e d97c 35bf
00000170: f2fc b6be cc4c 15bf 5a76 bb3d 1d23 92bd
00000180: c0a6 78bf 159b afbe e2bf 4abe a9a1 923d
00000190: 42e4 f63d eda7 abbc 0c5e 32bf 9c51 ff3d
000001a0: 932c 03bf 350f dfbe 641d 1abf 8b72 4dbd
000001b0: 440d 913b 8f41 3fbf 49b3 87be 5d60 7ebf
000001c0: 1aaa 3bbf a58c f1be 6c62 423e ff03 7bbe
000001d0: 812f e5be 8445 e3be cf85 a2be ea41 1abf
000001e0: 37f3 7cbf 1a2c d9be bee9 05bf 3279 4abf
000001f0: a7b4 fcbe 59ff 2c3e 9e3f 3fbf b6bc 4bbd
00000200: bc70 c3be 194e d93d 4dd8 b0bd 47fc 0dbf
00000210: afc0 3fbf 1fd2 693d 7564 0cbf 4f22 8dbd
00000220: 40ce 0bbf ebbb dfbe f7cf ebbe faa7 45bf
00000230: 8ac9 05bf 4ede 353d a1ab bebe 268e 9cbf
00000240: c24a fdbe 74ff 1bbf 33ba 24bf b34f f33d
00000250: c402 81be 6fef 95bf 3c5f 3abf b9cf 113e
00000260: 8df6 3a3d fe91 35be a6e0 7bbf ade3 16bf
00000270: 31e8 b4be 82ac 2fbf 21e4 b6bd be0c 1b3d
00000280: b7fc 1abf c8c0 a9bf 4960 0c3d 35bb 1ebf
00000290: de37 0cbf 057e 17bf 41e6 01bf 07ad 9dbe
000002a0: 7936 15be 2693 00bf 515c cbbd a793 6bbd
000002b0: 9d8a c0be 19c1 e6bd 08dc d93d 496a 203d
000002c0: e963 6fbe e619 6d3d a1a5 7c3d 45e2 30be
000002d0: fcde 1bbe 8521 2abf 3a09 febc 467a 323d
000002e0: 26fd 4bbd 92d2 41bf 400c a53d aec7 40bf
000002f0: 5b79 1bbf 40c0 b4be 6088 1dbf da17 e7be
00000300: 7735 3cbc f6e5 babe 43c2 423e 7203 09bf
00000310: 8f55 a73e 5056 9cbf 37e5 983d 4ad3 903d
00000320: aafa 30bf 0867 f33d 6c2f a7ba 894e 4ebc
00000330: f8fe 17bf dba5 1bbe 0bff fabe 4f7c 3bbf
00000340: 395f 40bf 5a30 cdbe ea17 483e 82ca a4bc
00000350: 6f42 c5be 1859 8bbd 3c61 3bbf 8150 9c3d
00000360: 575c bebe 6c0a 43bf 9d19 6cbf 843a fbbd
00000370: 818a 37bf a012 63be 3846 8abd dd2a 33bf
00000380: 1e15 8c3d 30b1 e1be d70f 1abf d5d0 2cbe
00000390: 8f45 b23d b9aa 44be fb60 2abf a4c9 32bf
000003a0: 5c4b d1be 0da0 c7be 26f7 023c ee72 2f3e
000003b0: 8e87 33bf 98bf 5b3d a14b 41be b1c7 70bf
000003c0: 1fda adbd 0336 523d 7272 6bbf cf4c 8cbe
000003d0: c505 66be 236f 1c3e 9bcb 073d db02 4dbf
000003e0: 2b5e b3bf 69a1 16bf 539c 36bf c366 a9be
000003f0: 2380 09be e2fe adbe 1d4c 0f3e 44c5 cdbd

fc3.bias f4 [10]
-0.32889482 -0.09531276 0.059925742 0.0066019706 -0.014973841 -0.19106023 -0.12221983 -0.13835172
0.3130666 0.08686024
00000000: e764 a8be 5633 c3bd b274 753d 5855 d83b
00000010: d754 75bc 4ba5 43be 644e fabd 13ac 0dbe
00000020: 444a a03e c8e3 b13d
