mnist/saved_models/model_epoch_28.pth (torch, 181338 bytes, 10 tensors)

conv1.weight f4 [6, 1, 5, 5]
000000 e5 63 6b be fb a5 f6 3d fb 17 6f bb c3 05 b5 3e
       -0.22987325 0.12043377 -0.00364828 0.35355958
000010 1a 83 39 3c ec 10 41 3e 47 eb f8 3e 83 da 3f 3e
       0.011322761 0.18854111 0.48617002 0.187357
000020 26 7b 02 3e a5 35 87 3e 56 0d 41 3e 92 da f9 3d
       0.1274229 0.26408115 0.18852744 0.12199892
000030 2a 26 4a be 3e 79 78 bd f1 3f cf bc f2 6f 96 bd
       -0.19741121 -0.0606625 -0.025299044 -0.073455706
000040 54 8e 7d be a2 e9 56 be a6 8a 90 be 4e 30 78 be
       -0.24761325 -0.20987561 -0.2823078 -0.24237177
000050 7a db 1d be 11 5c 77 bd 51 f1 7f bd 1e a4 42 3e
       -0.15415755 -0.060390536 -0.062485997 0.19007918
000060 af 53 11 be 2f 9e 9d be 04 fa 00 bd 0a 0c dc 3e
       -0.14192079 -0.30784747 -0.031488433 0.42977935
000070 41 a6 59 be 11 41 2a be 46 f5 cc be 92 d8 21 3b
       -0.21254827 -0.16626383 -0.4003088 0.0024695736
000080 d2 35 25 3f fb 2d 88 3d 76 98 1c 3d 3d 8e 91 be
       0.6453525 0.06649395 0.038231336 -0.28428832
000090 80 a2 a7 be 58 46 d6 3e 9b fc 8c 3e 6f 0f e8 3c
       -0.32741165 0.41850543 0.27536473 0.028327672
0000a0 c8 23 a8 3b d2 06 0d bf 81 76 cf bd c9 7b 97 be
       0.0051312186 -0.5508853 -0.10130025 -0.29586628
0000b0 ff 89 de bd 63 44 af 3e 95 27 0d ba 01 51 2e 3e
       -0.108661644 0.34231862 -0.00053846213 0.17023088
0000c0 f9 76 4c 3d 78 fc fa 3d ff 20 ad bd 02 78 26 be
       0.04991815 0.12255186 -0.08453559 -0.16256717
0000d0 c2 88 0d be 62 21 cc 3c fa 60 a0 be 76 91 82 bd
       -0.138217 0.024918262 -0.31323987 -0.06375401
0000e0 96 20 0e bc 3c 2b a0 3e b3 3a e3 3e 71 55 14 be
       -0.008674761 0.31282985 0.4438072 -0.14485718
0000f0 e1 a5 7f 3e de 1f 3b 3e 93 09 f2 3e 01 2f 10 3f
       0.24965622 0.18273875 0.4727293 0.5632172
000100 89 b8 32 be 80 6f a1 bd bb d1 fa be a9 87 4a be
       -0.17453207 -0.07882595 -0.48988137 -0.19778313
000110 81 d7 9e 3e 8b 1c c4 3d 80 a3 fb 3c 24 b6 8d be
       0.3102379 0.09575757 0.030717611 -0.27678025
000120 d7 16 da be 67 58 f9 bb ac e8 86 3e 9f 50 d5 bb
       -0.4259555 -0.0076094153 0.2634939 -0.006509855
000130 53 2f d9 3d c3 97 16 bd ba de 1a bd d6 22 b7 3d
       0.106047295 -0.036765825 -0.037810065 0.08942191
000140 c4 3c ce 3d 43 f9 db 3c 22 c5 c5 bd b8 ca 21 3d
       0.10070184 0.026852256 -0.09656741 0.03949997
000150 dd 77 8f 3e bf e1 1c 3d ca 15 f6 bd 74 68 96 be
       0.28021136 0.038301226 -0.12015875 -0.29376566
000160 d9 5e a1 bd 15 ed 6b 3e 00 68 02 be b2 da ec bd
       -0.07879419 0.23039658 -0.12734985 -0.1156515
000170 17 60 0e be 1c 75 fd 3e 3c 34 be 3e 16 33 5a be
       -0.13903843 0.4950341 0.37149227 -0.2130855
000180 12 85 ce 3c 52 4b 23 3e 1d 13 dd 3d 21 b1 fb 3d
       0.025209937 0.15946701 0.10794661 0.12289644
000190 b3 43 63 3d d8 29 b5 3b c7 fb b3 3e 65 ee c6 ba
       0.055484485 0.00552867 0.35153028 -0.0015177248
0001a0 cf 36 9d 3e 69 0e 48 bd 66 3a 37 be 31 57 9c 3c
       0.30705878 -0.048841868 -0.17893371 0.019084545
0001b0 99 90 e4 3d 8a a0 85 3e 6f e7 21 be 65 44 9c be
       0.11160392 0.26099044 -0.15810941 -0.3052093
0001c0 cc 58 81 be 0a ae f3 be d6 cd 21 bd d6 05 cb 3e
       -0.2526306 -0.4759372 -0.03950294 0.3965289
0001d0 d0 02 16 be 7d 83 20 bf 9c bf 90 be d0 a2 f1 3d
       -0.1464951 -0.62700635 -0.28271186 0.11798632
0001e0 b4 9d 00 3e 3d d8 e9 3e 4c 9f 07 3f 60 7d f4 3e
       0.12560159 0.4567279 0.5297744 0.47751904
0001f0 21 65 26 bc 44 89 0a 3e 18 03 3f 3e 28 cb 81 bd
       -0.010155947 0.13528925 0.18653524 -0.06337577
000200 1a b2 e2 bc 6c 3a 91 3d 14 55 89 be 77 4c 1e 3e
       -0.027672816 0.07091221 -0.26822722 0.15458857
000210 e2 64 d5 3d 93 3a 8d bd 3a 51 58 bd d8 e6 cb bd
       0.104196325 -0.06895938 -0.05281184 -0.09956139
000220 82 b0 18 3f b3 e9 42 be 20 91 8f be 43 01 db 3d
       0.5964433 -0.19034462 -0.2804041 0.106936
000230 38 79 94 3e fd 57 c5 3e 56 9a 24 bf a5 9d 42 3d
       0.28998733 0.38543692 -0.64298 0.047513623
000240 f0 b1 ba 3c 89 82 8d 3e a3 fd 73 be 4b 49 30 be
       0.022789925 0.27638653 -0.23827223 -0.17215459
000250 1b 9a b1 3d 62 98 b1 ba
       0.086719714 -0.0013549442

conv1.bias f4 [6]
000000 6f d3 73 be df 18 a1 bf 6f 83 e8 be 9a 0b 2f bf
       -0.23811124 -1.2585715 -0.45412776 -0.6837708
000010 9d 81 33 bf f1 ef 3b bf
       -0.7011965 -0.73412997

conv2.weight f4 [16, 6, 5, 5]
000000 6b 6e 52 3e 69 79 76 bc 9c d6 88 3e d9 6b 50 3e
       0.20549934 -0.015043595 0.26726234 0.2035364
000010 4b f7 19 bd 7b aa 9e 3d 03 07 9d 3d 01 24 ca 3e
       -0.037589353 0.0774736 0.07667353 0.39480594
000020 5f 2d b6 3d 83 78 4b 3e 11 14 b5 3d 1b 69 52 3e
       0.088953726 0.1987019 0.08841718 0.20547907
000030 67 40 3d 3d e5 fd 1e be 07 74 3b 3e ca 1a 1e bf
       0.046203997 -0.1552654 0.1830598 -0.61759627
000040 7a ce 15 bf ee 67 23 bf 41 b0 ca be f2 65 1f be
       -0.58518183 -0.6383046 -0.39587596 -0.15566233
000050 ad 72 89 bf f9 e4 8b bf 0a a8 97 bf f4 f2 e3 bf
       -1.0738121 -1.0929252 -1.1848156 -1.7808518
000060 9b a1 02 c0 4f 65 7b 3e f7 2b 72 be 88 b7 6d bf
       -2.0411136 0.24550365 -0.23649584 -0.9285817
000070 fc ac ef 3d 5f 81 9f bb ae 29 22 bb fc 54 18 bf
       0.11702916 -0.004867717 -0.0024744081 -0.59504676
000080 45 28 9d be 95 73 0e 3e 2a 51 af 3b 3d b4 72 3e
       -0.30694786 0.13911279 0.0053502517 0.23701568
000090 a9 45 1e 3e b8 3a 95 be 1c 0c b2 bd 38 e9 06 bd
       0.1545626 -0.2914636 -0.08693716 -0.03293726
0000a0 7e ef 87 3e c3 59 82 3e 58 1d b5 be 0a 2d dc 3d
       0.26549906 0.25459108 -0.3537395 0.10750778
0000b0 f3 a1 ca bd fc b9 03 be e0 fe d3 3d b6 8b 0b bf
       -0.098941706 -0.12863916 0.10351348 -0.54510057
0000c0 ae 7f 3c 3e 60 f8 05 bf 0d d8 84 3e 7f f0 32 3e
       0.18408081 -0.52332115 0.25946084 0.17474554
0000d0 d0 a9 16 be 1f 1a a2 be e7 83 0b 3e 5b b5 c1 be
       -0.14713216 -0.31660554 0.13624536 -0.37833676
0000e0 21 1e 4d 3e ce 98 d9 3d 91 af 22 bd 53 a7 fe 3d
       0.20031025 0.10624848 -0.039718214 0.12434258
0000f0 dc 2b fb 3d b9 22 87 3e 45 b2 02 bf 73 a3 00 3e
       0.12264225 0.2639368 -0.5105327 0.12562351
000100 78 6e 12 bd 9b 97 0f bf 51 d3 32 bf df f5 ab bf
       -0.035749882 -0.56090707 -0.69853693 -1.3434409
000110 60 4c 4a bf de 2e d1 bf a9 37 04 3e 18 cd cd bc
       -0.7902279 -1.6342428 0.12911858 -0.02512221
000120 8b 1c 44 be 44 0f 20 bf 9f 8e 53 bf 76 21 9c 3e
       -0.19151513 -0.62523293 -0.826395 0.3049428
000130 d2 8f 70 3f 72 80 85 be d4 22 b7 be 18 24 be bd
       0.9396945 -0.26074558 -0.3576876 -0.09284228
000140 48 70 0f 3f 99 20 e5 3c 11 81 df be 08 35 17 be
       0.560307 0.027969645 -0.43653157 -0.14766324
000150 5b 93 ab bd 25 86 81 3d ac d8 62 bf 6c fb 31 bf
       -0.08377715 0.06324414 -0.88611865 -0.69524264
000160 75 3d 08 bf 72 ca 86 bf 82 a9 25 be 4c be 77 bf
       -0.53218776 -1.0530531 -0.16177943 -0.96774745
000170 66 c5 c2 bf 50 a4 d3 bf a8 ad 9e bf c7 38 dd 3c
       -1.5216491 -1.6534519 -1.2396746 0.027004613
000180 f0 ee 94 bd ea 63 36 bf ca d7 fa be 69 39 88 bf
       -0.07272136 -0.71246207 -0.4899276 -1.064252
000190 8a 5e d9 3e 8f 15 68 3d 4c 5b 09 be 1d 1b 96 3d
       0.4245494 0.056661185 -0.13413733 0.0732939
0001a0 c5 57 7d 3e 26 f7 96 3e bf d5 53 3e e0 9c 73 be
       0.24740513 0.29485434 0.20687006 -0.23790312
0001b0 c8 5f f1 be 8c 75 a0 3e 97 8a bf be be dd 24 be
       -0.47143388 0.3133968 -0.37410423 -0.16100213
0001c0 de 10 d2 be ec 70 5b be 03 13 c4 3c d3 46 b9 3e
       -0.41028494 -0.21429795 0.023934847 0.36186847
0001d0 cb ed d8 3d 3a 82 a6 bd 58 a3 0b bf 7e 6a c5 3c
       0.105922304 -0.081303075 -0.5454612 0.024098631
0001e0 80 70 48 3e 1c 25 dd 3e 1c 60 6d 3e 72 51 8c 3e
       0.19574165 0.43192375 0.23181194 0.27405888
0001f0 11 99 71 3e 7b 18 b3 be 5e 1f ee be 2c de cd 3e
       0.23593546 -0.34979615 -0.46508306 0.40208566
000200 63 fd 8d 3e 09 d5 b4 bd f1 2b 02 3e a4 ac 7e bd
       0.2773238 -0.08829696 0.12712075 -0.06217636
000210 51 8e b4 3e 2d 4d 5b bc 42 f5 fe be 20 17 8f 3e
       0.3526483 -0.013385099 -0.49796492 0.2794733
000220 bf 8d 30 bd a0 3c 68 be 86 d8 49 bf b4 3f 2f bf
       -0.04310393 -0.22679377 -0.78846014 -0.6845658
000230 79 fa 98 3d 14 a9 b1 be d2 aa 4f bf 23 45 0c c0
       0.07469649 -0.3469931 -0.81120026 -2.1917198
000240 90 52 92 bf b0 7e c9 bc 1d 73 74 bd 82 9e 82 bf
       -1.1431446 -0.024596542 -0.059680093 -1.0204623
000250 30 77 40 bf 39 41 d3 bf 57 bf 27 bf 48 a9 a0 be
       -0.75181866 -1.6504279 -0.65526336 -0.3137915
000260 73 1c ae be dc c8 97 3e 96 55 b0 3e a2 a6 0f bf
       -0.3400608 0.2964543 0.34440297 -0.56113636
000270 be 78 7a bf 33 43 67 bf be 7f d7 be 30 65 09 3e
       -0.9784049 -0.9033691 -0.42089647 0.13417506
000280 87 5f cd 3d a7 29 46 3e 87 50 a0 3e 1e 77 74 3e
       0.10027986 0.19351827 0.31311437 0.23873565
000290 a9 e7 1e 3e 48 73 38 bd 43 69 bb 3e d6 56 be 3e
       0.15518059 -0.045031816 0.36603746 0.37175626
0002a0 ce 0c 50 3e c6 81 18 3e 03 27 a9 be 6f 09 1a bf
       0.20317385 0.14893255 -0.33037576 -0.60170645
0002b0 55 84 45 bf 4b 57 27 bf 2e f8 94 be 20 b7 c7 3e
       -0.7715505 -0.65367573 -0.29095596 0.390069
0002c0 16 7c 96 3e 05 ad a9 be 5d 0a a0 bd 29 ad c3 3d
       0.29391545 -0.33139816 -0.07814477 0.09554512
0002d0 78 bf 2a 3e b2 73 71 3d 05 63 69 bd 79 ba c0 be
       0.16674602 0.058948226 -0.056979198 -0.37642267
0002e0 cb 50 80 be 98 93 c3 3e 0d d4 20 3f 7b ac b3 3e
       -0.2506164 0.38198543 0.62823564 0.3509253
0002f0 0b 2f 74 be 9d fc 61 bf 6f aa 99 be 4b d8 46 3e
       -0.2384607 -0.8827608 -0.30012843 0.19418447
000300 e0 66 91 bd c8 6e 1e bf 91 6a 6b 3d 29 10 aa bd
       -0.070997 -0.6188779 0.057474677 -0.083038636
000310 1f c2 b1 be 48 fa e7 be 57 be d0 be 6b 82 89 3e
       -0.34718415 -0.45308137 -0.40770218 0.26857314
000320 1a d4 09 3e df 35 0e 3e 80 dd 96 be b0 53 25 be
       0.13459817 0.13887738 -0.29465866 -0.16145205
000330 40 81 18 3e 34 32 e5 3e c7 26 3f 3e 9c 84 f1 3d
       0.14893055 0.44764864 0.18667136 0.11792871
000340 81 f6 25 be 84 2b e9 be ac 71 81 bd 2c d9 91 3e
       -0.16207315 -0.45541012 -0.06320509 0.28486001
000350 f2 74 b0 3e 17 96 05 3f fd 21 5e bc e7 42 c6 be
       0.34464222 0.52182144 -0.013557908 -0.38722917
000360 01 0c 7d be 11 82 92 3d 46 76 90 bb a6 00 60 be
       -0.2471161 0.071537144 -0.0044086305 -0.21875247
000370 2c 2f 34 be ce bf 0b bf 5c 23 16 bf 61 86 42 bf
       -0.1759612 -0.54589546 -0.58647704 -0.75986296
000380 38 c5 9d be bf ae 5a 3e b0 ab 3f 3e b7 06 db be
       -0.30814528 0.21355723 0.18717837 -0.4277856
000390 12 1c 26 3d 93 8e 94 be 8e 7c f0 bc 54 f7 89 bd
       0.040554114 -0.29015025 -0.029356267 -0.06736627
0003a0 05 39 67 be 27 28 32 be 35 c6 d2 be f9 08 9b 3d
       -0.22580345 -0.1739813 -0.41166845 0.07570071
0003b0 ed 9e 67 be 65 04 c5 be 62 26 be 3e e2 f2 a4 be
       -0.22619219 -0.38479915 0.3713866 -0.32216555
0003c0 23 0b b9 bd 17 df fa be 39 0f 1f be c2 41 ea 3e
       -0.09035327 -0.4899833 -0.1553315 0.45753294
0003d0 40 ea db 3c 00 90 9b 3e 3e e9 87 3e b8 ea 63 bd
       0.026845098 0.303833 0.26545137 -0.055643767
0003e0 48 64 8a 3e df bb b6 be 09 b1 62 3e cc d6 c1 be
       0.27029634 -0.3569021 0.22137846 -0.3785919
0003f0 59 de 2f be ed 6c 3a 3e f1 7d 0e 3e 7c 02 33 be
       -0.17174663 0.18205614 0.1391523 -0.17481416

conv2.bias f4 [16]
000000 21 1b 5d bb 44 40 4e be 9e 1b 68 be 02 d4 a2 3d
       -0.0033738094 -0.20141703 -0.22666785 0.079505935
000010 56 bd 60 bb 00 e4 a1 bd 51 ff 99 be b3 0a 04 be
       -0.003429254 -0.07904816 -0.30077603 -0.12894706
000020 2e 29 48 be b1 72 94 be e6 08 ee bd 49 d5 9c 3e
       -0.19546959 -0.28993753 -0.11622791 0.30631474
000030 7f 51 b0 3c 88 c7 3b be 43 61 9c bd 5e c4 08 be
       0.021523235 -0.18337834 -0.07635739 -0.13356158

fc1.weight f4 [120, 256]
000000 2e 81 3d be 4c 09 bb be 52 f6 28 bf cd b5 c9 3d
       -0.1850631 -0.3653053 -0.66000855 0.09849129
000010 c3 76 d1 bd 7a 3c bf be 00 4f e2 be be 7a e1 bd
       -0.1022773 -0.37350827 -0.44200897 -0.11009739
000020 29 40 d5 be 4e 6c f9 3d 30 ba 12 3c 0a a1 2a 3e
       -0.41650513 0.121788606 0.008955523 0.16662994
000030 64 2f 71 be 90 89 c8 bd c8 a9 cb be 9b 39 27 3e
       -0.23553234 -0.09791863 -0.3977797 0.16330568
000040 49 16 17 be 15 39 bf bd 18 2f 9f 3e 92 01 06 3e
       -0.14754595 -0.093370594 0.31090617 0.13086537
000050 bf 15 31 be 84 94 1d bd a8 32 07 be aa 30 03 be
       -0.17293452 -0.038471714 -0.13202918 -0.12811533
000060 5f b8 8f bf d6 d8 61 bf 08 48 0c 3e 8b 0e 2c 3f
       -1.122814 -0.8822149 0.13699353 0.6720969
000070 69 00 73 bf e3 dd 10 3e 0e f1 59 3e fd 5d 16 3d
       -0.949225 0.14147143 0.21283361 0.036710728
000080 2f ae aa 3e 35 e1 a1 3e d5 7f 86 3d 30 a4 42 bf
       0.33336017 0.31617132 0.06567351 -0.7603178
000090 b0 84 0f 3f c4 12 3f 3f 5c 95 36 3f e8 8b e8 3e
       0.5606184 0.7463801 0.71321654 0.4541924
0000a0 da 3a 93 be b2 b0 e4 bd 2d e0 b5 3e 63 b0 c0 bb
       -0.28755838 -0.111665145 0.35522595 -0.005880402
0000b0 7f a6 ab bd 46 51 e8 3d 1e 46 81 3c a2 0e 59 3e
       -0.08381366 0.11343627 0.015780505 0.21196988
0000c0 08 e0 05 bd 58 f5 4a 3e 5b cc 6e 3d 27 d6 5a be
       -0.032684356 0.19820154 0.058300357 -0.21370755
0000d0 ef 94 0d bf 63 bf 16 bf 19 1e a6 be 43 d0 d8 3e
       -0.5530538 -0.5888578 -0.32444838 0.4234639
0000e0 c3 25 68 be 37 fe ce be 58 db d7 bd 7d 9b 38 3e
       -0.22670655 -0.40428326 -0.105398834 0.18028064
0000f0 59 9e 6f 3f 8c 88 b2 3e c2 51 1e bd d8 90 a2 bd
       0.93600994 0.34869802 -0.03865219 -0.07937783
000100 e4 b7 09 3f cf d9 3f bf 22 4c 0e be 3b 9f 92 3d
       0.5379622 -0.74941725 -0.1389623 0.07159277
000110 04 2c 9a be 2c 83 00 bd 1d 09 ae be 7b 6a 68 be
       -0.30111706 -0.031375095 -0.33991328 -0.22696869
000120 ab 47 0f bf 57 43 1f bf b4 ea 62 be 23 93 3e be
       -0.5596873 -0.6221213 -0.22159845 -0.18610816
000130 1d 29 27 3f 51 41 35 3f e7 85 b0 3e ff 47 e7 3e
       0.6529711 0.7080279 0.3447716 0.45172116
000140 1a 21 64 bf 0f 19 e0 3d ae 14 b7 3e fb d5 93 3e
       -0.8911301 0.109422795 0.35757965 0.28874192
000150 75 d1 40 be 2f 66 18 3e c6 f2 3f 3e 1a 50 14 3e
       -0.18829902 0.1488273 0.18744954 0.14483681
000160 33 ee cd 3e da bb 02 bf 9c da 19 3e b0 11 7d be
       0.40220794 -0.5106789 0.15024799 -0.24713778
000170 a9 2b 11 3e 6b 80 aa be 00 b4 5a be 61 59 99 be
       0.14176811 -0.333011 -0.21357727 -0.29951003
000180 1f f2 e6 3d f9 21 22 3d a7 1f 83 be ea 3f d3 be
       0.1127665 0.03958318 -0.25610086 -0.412597
000190 0e e7 03 3f e9 cc 24 bf d4 bb b1 3e f6 70 eb 3e
       0.51524436 -0.6437517 0.34713614 0.4598462
0001a0 d6 81 55 bf 6c f3 be bc e2 ed 27 3e d9 96 36 be
       -0.8340124 -0.023309432 0.16399339 -0.17830981
0001b0 e3 c8 80 3e 0a 97 3f 3e ae 85 9f be 21 06 9f be
       0.25153264 0.1870996 -0.31156677 -0.31059363
0001c0 28 00 c9 be 81 ad 23 3e 59 17 26 3e 8a b4 40 bf
       -0.39257932 0.15984155 0.16219844 -0.7527548
0001d0 4c 15 22 bf 8a 26 28 3f 98 a2 97 3d a5 1b 8f ba
       -0.63313746 0.65683806 0.07404059 -0.0010918273
0001e0 9d 2b 88 bd ad 1b b3 3e 53 cd 87 3e de d0 02 3e
       -0.066489436 0.34982052 0.26523837 0.12774989
0001f0 67 d8 5d be 55 1a f2 bd f2 34 b0 3d 25 41 91 bd
       -0.21664582 -0.11821429 0.086038485 -0.070925035
000200 52 b2 ed bd 4e 67 ea 3e 06 ee 63 bd e3 bb 9c be
       -0.116062775 0.4578194 -0.05564692 -0.30612096
000210 31 cd 5e bf 38 84 c1 be 61 f3 5c 3d bf 96 88 be
       -0.8703185 -0.37796187 0.05394304 -0.2667751
000220 26 94 de bf 26 4d bf be 18 cb 13 3e 87 f6 8c 3e
       -1.7388961 -0.37363547 0.14432943 0.27531835
000230 d0 29 3a be 31 fa c6 3e 6a 06 84 3e 19 81 08 3e
       -0.18180013 0.38862756 0.25786144 0.13330497
000240 25 0c 8e bd 71 2e 72 bf c5 58 84 3d 8d 2a bd 3e
       -0.0693591 -0.94602114 0.06462244 0.36946526
000250 7a 3e 90 be 88 cf f6 bc f4 07 36 bf 75 44 59 bf
       -0.28172666 -0.030128255 -0.71105886 -0.8487008
000260 25 58 7b be 16 d1 a3 3e b9 4c 95 be d6 2d 85 be
       -0.24545343 0.31995457 -0.29160097 -0.26011533
000270 19 c0 d7 3e bd 3a 06 be 42 3a 36 be 70 e7 2e be
       0.42138746 -0.13108344 -0.17795661 -0.17080474
000280 b3 8e 33 bf 68 58 95 3e b0 f8 b3 3e 9c cb b5 3e
       -0.70139617 0.2916901 0.3515067 0.35506904
000290 31 99 67 bd 1c fc 82 be 60 56 19 bf 02 de 78 be
       -0.05654258 -0.2558297 -0.5989742 -0.2430344
0002a0 49 18 0b bd 1b 61 81 bf 93 30 06 bf a8 83 9b bd
       -0.033958707 -1.0107759 -0.5241787 -0.07593471
0002b0 6a 56 67 be 94 e3 80 be 19 e8 94 bd ff f4 34 be
       -0.22591558 -0.25173628 -0.072708316 -0.17671584
0002c0 df 40 90 be 5c 3e 83 be 29 17 1d 3f 7e ea 29 3f
       -0.28174493 -0.25633514 0.61363465 0.6637343
0002d0 7d 31 5f 3e 44 3a 2c 3f 36 ec d8 be d6 6c bc bd
       0.21796222 0.67276406 -0.42367715 -0.09200446
0002e0 f1 12 dc bd b7 d2 00 3f 30 58 2e bf 8a f9 ae be
       -0.107458 0.50321525 -0.68103313 -0.34174758
0002f0 fd ff 1c 3c 0d 5f 89 be 58 3b 1f 3f f9 cb 52 3e
       0.009582517 -0.2683033 0.62199926 0.20585622
000300 3d b9 99 be 98 0a b8 3e c7 20 e7 3d 09 4b 86 3c
       -0.30024138 0.35945582 0.11285549 0.016393201
000310 3f 17 b0 be 80 a2 02 3f 37 d0 4f be e4 8c 28 be
       -0.34392735 0.51029205 -0.20294271 -0.16459996
000320 da 25 f8 bd 1b 67 2a 3e 96 04 81 3e 8d da 03 be
       -0.121165946 0.16640894 0.2519881 -0.1287634
000330 08 cd 27 3e 0b 0c 05 3f 65 dc ed 3e a6 1f c9 be
       0.16386807 0.519715 0.4645721 -0.39281958
000340 db 82 69 3f 83 69 b2 3e f5 84 aa bc 1f 14 cf 3b
       0.91215295 0.34846124 -0.020815352 0.0063195373
000350 7e 7a 25 bf 4d b8 60 be c6 ec 2c 3e 3b 34 0e 3f
       -0.64640033 -0.21945305 0.16887197 0.5554845
000360 ff 0e 19 3e 10 b7 23 bf 1e 16 a9 bd a3 99 01 3f
       0.14947127 -0.63951206 -0.08256172 0.50625056
000370 83 84 7a 3e f0 8d ab 3d 5b 98 47 3e c4 bd de bd
       0.24464612 0.08376682 0.19491713 -0.10876039
000380 fe 1c 47 be 71 f0 07 be c1 16 9d bf 65 ef fa be
       -0.19444653 -0.13275315 -1.2272569 -0.4901077
000390 d8 b4 54 3f d8 4d 67 3f fb 1f 0a bf e6 91 aa be
       0.83088446 0.90353155 -0.5395505 -0.33314437
0003a0 48 c0 25 3e 06 bb 27 3f c0 1d 0b 3f 94 2f ab 3e
       0.1618663 0.6551975 0.5434227 0.33434737
0003b0 f0 47 a2 be 78 33 17 3e 73 5f 2d 3d 4f 34 86 be
       -0.3169551 0.14765728 0.042327356 -0.26211783
0003c0 a8 fb 0b 3e af d1 b2 3e 26 90 58 bf 61 ca 68 bf
       0.13670218 0.349256 -0.84594953 -0.90933806
0003d0 be 31 06 3f c4 4e 50 3e 4f 27 ab 3e da f8 05 be
       0.5241965 0.20342547 0.33428428 -0.1308321
0003e0 14 da ad 3e 80 73 e8 3e c8 f3 c9 be 08 d9 c9 3e
       0.33955443 0.4540062 -0.39443803 0.39423394
0003f0 22 f3 90 3e 09 08 e4 3e c1 d4 09 3f 22 ac a9 3e
       0.28310496 0.4453738 0.5384026 0.3313914

fc1.bias f4 [120]
000000 59 72 23 be 22 5a 4f be e6 f8 38 bf 12 da e8 bd
       -0.15961589 -0.20249227 -0.7225479 -0.113697186
000010 c3 20 2d 3c 37 c6 2a bd 11 9b a5 be b2 40 d8 be
       0.010566893 -0.04169294 -0.3234487 -0.4223686
000020 60 1a 3d 3e e0 68 73 bf 03 0b 21 3e 9a 71 e5 be
       0.18467093 -0.950819 0.15726857 -0.44813234
000030 eb d9 1e bc 46 8b 2a bf 86 0b 98 bd 45 50 b3 bd
       -0.00969551 -0.66618764 -0.07424073 -0.087555446
000040 4e df d9 be 6e b4 99 bd 7a 4c d3 be 87 88 3c be
       -0.4255318 -0.07505117 -0.41269284 -0.18411456
000050 26 4a 05 bf 49 d4 a6 bd a8 40 68 be b3 99 98 3c
       -0.52066267 -0.08145959 -0.22680914 0.018627977
000060 07 37 5c be e4 6c b3 bd ec ff 0e bc 3e c4 c5 bd
       -0.21505366 -0.087610036 -0.008728009 -0.09656571
000070 e6 48 f4 3d 3d 31 82 3c 03 ee c1 be 63 72 05 3e
       0.11927967 0.01589262 -0.378769 0.13031916
000080 dd a5 17 bf 26 58 86 be 7c e7 51 3d e1 20 f0 be
       -0.5923746 -0.26239127 0.05124615 -0.46900085
000090 88 8c 81 be ae dc 6f bd 4e fd 2f bd b8 2d 8e be
       -0.2530253 -0.058560066 -0.04296618 -0.27769256
0000a0 4a d5 13 be 39 f8 63 bf 2a e1 6e bd 36 f7 7f be
       -0.14436832 -0.8905063 -0.058320202 -0.24996647
0000b0 63 db 83 3c f3 28 85 bf 81 08 63 be 3d d7 36 bf
       0.016095823 -1.0403122 -0.22171213 -0.7142218
0000c0 37 b9 25 3e f1 e7 e3 3c b1 57 59 3e 26 24 98 3e
       0.16183935 0.02782056 0.21224858 0.2971508
0000d0 d4 0c 7e bf ff 7c bd bb 5b 89 91 be 33 90 9e bd
       -0.99238324 -0.005782723 -0.28425106 -0.077423476
0000e0 39 5b d1 be 5d 02 e1 bc df b6 81 3d 4b 0c 69 be
       -0.4088991 -0.027466947 0.06333708 -0.22758596
0000f0 1b 4e f7 be e1 c0 d3 bd 9d 4b a9 be fd 7d 62 bf
       -0.48301777 -0.10339523 -0.330655 -0.8847349
000100 cd 23 73 be d3 99 2e 3d 81 f2 20 bf b4 b0 3d 3e
       -0.23744126 0.042627167 -0.6287003 0.18524438
000110 e4 27 ab bd 94 8c 03 bf 4a b1 5d bd f5 c1 8f bc
       -0.08357218 -0.5138638 -0.054124154 -0.01754854
000120 14 59 5e be 4c 52 9f bf 27 0b ce bd 47 be f5 be
       -0.21713668 -1.244699 -0.10060721 -0.47996733
000130 4c a4 a4 be 47 c8 00 bf a5 91 4f bf b6 e9 18 bd
       -0.321566 -0.503056 -0.8108161 -0.03733226
000140 d6 c2 73 be 51 8d 44 bf 59 0a fa be c1 09 81 be
       -0.23804793 -0.7677813 -0.4883602 -0.25202754
000150 5c f9 1c bd e7 a4 45 be 4e 60 f0 be 51 24 a1 bb
       -0.038323745 -0.19301187 -0.46948475 -0.0049176593
000160 5e e4 e7 3d ed 28 f0 be 77 16 9e be 00 84 74 be
       0.113228545 -0.46906224 -0.30876514 -0.23878479
000170 a0 e3 e2 3d 10 24 26 bf d0 dc 40 bf b8 35 04 3e
       0.11078572 -0.64898777 -0.75336933 0.12911117
000180 e9 00 f6 bd 1e 38 78 bd d8 5b a6 be 21 68 6f bf
       -0.12011892 -0.060600393 -0.32491946 -0.93518263
000190 6a d8 36 bd 5a e6 d1 bd 57 e1 d2 be 06 36 86 bd
       -0.044639982 -0.10249014 -0.41187546 -0.06553273
0001a0 76 b4 00 be 81 32 b5 be 35 91 39 bf 8e 07 e5 bd
       -0.1256884 -0.35390094 -0.72487193 -0.111830816
0001b0 22 28 0f bf 0e e2 a1 bd 06 78 c3 be d1 d9 c5 3c
       -0.5592061 -0.07904445 -0.38177508 0.024151715
0001c0 77 01 c4 3c 60 c4 52 bc 48 28 0b be d0 42 5b be
       0.02392648 -0.012864202 -0.13589585 -0.21412206
0001d0 67 73 1a 3e 53 e9 e2 3b f3 ee 03 bf bd f0 01 3d
       0.15083085 0.006924787 -0.5153648 0.031723727

fc2.weight f4 [84, 120]
000000 cf a0 15 3e e7 d3 c7 be ac 2b 0b be 0c e6 01 bf
       0.14612125 -0.39028856 -0.13590878 -0.5074165
000010 b6 8d c5 3d db a8 a4 be 2a 84 d9 3e e6 84 07 3e
       0.0964617 -0.32160076 0.42483646 0.1323429
000020 df ff 7f 3e 03 1b d6 3e fd ac 37 3e 47 05 6c 3e
       0.24999951 0.41817483 0.17937084 0.23048888
000030 11 e1 83 bd e4 1a 10 3f 41 7e 1d bd c0 9f 50 3c
       -0.064394124 0.5629103 -0.038450483 0.0127334
000040 51 c2 00 3f 73 24 13 bd af 79 c5 be c9 04 eb be
       0.50296503 -0.035923433 -0.385694 -0.45902088
000050 4d 29 06 bf 7e 26 ca 3c 1a 86 d5 3d af c6 dc bc
       -0.5240677 0.024676558 0.104259685 -0.026950208
000060 27 9a 63 bf a4 5c 53 3d 71 56 d8 bd ce ab 5d bd
       -0.8890709 0.05160202 -0.105633624 -0.054118924
000070 66 01 ca be bc 5d c3 3c a4 35 a6 3e a9 bf 51 bb
       -0.39454192 0.023848407 0.324628 -0.0032005107
000080 ca 0c 6d be 17 7c df be 64 d2 8f 3e e2 1e 7e be
       -0.2314941 -0.4364936 0.28090203 -0.24816468
000090 87 d1 f0 bd 07 e8 41 bc 9a 86 d4 be ca 96 a5 3e
       -0.11758714 -0.011835105 -0.41508943 0.32341605
0000a0 82 30 f3 3d 43 d8 22 3f be 7f 94 3c 41 33 c0 3d
       0.118744865 0.6361124 0.018127318 0.09384776
0000b0 36 09 78 be ad 7d 52 be f0 4e 95 be 27 15 9a 3e
       -0.24222264 -0.20555754 -0.29161787 0.30094263
0000c0 76 7f ed 3d f3 ca 1b bf 37 f9 be 3d df 8e 51 bf
       0.11596577 -0.6085655 0.09324878 -0.8185863
0000d0 57 1a 14 bf 77 df 52 bf 89 85 9f be 1b eb 52 3d
       -0.5785269 -0.8237223 -0.31156567 0.051493745
0000e0 7e f9 55 bd f7 35 82 3c 65 57 b4 3e 38 b6 8f be
       -0.052239887 0.015894873 0.35222927 -0.2806871
0000f0 fa f8 f3 3e fd d1 52 3d 2f 14 ef bd 85 e2 3c be
       0.47650892 0.05146979 -0.116737716 -0.18445785
000100 1b 25 0b 3f 4b bd 5b 3e f7 ab 8f 3e 13 ee 42 be
       0.54353493 0.21458928 0.28060886 -0.1903613
000110 45 82 8b bd ee 2f 2c bf d6 11 30 bc f3 c3 6b bd
       -0.06811956 -0.67260635 -0.01074644 -0.05755992
000120 43 6a ef be 74 10 a1 3e 87 ad cd 3e 79 70 12 3f
       -0.4676076 0.31457865 0.40171453 0.5720287
000130 a9 67 2b bf 61 1b ee be 53 39 0c be 34 a7 8f be
       -0.6695505 -0.46505263 -0.13693742 -0.28057253
000140 17 31 11 bf 2d 41 a2 3d 63 dd 4e be d6 9e 8c 3e
       -0.5671553 0.079225875 -0.2020164 0.27464932
000150 4f fc 55 3e cd 93 b7 bd ac 56 b9 bc cd 3c e1 3e
       0.2089703 -0.08963738 -0.022624336 0.439917
000160 52 b7 82 be 33 13 0c bd a1 28 c1 bd e2 ad 2a 3f
       -0.25530487 -0.034197997 -0.094315775 0.66671574
000170 30 87 94 be d1 7f 3b 3e a0 7a 90 be af a2 37 3e
       -0.2900939 0.18310477 -0.28218555 0.17933153
000180 32 b8 60 3d 1c 71 22 bf fe e1 81 3e 04 7b af 3d
       0.054863162 -0.6345384 0.2536773 0.08568385
000190 ee 56 9a 3e 06 f8 a5 bd 7e 4d e4 3d d4 36 68 3e
       0.30144447 -0.08103947 0.11147593 0.22677165
0001a0 66 e5 fb 3e 27 f1 29 3f cc 52 bb 3b 2a 76 90 bd
       0.49198455 0.66383594 0.0057166573 -0.07053788
0001b0 61 19 b8 3e 46 26 cd 3d 2a ac 82 be 67 ec 81 3d
       0.35956863 0.10017066 -0.25521976 0.06343918
0001c0 73 5d a0 3d 28 77 7c bc 3c 85 03 bf 6f a6 ab 3e
       0.07830324 -0.015409268 -0.51375175 0.33525416
0001d0 88 9b 10 be 06 95 38 bd cb 7b 94 be 56 de 69 be
       -0.1412183 -0.045063995 -0.29000697 -0.2283872
0001e0 00 53 f8 3c 56 b1 e7 be 46 98 51 be ee dd 9d be
       0.030313015 -0.45252484 -0.20468244 -0.3083338
0001f0 c3 00 c4 be 8d 4c e3 3e 1c 4f 29 be 53 49 da 3e
       -0.3828183 0.4439434 -0.16534084 0.42634067
000200 14 46 e4 3e 1b 39 04 3e 1b 60 3c bf 1e 97 94 3e
       0.44584715 0.12912409 -0.73584145 0.29021543
000210 10 64 64 3c cc dd aa bd 45 17 d1 3c ce 09 39 bd
       0.013939872 -0.08343086 0.025523791 -0.045175366
000220 c3 80 f6 bd f7 69 80 3e b0 98 90 3e 41 43 2a 3e
       -0.12036278 0.25080845 0.2824149 0.16627218
000230 67 75 8b 3e 79 89 30 bd f3 72 b5 3e 72 19 87 3d
       0.27238008 -0.043099854 0.35439262 0.0659665
000240 21 c7 82 3e ec 33 71 bd 62 a1 54 3c 42 4d f9 bc
       0.25542548 -0.058887407 0.01297793 -0.030432347
000250 3a 3a 33 3d 36 e2 48 bd e4 89 8e be 21 a4 a6 3d
       0.0437567 -0.049043857 -0.27839577 0.08136774
000260 0a 7c 7f 3e 6e 36 8d 3d fc db b6 be f2 e1 14 3f
       0.24949661 0.06895147 -0.3571471 0.58157265
000270 35 42 6f bf b5 b8 35 bd 4c 82 94 be 35 aa a2 be
       -0.934604 -0.044365603 -0.2900566 -0.31770483
000280 b9 79 c0 be 54 0b f0 3d dd 08 28 3d ff e1 0a 3e
       -0.37592867 0.11720911 0.041024078 0.13562773
000290 df 8e f3 bd 76 58 16 3f c1 b5 14 bf 88 40 94 3e
       -0.11892485 0.5872873 -0.58089834 0.28955483
0002a0 0e 98 98 3e 03 bb 63 3d 04 e6 93 3c 04 48 93 bd
       0.2980351 0.05559827 0.018054016 -0.0719147
0002b0 4b 71 04 bf 20 4a cd bd e2 e9 2f be cd 69 e0 ba
       -0.5173537 -0.10023904 -0.17179063 -0.0017121375
0002c0 86 b4 ea be 0a cf 81 3e a1 f0 f2 bd cd ae 8c 3d
       -0.45840853 0.2535327 -0.118623026 0.06869278
0002d0 54 c6 31 bf f5 7d 54 bd 3d 6f b4 3e fc a2 31 3e
       -0.6944325 -0.051877934 0.35241118 0.1734733
0002e0 a3 37 7d be 4c 71 35 bd ee ac 1b 3e 7d 4d b1 3e
       -0.24728255 -0.0442975 0.15202686 0.3462943
0002f0 9d 43 ff bd 22 f4 c1 bc f1 c9 b0 3d 9c bf 8a 3c
       -0.12464068 -0.023675982 0.08632267 0.01693707
000300 71 30 23 3c 7f e8 09 be 8a a4 21 be b5 fe d3 3e
       0.00996028 -0.13467596 -0.15785423 0.41405264
000310 1f b5 08 3f 91 34 c6 be 5d 60 61 3e 76 54 11 bf
       0.5340137 -0.3871198 0.22009416 -0.567695
000320 ba 34 70 3d 18 c8 fa bb 0b 3d e8 3d 05 97 88 3e
       0.058644034 -0.0076532476 0.11339768 0.2667772
000330 d0 73 ee 3d 99 dc 15 bf fa 3d 93 3e 3a b6 8c be
       0.11643183 -0.5853973 0.28758222 -0.27482778
000340 bb 90 83 be c1 75 71 3e c3 e8 9f be f5 18 9a 3e
       -0.25696358 0.23580076 -0.3123227 0.30097166
000350 68 db cc be c1 99 ac 3e 0d 84 10 3f fc 9f cc bc
       -0.40011144 0.33711055 0.56451494 -0.02497863
000360 b5 f8 bd bc 41 64 a7 3d 00 3d c3 be 7d 65 28 3e
       -0.023189882 0.08173419 -0.38132477 0.16444965
000370 20 44 a0 3c 23 49 cc 3d ed c0 46 bd 54 05 c9 be
       0.019563735 0.09974887 -0.048523832 -0.39261878
000380 f8 fd 20 3f 23 01 53 bf fa 2b d8 3d fc 05 81 3d
       0.62887526 -0.8242361 0.10555263 0.062999696
000390 c1 78 d8 3d 09 36 84 be a8 b0 92 3d 21 2e a8 be
       0.10569907 -0.25822476 0.07162601 -0.32847694
0003a0 5a f8 12 bd ed b2 4f bd 35 be ac 3d 55 b4 cc 3e
       -0.035881378 -0.050707746 0.084347166 0.39981332
0003b0 37 ec 72 be ef ec ef 3b c2 54 8a 3e 90 1f c2 3e
       -0.23722921 0.007321946 0.2701779 0.37914705
0003c0 53 13 09 3f ca 07 5a 3e ac ae 13 be 2a 0a 86 be
       0.5354511 0.21292034 -0.14422101 -0.2617963
0003d0 00 87 ae 3d 60 ac 85 be 5f a9 72 3f 72 a4 f4 be
       0.08521843 -0.26108074 0.9478969 -0.47781712
0003e0 e3 aa d5 be 58 9d 11 3f d9 4c 54 bf 37 11 36 3e
       -0.4173194 0.5688071 -0.8292976 0.17780004
0003f0 4a da 68 bd 8b f5 93 3e de 70 a0 3c af f3 76 3a
       -0.0568488 0.28898272 0.01958507 0.0009420467

fc2.bias f4 [84]
000000 6f 1b 93 be f1 7c e9 be 4a 3a 61 bf f1 b8 8a 3d
       -0.28731868 -0.45603135 -0.8797957 0.06773556
000010 60 38 e1 be 76 9c 3b bf b4 3f 09 bf 28 0e e1 bd
       -0.43988323 -0.73285615 -0.5361283 -0.10989028
000020 9b a6 dc be ef 6e 29 be 5c df 00 bf 3c 0c 25 bf
       -0.4309586 -0.16546224 -0.5034082 -0.64471793
000030 ae 45 bf bd 01 a1 ad be 2d 34 cf be e1 14 d4 3d
       -0.09339462 -0.339119 -0.40469494 0.10355545
000040 f5 a5 cf be 1e b8 f6 be 42 a0 39 bf cd 39 0e bd
       -0.40556303 -0.48187345 -0.7251016 -0.034723092
000050 21 e9 af be c8 5d b3 be 6f f3 53 bf 10 95 dc bc
       -0.3435755 -0.35032487 -0.82793325 -0.026926547
000060 2b 44 da be 6b f7 6b be 9d 7a 54 be 6c 3a 1c bf
       -0.42630133 -0.23043601 -0.20749898 -0.61026645
000070 e1 98 86 be e2 da f6 3b 80 3f f9 be 0f 73 b5 be
       -0.26288512 0.007533417 -0.4868126 -0.35439345
000080 85 54 e1 be c6 55 82 bf 5f 7f 47 bf 53 f0 11 be
       -0.44009796 -1.0182426 -0.7792873 -0.14251833
000090 6e 40 e2 bd 83 3d 36 be 16 6a 88 be 96 e7 d5 be
       -0.11047445 -0.17796902 -0.26643437 -0.4177825
0000a0 65 57 49 bd 2b 8a 2f bf 9b 32 9d be a9 f8 0c bf
       -0.04915561 -0.685702 -0.3070267 -0.55066925
0000b0 e0 b6 a4 be 09 d5 b4 be 72 49 9d be 9e b4 0d bf
       -0.32170773 -0.35318783 -0.30720097 -0.55353725
0000c0 61 58 46 3e 6c 42 5b 3d 30 9f 9e be a0 e1 1c bf
       0.19369651 0.05353014 -0.30980825 -0.61281776
0000d0 1e 6b e9 be 3e 6f b9 be ef 3b a2 be 8b 61 06 bf
       -0.45589536 -0.36217684 -0.3168635 -0.5249259
0000e0 1d 51 c3 be 44 5e 08 bf 7e a1 73 be ee c8 3b bf
       -0.38147822 -0.5326884 -0.23792073 -0.7335347
0000f0 82 bd 3a bf e5 e2 c1 be 48 84 a3 be ed 70 c4 be
       -0.72945416 -0.3786842 -0.3193686 -0.38367406
000100 83 15 0b bf c1 dc 4d bf 2b 80 47 bf f0 32 ff be
       -0.543297 -0.8041497 -0.77929944 -0.4984355
000110 92 2c 50 bf cf ba 46 bf f9 6e 7c be fc 6f 15 bf
       -0.8131801 -0.776288 -0.24651708 -0.58374
000120 f4 07 5f bf 96 a7 4e be db ec a1 be 9b 86 e1 bd
       -0.8712151 -0.20181116 -0.3162602 -0.11012002
000130 fc 1d 23 3e 30 08 a7 bc 65 87 11 be 15 b9 1b 3e
       0.15929407 -0.020389646 -0.14211805 0.15207322
000140 a1 8c 1e bf 17 fb a9 be d1 63 1f 3e 8f b7 f2 be
       -0.6193333 -0.3319938 0.1556542 -0.4740567

fc3.weight f4 [10, 84]
000000 1a d3 43 bf cc fc db be 8d c9 3f bf 91 a8 69 bf
       -0.7649399 -0.42966306 -0.7491692 -0.91272837
000010 78 99 ee be 76 d7 46 bf 84 89 11 be 14 58 30 bf
       -0.46601462 -0.7767252 -0.14212614 -0.68884397
000020 4a c5 5c bf 05 33 41 be fb 69 fc be b9 a2 82 bf
       -0.8623854 -0.18867119 -0.49299607 -1.0205909
000030 e4 57 2b bf e0 cb 8d bf 0b 77 b5 bf 40 33 61 bf
       -0.66930985 -1.1077843 -1.4176954 -0.87968826
000040 24 d5 2e bf 43 b8 b8 be 23 64 10 3d d3 4e 1e bd
       -0.68293977 -0.3607808 0.035251748 -0.03864939
000050 c5 1a ef 3d 05 5f e9 be d0 22 9e bc e4 a5 96 bf
       0.11675028 -0.45580307 -0.01930371 -1.1769376
000060 f9 96 40 bf 8f 2f 95 be 2f 03 16 bf 3d 08 36 be
       -0.75230366 -0.29137847 -0.5859861 -0.1777658
000070 20 27 d4 be 76 da 85 bf cc a9 ea 3d 77 80 a1 bf
       -0.414361 -1.0457294 0.114581674 -1.2617329
000080 8a 74 45 bf dd 79 9e be ff 29 f1 bb ac 84 28 be
       -0.7713095 -0.3095235 -0.0073597427 -0.1645686
000090 96 16 73 be 06 25 73 bf a2 11 4c bf fd 95 d6 be
       -0.23739085 -0.9497837 -0.79714406 -0.41911307
0000a0 bb 95 e0 be d1 75 35 bf 6d f9 14 3d f7 10 de 3d
       -0.43864235 -0.708829 0.036370683 0.108430795
0000b0 c4 a2 55 bf 56 58 88 bf c4 18 32 bf bd 4c e0 3d
       -0.83451486 -1.0651958 -0.6956904 0.10952137
0000c0 25 d6 97 bf 2a 0d 6d be 5b af 83 bd ae f3 77 bf
       -1.1862227 -0.23149553 -0.06429931 -0.968562
0000d0 4b 42 27 bf f9 b4 94 bb 2d a2 b1 bf d6 14 0f 3e
       -0.6533553 -0.004538175 -1.3877617 0.13972792
0000e0 01 e6 6c bf 00 77 93 bf 95 8c 18 bd 41 11 69 be
       -0.9253846 -1.1520691 -0.037243444 -0.22760488
0000f0 e1 d5 31 bf 3c 24 9c bd d3 fe 8a be 15 9e 1a 3e
       -0.6946698 -0.07624099 -0.2714754 0.15099366
000100 28 19 88 bf 5a 7e 90 bf 0e c5 26 3e 5d 3d 8f bf
       -1.0632677 -1.128856 0.16286108 -1.1190602
000110 07 ea 58 bf 3c 48 ab be de e6 7b be 41 e4 60 bd
       -0.847321 -0.33453548 -0.24599788 -0.05490518
000120 35 0e 85 be ac b0 e5 3d 84 40 5c 3d f7 7a 0a 3e
       -0.25987402 0.11215338 0.053772464 0.1352347
000130 28 d4 56 bf c0 28 92 be 67 f0 54 bc 11 5d d0 bc
       -0.83917475 -0.28546715 -0.0129967695 -0.025435003
000140 1a 5c 4a bf 3f 1b 01 3e 49 52 9b bf a1 ad dc 3d
       -0.79046786 0.1260805 -1.2134486 0.107753046
000150 8c 1c 52 3d e5 9e 57 bf b0 d3 8f 3d 31 f9 a0 bd
       0.051296756 -0.8422683 0.07022798 -0.078600295
000160 77 bf 1c bf 54 33 4a be 3a 81 14 3e 74 1d 6f bf
       -0.6122965 -0.19746143 0.14502421 -0.93404317
000170 01 20 05 bf b2 33 69 bf 7e 04 c4 bc 68 c3 14 be
       -0.5200196 -0.91094506 -0.023927923 -0.14527667
000180 9e 53 93 bf b0 dc e8 be 30 b3 05 bf 5b 80 b1 bc
       -1.1509893 -0.4548087 -0.52226543 -0.02166765
000190 e3 59 28 3e 10 9b 5e be 90 07 47 bf 59 97 7d bd
       0.16440539 -0.21738839 -0.77745914 -0.061911914
0001a0 c3 85 55 bf 70 42 03 bf 6d be 67 bf fb 5b a8 bd
       -0.8340723 -0.5127325 -0.9052494 -0.08220669
0001b0 ac 27 11 bd 5c 13 5e bf 84 7b a3 be be f0 9c bf
       -0.035438225 -0.8674829 -0.31930172 -1.2260969
0001c0 4e 16 8f bf 30 61 4f bf ad 67 4b 3d a5 e8 58 bf
       -1.1178682 -0.8100767 0.04965942 -0.8472999
0001d0 a9 32 06 bf ec 3e f8 be b7 27 32 bf 02 5d 8c bf
       -0.5242105 -0.48485506 -0.6959185 -1.0965884
0001e0 20 1a a9 bf 6f 84 37 bf 44 83 1c bf dd c8 79 bf
       -1.3211098 -0.7168645 -0.61137795 -0.9757212
0001f0 1a c2 44 bf 66 cb ac 3d 51 20 46 bf a7 a4 8e bb
       -0.76858675 0.08437233 -0.7739306 -0.004353124
000200 b6 bc 10 bf 80 b0 02 be f1 a5 30 be 60 df 44 bf
       -0.5653795 -0.12762642 -0.17250802 -0.76903343
000210 51 43 96 bf 17 cd 70 bd 21 92 96 bf bf 5a 51 be
       -1.1739293 -0.05878934 -1.1763345 -0.20444773
000220 67 75 0a bf eb 4f f8 be bf 7c ab bf bf 89 56 bf
       -0.5408539 -0.48498473 -1.3397444 -0.83803934
000230 26 9a 78 bf 8d 13 f9 bc d4 42 b9 be 24 fb 97 bf
       -0.9711021 -0.03040483 -0.36183798 -1.1873517
000240 40 bb 5d bf 42 11 5d bf 4a 4f 28 bf 6f 94 0f 3c
       -0.86613846 -0.8635446 -0.65745986 0.008763417
000250 08 cc 18 be b3 12 70 bf 81 b0 8b bf 1e 3f 0f 3d
       -0.14921582 -0.9377853 -1.091324 0.034972303
000260 02 7f b6 3d dd 8f 14 bf 0e f0 c3 bf ca 4f 16 bf
       0.089109436 -0.5803202 -1.5307634 -0.587155
000270 62 4c 88 be 97 9c 78 bf d3 a8 af 3d 6a 77 54 be
       -0.26620775 -0.9711394 0.085771225 -0.20748678
000280 7d de 27 bf b4 cd db bf 49 60 0c 3d cf 4d 3c bf
       -0.65573865 -1.7172151 0.034271512 -0.73556226
000290 03 c8 41 bf 4c 7e 3a bf 62 42 69 bf 7f 0b 0c bf
       -0.7569582 -0.72848964 -0.9111692 -0.5470504
0002a0 04 90 d7 be a4 f4 24 bf d6 0e be be 6e 36 6d be
       -0.42102063 -0.6443579 -0.37120694 -0.23165295
0002b0 8a 20 c0 be 8e 2e 88 be 28 ac 9f 3c cf 0e b4 bd
       -0.37524825 -0.26598018 0.01949127 -0.08791887
0002c0 bd 15 e4 be 9f 8a 2c 3d 89 38 90 3d a8 28 72 bf
       -0.44547835 0.042124387 0.07042033 -0.94593287
0002d0 3c 0b ee be d8 98 be bf 35 f0 33 be 8d 19 69 bd
       -0.46492946 -1.4890394 -0.175721 -0.056909133
0002e0 c6 76 2b be 23 c9 3e bf a9 ae ee bd e9 76 8b bf
       -0.16744527 -0.7452566 -0.116544075 -1.0895663
0002f0 0a a6 82 bf c0 4e a3 be 37 4d 3c bf 95 52 3f bf
       -1.0206921 -0.3189602 -0.7355532 -0.74735385
000300 e6 b3 a1 be 23 33 0a bf de f0 95 3d 2c b5 1f bf
       -0.31582564 -0.5398428 0.073213324 -0.6238582
000310 22 14 ba 3e a8 95 be bf b6 f2 2b bd f8 88 97 3c
       0.36343485 -1.4889421 -0.041979514 0.018497929
000320 8c 60 45 bf 53 ac 21 bd ee a4 26 3e 46 5d b4 bc
       -0.77100444 -0.03947098 0.16273853 -0.022017132
000330 ca 13 5f bf 7a 97 c5 be 0b dd 1d bf fe bb 80 bf
       -0.8713957 -0.3859213 -0.6166541 -1.0057371
000340 4a 3a a7 bf 53 d3 12 bf 5e 58 3a 3e ee b3 f0 bd
       -1.3064663 -0.57353705 0.18197772 -0.11753069
000350 a8 1a 03 bf d3 26 b9 be 00 0c 80 bf b0 97 ac 3d
       -0.5121255 -0.36162433 -1.0003662 0.084273696
000360 09 3f 2b bf 42 bc 82 bf 77 25 5b bf fe 21 52 be
       -0.6689306 -1.0213702 -0.8560404 -0.2052078
000370 b8 e0 3a bf 9f c5 ae be 62 f5 bb be 19 ef 5d bf
       -0.72999144 -0.34135148 -0.3671065 -0.8669296
000380 ba a1 3a be 2f 00 0b bf e5 ad 56 bf 94 29 30 bd
       -0.18225756 -0.54297155 -0.8385909 -0.043008402
000390 98 13 4f 3d f2 a2 c8 be 52 a0 2e bf ca 79 66 bf
       0.050555795 -0.39186817 -0.6821338 -0.90029585
0003a0 97 09 53 bf 49 b1 6f be 85 ce 0e bd 2a ed 6c 3d
       -0.8243651 -0.23407473 -0.03486492 0.057843365
0003b0 13 d6 a0 bf b3 f4 9d bd 66 f3 a9 be 22 6d b5 bf
       -1.256533 -0.07712688 -0.3319351 -1.417393
0003c0 02 89 89 be 79 9e 2d bd 3e f5 c8 bf f3 0b 11 bf
       -0.2686234 -0.04238746 -1.5699842 -0.5665886
0003d0 75 78 a8 be 0e 48 41 3e 34 cb 07 3d da 85 aa bf
       -0.329044 0.18875143 0.033152774 -1.3322098
0003e0 22 c2 c8 bf 5b fc 5d bf db 2c 8c bf 07 47 d0 be
       -1.5684245 -0.8671319 -1.0951189 -0.4067919
0003f0 1a f2 2a bd 96 71 e7 be 17 b6 72 3d 08 5e 8b be
       -0.041734792 -0.45203847 0.059255686 -0.27220178

fc3.bias f4 [10]
000000 6d ed e0 be cf 0b 44 bd 47 a1 06 be 4a 92 9a bc
       -0.43931141 -0.047862824 -0.1314746 -0.018868584
000010 fb 94 82 bc ae d8 c0 be ca e2 e6 bd 99 2f a5 be
       -0.01594018 -0.37665313 -0.11273725 -0.32262877
000020 56 28 a9 3e 7e f3 5f 3e
       0.33038586 0.21870229
