mnist/saved_models/model_epoch_11.pth (torch, 181338 bytes, 10 tensors)

conv1.weight f4 [6, 1, 5, 5]
00000000: 8f68 57be 2196 8d3d b45a cd3d 1bf9 c53e
00000010: 77a3 2a3e d963 a53e ee53 e73e 8b65 a13e
00000020: 9d86 203e dce2 a13e 06fc 803e fec2 163e
00000030: 9d01 f0bd cdbd 18be d05e 9bbd 5af9 d3bd
00000040: a603 a1be f846 95be e6b0 b0be 1092 7fbe
00000050: cfb2 2bbe 0a8d 0cbe a279 37bd 6add 703e
00000060: c22d b9bd 95c8 a3be 218e 9c3d 2511 c63e
00000070: ebbb f4bc f533 21be 0b49 9bbe f4df a03c
00000080: bb9d d03e bfec e53d acdd 823d 38f5 59be
00000090: adcb 3dbe c92b a13e 0927 7c3e d4b9 51bd
000000a0: 7999 9cbd 7675 d9be 1a5b c2bd 7e63 2cbe
000000b0: 248a dfbd 7235 513e 5c8e 0abd d04c 2e3e
000000c0: 087b ea3d bd63 9a3d 4620 a2bb 9141 e1bd
000000d0: e2b0 0ebe c443 92bd b528 ecbe 7f09 47bd
000000e0: 0fda 813b 730c 973e c56d 003f 0be1 1dbd
000000f0: 5f3d 803e 4630 493e d576 ec3e e742 133f
00000100: 821a bdbd b3d9 11be e0e6 bebe 8dce 81bd
00000110: 339d ac3e d478 103e 5265 5f3c 2414 82be
00000120: b678 0abf d971 a4bd db91 613e 7e9f 0ebd
00000130: 206e a23d 1424 c0bd ec14 5c3d 5cf2 c63d
00000140: e9e3 733d 3b59 3c3c 0685 3bbe a474 183e
00000150: 4889 7a3e 0573 853d af7b c8bd 4bb1 abbe
00000160: 194b fdbd 15d8 883e 6232 86bd a0f6 19be
00000170: 5077 81be 78ce be3e 8d93 ea3e dd35 1dbe
00000180: 13be 34bd 56c0 863d f5fd a13d 5f5c 113e
00000190: f45a 2f3c 6ec8 1abc eaca 9d3e 8ca4 0abb
000001a0: 011f a53e b832 653d 3566 26be 017a d8bd
000001b0: 6c24 3fbd 34be d73d ee0a d1bd 67af b0be
000001c0: 9f92 7cbe 8d8d babe 086e dfbd aa5f 483e
000001d0: 0504 24be 0fe3 b0be 221c 5bbe a9ca 96bb
000001e0: 0962 9e3e 2dac e03e 21e3 9f3e d6b1 bd3e
000001f0: a5ca 473e 9393 18bd 3ca8 5e3e 3d88 6c3d
00000200: d814 6f3d fe70 c93d 0100 54be fbe4 6d3e
00000210: 818e 413e 19d4 9ebd b209 eabd 2d4a a73c
00000220: fe1c e33e 542e 44bd 13a0 92be 671c 693d
00000230: c5b7 6a3e 3490 883e cd3b d8be f4be 9c3d
00000240: 4e47 4ebb 59c6 443e d562 e3bd 7a3f 0ebe
00000250: 793b 4bbd 8e99 f5bd
-0.2103598 0.069134004 0.10027066 0.38666615 0.1666392 0.3230274 0.4518122 0.31522784
0.15676351 0.31618392 0.2519228 0.14722821 -0.11719058 -0.14916153 -0.075864434 -0.103502944
-0.31448096 -0.29155707 -0.34509963 -0.24958062 -0.16767429 -0.13725677 -0.044793732 0.23521963
-0.09041931 -0.3198897 0.076442964 0.38684955 -0.029874763 -0.15742476 -0.30329165 0.01963804
0.4074534 0.11226796 0.06389937 -0.2128495 -0.18534727 0.31478718 0.24624266 -0.05120261
-0.0764646 -0.42472428 -0.094900325 -0.16834828 -0.1091502 0.20430544 -0.03382717 0.17021489
0.114492476 0.07538555 -0.004947695 -0.10998834 -0.13934663 -0.071418315 -0.46124807 -0.04859304
0.003962762 0.29501686 0.50167495 -0.038544696 0.25046822 0.19647321 0.46184412 0.5752396
-0.092335716 -0.14243202 -0.3728552 -0.063382246 0.33713683 0.14108592 0.0136349965 -0.2540599
-0.5409044 -0.08029527 0.22028296 -0.034820072 0.07931161 -0.09381881 0.05373089 0.09714195
0.059543524 0.011495884 -0.18312463 0.14888245 0.24466431 0.06516079 -0.09789216 -0.335337
-0.12367839 0.26727358 -0.065525785 -0.15035486 -0.2528634 0.37266898 0.45815697 -0.15352578
-0.04412658 0.06579654 0.079097666 0.14195393 0.010702837 -0.0094472 0.30818874 -0.0021155206
0.32250217 0.055956572 -0.16249926 -0.105701454 -0.046665594 0.10534325 -0.10207163 -0.3450882
-0.24665307 -0.3643612 -0.10909659 0.19567743 -0.16017158 -0.34548232 -0.2139745 -0.0046017957
0.3093417 0.4388136 0.31227973 0.3704974 0.19510897 -0.037250113 0.21743864 0.057747114
0.058369488 0.09836005 -0.20703126 0.2323188 0.18902017 -0.07755298 -0.114276305 0.020421112
0.44358057 -0.047895744 -0.28637752 0.056911852 0.22921665 0.26672518 -0.42233124 0.07653609
-0.0031475606 0.19216289 -0.11102835 -0.13891402 -0.049617264 -0.11992179

conv1.bias f4 [6]
00000000: a38d 2bbd bb20 55bf 1f81 48be c45e c2be
00000010: c49f e2be d6d6 aabe
-0.041883122 -0.8325307 -0.19580506 -0.37962925 -0.44262516 -0.33367032

conv2.weight f4 [16, 6, 5, 5]
00000000: aec6 eb3c f0c3 6ebd 99dc 543e 37fe 813e
00000010: 7d40 23bd fc66 3c3e 5d68 a43d 3776 8a3e
00000020: f5db e53d 9c98 603e 1232 153d 2a6f 073e
00000030: 34b9 9d3d 722c c5bd 9500 0c3e 10fb 07bf
00000040: c6e5 e4be 1cc2 8dbe 1477 8abe 7604 c4bd
00000050: 48b5 2dbf f111 26bf 069e 3cbf 71f4 9bbf
00000060: fcab aabf b122 7fbd a5c0 87be 364b 1fbf
00000070: b726 9abd 9488 23be 4a7a c63c 7f0b 27be
00000080: f3c5 b9be acdc adbc 0eb0 1b3d 0684 e43d
00000090: 71ca 0c3e 2db7 6cbe ef50 093e daea b8bc
000000a0: 8ebe 433e e7b7 5d3e 57f9 62be aca9 f63d
000000b0: 20dd e43c 90c9 42bd 5600 0c3e 0bfb 60be
000000c0: 7e97 f3bc 2d68 afbe 4d02 a63e 8ba0 1c3e
000000d0: e6e8 dabb 1b6f febd b4c9 973d b73f bcbd
000000e0: 0ef2 893e 70fb ce3d 88dc 2b3d c09d 753e
000000f0: 37a4 763d e722 743e cbd6 b3be 871a 2b3d
00000100: 7b76 0fbd c64c afbe 71bd c2be 2af2 39bf
00000110: 662f 02bf 198e 68bf b8b9 ae3d 866b babd
00000120: c014 9dbe c105 02bf 8ac5 e8be 6fb9 2b3e
00000130: f2f8 c23e c0ea 6fbe 60db b4bd 1f0c 4cbe
00000140: 0b84 e43e 7377 d638 4e0a 64be 181f f5bc
00000150: 9bd3 143c 34ce d93c de8d bdbe 9499 a0be
00000160: 932b 8cbe 41b5 18bf 7165 7bbe e5c3 22bf
00000170: 1d8c 90bf e12a 3fbf 6650 45bf 060e 113c
00000180: f74c 6d3c f95c 90be 20be 05bf 0d20 4dbf
00000190: ebaa 263e e5ca 2fbd 2925 d63a 591d f9bc
000001a0: 5924 1f3d c089 573e b420 ed3d 0e3a 2abe
000001b0: abcc 95be 4289 fd3b 395b 94bd 2128 1cbd
000001c0: 8c14 6cbe 8631 0bbe 37b2 9f3b b6f6 ab3e
000001d0: fb98 433e a040 913d 29ce 5cbe ee4b 6f3c
000001e0: 3690 3d3e e0bc b93e 4c4a 943e e883 843e
000001f0: 620f 563e d6ed 30be be22 9ebe 1e46 683e
00000200: aabc 693d 9ef0 72bd af1b 3b3c 08ba 61bd
00000210: 7de7 cc3d 294b 49bd cc64 8ebe 0b47 0c3e
00000220: 0d32 18bd bdda 85be 2dc1 c0be b348 e8bd
00000230: 6f79 5b3a a187 8fbe eaf5 26bf 1ae6 99bf
00000240: 8d9f debe a57c 76bd 89f4 27be c255 01bf
00000250: d8cd 1abf 3aad 91bf 9666 e8be 152a c1be
00000260: 386b e83c 79af aa3e eefb 9b3e c43d afbe
00000270: 7346 08bf 61cb 2cbf 7570 2cbe 8100 e8bc
00000280: 40a3 853d 72f1 d93d 2708 1e3e 8f86 493e
00000290: e7ee 233e 97e9 e63a 3d9f 643e a685 4b3e
000002a0: fe27 2d3e efa8 2f3e 0942 69be 4a1c d5be
000002b0: 125c 10bf 9196 28bf 56f5 c1be 0c36 aa3e
000002c0: 6967 973e 866c a9be 47e0 593e 8c0e 9abd
000002d0: 48b9 08bd 1ae6 8e3d 52b5 ebbd b81d 33bd
000002e0: da28 91be a15d b43d f8c8 dc3e a586 133e
000002f0: d19e d8be 201b 01bf bbab f8bd 1f40 633e
00000300: edc5 81bd c271 aebe 0651 113e 2513 67bd
00000310: 0a9f bfbe 4f9f 04bf c697 aabe e9b8 333e
00000320: be6b ae3b c3d6 953c 8000 b8be 001d 813d
00000330: 62ac b3bb b4fd a13e 3b00 913e 3f10 c03d
00000340: db9f c1bd 087c 5cbe ed78 efbc 87de 983e
00000350: 8292 7b3e c8a8 e23e 1f81 e83d 3085 50be
00000360: f725 06be 1c44 51bc 0608 013d c22d 94bd
00000370: 8928 a5be 8e15 fdbe d4c6 e9be e06d 0bbf
00000380: 8171 64be c1c8 a83e 289b 8b3d ba73 6bbe
00000390: 7106 45be f1c8 7dbe 548c 073d 9499 6ebd
000003a0: 03b6 b4be 8302 0cbe 98b2 c6bd 4f21 a93c
000003b0: a497 65be ec7c 98be a67b a13e 285a 13be
000003c0: c69e 073d 0a7a adbe ea6a 20be b200 733e
000003d0: a382 84bd 0008 8c3e 5d1f 083e e19f b73d
000003e0: bcf8 ec3b af72 8cbe f36a 6dbd 360e c8be
000003f0: f243 20bd 1461 fc3c 345d c93d fdf1 073d
0.028781261 -0.05829233 0.20787276 0.25389263 -0.039856423 0.1839866 0.08027718 0.27043316
0.11223594 0.21933216 0.036424704 0.13226 0.0770134 -0.09627618 0.13672097 -0.53117466
-0.44706553 -0.27687156 -0.27043974 -0.09571163 -0.6785474 -0.64871126 -0.73678625 -1.2183973
-1.3333735 -0.062288944 -0.26514164 -0.6222414 -0.075269155 -0.15970069 0.024228234 -0.16312979
-0.36283836 -0.021223389 0.038009696 0.11157994 0.137491 -0.23116751 0.1340978 -0.022572923
0.1911566 0.21652184 -0.22165428 0.12044081 0.027937472 -0.047555506 0.13672003 -0.21970765
-0.029735323 -0.34259167 0.3242363 0.15295617 -0.0066805957 -0.124235354 0.07411519 -0.0919184
0.26942486 0.10106552 0.041958362 0.23985958 0.0602152 0.23841439 -0.35124812 0.041773345
-0.0350251 -0.3423826 -0.38035157 -0.7263514 -0.50853574 -0.90841824 0.08531517 -0.0910254
-0.30679893 -0.5079003 -0.4546321 0.16769956 0.38080555 -0.23429394 -0.08830905 -0.19926499
0.4463199 0.00010226564 -0.22269556 -0.029922053 0.009083654 0.026587583 -0.370223 -0.3136717
-0.27376994 -0.5965157 -0.24550416 -0.6358016 -1.1292759 -0.74674803 -0.77075803 0.008853441
0.014483682 -0.28195933 -0.5224323 -0.8012703 0.16276138 -0.042918105 0.0016337979 -0.030409502
0.038853023 0.21048641 0.11578503 -0.16623709 -0.29257712 0.0077373097 -0.07243962 -0.038124207
-0.23054713 -0.1359311 0.00487354 0.33586663 0.19101326 0.07092404 -0.21563019 0.014605505
0.18512043 0.36276913 0.28962934 0.25881886 0.20904306 -0.17278227 -0.3088588 0.22682998
0.05706469 -0.0593115 0.0114201745 -0.055109054 0.100050904 -0.049143944 -0.27811277 0.13698976
-0.037157107 -0.26143447 -0.3764738 -0.11341991 0.0008372282 -0.28033164 -0.65218985 -1.2023346
-0.43481103 -0.060177464 -0.16401877 -0.5052148 -0.6047034 -1.138099 -0.45390767 -0.3772742
0.028371438 0.33337 0.30465645 -0.3422681 -0.53232497 -0.6749783 -0.16839774 -0.028320553
0.06525278 0.10641755 0.15432797 0.19680236 0.16009103 0.0017617223 0.2232637 0.19875202
0.16909787 0.17154287 -0.22779097 -0.41623145 -0.5639049 -0.65854746 -0.3788249 0.3324436
0.29571083 -0.3309061 0.21276961 -0.07522306 -0.033379823 0.06977482 -0.115091935 -0.043729514
-0.2835148 0.08806921 0.43122077 0.14406832 -0.42308667 -0.50432014 -0.1214213 0.22192429
-0.063365795 -0.34071165 0.14191064 -0.056414742 -0.37426025 -0.51805586 -0.3331892 0.17551006
0.0053229025 0.018290883 -0.3593788 0.063043594 -0.005483196 0.31638873 0.28320488 0.09378099
-0.09454318 -0.21531689 -0.029232467 0.29857275 0.24567607 0.44269395 0.11352753 -0.20363307
-0.1310042 -0.012772586 0.031501792 -0.0723529 -0.32257488 -0.49430507 -0.45659506 -0.5446453
-0.22308923 0.32965663 0.06816703 -0.22993365 -0.19240738 -0.24783684 0.03309281 -0.058251932
-0.35295114 -0.13672833 -0.09702033 0.020645766 -0.22421128 -0.29782808 0.3153965 -0.1438986
0.033110403 -0.3388217 -0.15665784 0.23730734 -0.064702295 0.27349854 0.13293214 0.08966041
0.0072318 -0.27431247 -0.057963323 -0.39073342 -0.039127298 0.03080801 0.0983223 0.033189762

conv2.bias f4 [16]
00000000: b765 b03d 7d61 4ebd b80b 83bd 2741 203e
00000010: aa00 f23d 1f37 893d 1635 cfbd 37bf 6bbe
00000020: 6170 79bd 815e 40be a9ed 92bd 4012 803e
00000030: c6d5 913d eb11 e8bd c0d7 0cbd 471e ccbd
0.086131506 -0.05038594 -0.063987195 0.15649854 0.11816533 0.06699967 -0.10117547 -0.23022161
-0.06089819 -0.1878605 -0.07174236 0.25013924 0.07120852 -0.113315426 -0.034385443 -0.099667124

fc1.weight f4 [120, 256]
00000000: fdbf 313c d9de 65be 8c93 cfbe a248 80bc
00000010: a335 8abd 7a45 3cbe e1e3 3abe 3883 a7bd
00000020: 619a b9bd 0b69 823d 4f6b c43c 7fcc 9e3e
00000030: 240a 6cbe 6bfe 9d3d dd8a d1be d9cb 793d
00000040: 9d54 56bd cb4e c2bd 5b71 d83d cc3f 11be
00000050: 790b 85be 3add 15be 19e0 19be b134 04be
00000060: 4b97 2abf e210 f9be d2fc 053c 3c8d a03e
00000070: 82c1 34bf 8f0b 903d 3633 423d acd7 dcbd
00000080: f685 863e f1e5 5d3e a4bf a53d 5770 ddbe
00000090: 19fb d23e e8f8 dc3e 2985 a63e 795b 8a3e
000000a0: 8164 bfbe c068 f3bd 79c2 853e 835f 243d
000000b0: ef59 493e 26e9 23be 9377 573d 25dd 073e
000000c0: ae1c 9cbe bbbe 36be f7d1 573e 806f 66bd
000000d0: 1138 4dbe a56f eebe f3e9 b9bc ce56 8b3e
000000e0: 967d 67be b59c c0be 2a45 d93d 3d6b 413e
000000f0: 56ec 203f 4fed 9f3e b633 d7bd 8961 b7bc
00000100: 0bbd 1f3d 71f3 31bf 7174 e1bd 2b1e 3ebe
00000110: 5810 2cbd 95df 78be 53df 85be 3bee 8bbd
00000120: 24c8 a7be 6757 8bbe 4642 d0be 5aaa 6cbd
00000130: 45eb e93e 029a a63e d878 233e 226c 293e
00000140: cd6c e6be 9cad 8bbc 8c5a b33e 458e 693e
00000150: 6d67 79be 9a2c 59bd 1017 933d 0467 3dbe
00000160: 2a16 1b3e a814 91be 58ab 833e fd1e d7bd
00000170: e827 e93d c776 8a3c 7aef 3ebd 7be4 83be
00000180: d7e8 393e 487b 7f3d c677 d8bd 1aab a1be
00000190: 7030 893d 4004 88be 8f4f 713e e8e2 7f3e
000001a0: d8c0 26bf b0fa 52be 6718 6dbc b0a8 77be
000001b0: 0a5c 793d f2d3 b7bd 493a 71be 9a6d a4bd
000001c0: fb8a 0ebf 3bbd 8c3d 11f9 283d b657 a1be
000001d0: fdf8 83be 9928 0d3f 775e c53c e938 a2be
000001e0: 8c2d 893d ea30 893e c66e 463e effe ffbb
000001f0: 1596 7dbe 5286 cd3c 683c 62bd 1173 1d3d
00000200: 2280 95bd 57a8 cd3e dda7 5e3e d5e3 a9bd
00000210: c44f e4be 8b8a 31be b2cd c73d a92c 49be
00000220: e6bb 90bf 75c9 b4be 2f13 823d a648 7f3d
00000230: 6938 65be 317e a43e 1826 0b3e 3411 3d3d
00000240: 5db3 5bbe b139 32bf 6c39 c0bd 2cfd 343e
00000250: 1223 4cbe 7981 8bbd 3fce adbe 082b b9be
00000260: 54ba 91be 6e11 513e d85d a3bd 3d97 93be
00000270: fa2c dd3e 1ba5 5cbd 2692 783b 519c 61be
00000280: d140 0cbf 60fb 063e 07cd 143e e0cd 823e
00000290: 18e0 943d d024 0abe 6c03 72be 98d3 90be
000002a0: a3f3 1f3e 073c 06bf d9e5 46be 27aa 24be
000002b0: 2840 e7bd dc50 5abd 96a1 5bbd 67e7 99be
000002c0: 30f2 37be 188a 97be 43eb cc3e 8669 c33e
000002d0: 03d0 7d3e f297 7b3e 02f6 9a3b faef dcbc
000002e0: 8bfc 243e 6454 273e 12f9 6dbe 90ce 9ebe
000002f0: 4321 fabc a978 34be 74ee 8e3e fc84 653e
00000300: 7de2 063d bea6 223e 25bb c43d 29b7 edbc
00000310: c4f0 b7be e793 8c3e 0aaa a1bd d38b 9e3d
00000320: 0748 90be 8c91 063e a1cb 623e d1f0 07be
00000330: 908b 463d 2c34 813e ec89 1c3e 0206 6abe
00000340: 1b8e de3e b4c6 b53e 282d fc3c 1e9f e2bd
00000350: dae5 c5be cfe5 bf3d e8fb cf3d cb3f d73e
00000360: 6bdc be3b b195 35be 6235 cbbd 3d11 5c3e
00000370: c252 8e3e 5a18 d93d 4271 1e3e bf5a e23c
00000380: b837 54bd ffdf 41be 4ec1 2dbf 01c9 59be
00000390: b6d2 173f db28 163f 22cb 2ebe 663e 03bd
000003a0: 4743 323e bb31 d23e 0f9b ed3e 57fb ac3e
000003b0: e87e 51bd 0176 a53d e7b0 3ebe ca65 813d
000003c0: d5f0 a53e 6180 523e 29c6 abbe daaa 2cbf
000003d0: 01cf 703e 125d 103e 43a4 643e 0908 87bd
000003e0: f46f 7b3e 7373 a1bb fc3a 8abd 1e93 e33e
000003f0: f6c6 e83d e695 de3d a3d3 3a3e f174 0c3d
0.010848996 -0.22448291 -0.40542257 -0.015659634 -0.06748512 -0.18385878 -0.18250991 -0.08179325
-0.090626486 0.063676916 0.02397695 0.31015393 -0.23050743 0.07714542 -0.40926257 0.06098542
-0.052326787 -0.09487685 0.10568496 -0.14184493 -0.25985315 -0.14635172 -0.15026893 -0.12910725
-0.66637105 -0.48645693 0.008177953 0.31357753 -0.7060777 0.070334546 0.04741212 -0.10783324
0.2627408 0.21669747 0.08093193 -0.4324977 0.41207197 0.4315865 0.32523468 0.27022913
-0.37381366 -0.11885214 0.26124933 0.04013015 0.19663213 -0.16006908 0.05260427 0.13267954
-0.3049063 -0.17846195 0.21076189 -0.05625868 -0.20040919 -0.46569553 -0.022694563 0.27214664
-0.22606501 -0.37619558 0.10608895 0.18888564 0.6286062 0.3123574 -0.1050791 -0.022385376
0.038998645 -0.6951209 -0.110085376 -0.18566196 -0.042007774 -0.2430404 -0.26146945 -0.06832548
-0.32769883 -0.2721512 -0.40675563 -0.057779647 0.4568731 0.32539374 0.15964067 0.16545156
-0.45004883 -0.017050557 0.3503002 0.22808178 -0.2435586 -0.05302105 0.07182133 -0.18496329
0.15145174 -0.28336072 0.25716662 -0.105039574 0.11384565 0.01690234 -0.0466151 -0.25760254
0.18155228 0.06237343 -0.1056972 -0.31575853 0.06698692 -0.26565742 0.23565505 0.24988902
-0.65138006 -0.20603442 -0.01447115 -0.24185443 0.06087879 -0.08975972 -0.2355739 -0.08028717
-0.5568082 0.0687203 0.041253153 -0.3151223 -0.257759 0.5514007 0.024092896 -0.31684044
0.066981405 0.2679513 0.19378194 -0.007812373 -0.24764283 0.025088463 -0.05523339 0.038439814
-0.0729983 0.40167496 0.21743722 -0.08295409 -0.44592106 -0.17338006 0.0975603 -0.19645943
-1.1307342 -0.3530995 0.06351315 0.062325142 -0.223848 0.32127526 0.1358875 0.046158984
-0.2145514 -0.6961928 -0.09385952 0.17674702 -0.19935253 -0.06811804 -0.33946416 -0.36165643
-0.2846247 0.20416805 -0.07976884 -0.28826323 0.43198377 -0.053868394 0.0037928908 -0.22032286
-0.547864 0.1318183 0.14531337 0.25547695 0.07269305 -0.13490605 -0.23634118 -0.28286433
0.15620284 -0.52435344 -0.19423617 -0.16080533 -0.11291534 -0.05329977 -0.053620897 -0.30059358
-0.17963481 -0.29597545 0.4002324 0.38166445 0.24786381 0.24569681 0.0047290334 -0.026969898
0.16111962 0.16340786 -0.23239544 -0.3101697 -0.030533439 -0.17624153 0.279163 0.22414011
0.03293084 0.1588392 0.096060075 -0.029018002 -0.35925877 0.2745659 -0.078937605 0.07741513
-0.28179953 0.13141459 0.22147991 -0.13275458 0.04847294 0.25235116 0.15286988 -0.22853854
0.43467793 0.3550316 0.03078325 -0.110655054 -0.38651925 0.093700044 0.10155469 0.42040858
0.0058246157 -0.17732884 -0.09922291 0.21490951 0.27797514 0.10600348 0.15472892 0.027631162
-0.05181095 -0.18933104 -0.67873085 -0.21268083 0.59305894 0.5865609 -0.17069677 -0.03204193
0.17408477 0.41053566 0.46407363 0.33785507 -0.051146418 0.08079148 -0.1862217 0.06318243
0.32410303 0.20556785 -0.33549622 -0.674482 0.23516466 0.14098004 0.22328286 -0.065933295
0.24554425 -0.0049270927 -0.067495316 0.4444818 0.11366074 0.108684346 0.18244796 0.03429121

fc1.bias f4 [120]
00000000: 6967 f3bd ad53 69bd f34c bfbe 936a f03c
00000010: 8340 41bc 6d0e 813d d3e0 44be 3550 1dbe
00000020: a358 803e 2232 05bf 8084 393d 34e7 30be
00000030: ebd9 1ebc a346 3dbe 860b 98bd 4550 b3bd
00000040: 0af3 e2bd ebf1 88bd 87ac 3fbe c70f d13c
00000050: f151 83be 49d4 a6bd b82c 19be b399 983c
00000060: 8ddb af3d e46c b3bd 59f2 d93b 3ec4 c5bd
00000070: 7cc8 f63c 3d31 823c 07a5 c6bd 77e7 26bd
00000080: afdc 8dbd c5da dabd 6f39 a7bc 70aa 1ebe
00000090: 39fd b8bd aedc 6fbd aa14 e9bd af87 6fbe
000000a0: 2e63 09be 6d41 ccbe 2ae1 6ebd f513 69bd
000000b0: f7d9 0f3e 1fdb 14bf c723 26be c9a2 a8be
000000c0: 7966 cc3d 1a2a 10bd af07 4f3c 7c07 893e
000000d0: 168a 20bf 3902 3b3e f63a f3bd 0c90 9ebd
000000e0: bc53 88be 6e3b a53d 34f7 393e 453c 91bd
000000f0: c23b a4be e1c0 d3bd cc05 fbbd 7b56 e3be
00000100: 25a2 13be b553 0d3d cefa a3be 8fcb 4e3d
00000110: ba23 113d fea4 9dbe 3616 bb3a f5c1 8fbc
00000120: 2786 d9bd 3d5b 1dbf dfad 4dbe 7901 65be
00000130: ff91 29be 576c a1be 234b 21be 6750 043e
00000140: 19cc 00be 5844 c7be f3c5 3fbe 420c 0cbe
00000150: bd51 953d 97ca 39bd b6e4 d7bd e2e4 96bd
00000160: f91e 1e3d 2aab 47be 1eb3 21be 9c42 3dbe
00000170: 2fa9 a03d e1b8 77be 5743 83be 9796 ffbc
00000180: 330e d43c 81d4 f0bd 406a c8bd d9b0 11bf
00000190: 1304 d83d e686 333e 64fe ebbd d368 09be
000001a0: c76b d8bd e9a0 22be 4abe 7b3d 8e07 e5bd
000001b0: 84ba bbbe 388c 43bc e5db 3bbe 64dc 95bd
000001c0: 4441 c43c 60c4 52bc 2d95 02be 1718 2cbe
000001d0: c401 573e f143 1b3d 5ace 88be fc8d 813b
-0.11884958 -0.056964565 -0.37363395 0.029347694 -0.011795166 0.063015796 -0.19226389 -0.15362628
0.25067624 -0.5202962 0.045292377 -0.17275697 -0.00969551 -0.18483977 -0.07424073 -0.087555446
-0.11081512 -0.06686767 -0.18718158 0.025520219 -0.25648454 -0.08145959 -0.14958465 0.018627977
0.08586798 -0.087610036 0.0066512045 -0.09656571 0.030124895 0.01589262 -0.09699445 -0.040748086
-0.06926858 -0.10686258 -0.020413129 -0.15494704 -0.090326734 -0.058560066 -0.113808945 -0.23391603
-0.1341674 -0.39893666 -0.058320202 -0.056903798 0.1404799 -0.5814685 -0.16224585 -0.32936695
0.099804826 -0.0351964 0.012636109 0.26763523 -0.627107 0.18262567 -0.1187648 -0.077423185
-0.26626384 0.08067976 0.18160707 -0.070915736 -0.32076842 -0.10339523 -0.12256965 -0.44401917
-0.14417322 0.034503657 -0.32027286 0.050487097 0.035434462 -0.30789942 0.0014273587 -0.01754854
-0.10621291 -0.61467344 -0.20085858 -0.22363843 -0.165596 -0.3152797 -0.15751319 0.12921296
-0.12577857 -0.3891933 -0.18727855 -0.13676551 0.07290981 -0.04535922 -0.1054167 -0.07367875
0.038603757 -0.19498888 -0.15790984 -0.1848244 0.07844769 -0.2419162 -0.25637314 -0.031199737
0.025885677 -0.11759282 -0.097858906 -0.56910473 0.10547652 0.17531928 -0.115231305 -0.13418894
-0.10567432 -0.15881695 0.06146077 -0.111830816 -0.36665738 -0.011935286 -0.18345602 -0.07317427
0.023956902 -0.012864202 -0.12752219 -0.16806065 0.20996767 0.03790659 -0.26719934 0.0039536934

fc2.weight f4 [84, 120]
00000000: d28e cbbd 0287 fbbd 833e 12bd 5089 99be
00000010: 75a4 153e ec4a 47be 6a1b 973e 395f 70bd
00000020: f42f 0f3e 0b87 ad3e 93f8 713e a416 8abe
00000030: 11e1 83bd ecdb 6a3e 417e 1dbd c09f 503c
00000040: d8a4 2a3e 140c 25be e77a a5bd bc03 a7be
00000050: bdb6 96be 7e26 ca3c 08de 7fbd afc6 dcbc
00000060: f02e 1fbf a45c 533d ae8e 743d ceab 5dbd
00000070: 6b40 8f3c bc5d c33c 5825 b73e db07 543e
00000080: 3c7e d4bd f059 2fbe f633 9b3e ac5f f7bd
00000090: 233b 42be 07e8 41bc d5cb 0bbe 55b0 8abd
000000a0: 8db1 093e 3620 b63e be7f 943c cb1c 393e
000000b0: 2783 48be 5870 05bd bea5 88be ffd3 743d
000000c0: ae5e 9b3d f4db 0dbf a478 d53d e03a fcbe
000000d0: 0cf0 09be 6ba1 d6be 3f19 bf3d 1beb 523d
000000e0: c20f 5ebd b759 4a3d 0f11 313e a7ba 67be
000000f0: a25a c43e fdd1 523d a256 86be 7ccb bf3d
00000100: 02f2 ff3e 9c9e ae3e be7a 4e3e ffa4 44bb
00000110: a6a2 1a3e e857 8bbe 71f7 5cbd f3c3 6bbd
00000120: c7f3 18be d1f7 943e c35c 7f3e 310a 143e
00000130: b178 d0be 8fe4 a5be 53b0 d13d d436 8abe
00000140: 20bb d9be 2a04 f93d 4daa 263d 3e89 593e
00000150: 84cd 293e f053 cfbc 699c 0f3e 6431 d73e
00000160: 0e77 59bd 41b3 5bbe e594 31bd 0273 133f
00000170: 511c e9bd f0d3 d93d 6982 c6be cd8d 19bd
00000180: 438a 2cbd 29f2 0fbf 99a9 0e3e eb60 e73b
00000190: feaa 3d3e 7f84 6cbd 6eba ecbd c891 303e
000001a0: b395 253e 1a12 c23e b2c8 b0bb 2a76 90bd
000001b0: 8e16 c13d 61cc 6b3e bd41 12be 4874 1e3e
000001c0: 735d a03d 2877 7cbc 9c2f aabe bc1f b53c
000001d0: c362 94bd 2307 9bbd 0818 cdbe 1ade 3cbe
000001e0: 6215 79be 1ff2 d4be 188b 9cbe 3eb8 26be
000001f0: ecda f6bd 9441 cc3e 1721 dfbd a72f ef3e
00000200: 623c ac3e 57be 693e ac63 34bf 100e 023e
00000210: 1064 643c 4926 3f3c 4517 d13c ce09 39bd
00000220: d142 be3d ec18 043e 65d7 6e3e adf3 373e
00000230: 20e0 afbd 7989 30bd 932f 2dbb 7219 873d
00000240: 1ca8 7c3e ec33 71bd de91 a9bd 424d f9bc
00000250: f697 de3d 36e2 48bd cf00 c6bd e0eb 123d
00000260: a11d 1dbd 6462 673e 60b5 2a3c 71c1 ae3e
00000270: bced 47bf b5b8 35bd 1f6d 4dbe cdde bdbc
00000280: 32b1 92be b853 7b3c dd08 283d 85a3 0a3e
00000290: ec86 5bbd 0c2c b03e cae8 bfbe 46cc ffbc
000002a0: b7bf 093e f360 e4bb db71 fb3d 1569 83be
000002b0: 41dc d5bd 3921 d3bd 4b5e 7fbe cd69 e0ba
000002c0: 4064 1fbf de7f ab3d 7946 5fbd 391a 5bbd
000002d0: b3b3 e1be f57d 54bd 915a 0b3e cbc2 153e
000002e0: 1691 93bd 25b7 ba3d 2a0b e53c a192 283e
000002f0: 94d9 053e c3a7 053e 1cca ecbd 9cbf 8a3c
00000300: 31e3 2f3d dfee 353e 4a46 01be f6cc a53e
00000310: 391c f03e 8fd3 69be c84d 9c3d 5a0c cebe
00000320: 0927 1d3e c7fe 843d 7a7f 0f3e 0994 cbbc
00000330: af36 0e3c 790c 4cbe 42e7 c63d 5aa3 fc3d
00000340: 821c 6abe ea06 473e f576 15be 6e3e 133e
00000350: 1f8a e9bd 45a2 033e 9352 833e 006c b13d
00000360: 7526 e0bc 966d cc3b 9908 b8be 1fb6 0d3e
00000370: d465 4cbd 7a53 2bbe 44dc 54be 09a5 b5be
00000380: ef50 c23e 84f2 d6be 5a28 8e3d fc05 813d
00000390: 1484 2b3e 6831 453c b17a 4b3d 1052 83be
000003a0: fef9 12bd edb2 4fbd 34e2 8b3d 9e80 243e
000003b0: 282d d3be 31c6 ef3b a22b d23d 48b0 473e
000003c0: ddec 8c3e 8899 a53d 6099 b8bd e605 84bc
000003d0: 2681 083e b8c3 abbe 1b39 0b3f 6f83 cbbe
000003e0: de6d c0be 2810 c23e 1fa4 26bf 8a0d 913e
000003f0: 4ada 68bd b7de 163e de70 a03c aff3 763a
-0.0993935 -0.1228161 -0.035704147 -0.29987574 0.14613517 -0.19462174 0.29513103 -0.05868456
0.13983136 0.33892092 0.2362998 -0.26970398 -0.064394124 0.22935456 -0.038450483 0.0127334
0.16664445 -0.16117889 -0.080800824 -0.32620037 -0.29436293 0.024676558 -0.062467605 -0.026950208
-0.62180996 0.05160202 0.059706382 -0.054118924 0.017486772 0.023848407 0.3577068 0.20706122
-0.1037564 -0.17124152 0.3031308 -0.12078795 -0.18967871 -0.011835105 -0.13651974 -0.06771914
0.13446636 0.3557145 0.018127318 0.1807739 -0.1958128 -0.032577842 -0.2668895 0.059772488
0.07586418 -0.55413747 0.10423401 -0.49263668 -0.13470477 -0.41920027 0.09330987 0.051493745
-0.054214247 0.049401965 0.17291664 -0.22629796 0.38350397 0.05146979 -0.2623797 0.093649834
0.49989325 0.34105384 0.2016401 -0.0030005572 0.15101108 -0.27215505 -0.053946916 -0.05755992
-0.14936744 0.2909532 0.2493773 0.14457013 -0.4071708 -0.3240094 0.10238709 -0.26994956
-0.42525578 0.12158997 0.040689755 0.2124376 0.16582304 -0.02530858 0.1402451 0.4202987
-0.053092055 -0.21455099 -0.043354888 0.57597363 -0.11382354 0.10636127 -0.3877137 -0.037488747
-0.042124044 -0.5622888 0.13931884 0.007061114 0.1852226 -0.057743546 -0.11558996 0.17243111
0.16170387 0.37904435 -0.0053950185 -0.07053788 0.0942813 0.23027183 -0.1428289 0.15474045
0.07830324 -0.015409268 -0.33239448 0.022109859 -0.072454 -0.075697206 -0.40057397 -0.184441
-0.24324563 -0.41590974 -0.3057487 -0.1628122 -0.12053475 0.39893782 -0.10894983 0.46716043
0.33639818 0.22826515 -0.7046459 0.12700677 0.013939872 0.011666843 0.025523791 -0.045175366
0.09290088 0.12900132 0.23324354 0.17964049 -0.0858767 -0.043099854 -0.0026426062 0.0659665
0.24673504 -0.058887407 -0.08279775 -0.030432347 0.10868828 -0.049043857 -0.09668123 0.03586948
-0.038358334 0.22596127 0.01041922 0.3413196 -0.7809713 -0.044365603 -0.20061158 -0.023177529
-0.28650814 0.015339784 0.041024078 0.1353894 -0.05359547 0.34408605 -0.3748229 -0.031225335
0.1345204 -0.006969565 0.122775756 -0.2566611 -0.10442401 -0.10309071 -0.24938314 -0.0017121375
-0.62262344 0.08373998 -0.054510567 -0.053491805 -0.44082412 -0.051877934 0.13608767 0.14625089
-0.07205407 0.09116963 0.027959425 0.16462184 0.1307128 0.13052277 -0.11561987 0.01693707
0.042941276 0.17766903 -0.1262447 0.32382935 0.46896532 -0.2283461 0.07632023 -0.40243798
0.15346922 0.064939074 0.14013472 -0.024850862 0.00868003 -0.19926633 0.09712078 0.12335844
-0.22862437 0.19436231 -0.1459616 0.14379284 -0.11403298 0.1285487 0.25648937 0.086631775
-0.027362088 0.0062386496 -0.3594406 0.13839005 -0.0499018 -0.16731063 -0.2078715 -0.35477474
0.37952372 -0.419819 0.0694129 0.062999696 0.16749603 0.012035705 0.049677555 -0.25648546
-0.035882942 -0.050707746 0.06830254 0.16064689 -0.4124539 0.0073173274 0.102622285 0.1950084
0.27524462 0.080859244 -0.09013629 -0.016116094 0.13330516 -0.3354776 0.5438401 -0.39748713
-0.37583822 0.3790295 -0.6509418 0.28330642 -0.0568488 0.14733396 0.01958507 0.0009420467

fc2.bias f4 [84]
00000000: ffb0 edbd 12aa 6ebd 1de7 b6be b19e 013e
00000010: c7ca 5abe 71cb d5be 2a9a 0fbe b675 cf3d
00000020: d7b4 34be 5360 fa3d 2c40 13be c98c b7be
00000030: 2ce7 09bd f828 52be fd1d 07be 016f 913e
00000040: 9211 d2bd c17d 70be bdb2 bbbe 31f1 da3d
00000050: d348 c6bd 3502 29be 96cb 71be 9304 f83d
00000060: 364f 24be 9b05 ba3d 8403 52bd 0134 6fbe
00000070: 88ab 9c3d 08d5 1c3e a204 d8bd 738c 63bd
00000080: cc52 a9bc 123a f4be a27b cebe f3be 823e
00000090: fc7a 5c3e 1634 7a3e 2e0c 13bd 6641 b4bc
000000a0: a12e 823e 6dc2 acbe 67a0 e13d e7ba 6ebe
000000b0: 238a 2fbe 29b1 b5bc 7f4e 99bd 81f4 1bbe
000000c0: cd67 843e c497 583e 124e 7cbe aa62 71bd
000000d0: aff2 71be e0f2 e1bd f311 8e3b 5b84 a1be
000000e0: 543b d2bd 12df 43be aa9c 0dbd 3274 a2be
000000f0: 4cac 16be 6b2b 983d aa3d 083e 1164 aebe
00000100: 7374 1dbe 23d4 c5be ecc0 d9be d817 ecbd
00000110: e77d b4be ca2c 51be 3d56 413e 37cb 28be
00000120: ff87 c4be 997b 803d 1e70 0cbe 7d8d f73d
00000130: 8417 f73d ce37 063e 61fb 0abe 216e 803e
00000140: ebef 9fbe 7de3 99be d340 ae3e 4e64 73bc
-0.11606025 -0.05826766 -0.357232 0.12658192 -0.21366416 -0.41756776 -0.14023653 0.101298735
-0.1764711 0.12225404 -0.14379948 -0.35849598 -0.03366773 -0.20523441 -0.13195033 0.28405002
-0.102572575 -0.23485471 -0.36659804 0.10690535 -0.09681859 -0.16504748 -0.23612818 0.121102475
-0.16045842 0.090831004 -0.051272884 -0.23359682 0.076499045 0.1531564 -0.10547759 -0.055553865
-0.020669363 -0.47700554 -0.403287 0.25536308 0.2153129 0.24433932 -0.035900287 -0.02200384
0.254262 -0.33742085 0.110169224 -0.23313485 -0.17142539 -0.022179203 -0.07485675 -0.1522999
0.25860444 0.21151644 -0.24639156 -0.058931984 -0.23627733 -0.11032653 0.004335636 -0.31546292
-0.10265222 -0.19128063 -0.034573235 -0.31729275 -0.14714164 0.07430156 0.13304773 -0.3406072
-0.15376453 -0.3863841 -0.4253 -0.11527985 -0.35252306 -0.20427242 0.18880554 -0.1648377
-0.38385007 0.062735744 -0.13714644 0.120875336 0.12065032 0.13107225 -0.13572456 0.25084022
-0.3123773 -0.30056372 0.34033832 -0.0148554575

fc3.weight f4 [10, 84]
00000000: 9a80 0abf 5096 4abe 5518 12bf 0944 17bf
00000010: 4ed0 bebe 4efd 23bf 50f1 5c3c a9ad 0fbf
00000020: eea9 babe f89c a9bd ec0e adbe 84cf 4bbf
00000030: 7349 b6be cd7f 29bf 6d3f 86bf 7a12 2fbf
00000040: 0f2d 08bf b653 aabe e871 c73b 7ab8 22be
00000050: b02e 163e 4868 d5be 2349 1c3d b6dc 27bf
00000060: d3af 04bf b44d 47be 17a1 bdbe a8f6 12be
00000070: e601 a9be 399f 15bf 30a2 853d d35b 37bf
00000080: c374 8fbe 5a06 53be 3c69 753c e222 b53c
00000090: cb07 8abe 3238 fabe c2e4 09bf 45f6 42be
000000a0: 288c 5abe b0dc 49be 16fa ca3d b887 b33d
000000b0: a16d 98be 3f7d 44bf fbb1 dbbe 09c7 073e
000000c0: 44a2 28bf 67b6 02be 9828 09be 874d 08bf
000000d0: 96c5 29be 1172 a03c 849e 57bf c890 cd3d
000000e0: 4135 8fbe 6e14 1ebf e836 e43c 2ba5 5abe
000000f0: 3844 18bf 517a 153d 1ac2 87be 3c5e 3c3e
00000100: 43b7 04bf 807c 63bf c2d9 e8bc f4e1 52bf
00000110: 3096 f4be 82dd 52bd 72db 8ebd 25e6 3a3d
00000120: 0aa7 0bbe 5477 453d 6840 ca3d 4129 5e3d
00000130: d1b8 e6be 6edb 193d 01ec 54bc fb7c d13d
00000140: 937d b9be 7790 ff3d b369 2cbf 464d f63d
00000150: c81e 9c3d 8333 febe a89d 263e 0738 753c
00000160: 80a6 debe 40a8 fa3c 490a 253e 2593 2abf
00000170: 2db7 ccbe 673a 86be 010e b83d a169 353d
00000180: 6392 47bf 1db4 85be f43d 35be a5a1 8a3c
00000190: 75a5 023e a11e e5bc e22c f9be ca38 813d
000001a0: 8203 b0be 81ce f4be c8b6 f4be dafe cfbc
000001b0: af5d 6b3d 64d8 fdbe 90a1 81be a621 6cbf
000001c0: 1ed3 16bf 24b8 01bf dd5f 323e d7cb 87be
000001d0: 3de1 c1be 5517 babe 8640 a2be 6652 ecbe
000001e0: 8b8f 62bf a326 e1be d2e9 acbe 34f9 25bf
000001f0: 3212 debe 6850 5e3e bef1 2bbf 50b2 543d
00000200: eb4e 45be 82ff c53d eefc 383d b2c3 1dbf
00000210: 4109 11bf 8f49 843d 4d66 9ebe a26d 78bd
00000220: 9dcd e2be a13c c1be 350a ddbe 135c 46bf
00000230: 5581 efbe fbce 9d3d 8ec7 5dbe 8155 a4bf
00000240: 80e9 ddbe 7430 efbe 10d9 1abf abd8 d43d
00000250: 44d5 3fbe c38e 1cbf 10f6 24bf 5917 023e
00000260: 9aef b03d 0172 67be b7a3 7bbf bd61 02bf
00000270: eaf6 93be 71db 2ebf d435 22bd f3fd 3a3d
00000280: abdc 84be 42f5 8cbf 4960 0c3d 0a88 13bf
00000290: 9b82 d3be 5138 efbe 5ac4 b0be 8e62 79be
000002a0: 6f37 4dbd 2c09 96be aa4d fdbd c463 9fbd
000002b0: ff28 7abe 4445 0a3a 2c02 383e cc53 5a3c
000002c0: cded 2bbe b4fa 693d 54cd a23d c646 39be
000002d0: 588c 0ebc 2730 f6be cc98 3fbd b10d 5e3d
000002e0: 2656 31bb decf 13bf f367 ba3c 8ae3 2abf
000002f0: 78cb 1cbf 390c d7be d8f5 00bf 5884 83be
00000300: be99 f9bc 6e19 5abe b402 4e3e 92a7 2dbf
00000310: 091e ba3e 242e 7cbf 8098 043e 1d08 e33d
00000320: aac4 29bf 7b5e c83d b6f6 6a3c 2908 173d
00000330: a0b8 15bf 6421 8abd 566d aebe a7c0 24bf
00000340: 5259 38bf 7fa2 a8be 8f6a db3d e21e ddbb
00000350: 0797 98be 0ed3 4bbd f046 debe fc7d e23d
00000360: 7fd4 82be 850a 3cbf 2ab1 07bf a70d 0e3d
00000370: 3f75 24bf 731d 86be 8fd1 0ebe 1c32 e8be
00000380: 1eec 433d 31aa cdbe 7600 10bf 8788 073d
00000390: 2b62 073e ec86 64be 0aa8 1fbf f742 14bf
000003a0: 8f6a 80be 0298 87be 8a57 38bd 6823 2e3e
000003b0: de16 22bf b685 433d 975e 3dbe 2cf9 4bbf
000003c0: f7bf d4bd ced0 0e3e 2ecc 36bf f856 e8bd
000003d0: 814c 25be 13f8 453e d92d 083d 1890 32bf
000003e0: c693 78bf 4e5f 05bf d87b 1cbf d3f3 88be
000003f0: 00ad 1bbe 0ddb b6be bd5a 223e fc2d 12be
-0.5410248 -0.19783902 -0.5706838 -0.5908819 -0.372683 -0.6405839 0.013485268 -0.5612436
-0.3645777 -0.082818925 -0.33800447 -0.7961352 -0.35602912 -0.66210634 -1.0488106 -0.6838757
-0.53193754 -0.3326699 0.0060865767 -0.15890685 0.14666247 -0.41681123 0.038155686 -0.65571153
-0.51830786 -0.19463235 -0.37036964 -0.14351904 -0.3300926 -0.5844608 0.065250754 -0.7162449
-0.2801877 -0.20607892 0.014978703 0.02211136 -0.2695907 -0.48871 -0.5386468 -0.19039257
-0.21342528 -0.19713092 0.09910981 0.08766121 -0.2977114 -0.7675361 -0.42909226 0.1325952
-0.658726 -0.12764893 -0.13394392 -0.532433 -0.1657928 0.019585641 -0.8422625 0.100373805
-0.27970317 -0.61749923 0.027858213 -0.21352069 -0.59479094 0.036493603 -0.26515275 0.18395323
-0.51842135 -0.88861847 -0.028424148 -0.8237603 -0.47770834 -0.051480778 -0.069754496 0.04562964
-0.13637939 0.048209503 0.09875566 0.05423856 -0.4506288 0.03756278 -0.012995721 0.10228916
-0.36228618 0.12478726 -0.67348784 0.120264575 0.076230586 -0.49648675 0.16271079 0.014966971
-0.43486404 0.030597806 0.16117205 -0.66630775 -0.39983502 -0.26216432 0.08987046 0.04429019
-0.77957743 -0.26113978 -0.17699414 0.016922781 0.1275843 -0.027968707 -0.48667055 0.0630966
-0.34377676 -0.478138 -0.477957 -0.025390077 0.05746239 -0.49579155 -0.25318575 -0.92238843
-0.5891589 -0.506716 0.17419381 -0.26522705 -0.37867156 -0.36345926 -0.31689852 -0.46156615
-0.8850028 -0.4397479 -0.3377214 -0.6483338 -0.43373257 0.2171036 -0.67165744 0.051927865
-0.19268386 0.09667875 0.045163088 -0.6162673 -0.56654745 0.06459343 -0.30937424 -0.06065143
-0.44297495 -0.3774157 -0.4317185 -0.77484244 -0.4677836 0.07705494 -0.21658155 -1.2838594
-0.4334221 -0.46716654 -0.6048746 0.10392889 -0.18733698 -0.6115534 -0.6443796 0.12704219
0.0863945 -0.22602083 -0.98296684 -0.50930387 -0.28899318 -0.6830359 -0.039602116 0.04565234
-0.25949606 -1.1012347 0.034271512 -0.57629454 -0.41310582 -0.46722654 -0.34524804 -0.24354002
-0.050101694 -0.29303873 -0.12368329 -0.07782701 -0.24429701 0.00052746036 0.17969579 0.013325643
-0.16789933 0.057123855 0.079493195 -0.18093404 -0.008700453 -0.48083612 -0.046776578 0.054212276
-0.0027059405 -0.57739055 0.022754645 -0.6675345 -0.6124797 -0.42001513 -0.5037513 -0.25686908
-0.030468818 -0.21298763 0.20118219 -0.67833817 0.3635104 -0.98507905 0.12948799 0.11085532
-0.6631571 0.09783646 0.014341047 0.036873017 -0.5848484 -0.0674465 -0.34067792 -0.64356464
-0.7201129 -0.32936475 0.10713684 -0.0067480663 -0.29802725 -0.049761824 -0.43413496 0.11059186
-0.25552747 -0.7345355 -0.53004706 0.03468099 -0.64241403 -0.26194343 -0.13947128 -0.4535073
0.0478326 -0.40168908 -0.56250703 0.033089187 0.13221042 -0.22317094 -0.6236578 -0.5791468
-0.25081298 -0.2648316 -0.04500536 0.17005694 -0.6331614 0.04773494 -0.18493114 -0.7967708
-0.10388177 0.1394684 -0.71405303 -0.11344713 -0.16142465 0.19332914 0.03324685 -0.6975112
-0.97100484 -0.5209855 -0.6112647 -0.26748523 -0.15202713 -0.35713997 0.15854926 -0.14275354

fc3.bias f4 [10]
00000000: 58b1 bbbe b423 b4bd 7eb2 aa3d 07ac 5ebd
00000010: b979 8439 fd3d 4dbe d5a9 a3bd b7a9 8fbd
00000020: 2807 ab3e 7bea d43d
-0.3665874 -0.08795872 0.08334826 -0.054363277 0.00025267692 -0.20043178 -0.07991377 -0.070147924
0.33403897 0.10396286
