mnist/saved_models/model_epoch_16.pth (torch, 181338 bytes, 10 tensors)

conv1.weight f4 [6, 1, 5, 5]
000000 04 4b 81 be 64 91 2d 3d 62 a8 da ba b9 89 be 3e
       -0.25252545 0.042374983 -0.0016682262 0.3721445
000010 65 71 1c 3e 67 be 70 3e c3 d2 de 3e 0b 73 64 3e
       0.15277632 0.23510133 0.43520173 0.2230951
000020 80 90 fc 3d 2d cf a1 3e d6 e8 4f 3e fc 56 11 3e
       0.12332249 0.31603375 0.20303664 0.14193338
000030 fa 1d 08 be 3f d8 02 be 08 0c 2d bd ca 7b cf bd
       -0.13292685 -0.12777804 -0.042247802 -0.10131033
000040 49 3c 8d be 49 ec 6d be 47 53 96 be 73 dc 4e be
       -0.27585056 -0.23234667 -0.2936041 -0.20201282
000050 06 15 09 be f3 ec c2 bd f2 17 5f bd d6 a2 50 3e
       -0.13386926 -0.09517851 -0.054466195 0.20374617
000060 01 ff 01 be 08 dc af be c3 f2 db 3d 91 e7 c8 3e
       -0.12694933 -0.34347558 0.107396625 0.3923917
000070 55 73 1b be 80 b8 14 be ba df b8 be 51 3a ce bb
       -0.15180714 -0.14523506 -0.3610819 -0.006293573
000080 24 98 e2 3e e6 50 6e 3d d4 15 29 3d f2 34 82 be
       0.442567 0.05818262 0.041280583 -0.2543102
000090 86 55 99 be 2d 55 a8 3e fc 0c 8d 3e 52 42 2b bd
       -0.29948062 0.32877484 0.2754897 -0.041811295
0000a0 c5 1b 5b bd 88 0b 03 bf 3f 0d fb bd c7 96 41 be
       -0.05349328 -0.5118947 -0.12258386 -0.18905173
0000b0 0f a7 d0 bd 54 9f bc 3e 36 b8 10 bc b7 2f 19 3e
       -0.10188114 0.36840308 -0.008832982 0.14959608
0000c0 f6 2f c7 3d c6 86 c2 3d a4 89 36 bc 6d d1 c6 bd
       0.09725945 0.09498362 -0.0111412145 -0.097079135
0000d0 94 9e f6 bd 25 a8 34 bd 59 81 c6 be 97 4b d1 bd
       -0.12041965 -0.044105668 -0.3877056 -0.10219496
0000e0 8d e7 3b bd f3 39 6c 3e d3 3f da 3e 01 dd 14 bd
       -0.04587512 0.23068981 0.4262682 -0.03634358
0000f0 5b 18 7e 3e 52 27 53 3e 80 ab f5 3e 97 34 21 3f
       0.24813978 0.20620468 0.47982407 0.6297087
000100 8d f9 ae bd bc 13 c2 bd 6c c7 db be 10 da cf bd
       -0.08543692 -0.0947642 -0.42925584 -0.10149014
000110 72 b5 d1 3e 1d bf 22 3e ff 9c 9c 3d 06 b9 7c be
       0.40958744 0.15893216 0.07647132 -0.24679956
000120 13 78 ff be 3a fc 20 bd fe 0b 8c 3e 57 f7 69 bd
       -0.49896297 -0.039303042 0.273529 -0.057120647
000130 f3 73 57 3d c4 fb c2 bd 34 e3 7f bc 0b 5f ed 3d
       0.052600812 -0.09520677 -0.015618134 0.11590394
000140 4f 83 32 3d 77 77 2c 3b 05 09 0f be 08 ac f8 3d
       0.043582257 0.0026316324 -0.13968284 0.12142187
000150 8a ac 95 3e 27 14 6d 3d 1d c8 95 bd d2 10 9a be
       0.292332 0.057880547 -0.07313559 -0.30090958
000160 23 98 04 be 9a e0 8b 3e ff 42 a2 bd e2 db f5 bd
       -0.1294866 0.27319795 -0.07922935 -0.1200483
000170 e4 03 4e be d0 ac d1 3e 26 1f e3 3e ed 5a 46 be
       -0.20118672 0.40952158 0.44359702 -0.19370623
000180 48 df 11 bd de 63 c0 3d 25 55 80 3d f7 25 eb 3d
       -0.03561333 0.09394048 0.0626624 0.114818506
000190 f3 5b 88 3d de 42 5b 3d 74 49 c2 3e 00 52 0a 3d
       0.06658163 0.053530566 0.37946665 0.033769608
0001a0 49 7a ad 3e e3 94 3f 3d 2d cd f9 bd 9d 6e c1 bc
       0.3388236 0.04677285 -0.12197337 -0.023612315
0001b0 75 84 09 3b 57 0e 37 3e 1c 66 f8 bd 0c 52 a5 be
       0.0020983492 0.17876564 -0.12128851 -0.3228916
0001c0 75 84 87 be 4e 73 d4 be 98 c1 5c bd d4 43 6a 3e
       -0.26468244 -0.4149422 -0.053895563 0.22877437
0001d0 df 03 2e be 4c 0c f3 be 11 91 6a be c6 06 d7 3d
       -0.16993664 -0.4747032 -0.22906901 0.10499339
0001e0 f5 88 8b 3e e7 fe c4 3e fe d6 af 3e fd 08 e6 3e
       0.27252927 0.38475725 0.34343714 0.44928733
0001f0 5f de fb 3d cd ab dd 3d f4 6c 41 3e f6 e3 ca 3b
       0.12298273 0.10823784 0.18889219 0.006191726
000200 5e 99 7a 3b 02 15 c3 3c 1b 68 53 be d2 5d 85 3e
       0.0038238387 0.023813728 -0.20645182 0.26048142
000210 36 8e 46 3e 62 68 69 bd 09 9b 02 be 6d fc 0f bd
       0.19390187 -0.056984313 -0.12754454 -0.03515284
000220 9d 8a 1c 3f 1c 41 81 bd 42 f6 69 be 88 03 d4 3d
       0.6114901 -0.06311247 -0.22847846 0.10352236
000230 b4 1e 3b 3e dd c1 97 3e 95 23 fe be 12 8c b4 3d
       0.18273431 0.29640093 -0.49636522 0.08815779
000240 8d 21 18 3d f0 9c 0a 3e 67 e6 5f be 32 80 57 be
       0.03714137 0.1353643 -0.21865235 -0.21044996
000250 c7 ed e8 bc ed 6f 9a bd
       -0.028433694 -0.075408794

conv1.bias f4 [6]
000000 d3 aa 06 be 79 ec 76 bf fa 3b ad be 05 d0 e1 be
       -0.13151102 -0.9645458 -0.3383482 -0.4410402
000010 a4 88 05 bf f8 56 e5 be
       -0.5216162 -0.44792914

conv2.weight f4 [16, 6, 5, 5]
000000 06 43 d6 3c 03 8d 03 be 0f 0a 33 3e c1 3a 71 3e
       0.026155006 -0.1284676 0.17484306 0.23557569
000010 45 ce 10 3b 3c c9 dd 3d 00 08 b5 3b 7a fe 7f 3e
       0.0022095602 0.10829398 0.0055246353 0.24999419
000020 82 7f ee 3d 79 61 4a 3e f3 b9 4f 3d b6 52 29 3e
       0.11645414 0.19763745 0.050714444 0.16535458
000030 35 e7 90 3d 8c bc 00 be ba 9c 31 3e a4 ce 0d bf
       0.07075349 -0.12571925 0.17344943 -0.55393434
000040 1e 1c bd be 28 94 b3 be 7d 61 d4 be 51 1f 43 be
       -0.36935514 -0.35073972 -0.41480628 -0.19054915
000050 56 63 64 bf 16 a0 70 bf 73 a6 86 bf 01 8d cb bf
       -0.89214075 -0.9399427 -1.0519546 -1.5902406
000060 65 60 c4 bf 56 cc 3d 3e bf 9d 67 be bf a8 1d bf
       -1.5341917 0.18534979 -0.22618769 -0.6158561
000070 14 10 c6 3d ae 2d d9 bd a7 9d 9e 3d c9 23 96 be
       0.096710354 -0.10604416 0.077449135 -0.29324177
000080 69 17 ba be 2f 40 ed 3c 27 f3 8d bc 03 4d 74 3e
       -0.36345986 0.02896127 -0.017327858 0.23857503
000090 e1 f6 48 3e 97 a7 7e be 15 2e 99 3d ea a1 2b be
       0.19625427 -0.24868618 0.074794926 -0.16760984
0000a0 c5 15 88 3e 57 96 91 3e eb 60 7a bd 0b 5f 83 3e
       0.2657911 0.28435013 -0.061127584 0.2565845
0000b0 8f e0 1e 3d 89 79 6b bd f9 46 57 3e 67 0e 03 be
       0.038788375 -0.05748895 0.21023168 -0.12798463
0000c0 4a 64 7e 3e 0b 0d 42 be 6e 41 ab 3e e3 8f 27 3e
       0.24842945 -0.18950288 0.33448356 0.16363482
0000d0 dc 7d 0d 3b 37 83 d6 bd 48 5d 24 3e f3 db 51 be
       0.002158991 -0.10474246 0.16051209 -0.2049406
0000e0 ee c7 6e 3e 82 cc d4 3c 6f a8 a7 bc 82 d7 83 3e
       0.23318455 0.025976423 -0.020466058 0.25750357
0000f0 60 11 fd 3d 28 91 93 3e fc 31 c2 be 08 69 fd 3c
       0.1235683 0.28821683 -0.3792876 0.030933872
000100 8d cf ea bd 30 3d b2 be 76 7f f0 be f6 18 76 bf
       -0.114653684 -0.34812307 -0.46972245 -0.9613184
000110 97 82 f9 be d2 86 81 bf c1 a1 9b 3d b0 8e b4 bd
       -0.48732445 -1.0119269 0.075992115 -0.08816278
000120 b1 1f 9e be 06 df ce be a9 02 05 bf 24 98 81 3e
       -0.30883554 -0.40404528 -0.51957184 0.25311387
000130 fc b1 0a 3f 49 fd 3b be ae 32 61 be ea fb 37 be
       0.5417783 -0.1835834 -0.21991989 -0.17967191
000140 c4 e1 ee 3e 8f eb 07 3e 67 d7 9c be d5 d8 86 bd
       0.4665662 0.13273452 -0.3063309 -0.06584326
000150 61 51 95 3d e5 63 d1 3c 76 7f c3 be 94 a3 02 bf
       0.072909124 0.025560329 -0.38183182 -0.5103085
000160 c0 9a c9 be e1 17 44 bf b3 5e 85 be 5c 6a 04 bf
       -0.39375877 -0.76598936 -0.26048812 -0.5172479
000170 f9 a0 8c bf f5 ad 97 bf 23 e5 8a bf 9d 9d a7 bc
       -1.0986625 -1.1849962 -1.0851177 -0.020460898
000180 93 16 ce 3d a7 09 a3 be 7d 46 09 bf 3a c7 80 bf
       0.100628994 -0.31843302 -0.5362318 -1.0060799
000190 19 4d 3f 3e b8 7d 9a bd 12 d1 81 bd c9 c4 20 bd
       0.18681754 -0.0754351 -0.06338705 -0.03925017
0001a0 26 aa b2 3d f6 9e 5d 3e 59 8a 02 3e 30 5c 96 be
       0.087238595 0.2164267 0.12748088 -0.29367208
0001b0 b9 f8 ae be fe 70 0e 3e b9 9e 54 be 5e 9d 04 be
       -0.34174135 0.1391029 -0.20763673 -0.12950656
0001c0 ab 0a c5 be d6 48 43 be d5 58 b4 bd 18 f8 cd 3e
       -0.38484702 -0.19070753 -0.08806006 0.40228343
0001d0 ba b3 26 3e 38 d5 e2 3b df 8b 8c be f7 2a 74 3d
       0.16279498 0.0069223903 -0.27450463 0.059611287
0001e0 cf f2 90 3e e4 38 c9 3e 2a e1 a7 3e 52 09 b3 3e
       0.28310248 0.39301217 0.32788974 0.34968048
0001f0 f0 b3 93 3e b5 0e 22 be de ff 78 be c1 da 95 3e
       0.2884822 -0.15825923 -0.24316356 0.29268458
000200 88 5b 41 3d dd 53 99 3d 81 5a 82 3d 1b a4 f7 bb
       0.04720643 0.07486699 0.063649185 -0.0075574047
000210 7f 9c 1f 3e 20 9b 8e 3c 7d b6 e3 be 18 96 b8 3d
       0.15587042 0.017407954 -0.44475165 0.09013003
000220 d4 5d 44 3c f7 93 72 be e0 df 02 bf fb 47 90 be
       0.011985261 -0.23689257 -0.51122856 -0.28179917
000230 8a 7c f6 bc 2f 30 6b be e3 38 42 bf ea 89 b2 bf
       -0.030088682 -0.229676 -0.7586805 -1.3948338
000240 ab cc 2e bf 31 87 99 bd b4 01 26 be f2 e6 33 bf
       -0.6828105 -0.07496489 -0.16211587 -0.7027427
000250 df 10 1d bf 2c 72 b7 bf e7 62 fe be f5 af e2 be
       -0.6135387 -1.4331717 -0.49684832 -0.4427487
000260 d8 cb 0b be af 4e 9f 3e 7f f7 a3 3e 84 83 9e be
       -0.13651979 0.31114718 0.32024762 -0.30959713
000270 e6 ee 13 bf c9 fb 4b bf d8 94 be be 3b 1d 54 bd
       -0.57786405 -0.7968107 -0.37222934 -0.05178569
000280 c7 3a f3 3d ac 43 f4 3d 1b c2 12 3e 8e 7d 20 3e
       0.11876445 0.1192697 0.14331858 0.15672895
000290 87 a1 f6 3d 3d 00 c1 bc a8 c4 80 3e c1 3c 68 3e
       0.12042528 -0.023559684 0.25150037 0.22679426
0002a0 73 93 2b 3e 58 20 11 3e 55 96 9a be 34 d2 f0 be
       0.16755466 0.14172494 -0.3019282 -0.47035372
0002b0 8f 0c 1b bf 28 55 30 bf b4 42 9d be 6d 9b 7a 3e
       -0.6056604 -0.6887994 -0.30714953 0.24473353
0002c0 32 05 39 3e 9b 79 6d be c8 fd 04 3e 06 fe 79 bb
       0.18068388 -0.2319092 0.12987435 -0.0038145795
0002d0 06 3e 83 bd 0d 68 29 ba d8 24 63 be c2 17 3b be
       -0.064083144 -0.0006462343 -0.22182024 -0.18270782
0002e0 9c 3b 24 be 47 9d f0 3d f4 24 f3 3e 19 8c 1b 3e
       -0.16038364 0.11748748 0.4748913 0.15190162
0002f0 6a 45 07 bf 7b 36 f8 be 9a 71 4c be 2d 96 2c 3e
       -0.5284029 -0.48479065 -0.1996521 0.16854163
000300 ed 88 2e bd 2e 4a d6 be 4c ac b6 3d 71 14 8f bd
       -0.04261105 -0.4185347 0.08919582 -0.06986321
000310 d3 f2 c7 be b5 ed 06 bf 2e 42 a4 be 96 86 a6 3e
       -0.39052448 -0.5270646 -0.3208174 0.32524556
000320 fe c4 59 3d 28 fb cc 3d ec 04 a2 be 30 eb 76 3c
       0.053166382 0.10008842 -0.3164438 0.0150707215
000330 8e 49 0c 3e 81 82 b5 3e e2 de 81 3e ac f2 5c 3c
       0.13699934 0.3545113 0.2536536 0.013485592
000340 be 9f 1a be 48 d0 53 be 00 e1 67 bd 64 fd 80 3e
       -0.151 -0.20684922 -0.05661106 0.25193322
000350 8a f1 85 3e 9d 4d d6 3e 8d 47 ec 3d 05 e0 a7 be
       0.26160842 0.4185609 0.11537085 -0.327881
000360 00 9f a0 be 99 32 b2 bd 80 0b 72 bd a1 20 9d bc
       -0.31371307 -0.08701057 -0.059093 -0.019180598
000370 0d cf 38 be bc ed b0 be 06 2d 03 bf c5 fc 39 bf
       -0.18047734 -0.34556377 -0.51240575 -0.7265132
000380 74 60 7a be 38 b4 81 3e 90 07 ca 3d d5 3d da be
       -0.24450856 0.25332808 0.09864724 -0.426253
000390 1e e3 c4 bd 8f bd 82 be b4 23 32 bd 1d 10 8a bd
       -0.09613632 -0.25535247 -0.04349108 -0.067413546
0003a0 c3 7e 9e be fc 0c cc bd 03 ba f9 bd 67 5b 08 3d
       -0.30956087 -0.09963414 -0.12193682 0.033290293
0003b0 c2 e9 dc bd 07 71 b3 be e5 7c 77 3e 35 86 2c be
       -0.10786773 -0.3504717 0.24168737 -0.16848071
0003c0 c8 40 2c 3d 0d cb bc be 5d 29 58 be 20 78 89 3e
       0.042053968 -0.36873665 -0.21109529 0.2684946
0003d0 0f 46 f0 3c 6e 9f 9a 3e 92 64 56 3e 16 d2 0f 3c
       0.029330282 0.3019976 0.20936802 0.008778116
0003e0 80 85 4c 3d e3 ca bf be d4 a2 b3 3d 2b 3f bd be
       0.049932003 -0.37459478 0.087712914 -0.36962256
0003f0 ad 5f 12 be dc f4 1f 3d 97 2e 53 3e 0e 79 ee 3c
       -0.1429431 0.039051875 0.20623241 0.029110458

conv2.bias f4 [16]
000000 26 fb 09 3d f9 83 b8 bd 85 45 93 bd 7f 58 38 3e
       0.03368678 -0.09009547 -0.07190994 0.18002509
000010 b4 31 95 bc 89 9a e7 3c 72 e6 4f be 26 82 37 be
       -0.018212177 0.02827193 -0.20302752 -0.17920741
000020 44 f3 fe bd a8 50 50 be bc f2 41 bd 59 ea a4 3e
       -0.12448743 -0.20343268 -0.04735063 0.32210043
000030 a5 28 fd 3d 4b 0f f7 bd dc e2 43 bd 23 07 b4 bd
       0.12361268 -0.12063464 -0.04782377 -0.08790424

fc1.weight f4 [120, 256]
000000 83 26 7c bd 35 74 80 be 43 bc d7 be 4d 2d ab 3d
       -0.061560165 -0.2508866 -0.4213582 0.0835825
000010 8e 93 4a 3c 26 06 de be 2b 77 ae be 60 c6 4f be
       0.012364281 -0.43364066 -0.34075293 -0.20290518
000020 8d d8 82 be 43 0d 3b 3d f0 20 56 3d f8 59 52 3e
       -0.2555584 0.045666944 0.052277505 0.20542133
000030 89 b7 75 be 3b 8d 78 bc 1e 42 b6 be 4e cb 3a bd
       -0.23995794 -0.015170391 -0.35597318 -0.045604043
000040 b4 70 36 be e7 89 c1 bc f8 33 40 3e da 17 d2 bd
       -0.1781643 -0.023625327 0.18769825 -0.102584556
000050 d5 80 58 be 29 a5 43 be 3d ce 32 be 59 35 3e be
       -0.21142896 -0.19105972 -0.17461486 -0.18575038
000060 8e 41 46 bf a2 b5 3b bf 51 d8 0e bb ee 07 e2 3e
       -0.7744378 -0.73324025 -0.0021796415 0.44146675
000070 a3 6b 68 bf fc d3 15 3d 67 fd 2b 3d 1a 0e 1a bd
       -0.9078924 0.036579117 0.04198971 -0.037611105
000080 3d fa a0 3e 16 4c c2 3d 26 57 28 3e 29 30 21 bf
       0.31440917 0.094871685 0.16439494 -0.6296411
000090 cf e9 99 3e 71 8a 22 3f 26 f9 05 3f 8f 30 94 3e
       0.30061194 0.63492495 0.52333295 0.28943297
0000a0 5d 3e 9d be dc 93 68 be b9 21 aa 3e 81 0f 21 bd
       -0.30711642 -0.22712654 0.33228853 -0.039321426
0000b0 48 58 a0 3d e8 ae 96 3c c4 51 6a 3d c5 1d f4 3d
       0.07829338 0.018393949 0.057206884 0.119197406
0000c0 a2 83 81 be 8c 94 60 bc 95 00 09 3e 3b 5a 77 bd
       -0.2529574 -0.013707291 0.13379128 -0.060388785
0000d0 38 4e a2 be 09 ea c3 be 8e 54 21 bd 55 5c bb 3e
       -0.317003 -0.38264492 -0.03938728 0.3659388
0000e0 0c 2d 48 be 0c 60 d3 be b0 f5 84 3c a8 8f 3b 3e
       -0.19548434 -0.41284215 0.016230434 0.1831652
0000f0 e1 72 3c 3f 77 dd d3 3e 3d c1 88 be 37 b3 46 bd
       0.7361279 0.41379902 -0.2670993 -0.048510756
000100 66 d4 a4 bd 2e 31 55 bf 91 de 89 be c5 a5 30 be
       -0.08048324 -0.8327817 -0.26927617 -0.17250736
000110 3d 0c 6c bd 0f 2a 59 be 55 24 a4 be c9 03 52 bd
       -0.05762886 -0.2120745 -0.3205897 -0.05127314
000120 53 c6 9f be 61 58 a9 be 91 9c aa be 2d c3 8f 3c
       -0.31205997 -0.3307524 -0.33322576 0.017549122
000130 32 c6 05 3f f5 81 f1 3e 8f 4c 62 3e 70 8e 50 3e
       0.5225555 0.47169462 0.22099517 0.20366836
000140 91 82 14 bf 82 c7 d2 b8 9e 12 de 3e 4f a5 83 3e
       -0.5801173 -0.000100507415 0.4337358 0.25712058
000150 3b ef 68 be eb 52 0e 3c 35 bc 1a 3e cd 08 eb bc
       -0.22747509 0.008686761 0.15110858 -0.02869072
000160 a7 3a a6 3e 79 c0 1d be 42 4a 31 3e 00 dd ab 3d
       0.32466623 -0.15405454 0.17313483 0.08391762
000170 10 b2 2f 3d 27 52 ea bd 0b ba d2 3b 50 76 f9 be
       0.042894423 -0.114414506 0.0064308695 -0.48723078
000180 83 8e 6a 3e f4 e8 7d bd 56 53 97 be f6 49 c9 be
       0.22905926 -0.06198974 -0.29555768 -0.3931424
000190 73 74 34 3e b2 33 9f be d3 b5 9d 3e 0e 11 71 3e
       0.17622547 -0.31094128 0.30802783 0.23541662
0001a0 07 51 73 bf 8e 85 0e be c0 b5 e4 bd 76 1b ca be
       -0.9504551 -0.13918135 -0.111674786 -0.39474076
0001b0 57 2c 86 bb 34 c7 e7 3d 06 42 8b be 11 b1 e3 bd
       -0.004094641 0.11317292 -0.2719881 -0.11117757
0001c0 2f c2 07 bf 5a 87 a3 3d 48 4d b2 3d 0d 05 18 bf
       -0.53030676 0.07984801 0.087061465 -0.59382707
0001d0 dc 6d d3 be c1 dc 1a 3f c0 87 f4 3c 98 2a 0a be
       -0.41294754 0.60493094 0.029849887 -0.1349281
0001e0 dc 84 28 3c 59 78 d8 3e f9 96 54 3e b1 38 a4 3d
       0.010285582 0.42279318 0.20760716 0.080186255
0001f0 cf 77 d8 bd 7b 3d 66 bc 69 d9 3b bd c1 2a 39 3d
       -0.10569727 -0.014052744 -0.045861635 0.04520679
000200 a1 c3 54 be 45 de 0f 3f 4b 4d 92 3d a4 45 3e be
       -0.20777752 0.5619853 0.07143649 -0.18581253
000210 c6 f5 0a bf 44 3c 65 be 54 f9 87 3d b7 38 5b be
       -0.5428127 -0.22386271 0.066393524 -0.21408354
000220 c7 4a b1 bf 38 c6 c9 be 69 0a f7 3d e8 ec 91 3d
       -1.3850945 -0.3940904 0.120625325 0.071252644
000230 a8 90 f8 bd 73 bd 27 3e 49 d9 03 3e 22 3f 8c 3c
       -0.12136966 0.16380863 0.12875856 0.017119948
000240 c8 c4 81 bc 71 d8 80 bf 6e f9 1a be e6 23 15 3e
       -0.015840903 -1.0066053 -0.15134212 0.14564475
000250 35 45 5d be da 8f 2c be ad d9 c6 be f8 b3 19 bf
       -0.21608432 -0.1685175 -0.38837948 -0.60040236
000260 5a a9 3b be 60 24 a3 3e 6c 90 be bd 80 f5 ac be
       -0.18326321 0.3186369 -0.0930489 -0.33781052
000270 fe 6f dd 3e 33 9e 7d 3d 43 d1 ba bd 0b 4c 47 be
       0.43249506 0.06191845 -0.09121945 -0.19462602
000280 00 06 3e bf 62 85 a2 3e 18 85 d6 3e 27 ca 4d 3e
       -0.74227905 0.31742388 0.41898417 0.20096646
000290 84 4d 90 3d 65 05 66 be a0 82 c9 be f4 1a 84 be
       0.07046035 -0.22462995 -0.3935747 -0.25801814
0002a0 06 b6 81 3e 3f cb 16 bf 53 79 11 be b2 a8 de bd
       0.25334185 -0.5890388 -0.14206438 -0.1087202
0002b0 3b 53 9d bd 7e d9 b1 bb e9 4a 57 bd c0 fa ad be
       -0.076818906 -0.0054275384 -0.052561674 -0.3398037
0002c0 10 bd 43 be eb 80 ba be 76 23 f2 3e fd f1 15 3f
       -0.1911509 -0.36426482 0.4729268 0.5857237
0002d0 7e 4c 7c 3e 99 d6 d0 3e 99 f0 03 be 16 de d8 bd
       0.24638554 0.40788725 -0.1288475 -0.105892345
0002e0 f5 47 57 3e 68 89 bf 3e 24 2a a2 be 87 fc 7f be
       0.21023543 0.3740952 -0.31672776 -0.24998675
0002f0 91 12 3f 3e 12 f5 02 be d3 05 f3 3e 16 ae aa 3e
       0.18659426 -0.127888 0.4746538 0.33335942
000300 97 c6 8a bd f3 1c a0 3e d6 c8 0f bd e2 01 55 be
       -0.06776159 0.31272087 -0.03510364 -0.208015
000310 25 6a ef be 39 d7 9d 3e 39 93 f3 bd fe 8d 4a bb
       -0.4676067 0.30828264 -0.11893315 -0.0030907388
000320 2f 2f ce be 59 d2 ef 3d bc bc 2b bd 08 25 65 be
       -0.40270373 0.117100425 -0.041928038 -0.22377408
000330 8f f0 0e 3e 1a b9 ab 3e 40 0c 82 3e 71 47 96 be
       0.13958953 0.3353966 0.2539997 -0.2935138
000340 da d6 0e 3f 08 6c 98 3e 62 12 bf 3a 73 2c dd bd
       0.5579659 0.2976992 0.0014577622 -0.10799494
000350 dc f0 00 bf 3f 6b 94 3b 2d 5e fd 3c 6c f7 08 3f
       -0.5036752 0.0045293863 0.030928696 0.53502536
000360 0d e9 25 be 31 3d f8 be 78 a6 cf be 66 64 4f 3e
       -0.16202183 -0.48484185 -0.40556693 0.20253143
000370 cd a5 95 3e b7 0d 3b 3e db 84 12 3e 87 16 aa bd
       0.29228058 0.1826695 0.14308493 -0.08305078
000380 f7 8f 86 bd 8c 44 4e be 21 a5 89 bf 4e a4 ab be
       -0.06570428 -0.20143336 -1.0753518 -0.33523792
000390 aa e4 0f 3f ad 79 46 3f 58 45 a9 be db 80 0f be
       0.5620829 0.7752941 -0.33060718 -0.14013998
0003a0 2d 81 a8 3d 45 72 0f 3f eb cd c6 3e 97 ae 84 3e
       0.08227763 0.56033736 0.38828978 0.2591445
0003b0 40 92 48 be be 46 99 3d 9b 1a 48 be 56 a7 22 be
       -0.1958704 0.07484196 -0.19541399 -0.15884146
0003c0 1f e9 7a 3e a3 21 ba 3e ea ee 17 bf 9f 27 5f bf
       0.24502991 0.36353788 -0.5934893 -0.8716983
0003d0 d7 f6 28 3e 50 c0 38 3e 36 38 87 3e c3 19 39 be
       0.16500412 0.18042111 0.26410073 -0.18076234
0003e0 c3 bf 71 3e 3c a7 90 bb eb be d1 bd 04 61 9f 3e
       0.23608308 -0.004414467 -0.10241493 0.31128705
0003f0 c8 7a 45 3e 80 71 7e 3e 55 12 5a 3e 18 63 d7 3d
       0.19285119 0.24847984 0.21296056 0.105169475

fc1.bias f4 [120]
000000 22 ca ac bd 1a e5 d8 bd c9 7a 01 bf 43 4a 15 3d
       -0.08436991 -0.10590573 -0.5057798 0.036447775
000010 c2 25 2b 3c c7 13 a4 b9 ac 0d 4b be a3 74 82 be
       0.010446014 -0.00031295253 -0.19829434 -0.25479612
000020 55 15 79 3e 65 36 3b bf e5 27 6d 3d ad 75 86 be
       0.24324544 -0.73129874 0.057899375 -0.26261654
000030 eb d9 1e bc 39 3b d1 be 86 0b 98 bd 45 50 b3 bd
       -0.00969551 -0.40865496 -0.07424073 -0.087555446
000040 21 b5 7c be 00 13 22 bd 91 86 6c be 36 96 a9 bd
       -0.2467847 -0.0395689 -0.23098208 -0.082806036
000050 8b e7 c1 be 49 d4 a6 bd 81 69 f7 bd b3 99 98 3c
       -0.37871966 -0.08145959 -0.1208067 0.018627977
000060 90 94 19 3b e4 6c b3 bd 8f 82 a4 3d 3e c4 c5 bd
       0.0023434497 -0.087610036 0.080327146 -0.09656571
000070 9f 7e 8d 3d 3d 31 82 3c 01 1f 77 be dc f5 bf 3c
       0.06908917 0.01589262 -0.24132921 0.023432665
000080 b6 89 6b be 4f 63 e9 bd 03 66 8c bd 8c 58 98 be
       -0.23001751 -0.11395895 -0.06855395 -0.29755056
000090 bf 12 98 bd ae dc 6f bd b4 8d bc bd 69 0e 7a be
       -0.074254505 -0.058560066 -0.09206715 -0.2441956
0000a0 02 9c 22 be da f6 0f bf 2a e1 6e bd 36 f7 7f be
       -0.15879825 -0.5623604 -0.058320202 -0.24996647
0000b0 6e 94 e7 3d 34 23 38 bf 24 a8 51 be f5 9d 09 bf
       0.113076076 -0.71928716 -0.20474297 -0.5375665
0000c0 39 e6 27 3e 28 30 df 3c e9 58 d0 3d 42 e6 a6 3e
       0.16396417 0.027244642 0.10173208 0.32597548
0000d0 82 d6 44 bf d6 6c 15 3e 50 be 73 be 0c 90 9e bd
       -0.7688981 0.14592299 -0.23803067 -0.077423185
0000e0 02 1f 99 be 34 fe 59 3d 72 b2 23 3e ee 71 ad bd
       -0.2990647 0.053220943 0.1598604 -0.08468996
0000f0 c4 a6 bf be e1 c0 d3 bd 13 a5 3f be 2b 07 27 bf
       -0.3743192 -0.10339523 -0.18715315 -0.6524531
000100 06 03 70 be 7d ac 2f bc 5f 3e d9 be 65 b2 97 3d
       -0.23438653 -0.010722277 -0.42430398 0.07407073
000110 28 d8 34 3c 3c db b0 be 24 17 47 bd f5 c1 8f bc
       0.011037864 -0.34542263 -0.048606053 -0.01754854
000120 28 41 3b be 0d 9a 6a bf 74 f6 0d be bd ff ba be
       -0.18286574 -0.9164131 -0.13863546 -0.36523238
000130 7f ac 5e be 86 53 9f be df 10 ca be 8d d5 d7 3d
       -0.2174549 -0.3111841 -0.39465997 0.105387785
000140 77 d5 24 be d7 38 12 bf ef b7 91 be 45 c6 e6 bd
       -0.16097055 -0.5711798 -0.28460643 -0.11268286
000150 06 0a 1f 3d 9c 60 0e be df e4 93 be 55 01 80 bd
       0.03882792 -0.13904041 -0.28885552 -0.06250254
000160 bf 64 f7 3d 5b 3f ad be 94 05 62 be 52 17 7f be
       0.12079763 -0.338374 -0.2207244 -0.2491124
000170 55 bd d8 3d 15 d4 ef be c3 74 dc be c1 d4 5a 3d
       0.10582987 -0.46841493 -0.43057832 0.053425554
000180 33 0e d4 3c a5 97 17 bc b3 5f 51 be 62 bc 35 bf
       0.025885677 -0.0092524635 -0.20446663 -0.70990574
000190 24 33 4d 3c 3e 1c 4d 3d 2e b3 73 be 71 bb 41 be
       0.0125244 0.050075762 -0.2379882 -0.1891916
0001a0 6e c9 00 be 6b b5 09 be ab 19 95 be 8e 07 e5 bd
       -0.1257684 -0.13448112 -0.29121146 -0.111830816
0001b0 fd 3e 08 bf 46 35 26 bc 2e cd 6d be 19 80 09 be
       -0.5322111 -0.010144537 -0.23222801 -0.13427772
0001c0 77 01 c4 3c 60 c4 52 bc 52 da eb bd 96 f9 79 be
       0.02392648 -0.012864202 -0.11516251 -0.24411616
0001d0 0c b8 6c 3e 2a af 1a 3d a5 e9 c9 be fc 6b 87 3c
       0.23117083 0.037764706 -0.3943607 0.016530983

fc2.weight f4 [84, 120]
000000 79 a0 14 3d 71 31 27 be fa 6b 28 be 52 72 90 be
       0.03628585 -0.16327454 -0.1644744 -0.2821222
000010 6b eb 36 3e 3d 87 67 be 6f 98 cd 3e 5a fb 36 bb
       0.17863242 -0.22610183 0.4015536 -0.0027920813
000020 11 66 35 3e 39 3b 98 3e 8f 63 61 3e a7 6a 47 3c
       0.17714716 0.29732683 0.22010635 0.012171424
000030 11 e1 83 bd 5a cb 8c 3e 41 7e 1d bd c0 9f 50 3c
       -0.064394124 0.27498895 -0.038450483 0.0127334
000040 a6 7c b5 3e 32 0a 06 be 06 8d 2d be 10 ae 82 be
       0.35446662 -0.13089827 -0.16948327 -0.25523424
000050 e5 7e aa be 7e 26 ca 3c e9 ed ee 3d af c6 dc bc
       -0.33299938 0.024676558 0.116664715 -0.026950208
000060 84 3c 1f bf a4 5c 53 3d 33 8a f0 3d ce ab 5d bd
       -0.62201715 0.05160202 0.117451094 -0.054118924
000070 49 0b e3 3c bc 5d c3 3c d6 58 88 3e 3d 0b 9f 3e
       0.027715342 0.023848407 0.26630276 0.31063262
000080 cb 85 7c be 64 31 1c be 2b 4c 95 3e 68 62 bb bd
       -0.24660413 -0.15253216 0.29159674 -0.09149629
000090 0c 57 37 be 07 e8 41 bc 59 6c 75 be e8 77 c4 bc
       -0.179043 -0.011835105 -0.23967113 -0.023982957
0000a0 eb 46 1c 3d 11 cc da 3e be 7f 94 3c 41 33 c0 3d
       0.03815357 0.42733815 0.018127318 0.09384776
0000b0 45 37 d4 bd 1e 5a 00 bd c8 7f 9e be 8b 76 42 3e
       -0.10362104 -0.031335942 -0.30956864 0.18990533
0000c0 a1 ee 45 3c 83 f7 1d bf 19 6e c5 3d 70 71 3d bf
       0.012080819 -0.617058 0.0964014 -0.74001217
0000d0 b7 05 b8 be 01 b2 23 bf 96 64 92 3b 1b eb 52 3d
       -0.3594186 -0.6394349 0.004467557 0.051493745
0000e0 96 09 2d 3c 12 63 e7 bc 0e 51 43 3b 70 96 6b be
       0.0105613675 -0.028245483 0.002980295 -0.23006606
0000f0 b9 03 00 3f fd d1 52 3d f6 46 64 be bb 21 34 3b
       0.5000568 0.05146979 -0.22292694 0.0027485925
000100 38 4b 06 3f 72 00 ce 3e 6a b7 57 3d c6 dc 3a 3d
       0.52458525 0.40234715 0.05266515 0.045620702
000110 f5 d5 2f 3e b3 0d 2b bf 93 aa 12 bd f3 c3 6b bd
       0.17171462 -0.6681778 -0.035807204 -0.05755992
000120 72 50 95 be 01 20 80 3e 51 d8 8a 3e b8 78 65 3e
       -0.29162937 0.25024417 0.2711816 0.22409332
000130 26 e3 c0 be 48 7c c5 be 94 d2 64 bd a8 e7 a0 be
       -0.376733 -0.38571382 -0.055864885 -0.3142674
000140 a3 d5 b0 be 1f ad 3f 3e e4 80 48 bd 64 07 72 3e
       -0.34537992 0.18718384 -0.048951045 0.23635632
000150 1d f7 32 3e ab 30 20 bd 2c d1 03 3d 81 77 ea 3e
       0.17477079 -0.039108913 0.032181904 0.457943
000160 ca 0e 0a be 5c d6 b5 bd e3 ea 7b bd 8c 8e 21 3f
       -0.13482204 -0.088787764 -0.061503302 0.63108134
000170 5b 4a 43 be 4f 1e 22 3e 71 fe aa be 2d 46 53 3d
       -0.19071333 0.15831874 -0.33397248 0.051580597
000180 43 8a 2c bd 58 f7 34 bf 08 ec 14 3e 1b e9 99 3d
       -0.042124044 -0.70689917 0.14543164 0.075151645
000190 e5 ed 81 3e 14 9f 02 bd 00 9e 06 be 12 96 3a 3e
       0.25376812 -0.03188999 -0.1314621 0.1822131
0001a0 e2 ca 8b 3e 17 1e 00 3f 91 eb 72 bd 2a 76 90 bd
       0.27303225 0.50045913 -0.059306685 -0.07053788
0001b0 38 ae 12 3e 1f d3 78 3e d9 56 54 bd 96 6e 8e 3d
       0.14324272 0.24299286 -0.051840637 0.06954686
0001c0 73 5d a0 3d 28 77 7c bc 53 05 bc be 44 3f c5 3d
       0.07830324 -0.015409268 -0.36722812 0.096312076
0001d0 e1 59 ec bd ad 02 9b bd d2 ff de be fa 82 63 bd
       -0.115405805 -0.0756887 -0.4355455 -0.05554483
0001e0 2f 6e b6 be d3 4b c8 be 09 40 e9 bd 51 32 f1 bd
       -0.35630938 -0.3912035 -0.11389167 -0.11777175
0001f0 a7 ce 91 be 8f 96 a6 3e c8 a4 d3 bd 6a 25 df 3e
       -0.28477976 0.32536742 -0.10334164 0.43583232
000200 e6 83 95 3e 61 bb 4e 3e 18 02 3b bf a8 91 7b 3e
       0.29202193 0.20188667 -0.7305007 0.24567282
000210 10 64 64 3c 86 c5 01 3c 45 17 d1 3c ce 09 39 bd
       0.013939872 0.007920628 0.025523791 -0.045175366
000220 b3 39 62 3c eb 32 76 3e 41 79 c3 3e 7f 29 41 3e
       0.013807702 0.24042861 0.38178447 0.18863486
000230 0b 01 11 3e 79 89 30 bd 92 80 f3 3d 72 19 87 3d
       0.14160554 -0.043099854 0.11889757 0.0659665
000240 24 77 78 3e ec 33 71 bd f2 74 7d 3c 42 4d f9 bc
       0.24264199 -0.058887407 0.0154697765 -0.030432347
000250 2d 87 e4 3b 36 e2 48 bd 61 66 24 be de b2 1b 3e
       0.006974122 -0.049043857 -0.1605468 0.15204951
000260 60 cb 09 3e e4 85 45 3e d6 24 42 be 06 49 13 3f
       0.13456488 0.19289356 -0.18959364 0.575333
000270 a5 0c 42 bf b5 b8 35 bd 47 f1 0d be 25 3c 86 be
       -0.75800544 -0.044365603 -0.13861571 -0.26217762
000280 8a e8 9a be 70 eb 1a 3d dd 08 28 3d ff e1 0a 3e
       -0.30255538 0.037822187 0.041024078 0.13562773
000290 79 15 60 be 5d df 17 3f 29 dc bb be 91 ed a3 3c
       -0.21883191 0.593252 -0.36691406 0.020010741
0002a0 cd 45 50 3d 01 4c 18 3e d9 60 08 3d 73 0b 80 be
       0.050847817 0.14872743 0.033295486 -0.25008735
0002b0 ee bd c6 be f1 e8 b1 be 4b 9b 95 be cd 69 e0 ba
       -0.3881678 -0.34748033 -0.29220042 -0.0017121375
0002c0 e0 58 10 bf a3 5b a3 3d d7 2c 18 be 73 ec 1b 3e
       -0.5638561 0.07976463 -0.14860855 0.15226917
0002d0 9a ae 02 bf f5 7d 54 bd 84 d7 33 3e 17 c3 5c 3d
       -0.5104767 -0.051877934 0.17562681 0.05389699
0002e0 ec e5 24 be 21 a9 6a bd 61 af 9e 3d a1 c8 b6 3d
       -0.16103333 -0.0572902 0.077482946 0.08924986
0002f0 22 1e f9 bc ab 68 da 3d 58 a5 48 bd 9c bf 8a 3c
       -0.030409876 0.10664495 -0.04898581 0.01693707
000300 76 b0 93 3d 3a e0 d0 3d 48 35 19 bd de a8 93 3e
       0.07211392 0.10199018 -0.03740433 0.28839773
000310 55 d1 17 3f b4 38 4d be 6a 43 56 3d 40 75 13 bf
       0.5930379 -0.20041162 0.052310385 -0.57600784
000320 90 a9 cb 3d a1 23 5b 3d 08 a0 9a 3e ea 98 ea 3d
       0.09944451 0.053500775 0.3020022 0.11454947
000330 14 03 2a 3b ba 83 de be b2 23 97 3e c1 70 42 bd
       0.0025941776 -0.43459874 0.2951942 -0.04747081
000340 2c 93 87 be ec bb fb 3d f7 1a 83 be bb 26 1a 3e
       -0.2647947 0.12291703 -0.2560651 0.15053837
000350 e5 b3 b7 be 38 fb 09 3e e1 8e 7d 3e b8 df d1 3d
       -0.35879436 0.13474739 0.24761535 0.10247749
000360 75 26 e0 bc 74 6b 04 3d 3e 71 a4 be 43 4e a9 3e
       -0.027362088 0.032329038 -0.32117647 0.3306752
000370 f7 88 f9 bd b2 f3 38 3d d7 52 64 bb 44 0a b6 be
       -0.12184327 0.04515428 -0.0034839415 -0.35554707
000380 a4 47 fe 3e a6 6f 14 bf 96 a6 52 3d fc 05 81 3d
       0.49664032 -0.5798286 0.0514284 0.062999696
000390 8f dd 23 3e 50 bc 5e bd 28 07 1a 3e a1 65 a1 be
       0.16002487 -0.054378808 0.15041792 -0.3152285
0003a0 5a f8 12 bd ed b2 4f bd 32 72 8a 3d 06 51 96 3e
       -0.035881378 -0.050707746 0.06760062 0.2935869
0003b0 82 a8 c6 be 31 c6 ef 3b 1e f6 35 3e ba bd ab 3e
       -0.38800436 0.0073173274 0.17769668 0.33543187
0003c0 4c 72 d7 3e 4a ce 2c 3e 8a ba 70 be 1e 92 ce bd
       0.4207939 0.16875568 -0.23508659 -0.100864634
0003d0 3c 3e ec 3d 79 83 7d be f0 bc 36 3f ec 5b c7 be
       0.11535308 -0.24757184 0.71382046 -0.38937318
0003e0 0e 1c a7 be bf 6e 0b 3f 9a 4a 2e bf b3 73 d0 3e
       -0.32638592 0.5446586 -0.6808258 0.40713271
0003f0 4a da 68 bd 1b b2 47 3e de 70 a0 3c af f3 76 3a
       -0.0568488 0.19501536 0.01958507 0.0009420467

fc2.bias f4 [84]
000000 e3 22 b6 bd 73 f6 3a be 7f e4 e9 be 12 b2 c0 3c
       -0.08893373 -0.18258075 -0.4568214 0.02352241
000010 4a af c9 be 6d 3b 08 bf ac 56 6d be e8 78 d5 3c
       -0.39391547 -0.53215677 -0.23177594 0.02605863
000020 84 1f 69 be c1 c1 b3 3c 0c 37 71 be 8d 05 bd be
       -0.22765929 0.021942975 -0.23556155 -0.36918297
000030 68 9c 51 bd 76 e0 8d be 1a 21 8b be 5c ec 90 3e
       -0.05117455 -0.27710313 -0.27173692 0.28305328
000040 0c 7f 23 be 55 00 71 be 55 64 fc be be e1 ea b9
       -0.15966433 -0.23535283 -0.49295297 -0.0004480015
000050 5b 14 2a be 53 16 8a be f7 73 c6 be 34 0e e3 3d
       -0.16609327 -0.26970157 -0.3876035 0.110866934
000060 bf 1d 3e be 61 a9 03 3c 83 a6 31 be 46 95 ce be
       -0.18566035 0.008035989 -0.17348675 -0.40348262
000070 c1 58 50 bd 42 f6 d9 3d ac a3 37 be 37 ed c1 bd
       -0.050865892 0.10642673 -0.1793353 -0.09469073
000080 49 c3 0f be 6d 65 41 bf ee 6b 09 bf b0 3f 04 3e
       -0.14039339 -0.7554539 -0.5368031 0.1291492
000090 f4 39 3a 3d be 2c a9 3d e5 c7 d3 bd 4b 14 08 be
       0.045465425 0.08260487 -0.10340861 -0.13288991
0000a0 16 c8 0b 3e 6c 0e c9 be 61 7d c9 bb 5f 7a bd be
       0.13650545 -0.39268816 -0.0061489795 -0.37007424
0000b0 09 47 a8 be bc 7c 04 bd 9d d5 76 be c3 6a a4 be
       -0.32866696 -0.03234552 -0.24104924 -0.32112703
0000c0 ce 8f 94 3e 58 44 3f 3d 52 d8 8d be e1 a2 28 be
       0.29015964 0.046696037 -0.27704102 -0.16468383
0000d0 2c 32 b5 be 89 b5 12 be 81 d8 55 bd 90 78 e4 be
       -0.3538984 -0.14327063 -0.052208427 -0.44623232
0000e0 ab b2 61 be ab 17 a5 be 06 da 29 be 47 ad d8 be
       -0.22040813 -0.3224462 -0.16587076 -0.423197
0000f0 8e f2 74 be 8e 63 8b 3d 5b fb 0b 3d 6c f3 c8 be
       -0.23920652 0.06806098 0.034175258 -0.39248216
000100 98 7e 82 be 12 c9 07 bf ff 7f f8 be 97 bb 61 be
       -0.25487208 -0.53041184 -0.48535153 -0.22044216
000110 7a 1f e5 be 67 6f a6 be d9 4c 99 bb d9 ee bd be
       -0.44750577 -0.32506868 -0.0046783504 -0.3709629
000120 c6 56 da be 4b 20 c4 bd ed 8a f0 bd 90 b7 08 3e
       -0.42644328 -0.09576472 -0.11745248 0.13351274
000130 1d 3b 1a 3e 39 86 ac 3d ab 82 11 be eb c0 44 3e
       0.15061612 0.084240384 -0.14210002 0.19214217
000140 e0 62 c5 be 9a 40 b1 be 53 6d 69 3e a6 06 ac bd
       -0.38551998 -0.346196 0.2279561 -0.083997056

fc3.weight f4 [10, 84]
000000 9c cf 24 bf 5f 6a 79 be 7c ba 30 bf 99 a4 27 bf
       -0.64379287 -0.24356984 -0.6903455 -0.6548553
000010 8f 62 e5 be c1 42 5f bf f6 d1 d1 bd 76 c4 1f bf
       -0.44801757 -0.87211233 -0.10245125 -0.6240915
000020 30 58 16 bf 48 5a b1 bd f8 40 c2 be a7 55 86 bf
       -0.58728313 -0.08659798 -0.37940192 -1.0494889
000030 b3 6d 04 bf a7 54 83 bf 18 44 b6 bf 20 c2 4c bf
       -0.5172989 -1.0260209 -1.423953 -0.7998371
000040 28 02 25 bf f5 07 bc be 53 fc 67 bd 24 59 44 bd
       -0.64456415 -0.3672482 -0.05663712 -0.047936574
000050 1d 2d 17 3e f2 d6 dd be b2 7e ff 3c b4 3f 43 bf
       0.14763303 -0.43328053 0.031188343 -0.7626908
000060 01 4c 30 bf 58 af 54 be f6 09 dd be 60 a5 3e be
       -0.6886597 -0.20770013 -0.43171662 -0.18617773
000070 81 ff f6 be bf 6b 3b bf 08 2f 54 3d 72 ac 5a bf
       -0.4824181 -0.7321128 0.051802665 -0.8541938
000080 8a 8d be be 7c ee 8c be c9 4f 32 3d e8 dd 1e 3d
       -0.3721736 -0.275257 0.04353312 0.038785845
000090 84 0f b7 be 63 3c 1b bf b5 f6 4d bf 91 59 46 be
       -0.35754025 -0.6063902 -0.8045457 -0.19370104
0000a0 bf fb 92 be ff 73 52 be 2e 37 bf 3d c5 61 d1 3d
       -0.28707692 -0.20552061 0.093366966 0.10223726
0000b0 16 7b 08 bf 3e 0a 6f bf eb b2 17 bf 14 de 3f 3e
       -0.53312814 -0.93375003 -0.5925738 0.1873706
0000c0 6b 26 4f bf 43 c9 3d be 4f 02 e8 bd e5 83 09 bf
       -0.80917996 -0.18533807 -0.11328565 -0.5371688
0000d0 16 81 0d bf 74 27 60 bd 9d 1c 54 bf e1 72 8b 3d
       -0.55275095 -0.054725125 -0.8285616 0.06809021
0000e0 6c 0a 22 bf 37 ee 4f bf 7d e6 c0 3c 91 bc 53 be
       -0.6329715 -0.8122286 0.023547405 -0.20677401
0000f0 5e 3c 63 bf 1e de 8d 3d ad 5d 10 be 23 cd 18 3e
       -0.8876399 0.06927131 -0.14098234 0.14922003
000100 9c 7a 32 bf 67 30 87 bf 90 d3 b2 bd 29 01 81 bf
       -0.6971834 -1.0561646 -0.087317586 -1.0078479
000110 f4 33 0f bf eb ca 0c bd e9 fb ed bd 0f fc 9e bb
       -0.5593865 -0.034373205 -0.11620314 -0.004851825
000120 73 15 3c be 09 7a 94 3d 60 eb 01 3d 48 f4 bd 3d
       -0.18367557 0.07249839 0.03171861 0.092751086
000130 5d 08 19 bf 51 4b e3 bd 67 f0 54 bc 38 93 80 3d
       -0.59778386 -0.1109835 -0.0129967695 0.0627808
000140 73 ac 39 bf f2 6b f4 3d bb 09 6a bf 02 1d eb 3d
       -0.7252876 0.119346514 -0.914211 0.11480142
000150 22 de 76 bb 8d 4c 34 bf 47 7f 10 3e 80 2c 36 3c
       -0.0037669023 -0.7042931 0.14111052 0.011119008
000160 2d 07 c4 be 56 f6 41 bd f5 8a 02 3e 62 58 59 bf
       -0.38286725 -0.047354065 0.1274832 -0.84900486
000170 3e 2c d7 be 05 60 22 bf 6d a4 84 3d 13 2f fb bd
       -0.42025942 -0.63427764 0.06476674 -0.12264838
000180 77 90 81 bf 82 5e d3 be c0 ee 40 be 76 f5 90 3d
       -1.0122212 -0.4128304 -0.18841076 0.07078068
000190 94 98 38 3e 13 b7 db bc 71 8f 4f bf fe 6d b8 3d
       0.18026954 -0.026820695 -0.8107825 0.09005354
0001a0 cb 01 04 bf a0 d0 df be e5 7f 2e bf cb 8f 8c bb
       -0.51565236 -0.43713856 -0.681639 -0.0042896024
0001b0 45 4f 78 3d 01 c8 34 bf 0f 37 79 be a4 ab 89 bf
       0.060622472 -0.7061768 -0.2433741 -1.0755506
0001c0 5f 5a 37 bf 71 e8 f7 be 65 e5 0e 3e c8 49 7a be
       -0.7162227 -0.48419526 0.13954695 -0.24442208
0001d0 ce 07 e9 be 0b e9 fc be b6 39 eb be f2 7a 31 bf
       -0.45513767 -0.49396548 -0.45942467 -0.69328225
0001e0 d3 df 89 bf 07 cd d6 be 6d 26 12 bf 1f 1a 5f bf
       -1.0771431 -0.41953298 -0.57089883 -0.8714923
0001f0 e3 b3 0c bf 01 49 4f 3e 99 e8 45 bf 20 71 9b bd
       -0.54961985 0.20242693 -0.7730804 -0.07589936
000200 6e 86 c3 be b5 96 81 3d c6 e1 56 bd 01 43 0e bf
       -0.381885 0.06327573 -0.052461408 -0.5557099
000210 c0 62 58 bf 26 7b 62 3c be 4b 17 bf e9 75 9f bd
       -0.8452568 0.013823306 -0.5909995 -0.077861615
000220 1b be 0c bf 3f c1 e5 be db 51 16 bf 08 b3 3f bf
       -0.5497758 -0.44873998 -0.5871865 -0.74882555
000230 77 79 07 bf a7 c4 92 3d 34 1b c7 be 04 8f 98 bf
       -0.52919716 0.07166415 -0.38887942 -1.1918645
000240 4c 60 1c bf ad 98 34 bf 5e 18 1d bf 73 07 a0 3d
       -0.6108444 -0.70545465 -0.61365306 0.07813921
000250 9a 09 80 be 8b 59 8d bf 73 40 54 bf 4c 48 cd 3d
       -0.25007325 -1.1042951 -0.8291084 0.10023555
000260 88 f1 2a 3d de 89 53 be c2 ea 89 bf 54 b3 1f bf
       0.04173425 -0.20658061 -1.0774767 -0.6238301
000270 aa a6 e2 be dd 90 45 bf 2b bc b8 bd 2f 58 98 bc
       -0.4426778 -0.7717417 -0.09020265 -0.018596737
000280 e0 0a 1c bf a5 13 b7 bf 49 60 0c 3d 9b ca 3a bf
       -0.60954094 -1.430287 0.034271512 -0.729654
000290 64 84 15 bf 01 d3 18 bf 3d ab 0a bf 53 04 bc be
       -0.5840514 -0.59696966 -0.5416754 -0.3672205
0002a0 50 b1 18 be b8 f8 03 bf c1 84 58 be c0 26 2d bd
       -0.1491139 -0.5155139 -0.21144392 -0.042273283
0002b0 65 4a c0 be bc 20 d4 bd ba 74 65 3d 00 74 16 3d
       -0.3755676 -0.10357806 0.056019522 0.03673172
0002c0 bd a5 40 be 08 e6 53 3d ec 19 bb 3d 3b c1 af be
       -0.18813224 0.051733047 0.091358036 -0.3432711
0002d0 9e b7 47 be 27 ba 65 bf 49 d0 33 bd 44 cc a5 3d
       -0.19503638 -0.8973717 -0.043899808 0.08095601
0002e0 f6 9b 7d bd 9b 48 45 bf 7e c4 09 3d 5c e0 44 bf
       -0.061916314 -0.7706391 0.033634655 -0.76904845
0002f0 0a 89 21 bf 8c e8 b9 be 82 cd 26 bf f7 44 07 bf
       -0.6309973 -0.36310232 -0.6515733 -0.52839607
000300 b6 21 7f bd f8 b4 b5 be 44 89 87 3e 57 19 f9 be
       -0.06228801 -0.3548963 0.26471913 -0.48652145
000310 2f c5 a4 3e 69 3a 97 bf 68 8b 15 3e b7 a5 24 3d
       0.3218169 -1.18147 0.1460396 0.0401971
000320 39 30 3a bf 27 8a 98 3d 7d 49 33 3d da 8d 1e 3d
       -0.7272983 0.074482255 0.043771256 0.0387095
000330 1c bb 2a bf a0 d9 52 be 4a a9 f0 be 98 98 29 bf
       -0.66691756 -0.2059083 -0.47004157 -0.66248465
000340 f9 c5 58 bf 93 b8 fa be db 09 4a 3e 3a df 29 bd
       -0.8467708 -0.48968944 0.19730322 -0.04147265
000350 40 00 b9 be 00 28 f4 bd ea 16 3f bf 4d e4 0e 3e
       -0.36133003 -0.11921692 -0.7464434 0.13954277
000360 51 74 cc be 8a 09 51 bf 33 aa 75 bf 24 c2 12 be
       -0.39932492 -0.8165518 -0.9596283 -0.14331871
000370 d7 2a 30 bf 79 d6 5f be fd d6 8d bd d1 6f 31 bf
       -0.6881537 -0.21859159 -0.069257714 -0.69311243
000380 59 43 85 3d 5a 4b 09 bf f7 7d 24 bf 62 b1 48 be
       0.06506986 -0.536306 -0.6425471 -0.19598916
000390 77 51 b9 3d 12 32 1d be 3b 01 2e bf 1c 4a 39 bf
       0.09048741 -0.15351132 -0.6797063 -0.72378707
0003a0 8b a6 e7 be 56 1e ba be b9 0b b8 bc f9 0d 0e 3e
       -0.4524425 -0.3635127 -0.022466527 0.13872518
0003b0 df d3 46 bf a4 b9 30 3d e7 6d 67 be ef 01 85 bf
       -0.7766704 0.04314579 -0.22600518 -1.0391215
0003c0 5a e2 33 be 67 a6 9a 3d da 3f 7b bf 57 04 9a be
       -0.17566815 0.0755127 -0.98144305 -0.30081436
0003d0 d9 21 7a be f1 20 43 3e 9b cb 07 3d fa 3b 5f bf
       -0.24426974 0.19055535 0.033153158 -0.8720089
0003e0 d1 47 b5 bf 4c da 2e bf c0 55 43 bf 1a a0 90 be
       -1.4162542 -0.68301845 -0.7630272 -0.28247148
0003f0 ea f0 eb bd 98 f3 b2 be d1 46 ee 3d b3 9c 34 be
       -0.1152056 -0.34951472 0.11634601 -0.17637901

fc3.bias f4 [10]
000000 60 1e ab be 34 d0 19 be 52 09 73 3c 73 dc 12 bc
       -0.33421612 -0.1502083 0.014833765 -0.008963692
000010 12 4b a4 3b cf 1d 70 be 50 70 f9 bd 08 00 2a be
       0.005013832 -0.23448871 -0.12179625 -0.16601574
000020 61 66 a8 3e c8 39 10 3e
       0.3289061 0.14084542
